model/checkpoint_1350.tar (torch, 110796 bytes, 51 tensors)

encoder.1.weight f4 [50, 6]
-0.53678215 0.0089230165 0.0018405835 0.21218692 -0.3546325 0.1263657 -0.0022912952 -0.0020711925
0.0039377473 2.7396433 0.014060371 -0.14806402 -0.18562217 -0.17747211 0.008721939 -0.08731829
0.42486766 -0.30463567 0.20216776 0.0056536994 0.007138292 -0.12855555 0.0058461567 1.1850799
-0.033200428 -0.179399 0.0016180053 0.8355459 0.24691705 -0.54718435 0.64416456 0.025185572
0.007371687 0.05353671 0.05293743 1.1027708 -0.077909626 -0.22567867 -0.1156236 -0.24522154
0.20743145 -0.20399502 -0.8140988 0.15411004 -0.0043642316 -0.040632233 -0.12092597 -0.04902044
0.6993931 -0.007711268 -0.0035867337 0.87690276 0.66444695 0.041170273 -0.32257843 0.010814277
-0.18992507 -0.0022851604 0.19900371 0.17979088 -0.5031859 0.0028295238 0.0010013051 -0.97285086
-0.30470952 0.16166183 -0.23295024 -0.17829604 0.13712148 0.23495844 0.0057202694 -0.15880233
-0.18335938 -0.010920005 -0.031333573 1.1046693 -0.099639416 0.70615107 -0.5405792 0.0058207777
-0.00087533833 -0.7842892 -0.29799798 0.12421711 -2.5081315 0.0027039745 0.006838495 0.11276641
-0.47784305 0.447759 -0.6668729 0.00306528 0.0027322127 -0.086619064 -0.43865988 -0.07954411
-0.2630515 0.27836367 0.15802464 0.32245538 -0.30230463 -0.4002422 -1.0080985 -0.018307053
0.003980582 -0.8995022 0.72748536 0.59329915 -0.0007523125 -0.0037759338 -0.004061607 2.6378388
0.0046658902 -0.11612003 0.08570262 -0.3067651 -0.21843556 -0.19187394 -0.23100477 0.07239225
-0.17749678 -0.0016534106 0.0015854485 -0.705747 0.751767 0.085557304 -0.35401285 -0.2648779
0.15606268 0.15097354 -0.2524419 -0.12894572 -2.824426 0.010553939 -0.002125962 -0.438104
-0.3266179 0.22571161 0.33000708 -0.08659167 -0.06524193 0.1443541 0.06300523 -0.13417362
-0.2865556 -0.120489866 0.06395573 -0.11227083 0.5809274 0.073597826 -0.10581431 -0.3904747
-0.37333006 0.1723423 0.31235582 -0.002052372 -2.8011622 0.012792414 -0.0029662037 -0.7067823
-0.17204699 0.14633559 -2.5723283 0.0003279197 0.0042508626 -0.6201312 -0.12728576 -0.542382
0.8280508 -0.0023957954 0.0006676819 -1.2233413 0.64607054 0.04927549 -0.22642867 -0.026652021
-0.28906256 -0.01884136 0.22770408 -0.18348856 0.8353639 -0.012344189 -0.0026354291 0.5491508
-0.35878074 -0.24797735 0.06424799 -0.0048629777 -0.0063481745 -0.10919934 0.15755749 1.3725356
0.31308135 -0.39888585 0.04280408 -0.01946892 0.11000284 -0.100109704 0.07993775 -0.2173286
0.14454623 0.70482177 0.004734233 -0.22478992 -0.7268597 -0.020029549 0.0076270388 -0.005632614
-0.02054557 1.186394 0.0054552536 -0.00015322177 -0.0019013381 1.705181 0.3369041 -3.2208998e-05
0.22560409 0.13487719 0.039945517 -0.11837798 0.06318445 0.029255377 0.028307045 0.005556732
-0.0022990732 -0.7673648 0.04187453 0.75126886 0.0007904406 -0.0007310817 -0.0035568732 -0.24327865
0.25645497 1.5401573 1.1753433 0.0024923235 -0.0012532874 -0.40214825 -0.12803556 -0.63037527
-2.8328168 0.0042112703 0.00412057 -0.9042155 -0.32093525 0.23926501 0.0077405595 -0.0024316225
-0.004145126 2.5838137 -0.39291307 -0.19827053 -0.62130576 -1.5058118e-05 0.0061291433 0.18181738
00000000: 8e6a 09bf d831 123c bc3f f13a 8747 593e
00000010: 6492 b5be 0366 013e 8e29 16bb d8bc 07bb
00000020: 3808 813b 5156 2f40 785d 663c 189e 17be
00000030: bd13 3ebe 40bb 35be 77e6 0e3c eed3 b2bd
00000040: 4188 d93e 35f9 9bbe 1105 4f3e ab42 b93b
00000050: 55e8 e93b 11a4 03be 1e91 bf3b b3b0 973f
00000060: 2cfd 07bd 5fb4 37be 4013 d43a 56e6 553f
00000070: d3d7 7c3e 4614 0cbf f8e7 243f f951 ce3c
00000080: 318e f13b 4f49 5b3d ebd4 583d 9827 8d3f
00000090: 158f 9fbd 4f18 67be 11cc ecbd 5b1b 7bbe
000000a0: e968 543e 12e4 50be c768 50bf 06cf 1d3e
000000b0: d401 8fbb fc6d 26bd 09a8 f7bd a8c9 48bd
000000c0: 6d0b 333f ceae fcbb 680f 6bbb b37c 603f
000000d0: 3219 2a3f 29a2 283d 0029 a5be 5e2e 313c
000000e0: b87b 42be a1c2 15bb a1c7 4b3e 1a1b 383e
000000f0: cbd0 00bf 886f 393b 393e 833a c10c 79bf
00000100: e302 9cbe ae8a 253e 828a 6ebe 3d93 36be
00000110: 9369 0c3e f298 703e 1971 bb3b 149d 22be
00000120: 90c2 3bbe d2e9 32bc a257 00bd ce65 8d3f
00000130: c00f ccbd 51c6 343f 6663 0abf 39bc be3b
00000140: f676 65ba 2dc7 48bf 3193 98be 8a65 fe3d
00000150: 3a85 20c0 2a35 313b 7415 e03b 13f2 e63d
00000160: d8a7 f4be ab40 e53e 2fb8 2abf dde2 483b
00000170: ec0e 333b 5665 b1bd 0798 e0be 06e8 a2bd
00000180: b0ae 86be af85 8e3e 36d1 213e df18 a53e
00000190: acc7 9abe 8cec ccbe 5f09 81bf acf8 95bc
000001a0: 8b6f 823b c745 66bf 7b3c 3a3f 74e2 173f
000001b0: d636 45ba a875 77bb 3b17 85bb 5ad2 2840
000001c0: 53e4 983b 57d0 edbd db84 af3d 5110 9dbe
000001d0: 92ad 5fbe 9a7a 44be 848c 6cbe 6342 943d
000001e0: b7c1 35be 41b7 d8ba d3ce cf3a d6ab 34bf
000001f0: cd73 403f ab38 af3d 2c41 b5be 139e 87be
00000200: e5ce 1f3e cf98 1a3e 1140 81be 590a 04be
00000210: 65c3 34c0 6eea 2c3c b953 0bbb 2b4f e0be
00000220: 763a a7be f220 673e b0f6 a83e f956 b1bd
00000230: 909d 85bd 90d1 133e e308 813d cf64 09be
00000240: 6ab7 92be 64c3 f6bd 39fb 823d 40ee e5bd
00000250: a8b7 143f 75ba 963d 2cb5 d8bd 4dec c7be
00000260: 1e25 bfbe 807a 303e 1aed 9f3e 1781 06bb
00000270: 3e46 33c0 4697 513c a464 42bb afef 34bf
00000280: 162d 30be ffd8 153e 07a1 24c0 a3ec ab39
00000290: d24a 8b3b ebc0 1ebf 3357 02be 8cd9 0abf
000002a0: 23fb 533f c702 1dbb 6007 2f3a 7396 9cbf
000002b0: e164 253f 19d5 493d ebdc 67be 5755 dabc
000002c0: 0200 94be 3259 9abc 422b 693e 6de4 3bbe
000002d0: 69da 553f 483f 4abc 2ab7 2cbb 2695 0c3f
000002e0: 1cb2 b7be c6ed 7dbe 7394 833d 9d59 9fbb
000002f0: 5904 d0bb e7a3 dfbd c056 213e 3faf af3f
00000300: 334c a03e c43a ccbe 5553 2f3d 497d 9fbc
00000310: 2b49 e13d 5106 cdbd 67b6 a33d 638b 5ebe
00000320: ed03 143e 336f 343f a021 9b3b 542f 66be
00000330: 7a13 3abf 0215 a4bc 3dec f93b ca91 b8bb
00000340: 2f4f a8bc c2db 973f fcc1 b23b 28aa 20b9
00000350: 5236 f9ba 5f43 da3f b27e ac3e 2618 07b8
00000360: c204 673e 3f1d 0a3e e99d 233d 2870 f2bd
00000370: d966 813d f9a8 ef3c 2de4 e73c 3f15 b63b
00000380: 0cac 16bb 0572 44bf a184 2b3d 2853 403f
00000390: 9235 4f3a 10a6 3fba 6e1a 69bb 0a1e 79be
000003a0: 114e 833e e023 c53f a671 963f 4056 233b
000003b0: 5945 a4ba 60e6 cdbe c11b 03be 4660 21bf
000003c0: df4c 35c0 b2fe 893b d905 873b ab7a 67bf
000003d0: a051 a4be e301 753e 85a4 fd3b db5b 1fbb
000003e0: d6d3 87bb 345d 2540 e72b c9be 6e07 4bbe
000003f0: e50d 1fbf 20a2 7cb7 fbd6 c83b 562e 3a3e

encoder.1.bias f4 [50]
0.24974804 -0.0051699486 -0.015152191 -0.15551199 -0.08727544 -0.5298774 -0.13396455 -0.0427339
-0.35911357 -0.3330107 0.20503914 -0.39319113 -0.9727417 0.23869659 0.015715364 0.33895797
-0.36050817 0.009240973 0.0020093983 -0.26781815 0.09040501 -0.14316614 0.011777671 -0.36683345
-0.056315638 -0.30750054 0.011409403 0.017784502 -0.42201957 -0.2416428 -0.45037457 -0.24746789
-0.419224 -0.366439 0.0053649703 -0.00034189443 -0.3500235 -0.024656 -0.37427366 -0.72011614
0.017110085 -0.003617679 0.004395894 -0.4986524 -0.73262686 0.003114392 -0.006269464 0.017804831
-0.2836148 -0.0038796717
00000000: f3bd 7f3e ac68 a9bb e540 78bc 893e 1fbe
00000010: 77bd b2bd 0ca6 07bf 012e 09be be09 2fbd
00000020: bcdd b7be 6180 aabe c8f5 513e 5950 c9be
00000030: 9a05 79bf e16c 743e 82bd 803c e68b ad3e
00000040: 8794 b8be 7367 173c 1cb0 033b 761f 89be
00000050: 4326 b93d 259a 12be 22f7 403c 98d1 bbbe
00000060: 3aab 66bd b670 9dbe 81ee 3a3c ceb0 913c
00000070: f312 d8be 3671 77be 7f97 e6be 3968 7dbe
00000080: 87a4 d6be e59d bbbe a2cc af3b 4b40 b3b9
00000090: 4836 b3be 61fb c9bc cca0 bfbe 8859 38bf
000000a0: 732a 8c3c 9516 6dbb 6e0b 903b 5e4f ffbe
000000b0: 6f8d 3bbf d41a 4c3b 1370 cdbb 70db 913c
000000c0: f635 91be 1742 7ebb

encoder.4.weight f4 [50, 50]
0.042711798 -0.38177028 -0.15278013 -0.056432173 -0.24821253 0.10222894 -0.018044734 0.04930619
0.076630875 0.088675626 0.15131266 0.0053146165 -0.09596308 0.007816592 0.23856443 -0.042198896
-0.14048405 0.0023730504 -0.3820327 -0.09891259 -0.013475514 0.03254092 0.25800663 -0.02538535
-0.031022673 -0.03465613 0.13971183 0.31080022 0.050240178 0.10078159 0.13341759 -0.12774883
0.037519407 0.06642168 0.09624245 -0.31643263 -0.0007795671 -0.08160991 -0.018692024 0.25092626
0.26375705 -0.34099358 -0.054770015 -0.0715604 0.4875433 -0.015526003 -0.3002624 -0.0075323693
0.06997867 -0.12170988 -0.010337004 -0.012434131 0.04258635 -0.10734141 -0.02507007 0.19579968
-0.07204909 -0.00764125 -0.062947676 0.07474837 -0.06773638 -0.106248334 -0.113583595 0.25973943
0.12769128 -0.02934817 -0.13451517 0.015529473 -0.0021317126 0.016348662 -0.01690889 -0.0307806
0.25556135 0.05162498 0.018039685 -0.07649078 0.38592803 0.3860008 -0.024105804 0.13109224
-0.08718958 -0.15266411 0.027049428 0.03430194 0.15660353 -0.09952233 0.09532315 0.0052117035
-0.15458229 0.3791107 0.3067292 -0.008785878 -0.11452722 -0.09565525 0.26536918 0.13769233
-0.12777466 -0.09031923 -0.032414634 0.042831093 0.02727915 -0.45764375 0.06853131 0.07516431
-0.042706158 0.03073029 -0.04272896 0.00885273 -0.19298628 0.14051934 0.046998262 0.1344255
0.12719999 0.055250827 -0.2446161 0.02584527 -0.05302434 -0.039502922 -0.36137196 0.07875923
0.2386905 -0.10987965 -0.23980382 0.042074706 -0.019304706 0.06512114 0.031011507 -0.05647326
-0.20321769 -0.040902622 -0.32082567 0.12918295 0.098047666 -0.13429996 0.06150403 -0.053939126
0.10811109 0.06867858 0.0504517 -0.2524128 -0.04520843 -0.20134577 -0.119301066 -0.006094168
-0.16888513 0.10304851 -0.0052712904 -0.10435394 -0.102363504 -0.18374774 -0.27765217 -0.23468286
-0.033118512 -0.07663554 -0.07067928 0.22446965 0.12488482 0.056725163 0.059122413 -0.11397273
-0.10064108 -0.120160505 0.10269332 -0.22801802 0.023556534 -0.21084335 -0.09787489 -0.28277385
-0.22719032 -0.0646535 -0.3523918 0.10003755 -0.067893095 -0.016826987 -0.060498502 0.05873005
-0.062516384 -0.017239468 0.030114412 0.097589634 0.12607488 -0.12209814 -0.035572503 -0.112215854
0.057224736 -0.2599011 0.021439571 -0.3171657 -0.005966818 0.3166366 -0.09302354 -0.22059594
-0.18785228 0.13089131 0.46508187 -0.06127262 -0.3101575 0.061131667 0.10680705 -0.12255871
0.03545964 -0.21066062 0.031339575 0.4779472 -0.11936659 0.378592 -0.07108307 0.16723175
-0.015253308 -0.094189845 -0.023606235 0.11147852 -0.023159422 -0.00803546 0.027354687 -0.009922858
-0.11593388 -0.020288922 -0.2533587 0.033663295 -0.008804517 -0.042427503 -0.0595222 0.08354771
0.032745063 0.06622131 0.095074736 0.09660385 0.0012251002 0.056524806 -0.04739041 0.46039099
-0.05421639 0.11397192 0.35358515 0.034377217 -0.13488407 -0.076747246 0.45473704 0.20504825
-0.011682202 -0.2530973 -0.0036649 0.10426655 -0.08022254 0.050727688 0.0042095887 -0.11000407
-0.07823789 0.14892173 -0.01571894 -0.056492273 0.028439313 0.22270091 0.050643343 0.28671205
00000000: 91f2 2e3d 6577 c3be 6572 1cbe 6c25 67bd
00000010: 6d2b 7ebe 685d d13d 8dd2 93bc 4af5 493d
00000020: a6f0 9c3d 919b b53d b5f1 1a3e 3c26 ae3b
00000030: 4b88 c4bd 2a11 003c 3c4a 743e c0d8 2cbd
00000040: 0ddb 0fbe 2e85 1b3b ca99 c3be af92 cabd
00000050: 67c8 5cbc a149 053d 7219 843e f0f4 cfbc
00000060: 4323 febc 96f3 0dbd 9e10 0f3e 3521 9f3e
00000070: a5c8 4d3d 9466 ce3d 9f9e 083e 97d0 02be
00000080: f3ad 193d 1708 883d c31a c53d 7503 a2be
00000090: dd5b 4cba 1923 a7bd 0420 99bc 6879 803e
000000a0: 2a0b 873e b696 aebe 8656 60bd 428e 92bd
000000b0: 479f f93e c760 7ebc febb 99be 18d2 f6bb
000000c0: fa50 8f3d 0843 f9bd 8a5c 29bc 86b8 4bbc
000000d0: 066f 2e3d d0d5 dbbd bf5f cdbc b67f 483e
000000e0: 798e 93bd 7363 fabb b6ea 80bd ac15 993d
000000f0: 5fb9 8abd ba98 d9bd 849e e8bd 91fc 843e
00000100: 81c1 023e 936b f0bc 58be 09be 556f 7e3c
00000110: 34b4 0bbb a1ed 853c 8384 8abc 9927 fcbc
00000120: f0d8 823e b774 533d f6c7 933c 33a7 9cbd
00000130: 5c98 c53e e6a1 c53e 8979 c5bc 0b3d 063e
00000140: 7390 b2bd fb53 1cbe c396 dd3c 3180 0c3d
00000150: ad5c 203e 5dd2 cbbd c938 c33d f0c6 aa3b
00000160: d24a 1ebe cc1a c23e 9c0b 9d3e a5f2 0fbc
00000170: 3f8d eabd e6e6 c3bd 78de 873e 38ff 0c3e
00000180: 5cd7 02be 4af9 b8bd 35c5 04bd a86f 2f3d
00000190: 8678 df3c 4850 eabe 255a 8c3d bfef 993d
000001a0: a7ec 2ebd 17be fb3c 9004 2fbd 0a0b 113c
000001b0: 329e 45be 4de4 0f3e 4081 403d d7a6 093e
000001c0: b740 023e b14e 623d a57c 7abe 76b9 d33c
000001d0: 0d30 59bd d1cd 21bd bf05 b9be 854c a13d
000001e0: 486b 743e 9508 e1bd 228f 75be 8756 2c3d
000001f0: e724 9ebc 3b5e 853d d80b fe3c 8150 67bd
00000200: 4c18 50be 8289 27bd 4343 a4be 8948 043e
00000210: 37cd c83d ee85 09be a6eb 7b3d 46ef 5cbd
00000220: 5969 dd3d 5ba7 8c3d 71a6 4e3d 403c 81be
00000230: 7a2c 39bd 962d 4ebe 1e54 f4bd 96b1 c7bb
00000240: 39f0 2cbe 190b d33d caba acbb 85b7 d5bd
00000250: f5a3 d1bd 5e28 3cbe 6d28 8ebe b450 70be
00000260: 47a7 07bd 18f3 9cbd 4cc0 90bd 5fdb 653e
00000270: 9dc3 ff3d a558 683d 582a 723d 896a e9bd
00000280: e91c cebd b616 f6bd e050 d23d 8e7d 69be
00000290: a2f9 c03c 52e7 57be a172 c8bd bcc7 90be
000002a0: 94a4 68be 0e69 84bd b36c b4be 7de0 cc3d
000002b0: 890b 8bbd c0d8 89bc 47cd 77bd ec8e 703d
000002c0: 9708 80bd c939 8dbc 80b2 f63c 13dd c73d
000002d0: c619 013e 970e fabd 79b4 11bd 6dd1 e5bd
000002e0: 7c64 6a3d c211 85be 0aa2 af3c 8b63 a2be
000002f0: 4c85 c3bb 311e a23e 2083 bebd e7e3 61be
00000300: 595c 40be 5f08 063e 361f ee3e 00f9 7abd
00000310: f7cc 9ebe 3365 7a3d a8bd da3d 1000 fbbd
00000320: 213e 113d 6bb7 57be ed5d 003d 7fb5 f43e
00000330: 7976 f4bd d0d6 c13e 0094 91bd cd3e 2b3e
00000340: 03e9 79bc 9be6 c0bd dd61 c1bc da4e e43d
00000350: d4b8 bdbc 29a7 03bc f016 e03c 7c93 22bc
00000360: be6e edbd f434 a6bc 3bb8 81be 86e2 093d
00000370: d240 10bc 76c8 2dbd 8dcd 73bd 101b ab3d
00000380: b01f 063d 0a9f 873d 8bb6 c23d 3dd8 c53d
00000390: 8b93 a03a 8e86 673d 721c 42bd 5eb8 eb3e
000003a0: 0112 5ebd 1c6a e93d 1d09 b53e 20cf 0c3d
000003b0: 0d1f 0abe a92d 9dbd 4bd3 e83e 2bf8 513e
000003c0: b566 3fbc f895 81be d22e 70bb b389 d53d
000003d0: b74b a4bd d6c7 4f3d 97f0 893b d049 e1bd
000003e0: 303b a0bd f07e 183e 02c5 80bc 7164 67bd
000003f0: 90f9 e83c b50b 643e 656f 4f3d eccb 923e

encoder.4.bias f4 [50]
0.0010644076 -0.022339417 0.0071279206 0.011989562 -0.009500708 -0.00024604317 -0.7243816 -0.003685363
-0.39263555 -0.01470992 -0.0029659641 0.017543066 -0.0031696856 -0.0019883595 -0.35801995 -0.04469948
0.010950195 -0.0038937847 -0.017330324 -0.68879044 -0.13651897 -0.011164206 -0.29157934 -0.006873504
-0.0007261892 -0.006517193 -0.0042163827 -0.011174499 0.010917343 -0.006696884 -0.0035982712 -0.025427846
0.015064679 -0.15319881 -0.3163206 -0.18569167 -0.38415346 -0.05770052 -0.6711355 -0.0027806584
0.0075261476 -0.22272263 -0.014062077 -0.15457426 -0.17986587 0.010880813 -0.45784038 -0.023255026
-0.005392365 0.009902592
00000000: 9883 8b3a 2701 b7bc 5591 e93b de6f 443c
00000010: dca8 1bbc 5bff 80b9 1371 39bf 2286 71bb
00000020: 8707 c9be e001 71bc 9f60 42bb 7ab6 8f3c
00000030: 80ba 4fbb 234f 02bb 644e b7be cd16 37bd
00000040: 7268 333c de2e 7fbb 53f8 8dbc 9254 30bf
00000050: a1cb 0bbe 13ea 36bc e349 95be 213b e1bb
00000060: bb5d 3eba 2d8e d5bb 9529 8abb 3f15 37bc
00000070: a8de 323c 8971 dbbb f9d0 6bbb 0f4e d0bc
00000080: d8d1 763c 26e0 1cbe c6f4 a1be f525 3ebe
00000090: c3af c4be 6157 6cbd 89cf 2bbf b53b 36bb
000000a0: e79d f63b 6711 64be a064 66bc b748 1ebe
000000b0: c22e 38be 7045 323c 0e6a eabe 5381 bebc
000000c0: 70b2 b0bb 7b3e 223c

encoder.7.weight f4 [20, 50]
0.17537378 0.21886836 0.021220563 -0.32093218 0.035016935 0.033111896 -0.08136982 0.8925519
-0.050424986 0.49192345 0.033107694 -0.32838383 -0.42940968 -0.23660883 -0.13068967 0.3689207
0.019999662 0.6030392 -0.25739503 -0.04626895 -0.07663321 0.47859964 -0.14774606 0.7147892
-0.07408108 0.77286196 0.57642084 0.78034806 -0.27381784 0.013311293 -0.29362577 0.5632704
-0.12577076 -0.009692062 -0.07974485 -0.05552905 -0.05635406 0.012728855 0.095058955 -0.31915483
-0.21168903 -0.09557213 0.1360827 0.20939212 0.12918682 -0.37221652 -0.09112901 0.13600536
-0.367602 -0.33996055 0.0006373897 0.024252404 -0.007897087 0.016117524 0.26933426 0.34041834
0.016348865 0.2405872 0.27664483 0.34515116 0.3488774 0.009329857 -0.012422686 -0.0072032046
0.30002123 0.015387099 -0.033001702 0.27707255 -0.006479176 0.14855392 0.11243089 0.09171715
-0.01755842 0.30933887 0.010964023 0.07240497 0.22580612 0.13965645 0.0070718634 0.43031457
-0.0015549619 0.018097559 0.0038509748 -0.05237064 0.3579447 -0.046077177 0.27894583 0.0018257251
0.18063144 -0.0038894764 0.015965778 0.16556813 0.0090144295 0.35073087 -0.033506233 -0.0040716603
0.32509768 0.01878195 -0.0027340413 0.0044569434 0.5497741 0.29177505 -0.40673757 0.38442007
-0.1193014 -0.2689468 -0.24552467 -0.09054517 -0.19578256 -0.2887891 -0.35291544 -0.0074878354
0.0068402947 -0.08564807 0.009794725 -0.23867665 -0.3048283 -0.17104006 0.05384033 -0.16387719
-0.30040532 -0.07718517 -0.5818252 -0.16591638 -0.08592526 -0.05524938 -0.044639442 -0.16979736
0.3767629 -0.13287717 0.021509115 -0.12841251 0.16747053 0.111889765 -0.24796234 0.020741038
-0.35692176 0.08744265 -0.21303964 0.00904067 0.45218682 0.033206098 -0.30131468 -0.51073414
0.12716226 0.1353192 -0.0050798673 0.56626946 0.009530241 0.2979603 0.024409343 0.072438546
-0.124462985 0.0072941803 0.0039464156 0.0012115617 -0.07115197 0.15006806 -0.1736493 0.5180975
0.015738893 -0.0052033863 0.22695653 0.27017665 0.040250592 -0.06324091 -0.08912151 0.20420939
0.32802236 -0.21430655 0.008591752 0.21471809 0.33300638 0.21343549 0.21233429 0.277433
0.35517788 0.22860616 0.009799682 0.0012801291 0.3502972 0.041196745 0.012545148 0.028970925
0.30906737 -0.06852355 -0.04922118 0.47646785 -0.07121127 0.16788916 0.003282859 -0.04648852
0.026109034 0.4277385 0.13172582 0.014672371 -0.088673264 0.031023266 0.1432712 0.014324791
-0.3175576 0.03616445 -0.1305681 -0.2859993 0.011234636 -0.08143837 -0.14255649 -0.06158736
-0.25092137 0.042162094 0.02099487 -0.014591324 0.26198024 0.34545892 0.0028185255 -0.20080361
-0.14600636 -0.030773897 0.19210885 -0.23521595 -0.0010491672 -0.18046685 0.4225334 -0.01970842
0.40674546 -0.0405273 -0.015978063 0.002879034 -0.1166765 0.03434491 0.19247597 -0.119209476
-0.08800357 -0.05619632 0.07835579 -0.035428666 -0.10215888 0.38261062 -0.0680282 0.27153683
-0.19382115 0.13382797 0.2292564 0.249405 0.056469586 -0.11844461 0.051164284 -0.27885953
0.30680007 -0.18014002 -0.2952476 -0.30893677 0.14528641 -0.32248905 0.4588408 0.32939538
00000000: 2f95 333e 071f 603e bfd6 ad3c 3951 a4be
00000010: eb6d 0f3d 57a0 073d 38a5 a6bd 487e 643f
00000020: 6e8a 4ebd 64dd fb3e ef9b 073d ed21 a8be
00000030: 96db dbbe 9649 72be 83d3 05be 2de3 bc3e
00000040: 55d6 a33c c760 1a3f 48c9 83be 8384 3dbd
00000050: dff1 9cbd 030b f53e be4a 17be 6dfc 363f
00000060: d2b7 97bd 48da 453f 5190 133f e4c4 473f
00000070: da31 8cbe 9c17 5a3c 1e56 96be 7d32 103f
00000080: 0dca 00be 74cb 1ebc 4551 a3bd 6e72 63bd
00000090: 84d3 66bd b08c 503c 45ae c23d 4368 a3be
000000a0: 02c5 58be 52bb c3bd 4359 0b3e e36a 563e
000000b0: 8d49 043e 2a93 bebe d9a1 babd fd44 0b3e
000000c0: 5436 bcbe 4f0f aebe 8016 273a faac c63c
000000d0: c962 01bc e608 843c 2ee6 893e 504b ae3e
000000e0: 0eee 853c 7e5c 763e 64a4 8d3e a7b7 b03e
000000f0: 0fa0 b23e 42dc 183c 8688 4bbc dc08 ecbb
00000100: 629c 993e 2c1a 7c3c cb2c 07bd 74dc 8d3e
00000110: 454f d4bb 851e 183e 2b42 e63d 33d6 bb3d
00000120: add6 8fbc aa61 9e3e 72a2 333c 0f49 943d
00000130: b839 673e 1a02 0f3e 17bb e73b 3152 dc3e
00000140: ddcf cbba 5541 943c a360 7c3b 9982 56bd
00000150: 8744 b73e 6cbb 3cbd fdd1 8e3e 2b4d ef3a
00000160: 73f7 383e 96e6 7ebb aaca 823c b18a 293e
00000170: 42b1 133c ff92 b33e d53d 09bd 906b 85bb
00000180: 3473 a63e 9bdc 993c 9a2d 33bb 8d0b 923b
00000190: ffbd 0c3f 8a63 953e e83f d0be b5d2 c43e
000001a0: 4b54 f4bd 65b3 89be d26a 7bbe bf6f b9bd
000001b0: 397b 48be 2adc 93be 55b1 b4be 845c f5bb
000001c0: 8d24 e03b 4168 afbd 0e7a 203c a767 74be
000001d0: 7412 9cbe 2025 2fbe ae87 5c3d 6ccf 27be
000001e0: bace 99be 4213 9ebd 7ff2 14bf fce5 29be
000001f0: 95f9 afbd 2d4d 62bd d9d7 36bd 5cdf 2dbe
00000200: 11e7 c03e f410 08be e233 b03c 927e 03be
00000210: 657d 2b3e 7626 e53d d7e9 7dbe 1ce9 a93c
00000220: 73be b6be 2215 b33d 1027 5abe 511f 143c
00000230: 0885 e73e 1e03 083d eb45 9abe 79bf 02bf
00000240: d336 023e 1e91 0a3e 0475 a6bb 09f7 103f
00000250: ba24 1c3c 418e 983e 1af6 c73c a95a 943d
00000260: 73e6 febd 0504 ef3b ef50 813b 44cd 9e3a
00000270: 20b8 91bd 71ab 193e 1fd1 31be 0aa2 043f
00000280: daee 803c 2b81 aabb 4b67 683e 9854 8a3e
00000290: cedd 243d 7384 81bd 5785 b6bd 441c 513e
000002a0: 8cf2 a73e 2d73 5bbe 6bc4 0c3c 0fdf 5b3e
000002b0: d07f aa3e d58e 5a3e 296e 593e b30b 8e3e
000002c0: e0d9 b53e bc17 6a3e d88e 203c 01ca a73a
000002d0: 285a b33e ebbd 283d 2a8a 4d3c 6f54 ed3c
000002e0: 143e 9e3e 1356 8cbd 269c 49bd 98f3 f33e
000002f0: 37d7 91bd 23eb 2b3e 3c25 573b bf6a 3ebd
00000300: 9de2 d53c 8a00 db3e 22e3 063e 6264 703c
00000310: 549a b5bd 8124 fe3c afb5 123e 87b2 6a3c
00000320: e996 a2be 2d21 143d a5b3 05be 806e 92be
00000330: 7b11 383c 29c9 a6bd 54fa 11be 0743 7cbd
00000340: c478 80be 29b2 2c3d 6ffd ab3c 7310 6fbc
00000350: 4622 863e fedf b03e 03b7 383b 769f 4dbe
00000360: b182 15be 8a19 fcbc 2fb8 443e 73dc 70be
00000370: 3684 89ba 4dcc 38be 4c56 d83e 8d73 a1bc
00000380: f140 d03e f4ff 25bd 6de4 82bc 2dae 3c3b
00000390: 17f4 eebd 40ad 0c3d 6c18 453e 1924 f4bd
000003a0: 373b b4bd 1d2e 66bd 0079 a03d a61d 11bd
000003b0: ad38 d1bd 8ae5 c33e 5e52 8bbd e006 8b3e
000003c0: 0d79 46be 330a 093e 31c2 6a3e 0664 7f3e
000003d0: a74c 673d 1693 f2bd a491 513d adc6 8ebe
000003e0: e614 9d3e a076 38be b22a 97be f62c 9ebe
000003f0: f6c5 143e 491d a5be 2eed ea3e 83a6 a83e

encoder.7.bias f4 [20]
0.0043904446 -0.00502052 -0.007822895 7.681234e-05 -0.004464335 0.008361371 -0.25844443 -1.313884
0.0043932977 -0.0066059227 -0.20889342 0.000450165 -0.430638 0.0018816052 -0.00034776423 -0.0013022821
-0.0020766642 0.003681115 -0.0023920531 -0.56711835
00000000: b8dd 8f3b 2d83 a4bb 9a2b 00bc 5016 a138
00000010: 8e49 92bb 22fe 083c d452 84be 5a2d a8bf
00000020: a7f5 8f3b 7f76 d8bb 28e8 55be 2004 ec39
00000030: 957c dcbe 32a0 f63a 2054 b6b9 56b1 aaba
00000040: a518 08bb dd3e 713b fec3 1cbb ab2e 11bf

encoder.10.weight f4 [4, 20]
0.9288128 0.18345726 -0.82084453 -0.27390593 -0.4547144 0.34629038 0.7214137 1.4298434
0.81740266 -0.601271 -0.17579809 0.27941737 0.43296242 1.0938534 -0.45856443 1.1044942
-0.25567612 -0.28301835 -0.37633166 1.0068167 -0.49284303 -0.7506156 -0.7140822 0.06162032
0.81361365 -0.55368 -0.17176545 0.5795823 -0.43814582 -0.5219526 -0.10924605 -0.61360705
-0.12556593 -0.5513897 0.8316235 -0.5579757 -0.08368883 0.31644663 0.5981186 -0.02596087
-0.8844024 0.15982546 0.54341847 -0.07757201 0.60249054 0.64131045 0.26918262 -0.04622767
-0.807096 0.45759225 -0.19114405 0.50534445 0.46040216 -1.0301002 0.6239067 -1.0359708
-0.15528727 0.1594498 0.40863153 -0.0213252 0.6350912 -0.22624874 0.59176904 -0.5333002
-0.45137385 0.014991851 -0.18843481 -0.49575934 0.5252722 0.40266442 -0.14533956 -0.07520172
-0.41047534 0.75928193 -0.45204175 0.77124465 -0.5403901 -0.4103813 -0.43965697 -0.3182236
00000000: adc6 6d3f 38dc 3b3e de22 52bf 663d 8cbe
00000010: 53d0 e8be f94c b13e 91ae 383f 1c05 b73f
00000020: 4d41 513f e5ec 19bf 6a04 34be cb0f 8f3e
00000030: 40ad dd3e 6303 8c3f f5c8 eabe 1160 8d3f
00000040: fbe7 82be c8e7 90be 8bae c0be 5fdf 803f
00000050: ec55 fcbe 5828 40bf 17ce 36bf 9765 7c3d
00000060: fc48 503f f9bd 0dbf 48e3 2fbe 815f 143f
00000070: a654 e0be b09e 05bf 65bc dfbd 5a15 1dbf
00000080: 5b94 00be e027 0dbf 47e5 543f 7fd7 0ebf
00000090: 0d65 abbd 4b05 a23e 4d1e 193f e4ab d4bc
000000a0: 3268 62bf 49a9 233e 791d 0b3f 13de 9ebd
000000b0: d23c 1a3f ec2c 243f 4ed2 893e 3a59 3dbd
000000c0: d89d 4ebf 8849 ea3e 44bb 43be 415e 013f
000000d0: d5b9 eb3e 53da 83bf 59b8 1f3f b19a 84bf
000000e0: a003 1fbe cf46 233e 2738 d13e 30b2 aebc
000000f0: 5695 223f c0ad 67be 2d7e 173f 5d86 08bf
00000100: 791a e7be 61a0 753c 0ef5 40be 2bd4 fdbe
00000110: 3d78 063f 082a ce3e e5d3 14be 5c03 9abd
00000120: d329 d2be 4d60 423f 0472 e7be 4a70 453f
00000130: 0157 0abf 7f1d d2be b81a e1be 34ee a2be

encoder.10.bias f4 [4]
-0.3199495 -0.32462883 0.35221976 0.3636504
00000000: 6cd0 a3be c035 a6be 2656 b43e 6330 ba3e

decoder.0.weight f4 [20, 4]
-0.23196585 0.7101778 0.85440725 1.7595954 0.6424657 -0.31703568 -0.65386313 0.6282024
-0.32145378 0.04713979 0.947798 0.48703548 -0.018492768 -1.0693829 -0.94558734 0.7797495
0.07952652 0.39152136 0.59795225 0.9589102 0.6815962 -0.6469066 0.42247677 -1.0043983
1.4294342 -0.13372982 0.63338184 -0.8339048 0.45095047 -0.48630655 -0.537161 -0.5124459
-0.1209241 0.7501108 -0.47264862 -0.63738316 0.2426804 0.6555624 0.21227497 -0.4948113
-0.16906738 0.2363791 0.39359933 -0.187638 -1.8313439 0.8528079 -0.9209738 0.85686696
0.04880208 -1.0799472 -0.53738755 0.39883444 0.50361013 0.43285248 0.11286464 0.01708651
0.008163568 -0.36121857 -0.43845043 -0.1801855 0.5228538 -0.57500273 0.6685631 -0.63515764
-1.1704675 -0.252719 0.2732416 -0.6133121 -1.2538421 -0.33832675 0.66108346 -0.04234009
-0.53389853 0.73978794 -0.07186952 -0.07284335 0.25957644 -0.39059073 -0.021609584 -0.39158934
00000000: 7588 6dbe 36ce 353f 6fba 5a3f 6c3a e13f
00000010: a278 243f 8052 a2be 9363 27bf dfd1 203f
00000020: 9795 a4be a715 413d e4a2 723f b75c f93e
00000030: 257e 97bc 8ae1 88bf 0312 72bf aa9d 473f
00000040: cdde a23d 7d75 c83e 6613 193f 247b 753f
00000050: 177d 2e3f ac9b 25bf e04e d83e 2090 80bf
00000060: b3f7 b63f 78f0 08be 5025 223f c97a 55bf
00000070: fbe2 e63e 2cfd f8be 6283 09bf a82f 03bf
00000080: 0ea7 f7bd 4307 403f 00ff f1be 8b2b 23bf
00000090: 3681 783e f0d2 273f 9c5e 593e e857 fdbe
000000a0: 0020 2dbe 5d0d 723e da85 c93e 2d24 40be
000000b0: 7a69 eabf 9e51 5a3f f0c4 6bbf a25b 5b3f
000000c0: b1e4 473d b63b 8abf 3b92 09bf 0734 cc3e
000000d0: 98ec 003f d79e dd3e 9425 e73d 02f9 8b3c
000000e0: 7cc0 053c a4f1 b8be 937c e0be 8c82 38be
000000f0: bfd9 053f 6133 13bf f426 2b3f b199 22bf
00000100: e1d1 95bf 6364 81be 53e6 8b3e 0602 1dbf
00000110: e67d a0bf 2a39 adbe c43c 293f cd6c 2dbd
00000120: 93ad 08bf be62 3d3f 5430 93bd e52e 95bd
00000130: 34e7 843e 82fb c7be 9506 b1bc 667e c8be

decoder.0.bias f4 [20]
-0.7064101 0.1595873 -0.33646166 0.043560456 -0.22895445 0.18008108 0.11438026 0.28081492
-0.07688492 0.50651914 0.16119371 -0.18247986 -0.09230488 -0.41380903 -0.475035 -0.028463127
-0.29979336 -0.37962234 0.21582828 0.1480979
00000000: 4bd7 34bf da6a 233e b444 acbe 736c 323d
00000010: 0973 6abe 2d67 383e 3340 ea3d f9c6 8f3e
00000020: d775 9dbd 3dab 013f f70f 253e 00dc 3abe
00000030: 570a bdbd c7de d3be ca37 f3be 812b e9bc
00000040: 847e 99be dc5d c2be 1702 5d3e faa6 173e

decoder.2.weight f4 [50, 20]
0.37106782 -0.47141778 -0.18505424 -0.34435013 -0.0068440447 0.15932381 0.07120455 0.17651193
0.19959044 0.16516384 0.02988489 0.049284063 -0.24439788 0.086121924 0.21535428 0.39659882
0.13585468 0.18990758 0.07062543 -0.10915298 -0.14811918 -0.061742414 -0.0053278264 0.08321889
-0.1424433 -0.15443592 0.23823002 -1.3796282e-05 -0.21023192 -0.15566576 0.092951566 0.0554729
0.120407894 -0.15205184 -0.086105675 0.07364105 0.018392235 0.21539931 -0.22540209 0.15957719
-0.12993306 0.196626 0.1760219 -0.010282262 -0.00034328204 0.1838493 0.15209827 -0.038439937
-0.11866418 0.1414141 -0.055905737 -0.03724374 0.13838492 0.04963153 -0.078281954 0.20466048
0.007677319 -0.123094946 -0.07253667 0.05870435 -0.10317473 0.11486769 -0.062747225 -0.084742725
-0.2334013 -0.03575143 0.17474376 0.23300055 0.00679165 0.035588928 -0.024148993 0.16683713
0.032888494 -0.08188592 -0.21983273 0.061978947 0.12140225 0.029951304 0.08489046 -0.08434772
-0.48273206 -0.32583544 0.17590247 0.089896835 -0.23765862 -0.027164547 0.33387372 -0.21899703
-0.07910198 -0.21747276 -0.11183981 0.20893312 0.27193424 -0.1352903 -0.10019063 0.3362164
0.23685084 0.18715706 0.16072878 0.1447438 0.1539674 0.28891364 0.2589426 -0.15483198
0.2860426 0.32746637 0.22465472 -0.5294228 0.163697 0.19364618 -0.12899831 -0.29349005
-0.1141743 -0.17538439 0.12913151 0.17459069 0.012203511 -0.4139293 0.050911132 0.010161406
0.20748198 -0.20302424 0.04598467 -0.036290146 0.12246808 0.20987907 0.015768997 -0.092069216
-0.114221044 0.21632472 -0.053845044 0.1311316 -0.09712558 -0.2220316 -0.20655361 0.13926163
-0.2094613 -0.043274216 -0.019157993 -0.11959466 -0.12839924 -0.07891994 -0.11523488 -0.031266075
-0.15740664 0.005019796 0.27167526 0.04672694 0.14172038 0.17057784 -0.057762716 0.14822075
0.06899246 -0.16438748 -0.14411399 -0.012646591 0.11512187 0.0748367 -0.2645455 -0.022295875
0.46360487 0.28117746 0.26724604 -0.25604618 0.39170063 0.14970279 0.24271384 -0.33624002
0.069550596 0.08358929 0.14420022 0.06161252 -0.075855 0.020431465 -0.16124219 -0.29451352
-0.17019582 -0.0661092 0.018245472 0.05542914 0.23818764 -0.029859405 0.24461302 0.09932941
0.0028735083 -0.27584046 -0.10810839 -0.11244463 -0.11565811 0.110694 0.15337764 0.21269816
-0.04779685 -0.11427688 0.110798985 -0.2854094 -0.22396258 0.15834454 0.18402638 0.13161913
-0.048237022 0.1759877 -0.10512777 -0.023376768 0.20492472 0.19603382 0.25757995 0.11730038
0.13775821 -0.04686524 0.06914167 0.114158876 -0.14930253 -0.034875557 0.072458535 -0.21107395
0.2626023 -0.1514607 0.23613589 -0.040329017 0.18450248 0.112668 0.02200588 0.18558349
-0.11566996 -0.1462784 -0.21814385 0.20914905 -0.08167923 -0.17614843 -0.25121784 -0.21532002
0.053358782 -0.092372045 -0.061506104 -0.2221284 -0.1436675 0.014804329 -0.046434533 0.09954377
-0.046675958 0.23143543 -0.02079545 0.36511788 -0.0058862856 -0.03390966 -0.056914568 0.010623377
0.15982427 0.27934924 0.15373594 -0.31194565 0.33619368 -0.10795249 0.12259891 0.06373592
00000000: 9afc bd3e ac5d f1be dc7e 3dbe a94e b0be
00000010: 0244 e0bb c825 233e b1d3 913d 8bbf 343e
00000020: 7061 4c3e b620 293e 28d1 f43c 16de 493d
00000030: 7043 7abe b160 b03d d585 5c3e 000f cb3e
00000040: 7d1d 0b3e 2277 423e 11a4 903d 998b dfbd
00000050: 8eac 17be 9de5 7cbd 0c95 aebb aa6e aa3d
00000060: a8dc 11be 7324 1ebe 92f2 733e 9476 67b7
00000070: 0947 57be d866 1fbe 645d be3d 8d37 633d
00000080: 6a98 f63d 7ab3 1bbe 2c58 b0bd 1ed1 963d
00000090: 50ab 963c a391 5c3e cecf 66be 3468 233e
000000a0: 2c0d 05be 5358 493e 163f 343e ef76 28bc
000000b0: 89fa b3b9 fe42 3c3e a6bf 1b3e 3273 1dbd
000000c0: 3506 f3bd dcce 103e 6afd 64bd e48c 18bd
000000d0: c7b4 0d3e 6e4a 4b3d 4a52 a0bd 8492 513e
000000e0: 0592 fb3b 3419 fcbd 1b8e 94bd f973 703d
000000f0: 464d d3bd c03f eb3d 9e81 80bd 988d adbd
00000100: c000 6fbe 1770 12bd 07f0 323e b297 6e3e
00000110: 7d8c de3b b2c5 113d 1cd4 c5bc 5ad7 2a3e
00000120: 16b6 063d ceb3 a7bd d51b 61be a3dd 7d3d
00000130: bea1 f83d 705c f53c 0ddb ad3d 7fbe acbd
00000140: a828 f7be e7d3 a6be c71f 343e d51b b83d
00000150: c85c 73be 2f88 debc 7ff1 aa3e c240 60be
00000160: 3800 a2bd 2eb1 5ebe 450c e5bd 90f2 553e
00000170: f73a 8b3e 8a89 0abe bf30 cdbd 8e24 ac3e
00000180: 0789 723e 1aa6 3f3e 1696 243e b837 143e
00000190: a1a9 1d3e 7dec 933e 2094 843e 468c 1ebe
000001a0: 2d74 923e aca9 a73e e30b 663e 4188 07bf
000001b0: 30a0 273e 2f4b 463e 2218 04be 5444 96be
000001c0: 37d4 e9bd f797 33be 0d3b 043e e7c7 323e
000001d0: 3cf1 473c 8bee d3be 3188 503d 077c 263c
000001e0: 2876 543e 96e5 4fbe 6c5a 3c3d faa4 14bd
000001f0: 8bd0 fa3d 8aea 563e fc2d 813c c98e bcbd
00000200: b9ec e9bd 3a84 5d3e 9f8c 5cbd 5d47 063e
00000210: c7e9 c6bd 405c 63be ca82 53be 9a9a 0e3e
00000220: 067d 56be 4e40 31bd 39f1 9cbc 0cee f4bd
00000230: 177b 03be c7a0 a1bd 4400 ecbd db10 00bd
00000240: 352f 21be 1a7d a43b 0519 8b3e bf64 3f3d
00000250: 261f 113e f5ab 2e3e 9998 6cbd 2ec7 173e
00000260: eb4b 8d3d 3155 28be 9e92 13be a633 4fbc
00000270: 04c5 eb3d fc43 993d 8272 87be d7a5 b6bc
00000280: 9e5d ed3e 7ef6 8f3e 79d4 883e 7c18 83be
00000290: fc8c c83e b04b 193e fa89 783e a727 acbe
000002a0: 8b70 8e3d dd30 ab3d 39a9 133e 695d 7c3d
000002b0: de59 9bbd e35f a73c ac1c 25be 7aca 96be
000002c0: d047 2ebe 4364 87bd 8777 953c aa09 633d
000002d0: 76e7 733e b69b f4bc d67b 7a3e 386d cb3d
000002e0: 7851 3c3b f63a 8dbe ee67 ddbd 5f49 e6bd
000002f0: 29de ecbd 89b3 e23d 070f 1d3e 8ccd 593e
00000300: a1c6 43bd ff09 eabd 94ea e23d 2e21 92be
00000310: 7256 65be 1225 223e 6971 3c3e 2ac7 063e
00000320: 2f94 45bd 1f36 343e 3a4d d7bd a380 bfbc
00000330: c9d7 513e 17bd 483e 85e1 833e 2e3b f03d
00000340: 7d10 0d3e c4f5 3fbd 269a 8d3d 21cc e93d
00000350: c3e2 18be acd9 0ebd 2465 943d c523 58be
00000360: cf73 863e 8418 1bbe 9bcd 713e 0a30 25bd
00000370: 38ee 3c3e 7bbe e63d ad45 b43c 9909 3e3e
00000380: 5fe4 ecbd 01ca 15be 1a61 5fbe 2b2b 563e
00000390: 7147 a7bd 4160 34be a09f 80be da7c 5cbe
000003a0: bd8e 5a3d 8e2d bdbd d3ed 7bbd a175 63be
000003b0: 931d 13be db8d 723c 2332 3ebd 9bdd cb3d
000003c0: 4a2f 3fbd 69fd 6c3e 385b aabc bbf0 ba3e
000003d0: bee1 c0bb dbe4 0abd 401f 69bd ac0d 2e3c
000003e0: f9a8 233e dd06 8f3e f46c 1d3e 57b7 9fbe
000003f0: 9421 ac3e 3216 ddbd 2315 fb3d fa87 823d

decoder.2.bias f4 [50]
0.25290406 -0.08612821 0.030955203 0.12188924 0.079632446 0.19503655 -0.12609822 0.14415078
0.17952581 -0.17796013 0.06191868 -0.12205829 -0.1626459 -0.26299807 -0.20297171 -0.0703731
-0.30465627 0.026310124 -0.079874896 -0.09040292 0.14911857 0.016468724 -0.095796354 0.0016262444
0.16159618 0.08608934 -0.22716457 -0.27218822 0.14943899 -0.1377199 -0.19601564 0.07537432
0.10213883 0.01682607 -0.19776195 -0.06707093 -0.31953183 0.00581711 0.11438374 -0.15854391
-0.14737085 -0.073417045 -0.1293786 -0.19592379 0.41105667 0.09685967 0.030150343 -0.10815707
-0.09325146 -0.22194362
00000000: a47c 813e fd63 b0bd c495 fd3c 11a1 f93d
00000010: 5616 a33d a9b7 473e e41f 01be 439c 133e
00000020: 9dd5 373e 2e3b 36be 719e 7d3d b2f9 f9bd
00000030: a68c 26be afa7 86be d1d7 4fbe c61f 90bd
00000040: e8fb 9bbe 5488 d73c 7395 a3bd 2b25 b9bd
00000050: 8ab2 183e 6be9 863c e130 c4bd b527 d53a
00000060: 7879 253e 9c4f b03d d49d 68be 415c 8bbe
00000070: 8906 193e 7206 0dbe 53b8 48be da5d 9a3d
00000080: 2a2e d13d d4d6 893c 1c82 4abe 7c5c 89bd
00000090: ad99 a3be 759d be3b 0642 ea3d 5659 22be
000000a0: 62e8 16be ad5b 96bd d37b 04be 3fa0 48be
000000b0: 0576 d23e 5d5e c63d dafd f63c 7481 ddbd
000000c0: 9ffa bebd 3045 63be

decoder.4.weight f4 [50, 50]
0.04419441 -0.13213149 -0.079781 -0.05647194 0.018026242 -0.052877963 -0.09848053 -0.034982845
-0.062592335 0.024299143 0.0679624 0.00804113 -0.1047729 -0.10415836 0.12422375 -0.06333407
0.011286488 -0.07876579 0.008690732 -0.020910924 -0.10161469 -0.08451959 -0.102588534 0.09381682
-0.08579394 0.13442805 -0.1375991 -0.06048311 -0.11861154 -0.11067308 0.1254515 0.10089106
0.03968686 -0.0023897095 -0.13076289 -0.11167712 0.028837955 -0.056455284 -0.13649498 0.037445758
0.02284759 -0.08548308 0.01780406 -0.07527175 -0.08135494 0.12933283 0.12018523 -0.0081764385
-0.07728257 -0.08967791 -0.16426025 -0.09888898 0.0069463854 -0.013289227 -0.06710796 0.14275007
0.009613637 -0.062521234 0.15453616 0.042979307 0.12872982 0.11504533 0.14505711 0.13548073
-0.3597704 -0.048436876 0.23408766 0.03238744 0.08249754 0.015958618 -0.1305139 0.11313168
-0.011575699 0.11153759 0.107638314 0.19858581 0.17760776 -0.142013 0.25454298 -0.016131798
-0.13331355 -0.0799819 -0.12260729 0.14729103 0.18207416 -0.009371839 0.047764987 0.13699894
-0.13291188 0.15493715 -0.15065944 -0.18347625 -0.059991345 0.121934175 0.17478572 -0.027873343
-0.031029364 0.11783348 -0.046898585 0.3425465 0.28251332 -0.16624054 -0.09836416 -0.099966034
0.11461891 0.051193807 -0.119595505 -0.075835735 0.055225812 -0.0679641 -0.09972591 0.024471093
-0.22665791 0.058294877 0.24892214 -0.01635526 0.09814394 -0.12189169 -0.0069044186 -0.071017675
0.072099276 -0.07045823 -0.10123467 -0.060147822 0.036140095 -0.028086146 0.025955142 -0.060690247
-0.031399067 -0.12655316 0.028695868 -0.10082179 0.026904756 0.120948985 -0.10504084 0.021043798
0.102870084 0.12764299 -0.116907656 0.027411113 0.037239496 0.0664579 0.09996619 0.027608631
0.30225602 -0.12629735 0.052716173 -0.21978115 0.0062154243 0.37200904 -0.07432068 -0.09654486
-0.03685932 0.18326315 -0.133143 -0.20847946 0.11789203 -0.023103414 0.035323124 0.076110214
0.008030414 -0.073250055 -0.11407156 0.40763524 -0.078056425 -0.30122277 -0.056678273 -0.044513237
-0.0033888815 0.13841319 0.3178804 0.081791565 -0.053512465 0.065598406 0.14954029 -0.040548448
-0.16147485 0.00017405857 0.09153379 0.047027808 -0.12074968 0.23899934 -0.115502246 -0.0312742
0.0028068866 -0.06258841 0.2738449 -0.004231999 0.0061575477 0.074863225 0.09442963 0.3066869
0.037183024 0.10548557 0.23344111 0.022516198 0.27223983 -0.22007437 0.101639435 -0.35694292
0.17796941 -0.028800217 0.034353092 0.0014922773 0.020719942 -0.016007382 0.02638531 0.04210672
0.052456517 0.21708673 -0.058523573 0.17156465 -0.1430007 0.5219964 0.14294073 -0.16060568
0.32336873 -0.12414207 0.14799394 0.07840009 0.075180575 0.0012737917 -0.0009975444 -0.06731548
-0.043650795 0.11254939 0.04816305 -0.19470002 -0.06631113 -0.25280473 0.12358512 0.012376502
0.0071297516 0.17328568 0.03895647 0.11125161 0.3963151 -0.12609512 0.09700089 0.33305365
-0.022833223 0.117785 0.10112224 0.0833617 0.2932885 0.07228448 0.023396228 0.055626933
0.1797194 -0.46406785 -0.025292257 -0.023558943 0.092697546 0.022913523 0.11331523 0.005825234
00000000: 3305 353d 7a4d 07be 3964 a3bd 1f4f 67bd
00000010: c5ab 933c 9096 58bd 29b0 c9bd 2c4a 0fbd
00000020: 6930 80bd ff0e c73c df2f 8b3d f2be 033c
00000030: 2d93 d6bd fa50 d5bd 0569 fe3d 4bb5 81bd
00000040: f6ea 383c f54f a1bd 9263 0e3c 634d abbc
00000050: 5d1b d0bd 9b18 adbd f019 d2bd 0823 c03d
00000060: bcb4 afbd 82a7 093e c7e6 0cbe 23bd 77bd
00000070: 9bea f2bd 91a8 e2bd 5c76 003e f99f ce3d
00000080: b08e 223d ac9c 1cbb b5e6 05be f9b6 e4bd
00000090: 933d ec3c a83d 67bd 57c5 0bbe b960 193d
000000a0: de2a bb3c c111 afbd d2d9 913c 1328 9abd
000000b0: 6b9d a6bd d36f 043e ad23 f63d 78f6 05bc
000000c0: 5346 9ebd 0da9 b7bd d733 28be 4e86 cabd
000000d0: 819e e33b 0fbb 59bc e66f 89bd 132d 123e
000000e0: 8482 1d3c 220b 80bd ba3e 1e3e 120b 303d
000000f0: c0d1 033e e39c eb3d da89 143e 76bb 0a3e
00000100: d333 b8be bf65 46bd adb4 6f3e b1a8 043d
00000110: 78f4 a83d a6bb 823c 70a5 05be 95b1 e73d
00000120: 00a8 3dbc d26d e43d 7a71 dc3d 145a 4b3e
00000130: cfde 353e db6b 11be 7553 823e d526 84bc
00000140: 5983 08be 8dcd a3bd 8819 fbbd 76d3 163e
00000150: a671 3a3e 588c 19bc 38a5 433d 7349 0c3e
00000160: 0d1a 08be d8a7 1e3e 7846 1abe 33e1 3bbe
00000170: 7cb9 75bd a0b8 f93d 07fb 323e a356 e4bc
00000180: 4b31 febc ae52 f13d bb18 40bd 4162 af3e
00000190: 96a5 903e f63a 2abe 2673 c9bd feba ccbd
000001a0: 52bd ea3d 99b0 513d 7dee f4bd c44f 9bbd
000001b0: 7634 623d c330 8bbd 193d ccbd 9a77 c83c
000001c0: 0319 68be 9cc6 6e3d 72e5 7e3e 77fb 85bc
000001d0: b1ff c83d 5aa2 f9bd 763e e2bb b771 91bd
000001e0: c9a8 933d 684c 90bd 1f54 cfbd 905d 76bd
000001f0: a307 143d eb14 e6bc e19f d43c 5696 78bd
00000200: 4f9c 00bd 2797 01be 9913 eb3c a87b cebd
00000210: 5d67 dc3c 1ab4 f73d a71f d7bd 0b64 ac3c
00000220: 8dad d23d d8b4 023e 486d efbd 458d e03c
00000230: 7188 183d 141b 883d 13bb cc3d 7f2b e23c
00000240: 4dc1 9a3e 1854 01be eaec 573d 4f0e 61be
00000250: c2aa cb3b f877 be3e 7135 98bd 50b9 c5bd
00000260: ccf9 16bd 56a9 3b3e a356 08be a47b 55be
00000270: 6071 f13d 5f43 bdbc fbae 103d acdf 9b3d
00000280: ff91 033c 2004 96bd 5a9e e9bd 91b5 d03e
00000290: 0cdc 9fbd df39 9abe 7a27 68bd 8353 36bd
000002a0: ff17 5ebb 30bc 0d3e 38c1 a23e 5682 a73d
000002b0: e32f 5bbd 7558 863d 1721 193e 2116 26bd
000002c0: aa59 25be 7e83 3639 1176 bb3d 3ba0 403d
000002d0: 9c4b f7bd 3ebc 743e 718c ecbd 6019 00bd
000002e0: bef3 373b 5a2e 80bd 6635 8c3e 95ac 8abb
000002f0: 41c5 c93b e451 993d 5264 c13d 1106 9d3e
00000300: 3a4d 183d d208 d83d 300b 6f3e e473 b83c
00000310: 0563 8b3e 2d5b 61be 5628 d03d 39c1 b6be
00000320: 9d3d 363e 6fee ebbc d4b5 0c3d 8498 c33a
00000330: debc a93c ea21 83bc 0126 d83c 1978 2c3d
00000340: a5dc 563d fc4b 5e3e 6ab6 6fbd a5ae 2f3e
00000350: c76e 12be 8ea1 053f 0e5f 123e d175 24be
00000360: 9690 a53e 333e febd b98b 173e 3a90 a03d
00000370: 46f8 993d 5bf5 a63a 09c0 82ba b3dc 89bd
00000380: 2dcb 32bd 4b80 e63d 9e46 453d 715f 47be
00000390: 21ce 87bd 9f6f 81be 321a fd3d d0c6 4a3c
000003a0: b1a0 e93b cd71 313e d290 1f3d e2d7 e33d
000003b0: d0e9 ca3e 141f 01be 67a8 c63d 0286 aa3e
000003c0: bd0c bbbc 4339 f13d 2d19 cf3d 8ab9 aa3d
000003d0: e929 963e e309 943d 72a9 bf3c 11d9 633d
000003e0: 5d08 383e 4d9a edbe b531 cfbc affe c0bc
000003f0: 36d8 bd3d 24b5 bb3c d111 e83d 9be1 be3b

decoder.4.bias f4 [50]
-0.12518658 0.10860073 0.2987567 0.026295349 0.17307194 -0.12137268 -0.27589604 0.046075176
-0.14376508 0.067314945 -0.1374308 -0.111557886 -0.1490276 0.0055596144 0.0018751989 -0.1700803
-0.03541791 -0.013785674 0.07528327 -0.10379958 -0.10027162 0.061781794 0.21707152 -0.01879968
0.067155704 -0.08421117 -0.09347944 -0.062248792 -0.044993136 0.17599232 0.056719728 0.15286948
0.007836506 -0.027682588 0.06285685 0.04074423 0.114366755 0.16130285 0.14759275 0.0004409122
-0.047712233 -0.06831581 0.20737505 0.07076756 -0.1303758 -0.074163415 0.0029474595 -0.0911601
0.23666313 -0.0068908245
00000000: e930 00be 0f6a de3d a3f6 983e 5869 d73c
00000010: c539 313e 3d92 f8bd 3f42 8dbe 53b9 3c3d
00000020: 2737 13be 6bdc 893d a9ba 0cbe 7678 e4bd
00000030: b19a 18be 6d2d b63b 3cc9 f53a 8829 2ebe
00000040: 5f12 11bd 4fdd 61bc 1d2e 9a3d e094 d4bd
00000050: 355b cdbd e80e 7d3d ff47 5e3e c901 9abc
00000060: ee88 893d e876 acbd 2672 bfbd 97f8 7ebd
00000070: b94a 38bd 5537 343e f252 683d d189 1c3e
00000080: b064 003c 98c6 e2bc 18bb 803d 6ce3 263d
00000090: 1e39 ea3d 932c 253e 8e22 173e 3c2a e739
000000a0: e76d 43bd 29e9 8bbd 205a 543e 95ee 903d
000000b0: 3c81 05be fde2 97bd 2a2a 413b 26b2 babd
000000c0: d257 723e 6dcc e1bb

decoder.6.weight f4 [6, 50]
0.074402526 -0.27520683 0.33123034 -0.26098624 0.061078314 0.093125656 0.28972852 0.3098247
-0.14980693 -0.19127885 -0.07337363 -0.07564095 -0.14171712 0.34738275 0.48406902 -0.034038763
-0.06568788 0.03533479 -0.1034748 -0.08814951 -0.08514824 -0.30938563 0.14172246 -0.13192007
0.34602103 -0.11878735 0.33734617 -0.1006366 0.059814714 0.21952464 0.26813826 -0.16949311
0.19706875 0.14016858 -0.9894776 -0.071654625 0.31173187 0.2916578 0.3571409 0.12946822
0.12739637 -1.0102593 -0.4621958 0.081461914 -0.091999896 0.10518936 0.2449659 -0.37818274
-0.24928886 0.00088982115 -0.045858555 -0.27713832 0.044161096 -0.20491102 -0.083874896 -0.03416159
-0.20431302 -0.115141355 0.14050719 0.16251002 -0.07674226 -0.041729547 -0.06533388 -0.024343653
-0.3962585 0.078648224 -0.1638743 0.029376086 0.102756575 0.11138592 0.0072522424 0.036568042
-0.24579017 0.062211942 0.010595182 0.07328965 0.12961698 -0.10441929 0.3206132 -0.033203
-0.07063304 0.09722051 0.076684974 -0.010599055 0.106319346 0.42686695 0.09664301 0.014168132
-0.48076403 -0.05989188 0.17696187 0.121563375 -0.15596974 0.11980183 0.12027224 -0.074849136
0.22965696 -0.19181645 -0.04931655 -0.053194348 0.055445295 0.0821278 0.053954504 -0.053323004
0.025894787 -0.012739004 -0.014233943 -0.06011611 0.021665044 -0.03186421 -0.10043009 0.045359198
-0.0960367 0.0324901 -0.11957607 -0.15913829 0.13030526 -0.12435376 0.031628907 -0.08458065
-0.046822134 0.111917004 -0.0060148453 -0.11202666 0.014267079 0.012181627 -0.059643205 0.02025578
0.10837058 0.095194355 -0.03529916 -0.10786243 -0.16322345 0.10427048 0.036867257 0.108577244
0.107999444 -0.045183912 -0.24020892 -0.045165386 0.0017164608 0.025329474 0.039788127 0.06149956
0.02989579 -0.10274658 0.14797485 -0.061367393 -0.128064 -0.11798411 0.06354794 0.41900244
0.5148937 -0.6929923 -0.7547337 -0.02150265 -1.2393098 0.23538683 -0.55290824 -0.10791024
0.041600864 0.12262453 0.10806475 -0.58167726 -0.6819489 0.11928799 -0.6253317 -0.111247815
-0.66861916 -0.03259649 -0.071122 -0.24741 0.187988 -0.123840705 -0.010640467 0.011757537
0.47716224 -0.023946164 -0.17631051 0.36893666 0.22722994 -0.88865906 0.02631236 -0.15648717
-0.3973612 -0.027370362 -0.50414747 -1.3136528 0.07595646 -0.12984759 0.19237654 0.72927386
-0.088915914 0.13541995 0.034181483 0.117802516 0.027615963 0.12958892 -1.3107063 -0.067869306
0.076319486 -0.3389465 0.29415268 0.3198822 0.37249106 -0.09324217 -0.3919642 0.035265874
0.16700456 0.0036259901 -0.09438149 0.107047 0.07948883 0.3382657 -1.242998 0.13318028
-0.50927025 0.066804074 -0.7659049 0.06831347 -0.039569825 -0.09783597 0.29533157 0.08057127
0.29942745 0.092223324 -0.2935198 0.10558323 0.3063612 0.22513218 -0.2890071 -0.8126608
0.14002044 0.1547493 -0.60844725 0.23088622 -1.2118539 0.19582479 0.14823003 -0.019269407
-0.21977775 0.3198736 0.08051719 -0.11974551 -0.051854063 -0.086939886 -0.91752416 -0.025909083
-0.8643038 -0.05057391 0.118497945 -0.23771593 -0.21260375 -0.42947558 -0.9781126 0.034898266
00000000: 5a60 983d e9e7 8cbe 0697 a93e fd9f 85be
00000010: 412d 7a3d aab8 be3d 4c57 943e 58a1 9e3e
00000020: fd66 19be 9ade 43be ea44 96bd a4e9 9abd
00000030: 4b1e 11be 27dc b13e e5d7 f73e 3b6c 0bbd
00000040: 5e87 86bd 36bb 103d 99ea d3bd bb87 b4bd
00000050: 3362 aebd cb67 9ebe b11f 113e 0e16 07be
00000060: ab29 b13e c846 f3bd a3b8 ac3e 901a cebd
00000070: 4600 753d 11cb 603e 6b49 893e 9a8f 2dbe
00000080: 64cc 493e 5a88 0f3e 674e 7dbf a9bf 92bd
00000090: 529b 9f3e 2c54 953e 2cdb b63e 5193 043e
000000a0: 3274 023e 2d50 81bf eea4 ecbe 81d5 a63d
000000b0: 716a bcbd 856d d73d 57d8 7a3e 2ba1 c1be
000000c0: 9445 7fbe e342 693a 2ed6 3bbd 13e5 8dbe
000000d0: 44e2 343d 32d4 51be 9ac6 abbd 06ed 0bbd
000000e0: 6f37 51be 3bcf ebbd 1ee1 0f3e 0769 263e
000000f0: 0c2b 9dbd 9aec 2abd c5cd 85bd 576c c7bc
00000100: 65e2 cabe 5212 a13d aace 27be 1ea6 f03c
00000110: 0a72 d23d 4d1e e43d 38a4 ed3b 5fc8 153d
00000120: 6bb0 7bbe f3d1 7e3d 6a97 2d3c e218 963d
00000130: 50ba 043e c8d9 d5bd 6a27 a43e deff 07bd
00000140: 0ea8 90bd 8c1b c73d 030d 9d3d a9a7 2dbc
00000150: f5bd d93d 4e8e da3e c5ec c53d 7421 683c
00000160: b426 f6be 3051 75bd 7e35 353e 38f6 f83d
00000170: 88b6 1fbe a95a f53d 4b51 f63d 814a 99bd
00000180: 322b 6b3e 886b 44be 2700 4abd 51e2 59bd
00000190: 9b1a 633d 9f32 a83d 66ff 5c3d 3969 5abd
000001a0: 4e21 d43c 41b7 50bc 7c35 69bc 4f3c 76bd
000001b0: e47a b13c 0c84 02bd 4bae cdbd 91ca 393d
000001c0: e4ae c4bd 5714 053d 4ce4 f4bd 26f5 22be
000001d0: be6e 053e 2fad febd 508d 013d 9f38 adbd
000001e0: 91c8 3fbd be34 e53d 2e18 c5bb 3c6e e5bd
000001f0: 77c0 693c 7295 473c 6f4c 74bd 73ef a53c
00000200: 65f1 dd3d 42f5 c23d da95 10bd fae6 dcbd
00000210: 0c24 27be c38b d53d 1f02 173d bf5d de3d
00000220: d02e dd3d c412 39bd 54f9 75be 57ff 38bd
00000230: defa e03a c27f cf3c e0f8 223d f6e6 7b3d
00000240: 04e8 f43c cd6c d2bd b886 173e 605c 7bbd
00000250: 3623 03be a7a1 f1bd 6c25 823d 7d87 d63e
00000260: 13d0 033f f267 31bf 3a36 41bf 5326 b0bc
00000270: b4a1 9ebf 3f09 713e 658b 0dbf 0b00 ddbd
00000280: ab65 2a3d 9222 fb3d 0d51 dd3d cde8 14bf
00000290: 3494 2ebf 434d f43d bd15 20bf e5d5 e3bd
000002a0: a02a 2bbf e683 05bd 69a8 91bd 0c59 7dbe
000002b0: ed7f 403e 32a0 fdbd 5a55 2ebc afa2 403c
000002c0: 9c4e f43e bf2a c4bc be8a 34be 44e5 bc3e
000002d0: f7ae 683e 297f 63bf 058d d73c 2c3e 20be
000002e0: ed72 cbbe cf37 e0bc cf0f 01bf c625 a8bf
000002f0: 0f8f 9b3d c4f6 04be 5bfe 443e b1b1 3a3f
00000300: 8c19 b6bd 87ab 0a3e e201 0c3d 7242 f13d
00000310: df3a e23c f5b2 043e 39c5 a7bf 10ff 8abd
00000320: 644d 9c3d 658a adbe 2e9b 963e 9ac7 a33e
00000330: 26b7 be3e c0f5 bebd 88af c8be f372 103d
00000340: 3e03 2b3e 05a2 6d3b 154b c1bd 753b db3d
00000350: 0acb a23d 2931 ad3e 8f1a 9fbf 6960 083e
00000360: 895f 02bf 93d0 883d 5812 44bf efe7 8b3d
00000370: f813 22bd 3a5e c8bd b335 973e 8d02 a53d
00000380: 8e4e 993e 95df bc3d 3a48 96be 053c d83d
00000390: 60db 9c3e 0d89 663e bdf8 93be 8a0a 50bf
000003a0: 8561 0f3e 9a76 1e3e 33c3 1bbf 706d 6c3e
000003b0: 071e 9bbf 4b86 483e 9dc9 173e e0da 9dbc
000003c0: 6b0d 61be 79c6 a33e 32e6 a43d 223d f5bd
000003d0: ed64 54bd 8a0d b2bd dde2 6abf 493f d4bc
000003e0: 0443 5dbf 9726 4fbd 0daf f23d ce6b 73be
000003f0: ccb4 59be 39e4 dbbe 9665 7abf 7cf1 0e3d

decoder.6.bias f4 [6]
0.0902621 -0.4142582 0.010372485 0.52882355 0.2128468 0.37813014
00000000: 56db b83d a719 d4be 5bf1 293c fb60 073f
00000010: 83f4 593e 469a c13e

cluster_layer.weight f4 [4, 4]
-0.115811646 0.07691517 0.110599555 -0.091866545 -0.09875271 -0.10073705 0.100671805 0.09982554
-0.089939155 0.11143662 0.091500334 -0.10545387 0.10211929 -0.10043272 -0.09937957 0.09802354
00000000: a82e edbd b385 9d3d 0582 e23d 8724 bcbd
00000010: dc3e cabd 3a4f cebd 052d ce3d 5571 cc3d
00000020: 0532 b8bd e238 e43d 8764 bb3d 33f8 d7bd
00000030: eb23 d13d abaf cdbd 8487 cbbd 91c0 c83d
