model/checkpoint_1450.tar (torch, 110796 bytes, 51 tensors)

encoder.1.weight f4 [50, 6]
-0.5394988 0.004155179 0.0036910078 0.20847824 -0.3617294 0.12569967 -0.0033253971 -0.0014126529
-0.00033615288 2.7989311 0.01109072 -0.13387933 -0.16600232 -0.1377411 0.008608135 -0.100132436
0.46317065 -0.27168775 0.21180552 0.0033847694 0.00076583284 -0.14074215 0.007904557 1.1994041
-0.036085412 -0.16338032 -0.0034489338 0.85695094 0.24329613 -0.54621583 0.6515696 0.025284145
0.005390597 0.03449249 0.050970867 1.1335988 -0.07790182 -0.22572076 -0.116047725 -0.24524641
0.208318 -0.20397931 -0.8461825 0.19311006 -0.006019473 -0.042199437 -0.12092597 -0.046816926
0.7058707 -0.0069496743 -0.002194504 0.87223846 0.68084043 0.0441853 -0.32257843 0.010858113
-0.18992507 -0.002359681 0.1990641 0.17983215 -0.50324744 0.0014483081 0.0018144787 -0.9757256
-0.32321605 0.16008845 -0.23295024 -0.17829604 0.13712148 0.23495844 0.0057202694 -0.15880233
-0.18642761 -0.007540205 -0.026211431 1.1092428 -0.098235555 0.73451453 -0.5479739 0.0016133571
0.001562875 -0.7861055 -0.30637524 0.12270811 -2.5981808 -0.006571856 -0.0012338916 0.09209987
-0.47929907 0.43724942 -0.67019176 0.005313119 0.0026993598 -0.08037653 -0.44038275 -0.06354448
-0.2640487 0.27772674 0.15793453 0.32222754 -0.30210465 -0.40052623 -1.0226089 -0.020256355
-0.0036112275 -0.9125022 0.7259716 0.59498894 -0.00485027 -0.0023321873 -0.0010824183 2.693567
0.0111078415 -0.10542115 0.08570262 -0.3067651 -0.21843556 -0.19187394 -0.23100477 0.07239225
-0.21567416 -0.0012294216 -0.0035113916 -0.7116831 0.7453441 0.09208859 -0.35401177 -0.2648937
0.15542834 0.15061517 -0.2524419 -0.12900564 -2.9027252 -0.0022109617 -0.0091145225 -0.45830172
-0.33044857 0.23523061 0.33475378 -0.085303195 -0.06219048 0.14821902 0.06578712 -0.13408217
-0.2862785 -0.09847009 0.05502051 -0.13044745 0.5941523 0.104670554 -0.10661421 -0.39054385
-0.37332746 0.17102641 0.31059504 -0.0021838078 -2.879819 3.608202e-05 -0.0022494746 -0.7241714
-0.17404364 0.16464312 -2.6444743 -0.0068201837 0.0013450151 -0.633643 -0.12728576 -0.55277514
0.82724065 -0.0056288564 -0.0027991456 -1.2472087 0.6552329 0.05148165 -0.22642867 -0.026696768
-0.28906256 -0.018842857 0.22739375 -0.18349378 0.8473893 -0.013391164 -0.0021967816 0.5558668
-0.3618147 -0.24024853 0.06430576 -0.0038576142 0.015461045 -0.1201501 0.16286753 1.3856287
0.31308204 -0.39888585 0.04279885 -0.019503081 0.11001618 -0.10009825 0.076396234 -0.20645553
0.13417397 0.7210122 0.0088646235 -0.21891908 -0.73573035 -0.016665237 -0.012432322 -0.012915944
-0.012231589 1.2014384 -0.0054627 0.0012115055 0.0018702644 1.7437493 0.3305648 0.00037302822
0.22607996 0.13523038 0.0399502 -0.11837798 0.0635832 0.029261995 0.03035627 0.0022815745
-0.003615303 -0.779002 0.044912137 0.76273173 0.020142261 -0.007162319 0.0020851598 -0.26134673
0.25875425 1.5580921 1.1928109 -0.002849538 -0.0032765144 -0.4156856 -0.12347319 -0.6407719
-2.9074311 0.0050437306 0.0029643485 -0.9217185 -0.32524994 0.24588992 -0.002412457 -0.002827627
-0.006822076 2.637743 -0.39109513 -0.19803393 -0.6315018 0.01083846 0.007961779 0.18470739
00000000: 981c 0abf 2b28 883b d6e4 713b 527b 553e
00000010: 9934 b9be 6ab7 003e e8ee 59bb c428 b9ba
00000020: ad3d b0b9 b021 3340 dab5 353c aa17 09be
00000030: 83fc 29be 010c 0dbe 2309 0d3c 3c12 cdbd
00000040: b424 ed3e a81a 8bbe 8ce3 583e 02d3 5d3b
00000050: 2cc2 483a b61e 10be 1d82 013c 1386 993f
00000060: 4cce 13bd 2c4d 27be 8207 62bb 2361 5b3f
00000070: 9f22 793e cdd4 0bbf 44cd 263f b220 cf3c
00000080: 9ba3 b03b ff47 0d3d d4c6 503d c419 913f
00000090: fd8a 9fbd 5823 67be 6eaa edbd e021 7bbe
000000a0: 5051 553e f4df 50be 6b9f 58bf a5be 453e
000000b0: 003f c5bb 51d9 2cbd 09a8 f7bd 1bc3 3fbd
000000c0: f1b3 343f 18ba e3bb abd1 0fbb 054b 5f3f
000000d0: 8f4b 2e3f a5fb 343d 0029 a5be 3ae6 313c
000000e0: b87b 42be e1a4 1abb 76d7 4b3e eb25 383e
000000f0: d3d4 00bf 28d5 bd3a cdd3 ed3a 27c9 79bf
00000100: 937c a5be 3aee 233e 828a 6ebe 3d93 36be
00000110: 9369 0c3e f298 703e 1971 bb3b 149d 22be
00000120: e1e6 3ebe d313 f7bb 5bb9 d6bc abfb 8d3f
00000130: b92f c9bd 2509 3c3f 0448 0cbf 4877 d33a
00000140: 62d9 cc3a 363e 49bf 37dd 9cbe 644e fb3d
00000150: 9848 26c0 b958 d7bb 88ba a1ba db9e bc3d
00000160: b066 f5be 28df df3e b091 2bbf ac19 ae3b
00000170: bee7 303b 739c a4bd d979 e1be 9c23 82bd
00000180: 6431 87be 3332 8e3e 97b9 213e 02fb a43e
00000190: 76ad 9abe c611 cdbe d9e4 82bf a8f0 a5bc
000001a0: 58aa 6cbb bf99 69bf 46d9 393f 3251 183f
000001b0: 04ef 9ebb 9cd7 18bb eedf 8dba 6763 2c40
000001c0: aafd 353c 0be7 d7bd db84 af3d 5110 9dbe
000001d0: 92ad 5fbe 9a7a 44be 848c 6cbe 6342 943d
000001e0: b0d9 5cbe 8b24 a1ba 601f 66bb dd30 36bf
000001f0: dfce 3e3f f198 bc3d 0841 b5be 26a0 87be
00000200: 9b28 1f3e dd3a 1a3e 1140 81be 0e1a 04be
00000210: 40c6 39c0 c8e5 10bb 1455 15bc 86a6 eabe
00000220: 8e30 a9be 4be0 703e d964 ab3e 71b3 aebd
00000230: 72bb 7ebd bac6 173e 66bb 863d d64c 09be
00000240: 1893 92be b0aa c9bd 305d 613d 0494 05be
00000250: 5d1a 183f 845d d63d 8d58 dabd 5df5 c7be
00000260: c724 bfbe 8c21 2f3e 5006 9f3e 371e 0fbb
00000270: f44e 38c0 c656 1738 ec6b 13bb 4c63 39bf
00000280: 7f38 32be 3598 283e 113f 29c0 d97b dfbb
00000290: 384b b03a 6d36 22bf 3357 02be ac82 0dbf
000002a0: 0bc6 533f 4572 b8bb df71 37bb 89a4 9fbf
000002b0: 58bd 273f 6cde 523d ebdc 67be 2eb3 dabc
000002c0: 0200 94be 565c 9abc e8d9 683e cbe5 3bbe
000002d0: 81ee 583f 9d66 5bbc e1f7 0fbb 494d 0e3f
000002e0: c73f b9be b603 76be bdb2 833d 07d0 7cbb
000002f0: 5350 7d3c 4111 f6bd bfc6 263e 485c b13f
00000300: 4a4c a03e c43a ccbe d94d 2f3d edc4 9fbc
00000310: 2a50 e13d 5000 cdbd a175 9c3d 1469 53be
00000320: e764 093e 4194 383f ed3c 113c 532c 60be
00000330: d358 3cbf 8985 88bc f0b0 4bbc 659d 53bc
00000340: 0167 48bc bcc8 993f 7300 b3bb 61cb 9e3a
00000350: a923 f53a 2d33 df3f ca3f a93e 0093 c339
00000360: 8181 673e d579 0a3e d2a2 233d 2870 f2bd
00000370: e937 823d dab6 ef3c b6ad f83c 7886 153b
00000380: b8ee 6cbb ad6c 47bf caf5 373d 6342 433f
00000390: 6201 a53c e3b1 eabb 2da7 083b 3dcf 85be
000003a0: 707b 843e 906f c73f 07ae 983f 51bf 3abb
000003b0: caba 56bb bed4 d4be 83df fcbd a109 24bf
000003c0: 5a13 3ac0 e145 a53b 8445 423b bef5 6bbf
000003d0: 2987 a6be 91ca 7b3e 501a 1ebb b54f 39bb
000003e0: b98b dfbb c8d0 2840 9f3d c8be 68c9 4abe
000003f0: 1aaa 21bf cc93 313c 1f72 023c ef23 3d3e

encoder.1.bias f4 [50]
0.25519925 -0.006156632 -0.010386647 -0.15823205 -0.09338983 -0.5410985 -0.13243072 -0.060030196
-0.3639222 -0.3329479 0.20448214 -0.39319113 -0.9983463 0.24115776 0.02801246 0.3404037
-0.36048362 0.018813057 -0.0049732807 -0.26781815 0.111341126 -0.14406846 0.024595391 -0.3620637
-0.05167792 -0.30918205 0.015153023 0.01941433 -0.42635426 -0.24192198 -0.4584505 -0.25374454
-0.41923368 -0.37687492 0.015306987 -0.006000719 -0.34975335 -0.024588397 -0.3746717 -0.7348747
0.022129817 -0.0033835112 0.008461831 -0.51481587 -0.75354534 0.0074915346 -0.009230345 0.009310633
-0.2939078 -0.0034134479
00000000: 7aa9 823e 93bd c9bb c12c 2abc 9507 22be
00000010: 2b43 bfbd 6e85 0abf eb9b 07be 39e2 75bd
00000020: 0354 babe 2678 aabe c463 513e 5950 c9be
00000030: a093 7fbf 0ff2 763e 637a e53c 6549 ae3e
00000040: 4f91 b8be d71d 9a3c e7f6 a2bb 761f 89be
00000050: d106 e43d af86 13be 467c c93c 6a60 b9be
00000060: 3aac 53bd 1c4d 9ebe 6344 783c cd0a 9f3c
00000070: 1b4b dabe 65ba 77be 06ba eabe ceea 81be
00000080: cca5 d6be c0f5 c0be 28ca 7a3c aea1 c4bb
00000090: df12 b3be 9b6d c9bc f8d4 bfbe c020 3cbf
000000a0: 9749 b53c e6bd 5dbb 7ea3 0a3c f9ca 03bf
000000b0: 59e8 40bf 8c7b f53b df3a 17bc a08b 183c
000000c0: 157b 96be 27b4 5fbb

encoder.4.weight f4 [50, 50]
0.03537234 -0.38501525 -0.16512993 -0.042861883 -0.24965705 0.0925129 -0.018040583 0.044706155
0.07790627 0.088675626 0.14966837 0.0053146165 -0.09596308 0.0075030653 0.24145915 -0.04078293
-0.14067292 0.0013854952 -0.38549325 -0.09891259 -0.0037805324 0.03236946 0.2606314 -0.025232617
-0.042286165 -0.03465613 0.14282352 0.31450203 0.056030106 0.10078159 0.13440092 -0.13028581
0.037521146 0.06642168 0.100003354 -0.32633093 -0.0008832163 -0.06734359 -0.025045123 0.25118187
0.26703015 -0.34337774 -0.059848927 -0.0715604 0.49992543 -0.015488002 -0.3011335 -0.007347378
0.07141613 -0.12634349 -0.012443222 -0.010344939 0.039990265 -0.10236436 -0.026191542 0.19562364
-0.07204909 -0.0142671885 -0.06233234 0.07474837 -0.06680567 -0.106248334 -0.11359295 0.26167244
0.13224187 -0.028324813 -0.13500275 0.014115471 -4.3175896e-05 0.016348662 -0.019648677 -0.030879278
0.25899342 0.051677126 0.014529486 -0.07649017 0.3892872 0.391502 -0.023212634 0.13109224
-0.0908856 -0.154471 0.027045945 0.03408983 0.1547146 -0.100533016 0.09534345 0.009129922
-0.15801467 0.39073336 0.31048492 -0.004100969 -0.12226912 -0.09576898 0.2779443 0.1377728
-0.12702903 -0.09013831 -0.030079123 0.04447736 0.02031091 -0.47217858 0.05391658 0.06544677
-0.04762749 0.04234724 -0.04254686 0.01198414 -0.19459644 0.140518 0.042103756 0.1344255
0.12720005 0.042001497 -0.24374375 0.020866884 -0.052927375 -0.034482732 -0.37511688 0.07875923
0.23183897 -0.10992106 -0.24014531 0.042074446 -0.03289094 0.06514227 0.030627342 -0.058636338
-0.18883166 -0.040901363 -0.3298358 0.14863466 0.09804744 -0.13429889 0.0620604 -0.051202256
0.108109996 0.06876511 0.055179004 -0.25540304 -0.04524964 -0.206353 -0.11566978 -0.0060934112
-0.170433 0.103000484 -0.0060957433 -0.1048691 -0.10243009 -0.18709083 -0.285948 -0.23537506
-0.044018723 -0.081736214 -0.07428044 0.22359636 0.12488532 0.05667672 0.055444438 -0.11397273
-0.104596116 -0.120160505 0.10269332 -0.23218334 0.023526357 -0.20849891 -0.09788452 -0.2829201
-0.2286082 -0.0646535 -0.35870656 0.100036174 -0.067876294 -0.0167487 -0.06882331 0.05873005
-0.06253856 -0.017237145 0.030496893 0.097589634 0.12498691 -0.12502173 -0.03557338 -0.112215854
0.056836106 -0.26805136 0.021280022 -0.3204844 -0.007620605 0.3196144 -0.09306023 -0.22150996
-0.18823181 0.12998101 0.48209187 -0.06127262 -0.31116468 0.06111685 0.10934205 -0.121775575
0.021601852 -0.22846231 0.025744965 0.4759703 -0.1238646 0.39382702 -0.07008209 0.18815432
-0.016423525 -0.09418648 -0.015308204 0.11147852 -0.02073157 -0.002040634 0.02746479 -0.001468876
-0.11522328 -0.012170982 -0.26899114 0.033663295 0.0058234488 -0.042413913 -0.05978708 0.0835376
0.0324173 0.06621071 0.096881434 0.097654514 -0.0050515877 0.056443684 -0.055143196 0.46615154
-0.05426464 0.119244136 0.36250526 0.048708655 -0.13527375 -0.080368504 0.46135932 0.20332439
-0.011555893 -0.2522535 -0.003902627 0.1087489 -0.07970177 0.050718643 -0.0012272444 -0.11013211
-0.08021868 0.14555727 -0.014115822 -0.06498117 0.029281465 0.21425395 0.055193234 0.296036
00000000: 96e2 103d b820 c5be d217 29be f18f 2fbd
00000010: 19a6 7fbe 6777 bd3d d8c9 93bc cd1d 373d
00000020: 538d 9f3d 919b b53d aa42 193e 3c26 ae3b
00000030: 4b88 c4bd 46dc f53b 1141 773e 000c 27bd
00000040: 900c 10be 8199 b53a 5f5f c5be af92 cabd
00000050: cfc2 77bb d795 043d 7b71 853e a2b4 cebc
00000060: 4234 2dbd 96f3 0dbd 5440 123e 6906 a13e
00000070: d37f 653d 9466 ce3d 65a0 093e a569 05be
00000080: c6af 193d 1708 883d 8fce cc3d d914 a7be
00000090: a487 67ba 70eb 89bd 6e2b cdbc e99a 803e
000000a0: 2db8 883e 35cf afbe 2624 75bd 428e 92bd
000000b0: 3af6 ff3e 64c1 7dbc 2c2e 9abe 46c2 f0bb
000000c0: 9f42 923d 3060 01be a8de 4bbc d27d 29bc
000000d0: d5cc 233d 68a4 d1bd a58f d6bc 9051 483e
000000e0: 798e 93bd edc0 69bc 3250 7fbd ac15 993d
000000f0: 69d1 88bd ba98 d9bd 6ca3 e8bd eef9 853e
00000100: 6a6a 073e 7009 e8bc 293e 0abe 9444 673c
00000110: c417 35b8 a1ed 853c 43f6 a0bc 8af6 fcbc
00000120: c99a 843e 65ab 533d 150d 6e3c e1a6 9cbd
00000130: a750 c73e f372 c83e 6c28 bebc 0b3d 063e
00000140: 3b22 babd a52d 1ebe 758f dd3c c7a1 0b3d
00000150: 816d 1e3e 41e4 cdbd 6d43 c33d ab95 153c
00000160: 99ce 21be 340e c83e e1f7 9e3e 6c61 86bb
00000170: 3b68 fabd 8722 c4bd b74e 8e3e 5014 0d3e
00000180: e613 02be 6f9a b8bd 7e68 f6bc e42d 363d
00000190: 1163 a63c 64c1 f1be a2d7 5c3d f508 863d
000001a0: 0b15 43bd 4d74 2d3d 9e45 2ebd 2059 443c
000001b0: 4a44 47be f3e3 0f3e fd74 2c3d d7a6 093e
000001c0: bb40 023e c309 2c3d f697 79be 07f1 aa3c
000001d0: 60ca 58bd c43d 0dbd 520f c0be 854c a13d
000001e0: 3267 6d3e 4b1e e1bd a7e8 75be 4156 2c3d
000001f0: a6b8 06bd 4f69 853d 31e6 fa3c a82c 70bd
00000200: 165d 41be 3088 27bd 3de0 a8be af33 183e
00000210: 19cd c83d a685 09be 0c33 7e3d 75b9 51bd
00000220: c668 dd3d b9d4 8c3d 6103 623d 30c4 82be
00000230: b057 39bd 334e 53be 47e4 ecbd 3dab c7bb
00000240: fd85 2ebe ebf1 d23d cdbe c7bb 9cc5 d6bd
00000250: dec6 d1bd bd94 3fbe c767 92be 2906 71be
00000260: fa4c 34bd 5165 a7bd 5820 98bd 72f6 643e
00000270: e0c3 ff3d d925 683d b519 633d 896a e9bd
00000280: 7d36 d6bd b616 f6bd e050 d23d 78c1 6dbe
00000290: 59ba c03c bd80 55be ae77 c8bd e7da 90be
000002a0: 4518 6abe 0e69 84bd 63a8 b7be c4df cc3d
000002b0: ba02 8bbd 9234 89bc 3cf3 8cbd ec8e 703d
000002c0: 3714 80bd ea34 8dbc 9fd4 f93c 13dd c73d
000002d0: 23f9 ff3d b205 00be 64b5 11bd 6dd1 e5bd
000002e0: facc 683d 073e 89be 7153 ae3c 8816 a4be
000002f0: 45b6 f9bb 80a4 a33e 5d96 bebd 82d3 62be
00000300: d7bf 40be be19 053e bfd4 f63e 00f9 7abd
00000310: fa50 9fbe a955 7a3d baee df3d 7965 f9bd
00000320: 5ef6 b03c 06f2 69be 1be7 d23c 61b2 f33e
00000330: b9ac fdbd b2a3 c93e 3387 8fbd 87ab 403e
00000340: a18a 86bc d7e4 c0bd 43cf 7abc da4e e43d
00000350: 41d5 a9bc 28bc 05bb d7fd e03c 4d87 c0ba
00000360: 2ffa ebbd cc68 47bc 35b9 89be 86e2 093d
00000370: a1d2 be3b 36ba 2dbd 4ce3 74bd c315 ab3d
00000380: 01c8 043d 7b99 873d c669 c63d 17ff c73d
00000390: ca87 a5bb 7e31 673d d5dd 61bd 6aab ee3e
000003a0: 9944 5ebd 4536 f43d 4a9a b93e ba82 473d
000003b0: 3485 0abe 3e98 a4bd 4a37 ec3e 4534 503e
000003c0: ee54 3dbc 5f27 81be 37c3 7fbb beb7 de3d
000003d0: ae3a a3bd 5abe 4f3d 7ddb a0ba f28c e1bd
000003e0: b149 a4bd f70c 153e 0c46 67bc d914 85bd
000003f0: afdf ef3c 6365 5b3e 4d12 623d 0892 973e

encoder.4.bias f4 [50]
0.0015010496 -0.015574167 0.0035887125 0.0076018167 -0.004885641 -0.0031209409 -0.7316783 -0.004946118
-0.3998114 -0.014272145 -0.009472542 0.013843548 -0.0025982803 -0.000791031 -0.3727105 -0.0386739
0.0043943543 -0.0030685922 -0.01456266 -0.7059058 -0.15231946 -0.0113765225 -0.31600362 -0.002208842
-0.0032442403 -0.0032719923 -0.007093571 -0.0044097197 0.007792671 -0.003483741 -0.0044466844 -0.02078835
0.0118710315 -0.15410271 -0.32332176 -0.18560842 -0.39125156 -0.05950519 -0.6779279 -0.0032038847
0.0067942147 -0.23663831 -0.018879 -0.16313455 -0.18025076 0.011848813 -0.48081398 -0.02324108
-0.0038036883 0.008544862
00000000: debe c43a ca2a 7fbc 9b30 6b3b a918 f93b
00000010: ba17 a0bb b388 4cbb 454f 3bbf 0c13 a2bb
00000020: 14b4 ccbe b7d5 69bc b932 1bbc 0cd0 623c
00000030: e947 2abb 315d 4fba e9d3 bebe 8668 1ebd
00000040: 84fe 8f3b 6f1a 49bb 3998 6ebc 3eb6 34bf
00000050: a2f9 1bbe 9864 3abc 3acb a1be 38c2 10bb
00000060: 529d 54bb ec6e 56bb 3071 e8bb 697f 90bb
00000070: aa59 ff3b 7a4f 64bb 7eb5 91bb 544c aabc
00000080: b77e 423c 1acd 1dbe 6e8a a5be 2210 3ebe
00000090: 2052 c8be b7bb 73bd af8c 2dbf 44f8 51bb
000000a0: 01a2 de3b 5051 72be 22a8 9abc be0c 27be
000000b0: a893 38be 8621 423c 402d f6be 1464 bebc
000000c0: 4d47 79bb c0ff 0b3c

encoder.7.weight f4 [20, 50]
0.17852372 0.22477593 0.01890911 -0.3245703 0.047265705 0.030570889 -0.083362244 0.9114625
-0.043336496 0.50701886 0.032394577 -0.32923982 -0.437923 -0.24019466 -0.13265462 0.37428656
0.019716568 0.6147268 -0.2676019 -0.04471073 -0.07836167 0.4908493 -0.14713533 0.7364292
-0.07785404 0.79072344 0.5908425 0.7986019 -0.2843067 0.030653149 -0.3042867 0.57399786
-0.12094175 -0.009692062 -0.07780238 -0.05553497 -0.05700359 0.0092700515 0.095676154 -0.3308228
-0.21851839 -0.095615245 0.13683926 0.21475033 0.12918682 -0.38150832 -0.09117346 0.13568203
-0.37836614 -0.34479097 0.0028570932 0.02437677 -0.008189003 0.017803052 0.2679053 0.34091783
0.020794423 0.22842854 0.28915393 0.34119758 0.35172024 0.005588461 -0.010404576 -0.0065203193
0.31528258 -0.0014239921 -0.036799792 0.27243835 0.00097304606 0.15216018 0.11820376 0.07916515
-0.017036945 0.30301014 0.014657623 0.060261644 0.21951634 0.13378742 0.0048860717 0.45182323
0.0032119015 0.017437493 0.00030257457 -0.052317973 0.38132125 -0.046114918 0.29613352 0.00025560526
0.18599786 -0.0033678396 0.02041621 0.18453202 0.0074958606 0.34829 -0.033473052 -0.0015894113
0.3437944 0.024328014 0.000346755 0.0024198156 0.5620573 0.3035258 -0.41352013 0.39391172
-0.09974584 -0.25341237 -0.2456549 -0.090811506 -0.196682 -0.29901612 -0.3334724 -0.006308761
0.004777864 -0.081129014 0.005718499 -0.24177168 -0.30925375 -0.17421654 0.06008492 -0.16417176
-0.3040343 -0.07239234 -0.5867631 -0.16590658 -0.082088985 -0.055149887 -0.04742871 -0.17050026
0.38823244 -0.12248659 0.017554887 -0.1298186 0.17877175 0.111889765 -0.24736018 0.020746352
-0.36092985 0.08373241 -0.21336055 0.014440486 0.46496633 0.027920028 -0.30094904 -0.5189347
0.12715904 0.14678983 -0.007984026 0.57718414 0.010864427 0.30769438 0.019999398 0.069301665
-0.12560605 0.008104169 -0.0011030943 0.0022965265 -0.07284969 0.14871162 -0.18096413 0.51801914
0.0082750805 -0.008428753 0.22225836 0.2608383 0.04134426 -0.06982005 -0.0914711 0.20700149
0.33379057 -0.21684583 0.011329372 0.21625787 0.3398209 0.2112386 0.21496372 0.27773702
0.35656434 0.22906326 0.009688495 -0.00227297 0.35328054 0.04293781 0.009723086 0.02897157
0.29852465 -0.06853034 -0.04971065 0.48473287 -0.07393496 0.18290393 0.003850251 -0.045175537
0.02454377 0.4141615 0.131724 0.011574361 -0.08856891 0.025163278 0.13950835 0.009876445
-0.31817162 0.039120715 -0.13342206 -0.29112157 0.007369843 -0.08548477 -0.14496021 -0.0649021
-0.252883 0.03613723 0.02048054 -0.016799605 0.25869364 0.34433642 0.002353983 -0.20424844
-0.15163738 -0.02948968 0.18905716 -0.23841153 0.0032267054 -0.18396136 0.42955092 -0.022761386
0.40886393 -0.041149884 -0.015207051 0.0020424505 -0.114009656 0.02926573 0.19889794 -0.120440625
-0.08940652 -0.05619598 0.0864337 -0.035431355 -0.10264462 0.39000285 -0.07101078 0.26990977
-0.19625956 0.13486513 0.23437066 0.25604567 0.056463603 -0.11747776 0.050821535 -0.2786015
0.30166876 -0.17806643 -0.2930132 -0.3072636 0.1351502 -0.3409878 0.4597239 0.33470213
00000000: ecce 363e a92b 663e 47e7 9a3c 142e a6be
00000010: af99 413d cd6f fa3c d3b9 aabd 9b55 693f
00000020: 9c81 31bd fdcb 013f 2db0 043d 1f92 a8be
00000030: 7237 e0be 97f5 75be 9dd6 07be 7da2 bf3e
00000040: a484 a13c bc5e 1d3f 1e03 89be 9922 37bd
00000050: 157c a0bd 9950 fb3e a5aa 16be a086 3c3f
00000060: f071 9fbd da6c 4a3f 7441 173f 2d71 4c3f
00000070: a690 91be 501c fb3c 77cb 9bbe 86f1 123f
00000080: 4fb0 f7bd 74cb 1ebc db56 9fbd a378 63bd
00000090: 997c 69bd 6ae1 173c dcf1 c33d 9b61 a9be
000000a0: 49c3 5fbe edd1 c3bd 971f 0c3e 83e7 5b3e
000000b0: 8d49 043e 0f55 c3be 27b9 babd 3bf0 0a3e
000000c0: 35b9 c1be 7188 b0be 123e 3b3b cbb1 c73c
000000d0: 2b2b 06bc b5d7 913c e22a 893e c88c ae3e
000000e0: 1159 aa3c 2ce9 693e fc0b 943e 73b1 ae3e
000000f0: ad14 b43e 691f b73b f477 2abc 67a8 d5bb
00000100: b86c a13e 3fa5 baba 61bb 16bd 0a7d 8b3e
00000110: 0414 7f3a e1cf 1b3e d014 f23d 5721 a23d
00000120: 1091 8bbc 2524 9b3e 8726 703c ead4 763d
00000130: e4c8 603e 92ff 083e 571b a03b 6055 e73e
00000140: c47e 523b 13d9 8e3c dfa2 9e39 5f4b 56bd
00000150: 8a3c c33e ffe2 3cbd d09e 973e c202 8639
00000160: 3976 3e3e f9b6 5cbb e53f a73c f6f5 3c3e
00000170: d69f f53b 1153 b23e 0a1b 09bd cb53 d0ba
00000180: d205 b03e 8b4b c73c abcc b539 c595 1e3b
00000190: fde2 0f3f bc67 9b3e e9b8 d3be ccae c93e
000001a0: 8c47 ccbd 44bf 81be f58c 7bbe 62fb b9bd
000001b0: 0267 49be a418 99be e5bc aabe b9b9 cebb
000001c0: a18f 9c3b f826 a6bd 3f62 bb3b ff92 77be
000001d0: 8256 9ebe d265 32be 9b1b 763d a41c 28be
000001e0: 62aa 9bbe 6f42 94bd 1b36 16bf 6ae3 29be
000001f0: 451e a8bd d9e4 61bd 9b44 42bd 9f97 2ebe
00000200: 67c6 c63e 40da fabd 44cf 8f3c 2bef 04be
00000210: f10f 373e 7626 e53d fd4b 7dbe 41f4 a93c
00000220: cccb b8be e67b ab3d 307b 5abe ca97 6c3c
00000230: 1110 ee3e 8bb8 e43c fe15 9abe e8d8 04bf
00000240: fb35 023e 1350 163e 6fcf 02bc 57c2 133f
00000250: b600 323c 1e8a 9d3e c7d5 a33c 08ee 8d3d
00000260: df9e 00be 59c7 043c b495 90ba 5281 163b
00000270: 3832 95bd dc47 183e a94e 39be e79c 043f
00000280: 3494 073c c118 0abc b297 633e 998c 853e
00000290: 9958 293d d0fd 8ebd 3355 bbbd 33f8 533e
000002a0: 99e6 aa3e d50c 5ebe d59e 393c b472 5d3e
000002b0: 01fd ad3e ee4e 583e 731f 5c3e 8c33 8e3e
000002c0: 9a8f b63e 8f8f 6a3e 7ebc 1e3c 1cf6 14bb
000002d0: 30e1 b43e 8fdf 2f3d 944d 1f3c c955 ed3c
000002e0: 39d8 983e a359 8cbd 659d 4bbd e82e f83e
000002f0: 366b 97bd 2b4b 3b3e 7e54 7c3b fc09 39bd
00000300: 0410 c93c fa0c d43e a8e2 063e 63a2 3d3c
00000310: 9e63 b5bd 3823 ce3c 47db 0e3e d0d0 213c
00000320: 64e7 a2be 0b3d 203d cb9f 08be e30d 95be
00000330: b97e f13b a412 afbd 7370 14be 64eb 84bd
00000340: e179 81be a204 143d cec6 a73c 539f 89bc
00000350: 7e73 843e dd4c b03e 4845 1a3b 8126 51be
00000360: d446 1bbe 5794 f1bc 3398 413e 2722 74be
00000370: 2277 533b 5e60 3cbe 19ee db3e 1676 babc
00000380: 9d56 d13e c88c 28bd ff26 79bc a2da 053b
00000390: e57d e9bd afbe ef3c e7ab 4b3e 93a9 f6bd
000003a0: c41a b7bd c22d 66bd 2704 b13d 7820 11bd
000003b0: 5837 d2bd 74ae c73e 1a6e 91bd 9d31 8a3e
000003c0: 44f8 48be 161a 0a3e ddfe 6f3e 6b18 833e
000003d0: 6146 673d 2e98 f0bd 3e2a 503d dba4 8ebe
000003e0: 5474 9a3e 0c57 36be d305 96be a851 9dbe
000003f0: d064 0a3e f495 aebe ee60 eb3e 145e ab3e

encoder.7.bias f4 [20]
0.0031263821 -0.005755506 -0.005900219 -0.00071673293 -0.004473097 0.011776326 -0.2273733 -1.3422617
0.008463714 -0.008427692 -0.20918852 -0.0039840015 -0.43709645 0.0015129393 -0.0037059896 0.0030927581
-0.0022261576 0.0013211761 -0.004272466 -0.58234084
00000000: fde3 4c3b af98 bcbb a056 c1bb 22e3 3bba
00000010: 0f93 92bb 7ef1 403c 8cd4 68be 3bcf abbf
00000020: 64ab 0a3c 4d14 0abc 8435 56be 3a8c 82bb
00000030: 1bcb dfbe d24d c63a 30e0 72bb dfaf 4a3b
00000040: bae4 11bb 502b ad3a 0b00 8cbb 4a14 15bf

encoder.10.weight f4 [4, 20]
0.94450974 0.17542632 -0.8245086 -0.28374955 -0.4480441 0.32594097 0.7048665 1.4509833
0.8372239 -0.60312754 -0.17470555 0.26112294 0.44373375 1.1153997 -0.456993 1.126725
-0.26181483 -0.28824273 -0.37615088 1.0186552 -0.5193919 -0.7420228 -0.72916794 0.06980387
0.8223204 -0.5583356 -0.20887288 0.58227533 -0.4563136 -0.533451 -0.10893135 -0.6290207
-0.13618365 -0.57570857 0.8443838 -0.58079153 -0.081792995 0.30489516 0.59723675 -0.038258947
-0.90953875 0.18288045 0.55903876 -0.07360278 0.5898027 0.6531348 0.27907768 -0.052181534
-0.8172017 0.4643646 -0.19153881 0.49086893 0.4740346 -1.0429761 0.6116997 -1.0557045
-0.16159755 0.14962785 0.39169654 -0.017082978 0.6407989 -0.23098719 0.6075998 -0.53101957
-0.4572661 0.011769433 -0.18624744 -0.50256914 0.53715885 0.41290525 -0.1454657 -0.08450057
-0.42056784 0.7786227 -0.45490062 0.7818481 -0.5448574 -0.40746102 -0.4444059 -0.3244202
00000000: 64cb 713f f5a2 333e ff12 53bf 9f47 91be
00000010: 0966 e5be bce1 a63e 2272 343f d2b9 b93f
00000020: 4e54 563f 9166 1abf 03e6 32be e8b1 853e
00000030: 1231 e33e 6bc5 8e3f fdfa e9be 8638 903f
00000040: 980c 86be 8d94 93be d996 c0be 4b63 823f
00000050: def6 04bf 35f5 3dbf c0aa 3abf 55f5 8e3d
00000060: 9783 523f 15ef 0ebf c6e2 55be ff0f 153f
00000070: f0a1 e9be 3f90 08bf 6617 dfbd 8007 21bf
00000080: ba73 0bbe a361 13bf 8929 583f c1ae 14bf
00000090: 1683 a7bd 381b 9c3e 82e4 183f 6ab5 1cbd
000000a0: 88d7 68bf 0345 3b3e 2a1d 0f3f 0ebd 96bd
000000b0: 4ffd 163f d833 273f 45e3 8e3e 4ebc 55bd
000000c0: 2134 51bf 32c1 ed3e c022 44be 2c53 fb3e
000000d0: aab4 f23e 3e80 85bf 5a98 1c3f 5321 87bf
000000e0: d479 25be 0b38 193e 738c c83e 9af1 8bbc
000000f0: 660b 243f e887 6cbe a98b 1b3f e6f0 07bf
00000100: c81e eabe 94d4 403c a6b7 3ebe 5fa8 00bf
00000110: 3e83 093f 5168 d33e f6f4 14be a30e adbd
00000120: ab54 d7be d153 473f bce8 e8be 3227 483f
00000130: c67b 0bbf bb9e d0be 2c89 e3be 681a a6be

encoder.10.bias f4 [4]
-0.33980492 -0.35013184 0.36495835 0.38567442
00000000: e9fa adbe 7b44 b3be d2db ba3e 1e77 c53e

decoder.0.weight f4 [20, 4]
-0.24312891 0.7586496 0.87218356 1.7865628 0.6732307 -0.3034277 -0.65389144 0.63019377
-0.3209197 0.07231185 0.95407313 0.4835827 -0.017393345 -1.0820242 -0.9480194 0.76431733
0.08775652 0.4105033 0.6191609 0.9778519 0.6819036 -0.65914136 0.45204514 -1.0153298
1.4470216 -0.12612516 0.64306456 -0.86392236 0.44375247 -0.50746 -0.5285986 -0.51629496
-0.09853891 0.74561834 -0.49890816 -0.6337759 0.23743968 0.68300915 0.20068905 -0.4914562
-0.17292829 0.22758666 0.40010673 -0.18760478 -1.8764861 0.88401306 -0.9585415 0.8719223
0.044001997 -1.103022 -0.541313 0.3851012 0.5036099 0.4328491 0.11286317 0.017090082
0.008141712 -0.36118054 -0.4384302 -0.18017823 0.5376083 -0.590325 0.67898566 -0.6603858
-1.1860099 -0.26744962 0.284926 -0.6413209 -1.2833109 -0.33377644 0.6714474 -0.03824637
-0.5409711 0.7483115 -0.096098185 -0.047954157 0.26167032 -0.4063685 -0.014257343 -0.40888533
00000000: c9f6 78be dc36 423f 6c47 5f3f 17ae e43f
00000010: d958 2c3f e05a 9bbe 6e65 27bf 6154 213f
00000020: 964f a4be 3c18 943d 233e 743f 2798 f73e
00000030: 7d7c 8ebc c57f 8abf 66b1 72bf 4daa 433f
00000040: b1b9 b33d 7d2d d23e 5481 1e3f 8154 7a3f
00000050: 3c91 2e3f 7dbd 28bf 7672 e73e 54f6 81bf
00000060: 0138 b93f f426 01be e19f 243f 042a 5dbf
00000070: 8633 e33e e6e8 01bf 3d52 07bf e82b 04bf
00000080: c5ce c9bd d8e0 3e3f e470 ffbe 233f 22bf
00000090: 6323 733e b0d9 2e3f 6e81 4d3e 26a0 fbbe
000000a0: 1d14 31be 7a0c 693e cada cc3e 781b 40be
000000b0: b230 f0bf ae4e 623f fa62 75bf 4d36 5f3f
000000c0: 703b 343d d32f 8dbf 7d93 0abf fc2b c53e
000000d0: 94ec 003f 669e dd3e ce24 e73d 8000 8c3c
000000e0: d164 053c a8ec b8be ec79 e0be a480 38be
000000f0: b3a0 093f 8a1f 17bf 01d2 2d3f 0b0f 29bf
00000100: 2ccf 97bf 28ef 88be d2e1 913e 9b2d 24bf
00000110: 8843 a4bf bfe4 aabe fae3 2b3f 3aa8 1cbd
00000120: 157d 0abf 5891 3f3f 20cf c4bd 946b 44bd
00000130: a7f9 853e 880f d0be a197 69bc 6b59 d1be

decoder.0.bias f4 [20]
-0.70571554 0.1827324 -0.33703485 0.036542 -0.23659703 0.17069252 0.10334617 0.27399376
-0.0667844 0.5174543 0.15452038 -0.18001354 -0.08751165 -0.413812 -0.4750842 -0.024253432
-0.32455486 -0.40628788 0.20697543 0.1418375
00000000: c6a9 34bf 341e 3b3e d58f acbe 10ad 153d
00000010: 7e46 72be 05ca 2e3e 28a7 d33d e948 8c3e
00000020: 42c6 88bd e377 043f 973a 1e3e 7855 38be
00000030: 4f39 b3bd 2bdf d3be 3c3e f3be 22af c6bc
00000040: 0e2c a6be f704 d0be 5ef1 533e d93d 113e

decoder.2.weight f4 [50, 20]
0.37515053 -0.4850533 -0.18091527 -0.354397 -0.01517763 0.15282698 0.06792686 0.1760081
0.2036377 0.1504575 0.03239214 0.04449048 -0.24979565 0.08612103 0.21535428 0.3990594
0.14021668 0.19291496 0.07423841 -0.10636432 -0.15151203 -0.061932784 -0.0057834876 0.08571733
-0.14212517 -0.15147336 0.24423093 -0.002261517 -0.2101635 -0.15589654 0.0918285 0.04826165
0.12289584 -0.15205055 -0.08610592 0.08063879 0.018599413 0.2123989 -0.22845274 0.16065033
-0.1275882 0.19841109 0.17440945 -0.004962574 0.0026085929 0.18555279 0.15349282 -0.039736018
-0.12253972 0.14158301 -0.06094494 -0.037516598 0.14136963 0.049633406 -0.07828268 0.20900117
0.0056364797 -0.12572958 -0.07941849 0.059713367 -0.105574794 0.10937497 -0.062561 -0.08460952
-0.23297353 -0.040069506 0.1774432 0.22463124 -0.0023729277 0.03893188 -0.023165267 0.16625778
0.033808116 -0.081884935 -0.21983312 0.06404034 0.12297285 0.0333621 0.0831255 -0.08766271
-0.4802171 -0.3386653 0.18524751 0.08814 -0.22830066 -0.02332411 0.352718 -0.2225479
-0.08098163 -0.21979858 -0.11308678 0.2045324 0.27256086 -0.13528939 -0.10018832 0.33985364
0.2437449 0.19127373 0.15835996 0.14798208 0.15507981 0.30569583 0.2605328 -0.16558343
0.29040775 0.3323494 0.22372827 -0.5325684 0.1660837 0.19121248 -0.13069537 -0.30312765
-0.1251608 -0.17538458 0.12913 0.18769246 0.011331087 -0.4124714 0.04299511 0.006692692
0.20705047 -0.20436262 0.04441411 -0.036935225 0.122077554 0.21352668 0.019264042 -0.09239866
-0.11582641 0.21507043 -0.05396974 0.12992898 -0.09682752 -0.2220316 -0.20655361 0.14320804
-0.21108873 -0.044199094 -0.021711461 -0.1183486 -0.13143408 -0.07788327 -0.11711253 -0.030052813
-0.15525699 0.0052927984 0.27833498 0.044733584 0.13593206 0.17499909 -0.06089234 0.14587213
0.07026923 -0.16438593 -0.144114 -0.012913324 0.11511219 0.07375114 -0.2674503 -0.02237647
0.47344223 0.28520313 0.2678182 -0.2604673 0.39903918 0.16037053 0.23972672 -0.33977443
0.065815814 0.08252919 0.14702427 0.060189303 -0.078716114 0.020430043 -0.16124219 -0.29304776
-0.18021326 -0.06308643 0.014338309 0.051462263 0.2437445 -0.031950578 0.2461603 0.09638958
0.0066032037 -0.28100806 -0.108010426 -0.11272936 -0.11614273 0.10993043 0.15352464 0.21828754
-0.04998527 -0.11427688 0.110798985 -0.2933535 -0.23332262 0.15980814 0.18453397 0.12837245
-0.04479491 0.17404957 -0.108383976 -0.021345273 0.20585558 0.19282286 0.26285627 0.11360257
0.13155457 -0.043972846 0.06918626 0.12300947 -0.14861515 -0.03487529 0.07245827 -0.21663591
0.26460102 -0.14831868 0.23816095 -0.04299316 0.18766186 0.11427618 0.020432763 0.1922861
-0.11535536 -0.14599942 -0.21730708 0.21177818 -0.08167923 -0.17633061 -0.25227797 -0.21401581
0.058523085 -0.092372045 -0.061505694 -0.22191414 -0.14337955 0.01168403 -0.046434533 0.101382464
-0.04674035 0.22755474 -0.014716741 0.36799735 -0.0016540306 -0.034949183 -0.069231294 0.012335381
0.15834771 0.2800675 0.14704438 -0.29772967 0.33855736 -0.10795004 0.12259843 0.061434727
00000000: bb13 c03e e858 f8be da41 39be 8673 b5be
00000010: 98ab 78bc ad7e 1c3e 3d1d 8b3d 783b 343e
00000020: 6786 503e 8811 1a3e 9fad 043d a63b 363d
00000030: 6eca 7fbe 3960 b03d d585 5c3e 8451 cc3e
00000040: f694 0f3e 808b 453e 4f0a 983d 89d5 d9bd
00000050: f825 1bbe 3bad 7dbd 6983 bdbb 918c af3d
00000060: 4389 11be d51b 1bbe ac17 7a3e f635 14bb
00000070: 1a35 57be 58a3 1fbe 9510 bc3d 02ae 453d
00000080: d0b0 fb3d 24b3 1bbe 4d58 b0bd f325 a53d
00000090: cc5d 983c 197f 593e 84ef 69be 8581 243e
000000a0: 7ba6 02be 472c 4b3e 6498 323e 179d a2bb
000000b0: edf4 2a3b 8d01 3e3e 392d 1d3e 3cc2 22bd
000000c0: 1bf6 fabd 23fb 103e 67a1 79bd 01ab 19bd
000000d0: 33c3 103e 664c 4b3d ab52 a0bd 6704 563e
000000e0: 38b2 b83b 41bf 00be 29a6 a2bd 0196 743d
000000f0: 9937 d8bd fcff df3d fb1f 80bd c247 adbd
00000100: 9d90 6ebe ec1f 24bd acb3 353e bb05 663e
00000110: 1f83 1bbb 0977 1f3d 16c5 bdbc 7b3f 2a3e
00000120: 617a 0a3d 4ab3 a7bd ef1b 61be 9527 833d
00000130: 31d9 fb3d b3a6 083d b43d aa3d 8288 b3bd
00000140: 04df f5be 8a65 adbe 86b1 3d3e bf82 b43d
00000150: a6c7 69be 3412 bfbc 7497 b43e 99e3 63be
00000160: b2d9 a5bd e112 61be 0b9a e7bd f170 513e
00000170: 198d 8b3e 4d89 0abe 892f cdbd 4c01 ae3e
00000180: 4398 793e 43dd 433e 1d29 223e 9d88 173e
00000190: 3ecd 1e3e 2a84 9c3e 8e64 853e b48e 29be
000001a0: 53b0 943e b329 aa3e 0619 653e 6756 08bf
000001b0: d811 2a3e 34cd 433e 02d5 05be 8c33 9bbe
000001c0: 272a 00be 0498 33be a83a 043e 7432 403e
000001d0: 06a6 393c 742f d3be a41b 303d 5f4e db3b
000001e0: 0a05 543e 6f44 51be 92eb 353d 6449 17bd
000001f0: cc03 fa3d bda6 5a3e a0cf 9d3c 823b bdbd
00000200: 6636 edbd 6c3b 5c3e 600f 5dbd 1a0c 053e
00000210: 824d c6bd 405c 63be ca82 53be 21a5 123e
00000220: a527 58be 1c0a 35bd 3cdc b1bc c060 f2bd
00000230: a896 06be 4481 9fbd b2d8 efbd 5131 f6bc
00000240: b0fb 1ebe 366f ad3b ec81 8e3e 903a 373d
00000250: c631 0b3e f632 333e 3f6a 79bd 815f 153e
00000260: 50e9 8f3d c954 28be 9f92 13be 6892 53bc
00000270: f1bf eb3d d60a 973d 3fef 88be dc4e b7bc
00000280: 0567 f23e 2506 923e 781f 893e f85b 85be
00000290: dd4e cc3e 2c38 243e ec7a 753e eaf6 adbe
000002a0: 71ca 863d 1005 a93d 888d 163e 0f89 763d
000002b0: ea35 a1bd e85c a73c ac1c 25be 5b0a 96be
000002c0: d389 38be 7533 81bd 3aeb 6a3c 18ca 523d
000002d0: 2998 793e 9cde 02bd 7211 7c3e e667 c53d
000002e0: b05f d83b 4ae0 8fbe 9234 ddbd a7de e6bd
000002f0: 3ddc edbd 3523 e13d 9035 1d3e c586 5f3e
00000300: 5bbd 4cbd ff09 eabd 94ea e23d 6e32 96be
00000310: 20ec 6ebe bfa4 233e 79f6 3c3e 1174 033e
00000320: de7a 37bd 0d3a 323e 6bf8 ddbd 48dc aebc
00000330: cecb 523e 5b73 453e 1995 863e 77a8 e83d
00000340: 3eb6 063e df1c 34bd 87b1 8d3d 64ec fb3d
00000350: 922e 18be 64d9 0ebd 0065 943d ced5 5dbe
00000360: c979 873e dae0 17be 77e0 733e 9919 30bd
00000370: 6e2a 403e a109 ea3d 9c62 a73c a6e6 443e
00000380: 6e3f ecbd df80 15be bf85 5ebe 61dc 583e
00000390: 7147 a7bd 0390 34be 942a 81be f626 5bbe
000003a0: e7b5 6f3d 8e2d bdbd 65ed 7bbd 763d 63be
000003b0: 17d2 12be 606e 3f3c 2332 3ebd 9ca1 cf3d
000003c0: cf72 3fbd 1c04 693e 7c1e 71bc 266a bc3e
000003d0: 0fcc d8ba e026 0fbd 23c9 8dbd 561a 4a3c
000003e0: e725 223e 0265 8f3e cd92 163e 0670 98be
000003f0: 6457 ad3e e914 ddbd e314 fb3d fba2 7b3d

decoder.2.bias f4 [50]
0.25135434 -0.08520862 0.029838411 0.119893305 0.08489141 0.20229578 -0.12645866 0.13721645
0.18330479 -0.17717162 0.061551236 -0.11887997 -0.1622082 -0.2641226 -0.21059255 -0.07227352
-0.29901072 0.020713042 -0.08404284 -0.08963939 0.14195353 0.013688201 -0.09637614 0.0055850996
0.15764585 0.0786477 -0.23049079 -0.2759195 0.14662743 -0.14098814 -0.19601564 0.08322106
0.10395295 0.010327403 -0.20759644 -0.06703381 -0.3173482 0.00581711 0.115462914 -0.15965524
-0.14828417 -0.07531117 -0.12930785 -0.19592379 0.41323856 0.09979791 0.023008162 -0.10636875
-0.09502573 -0.23774108
00000000: 84b1 803e db81 aebd af6f f43c 9f8a f53d
00000010: 8cdb ad3d a026 4f3e 617e 01be 7882 0c3e
00000020: 40b4 3b3e 7a6c 35be 261d 7c3d 5777 f3bd
00000030: e819 26be 143b 87be 93a5 57be 2404 94bd
00000040: ef17 99be 66ae a93c a71e acbd db94 b7bd
00000050: 445c 113e 7a44 603c db60 c5bd 3603 b73b
00000060: ea6d 213e 0c12 a13d c705 6cbe 5245 8dbe
00000070: 8025 163e 325f 10be 53b8 48be ce6f aa3d
00000080: 49e5 d43d 4534 293c 2994 54be 0649 89bd
00000090: 777b a2be 759d be3b d277 ec3d aa7c 23be
000000a0: ced7 17be be3c 9abd 4769 04be 3fa0 48be
000000b0: 0194 d33e d962 cc3d 9d7b bc3c dcd7 d9bd
000000c0: da9c c2bd 6672 73be

decoder.4.weight f4 [50, 50]
0.04419441 -0.13213149 -0.079781 -0.05647194 0.018026242 -0.052877963 -0.09848053 -0.034982845
-0.062592335 0.024299143 0.0679624 0.00804113 -0.1047729 -0.10415836 0.12422375 -0.06333407
0.011286488 -0.07876579 0.008690732 -0.020910924 -0.10161469 -0.08451959 -0.102588534 0.09381682
-0.08579394 0.13442805 -0.1375991 -0.06048311 -0.11861154 -0.11067308 0.1254515 0.10089106
0.03968686 -0.0023897095 -0.13076289 -0.11167712 0.028837955 -0.056455284 -0.13649498 0.037445758
0.02284759 -0.08548308 0.01780406 -0.07527175 -0.08135494 0.12933283 0.12018523 -0.0081764385
-0.07728257 -0.08967791 -0.16519871 -0.096718125 0.0031191614 -0.013449644 -0.06874164 0.13625462
0.009643792 -0.062711544 0.14918001 0.04521322 0.12828022 0.11860971 0.14370497 0.13608833
-0.35645342 -0.051952492 0.23499398 0.037717905 0.08486589 0.015726488 -0.12815107 0.110332645
-0.011634002 0.11280273 0.11129438 0.19098733 0.17879081 -0.14183679 0.2533884 -0.017004263
-0.13331355 -0.07655481 -0.12715618 0.15387622 0.18257491 -0.009931508 0.048556585 0.13699894
-0.13288748 0.15703349 -0.15125702 -0.17957243 -0.05999625 0.121934175 0.16783772 -0.021376126
-0.029244505 0.121256374 -0.045741834 0.35249245 0.28560373 -0.16479678 -0.10254347 -0.09798165
0.11465337 0.052961417 -0.122385085 -0.07470416 0.0559276 -0.0701157 -0.10166652 0.022442717
-0.23447442 0.06336466 0.24909732 -0.013209515 0.10052024 -0.12856147 -0.0072343075 -0.073061
0.076837495 -0.07267819 -0.10123287 -0.05770596 0.04267757 -0.029696329 0.024701884 -0.06255861
-0.03409625 -0.12852645 0.028695868 -0.09717745 0.027434578 0.11860978 -0.103434175 0.020509476
0.106479645 0.12764299 -0.11656923 0.029828914 0.03695241 0.0716336 0.099969774 0.027608631
0.30563456 -0.1300176 0.05580253 -0.22584477 0.010095207 0.38436866 -0.076695114 -0.09392652
-0.03364656 0.1805904 -0.13672796 -0.20420992 0.12000536 -0.026369253 0.037276108 0.074793845
0.0018414131 -0.068525314 -0.108636394 0.4145587 -0.059664473 -0.3057837 -0.05568786 -0.044797257
-0.002754522 0.1403596 0.3077485 0.080849834 -0.053512502 0.0654517 0.14542487 -0.040096987
-0.16159791 -0.008262569 0.091221675 0.045170978 -0.12074968 0.23583822 -0.12014439 -0.03405928
-0.0011104683 -0.062582426 0.27225125 -0.004231999 0.006042459 0.07683482 0.09442563 0.30544078
0.037183758 0.10548557 0.23561445 0.022826694 0.26780125 -0.2214702 0.09692665 -0.36707854
0.17781182 -0.025000509 0.034938384 -0.0007966141 0.018232234 -0.005019682 0.02465989 0.038683917
0.059430182 0.21836264 -0.061120413 0.17253034 -0.1474909 0.52439576 0.14117877 -0.16690303
0.32812405 -0.13016887 0.14575836 0.07975848 0.06849482 -0.0021181959 -0.0010350022 -0.06621154
-0.04082892 0.11121552 0.04890669 -0.20440382 -0.06733518 -0.2594341 0.12358512 0.009418303
0.0050313575 0.17004383 0.037801586 0.11039494 0.39808995 -0.12609512 0.09716803 0.34143272
-0.023779701 0.11300314 0.101125136 0.0833617 0.29667798 0.07066141 0.020538427 0.05141033
0.18152243 -0.46255565 -0.025292257 -0.023558943 0.092697546 0.022913523 0.11331523 0.005825234
00000000: 3305 353d 7a4d 07be 3964 a3bd 1f4f 67bd
00000010: c5ab 933c 9096 58bd 29b0 c9bd 2c4a 0fbd
00000020: 6930 80bd ff0e c73c df2f 8b3d f2be 033c
00000030: 2d93 d6bd fa50 d5bd 0569 fe3d 4bb5 81bd
00000040: f6ea 383c f54f a1bd 9263 0e3c 634d abbc
00000050: 5d1b d0bd 9b18 adbd f019 d2bd 0823 c03d
00000060: bcb4 afbd 82a7 093e c7e6 0cbe 23bd 77bd
00000070: 9bea f2bd 91a8 e2bd 5c76 003e f99f ce3d
00000080: b08e 223d ac9c 1cbb b5e6 05be f9b6 e4bd
00000090: 933d ec3c a83d 67bd 57c5 0bbe b960 193d
000000a0: de2a bb3c c111 afbd d2d9 913c 1328 9abd
000000b0: 6b9d a6bd d36f 043e ad23 f63d 78f6 05bc
000000c0: 5346 9ebd 0da9 b7bd da29 29be 2714 c6bd
000000d0: d86a 4c3b e55b 5cbc 6bc8 8cbd 5586 0b3e
000000e0: ff00 1e3c e96e 80bd a5c2 183e 7f31 393d
000000f0: e45b 033e a6e9 f23d 6527 133e bd5a 0b3e
00000100: 1081 b6be 23cc 54bd 43a2 703e 177e 1a3d
00000110: 2bce ad3d d6d4 803c 093a 03be 15f6 e13d
00000120: 8b9c 3ebc 1e05 e73d 4fee e33d 2f92 433e
00000130: f014 373e aa3d 11be 20bc 813e 864c 8bbc
00000140: 5983 08be c5c8 9cbd 3b35 02be ba91 1d3e
00000150: ebf4 3a3e c4b7 22bc 45e3 463d 7349 0c3e
00000160: a813 08be 63cd 203e 1fe3 1abe d6e1 37be
00000170: a1be 75bd a0b8 f93d a7dd 2b3e fc1c afbc
00000180: 2c92 efbc 4355 f83d ca5b 3bbd e479 b43e
00000190: a73a 923e 7dc0 28be 5002 d2bd 9aaa c8bd
000001a0: 63cf ea3d 12ee 583d 08a5 fabd 7ffe 98bd
000001b0: 5714 653d d298 8fbd 8936 d0bd cad9 b73c
000001c0: 101a 70be 55c5 813d 5e13 7f3e b96c 58bc
000001d0: 8edd cd3d 9ea5 03be c50d edbb 01a1 95bd
000001e0: fa5c 9d3d 4ed8 94bd 2e53 cfbd 165d 6cbd
000001f0: adce 2e3d b745 f3bc 9b5b ca3c bb1e 80bd
00000200: 82a8 0bbd 709c 03be 9913 eb3c f904 c7bd
00000210: 7bbe e03c afe9 f23d 4cd5 d3bd 7d03 a83c
00000220: 0012 da3d d8b4 023e d9bb eebd c45b f43c
00000230: 695b 173d a3b4 923d f4bc cc3d 7f2b e23c
00000240: 227c 9c3e 5523 05be 3291 643d da43 67be
00000250: 5e66 253c f8cb c43e 5412 9dbd 8c5c c0bd
00000260: fad0 09bd b1ec 383e 6a02 0cbe 681c 51be
00000270: 5fc5 f53d 5504 d8bc d5ae 183d 842d 993d
00000280: 925b f13a 0057 8cbd c27c debd 0a41 d43e
00000290: bc62 74bd ae8f 9cbe f418 64bd 547d 37bd
000002a0: 3685 34bb 6dba 0f3e 3691 9d3e 9994 a53d
000002b0: ed2f 5bbd 8a0b 863d 42ea 143e bd3c 24bd
000002c0: ec79 25be ba5f 07bc 6ed2 ba3d 3405 393d
000002d0: 9c4b f7bd 937f 713e 430e f6bd be81 0bbd
000002e0: 228d 91ba 372b 80bd 8464 8b3e 95ac 8abb
000002f0: d2ff c53b 935b 9d3d 3a62 c13d bc62 9c3e
00000300: ff4d 183d d208 d83d ea44 713e 0cff ba3c
00000310: 3f1d 893e 16c9 62be 7b81 c63d b8f1 bbbe
00000320: 4d14 363e decd ccbc 8d1b 0f3d ded3 50ba
00000330: c45b 953c 257c a4bb 8a03 ca3c 0773 1e3d
00000340: 106d 733d 759a 5f3e 6659 7abd cbab 303e
00000350: db07 17be cd3e 063f 2b91 103e a1e8 2abe
00000360: e0ff a73e fd4a 05be ae41 153e 6a58 a33d
00000370: 0347 8c3d 6ed1 0abb e9a8 87ba ea99 87bd
00000380: 3a3c 27bd f6c4 e33d 6252 483d 3c4f 51be
00000390: 07e7 89bd 8cd4 84be 321a fd3d 3a4f 1a3c
000003a0: 16de a43b f81f 2e3e d6d5 1a3d be16 e23d
000003b0: 72d2 cb3e 141f 01be 0800 c73d 45d0 ae3e
000003c0: a6cd c2bc 316e e73d b21a cf3d 8ab9 aa3d
000003d0: 2de6 973e eeb6 903d 3440 a83c a393 523d
000003e0: 04e1 393e 18d4 ecbe b531 cfbc affe c0bc
000003f0: 36d8 bd3d 24b5 bb3c d111 e83d 9be1 be3b

decoder.4.bias f4 [50]
-0.12518658 0.11431377 0.2976351 0.027743222 0.17902052 -0.12137268 -0.2828876 0.04230752
-0.14440228 0.065628596 -0.13852628 -0.11237823 -0.15041885 0.005604573 -0.0019153055 -0.1688072
-0.034912497 -0.014952293 0.07580673 -0.10379958 -0.10027162 0.07577813 0.20882882 -0.017973011
0.06463928 -0.08530067 -0.09518193 -0.062223427 -0.045242745 0.17464496 0.062663555 0.15142387
0.0068297205 -0.025992082 0.06694591 0.040372312 0.11312862 0.16618049 0.15108348 -0.0013904802
-0.048012346 -0.07490693 0.21605971 0.069429964 -0.1303758 -0.07461145 -0.0026077945 -0.08984238
0.24222133 -0.0068908245
00000000: e930 00be 561d ea3d a163 983e c145 e33c
00000010: 2851 373e 3d92 f8bd a5d6 90be a64a 2d3d
00000020: 31de 13be 4968 863d d5d9 0dbe 8f26 e6bd
00000030: 6607 1abe 91a6 b73b fd0a fbba cbdb 2cbe
00000040: 6800 0fbd 76fa 74bc 8f40 9b3d e094 d4bd
00000050: 355b cdbd 9031 9b3d 39d7 553e 233c 93bc
00000060: 9961 843d 1eb2 aebd beee c2bd fedd 7ebd
00000070: 7550 39bd 21d6 323e c055 803d dc0e 1b3e
00000080: d9cb df3b 59ed d4bc f01a 893d 705d 253d
00000090: faaf e73d 382b 2a3e a1b5 1a3e c640 b6ba
000000a0: 98a8 44bd ce68 99bd c23e 5d3e 4c31 8e3d
000000b0: 3c81 05be e3cd 98bd 88e7 2abb 48ff b7bd
000000c0: de08 783e 6dcc e1bb

decoder.6.weight f4 [6, 50]
0.074402526 -0.26597193 0.34276065 -0.25302306 0.05602743 0.093125656 0.29258147 0.31859374
-0.14449763 -0.2001987 -0.07298589 -0.07445452 -0.14182888 0.3538223 0.48911572 -0.03622043
-0.065609515 0.035316043 -0.102138855 -0.08814951 -0.08514824 -0.3129244 0.14590932 -0.13634469
0.3496593 -0.118767075 0.33273318 -0.100640595 0.05240396 0.21169487 0.26408473 -0.16875815
0.2183314 0.13855125 -0.9901495 -0.06032712 0.30448076 0.285659 0.3693646 0.13013408
0.14429544 -1.026453 -0.4878929 0.08420141 -0.091999896 0.10518792 0.23474562 -0.39670062
-0.24465625 0.00088982115 -0.045858555 -0.27965248 0.04850339 -0.19420952 -0.0897225 -0.03416159
-0.21355611 -0.12303432 0.13764556 0.16735373 -0.076742105 -0.04396903 -0.06443587 -0.020417696
-0.3985915 0.079899564 -0.15667729 0.029372541 0.11032206 0.11138592 0.0072522424 0.041128334
-0.25389636 0.061463144 0.008935059 0.07317689 0.13613625 -0.10441951 0.3304428 -0.031482946
-0.07124493 0.095224164 0.07334327 -0.01151958 0.11242195 0.4357667 0.10018329 0.005249071
-0.4980265 -0.059434857 0.18514036 0.1261224 -0.14869529 0.11908049 0.12027224 -0.07484895
0.22621627 -0.19490066 -0.055832986 -0.053194348 0.055445295 0.08422087 0.056251243 -0.05111307
0.032170087 -0.012739004 -0.0077332137 -0.06363228 0.022150228 -0.028633248 -0.10033225 0.046667907
-0.094480634 0.031389706 -0.120205045 -0.16026342 0.13625488 -0.124341905 0.03585515 -0.08458065
-0.046822134 0.112140745 -0.0037542142 -0.1118005 0.017653259 0.012200996 -0.06254563 0.020255934
0.10569748 0.094433434 -0.03829878 -0.11027879 -0.1596502 0.10643666 0.033321496 0.11642861
0.10404921 -0.048072804 -0.24636729 -0.044879258 0.007958931 0.029473398 0.04244794 0.061220136
0.02989579 -0.10274626 0.1483754 -0.061699595 -0.13842069 -0.11798411 0.06354794 0.41959557
0.5228951 -0.69459796 -0.7667835 -0.02150265 -1.2497776 0.24078768 -0.55852526 -0.10790942
0.041580167 0.12263202 0.10934496 -0.58949107 -0.6686033 0.11928969 -0.6327181 -0.111247756
-0.6738162 -0.03259649 -0.071122 -0.2560638 0.19077277 -0.12720674 -0.009821218 0.011797718
0.4881816 -0.02394658 -0.17779912 0.37356418 0.23344149 -0.89772695 0.027489986 -0.16251296
-0.40573746 -0.024625326 -0.51561856 -1.3229673 0.0752299 -0.12956263 0.20136537 0.7487504
-0.09088429 0.1394544 0.034181483 0.117802516 0.023154505 0.1295138 -1.3236074 -0.067869306
0.076319486 -0.32975358 0.29869807 0.31979948 0.3832829 -0.09324217 -0.38226223 0.037327148
0.17003316 0.003635362 -0.094417736 0.1070753 0.081141844 0.34614325 -1.2607676 0.13318431
-0.5181453 0.066804476 -0.7757517 0.06831347 -0.039569825 -0.09073981 0.293089 0.083101474
0.29731956 0.092275456 -0.29605398 0.10558286 0.3048153 0.22743885 -0.29096678 -0.81814486
0.13933659 0.1610087 -0.6202861 0.22553723 -1.2368739 0.20156059 0.1567909 -0.019649956
-0.23327598 0.3246791 0.08648372 -0.12022081 -0.051854063 -0.086939886 -0.9363259 -0.02577405
-0.87219113 -0.05057391 0.118497945 -0.24492015 -0.2187418 -0.42704523 -0.98274285 0.034898266
00000000: 5a60 983d 792d 88be 537e af3e 3d8c 81be
00000010: 057d 653d aab8 be3d 3dcd 953e b81e a33e
00000020: 30f7 13be e300 4dbe a079 95bd 9d7b 98bd
00000030: 973b 11be 3228 b53e 606d fa3e e05b 14bd
00000040: 485e 86bd 8ea7 103d 2d2e d1bd bb87 b4bd
00000050: 3362 aebd a137 a0be 4169 153e f19d 0bbe
00000060: 8b06 b33e 273c f3bd 015c aa3e a81c cebd
00000070: 89a5 563d 8ac6 583e 1d36 873e f0ce 2cbe
00000080: 4492 5f3e 61e0 0d3e 707a 7dbf 9219 77bd
00000090: e7e4 9b3e e541 923e 5b1d bd3e de41 053e
000000a0: 2fc2 133e d062 83bf 19cd f9be ca71 ac3d
000000b0: 716a bcbd c46c d73d 2861 703e 581c cbbe
000000c0: 2b87 7abe e342 693a 2ed6 3bbd 9c2e 8fbe
000000d0: 7eab 463d dcde 46be 6ec0 b7bd 06ed 0bbd
000000e0: 74ae 5abe 6bf9 fbbd f5f2 0c3e c75e 2b3e
000000f0: f72a 9dbd df18 34bd f4f6 83bd 0343 a7bc
00000100: 2f14 ccbe 62a2 a33d 0370 20be af9e f03c
00000110: 88f0 e13d 4d1e e43d 38a4 ed3b 2f76 283d
00000120: b4fe 81be c7c0 7b3d 5b64 123c c4dd 953d
00000130: 4d67 0b3e e5d9 d5bd cc2f a93e 43f4 00bd
00000140: dde8 91bd e304 c33d ff34 963d 9fbc 3cbc
00000150: 7b3d e63d d01c df3e e62c cd3d 6600 ac3b
00000160: 54fd febe f771 73bd 6f95 3d3e 3b26 013e
00000170: 9443 18be 79e0 f33d 4b51 f63d 684a 99bd
00000180: 3da5 673e 0a94 47be 21b1 64bd 51e2 59bd
00000190: 9b1a 633d fe7b ac3d b467 663d f05b 51bd
000001a0: c8c4 033d 41b7 50bc e666 fdbb a451 82bd
000001b0: 6574 b53c 4690 eabc ff7a cdbd d926 3f3d
000001c0: 107f c1bd 7e92 003d 102e f6bd 181c 24be
000001d0: 6686 0b3e f8a6 febd dadc 123d 9f38 adbd
000001e0: 91c8 3fbd 0caa e53d 4309 76bb a9f7 e4bd
000001f0: 919d 903c b0e6 473c ec17 80bd c6ef a53c
00000200: ec77 d83d 5166 c13d 2edf 1cbd d9d9 e1bd
00000210: 587b 23be 77fb d93d 1f7c 083d 2072 ee3d
00000220: c117 d53d fde7 44bd b547 7cbe 50d3 37bd
00000230: 2d66 023c 3272 f13c e4dd 2d3d f7c1 7a3d
00000240: 04e8 f43c a26c d2bd b9ef 173e b7b8 7cbd
00000250: 27be 0dbe a7a1 f1bd 6c25 823d 3bd5 d63e
00000260: 74dc 053f 2cd1 31bf ec4b 44bf 5326 b0bc
00000270: b6f8 9fbf 0c91 763e 83fb 0ebf 9dff dcbd
00000280: f74f 2a3d 7f26 fb3d 40f0 df3d e3e8 16bf
00000290: 9629 2bbf 274e f43d d0f9 21bf ddd5 e3bd
000002a0: 387f 2cbf e683 05bd 69a8 91bd cb1a 83be
000002b0: f059 433e 7c42 02be 2de9 20bc 374b 413c
000002c0: f0f2 f93e 9e2b c4bc f910 36be ce43 bf3e
000002d0: 490b 6f3e 6fd1 65bf ae32 e13c cc69 26be
000002e0: d2bc cfbe 0dbb c9bc 94ff 03bf fe56 a9bf
000002f0: 2212 9a3d 11ac 04be b932 4e3e 1bae 3f3f
00000300: 8b21 babd 22cd 0e3e e201 0c3d 7242 f13d
00000310: 84ae bd3c 449f 043e f86b a9bf 10ff 8abd
00000320: 644d 9c3d 76d5 a8be f4ee 983e c2bc a33e
00000330: a83d c43e c0f5 bebd e0b7 c3be 5ae4 183d
00000340: 2c1d 2e3e 413f 6e3b 165e c1bd 4b4a db3d
00000350: b22d a63d b039 b13e d560 a1bf 7861 083e
00000360: 2ca5 04bf c9d0 883d aa97 46bf efe7 8b3d
00000370: f813 22bd cbd5 b9bd c30f 963e 1b31 aa3d
00000380: 453a 983e eafa bc3d 6394 97be d43b d83d
00000390: c010 9c3e bbe5 683e 99f9 94be f171 51bf
000003a0: 40ae 0e3e 77df 243e 12cb 1ebf 3bf3 663e
000003b0: e251 9ebf e665 4e3e cb8d 203e f2f8 a0bc
000003c0: e6df 6ebe 573c a63e 601e b13d 5436 f6bd
000003d0: ed64 54bd 8a0d b2bd 0eb3 6fbf 1a24 d3bc
000003e0: eb47 5fbf 9726 4fbd 0daf f23d 59cc 7abe
000003f0: dafd 5fbe aca5 dabe 0995 7bbf 7cf1 0e3d

decoder.6.bias f4 [6]
0.07369406 -0.42169714 0.0114542935 0.5247484 0.21350542 0.37363955
00000000: e9ec 963d b0e8 d7be caaa 3b3c e955 063f
00000010: 2aa1 5a3e af4d bf3e

cluster_layer.weight f4 [4, 4]
-0.09609295 0.026719516 0.1315283 -0.112927034 -0.09944934 -0.10119747 0.09940808 0.09993467
-0.102884725 0.09748535 0.10137969 -0.098150395 0.101889804 -0.09955535 -0.10115421 0.09733972
00000000: 61cc c4bd e3e2 da3c 5baf 063e 4a46 e7bd
00000010: 18ac cbbd 9f40 cfbd 7796 cb3d 8caa cc3d
00000020: 3ab5 d2bd 66a6 c73d 28a0 cf3d 1303 c9bd
00000030: 9aab d03d ade3 cbbd f029 cfbd 0c5a c73d
