model/checkpoint_300.tar (torch, 110796 bytes, 51 tensors)

encoder.1.weight f4 [50, 6]
000000 47 59 db be a7 cc 58 bb 98 f7 14 3b f1 bb 93 3e
       -0.4284155 -0.0033080967 0.0022730585 0.28854325
000010 fb a9 85 be 8a 7c 0e 3d 8b 77 80 3b bb 6a 47 39
       -0.26106247 0.03478674 0.0039205006 0.00019017879
000020 37 ca a7 ba ce b0 ea 3f 22 48 bf 3c ac 08 a1 be
       -0.0012801354 1.8335207 0.023349825 -0.3145193
000030 be f1 46 be 81 46 50 be fb 14 82 3c 91 45 a3 bd
       -0.19428155 -0.20339395 0.015879145 -0.07972253
000040 7b 38 a3 3e 57 f8 ba be 06 ed 8b 3e d2 64 a1 3a
       0.3187903 -0.36517593 0.27329272 0.0012313372
000050 28 6f e0 3b be c4 f7 bd 24 3a 80 bd df f6 3b 3f
       0.0068491884 -0.120980725 -0.062610894 0.7342357
000060 d0 34 bd bd ed 91 61 bd 0e 3a cd 38 96 bc 2e 3f
       -0.09238589 -0.055070806 9.785975e-05 0.6825651
000070 e0 4a 82 3e 67 46 e9 be 32 c3 2f 3f 9c 3e 13 3b
       0.2544775 -0.45561525 0.6865722 0.0022467738
000080 23 b6 c6 bb c6 f7 55 3e 9d c7 cd bb ac b0 e8 3e
       -0.006064193 0.208953 -0.0062798993 0.4544729
000090 37 f4 a1 bd 84 56 67 be 4a d1 d9 bd 0a 01 7c be
       -0.079079084 -0.22591597 -0.10635622 -0.24609771
0000a0 e5 01 63 3e f5 67 51 be 96 b9 e2 be e3 73 28 3e
       0.22168691 -0.20449813 -0.44282216 0.16450457
0000b0 06 65 65 3e c7 bc aa bc 91 a3 db bd fe 02 31 bd
       0.22401819 -0.02084197 -0.10724557 -0.043215744
0000c0 ad 0e da 3e 70 92 32 bc 39 ef 59 bb 54 a4 6e 3f
       0.42589322 -0.010899171 -0.003325416 0.93219495
0000d0 d2 e4 04 3f 3e 74 a2 bc 00 29 a5 be f9 0b 36 3c
       0.5191165 -0.01983082 -0.32257843 0.011111253
0000e0 b8 7b 42 be 37 80 9e ba b2 6f 4c 3e 7e ce 38 3e
       -0.18992507 -0.0012092654 0.19964483 0.1804752
0000f0 da 64 3c be e0 04 26 bc 6a 08 91 39 80 f1 61 bf
       -0.18397847 -0.010132998 0.00027662824 -0.88259125
000100 d2 52 52 be 88 18 be 3d 82 8a 6e be 3d 93 36 be
       -0.20539406 0.09282023 -0.23295024 -0.17829604
000110 93 69 0c 3e f2 98 70 3e 19 71 bb 3b 14 9d 22 be
       0.13712148 0.23495844 0.0057202694 -0.15880233
000120 e9 87 6f 3d 57 1c f9 bd 25 52 3e bd 6b b0 5c 3f
       0.058479223 -0.121636085 -0.046465058 0.8620669
000130 51 3d 53 bd b1 ea 84 3e af 1f 6b be 50 1f 30 3b
       -0.051572148 0.25960305 -0.22961305 0.0026874132
000140 5a 1a e6 ba 3e ec 33 bf 90 0d 50 be 7b b2 df 3d
       -0.0017555461 -0.7028235 -0.20317674 0.10922714
000150 45 e3 77 bf 05 74 ec bb 6d 62 22 ba d2 27 ee 3e
       -0.9683116 -0.007215979 -0.0006194476 0.46514755
000160 52 45 96 be 5e b8 66 3f 51 1f 09 bf 9a d6 d3 39
       -0.29349762 0.9012507 -0.5356341 0.00040404947
000170 c4 98 a2 3a 3d 32 44 be 7e 6a c8 be 69 3e 2a be
       0.0012405147 -0.1915979 -0.39143747 -0.1662537
000180 aa 6d 84 be 5d 03 8b 3e 7d 4d 1f 3e 82 62 a6 3e
       -0.25864917 0.27151003 0.15556903 0.3249703
000190 01 96 9b be 48 73 cb be 1c e8 3e bf de 05 9f ba
       -0.3038788 -0.3973639 -0.7457292 -0.0012132486
0001a0 32 6c 16 3c 34 56 25 bf ba 42 0f 3f f9 6a 02 3f
       0.009181069 -0.6458466 0.5596119 0.5094448
0001b0 bf 01 55 ba 20 31 22 b9 9b a9 06 3a c5 d1 de 3f
       -0.00081255654 -0.00015467824 0.00051369675 1.7407767
0001c0 10 cc b8 3c 1b 7a a4 be db 84 af 3d 51 10 9d be
       0.022558242 -0.3212441 0.08570262 -0.3067651
0001d0 92 ad 5f be 9a 7a 44 be 84 8c 6c be 63 42 94 3d
       -0.21843556 -0.19187394 -0.23100477 0.07239225
0001e0 68 8e ce bd ff a4 8d 3a 41 1f c6 3a e6 f3 12 bf
       -0.100857556 0.0010806619 0.0015115516 -0.5740341
0001f0 2a 09 2a 3f a4 88 71 3d 6f 40 b5 be 42 ab 87 be
       0.66420233 0.0589682 -0.3540072 -0.26497847
000200 95 25 17 3e 07 e4 22 3e 11 40 81 be db cf 02 be
       0.1476043 0.15907298 -0.2524419 -0.12774603
000210 74 de b6 bf 9b 48 3a 3a da 1b 2f 3a c5 26 2d be
       -1.4286637 0.0007106156 0.00066798704 -0.1690932
000220 e0 9d a3 be ce af 68 3e d0 59 a7 3e 03 04 ae bd
       -0.31956387 0.22723314 0.3268571 -0.08496859
000230 7b 68 87 bd ee 4c 17 3e 37 cc 71 3d 13 a1 09 be
       -0.06611725 0.1477544 0.059032645 -0.13440351
000240 d6 01 c1 be 12 3f 83 be 5f 92 08 3d 72 63 dc 3b
       -0.37696713 -0.25634056 0.033342715 0.006725722
000250 b1 39 cf 3e 3a 72 02 bd 14 6a c4 bd ee ad c9 be
       0.40473703 -0.031847216 -0.09590545 -0.3939051
000260 e8 57 bf be 7f f0 38 3e e6 d8 b2 3e 62 9a 03 bb
       -0.37371755 0.18060492 0.34931105 -0.0020081033
000270 5b 35 ae bf b2 f1 ad bb e0 73 2d bc 9f be f0 be
       -1.3610033 -0.0053083533 -0.010586709 -0.47020432
000280 2c bb f2 bd 35 06 95 3d 76 9d 8e bf 9c 89 d4 3a
       -0.118521065 0.072765745 -1.1141803 0.0016215327
000290 b1 ef 82 bb 44 0b d5 be 33 57 02 be 7d e5 72 be
       -0.0039958586 -0.41610157 -0.12728576 -0.23720355
0002a0 b1 6e 22 3f 62 b7 9d 3a 5e 4d 33 ba ba 34 54 bf
       0.6345015 0.0012032802 -0.0006839837 -0.82892954
0002b0 99 8d 30 3f 68 17 59 3b eb dc 67 be 11 f4 da bc
       0.6896606 0.0033125523 -0.22642867 -0.026727708
0002c0 02 00 94 be 2d 35 9a bc 7e 42 69 3e 7f ee 3b be
       -0.28906256 -0.018824184 0.22779271 -0.18352698
0002d0 2e 4c 23 3f 3b d9 92 ba 18 82 80 ba ef 8e ef 3e
       0.63788116 -0.0011203656 -0.0009804396 0.46788737
0002e0 48 10 96 be 93 6f 80 be 53 92 c8 bb 88 34 09 bd
       -0.29309297 -0.25085124 -0.006120959 -0.033497363
0002f0 8e 03 2f bb 06 d8 70 3e 90 e1 3d 3e 25 2c 86 3f
       -0.0026705 0.23519906 0.18543077 1.0482222
000300 ab 81 a5 3e c4 3a cc be c5 4f 4a 3d 98 81 ae bc
       0.3232549 -0.39888585 0.04939248 -0.02130203
000310 5e 84 f6 3d 2e 19 cd bd 81 39 09 3e 65 83 b2 be
       0.12036966 -0.10014568 0.13400842 -0.3486587
000320 bf ea 5c 3e 3a 30 ed 3e 54 c4 21 bd ef b0 a0 be
       0.21573924 0.46325856 -0.039493874 -0.3138499
000330 0b 6d c0 be 5a 40 6d bc c5 37 2d bc 8a 82 8d 3d
       -0.37583193 -0.014480675 -0.0105723785 0.06909664
000340 f7 25 a4 bc 10 0a 2c 3f 46 ed 11 bb f0 1a c4 3a
       -0.020037634 0.67202854 -0.002226667 0.0014961641
000350 0c 9b c1 b7 9d 30 8e 3f 60 13 d6 3e d0 00 10 3c
       -2.3079592e-05 1.1108586 0.41811657 0.008789256
000360 d6 0d 66 3e da 03 07 3e 3f d3 27 3d 28 70 f2 bd
       0.22466215 0.13185063 0.040972944 -0.11837798
000370 03 28 7b 3d dc 3b f0 3c 9a 23 8b be 88 3c 2b 3c
       0.061317455 0.029325418 -0.271756 0.0104514435
000380 23 b7 9f bb 2c f6 0d bf 02 e0 8d 3d b7 78 b5 3e
       -0.0048741265 -0.55453753 0.06927492 0.3544366
000390 fc a8 fb bc a0 06 68 bd 3b 81 1d 3b 7c a8 fd bc
       -0.030720226 -0.056646943 0.0024033326 -0.030964129
0003a0 8f af 48 3e ab 1f 93 3f c2 75 67 3f 44 fe 95 bb
       0.1959822 1.1494039 0.9041406 -0.00457743
0003b0 62 2f 9d ba 3c 3d 3b be 80 63 30 be 9e 17 c0 be
       -0.0011992271 -0.18285078 -0.17225456 -0.37518018
0003c0 b2 ae b2 bf 50 fd 0a bc 8e 43 48 3b 37 c3 24 bf
       -1.3959563 -0.008483246 0.0030557844 -0.64360374
0003d0 1e 24 90 be f2 b1 88 3e 21 36 15 bb 37 e7 36 bb
       -0.28152555 0.26698261 -0.002276786 -0.002790881
0003e0 ae 8a c7 ba 7f e0 e3 3f a5 57 9a be 46 7c e7 bd
       -0.0015223825 1.7802886 -0.30144992 -0.11303
0003f0 52 52 da be 24 f6 ae bb 80 53 59 bc 16 33 8b 3e
       -0.4264093 -0.005339401 -0.013264537 0.27187413

encoder.1.bias f4 [50]
000000 f2 0a 5f 3e c6 d6 78 bb 05 d9 65 bc 7d ea 02 be
       0.21781519 -0.0037969812 -0.014028792 -0.12784763
000010 c8 87 c8 bd 9f 3a ef be fd f3 ef bd a6 2a 4e be
       -0.09791523 -0.46724412 -0.11716459 -0.20133457
000020 c8 1d 46 be 32 25 aa be 19 80 a9 3d 59 50 c9 be
       -0.19347298 -0.33231503 0.08276386 -0.39319113
000030 88 34 0c bf c2 af c7 3d 0b db 9a 3c e5 37 80 3e
       -0.54767656 0.0975032 0.018903276 0.25042644
000040 c2 41 ba be c5 6c d1 3c 8c 75 5b bb 76 1f 89 be
       -0.36378294 0.02556456 -0.0033486811 -0.26781815
000050 a9 74 4e 3d 9c 4f 0f be 9b f5 c6 3c c5 e9 bc be
       0.050404225 -0.13995212 0.024287036 -0.36897102
000060 5c af 24 be 94 95 8a be 1f 04 01 3d 21 78 d1 3c
       -0.1608252 -0.27067244 0.03149807 0.025569977
000070 60 24 9f be 51 26 77 be 58 ca ad be ba 4d 5f be
       -0.3108244 -0.2413571 -0.3394344 -0.21806994
000080 c3 d6 d0 be 12 56 a8 be 96 4c b8 3c 4d e8 7d bb
       -0.4078885 -0.32878166 0.022497457 -0.0038743198
000090 70 f6 b2 be 94 41 04 3e 7d db 53 be a1 98 01 bf
       -0.34953642 0.12915641 -0.20689197 -0.5062352
0000a0 53 18 c7 3c 73 47 2a bb 43 9c 1e 3c 5e d0 32 be
       0.02430359 -0.0025982528 0.00968081 -0.17462298
0000b0 69 18 df be a5 fd d5 3b 61 92 fa bb 94 d4 0b 3d
       -0.4357331 0.006530481 -0.0076468443 0.034138277
0000c0 fc 7f 8b be a9 69 db ba
       -0.27246082 -0.0016739863

encoder.4.weight f4 [50, 50]
000000 f6 ea 80 3d 66 bc a7 be bf c6 62 bd 23 e5 0a bd
       0.06294815 -0.32760924 -0.05536532 -0.033909928
000010 8d d9 47 be 81 c6 01 3e e5 25 90 bc 49 29 91 3d
       -0.19516583 0.1267338 -0.017596195 0.07087953
000020 77 b2 e6 3c ff 9c b5 3d 11 9c 41 3e 3c 26 ae 3b
       0.02816127 0.08867835 0.18907191 0.0053146165
000030 15 16 c4 bd c2 02 0c 3d 91 53 17 3e 58 91 04 3d
       -0.09574524 0.034182318 0.14777972 0.032365173
000040 c6 93 0c be 33 37 f5 bb 0d 6b a6 be af 92 ca bd
       -0.13728246 -0.007483387 -0.32503548 -0.09891259
000050 58 1e bd bd 93 60 06 3d 52 3a 28 3e 56 d7 d0 bc
       -0.09234303 0.032806944 0.16428497 -0.025493305
000060 f8 22 98 3d 6a ed 0d bd 59 c2 2a 3d 8e 21 57 3e
       0.07428545 -0.034650244 0.04168925 0.21008894
000070 9b 5c 75 3d 1a 66 ce 3d 79 46 0d 3e b9 3e e5 bc
       0.05990277 0.10078068 0.13796414 -0.02798401
000080 33 1c 1a 3d 36 11 90 3d 22 87 70 3d e3 c5 57 be
       0.03762455 0.07034533 0.058722623 -0.21071582
000090 b4 b1 03 ba 8a 7b d2 bb 88 75 a5 3d 05 2c 1c 3e
       -0.0005023733 -0.0064234184 0.08079058 0.15251167
0000a0 5b dd 1f 3e 94 e3 98 be 0b f2 5f 3c 6f fd 90 bd
       0.15611784 -0.29861128 0.013668547 -0.070795886
0000b0 14 8a a0 3e 84 1f 7f bc f5 c9 5d be 38 db 43 bc
       0.31355345 -0.015571479 -0.21659072 -0.011954121
0000c0 63 00 1f 3d e2 b0 7b bd d9 4b fb 3d 3c 2e b8 3c
       0.03881873 -0.061447985 0.12270326 0.022482984
0000d0 fe 87 a1 3d e7 0c bb bd 80 38 41 3c 65 40 51 3e
       0.078872666 -0.0913332 0.011793256 0.20434721
0000e0 62 dd 92 bd cc 8b ae 3c a1 8c 21 3c 9c 17 99 3d
       -0.07171132 0.021306895 0.009860189 0.07475206
0000f0 f5 59 69 3d ba 98 d9 bd 65 16 e6 bd 9b a8 0f 3e
       0.056970555 -0.106248334 -0.1123474 0.14029162
000100 d4 5d 0d bb 3a 3e 9f bd 7d 82 03 be e5 c0 25 bd
       -0.0021570818 -0.07775541 -0.12842746 -0.04046716
000110 43 ab dc 3b a1 ed 85 3c e1 a5 b7 bc 71 72 02 bd
       0.006734283 0.016348662 -0.022417964 -0.03184742
000120 0f 59 ee 3d c5 8e 52 3d 79 72 68 3d 84 3e 9c bd
       0.1163808 0.051405687 0.056749795 -0.076291114
000130 f7 06 77 3e 37 4a 67 3e a8 3a 84 bd e8 3a 06 3e
       0.2412375 0.22586904 -0.064565 0.13108408
000140 78 dc 1b be e6 12 ec bd 95 6d dd 3c 57 88 22 3d
       -0.15220821 -0.11527042 0.027029792 0.039680805
000150 0d c7 18 3e 6a da d5 bc ba 0f c3 3d 28 a0 28 3d
       0.14919682 -0.026105125 0.09524484 0.041168362
000160 d9 b4 f5 bd 62 48 23 3e 4c cc 26 3e e6 c1 10 bd
       -0.119973846 0.1594558 0.1628887 -0.035341166
000170 03 37 b7 bd 4e f1 b9 bd 3c 58 b1 3d 5e 66 0a 3e
       -0.089460395 -0.09079228 0.086594075 0.13515612
000180 11 b6 ae bd ce a2 cb bd 9e 9c 72 bd 5b a0 3b 3d
       -0.0853082 -0.09943162 -0.059231393 0.045807224
000190 a5 25 fa 3c 1d aa 86 be d8 84 d9 3d 0f 14 8d bd
       0.030535528 -0.2630166 0.10621041 -0.068885915
0001a0 4e 86 4b bc 1a fe a4 bd 36 ff 3d bd 58 76 2b 3b
       -0.012422157 -0.080562785 -0.046385966 0.0026163068
0001b0 fb 6a f1 bd a1 f1 0f 3e d4 92 79 b8 d7 a6 09 3e
       -0.11787983 0.14057018 -5.950297e-05 0.1344255
0001c0 99 75 02 3e 47 04 d4 3d 76 b8 44 be 0c 84 e7 3c
       0.12740172 0.10352378 -0.19210991 0.028261207
0001d0 18 de 6a bd 26 ed b1 bc 24 10 1c be 85 4c a1 3d
       -0.05734071 -0.021719526 -0.15240532 0.07875923
0001e0 90 80 0b 3e 7f 13 e0 bd 29 e4 4b be 87 56 2c 3d
       0.13623261 -0.109412186 -0.19911255 0.042074706
0001f0 9b 29 ec bc fb e5 85 3d eb 5d 91 3d d5 b9 fe 3b
       -0.028828433 0.06538006 0.070979916 0.0077736177
000200 f2 90 1c be f7 56 27 bd e4 36 0c be d2 f1 86 bd
       -0.15289667 -0.04085442 -0.13692814 -0.06589092
000210 0b c1 c8 3d e7 67 0b be 7d 6c f2 bc 78 6b 13 be
       0.09802445 -0.13613854 -0.029592747 -0.14396465
000220 12 6b dd 3d 9e 85 ba 3d 1b 9e 47 bd 8a 22 64 be
       0.10811438 0.09107517 -0.048734765 -0.222788
000230 8a f9 8b bc 4c 6e eb bd bf 02 a0 bd fc 39 ca bb
       -0.017086763 -0.11495647 -0.07813024 -0.006171463
000240 bb fc 12 be 21 fb d7 3d 29 62 bf 3c e6 8e b6 bd
       -0.14354222 0.10545946 0.023362236 -0.089139745
000250 9b f6 cf bd df 97 db bd 07 13 30 be 93 cc 4a be
       -0.10154458 -0.107223265 -0.17194758 -0.19804601
000260 15 b8 0d 3d c6 58 c0 3c 26 cb dd bc fb 91 36 3e
       0.034599382 0.02347983 -0.027074408 0.17829125
000270 a1 db 00 3e 60 c5 6a 3d cf db 2e 3c 89 6a e9 bd
       0.12583782 0.057317138 0.010672524 -0.11397273
000280 3d 02 ff 3b b6 16 f6 bd 58 80 d3 3d e1 8b 0a be
       0.0077822492 -0.120160505 0.10327214 -0.13529922
000290 40 0f c9 3c 1a 63 15 be cb f4 c7 bd b9 32 8a be
       0.024543405 -0.14588585 -0.097634874 -0.26991823
0002a0 25 ef 44 be 0e 69 84 bd 06 4b 8f be 7a e0 cc 3d
       -0.19231851 -0.0646535 -0.27986926 0.10003753
0002b0 12 f2 89 bd 43 76 8c bc 4f d0 26 bc 3c 92 70 3d
       -0.067356244 -0.017146235 -0.010181501 0.05873321
0002c0 04 b0 7e bd 1f 17 8a bc f3 1d a8 3d 13 dd c7 3d
       -0.06217958 -0.016856728 0.08208837 0.097589634
0002d0 e0 90 39 3e 60 19 cc bd 81 22 11 bd 4a 64 db bd
       0.18121672 -0.099657774 -0.035433296 -0.10712488
0002e0 8b 56 81 3d 67 59 fa bd 55 3b b2 3c 4b b7 82 be
       0.06315335 -0.122240834 0.021756807 -0.25530466
0002f0 06 43 8b 3c fd 00 1c 3e a9 ca bd bd 6c 1a 5c be
       0.016999733 0.15234752 -0.0926717 -0.21494454
000300 7c 2d 2b be 45 bb 07 3e b1 e5 75 3e dc 9a 7a bd
       -0.1671657 0.13255031 0.24013402 -0.06118284
000310 8a 7b 35 be 23 4e 7a 3d 71 41 a1 3d 0f bf de bd
       -0.17722908 0.061109673 0.0787381 -0.10876285
000320 1e 6f 52 3e 45 30 bd bd ec c5 b4 bd 25 c8 bc 3e
       0.205502 -0.09237722 -0.08826813 0.36871448
000330 2c 79 16 be ed c2 55 3e 67 bb 9e bd 46 39 7e 3d
       -0.14694661 0.2087514 -0.07750588 0.06206634
000340 86 98 02 bd 60 f1 c0 bd e2 2d 35 bd da 4e e4 3d
       -0.03188374 -0.09421039 -0.04423321 0.11147852
000350 82 21 b0 bd 37 4b 72 bd f7 44 a8 3d 22 61 5d bd
       -0.08600141 -0.05915376 0.08216279 -0.05404771
000360 c2 04 00 be 57 a6 5a 3d 0a 86 39 be 86 e2 09 3d
       -0.12501815 0.05338129 -0.18117538 0.033663295
000370 b9 d0 69 bc ff 47 30 bd 2a 89 86 bd 3b f9 aa 3d
       -0.014270955 -0.04303741 -0.06569131 0.08348318
000380 2d 3c f1 bd 87 ca 86 3d bd 8d a1 3d c7 14 94 3d
       -0.11779056 0.06581598 0.078883626 0.072305255
000390 c5 85 28 bd f6 d1 68 3d af ff f8 bd 2d 37 6f 3e
       -0.041143198 0.05684086 -0.12158143 0.23360892
0003a0 ab ff 5f bd d9 40 0f 3d 46 89 fb 3d d7 08 b4 bc
       -0.054687183 0.034973953 0.12282042 -0.021976871
0003b0 8c d6 06 be ef 3d a3 bc 13 28 94 3e 02 d6 2d 3d
       -0.1316778 -0.019926993 0.28936824 0.042440422
0003c0 a8 eb 80 bc aa bf 3d be af c2 80 bd 02 c6 04 3c
       -0.01573737 -0.18530145 -0.06287133 0.008103849
0003d0 7e d4 af bd 78 01 4e 3d 2c 6e f0 3d 7f 12 d9 bd
       -0.085854515 0.05029437 0.117397636 -0.10599231
0003e0 79 d8 49 bd 48 d7 d7 3d b0 35 d7 bd a1 02 b7 3c
       -0.04927871 0.105391085 -0.10508287 0.02234012
0003f0 f3 2f c5 bd f9 29 02 3e 8b 38 91 bd a3 dd 33 3e
       -0.09628286 0.12711324 -0.07090863 0.17565016

encoder.4.bias f4 [50]
000000 f2 8d db 3a 3e c4 0f bc e9 e3 7b 3c a4 5d 8e 3c
       0.0016750677 -0.008774815 0.015374162 0.017378636
000010 56 eb 36 bc af 1b fc bb 5f 1b 0f bf 7f ac ac bb
       -0.011164507 -0.00769373 -0.5590114 -0.0052695866
000020 5c fc df bd 98 19 3a bc 35 34 7a bd 77 cb bc 3a
       -0.109368056 -0.011358641 -0.061084945 0.0014403899
000030 16 3b 34 ba e2 6f 8b ba fa 23 ae bd b0 06 31 bc
       -0.00068752596 -0.0010638202 -0.08502956 -0.010804817
000040 3d 3a 4d 3c 0e ab 1c bb 71 9c 70 bc 35 7d f1 be
       0.012526092 -0.0023905667 -0.014685736 -0.47165838
000050 0e 9b cb bd 8c 37 a6 bb fe e2 47 be 7c a9 77 bb
       -0.09941684 -0.0050725397 -0.19520184 -0.003779023
000060 dd e1 b5 ba 68 a1 d6 ba 3e 10 d8 bb 35 e7 99 bb
       -0.0013876517 -0.0016375007 -0.006593733 -0.0046967515
000070 74 69 ce 3b c0 84 3b bc 88 9e f3 ba 47 c1 24 bc
       0.006299192 -0.011445224 -0.0018586675 -0.010055847
000080 be dd bb 3b 1f 56 0a be d7 ba 08 be 69 be 30 be
       0.005733221 -0.13509415 -0.13352524 -0.17260136
000090 9b 68 69 be 83 37 37 bd 98 a2 d2 be a9 c5 a6 bb
       -0.2279381 -0.044730674 -0.41139674 -0.005089481
0000a0 61 27 23 3c 60 9c d3 bd 6b 76 a0 bb 91 0f 48 bd
       0.009958119 -0.103325605 -0.004896929 -0.04884297
0000b0 89 bb 29 be a1 21 7d 3c 0c 38 f2 bd a1 ae 0c 3b
       -0.16575445 0.015449912 -0.11827096 0.0021466392
0000c0 cb 1a 80 bb 88 f8 3d 3c
       -0.003909444 0.011594899

encoder.7.weight f4 [20, 50]
000000 68 7f 9e 3d 82 94 1c 3d a7 e1 9f 3c b3 05 6e be
       0.077391446 0.038227566 0.01951678 -0.23244362
000010 87 c0 53 3c c9 63 1b 3e 8a 41 9c bd 46 c8 04 3f
       0.01292432 0.15174784 -0.07629688 0.51868093
000020 f8 67 c6 bd bb 62 83 3e f9 11 4c 3e 85 17 75 be
       -0.09687799 0.25661263 0.19928731 -0.23934753
000030 a5 da 95 be b2 d9 32 be 0b 7e 03 be 4e bf 87 3e
       -0.29268375 -0.17465857 -0.1284105 0.2651314
000040 33 12 a8 3c ea 2e ab 3e 7e 7c b4 bd 89 76 30 bd
       0.02051649 0.3343423 -0.088128075 -0.043081794
000050 35 3f 8c bd a8 a7 92 3e 56 6a 07 be fa df b2 3e
       -0.06847993 0.28643537 -0.13224158 0.34936506
000060 61 4d a1 bd 37 ac d8 3e 06 10 b5 3e 79 48 e5 3e
       -0.07876087 0.4231889 0.35363787 0.44781855
000070 77 7d 01 be f0 b7 e1 bc fc 1d 12 be ef 5b c3 3e
       -0.12645517 -0.027553529 -0.1426925 0.38156077
000080 a9 3d eb bd 74 cb 1e bc 9d 0d 7c bd c8 10 63 bd
       -0.1148637 -0.009692062 -0.06153642 -0.055435926
000090 d9 62 4c bd a3 66 c0 3c 90 06 d7 3d bf da 3b be
       -0.049898956 0.023486441 0.104992986 -0.18345164
0000a0 ed 62 bb bd bb 92 c1 bd da d9 24 3e 4f c2 d7 3d
       -0.09149728 -0.09451815 0.16098729 0.10535108
0000b0 8d 49 04 3e 5c de 1b be 5e 19 b8 bd b0 a0 9e 3d
       0.12918682 -0.15221542 -0.089892134 0.077454925
0000c0 8c 0f 58 be 45 5d 63 be 32 46 cf 3d da 77 99 bd
       -0.2109968 -0.22203548 0.101208106 -0.07493563
0000d0 17 e5 f7 bc 53 96 a7 3b 1e cd 98 3d 7f a6 3b 3e
       -0.030260606 0.0051143556 0.07460998 0.18325232
0000e0 12 00 96 bd 81 d7 e6 3d a8 10 c7 3d 68 c1 ae 3d
       -0.07324232 0.11271573 0.09719974 0.08532983
0000f0 7b 86 43 3d fc cf e0 3d 27 5a 13 bd 20 9a 05 be
       0.047735672 0.1097717 -0.035974648 -0.13047075
000100 06 8a c6 3d ab 0f 84 bc fe 26 11 3d 40 48 2d 3e
       0.09694295 -0.016120752 0.035437576 0.16922092
000110 95 a7 15 3c 2d 33 ba 3d dc 41 30 bd 48 4b d2 3c
       0.009134193 0.09091792 -0.04303156 0.025670663
000120 18 9f f3 bd 10 8f 2c 3e d3 7f 8a 3d b8 36 8a bd
       -0.11895579 0.16851449 0.06762662 -0.06748718
000130 6a ea d5 3d 4a e2 61 3c f4 fb 3b 3e 50 3c 47 3d
       0.104451016 0.013786862 0.18357831 0.048641503
000140 d1 48 f9 bc 33 ee 5a 3c 42 c2 91 3d 85 b7 5a bd
       -0.03043023 0.013362455 0.0711713 -0.053397674
000150 af 94 37 bd 18 2a 3e bd fa f2 9d 3c 68 76 8a bd
       -0.04481953 -0.046426862 0.0192809 -0.067608654
000160 3c 1a dc 3d f5 71 8b bc 44 cf 3a 3e a8 9a a2 bd
       0.10747191 -0.017022112 0.18243128 -0.079396546
000170 a3 d6 1e 3d 85 38 c6 3d cc bd 0f bd 17 f9 d4 3c
       0.038778912 0.09678749 -0.035093114 0.025997682
000180 cd 0d 37 3d 30 fd ab 3b af a7 f0 bd 78 75 22 3e
       0.044690896 0.005248688 -0.11750733 0.15865123
000190 52 ab b1 3e d3 21 f4 3d 68 8b 72 be a2 62 5c 3e
       0.3470102 0.11920514 -0.23685992 0.21522
0001a0 fb ba 36 be 95 c3 79 be ec 48 77 be ea 96 ac bd
       -0.17844765 -0.24391015 -0.24148911 -0.08427222
0001b0 5f 6b 28 be 25 41 09 bd e7 4d dd be 89 bd b5 bb
       -0.16447209 -0.033509392 -0.43223497 -0.005546276
0001c0 17 65 66 3c 4a 8e ff bd d0 86 b0 3d 11 26 47 be
       0.014062188 -0.12478311 0.086194634 -0.19448115
0001d0 45 c6 69 be fd 3c 04 be 2c 3c 0c 3d 33 8b 24 be
       -0.2282954 -0.1291389 0.034237072 -0.16068725
0001e0 18 b0 4c be 90 a8 04 be 0b 23 db be 78 3a 26 be
       -0.1998905 -0.12954926 -0.42800173 -0.16233242
0001f0 c9 2f 08 be 79 b7 5d bd 83 10 ee 3c c6 40 27 be
       -0.13299479 -0.05413005 0.029060608 -0.16333303
000200 b1 5c 7a 3e 2e af 08 be 9b dc 19 3d c4 91 da bd
       0.24449421 -0.13348076 0.0375639 -0.10672334
000210 12 4d 04 3d df 52 e5 3d 6e 92 1f be 75 c8 aa 3c
       0.032300062 0.11197447 -0.15583202 0.020847538
000220 16 cd 73 be 51 66 67 3d 49 a9 53 be ec 1b 1e 3d
       -0.23808703 0.05649406 -0.20670046 0.038600847
000230 e5 d9 9d 3e f9 69 fd 3d 5b 8a 93 be 7d 34 85 be
       0.30830303 0.12373728 -0.28816494 -0.26016608
000240 20 52 02 3e f3 16 3c 3d 9f 93 a7 3d 38 10 bc 3e
       0.1272664 0.045920324 0.08182453 0.36731124
000250 68 fc a6 3c f2 dd 33 3e de f3 13 3d 57 a4 2a 3e
       0.020384029 0.17565134 0.03612124 0.16664253
000260 3a 4b 03 be f2 0c 8b 3b 44 c8 db 3c 4d f8 97 3c
       -0.12821665 0.0042434866 0.026828893 0.018551016
000270 7a 91 bb bc 9d 6f e9 3d 4c 68 f2 bd d8 d8 eb 3e
       -0.022896517 0.11398242 -0.11836299 0.46063876
000280 7c e9 78 3e 00 a0 fa 3b 73 28 34 3e a0 6b 61 3e
       0.24307817 0.007648468 0.17593555 0.22013712
000290 51 80 26 3d c1 6f 3c bd da d4 81 bd b7 64 9f 3d
       0.040649716 -0.046005014 -0.06339426 0.07782882
0002a0 5c f0 78 3e 53 33 21 be 07 3e 22 bd e8 fc 3a 3e
       0.2431044 -0.15742235 -0.039609935 0.18260539
0002b0 27 f9 57 3e 2e 29 1e 3e 88 69 06 3e 6c b5 47 3e
       0.21091138 0.15445396 0.13126194 0.195028
0002c0 5c f4 7f 3e 46 55 11 3e 0f 8c 0e bc b8 8a 22 3e
       0.2499556 0.14192685 -0.008700385 0.1587323
0002d0 eb e6 50 3e fd b5 af ba 6a 63 2f 3d ca 7f ee 3c
       0.20400588 -0.0013405677 0.042819418 0.029113669
0002e0 dd e9 8d 3e ee 20 8c bd ac 1b 30 bd 40 9a c8 3e
       0.27717486 -0.06842218 -0.04299514 0.39180183
0002f0 4f 5f 27 bc 85 b5 a2 3d a2 ad 1b bd 12 07 87 bd
       -0.010215594 0.07944778 -0.038007386 -0.065931454
000300 25 7c 9b bc 7f 93 d0 3e 65 08 07 3e ef 3d 8b bb
       -0.018980095 0.4073753 0.13186796 -0.0042493264
000310 98 72 c9 bd 29 fe 66 3d b7 29 bd 3d ac 78 40 bc
       -0.0983631 0.05639473 0.09236472 -0.01174752
000320 f7 91 90 be 2e 23 ef 3c cc 55 f9 bd 3d 9a 3f be
       -0.28236362 0.02919158 -0.121745676 -0.18711181
000330 cc ac b0 bd 88 eb e0 bd 03 9c b6 bd 64 48 fe 3b
       -0.086267084 -0.10982424 -0.089164756 0.0077600945
000340 47 1a 1a be 8d 2d d8 3d 26 53 9c 3a e4 e5 5d 3d
       -0.15049087 0.10555563 0.0011926636 0.05417432
000350 4f 19 85 3e 1e b1 83 3e 6f ed 51 3c 44 36 03 be
       0.2599587 0.25721067 0.012812956 -0.1281367
000360 81 f2 9e bd d0 e2 bb ba 48 d7 01 3e 74 52 2f be
       -0.07761098 -0.0014334563 0.1267978 -0.17121297
000370 3b d5 46 bd e7 29 0e be 14 d1 95 3e 3c 3b 31 3d
       -0.048543196 -0.13883172 0.29261076 0.04326938
000380 58 d3 bc 3e f1 3b 25 bc 33 68 fa bc 33 ec 06 3d
       0.36879992 -0.010085092 -0.030567264 0.0329401
000390 04 fa ce bd 41 1e 7e 3d 23 a6 8d 3e d3 c5 e2 bd
       -0.101062804 0.06204057 0.27665815 -0.11072888
0003a0 21 c5 af 3c 0b d7 65 bd 84 d2 69 3d 1d 4e 11 bd
       0.021456303 -0.056113284 0.05708553 -0.035474885
0003b0 ff 4b 94 bd 05 f3 51 3e 44 53 43 bb b2 43 84 3e
       -0.072410576 0.20502861 -0.002980427 0.25832897
0003c0 9b 87 e1 bd 6a f2 f7 3d e8 f5 09 3e 31 1b 2a 3e
       -0.11012193 0.12106784 0.13472712 0.16611935
0003d0 f3 c0 67 3d 89 9d 0b be ca bc 66 3d 45 c6 87 be
       0.056580495 -0.13634314 0.056332387 -0.26518455
0003e0 3b 4f 85 3e b4 6c eb bd 91 68 66 be 6f 62 3d be
       0.2603701 -0.11495343 -0.22500826 -0.1849458
0003f0 df 4d b5 3d 84 d7 46 be 31 51 ff 3e 7b a1 82 3e
       0.08852743 -0.1941815 0.49866632 0.25513825

encoder.7.bias f4 [20]
000000 24 ea c4 3b 4b a4 07 bc 0f fd 17 bb 18 c2 21 bb
       0.006009357 -0.008278917 -0.0023191606 -0.002468234
000010 0b f4 d4 39 5a 93 64 3c ce 09 cc be 47 ae 40 bf
       0.00040617617 0.013951147 -0.3985123 -0.75265926
000020 d8 1b 65 3b 42 5c dc bb 84 3b 4d be 63 09 c0 39
       0.0034959223 -0.006724865 -0.20042235 0.00036628087
000030 f7 5c 2c be a7 d3 99 3b 55 4c b6 ba da 1b 57 bb
       -0.16832338 0.0046944204 -0.0013908247 -0.0032822997
000040 3a b5 88 bb 3b 64 3f 3b 6b 85 c0 3b b3 62 c8 be
       -0.0041719945 0.002920403 0.0058752797 -0.39137802

encoder.10.weight f4 [4, 20]
000000 b4 84 19 3f e2 4d d0 bc 42 58 25 bf 46 00 3f be
       0.59968114 -0.025427762 -0.64587796 -0.18652448
000010 52 23 bc be b2 f1 34 3f 04 d8 ff 3e 9a c7 80 3f
       -0.36745697 0.706813 0.49969494 1.0060914
000020 37 42 1f 3f d4 24 d3 be 9b 08 3d be e5 61 2d 3f
       0.6221041 -0.41239035 -0.18460314 0.677275
000030 43 97 fe 3d 51 86 29 3f 37 92 c1 be e0 c8 3c 3f
       0.12431195 0.66220576 -0.37806866 0.7374401
000040 1e 97 31 be 93 a6 5b be 56 30 af be 0b 2b 60 3f
       -0.17342803 -0.21450262 -0.34216565 0.8756568
000050 9f f5 7c be d4 de b7 be 6f ab c6 be 3d c6 53 be
       -0.24703072 -0.35912192 -0.38802668 -0.2068109
000060 22 4e 11 3f 24 2a 15 be 3a 4e 93 3d 31 6a ee 3e
       0.56759846 -0.14566857 0.07192655 0.46565393
000070 81 d9 0c be 58 31 b8 be 08 ac ea bd 0a f7 c6 bd
       -0.13754846 -0.35975146 -0.114585936 -0.09715088
000080 3c 95 ad bd c2 2c 9c be b5 d0 15 3f 78 e8 92 be
       -0.0847573 -0.30502898 0.58521587 -0.28692985
000090 80 3c 30 be 4f 6b 2b 3e 63 69 08 3f 7b 3a 92 3e
       -0.17210579 0.16740154 0.5328581 0.28560242
0000a0 5a 70 0e bf 19 f1 82 3d 5f 32 a6 3e 3e c7 d7 bd
       -0.55640185 0.06393642 0.32460305 -0.10536049
0000b0 42 1b fb 3e 5e 5a 50 3e d6 30 43 3e 84 1c 20 3b
       0.49044234 0.20346972 0.19061598 0.002443106
0000c0 e2 b0 09 bf 64 c4 98 3e ea 95 41 be bd ad bd 3d
       -0.53785527 0.29837334 -0.18904844 0.092616536
0000d0 72 56 43 3e ca c5 19 bf c0 64 01 3f c0 f9 27 bf
       0.19075945 -0.6006743 0.5054436 -0.65615463
0000e0 e2 4c 53 be 6f ec 62 3e 61 8b f2 3e aa d4 d3 bc
       -0.20634797 0.22160505 0.47371963 -0.025858242
0000f0 61 4b b0 3e 7e d8 e9 bd d2 bf c7 3e 4e 98 f1 be
       0.3443251 -0.11418246 0.39013535 -0.47186512
000100 56 75 94 be 65 1b d6 be 07 74 64 bd 8e 81 b5 be
       -0.2899577 -0.41817775 -0.055774715 -0.35450405
000110 5b fc 6e 3e b1 24 65 3e 08 de 11 be 20 da 78 be
       0.23338453 0.22377278 -0.14244854 -0.24301958
000120 10 0f e5 bd 06 b2 d1 3e 33 0a 94 be 46 d9 e7 3e
       -0.111845136 0.40956134 -0.2891403 0.45282954
000130 f8 e4 fe be b4 8a 73 be 4e 00 8a be cf 2d 8d be
       -0.49784064 -0.2378338 -0.26953357 -0.27574012

encoder.10.bias f4 [4]
000000 55 a3 f0 bd 68 73 14 be 11 4e 22 3e 40 e8 16 3e
       -0.11749903 -0.14497149 0.15850092 0.14737034

decoder.0.weight f4 [20, 4]
000000 da 9f 70 be 66 25 e9 3c 2a 28 13 3f 4a ae 94 3f
       -0.23498479 0.028460216 0.5748316 1.1615689
000010 36 bb 9f 3e 97 56 d6 be f8 10 e7 be 6e 16 0a 3f
       0.31197518 -0.41862938 -0.45130134 0.53940475
000020 09 84 69 be fa 2f 7f be 98 1b 0e 3f 1d f5 1e 3f
       -0.22804274 -0.24920645 0.55510855 0.62092763
000030 b5 8c bd bd c6 e6 8a bf 8e 35 56 bf d4 b5 4e 3f
       -0.09255353 -1.0851676 -0.8367547 0.807462
000040 80 7d b5 bc 9c 4f 33 3d 5d 09 8e 3e c7 7f 32 3f
       -0.02215457 0.043777093 0.2774152 0.6972622
000050 33 2e 48 3f cc 41 3b be bb f4 92 3d 60 2a 4a bf
       0.78195494 -0.18286818 0.07175585 -0.7897091
000060 22 59 86 3f 25 2d b5 bd 5a de 9b 3e bd 2a 32 bf
       1.0495951 -0.08846501 0.30443078 -0.69596463
000070 ea f9 f2 3e 08 73 44 be e7 56 f4 be ad d8 a8 be
       0.47456294 -0.19184506 -0.4772255 -0.3297781
000080 96 a2 bb be d7 c3 0d 3f a1 70 9b bb 13 df a7 be
       -0.3664748 0.5537695 -0.004743651 -0.3278738
000090 25 b5 5a 3e 07 21 f6 3e 7f a0 6a 3e 2b 9a b7 be
       0.21358164 0.48072073 0.22912787 -0.35859808
0000a0 68 4f 67 be 93 ed 94 3e df 0d a9 3e 8a 89 b2 bd
       -0.22588885 0.29087505 0.33018395 -0.0871764
0000b0 e0 60 93 bf 87 6d 7f 3e 8c d2 17 be 8f 3a a7 3e
       -1.1513939 0.24944125 -0.14826411 0.32661864
0000c0 9a fd ec 3c 4f 79 50 bf df 52 2a bf 0e 83 df 3e
       0.02892952 -0.814351 -0.665327 0.43654674
0000d0 9d 52 00 3f 2b 7e dd 3e 38 f9 e5 3d 10 34 96 3c
       0.5012606 0.4326032 0.11229175 0.018335372
0000e0 3f 0d 2e 3c 0f bc ba be a9 5a e1 be 15 2f 39 be
       0.010623275 -0.36471602 -0.4401448 -0.18084367
0000f0 de 52 6e 3e 93 c9 9d be 6a 8a bc 3e ad fe c3 be
       0.23273799 -0.3081785 0.36824352 -0.3828024
000100 5e 87 74 bf 22 8d a3 be 52 cc 35 3e 31 ec e7 be
       -0.95519054 -0.31943613 0.17753723 -0.45297387
000110 a2 73 66 bf e5 99 7f be 18 6c d7 3e d4 b8 31 be
       -0.9002019 -0.2496105 0.42074656 -0.17355663
000120 ab 64 0e bf bc 51 04 3f 39 e2 3a 3e fa 8b b6 be
       -0.5562236 0.51687217 0.1825036 -0.3565367
000130 9a 21 46 3e 9b ef 4d be 23 97 99 be bb 8f 32 be
       0.19348755 -0.20110933 -0.2999812 -0.17437641

decoder.0.bias f4 [20]
000000 60 7e 1b bf 62 3f e7 bd 1b 5d a5 be 02 1c 85 bb
       -0.6073971 -0.11291386 -0.32297596 -0.0040621767
000010 8a 83 7c be 3b bb 43 3e 9e d2 04 3e 93 19 9c 3e
       -0.24659553 0.19114392 0.12970969 0.30488262
000020 68 3b 6a be 07 83 c3 3e e6 8f 4a 3e db ec 69 be
       -0.22874224 0.38185903 0.19781455 -0.2284426
000030 29 d6 4f 3e 09 59 d5 be 80 00 f1 be fb 81 89 be
       0.2029654 -0.4166949 -0.47070694 -0.2685698
000040 aa fe 4f bc 54 ab 1c be 88 da 2d 3e a1 f9 00 3e
       -0.012694994 -0.15299731 0.16977894 0.12595226

decoder.2.weight f4 [50, 20]
000000 17 19 3f 3e 4e f3 98 be 99 2e 34 be 43 36 39 be
       0.18661915 -0.29873127 -0.175959 -0.18087105
000010 2f 29 29 3c 3e da 86 3d 96 da 75 bd 35 f0 8b 3d
       0.01032476 0.06584595 -0.060022913 0.06832925
000020 de 53 40 3e 98 6e 71 3e 92 81 84 3c cf 27 b0 3d
       0.18781993 0.23577344 0.016175065 0.08601343
000030 65 31 11 be 86 5d b0 3d 2c 7a 5c 3e 97 c6 52 3e
       -0.14178999 0.08611588 0.2153098 0.20583569
000040 6c d2 d5 3d ab ea 55 3e 32 ad d7 3d de fe 56 be
       0.104405254 0.208903 0.10531081 -0.20995662
000050 71 ec b0 bd 3a b4 08 bd 36 f3 c8 bc f4 fa 8e 3d
       -0.086388476 -0.033375002 -0.024530035 0.06981459
000060 a1 6e f8 bd 2f a3 0b be 99 97 49 3e 69 c7 94 3d
       -0.12130476 -0.13636468 0.19686736 0.07264597
000070 9c 5c 57 be 81 b3 0c be ea e3 f6 3d 4e f1 0e 3e
       -0.21031421 -0.1374035 0.1205519 0.13959238
000080 66 2e bb 3d 0a b2 1b be bb 71 af bd b1 cc c0 bb
       0.09139709 -0.15204635 -0.08566614 -0.005883776
000090 ed a8 5e bc 25 e1 54 3e c4 b0 50 be 78 c7 29 3e
       -0.01359008 0.20789011 -0.2037993 0.16579998
0000a0 a8 f5 e2 bd f2 fd 2e 3e 9e f4 2d 3e f3 71 7d bd
       -0.110820115 0.1708906 0.16987845 -0.06187625
0000b0 a6 8d 22 3a fa 75 23 3e de e3 eb 3d 3e cb d9 bb
       0.0006200917 0.15962973 0.115180716 -0.006646543
0000c0 4f f5 be bd 2c ed 0e 3e ef f2 35 bc ee 57 cb 3a
       -0.09324133 0.13957661 -0.011105283 0.0015513876
0000d0 f4 16 c6 3d 3c f4 4a 3d 87 18 9f bd ee f2 31 3e
       0.09672347 0.049549326 -0.0776835 0.17377827
0000e0 08 16 62 3b fe d1 00 be a4 72 84 bc 51 b5 62 3d
       0.0034497995 -0.12580106 -0.016167946 0.055348698
0000f0 67 67 9a bd 31 dd 0c 3e 59 22 84 bd d5 f3 f6 bc
       -0.07539254 0.13756253 -0.06451864 -0.030145565
000100 d8 36 67 be ee 85 0f 3c 9b 35 20 3e cd 5a 83 3e
       -0.22579515 0.008759959 0.15645449 0.25655213
000110 f7 ad 5a 3d 15 a8 89 bc 75 48 77 bd 6a 45 3e 3e
       0.053388562 -0.01680378 -0.060371835 0.18581167
000120 ce 60 a6 3d 98 15 a8 bd 0a 8b 60 be 01 82 e2 3d
       0.08123933 -0.08207244 -0.21928039 0.110599525
000130 30 58 ca 3d 9d 79 a2 bc 7d af 72 3d b2 72 37 bd
       0.09880102 -0.01983338 0.05924939 -0.044787116
000140 ef 32 cc be df f5 df bd 91 60 92 3d ec 5f 31 3e
       -0.3988261 -0.10935568 0.07147325 0.17321748
000150 1f ac 2a be 97 b7 3e bd ea c1 d0 3d 3d 23 c0 bd
       -0.16667221 -0.046561804 0.10193236 -0.09381721
000160 b0 61 9a bd 44 ce 52 be f0 65 1c be d8 4a 81 3e
       -0.07538164 -0.20586497 -0.15273261 0.25252414
000170 5e c0 91 3e 39 7d 0a be 33 38 ce bd d0 d3 26 3e
       0.28467077 -0.13524331 -0.10069313 0.16291738
000180 1e aa 04 3e 47 fe 1c 3d f2 5c 27 3e 3f a1 4a 3e
       0.1295552 0.038328435 0.1634405 0.19788073
000190 db cf ab 3d ee 6d 1e 3e 81 9c 7b 3e 70 17 f9 bd
       0.08389255 0.15471622 0.2457142 -0.121626735
0001a0 a4 1e 52 3e 9c 03 38 3e 56 46 4f 3e 58 37 b3 be
       0.20519501 0.17970127 0.20241675 -0.3500316
0001b0 a9 43 43 3e 4a c5 8c 3e 04 39 5b bd 9c d6 08 be
       0.19068779 0.2749427 -0.05352117 -0.13363117
0001c0 74 64 6c bd 47 74 33 be 1c 93 04 3e ea aa 17 3d
       -0.057712987 -0.17524825 0.12946743 0.03702823
0001d0 30 c7 03 bd 21 fa d8 be 1c c0 42 3e 5b 75 87 3d
       -0.032172382 -0.42378333 0.19018596 0.06614181
0001e0 cd a0 54 3e 9f 9c 40 be a4 e9 1e 3d 29 a8 ed bc
       0.20764466 -0.18809746 0.038797036 -0.02901085
0001f0 ad 07 fc 3d c1 45 3a 3e 1a cd bb bb 04 2d af bd
       0.123061515 0.18190672 -0.005731237 -0.08553508
000200 80 31 da bd 25 13 4e 3e e5 24 93 bd 55 5f 08 3e
       -0.106539726 0.2012449 -0.071847714 0.13317616
000210 8f e8 c2 bd e6 53 63 be ca 82 53 be 07 c5 e0 3d
       -0.09517013 -0.22199973 -0.20655361 0.1097508
000220 27 ab 5d be da 2a 8b bd 69 56 ae bc 50 dc 01 be
       -0.2164732 -0.06795283 -0.021281438 -0.12681699
000230 a4 66 36 bd ab 91 20 bd 34 b0 14 be 45 d0 25 3d
       -0.04453148 -0.03920142 -0.14520341 0.040481824
000240 8b 3c 14 be 98 c4 89 bb da 0b 31 3e d6 3b 8e 3d
       -0.1447622 -0.004204344 0.17289677 0.069450065
000250 8f e0 2a 3e 86 51 fc 3d 4d 0c 0d bd dd 5f 0f 3e
       0.16687225 0.12320237 -0.03443556 0.14001413
000260 ba 72 b0 3d 91 7e 28 be 2e 3d 13 be 83 8a b9 ba
       0.08615632 -0.16454531 -0.14378807 -0.001415566
000270 90 89 02 3e 1e eb a7 3d 16 e3 80 be 46 bc 31 39
       0.12747788 0.08199142 -0.25173253 0.00016950173
000280 ad 64 bc 3e e1 fd 53 3e c5 c1 66 3e 47 e7 4d be
       0.3679556 0.20702316 0.22534855 -0.20107757
000290 f6 bb 96 3e 72 fe 66 bd 0b f9 69 3e e7 cc 60 be
       0.29440278 -0.056395 0.22848909 -0.21953164
0002a0 b4 c3 d5 3d 38 f2 27 3e 46 a6 39 3e 2a 05 70 bc
       0.10437718 0.16400993 0.18129835 -0.014649669
0002b0 3e 22 e5 bc 35 c5 a7 3c cd 27 25 be 60 85 5c be
       -0.02797043 0.020479778 -0.16128464 -0.21535254
0002c0 e2 ab 5c be ab 01 14 be 79 ee de 3d 0b 88 c3 3d
       -0.21549943 -0.14453761 0.10885329 0.095474325
0002d0 90 db f4 3d b8 d8 de bc 40 d5 41 3e e9 9a 07 3e
       0.11955941 -0.027202949 0.18929005 0.13242687
0002e0 86 0c ac bd de ec 7d be fe e4 b1 bd ba 3b e1 bd
       -0.08400826 -0.24797389 -0.08686255 -0.1099772
0002f0 aa 58 1d be f1 03 c4 3d 3e 5e 08 3e 04 71 ce 3d
       -0.15365854 0.09571064 0.133172 0.1008015
000300 ab e7 bc bb ff 09 ea bd 94 ea e2 3d b5 7e 25 be
       -0.0057649217 -0.11427688 0.110798985 -0.16161616
000310 c6 11 ff bd 31 52 3c 3e e0 2b 28 3e 76 ca 2c 3e
       -0.12454562 0.18390729 0.16422987 0.16874108
000320 ae 0a eb bc c3 ff 15 3e 4c 41 20 bd 2e a1 03 bd
       -0.028691616 0.14648347 -0.039124772 -0.032136135
000330 40 72 59 3e e6 f2 20 3e 63 df 49 3e b9 61 0a 3e
       0.21234989 0.15717658 0.19714122 0.1351384
000340 bc 4d 3d 3e 14 31 80 bd 3c 4e b3 3d 8c e2 9a 3d
       0.18486685 -0.06259361 0.087551564 0.07562742
000350 54 a1 0c be b2 8e 0f bd bb e7 94 3d d3 6c 20 be
       -0.13733417 -0.035048194 0.072707616 -0.15666513
000360 12 9e 62 3e c9 d9 16 be ed b5 6e 3e 91 c5 18 bd
       0.22130612 -0.14731516 0.23311587 -0.03729779
000370 1d e2 42 3e 33 b8 d0 3c 40 30 bf 3d 33 59 d6 3d
       0.19031568 0.025478458 0.09335375 0.10466232
000380 d3 3e c6 bd 88 f2 1b be 1a 96 54 be ad fd 13 3e
       -0.096799515 -0.15229237 -0.20760384 0.14452238
000390 dd 53 a7 bd a5 17 35 be 02 7e 63 be 18 10 5d be
       -0.081702925 -0.17684801 -0.22216037 -0.2158817
0003a0 60 a1 4f 3c 8e 2d bd bd fd 2b 7c bd 80 51 57 be
       0.012672752 -0.092372045 -0.061565388 -0.21027184
0003b0 af b3 03 be 64 23 db 3d 80 24 35 bd d6 07 96 3d
       -0.12861513 0.107001096 -0.044224262 0.07325713
0003c0 b3 c9 d0 3d 6c 80 90 3e c4 a8 9f 3c 44 60 c1 3e
       0.10194721 0.28222978 0.019489653 0.37768757
0003d0 85 aa a2 3d 5e d8 b4 bc 8e 67 0a 3c c4 2b 4d 3d
       0.0794268 -0.022075828 0.008447541 0.050090566
0003e0 a9 d0 36 3e 2a 66 14 3e 2f d9 f8 3d 0c fa 8f be
       0.17853035 0.14492097 0.121507995 -0.28120458
0003f0 e4 2d 9c 3e 7b 7b dc bd 8a 90 fb 3d a7 f1 f7 3a
       0.30503762 -0.107657395 0.12283428 0.0018916623

decoder.2.bias f4 [50]
000000 66 ce 69 3e 65 f7 c2 bd f5 6a 2d 3d d4 4b 37 3e
       0.22832641 -0.09519843 0.04233833 0.1790002
000010 ff 69 b6 3c 67 82 26 3e 2b 72 20 be 30 ea 4e 3e
       0.02226734 0.16260682 -0.15668552 0.20206523
000020 24 24 2c 3e 77 f0 46 be 7a d5 ea 3d 78 7f b9 bd
       0.16810662 -0.19427668 0.11466499 -0.09057516
000030 43 68 dd bd b2 88 0f be e5 f1 24 bd ad 57 a6 bd
       -0.10810902 -0.14016989 -0.04026975 -0.081221916
000040 f1 5f 11 be 45 31 30 3e 88 a4 61 bd 2f 21 da bd
       -0.14196755 0.17206295 -0.05508855 -0.106508605
000050 e1 d9 f6 3d 87 d9 22 3c 32 e9 a9 bd 6c 81 a8 3c
       0.12053276 0.009939558 -0.082964316 0.020569526
000060 99 8d 86 3e bd 42 fb 3d 13 10 65 bd 98 7d 1c be
       0.26279905 0.12268589 -0.055923533 -0.15282285
000070 1b 2d e7 3d 92 ce d0 bd 53 b8 48 be e9 2c ba 3d
       0.112879 -0.1019565 -0.19601564 0.09090597
000080 35 2b 9a 3d 3d 11 5d ba bc e1 92 bd 7b 8b 6a bd
       0.07527772 -0.00084330497 -0.07171962 -0.057261925
000090 c9 6d 1f be d5 9a bf 3b 59 44 d5 3d 8d 68 3e 3c
       -0.15569223 0.005847315 0.10413427 0.011621607
0000a0 e1 26 18 be 59 3f c7 bc 2b 57 03 be 3f a0 48 be
       -0.14858581 -0.024322199 -0.1282622 -0.19592379
0000b0 93 96 ca 3e f1 87 35 3e 6c 1c a7 3d fb 78 37 bd
       0.39568004 0.17727639 0.08159718 -0.04479311
0000c0 6b aa d7 bd 86 be 42 3c
       -0.105305515 0.011886245

decoder.4.weight f4 [50, 50]
000000 33 05 35 3d 7a 4d 07 be 39 64 a3 bd 1f 4f 67 bd
       0.04419441 -0.13213149 -0.079781 -0.05647194
000010 c5 ab 93 3c 90 96 58 bd 29 b0 c9 bd 2c 4a 0f bd
       0.018026242 -0.052877963 -0.09848053 -0.034982845
000020 69 30 80 bd ff 0e c7 3c df 2f 8b 3d f2 be 03 3c
       -0.062592335 0.024299143 0.0679624 0.00804113
000030 2d 93 d6 bd fa 50 d5 bd 05 69 fe 3d 4b b5 81 bd
       -0.1047729 -0.10415836 0.12422375 -0.06333407
000040 f6 ea 38 3c f5 4f a1 bd 92 63 0e 3c 63 4d ab bc
       0.011286488 -0.07876579 0.008690732 -0.020910924
000050 5d 1b d0 bd 9b 18 ad bd f0 19 d2 bd 08 23 c0 3d
       -0.10161469 -0.08451959 -0.102588534 0.09381682
000060 bc b4 af bd 82 a7 09 3e c7 e6 0c be 23 bd 77 bd
       -0.08579394 0.13442805 -0.1375991 -0.06048311
000070 9b ea f2 bd 91 a8 e2 bd 5c 76 00 3e f9 9f ce 3d
       -0.11861154 -0.11067308 0.1254515 0.10089106
000080 b0 8e 22 3d ac 9c 1c bb b5 e6 05 be f9 b6 e4 bd
       0.03968686 -0.0023897095 -0.13076289 -0.11167712
000090 93 3d ec 3c a8 3d 67 bd 57 c5 0b be b9 60 19 3d
       0.028837955 -0.056455284 -0.13649498 0.037445758
0000a0 de 2a bb 3c c1 11 af bd d2 d9 91 3c 13 28 9a bd
       0.02284759 -0.08548308 0.01780406 -0.07527175
0000b0 6b 9d a6 bd d3 6f 04 3e ad 23 f6 3d 78 f6 05 bc
       -0.08135494 0.12933283 0.12018523 -0.0081764385
0000c0 53 46 9e bd 0d a9 b7 bd 0a 81 e0 bd 1d 29 ef bd
       -0.07728257 -0.08967791 -0.10962112 -0.116777636
0000d0 7f fd d3 3d 64 72 cf 3c 94 ba a4 bd e4 a5 61 3e
       0.10351085 0.0253231 -0.080433995 0.22035939
0000e0 86 26 ed 3c ac f2 e6 bc 97 29 6c 3e 97 11 9a 3c
       0.028949033 -0.028191887 0.2306274 0.018807216
0000f0 94 ea 1f 3e 67 fd a5 3d 69 cc ed 3d 23 90 c4 3d
       0.15616828 0.08104973 0.11611254 0.095978044
000100 94 54 91 be 97 b5 1f be 81 ca 6b 3e 56 f6 91 3b
       -0.2838484 -0.15596615 0.23026468 0.0044544144
000110 23 05 a3 3d 20 48 92 3c 9a a3 51 be 30 7e da 3d
       0.07959964 0.017856658 -0.20472565 0.106685996
000120 5f c5 3e bc 49 90 bf 3d 91 e7 b1 3d 0c 90 55 3e
       -0.011643737 0.09353692 0.08686746 0.20855731
000130 8a 13 29 3e 6c 83 b6 bd 50 41 7a 3e 32 0a f8 bc
       0.1651136 -0.089117855 0.24438977 -0.030278299
000140 59 83 08 be b7 e2 03 be dc 73 a7 bd 45 b9 b3 3d
       -0.13331355 -0.12879454 -0.08176395 0.08775572
000150 71 d0 00 3e c6 2f ee bb e1 14 93 bb 89 49 0c 3e
       0.12579514 -0.0072688786 -0.004488573 0.13699926
000160 e2 e1 07 be 10 6d f3 3d 4c 22 ff bd 78 ad 5e be
       -0.13269761 0.118860364 -0.124577135 -0.2174586
000170 44 67 75 bd a0 b8 f9 3d 8d 50 68 3e ad 7d 03 bd
       -0.059912935 0.121934175 0.22686978 -0.032102276
000180 44 93 48 bd 12 8d e0 3d d8 0d d0 bc a2 23 fd 3d
       -0.04896857 0.10964407 -0.025397226 0.12360312
000190 1f de 4d 3e b6 c1 0a be 23 9e 8e bd ed 72 5b bd
       0.20104264 -0.13550457 -0.06963756 -0.0535764
0001a0 b7 60 f9 3d d8 c1 8e 3d 15 a1 e5 bd 6e e7 80 bd
       0.1217665 0.069705665 -0.112123646 -0.06294142
0001b0 13 5d 56 3d 36 ae 5f bd ac 5f 57 bd b3 e7 36 3d
       0.052334856 -0.0546095 -0.052581474 0.04465456
0001c0 48 29 19 be 77 d8 84 3d ce 8c 5b 3e 0f 18 8a bd
       -0.14957154 0.064866 0.21440431 -0.0674287
0001d0 e3 a6 4f 3d b2 09 8f bd 71 ed 48 3b b2 89 77 bd
       0.050696265 -0.06984271 0.0030659104 -0.06043405
0001e0 64 09 0b 3e 9f 92 65 bd d5 28 cf bd 2f 27 b7 bd
       0.13577801 -0.056048032 -0.1011521 -0.089430206
0001f0 9b 28 a9 3d b4 8d c6 bc 31 84 35 3c 14 74 03 bd
       0.08259698 -0.024237491 0.01107888 -0.032093123
000200 8d 6a 8e bc 1c bf c6 bd 99 13 eb 3c 8c 67 8c bd
       -0.017384792 -0.0970442 0.028695868 -0.068556875
000210 ad b1 3b 3c 2c 83 db 3d 5e 7a b6 bd a0 f9 bd 3c
       0.011455935 0.107183784 -0.089100584 0.02319032
000220 b0 b0 f7 3d d8 b4 02 3e b2 d1 f6 bd a7 1f f2 bb
       0.12094247 0.12764299 -0.12051715 -0.007389027
000230 f7 c6 3d 3d 8a 08 b6 3d e3 b0 cc 3d 7f 2b e2 3c
       0.046332326 0.088883474 0.09994676 0.027608631
000240 08 29 58 3e 96 88 f4 bd 39 33 ad 3d c4 b1 4b be
       0.21109402 -0.11940114 0.084570356 -0.19892031
000250 b1 96 00 bd 25 48 6a 3e 99 83 ba bd 24 93 08 be
       -0.03139371 0.22879083 -0.091071315 -0.1333738
000260 fb 8a 6a bd 61 8b 09 3e c3 10 9e bc 1a d1 81 be
       -0.05726145 0.13432075 -0.019295102 -0.25354844
000270 10 18 c8 3d 5c db e8 bc 62 2e fb bd 43 9b ff 3c
       0.097702146 -0.028424911 -0.12264706 0.031201964
000280 6e 3f 48 bd 03 85 d3 bd da 63 20 be 48 30 a4 3e
       -0.048888616 -0.10328104 -0.1566309 0.32068086
000290 85 cd 33 be f9 07 d5 bd 86 ba 59 bb 57 f0 19 bd
       -0.17558868 -0.10401911 -0.003322275 -0.03758272
0002a0 9a a4 72 bb 5d 11 e2 3d 67 49 b4 3e ad 1b f6 3d
       -0.003702438 0.11038468 0.35212252 0.120169975
0002b0 e0 e2 5b bd 30 2a 88 3d 03 f1 6c 3d f6 6b 84 3c
       -0.05368316 0.066486716 0.057847034 0.016164761
0002c0 fb 8b ef bd d6 8f af 3d b9 31 43 3d b8 82 89 3d
       -0.11696621 0.085723564 0.04765484 0.06714386
0002d0 9c 4b f7 bd b9 9b 9b 3e 0b d5 8a bd 80 ca f2 3c
       -0.12074968 0.30392244 -0.06778916 0.029637575
0002e0 a7 a7 cc 3c 72 25 80 bd 01 81 62 3e 95 ac 8a bb
       0.024982287 -0.06257142 0.22119524 -0.004231999
0002f0 5b 86 f0 3b 46 57 d7 3c d0 cb bf 3d eb 69 a6 3e
       0.007340235 0.026286732 0.09365046 0.32502684
000300 33 08 18 3d d2 08 d8 3d 47 66 4c 3e 37 3e 65 3c
       0.037117194 0.10548557 0.1996089 0.013991884
000310 4c 1c 7c 3e 7b d3 57 be 11 62 c4 3d d1 b0 86 bd
       0.2462017 -0.21076767 0.09589017 -0.06576694
000320 6b 60 9d 3d 7e 4d 2d bd 86 f0 35 3c 90 d2 a2 bc
       0.07684406 -0.04231023 0.011104709 -0.019875795
000330 9f ee 6d 3d 4e 8f 70 bd 19 fe 0b 3d 69 16 2f 3d
       0.058088895 -0.058730416 0.034177873 0.04274598
000340 c0 f9 55 bd d2 87 19 3e 50 0c fe bc f6 6d 15 3e
       -0.052240133 0.14993218 -0.03101173 0.14592728
000350 9b 60 89 bd dd 76 d9 3e b6 96 be 3d 98 67 a4 3b
       -0.06707879 0.42473498 0.093060896 0.005017232
000360 76 61 44 3e 37 cc f7 bd 7f 14 0e 3e ba 10 16 3d
       0.19177803 -0.12099498 0.13875006 0.036637045
000370 bc 67 34 3e de 6c 13 3d aa ca 6b ba 5a c1 9d bd
       0.17617697 0.035992496 -0.0008994738 -0.077028945
000380 cb ec e4 bc af 79 1d 3e c2 9b ba 3c 9b 51 5d bd
       -0.027944943 0.1537845 0.02277935 -0.054032903
000390 49 38 4c bd ad fe 23 be 32 1a fd 3d ed bf c4 3d
       -0.049858365 -0.1601512 0.12358512 0.096069194
0003a0 8e 39 c4 3b c3 45 31 3e 4e b7 a4 bb 53 5e eb 3d
       0.0059883064 0.17311768 -0.0050267344 0.114926
0003b0 4c d7 8b 3e 14 1f 01 be 2a ce c1 3d 25 6c 2b 3e
       0.27312696 -0.12609512 0.09463151 0.16740473
0003c0 5b eb d0 3b 1a be 3e 3e d3 e9 ce 3d 8a b9 aa 3d
       0.006375713 0.18627205 0.10103192 0.0833617
0003d0 12 ff 40 3e 29 d3 86 bc 4e c8 46 3d 35 dc f3 bb
       0.18847302 -0.01645811 0.04853087 -0.007442022
0003e0 dc db 22 3e ad c6 87 be b5 31 cf bc af fe c0 bc
       0.15904182 -0.26518765 -0.025292257 -0.023558943
0003f0 36 d8 bd 3d 24 b5 bb 3c d1 11 e8 3d 9b e1 be 3b
       0.092697546 0.022913523 0.11331523 0.005825234

decoder.4.bias f4 [50]
000000 e9 30 00 be 36 f3 0e 3e 14 12 af 3e 35 c4 0f be
       -0.12518658 0.13959965 0.3419348 -0.14039691
000010 9c 01 44 3d 3d 92 f8 bd 95 da 73 be ad 4c c5 3d
       0.047853097 -0.12137268 -0.23813851 0.09633765
000020 6f d6 bb bd fd 27 98 3d 7a 00 f5 bd 02 d0 dd bd
       -0.09171759 0.07429502 -0.119629815 -0.1083069
000030 c4 51 10 be 60 a9 06 3d 8c f7 90 3d c4 c5 23 be
       -0.14093691 0.032876372 0.07078466 -0.1599341
000040 6d 15 d9 bc a4 4b bb bb b2 c5 4f 3d e0 94 d4 bd
       -0.026499474 -0.005715804 0.050725646 -0.10379958
000050 35 5b cd bd c5 e3 c7 3a aa 51 8c 3e 71 6f f9 bc
       -0.10027162 0.0015250376 0.27406055 -0.030448647
000060 da 3c 1c 3e 02 07 95 bd 2d 22 50 bd a5 e8 7e bd
       0.15257588 -0.07276727 -0.050813843 -0.062233586
000070 38 ae 3d 3c 47 2e 61 3e 67 3f 70 3d bd e3 c9 3d
       0.0115771815 0.2199031 0.058654215 0.09857891
000080 da 96 79 3c 41 2e 11 bd 5c 1b 80 bb fa a8 41 3d
       0.01523372 -0.0354445 -0.0039095115 0.04728029
000090 ce 44 d5 3d f1 47 9c bc 62 9d fe 3d 03 6e 80 bb
       0.10413514 -0.019077273 0.12432362 -0.0039193644
0000a0 29 63 cd bc f0 4d 2b 3d 03 a2 31 3e 4c 18 84 3d
       -0.025071697 0.041822374 0.17346959 0.06449947
0000b0 3c 81 05 be 7f e8 7b bd 7e 38 0e 3d c1 88 0c bd
       -0.1303758 -0.061501022 0.034721844 -0.034310106
0000c0 8e 3c 42 3e 6d cc e1 bb
       0.18968412 -0.0068908245
