model/checkpoint_0.tar (torch, 110796 bytes, 51 tensors)

encoder.1.weight f4 [50, 6]
0.009694769 -0.25521594 0.11425615 0.09907424 -0.2579736 -0.065010175 -0.17808844 0.110616595
-0.07191161 0.35445204 0.37031835 0.050653797 -0.17404522 -0.23978922 -0.04482529 -0.114885405
0.18017304 -0.34860057 0.3773034 -0.32833955 0.29994413 -0.04954536 0.23147182 0.16072105
0.025019396 0.07774869 0.31139693 0.1225762 0.2304915 -0.31373212 0.2835959 0.1380391
0.10006524 0.056373853 0.20093594 0.373906 -0.0908417 -0.22743803 -0.10271067 -0.24881588
0.1965689 -0.2017713 -0.21803324 0.35778353 0.38188237 0.043667883 -0.073768094 -0.05265375
0.23825686 -0.3477272 -0.28507423 0.36744007 0.4695929 -0.016345236 -0.32257843 0.01115462
-0.18992507 -0.00078485254 0.19982277 0.18072116 -0.06113431 0.04237219 0.09914425 -0.33084458
-0.14456697 0.015423287 -0.23295024 -0.17829604 0.13712148 0.23495844 0.0057202694 -0.15880233
0.22955878 -0.22094148 -0.09090112 0.39305153 0.08067531 0.029704673 0.122339234 -0.09027904
0.33590835 -0.35461262 -0.15593328 -0.07368691 -0.16528809 -0.09874204 0.2511776 0.21066183
0.002760592 0.35322523 -0.28386986 -0.23699573 0.18587644 -0.034527652 -0.37596402 -0.28275433
-0.24827063 0.31512505 0.18486787 0.31569275 -0.30394143 -0.39792183 -0.27065542 0.04332703
-0.08333284 -0.2766538 0.2558862 -0.13434274 -0.23511864 0.15690912 -0.125921 0.32291007
0.18224913 0.016053693 0.08570262 -0.3067651 -0.21843556 -0.19187394 -0.23100477 0.07239225
0.07638615 -0.17725733 0.25157866 -0.21932773 0.0991523 -0.11568791 -0.35412583 -0.26580128
0.16696377 0.16146009 -0.2524419 -0.12733236 -0.3773798 0.22190794 0.35147893 0.10777262
-0.27637926 0.21244009 0.33944434 -0.08328958 -0.06654984 0.14185743 0.053154442 -0.13493295
-0.37900376 -0.2862786 0.02205388 -0.021796288 0.3372643 0.0139328465 -0.10595283 -0.39936227
-0.37535942 0.16827208 0.36133966 -0.0064408397 -0.36478478 0.14294016 0.32808596 -0.2713406
-0.10714435 0.034285173 -0.23254947 -0.3784819 0.1802429 -0.3349613 -0.1025924 -0.21671747
0.2968937 0.06726033 0.17526689 -0.25377536 0.37831226 0.038255937 -0.22642867 -0.026706401
-0.28906256 -0.018844442 0.22796947 -0.18352531 0.34118247 0.11784806 -0.075780794 0.1323816
-0.05858859 -0.09475061 -0.2766956 0.19675814 0.21368183 0.20594613 0.32691512 0.4137138
0.38744748 -0.39314973 0.09593182 -0.03353847 0.14381874 -0.078955345 0.112685174 -0.37610236
0.1851403 0.39017862 -0.07393728 -0.32478338 -0.339459 -0.079091206 -0.0075753145 0.043608475
0.048588373 0.3066905 -0.09691721 0.10387795 -0.24265459 0.37575993 0.11386092 -0.061461214
0.26916978 0.14482634 0.07076916 -0.11993053 0.054611843 0.029205907 -0.23852125 0.007714422
0.09279899 -0.2418386 0.07102759 -0.13555005 -0.33862787 -0.24289294 -0.32315853 0.0963291
0.25314653 0.37168446 0.40325752 0.16369572 0.20315929 -0.05244644 0.35670954 -0.15388738
-0.11584732 -0.1421062 -0.27814677 -0.31218052 -0.0735354 0.33022934 -0.1736575 -0.3682564
-0.077056795 0.4038806 0.14725515 -0.022569839 -0.106481716 0.34734696 -0.3841491 0.25486735
00000000: cfd6 1e3c aaab 82be 21ff e93d 6fe7 ca3d
00000010: 1e15 84be 0e24 85bd d15c 36be f48a e23d
00000020: 6546 93bd bd7a b53e 5e9a bd3e 5b7a 4f3d
00000030: e938 32be 4e8b 75be b99a 37bd 0a49 ebbd
00000040: 487f 383e c67b b2be e92d c13e 1f1c a8be
00000050: 4792 993e 13f0 4abd f306 6d3e 0f94 243e
00000060: 7af5 cc3c b53a 9f3d 6b6f 9f3e 3b09 fb3d
00000070: f705 6c3e 7fa1 a0be 7b33 913e 1f5a 0d3e
00000080: 01ef cc3d 45e8 663d 27c2 4d3e 9b70 bf3e
00000090: 370b babd 84e5 68be f959 d2bd 97c9 7ebe
000000a0: 5c49 493e 239d 4ebe 1b44 5fbe 672f b73e
000000b0: 1686 c33e 18dd 323d ba13 97bd 75ab 57bd
000000c0: 9bf9 733e 4d09 b2be 40f5 91be 1b21 bc3e
000000d0: 7b6e f03e 72e6 85bc 0029 a5be dec1 363c
000000e0: b87b 42be 90be 4dba 579e 4c3e f80e 393e
000000f0: f867 7abd 768e 2d3d 240c cb3d 7664 a9be
00000100: 5d09 14be f4b1 7c3c 828a 6ebe 3d93 36be
00000110: 9369 0c3e f298 703e 1971 bb3b 149d 22be
00000120: 7511 6b3e 7c3e 62be 5e2a babd 0d3e c93e
00000130: 1939 a53d 3757 f33c fe8c fa3d 38e4 b8bd
00000140: 2efc ab3e c98f b5be f9ac 1fbe 2ae9 96bd
00000150: 4841 29be 4439 cabd 5a9a 803e bcb7 573e
00000160: 0ceb 343b f0d9 b43e 6457 91be 02af 72be
00000170: 6556 3e3e de6c 0dbd 5b7e c0be 2dc5 90be
00000180: a83a 7ebe 1258 a13e 014e 3d3e 7ba2 a13e
00000190: 369e 9bbe 69bc cbbe 5993 8abe af77 313d
000001a0: 68aa aabd 91a5 8dbe 8403 833e 2591 09be
000001b0: f1c2 70be c9ac 203e 6ff1 00be 7854 a53e
000001c0: 849f 3a3e 0983 833c db84 af3d 5110 9dbe
000001d0: 92ad 5fbe 9a7a 44be 848c 6cbe 6342 943d
000001e0: 5870 9c3d f282 35be ebce 803e 7397 60be
000001f0: 5c10 cb3d c8ed ecbd fb4f b5be 1b17 88be
00000200: 8df8 2a3e cb55 253e 1140 81be 6a63 02be
00000210: ed37 c1be d63b 633e 0cf5 b33e e4b7 dc3d
00000220: 9581 8dbe e589 593e a6cb ad3e ba93 aabd
00000230: 484b 88bd 1343 113e 79b8 593d dd2b 0abe
00000240: c80c c2be 1c93 92be 57aa b43c 218e b2bc
00000250: e8ad ac3e 9846 643c ccfd d8bd 3679 ccbe
00000260: 1c2f c0be 844f 2c3e 8301 b93e ae0d d3bb
00000270: 12c5 babe e85e 123e e2fa a73e 28ed 8abe
00000280: 7f6e dbbd 9c6e 0c3d 7321 6ebe 61c8 c1be
00000290: 9891 383e 0c80 abbe f71b d2bd 2feb 5dbe
000002a0: 7302 983e c9bf 893d 2a79 333e d8ee 81be
000002b0: 25b2 c13e 42b2 1c3d ebdc 67be 62c7 dabc
000002c0: 0200 94be a95f 9abc d470 693e 0fee 3bbe
000002d0: 78af ae3e 535a f13d f632 9bbd 0b8f 073e
000002e0: 97fa 6fbd 9c0c c2bd 0cab 8dbe f77a 493e
000002f0: 69cf 5a3e 8be3 523e 6b61 a73e 4cd2 d33e
00000300: 845f c63e ec4a c9be e777 c43d a25f 09bd
00000310: 3845 133e 57b3 a1bd 7cc7 e63d 7d90 c0be
00000320: 6b95 3d3e 7ec5 c73e 6e6c 97bd 024a a6be
00000330: 92cd adbe 92fa a1bd 583a f8bb cd9e 323d
00000340: 9a04 473d 8a06 9d3e 887c c6bd f6bd d43d
00000350: 727a 78be 9b63 c03e ea2f e93d c1be 7bbd
00000360: 9fd0 893e 5b4d 143e 6cef 903d 239e f5bd
00000370: abb0 5f3d 3a41 ef3c ea3e 74be 43c9 fc3b
00000380: 660d be3d 8aa4 77be ea76 913d a2cd 0abe
00000390: a260 adbe edb8 78be 0975 a5be 3148 c53d
000003a0: 6c9c 813e 6d4d be3e c577 ce3e da9f 273e
000003b0: fd08 503e 14d2 56bd a2a2 b63e a794 1dbe
000003c0: 5c41 edbd 4a84 11be 4169 8ebe 20d6 9fbe
000003d0: ba99 96bd d213 a93e 46d3 31be 1a8c bcbe
000003e0: f4cf 9dbd 70c9 ce3e 0eca 163e 62e4 b8bc
000003f0: 1613 dabd 76d7 b13e 31af c4be f97d 823e

encoder.1.bias f4 [50]
0.32603362 0.08062544 -0.1399451 0.2805893 -0.11114854 -0.18382676 -0.1421168 -0.31952
0.04790102 -0.3321251 0.25663105 -0.39319113 -0.29260725 0.089027144 0.25625795 0.40309423
-0.33119857 0.33268684 0.22839734 -0.26781815 0.14890985 -0.11473787 0.1272923 -0.36068943
-0.23425254 -0.2612325 -0.08607737 -0.012679639 -0.039731394 -0.2411699 0.18651159 0.12542425
-0.35357425 -0.3804755 -0.09077586 0.076580115 -0.30982658 -0.032272894 0.027013488 -0.30143866
0.3660269 0.30394763 0.29582104 -0.16218244 -0.2910627 0.051191658 0.19988959 0.22957067
-0.2648526 0.28003478
00000000: e1ed a63e f31e a53d c54d 0fbe 67a9 8f3e
00000010: d9a1 e3bd 153d 3cbe 1187 11be 2098 a3be
00000020: dc33 443d 4d0c aabe 2565 833e 5950 c9be
00000030: 9ed0 95be dd53 b63d 3e34 833e 5e62 ce3e
00000040: dc92 a9be ee55 aa3e fee0 693e 761f 89be
00000050: d37b 183e b0fb eabd ea58 023e 49ac b8be
00000060: e6df 6fbe 44c0 85be 5549 b0bd 43be 4fbc
00000070: 63bd 22bd 3ef5 76be e5fc 3e3e 376f 003e
00000080: af07 b5be afcd c2be b2e8 b9bd 09d6 9c3d
00000090: 97a1 9ebe 9530 04bd 644b dd3c 2b56 9abe
000000a0: e167 bb3e 069f 9b3e db75 973e 2713 26be
000000b0: 2c06 95be 58ae 513d dbaf 4c3e 9314 6b3e
000000c0: c39a 87be b860 8f3e

encoder.4.weight f4 [50, 50]
-0.05052366 -0.04519924 -0.03965278 0.05411276 -0.14859784 -0.111128226 -0.01711696 0.09921334
-0.05670338 0.08873089 0.14966682 0.0053146165 -0.096350834 0.013791425 0.05224409 -0.001241717
-0.13831244 0.080281205 -0.05963416 -0.09891259 0.071645685 0.03390606 0.11770447 -0.02857529
0.08699648 -0.033668257 -0.079399884 0.13100336 0.113101006 0.100786485 -0.037218794 -0.06381961
0.024537206 0.07093604 0.017994815 0.044115 -0.0070501217 0.08015597 0.06546765 0.050991237
0.01183805 -0.1279776 -0.08714447 -0.07060099 0.119618155 -0.0069252728 -0.035156548 -0.049246315
-0.005938675 0.106733836 -0.0012916102 0.066458195 0.080985025 -0.13754177 0.04963468 0.14190379
-0.07166155 0.022822473 0.004111185 0.074752025 0.033196945 -0.106248334 -0.1055265 0.119535945
-0.06132521 -0.1250055 -0.12695146 -0.12336954 0.031841084 0.016348662 -0.08264525 -0.03194822
0.020588156 0.051524952 0.05774089 -0.07613124 0.13291666 0.13208143 -0.10056217 0.13108408
-0.116023086 -0.09452516 0.027924098 0.041483995 0.12575535 0.0009397081 0.0955152 -0.04717017
-0.10302924 -0.0132041285 0.07280108 -0.055178422 -0.11974097 -0.08614679 0.025051933 0.13483846
0.008009099 -0.11402869 -0.06331278 0.07102182 -0.039059293 -0.05273152 0.10520335 0.02774916
0.06322987 0.10280839 -0.046556752 0.020918991 -0.13552167 0.14057018 -0.07394649 0.1344255
0.1265173 0.044248648 -0.13911368 0.016805258 -0.058731083 0.035447307 0.060278844 0.07875923
0.045724314 -0.108475685 -0.11186111 0.041631315 -0.03144918 0.06579256 0.14306216 0.04302453
-0.101947024 -0.040837616 0.07825063 -0.012192095 0.095878296 -0.13622186 -0.017558198 -0.09286711
0.10722477 0.06182286 -0.021462567 -0.15783603 -0.0022920126 0.09013634 -0.021952761 -0.0061490866
-0.13077724 0.11133405 0.090073526 -0.11040054 -0.10032093 -0.0006518196 -0.08206114 -0.10142015
0.044381294 -0.027943801 0.057780392 0.06605675 0.12593333 0.083771646 -0.12346661 -0.11397035
0.104237914 -0.120160505 0.08726782 -0.0902153 0.12479494 0.07117111 -0.097401105 -0.11366589
-0.051424738 -0.0646535 -0.08141074 0.09997782 0.03245078 -0.017728565 -0.009435989 0.05904076
0.011086917 -0.017767001 0.13244188 0.097589515 0.014731834 0.112934805 -0.030292252 -0.10728976
0.081332855 0.089911155 0.023032611 -0.12076372 0.10295037 0.019166443 -0.07891359 -0.11359185
-0.06117172 0.13161057 0.07017973 -0.061831433 0.12893394 0.12069043 0.070290655 -0.0059297597
0.13363366 -0.033984974 -0.05900313 0.065847255 -0.06031959 0.101353526 -0.07522532 0.05237109
-0.105506636 -0.09422836 0.007982495 0.11147852 -0.10853268 -0.036444787 0.065762386 -0.024679795
-0.1268594 -0.00096724374 -0.050231814 0.033663295 0.057857584 -0.04242309 -0.07303936 0.0836144
-0.1219204 0.06903215 0.057895623 0.056089193 -0.0984499 0.056869823 -0.084843986 0.061934847
-0.065867685 0.031078255 0.0015156261 -0.09945642 -0.13142024 -0.033272255 0.08406022 -0.034099247
-0.035358693 -0.088955134 -0.102921106 -0.011502324 -0.03697361 0.0506352 0.13523236 -0.097166836
-0.043430652 0.052349444 -0.09443127 -0.021348404 -0.07171512 0.08671285 -0.018756596 0.0076198634
00000000: e6f1 4ebd d722 39bd f46a 22bd 57a5 5d3d
00000010: 082a 18be 3297 e3bd de38 8cbc 5d30 cb3d
00000020: ce41 68bd 8ab8 b53d 4242 193e 3c26 ae3b
00000030: 9653 c5bd 6ef5 613c e6fd 553d 1cc1 a2ba
00000040: c7a1 0dbe 796a a43d f342 74bd af92 cabd
00000050: f9ba 923d 15e1 0a3d 0b0f f13d ba16 eabc
00000060: 362b b23d bae7 09bd 689c a2bd bf25 063e
00000070: 80a1 e73d 2569 ce3d bc72 18bd dbb3 82bd
00000080: 4002 c93c ea46 913d dd69 933c eeb1 343d
00000090: b504 e7bb d028 a43d e713 863d 30dc 503d
000000a0: 61f4 413c 8f0c 03be cd78 b2bd 4097 90bd
000000b0: 5dfa f43d 66ed e2bb 5000 10bd 81b6 49bd
000000c0: 3799 c2bb 4597 da3d 3f4b a9ba 3c1b 883d
000000d0: 7adb a53d c0d7 0cbe bc4d 4b3d 3a4f 113e
000000e0: 4ac3 92bd 32f6 ba3c 1fb7 863b 9717 993d
000000f0: 85f9 073d ba98 d9bd 471e d8bd 43cf f43d
00000100: 2530 7bbd 7101 00be 90ff 01be 2ba9 fcbd
00000110: cc6b 023d a1ed 853c ea41 a9bd 23dc 02bd
00000120: 7ea8 a83c d40b 533d b681 6c3d b2ea 9bbd
00000130: 4e1b 083e 5b40 073e 8af3 cdbd e83a 063e
00000140: 839d edbd 6896 c1bd 14c1 e43c 1feb 293d
00000150: 03c6 003e be56 763a 799d c33d 8235 41bd
00000160: ff00 d3bd 2156 58bc bc18 953d c502 62bd
00000170: c13a f5bd ba6d b0bd b639 cd3c 1813 0a3e
00000180: 9938 033c e087 e9bd 21aa 81bd e373 913d
00000190: a3fc 1fbd 02fd 57bd db74 d73d 3552 e33c
000001a0: a97e 813d 358d d23d 4bb2 3ebd 4e5e ab3c
000001b0: 31c6 0abe a1f1 0f3e 4271 97bd d7a6 093e
000001c0: c08d 013e 123e 353d d173 0ebe 2eab 893c
000001d0: 0190 70bd 3231 113d f3e6 763d 854c a13d
000001e0: 6b49 3b3d 8028 debd 7017 e5bd 9985 2a3d
000001f0: dbd0 00bd 40be 863d e37e 123e 7d3a 303d
00000200: 9ac9 d0bd 5845 27bd de41 a03d 5ac1 47bc
00000210: d75b c43d be7d 0bbe 36d6 8fbc 1d31 bebd
00000220: a998 db3d f839 7d3d 44d2 afbc c59f 21be
00000230: 9735 16bb 6799 b83d 47d6 b3bc 477e c9bb
00000240: 78ea 05be 1b03 e43d 7878 b83d ae19 e2bd
00000250: 0f75 cdbd dfde 2aba ac0f a8bd 5eb5 cfbd
00000260: 29c9 353d 66ea e4bc 22ab 6c3d c348 873d
00000270: abf4 003e 7890 ab3d 10dc fcbd 4969 e9bd
00000280: b07a d53d b616 f6bd 79b9 b23d cdc2 b8bd
00000290: 7d94 ff3d 29c2 913d 3b7a c7bd aac9 e8bd
000002a0: bfa2 52bd 0e69 84bd adba a6bd 2cc1 cc3d
000002b0: 1ceb 043d 7f3b 91bc 6899 1abc b9d4 713d
000002c0: e6a5 353c 1a8c 91bc d89e 073e 03dd c73d
000002d0: ca5d 713c 5d4a e73d 7527 f8bc bcba dbbd
000002e0: d791 a63d 5723 b83d e3ae bc3c f852 f7bd
000002f0: a5d7 d23d f202 9d3c 739d a1bd d8a2 e8bd
00000300: 338f 7abd ecc4 063e 64ba 8f3d f542 7dbd
00000310: 4207 043e 8b2c f73d 8cf4 8f3d 6e4e c2bb
00000320: 43d7 083e d433 0bbd 44ad 71bd edda 863d
00000330: ad11 77bd 7092 cf3d bc0f 9abd 1183 563d
00000340: dd13 d8bd ccfa c0bd 03c9 023c da4e e43d
00000350: 6246 debd 2147 15bd 6eae 863d 482d cabc
00000360: 6ee7 01be a18e 7dba e0bf 4dbd 86e2 093d
00000370: 13fc 6c3d d6c3 2dbd a995 95bd 073e ab3d
00000380: 67b1 f9bd ba60 8d3d f623 6d3d c8bd 653d
00000390: 1aa0 c9bd 55f0 683d afc2 adbd 65af 7d3d
000003a0: a3e5 86bd d397 fe3c f9a7 c63a cfaf cbbd
000003b0: 0793 06be 7d48 08bd c427 ac3d a7ab 0bbd
000003c0: 47d4 10bd 1c2e b6bd 4dc8 d2bd 3e74 3cbc
000003d0: a471 17bd db66 4f3d 5a7a 0a3e 68ff c6bd
000003e0: 57e4 31bd 5f6c 563d 2f65 c1bd d9e2 aebc
000003f0: 60df 92bd 8296 b13d 6fa7 99bc 0cb0 f93b

encoder.4.bias f4 [50]
0.030519769 0.07627706 0.12271404 0.016510934 -0.06948967 0.0075881137 -0.063060194 0.09104157
0.0027619905 0.06462777 -0.081773184 -0.08832081 -0.12839489 0.033754855 -0.08178967 0.06849913
0.14708222 -0.030144569 -0.009074884 -0.087701105 0.13562223 0.039861184 -0.10376271 -0.054311745
-0.05924002 0.10542535 -0.093186006 -0.01406511 -0.10726788 -0.09045571 -0.13578065 0.11678901
-0.07705704 -0.12461171 -0.008048847 -0.11799691 -0.11222874 -0.049225703 -0.06913707 -0.11704339
-0.085758805 -0.10539771 0.035329614 -0.020333359 -0.11944338 -0.011635404 -0.10284992 0.09526725
-0.12671539 -0.10973627
00000000: 9804 fa3c 2637 9c3d 8051 fb3d f041 873c
00000010: 9a50 8ebd b6a5 f83b b425 81bd 0174 ba3d
00000020: 8302 353b 905b 843d b378 a7bd 8ae1 b4bd
00000030: f379 03be 8842 0a3d 5881 a7bd 4649 8c3d
00000040: b99c 163e bef1 f6bc d2ae 14bc a39c b3bd
00000050: 8ee0 0a3e 7b45 233d 8b81 d4bd fe75 5ebd
00000060: aaa5 72bd 3fe9 d73d 4ed8 bebd 5971 66bc
00000070: 43af dbbd d840 b9bd 150a 0bbe 142f ef3d
00000080: 15d0 9dbd 6d34 ffbd 50df 03bc 5da8 f1bd
00000090: 2ed8 e5bd e4a0 49bd bc97 8dbd 72b4 efbd
000000a0: 50a2 afbd c1da d7bd c9b5 103d 2592 a6bc
000000b0: bb9e f4bd 6ca2 3ebc fba2 d2bd 7a1b c33d
000000c0: aec1 01be 69bd e0bd

encoder.7.weight f4 [20, 50]
-0.015185488 -0.104328655 0.054762818 -0.087610796 0.0039893636 0.13056645 -0.045774322 0.07182132
-0.13431975 0.05661789 0.06316428 -0.07777222 -0.07610502 -0.058768693 -0.12863289 0.07568089
0.028897114 -0.08295785 0.09394504 -0.03885699 -0.07006373 0.08495377 -0.11431996 -0.11301929
-0.12613133 -0.059335705 0.113191515 -0.013321892 0.03869052 -0.08466993 -0.049625732 0.11743568
0.086513154 -0.009685 -0.035832793 -0.05127736 -0.048996773 -0.0076351943 0.118373014 -0.06267043
0.02391302 -0.09451679 0.12805489 0.021681229 0.12994522 0.059356775 -0.08979457 -0.08929248
0.061026897 -0.06650706 0.042362884 -0.11323718 0.03711894 -0.08892144 0.019825181 0.14068685
-0.073938966 0.06679375 0.09516329 0.029382369 -0.009699842 0.02754431 -0.033264 -0.13862409
0.09712848 -0.032748405 0.13303941 0.11852616 -0.021276427 0.09532063 -0.028662952 -0.003675359
-0.120062195 0.13783503 0.07368741 -0.119111836 0.051142856 -0.038437624 0.08890359 0.011091756
-0.035470754 -0.016678736 -0.0255752 -0.053383626 -0.092383206 -0.04570824 0.02007651 -0.12611605
0.11371424 -0.0069424165 0.10331661 -0.0793857 0.0693136 0.042005982 -0.035034213 -0.061925575
0.044927027 -0.07544373 -0.1435243 0.07344042 0.10027134 0.06365203 -0.12194309 -0.0048990166
0.013795023 0.12688574 -0.09467169 0.00948048 -0.009865778 0.08372514 -0.12791276 0.06991973
0.07161397 0.11565418 0.09803511 -0.08047186 -0.0665181 -0.06923486 0.034896918 -0.0002438083
-0.12275186 -0.14343157 -0.011664036 -0.14010638 -0.03519659 -0.017725758 -0.0012179122 -0.14077511
0.06602216 0.029097052 0.02028545 -0.02094113 0.111176364 0.112767085 -0.08572122 0.039630264
-0.10102311 -0.09010384 -0.058868762 -0.049735516 0.13474807 0.13025051 -0.050587073 0.07953856
0.13823205 0.05656057 0.09111133 0.09079621 0.11013624 0.009014608 0.0750832 0.103790544
-0.06222652 -0.083952785 0.021214519 -0.09207779 0.046955075 -0.0592423 -0.0971655 0.107101955
0.12929073 0.090208374 0.13928325 0.016263412 0.04107771 -0.109945886 -0.038411103 -0.15029806
0.05998561 -0.05610364 -0.07227284 0.09364724 0.12950677 0.059759114 0.015580159 0.071699195
0.09244679 0.021091985 0.038892627 0.020990144 0.10042548 -0.1172859 0.053786695 0.029656973
0.13868487 -0.061295852 -0.029432708 0.11329282 0.06573952 -0.05603052 -0.12680128 -0.06630726
0.057635423 0.13779117 0.13675228 -0.07630016 -0.09407257 0.06750584 0.004504509 0.10076165
-0.12384984 0.04857062 -0.045740712 -0.0150991455 -0.08019133 -0.14105299 -0.05125855 -0.01549258
-0.115591995 -0.019492969 -0.04050627 0.031800143 0.16217291 0.008520346 0.011123225 -0.15182927
-0.012154581 -0.12781188 0.035321377 -0.10043744 -0.12582241 -0.07341704 0.10788801 0.049629148
0.13708517 -0.027424399 -0.056304086 0.012664855 -0.081712045 0.08836691 0.17394914 -0.081330456
0.13274974 -0.055758428 0.07269785 -0.037678625 -0.061420277 0.04321219 0.04506431 0.06240202
-0.024246959 0.120884165 -0.06245389 0.019162765 0.057476543 -0.10640933 0.058413148 -0.10948546
0.11233523 -0.08156179 -0.012446088 -0.11678141 0.027804714 0.12745307 0.09127547 -0.07830021
00000000: 8ecc 78bc 43aa d5bd fa4e 603d 4a6d b3bd
00000010: 35b9 823b 36b3 053e db7d 3bbd 0e17 933d
00000020: 1e8b 09be 29e8 673d 465c 813d 0b47 9fbd
00000030: f3dc 9bbd 71b7 70bd 57b8 03be 95fe 9a3d
00000040: a4b9 ec3c cee5 a9bd 4266 c03d 8228 1fbd
00000050: 937d 8fbd 3efc ad3d 9520 eabd a876 e7bd
00000060: 9228 01be ff09 73bd f4d0 e73d 1144 5abc
00000070: f379 1e3d 6e67 adbd 5a44 4bbd 1e82 f03d
00000080: cf2d b13d d6ad 1ebc 68c5 12bd 3608 52bd
00000090: d7b0 48bd a730 fabb 8d6d f23d 5b59 80bd
000000a0: 3de5 c33c 0592 c1bd d220 033e d59c b13c
000000b0: 5c10 053e 1720 733d 37e6 b7bd fade b6bd
000000c0: 57f7 793d da34 88bd b484 2d3d e5e8 e7bd
000000d0: 080a 183d 721c b6bd 6b68 a23c 3710 103e
000000e0: 506d 97bd 29cb 883d f9e4 c23d 4bb3 f03c
000000f0: 16ec 1ebc 9ba4 e13c d53f 08bd 79f3 0dbe
00000100: 4ceb c63d 3123 06bd 7c3b 083e d8bd f23d
00000110: e74b aebc 7637 c33d 91ce eabc 4bde 70bb
00000120: 2be3 f5bd a024 0d3e 6de9 963d e8f0 f3bd
00000130: 2c7b 513d c570 1dbd 1613 b63d 32ba 353c
00000140: c849 11bd d8a1 88bc 1583 d1bc caa8 5abd
00000150: 6833 bdbd 9038 3bbd 7e77 a43c 9124 01be
00000160: 03e3 e83d 367d e3bb a997 d33d f894 a2bd
00000170: 4af4 8d3d 770e 2c3d 0980 0fbd aca5 7dbd
00000180: 6705 383d 3e82 9abd 09f8 12be ee67 963d
00000190: 0f5b cd3d ff5b 823d 4cbd f9bd ee87 a0bb
000001a0: 8504 623c 56ee 013e 3be3 c1bd 0454 1b3c
000001b0: 12a4 21bc 1678 ab3d 90fb 02be 1332 8f3d
000001c0: 58aa 923d 19dc ec3d a2c6 c83d 6ece a4bd
000001d0: a43a 88bd 02cb 8dbd 12f0 0e3d cba6 7fb9
000001e0: 5465 fbbd badf 12be 831a 3fbc 0c78 0fbe
000001f0: 4d2a 10bd 9c35 91bc 5aa2 9fba 5a27 10be
00000200: a036 873d f15c ee3c ac2d a63c bc8c abbc
00000210: 6fb0 e33d 6ef2 e63d 9b8e afbd 5853 223d
00000220: 34e5 cebd 5d88 b8bd 5f20 71bd 78b7 4bbd
00000230: 66fb 093e 6460 053e 6434 4fbd 1de5 a23d
00000240: b48c 0d3e 0eac 673d 9498 ba3d 5df3 b93d
00000250: 1c8f e13d 02b2 133c 39c5 993d 2390 d43d
00000260: 3ce1 7ebd 70ef abbd 12ca ad3c 4893 bcbd
00000270: f753 403d 0ea8 72bd b5fe c6bd 4558 db3d
00000280: ca64 043e 2bbf b83d 45a0 0e3e d93a 853c
00000290: 1a41 283d 4f2b e1bd f654 1dbd bce7 19be
000002a0: 79b3 753d eecc 65bd c803 94bd 20ca bf3d
000002b0: 6c9d 043e f9c5 743d ec43 7f3c 07d7 923d
000002c0: be54 bd3d 19c9 ac3c e04d 1f3d 86f3 ab3c
000002d0: e0ab cd3d 9733 f0bd 704f 5c3d 2ef3 f23c
000002e0: 6803 0e3e 5c11 7bbd dd1c f1bc 1106 e83d
000002f0: 71a2 863d 4280 65bd 32d8 01be 1acc 87bd
00000300: 1f13 6c3d 2119 0d3e ca08 0c3e 4243 9cbd
00000310: 1fa9 c0bd 8040 8a3d 8f9a 933b 205c ce3d
00000320: fca4 fdbd fdf1 463d 9d5a 3bbd 6862 77bc
00000330: 5a3b a4bd 3270 10be 7cf4 51bd 97d4 7dbc
00000340: 7fbb ecbd b8af 9fbc e7e9 25bd de40 023d
00000350: a810 263e ec98 0b3c 303e 363c 2279 1bbe
00000360: 0224 47bc 1ee1 02be 26ad 103d 25b2 cdbd
00000370: 97d7 00be ac5b 96bd 64f4 dc3d ef47 4b3d
00000380: 0e60 0c3e 22a9 e0bc 1d9f 66bd 4180 4f3c
00000390: a558 a7bd b6f9 b43d b91f 323e 9590 a6bd
000003a0: 8cef 073e f362 64bd 9ce2 943d e754 1abd
000003b0: d493 7bbd 44ff 303d 5b95 383d 4399 7f3d
000003c0: 8fa1 c6bc 1e92 f73d a6cf 7fbd 3bfb 9c3c
000003d0: 866c 6b3d 23ed d9bd a042 6f3d ea39 e0bd
000003e0: 0310 e63d de09 a7bd adea 4bbc 182b efbd
000003f0: b6c6 e33c 0f83 023e a2ee ba3d dc5b a0bd

encoder.7.bias f4 [20]
0.066827185 0.055490997 0.0604196 0.03800273 0.0926713 -0.008771397 -0.12748666 0.0069832453
0.02584214 0.091322616 -0.119455844 -0.006647472 -0.10102571 0.12336842 0.057657406 0.032171026
0.06080122 0.07549262 -0.014083169 -0.03954669
00000000: b1dc 883d 874a 633d 8b7a 773d c0a8 1b3d
00000010: 73ca bd3d e8b5 0fbc dd8b 02be b5d3 e43b
00000020: e5b2 d33c 5a07 bb3d 44a5 f4bd 09d3 d9bb
00000030: 91e6 cebd 95a8 fc3d 2c2a 6c3d c4c5 033d
00000040: b30a 793d e09b 9a3d 18bd 66bc b6fb 21bd

encoder.10.weight f4 [4, 20]
-0.05663926 -0.041874964 -0.05326758 0.05737157 0.17341712 -0.056619518 0.11690684 0.16055408
0.012890866 -0.030175513 -0.19786459 0.13317922 0.011411539 -0.069666795 -0.067758635 -0.041289423
-0.06479571 0.06661391 -0.064714886 0.19538906 -0.017614162 -0.23924774 0.112624325 -0.16533741
0.25193253 0.2257627 -0.14368467 0.2007338 -0.21881141 -0.18176979 -0.12237311 -0.19720294
-0.14578001 -0.06295366 0.27603534 -0.21371877 -0.064219296 0.075013444 0.20152228 0.028766464
-0.12732118 0.093369976 -0.10838864 0.23775506 0.08361415 -0.1540056 0.06964578 -0.10063229
-0.09755234 -0.21352865 -0.19315979 0.029192204 0.14739834 0.026390629 0.17537595 -0.02241819
0.22111854 0.0037235967 0.2267397 -0.13250385 0.19622721 -0.14256027 -0.17234571 -0.17035498
0.063362494 0.11602296 0.14261435 -0.21608995 0.059158526 -0.14989293 -0.13724047 0.0063101514
-0.04211764 0.23559397 -0.1694077 0.24533762 -0.14939927 -0.14789174 -0.20509493 -0.109996825
00000000: 92fe 67bd 1585 2bbd 1b2f 5abd 74fe 6a3d
00000010: 4294 313e dee9 67bd da6c ef3d 4a68 243e
00000020: 3634 533c a332 f7bc 049d 4abe 2260 083e
00000030: 77f7 3a3c 77ad 8ebd 0ac5 8abd 191f 29bd
00000040: 9db3 84bd e06c 883d 3d89 84bd 1214 483e
00000050: 934b 90bc 5cfd 74be 95a7 e63d 364e 29be
00000060: 4dfd 803e 562e 673e 1322 13be 298d 4d3e
00000070: 1910 60be dc21 3abe c19e fabd 91ef 49be
00000080: 5b47 15be d9ed 80bd 8154 8d3e 18d9 5abe
00000090: 6885 83bd a6a0 993d db5b 4e3e a6a7 eb3c
000000a0: 7c60 02be c238 bf3d ddfa ddbd 1076 733e
000000b0: e53d ab3d a5b3 1dbe 72a2 8e3d 4d18 cebd
000000c0: 85c9 c7bd 41a7 5abe aecb 45be 7d24 ef3c
000000d0: 97ef 163e 2931 d83c c195 333e 5aa6 b7bc
000000e0: e66c 623e 9607 743b 742e 683e 17af 07be
000000f0: c9ef 483e 52fb 11be 657b 30be 8971 2ebe
00000100: 32c4 813d 729d ed3d 7f09 123e af46 5dbe
00000110: 3650 723d 887d 19be c488 0cbe 63c5 ce3b
00000120: 8c83 2cbd 8c3f 713e 3679 2dbe c939 7b3e
00000130: 1ffc 18be ef70 17be 6804 52be 0446 e1bd

encoder.10.bias f4 [4]
-0.02103158 -0.00490113 -0.037716836 0.04677657
00000000: 6c4a acbc a999 a0bb f87c 1abd ca98 3f3d

decoder.0.weight f4 [20, 4]
-0.121882305 -0.25644863 0.16125996 0.37799066 0.16449606 -0.42603698 -0.5033154 0.21842597
-0.22722489 -0.2642561 0.4912708 0.3684498 -0.29917896 -0.62508523 -0.48400584 0.4884758
0.111646265 -0.0898405 0.01446039 0.17772776 0.27439612 -0.3639739 0.11315404 -0.3728107
0.42571628 -0.39771006 0.3557544 -0.452423 0.43211308 0.12691408 -0.31356058 -0.16613702
-0.21785614 0.3762471 -0.05282184 -0.2780378 -0.037987605 0.30211297 0.15649852 -0.150275
-0.22129716 0.154215 0.29714128 0.05454334 -0.41069242 -0.042904083 -0.1537846 0.20171915
-0.07731945 -0.32877624 -0.50908166 0.38405257 0.4912253 0.41990277 0.108208865 0.03197959
0.01995027 -0.36690408 -0.4495277 -0.18328826 0.20445742 -0.20288369 0.35582408 -0.43777516
-0.37646788 -0.4851468 0.17190757 -0.3881384 -0.36107817 -0.46341288 0.29962745 0.029342465
-0.31098175 0.4672747 0.16921784 -0.23971716 0.07190611 0.051316414 -0.1488091 -0.16551222
00000000: 6e9d f9bd 3c4d 83be 5521 253e fe87 c13e
00000010: a871 283e 8521 dabe 47d9 00bf 0fab 5f3e
00000020: a4ad 68be 934c 87be d987 fb3e 74a5 bc3e
00000030: fc2d 99be 9605 20bf 9dcf f7be 8019 fa3e
00000040: cca6 e43d 4cfe b7bd 46eb 6c3c 44fe 353e
00000050: a67d 8c3e c95a babe 4ebd e73d 0be1 bebe
00000060: 7cf7 d93e a7a0 cbbe 7125 b63e fda3 e7be
00000070: ed3d dd3e c4f5 013e 038b a0be d31f 2abe
00000080: ae15 5fbe 76a3 c03e b75b 58bd f85a 8ebe
00000090: e498 1bbd 8dae 9a3e 2641 203e b1e1 19be
000000a0: b99b 62be 89ea 1d3e e722 983e d668 5f3d
000000b0: 4746 d2be 31bc 2fbd b679 1dbe 778f 4e3e
000000c0: a959 9ebd 5c55 a8be 2d53 02bf 8aa2 c43e
000000d0: e281 fb3e 7ffd d63e 9c9c dd3d 08fd 023d
000000e0: c06e a33c dada bbbe 7f28 e6be ebaf 3bbe
000000f0: 495d 513e bec0 4fbe 932e b63e 1124 e0be
00000100: 66c0 c0be 2965 f8be 8a08 303e 14ba c6be
00000110: 3ddf b8be 7444 edbe c568 993e 9c5f f03c
00000120: 0039 9fbe a13e ef3e 7147 2d3e 6a78 75be
00000130: 8343 933d 2931 523d 6a61 18be 097c 29be

decoder.0.bias f4 [20]
-0.1598981 -0.004320613 -0.34089264 0.6518899 -0.03670501 -0.06515931 -0.04686386 -0.008899857
-0.36487335 0.05613561 0.26585144 0.21696252 0.52900946 -0.43934855 -0.45909715 -0.28665745
0.021516377 -0.004831698 -0.13730961 -0.037686683
00000000: 54bc 23be ee93 8dbb 7b89 aebe 42e2 263f
00000010: fe57 16bd 3f72 85bd 52f4 3fbd b5d0 11bc
00000020: aed0 babe 74ee 653d ae1d 883e 6c2b 5e3e
00000030: 2a6d 073f 4bf2 e0be c80e ebbe c4c4 92be
00000040: 1d43 b03c 3853 9ebb e49a 0cbe 5a5d 1abd

decoder.2.weight f4 [50, 20]
0.19002725 -0.20808801 -0.17484428 -0.033543337 0.006388342 0.09847549 -0.03151634 0.090418264
0.19890116 0.21000178 -0.07720433 0.003764769 0.003603178 0.08599337 0.2157167 0.20438503
0.016210562 0.141074 0.021776505 -0.19450995 -0.010857944 0.002229368 -0.0064257532 0.01614751
-0.102562234 -0.13819976 0.18243505 0.026853712 -0.21024494 -0.13661613 0.092336215 0.08626727
0.05298052 -0.15201153 -0.08485478 -0.0064757657 -0.070424944 0.1484243 -0.2072098 0.1413962
-0.10922133 0.1618176 0.15948425 -0.03561428 -0.0019096523 0.12651905 0.08203816 -0.015883584
-0.10841032 0.110174075 -0.0044427617 0.047620878 0.09726556 0.049469106 -0.07785597 0.17916559
0.046318695 -0.08630118 -0.023389904 0.05888901 0.045688607 0.17965084 -0.020397719 0.07947512
-0.16955927 0.027925797 0.17080954 0.19178419 0.04802003 -0.009354141 -0.0909765 0.14510773
0.13745455 -0.08118708 -0.21852782 0.11273527 0.046380486 -0.06293634 0.02341734 -0.07040512
-0.16101608 0.011264881 0.14088422 0.12641205 -0.06984201 0.0035816473 0.14466828 -0.1795345
-0.09837048 -0.12129242 -0.15668789 0.13927464 0.25406122 -0.13511525 -0.099435285 0.1494352
0.021972125 -0.047601923 0.18961403 0.17574327 -0.040373474 0.050613277 0.21154255 -0.051033903
0.12427951 0.1477814 0.16206147 -0.18316129 0.16809759 0.11957799 -0.076427706 0.030483784
0.01165273 -0.1763659 0.12961446 0.04708788 0.1239407 -0.22048847 0.090974815 0.15631017
0.20763665 -0.18805876 0.038782652 -0.02899987 0.12305218 0.17236982 -0.015121127 -0.09232484
-0.105084054 0.197537 -0.07081683 0.13317616 -0.09475062 -0.22208425 -0.20655361 0.1091455
-0.21721362 -0.067994945 -0.019160312 -0.13030587 0.009051002 -0.041319486 -0.1250891 0.03955359
-0.12202837 -0.058663215 0.12352727 -0.0035071734 0.16555302 0.12977107 -0.0012462544 0.10389197
0.045083195 -0.16462104 -0.14375746 -0.0051133726 0.117253155 0.060592286 -0.22698319 -0.029950427
0.17320919 0.086804256 0.15444766 -0.13204159 0.2035763 -0.095640086 0.18260166 -0.11522917
0.099272266 0.06619916 0.17102268 0.028844364 0.030288292 0.019587392 -0.16036257 -0.20161556
-0.079018645 -0.037652116 0.036690217 0.15441252 0.11697908 -0.015437725 0.19895016 0.20193048
-0.07696179 -0.17346153 -0.0022361623 -0.07264674 -0.15854965 0.14363568 0.15509737 0.029472735
0.051688235 -0.11372257 0.1106672 -0.16107143 -0.14463486 0.16734838 0.15856527 0.18714945
-0.017603876 0.122881144 -0.024408974 0.057504274 0.21850617 0.17410596 0.21852557 0.17431203
0.17537755 -0.07732823 0.10115667 0.0603685 -0.07764516 -0.03514476 0.07264321 -0.1555236
0.23058596 -0.12682058 0.18280795 -0.016911026 0.17113754 0.010865281 0.07354267 0.059035566
-0.116206065 -0.14052945 -0.19743422 0.16277017 -0.081702925 -0.17559269 -0.22182415 -0.21402967
-0.013338373 -0.092372045 -0.061522253 -0.21027167 -0.12458346 0.111482434 -0.044224262 0.080456495
0.0022578207 0.23046084 -0.0135606015 0.224095 0.034607198 -0.06741723 -0.022611521 0.15156914
0.111666836 0.10859762 0.14851794 -0.21030788 0.20277625 -0.10602655 0.12209103 -0.010571707
00000000: 8196 423e 0615 55be 610a 33be bd64 09bd
00000010: 4c55 d13b 85ad c93d 4717 01bd 362d b93d
00000020: bfac 4b3e b50a 573e 4e1d 9ebd 58ba 763b
00000030: 4c23 6c3b 4b1d b03d d7e4 5c3e 4f4a 513e
00000040: 03cc 843c b475 103e a464 b23c 9e2d 47be
00000050: 85e5 31bc 971a 123b 208f d2bb c847 843c
00000060: 260c d2bd 3d84 0dbe 41d0 3a3e 51fc db3c
00000070: 734a 57be 19e5 0bbe c51a bd3d e5ac b03d
00000080: 1a02 593d e9a8 1bbe 58c8 adbd a932 d4bb
00000090: f43a 90bd 8afc 173e ce2e 54be 2aca 103e
000000a0: 6faf dfbd 83b3 253e d74f 233e 47e0 11bd
000000b0: 4c4d faba 368e 013e 9f03 a83d 4a1e 82bc
000000c0: 3b06 debd f2a2 e13d 9694 91bb 1c0e 433d
000000d0: 2a33 c73d 1ea0 4a3d f372 9fbd 2f77 373e
000000e0: acb8 3d3d acbe b0bd 2f9c bfbc 9a35 713d
000000f0: fa23 3b3d 64f6 373e 1e19 a7bc dac3 a23d
00000100: f2a0 2dbe a4c4 e43c b2e8 2e3e 1363 443e
00000110: a7b0 443d 1c42 19bc e351 babd 1f97 143e
00000120: e3c0 0c3e 6945 a6bd c2c5 5fbe c0e1 e63d
00000130: 77f9 3d3d c5e4 80bd b9d5 bf3c 8f30 90bd
00000140: 66e1 24be 5690 383c f443 103e 2972 013e
00000150: 5409 8fbd 12ba 6a3b ec23 143e e4d7 37be
00000160: 7676 c9bd 2968 f8bd ca72 20be 039e 0e3e
00000170: 5014 823e a75b 0abe baa4 cbbd 8b05 193e
00000180: e3fe b33c 3cfa 42bd 2e2a 423e 0bf6 333e
00000190: a85e 25bd de4f 4f3d 9c9e 583e ed08 51bd
000001a0: 4186 fe3d 0254 173e 71f3 253e a28e 3bbe
000001b0: c621 2c3e 4ee5 f43d 2186 9cbd 21b9 f93c
000001c0: 18eb 3e3c 4399 34be a7b9 043e 39df 403d
000001d0: 9fd4 fd3d bbc7 61be 0151 ba3d c60f 203e
000001e0: b49e 543e 7a92 40be 8fda 1e3d 2391 edbc
000001f0: c802 fc3d b781 303e 9abe 77bc ce14 bdbd
00000200: 4f36 d7bd 2447 4a3e 6a08 91bd 555f 083e
00000210: 9d0c c2bd 0e6a 63be ca82 53be ad87 df3d
00000220: 3f6d 5ebe ef40 8bbd 16f6 9cbc e76e 05be
00000230: a74a 143c 9f3e 29bd 5b17 00be f202 223d
00000240: 03ea f9bd d748 70bd defb fc3d 9bd8 65bb
00000250: bb86 293e b5e2 043e 5c59 a3ba 50c5 d43d
00000260: 28a9 383d 6b92 28be 2835 13be 148e a7bb
00000270: 6c22 f03d 9e2f 783d 486e 68be 995a f5bc
00000280: c05d 313e 6ec6 b13d 8727 1e3e e935 07be
00000290: 4e76 503e f3de c3bd eefb 3a3e 45fd ebbd
000002a0: 424f cb3d 6d93 873d 9220 2f3e 044b ec3c
000002b0: 271f f83c bd75 a03c 1636 24be 4f74 4ebe
000002c0: 87d4 a1bd 1b39 1abd 7b48 163d 511e 1e3e
000002d0: ba92 ef3d 83ee 7cbc 97b9 4b3e ddc6 4e3e
000002e0: 259e 9dbd e69f 31be 948c 12bb d0c7 94bd
000002f0: d75a 22be 3b15 133e d8d1 1e3e ce70 f13c
00000300: 0bb7 533d 61e7 e8bd 7ca5 e23d e9ef 24be
00000310: 291b 14be 605d 2b3e ef5e 223e 1ba4 3f3e
00000320: 0136 90bc 1ca9 fb3d 54f5 c7bc 9a89 6b3d
00000330: 15c0 5f3e d548 323e 2bc5 5f3e da7e 323e
00000340: 2c96 333e 435e 9ebd 3a2b cf3d f644 773d
00000350: 6d04 9fbd f4f3 0fbd f7c5 943d 9441 1fbe
00000360: ba1e 6c3e 41dd 01be 0232 3b3e fe88 8abc
00000370: ae3e 2f3e 4b04 323c 8a9d 963d 47cf 713d
00000380: 72fd edbd f4e6 0fbe 322c 4abe 39ad 263e
00000390: dd53 a7bd 92ce 33be df25 63be 982a 5bbe
000003a0: 3189 5abc 8e2d bdbd c2fe 7bbd 7551 57be
000003b0: 9d25 ffbd e750 e43d 8024 35bd 60c6 a43d
000003c0: f2f7 133b edfd 6b3e 492d 5ebc 2979 653e
000003d0: 47c0 0d3d 0b12 8abd cc3b b9bc f134 1b3e
000003e0: 95b1 e43d 6e68 de3d 1615 183e f35a 57be
000003f0: 94a4 4f3e 7324 d9bd dd0a fa3d f434 2dbc

decoder.2.bias f4 [50]
0.18742868 -0.16448525 0.039851565 0.19938453 0.066442005 0.07111918 -0.16291311 0.19363797
0.13660441 -0.065840535 0.18913901 -0.112207875 -0.104792 0.23450036 -0.047818143 -0.14528833
0.21287958 0.119200855 -0.030238809 -0.11817424 0.20271136 0.013036454 -0.06649645 0.02266361
0.06934927 0.08460463 0.041735042 -0.16271825 0.030039884 -0.13831791 -0.19601564 0.1660291
0.18696927 0.19801456 0.05316819 -0.05565534 0.21699578 0.005847315 0.104176134 0.18121737
-0.13888143 0.08661706 -0.12834398 -0.19592379 0.29494977 0.20948261 0.1549548 -0.06921875
-0.19216707 0.013913003
00000000: 4eed 3f3e d26e 28be 653b 233d 752b 4c3e
00000010: bf12 883d efa6 913d b2d2 26be 0849 463e
00000020: 07e2 0b3e 67d7 86bd a8ad 413e 3ecd e5bd
00000030: 309d d6bd dd20 703e f5dc 43bd 77c6 14be
00000040: 1bfd 593e 941f f43d 61b7 f7bc 5605 f2bd
00000050: 9193 4f3e da96 553c 4a2f 88bd 09a9 b93c
00000060: fd06 8e3d 3145 ad3d 5df2 2a3d 9d9f 26be
00000070: 3416 f63c 36a3 0dbe 53b8 48be 8803 2a3e
00000080: df74 3f3e 54c4 4a3e e3c6 593d dbf6 63bd
00000090: 2434 5e3e d59a bf3b 4c5a d53d 0c91 393e
000000a0: ef36 0ebe 4964 b13d 9b6c 03be 3fa0 48be
000000b0: a803 973e 9c82 563e 79ac 1e3e 8fc2 8dbd
000000c0: 72c7 44be 5df3 633c

decoder.4.weight f4 [50, 50]
0.04419441 -0.13213149 -0.079781 -0.05647194 0.018026242 -0.052877963 -0.09848053 -0.034982845
-0.062592335 0.024299143 0.0679624 0.00804113 -0.1047729 -0.10415836 0.12422375 -0.06333407
0.011286488 -0.07876579 0.008690732 -0.020910924 -0.10161469 -0.08451959 -0.102588534 0.09381682
-0.08579394 0.13442805 -0.1375991 -0.06048311 -0.11861154 -0.11067308 0.1254515 0.10089106
0.03968686 -0.0023897095 -0.13076289 -0.11167712 0.028837955 -0.056455284 -0.13649498 0.037445758
0.02284759 -0.08548308 0.01780406 -0.07527175 -0.08135494 0.12933283 0.12018523 -0.0081764385
-0.07728257 -0.08967791 -0.120804176 -0.052029997 0.119565316 0.08581085 0.008298327 0.07898596
0.029835064 0.088520415 0.05415554 0.0009759807 0.14055167 0.05874868 0.13418871 0.1581676
-0.059775073 -0.09779155 0.20866962 0.056131754 0.028391952 0.017793288 -0.07136261 0.09777396
-0.0076799653 0.09081027 0.01373473 0.13579194 0.08702045 -0.09485291 0.13557439 0.028273929
-0.13331355 -0.039845403 -0.006157284 0.14966398 0.13100734 -0.007288837 0.058374856 0.13699926
-0.132695 0.057371534 -0.11751006 -0.047487397 -0.059903268 0.121934175 0.13228065 -0.03411185
0.061824873 0.03441728 -0.1147349 0.092956156 0.073491834 -0.122216195 -0.05396367 -0.043025736
0.11407934 0.075742684 -0.1138862 -0.07411382 0.021016166 -0.034689154 -0.109949656 0.047136195
-0.11804743 -0.03499646 0.08577465 -0.11346394 -0.01728445 -0.012647331 0.011928002 -0.060385156
0.06382019 -0.051858563 -0.102973625 -0.095846675 -0.020174894 -0.042128906 0.035572987 -0.03250206
-0.08221661 -0.09504762 0.028695868 -0.12672296 -0.021097336 0.07972061 -0.107837245 0.023190228
0.064395875 0.12764299 -0.1205211 -0.010296258 0.053613003 0.021795731 0.09994608 0.027608631
0.064404406 -0.029458208 0.13706705 -0.12845072 -0.031675734 0.14177878 -0.05335605 -0.120595515
0.027733898 0.15787126 -0.04329989 -0.039958186 0.097702146 -0.0004173303 0.02816314 -0.03768885
0.034584913 -0.091036744 -0.03924586 0.18922545 -0.14036639 -0.0750061 0.098102346 0.114049576
0.0076119364 0.10928023 0.15925542 0.12776269 -0.052856468 0.07173668 -0.033096354 -0.04787028
-0.053845618 0.10476443 0.043998316 0.06726634 -0.12074968 0.109512694 -0.092593655 0.11601795
0.05049089 -0.06257162 0.11868526 -0.004231999 0.007338448 0.026485423 0.09363455 0.17439604
0.03711691 0.10548557 0.15374449 0.13843004 0.14723143 -0.018460914 0.025832867 0.12179149
0.053123817 -0.0027149578 0.05997528 0.018844865 0.040517442 0.06476224 0.035214704 0.060689438
0.08849043 0.13587984 -0.0010169939 0.1258625 0.017983846 0.26047662 0.07084748 0.036588162
0.1427893 -0.018233573 0.12712014 0.0345751 0.050605867 0.036878224 -0.0024114067 -0.06865119
-0.078008324 0.07405068 0.06239812 -0.033160392 -0.056472003 -0.1380577 0.12358512 -0.040341083
-0.0072603114 0.20314567 -0.022831112 0.11491957 0.13228722 -0.12609512 0.09462966 0.1435529
0.0069303922 0.045717068 0.10101612 0.0833617 0.082003616 0.101141214 0.05233182 0.12416264
0.08827499 -0.13010685 -0.025292257 -0.023558943 0.092697546 0.022913523 0.11331523 0.005825234
00000000: 3305 353d 7a4d 07be 3964 a3bd 1f4f 67bd
00000010: c5ab 933c 9096 58bd 29b0 c9bd 2c4a 0fbd
00000020: 6930 80bd ff0e c73c df2f 8b3d f2be 033c
00000030: 2d93 d6bd fa50 d5bd 0569 fe3d 4bb5 81bd
00000040: f6ea 383c f54f a1bd 9263 0e3c 634d abbc
00000050: 5d1b d0bd 9b18 adbd f019 d2bd 0823 c03d
00000060: bcb4 afbd 82a7 093e c7e6 0cbe 23bd 77bd
00000070: 9bea f2bd 91a8 e2bd 5c76 003e f99f ce3d
00000080: b08e 223d ac9c 1cbb b5e6 05be f9b6 e4bd
00000090: 933d ec3c a83d 67bd 57c5 0bbe b960 193d
000000a0: de2a bb3c c111 afbd d2d9 913c 1328 9abd
000000b0: 6b9d a6bd d36f 043e ad23 f63d 78f6 05bc
000000c0: 5346 9ebd 0da9 b7bd 2e68 f7bd 681d 55bd
000000d0: a9de f43d 99bd af3d b5f5 073c 64c3 a13d
000000e0: aa68 f43c 314a b53d 33d2 5d3d f5d8 7f3a
000000f0: c7ec 0f3e 75a2 703d c468 093e b0f6 213e
00000100: b5d6 74bd f046 c8bd 7dad 553e 69ea 653d
00000110: 3d96 e83c 3bc3 913c 8f26 92bd b73d c83d
00000120: 38a8 fbbb bcfa b93d a207 613c 0b0d 0b3e
00000130: c737 b23d 3e42 c2bd 03d4 0a3e ba9e e73c
00000140: 5983 08be ef34 23bd 0bc3 c9bb 8441 193e
00000150: ca26 063e 32d7 eebb 791a 6f3d 8949 0c3e
00000160: 33e1 07be 6afe 6a3d 1da9 f0bd 2582 42bd
00000170: 215d 75bd a0b8 f93d 9474 073e deb8 0bbd
00000180: 143c 7d3d 22f9 0c3d 22fa eabd cc5f be3d
00000190: e382 963d 7c4c fabd 0209 5dbd c13b 30bd
000001a0: 6ea2 e93d fb1e 9b3d 2b3d e9bd fdc8 97bd
000001b0: 182a ac3c 3716 0ebd 492d e1bd e211 413d
000001c0: dac2 f1bd 7358 0fbd 9faa af3d c85f e8bd
000001d0: 1e98 8dbc c036 4fbc ab6d 433c 6d56 77bd
000001e0: 29b4 823d a569 54bd d6e3 d2bd 434b c4bd
000001f0: d245 a5bc 5c8f 2cbd fbb4 113d e120 05bd
00000200: 2f61 a8bd 54a8 c2bd 9913 eb3c aac3 01be
00000210: 52d4 acbc 8f44 a33d c6d9 dcbd 6ff9 bd3c
00000220: fce1 833d d8b4 023e c4d3 f6bd a3b1 28bc
00000230: 4f99 5b3d f68c b23c 88b0 cc3d 7f2b e23c
00000240: 75e6 833d 5752 f1bc 4e5b 0c3e 9688 03be
00000250: 6abe 01bd 752e 113e e08b 5abd c8fa f6bd
00000260: 3332 e33c 01a9 213e 3a5b 31bd 32ab 23bd
00000270: 1018 c83d 20cd dab9 63b6 e63c a05f 1abd
00000280: e9a8 0d3d 7971 babd 44c0 20bd 51c4 413e
00000290: 35bc 0fbe cc9c 99bd e2e9 c83d d392 e93d
000002a0: 8d6d f93b 50ce df3d da13 233e 39d4 023e
000002b0: 0680 58bd aeea 923d 0b90 07bd a013 44bd
000002c0: 398d 5cbd bc8e d63d 9437 343d efc2 893d
000002d0: 9c4b f7bd 3148 e03d bea1 bdbd d29a ed3d
000002e0: 89cf 4e3d 8d25 80bd 4211 f33d 95ac 8abb
000002f0: 5d77 f03b f5f7 d83c 79c3 bf3d e094 323e
00000300: e707 183d d208 d83d 326f 1d3e 9bc0 0d3e
00000310: d6c3 163e 583b 97bc 739f d33c d16d f93d
00000320: 5c98 593d 6fed 31bb a4a8 753d 8c60 9a3c
00000330: 9ef5 253d 11a2 843d 4b3d 103d 7d95 783d
00000340: 783a b53d 1624 0b3e a74c 85ba 19e2 003e
00000350: dc52 933c 315d 853e 7c18 913d 78dd 153d
00000360: 5c37 123e 935e 95bc c82b 023e 9f9e 0d3d
00000370: 1948 4f3d 9f0d 173d b108 1ebb ff98 8cbd
00000380: d4c2 9fbd e2a7 973d 2c95 7f3d 31d3 07bd
00000390: 304f 67bd ff5e 0dbe 321a fd3d b13c 25bd
000003a0: e8e7 edbb 6b05 503e 5008 bbbc f45a eb3d
000003b0: 4d76 073e 141f 01be 32cd c13d 88ff 123e
000003c0: 5818 e33b d241 3b3d 8ae1 ce3d 8ab9 aa3d
000003d0: 83f1 a73d 2023 cf3d e459 563d fb48 fe3d
000003e0: 85c9 b43d bb3a 05be b531 cfbc affe c0bc
000003f0: 36d8 bd3d 24b5 bb3c d111 e83d 9be1 be3b

decoder.4.bias f4 [50]
-0.12518658 0.16303223 0.1520432 0.112850845 0.2350383 -0.12137268 -0.046926863 0.061526906
0.042515762 0.074241124 -0.10407494 -0.1083069 -0.12645869 0.21707511 0.028204894 -0.1366134
-0.09025752 -0.005715804 0.10698727 -0.10379958 -0.10027162 0.16732393 0.08537625 -0.026935562
0.12476139 -0.07261723 -0.11972292 -0.062233586 0.01196944 0.18475656 0.024305638 0.106463365
-0.030355275 -0.014248096 0.10359685 0.07970879 0.10058127 0.16869836 0.0593166 -0.0035865284
-0.031555213 -0.07379904 0.1120541 0.06646324 -0.1303758 -0.06520725 0.056532778 -0.0034370092
0.15567073 -0.0068908245
00000000: e930 00be ecf1 263e 36b1 1b3e 581e e73d
00000010: e1ad 703e 3d92 f8bd 6236 40bd a303 7c3d
00000020: 0225 2e3d bb0b 983d 3e25 d5bd 02d0 ddbd
00000030: 637e 01be f048 5e3e f30d e73c 62e4 0bbe
00000040: efd8 b8bd a44b bbbb 241c db3d e094 d4bd
00000050: 355b cdbd f756 2b3e bed9 ae3d f8a7 dcbc
00000060: e682 ff3d 58b8 94bd 4a31 f5bd a5e8 7ebd
00000070: 781b 443c d330 3d3e 9e1c c73c 7709 da3d
00000080: a0ab f8bc d970 69bc 962a d43d 5d3e a33d
00000090: 8efd cd3d 43bf 2c3e f7f5 723d f60b 6bbb
000000a0: 0a40 01bd f323 97bd 9f7c e53d e11d 883d
000000b0: 3c81 05be 618b 85bd ea8e 673d 723f 61bb
000000c0: 2668 1f3e 6dcc e1bb

decoder.6.weight f4 [6, 50]
0.074402526 -0.117061265 0.08616859 -0.068380184 0.08508697 0.093125656 0.05903363 0.1185815
-0.012230644 -0.11924534 -0.078026496 -0.080137685 -0.1377198 0.024415283 0.12105168 0.010495446
-0.07630537 0.03584128 0.021648088 -0.08814951 -0.08514824 -0.108551756 0.09442403 -0.122891806
0.041401036 -0.11902272 0.099114604 -0.100637965 0.015565467 0.07270179 0.107936405 -0.11533671
0.059365053 0.08747327 -0.10233367 0.0039429506 0.07857168 0.02373725 0.045929328 0.12966874
0.10983931 -0.06553854 0.00025398046 0.0766926 -0.091999896 0.096993424 0.038185604 -0.025945991
-0.08062623 0.00088982115 -0.045858555 -0.100611724 0.0130760595 -0.08812765 -0.15886053 -0.03416159
0.04808808 -0.010384746 0.080368936 0.12387551 -0.07760043 -0.032965884 -0.065219805 -0.06687198
-0.014797901 0.062437452 -0.10058733 0.0293554 0.077283315 0.11138592 0.0072522424 -0.07337311
-0.08326585 0.068521105 -0.07630166 0.074379645 0.08226057 -0.10441825 0.10372892 -0.07787035
-0.034488693 0.095461786 0.09055782 0.09128311 0.09463398 -0.0128367385 -0.04643266 -0.13719654
-0.116159685 -0.060915954 0.09430717 0.09249949 -0.09951709 0.12088966 0.12027224 -0.07328285
0.08667947 -0.11914275 0.005984509 -0.053194348 0.055445295 0.0508384 0.14099386 -0.01385599
-0.116644375 -0.012739004 0.04818214 0.033535454 -0.115558565 -0.0113979755 -0.10180306 0.040431254
-0.108477734 -0.040268455 0.042268634 -0.13421144 -0.00056416634 -0.12436935 -0.09281304 -0.08458065
-0.046822134 0.0772731 -0.059161164 -0.11393634 -0.088505514 0.012185868 -0.08358267 0.02025603
0.05243218 0.08972817 -0.05472972 -0.0719762 -0.1270084 0.072746255 -0.06276159 0.14251336
0.10345379 -0.0040730317 -0.13983975 -0.04558934 -0.051872455 -0.06269416 0.093764074 0.061419573
0.02989579 -0.10677069 0.066934004 0.02204262 0.11365909 -0.11798411 0.06354794 -0.03199925
0.06636211 -0.29281747 -0.30226386 -0.02150265 -0.2817578 0.0609673 -0.17597423 -0.10790337
0.040577266 0.1225947 0.09058732 -0.26414865 -0.15683892 0.119267404 -0.14526553 -0.11124779
-0.17075327 -0.03259649 -0.071122 -0.08620377 0.03191403 -0.10566733 -0.06581417 0.012228437
0.06721676 -0.023945818 -0.03011106 -0.034797974 -0.101989985 -0.06924088 0.015714167 -0.10877271
-0.08349023 -0.11437699 -0.1460426 -0.3175518 -0.0469408 -0.12891492 0.12595719 0.10606528
-0.009189852 0.12994625 0.034181483 0.11755591 0.055123765 0.13006361 -0.24987842 -0.067869306
0.076319486 -0.11302073 0.10271205 0.034115672 -0.0024716374 -0.09324217 -0.2766436 -0.053100042
0.016561363 0.0036064892 -0.09332685 0.10689382 0.07109019 0.012585249 -0.29612815 0.13321781
-0.11097637 0.06680362 -0.19553794 0.06831347 -0.039569825 -0.07252519 0.1356342 0.071877524
0.12098071 0.09051801 0.023412019 0.105583474 0.12929404 -0.00683817 -0.071606696 -0.2573947
0.13169837 0.10700485 -0.14221783 0.08695917 -0.17485248 -0.17313637 0.055509374 -0.017331054
-0.13182397 0.13060077 0.024636328 -0.11832037 -0.051854063 -0.08674174 -0.16642827 -0.027998408
-0.23494704 -0.05057391 0.118497945 -0.27705368 -0.13862085 -0.14864276 -0.26244202 0.034898266
00000000: 5a60 983d d1bd efbd 2879 b03d e90a 8cbd
00000010: 1442 ae3d aab8 be3d 3fcd 713d dcda f23d
00000020: 0a63 48bc e736 f4bd 5bcc 9fbd 3a1f a4bd
00000030: 6b06 0dbe 8f02 c83c f1e9 f73d 17f5 2b3c
00000040: fd45 9cbd 4ece 123d 5557 b13c bb87 b4bd
00000050: 3362 aebd 6250 debd 6361 c13d b3ae fbbd
00000060: 2294 293d 2fc2 f3bd 99fc ca3d 471b cebd
00000070: 4d06 7f3c ade4 943d c30d dd3d a735 ecbd
00000080: c528 733d 3025 b33d 5194 d1bd de33 813b
00000090: 30ea a03d 9f74 c23c 6420 3c3d e2c7 043e
000000a0: 6ff3 e03d 1239 86bd ae28 8539 0311 9d3d
000000b0: 716a bcbd 7da4 c63d 8268 1c3d b08c d4bc
000000c0: 5d1f a5bd e342 693a 2ed6 3bbd 850d cebd
000000d0: f83c 563c 457c b4bd 56ac 22be 06ed 0bbd
000000e0: 02f8 443d c824 2abc 7898 a43d 72b2 fd3d
000000f0: f9ec 9ebd 3c07 07bd f691 85bd 2df4 88bd
00000100: e572 72bc 6abe 7f3d bb00 cebd bc7a f03c
00000110: b746 9e3d 4d1e e43d 38a4 ed3b a444 96bd
00000120: 4987 aabd cb54 8c3d 0b44 9cbd 5b54 983d
00000130: 3b78 a83d 3cd9 d5bd d46f d43d 7d7a 9fbd
00000140: 0444 0dbd 7881 c33d 6176 b93d a4f2 ba3d
00000150: 76cf c13d 2f51 52bc 2c30 3ebd 407d 0cbe
00000160: 21e5 edbd 0283 79bd 1e24 c13d 5f70 bd3d
00000170: 9ecf cbbd 0095 f73d 4b51 f63d 5215 96bd
00000180: 0285 b13d 1d01 f4bd b319 c43b 51e2 59bd
00000190: 9b1a 633d ed3b 503d b260 103e 3c04 63bc
000001a0: 3fe3 eebd 41b7 50bc a35a 453d 795c 093d
000001b0: f8a9 ecbd 93be 3abc 1f7e d0bd 3e9b 253d
000001c0: 9329 debd 89f0 24bd e021 2d3d b96e 09be
000001d0: 90e4 13ba 5cb5 febd c314 bebd 9f38 adbd
000001e0: 91c8 3fbd 5c41 9e3d fa52 72bd 7557 e9bd
000001f0: 6142 b5bd 3ca7 473c 642d abbd f9ef a53c
00000200: 20c3 563d 67c3 b73d 452c 60bd 4268 93bd
00000210: 7d0e 02be fdfb 943d 2689 80bd 06ef 113e
00000220: 95df d33d 1177 85bb 2732 0fbe e3bb 3abd
00000230: 3678 54bd cc65 80bd 6107 c03d 1793 7b3d
00000240: 04e8 f43c 97aa dabd b214 893d ba92 b43c
00000250: 19c6 e83d a7a1 f1bd 6c25 823d a511 03bd
00000260: dce8 873d 2cec 95be 54c2 9abe 5326 b0bc
00000270: 8f42 90be d9b8 793d 9732 34be 71fc dcbd
00000280: 5934 263d ee12 fb3d d885 b93d 7e3e 87be
00000290: 629a 20be 7842 f43d 7dc0 14be e2d5 e3bd
000002a0: f2d9 2ebe e683 05bd 69a8 91bd 9a8b b0bd
000002b0: 49b8 023d 1d68 d8bd 94c9 86bd c859 483c
000002c0: f1a8 893d 052a c4bc 78ab f6bc 5288 0ebd
000002d0: 20e0 d0bd 2ace 8dbd ffba 803c 3ac4 debd
000002e0: edfc aabd 7c3e eabd 318c 15be 2696 a2be
000002f0: ff44 40bd 4602 04be ecfa 003e c138 d93d
00000300: 0891 16bc a110 053e e201 0c3d 27c1 f03d
00000310: 75c9 613d 652f 053e 21e0 7fbe 10ff 8abd
00000320: 644d 9c3d 6a77 e7bd b25a d23d e0bc 0b3d
00000330: 32fb 21bb c0f5 bebd 3ba4 8dbe 6e7f 59bd
00000340: b2ab 873c d95a 6c3b 2622 bfbd 26eb da3d
00000350: bc97 913d 5c32 4e3c 1c9e 97be 406a 083e
00000360: 9447 e3bd 56d0 883d 193b 48be efe7 8b3d
00000370: f813 22bd 1688 94bd b1e3 0a3e 8634 933d
00000380: bcc4 f73d 8261 b93d 90ca bf3c 263c d83d
00000390: a865 043e ba12 e0bb 88a6 92bd 3dc9 83be
000003a0: f0db 063e 5c25 db3d 8da1 11be a617 b23d
000003b0: 870c 33be a94a 31be cc5d 633d dbf9 8dbc
000003c0: ddfc 06be 35bc 053e 20d2 c93c f351 f2bd
000003d0: ed64 54bd a7a5 b1bd 2c6c 2abe eb5c e5bc
000003e0: f595 70be 9726 4fbd 0daf f23d fbd9 8dbe
000003f0: a0f2 0dbe cf35 18be cd5e 86be 7cf1 0e3d

decoder.6.bias f4 [6]
-0.08965086 -0.103244975 -0.073373 0.04934715 0.18697007 -0.09828471
00000000: df9a b7bd 1a72 d3bd 9544 96bd 3d20 4a3d
00000010: 1575 3f3e 7e49 c9bd

cluster_layer.weight f4 [4, 4]
-0.07724347 -0.14638063 -0.09634317 0.05765549 -0.13223295 -0.060406126 0.03412765 0.13304456
0.003277295 0.12701021 0.091988824 -0.12407949 -0.073237516 -0.11372936 -0.06857879 0.13037966
00000000: d331 9ebd cee4 15be 914f c5bd 2a28 6c3d
00000010: 1368 07be 6a6c 77bd 6fc9 0b3d d53c 083e
00000020: e3c7 563b f70e 023e a364 bc3d 631d febd
00000030: 8dfd 95bd f0ea e8bd 0973 8cbd 3f82 053e
