model/checkpoint_350.tar (torch, 110796 bytes, 51 tensors)

encoder.1.weight f4 [50, 6]
0	0xbee9ff73	-0.45702705
1	0xbbd50f71	-0.006502085
2	0xbaf5435b	-0.001871209
3	0x3e8fad7d	0.2806205
4	0xbe8a77fe	-0.27044672
5	0x3d74cdc9	0.059766565
6	0xbaa58116	-0.0012626972
7	0xbb2c569b	-0.0026296738
8	0xba930bf7	-0.0011218776
9	0x3ff313ee	1.8990457
10	0x3afbbcf4	0.0019206093
11	0xbea0a716	-0.31377476
12	0xbe49e003	-0.1971436
13	0xbe514a63	-0.20438533
14	0x3c6a8b39	0.01431542
15	0xbd930c49	-0.071800776
16	0x3ea109c4	0.31452763
17	0xbebfa0dc	-0.37427413
18	0x3e8411ba	0.25794774
19	0x3c223787	0.009900934
20	0x3ac94fcc	0.0015358864
21	0xbe011155	-0.12604268
22	0xbd4510ac	-0.048111603
23	0x3f5298f3	0.8226463
24	0xbd9b2f7a	-0.07577415
25	0xbd90bf66	-0.07067756
26	0xbb5d16b2	-0.0033735451
27	0x3f30eef8	0.6911464
28	0x3e7e315e	0.2482352
29	0xbef02186	-0.46900576
30	0x3f36914e	0.7131547
31	0x3b8f1ce0	0.004367456
32	0x3bfa77c3	0.0076436712
33	0x3e5e8b4c	0.21732825
34	0xbbc312be	-0.005953162
35	0x3eed3bfc	0.46334827
36	0xbda42b67	-0.08016091
37	0xbe66dad3	-0.22544412
38	0xbddaae47	-0.10677772
39	0xbe7be28c	-0.2459814
40	0x3e61d9d4	0.22055751
41	0xbe51793c	-0.20456403
42	0xbeefcdaa	-0.46836597
43	0x3e1f908c	0.15582484
44	0x3e560553	0.20900469
45	0xbca717af	-0.020397035
46	0xbde22e98	-0.11044043
47	0xbd3503e6	-0.04419317
48	0x3ef1242d	0.47097912
49	0xbbad69ca	-0.005292152
50	0xb98f3bce	-0.00027319643
51	0x3f6e721c	0.9314287
52	0x3f07f169	0.5310274
53	0xba9ae877	-0.0011818548
54	0xbea52900	-0.32257843
55	0x3c366353	0.011132079
56	0xbe427bb8	-0.18992507
57	0xbaac8d76	-0.0013164717
58	0x3e4c7851	0.19967772
59	0x3e38d53e	0.18050095
60	0xbe4c8047	-0.19970809
61	0xbc1d0184	-0.009582881
62	0xbb0bafe4	-0.0021314556
63	0xbf65735c	-0.8962915
64	0xbe525132	-0.20538786
65	0x3dbc8d75	0.09206668
66	0xbe6e8a82	-0.23295024
67	0xbe36933d	-0.17829604
68	0x3e0c6993	0.13712148
69	0x3e7098f2	0.23495844
70	0x3bbb7119	0.0057202694
71	0xbe229d14	-0.15880233
72	0x3cf596dc	0.029979162
73	0xbdd99e57	-0.10625904
74	0xbd34c2c0	-0.04413104
75	0x3f6611c5	0.89870864
76	0xbd776063	-0.060394656
77	0x3e90e862	0.28302294
78	0xbe81174f	-0.25213096
79	0x3c2432e6	0.010021901
80	0x3a496132	0.0007682025
81	0xbf37f24f	-0.7185411
82	0xbe53f37e	-0.20698354
83	0x3ddce2d1	0.10785449
84	0xbf8819c8	-1.0632868
85	0xbae7dc44	-0.0017689546
86	0x3bc0a8e0	0.0058795065
87	0x3ee8c93e	0.45466036
88	0xbe9ef38c	-0.31045187
89	0x3f661a23	0.8988363
90	0xbf0ed7a1	-0.55797774
91	0x3c0df53c	0.008664425
92	0xbb78152e	-0.003785442
93	0xbe3ce331	-0.18446042
94	0xbec86a7e	-0.39143747
95	0xbe2b0e05	-0.16704567
96	0xbe842b32	-0.25814205
97	0x3e8aa09d	0.27075663
98	0x3e1e5c71	0.15464951
99	0x3ea6612b	0.32496008
100	0xbe9b8d49	-0.3038123
101	0xbecb880a	-0.39752227
102	0xbf4c9656	-0.79916894
103	0xbbf0c8e6	-0.0073481677
104	0xbbb6863c	-0.005570201
105	0xbf284076	-0.6572336
106	0x3f1027e1	0.5631085
107	0x3f02dc73	0.5111763
108	0x3a4c8247	0.0007801395
109	0xbba4f01b	-0.0050335056
110	0xbbc29d32	-0.0059391493
111	0x3fe7cd63	1.8109554
112	0x3cc1cbfd	0.02365684
113	0xbea29dbe	-0.31760973
114	0x3daf84db	0.08570262
115	0xbe9d1051	-0.3067651
116	0xbe5fad92	-0.21843556
117	0xbe447a9a	-0.19187394
118	0xbe6c8c84	-0.23100477
119	0x3d944263	0.07239225
120	0xbdf68d46	-0.120386645
121	0x3ab1d45b	0.0013567315
122	0x3b623672	0.0034517315
123	0xbf18e5d3	-0.59725684
124	0x3f30bfba	0.6904255
125	0x3d184c15	0.037181932
126	0xbeb53fea	-0.35400325
127	0xbe87a818	-0.26495433
128	0x3e137020	0.14398241
129	0x3e220fe7	0.15826379
130	0xbe814011	-0.2524419
131	0xbe02f967	-0.12790452
132	0xbfc495d0	-1.5358219
133	0xbb7ba1e0	-0.0038396046
134	0xb9fdba48	-0.0004839471
135	0xbe44f0ff	-0.19232558
136	0xbea40b23	-0.32039747
137	0x3e60baa9	0.21946205
138	0x3ea73c0b	0.32662997
139	0xbdaea834	-0.08528176
140	0xbd8858b2	-0.06657542
141	0x3e1696b6	0.14705929
142	0x3d727d3e	0.05920147
143	0xbe09acf3	-0.13444881
144	0xbec2350d	-0.379311
145	0xbe807e74	-0.25096476
146	0x3d10c2de	0.03534209
147	0x3bed3df9	0.0072400537
148	0x3ed04f4f	0.40685508
149	0xbd216023	-0.039398324
150	0xbdc5a3bf	-0.09650373
151	0xbec95056	-0.39319104
152	0xbebf421d	-0.37355128
153	0x3e398a21	0.18119098
154	0x3eb17632	0.34660488
155	0xbab81401	-0.0014044048
156	0xbfbd15ba	-1.4772255
157	0xbb0d5708	-0.0021566767
158	0xbb90b790	-0.0044164136
159	0xbefb18f3	-0.49042472
160	0xbdf2b21c	-0.11850378
161	0x3d8cc428	0.06873351
162	0xbf9debc5	-1.2337576
163	0xbbf7d39b	-0.007563067
164	0x3ad21933	0.0016029238
165	0xbedd7f7d	-0.43261328
166	0xbe025733	-0.12728576
167	0xbe855da7	-0.26048014
168	0x3f297d4c	0.6620681
169	0xba9b8ccd	-0.0011867523
170	0xba9b48d2	-0.0011847264
171	0xbf5b4b89	-0.8566213
172	0x3f32f915	0.6991132
173	0x3d02284f	0.031776723
174	0xbe67dceb	-0.22642867
175	0xbcd98492	-0.026552472
176	0xbe940002	-0.28906256
177	0xbc9a239d	-0.01881581
178	0x3e69897b	0.22806351
179	0xbe3beebf	-0.18352793
180	0x3f24402d	0.64160424
181	0xbaa407e6	-0.0012514561
182	0x3ae82ab4	0.0017712922
183	0x3ef36bf1	0.4754329
184	0xbe94c1e6	-0.29054183
185	0xbe993d66	-0.29929656
186	0xbc359ff6	-0.011085501
187	0xbce717b5	-0.028209547
188	0xbc6c72ea	-0.0144316945
189	0x3e47377b	0.19454758
190	0x3e5941c3	0.21216492
191	0x3f8bdedb	1.0927385
192	0x3ea30297	0.31837913
193	0xbecc3ac4	-0.39888585
194	0x3d3e81c4	0.046510473
195	0xbca5eede	-0.020255502
196	0x3deb69cf	0.11494791
197	0xbdcd3648	-0.10020119
198	0x3e0c6d09	0.13713469
199	0xbead0bfb	-0.33798203
200	0x3e6313b1	0.2217548
201	0x3ef90818	0.48638988
202	0xbcdb38df	-0.026760517
203	0xbe9deb0e	-0.30843395
204	0xbecf97b3	-0.40545425
205	0x3b18108b	0.002320322
206	0xbb9a1683	-0.0047023906
207	0x3d8a34ed	0.06748376
208	0xbcc2a507	-0.023760332
209	0x3f3ac80a	0.72961485
210	0x3a4b7933	0.00077618955
211	0xbb50ae0f	-0.0031842028
212	0xbb63df5c	-0.0034770584
213	0x3f948c67	1.1605347
214	0x3ee0d3be	0.43911546
215	0xbba83208	-0.0051329173
216	0x3e664c43	0.22490029
217	0x3e07415e	0.1320853
218	0x3d27ccd5	0.040966827
219	0xbdf27028	-0.11837798
220	0x3d7c7a59	0.061640117
221	0x3cf02a98	0.029317185
222	0xbe849968	-0.2589829
223	0x3bf599ea	0.0074951546
224	0xbaf2aa57	-0.00185139
225	0xbf1480b1	-0.5800887
226	0x3d790fe5	0.060806174
227	0x3ebeb464	0.37247002
228	0xbd0bb55e	-0.034108512
229	0xbd2f4dee	-0.04279893
230	0xbb868a84	-0.004105868
231	0xbd7b00f7	-0.061280217
232	0x3e50fe53	0.20409517
233	0x3f987948	1.1912012
234	0x3f6cd647	0.9251446
235	0xbbabe4a3	-0.0052457615
236	0xba077eaa	-0.0005168716
237	0xbe4904f5	-0.19630797
238	0xbe2d79de	-0.1694102
239	0xbecf6ff5	-0.40515104
240	0xbfc1795d	-1.5115162
241	0xbb127995	-0.00223503
242	0xbb8d4c92	-0.0043121064
243	0xbf2a6ab1	-0.6656905
244	0xbe92a9dc	-0.28645217
245	0x3e83440e	0.2563786
246	0x38b7a804	8.757415e-05
247	0xba51a557	-0.0007997355
248	0xbb1038e2	-0.002200656
249	0x3feded12	1.8587973
250	0xbea05817	-0.31317207
251	0xbdf55272	-0.11978616
252	0xbee27ce1	-0.442359
253	0xb90c2625	-0.0001336565
254	0xbbadd13c	-0.0053044837
255	0x3e83e7dc	0.25762832

encoder.1.bias f4 [50]
0	0x3e67ea28	0.22647917
1	0xba88e446	-0.0010444007
2	0xbc8e0cc2	-0.017340068
3	0xbe086dce	-0.13323137
4	0xbdcb4472	-0.09925164
5	0xbefc0c4d	-0.49228135
6	0xbdf430cf	-0.11923372
7	0xbe3b9c17	-0.18321262
8	0xbe64fd82	-0.2236233
9	0xbeaa1fe4	-0.33227456
10	0x3dac703a	0.08419843
11	0xbec95059	-0.39319113
12	0xbf17aae8	-0.5924516
13	0x3dddebd2	0.10835995
14	0x3ca36468	0.019945338
15	0x3e82a330	0.25515127
16	0xbebae445	-0.3650228
17	0x3cb32208	0.021866813
18	0xbaf3fb3e	-0.0018614305
19	0xbe891f76	-0.26781815
20	0x3d815105	0.063142814
21	0xbe12fc70	-0.1435411
22	0x3ccecabe	0.02524316
23	0xbebd0387	-0.36916754
24	0xbe1d3aab	-0.15354411
25	0xbe8bde50	-0.27318048
26	0x3cefb406	0.029260647
27	0x3cf7e162	0.030258838
28	0xbea22b6a	-0.31673747
29	0xbe76ed4e	-0.24113962
30	0xbeb046d3	-0.34429035
31	0xbe631529	-0.2217604
32	0xbed39827	-0.4132702
33	0xbea1b92b	-0.31586584
34	0x3c8e0931	0.017338367
35	0xba5c0e61	-0.00083944766
36	0xbeb2e41d	-0.34939662
37	0x3e02f88b	0.12790124
38	0xbe6930eb	-0.22772567
39	0xbf073c91	-0.5282679
40	0x3ce49469	0.027902799
41	0xba7a6fe3	-0.00095534156
42	0x3c8bd204	0.017067917
43	0xbe5079f5	-0.20359023
44	0xbef112a9	-0.4708455
45	0x3c3cb849	0.011518546
46	0xbb3decd9	-0.0028980284
47	0x3d1e2dd3	0.03861792
48	0xbe89fd94	-0.26951277
49	0xba06c490	-0.00051409844

encoder.4.weight f4 [50, 50]
0	0x3d84ffb9	0.06494088
1	0xbeaaf71e	-0.3339166
2	0xbd76f844	-0.06029536
3	0xbd79bc35	-0.060970504
4	0xbe493f5f	-0.1965308
5	0x3e04a402	0.12953189
6	0xbc908e16	-0.017645877
7	0x3d8e34c9	0.06943662
8	0x3d21fcb5	0.03954764
9	0x3db59cff	0.08867835
10	0x3e3da709	0.1852075
11	0x3bae263c	0.0053146165
12	0xbdc41615	-0.09574524
13	0x3cfe9609	0.031077402
14	0x3e205e87	0.1566106
15	0x3d10184b	0.035179418
16	0xbe0ce403	-0.13758855
17	0xbb6a3046	-0.003573434
18	0xbea96c63	-0.33090505
19	0xbdca92af	-0.09891259
20	0xbdb2b558	-0.08725995
21	0x3d068984	0.03284599
22	0x3e2f5b49	0.17124666
23	0xbcd0ae0c	-0.025473617
24	0x3d96fbba	0.07372232
25	0xbd0dfc0d	-0.034664202
26	0x3d4c91c0	0.049943686
27	0x3e5e6412	0.21717861
28	0x3d718173	0.058961343
29	0x3dce661a	0.10078068
30	0x3e15bb23	0.14622168
31	0xbcd9f45f	-0.026605783
32	0x3d1a09e3	0.037607085
33	0x3d8f90fb	0.07010075
34	0x3d7d8f2c	0.061904117
35	0xbe62d713	-0.22152357
36	0xba050375	-0.00050740625
37	0xbca5c727	-0.020236565
38	0x3dac1b47	0.0840364
39	0x3e3296b8	0.17440307
40	0x3e2c235f	0.16810368
41	0xbe9d318b	-0.3070186
42	0x3c6b39a3	0.014357003
43	0xbd90fee8	-0.070798695
44	0x3ea5caf2	0.32381397
45	0xbc810095	-0.015747348
46	0xbe6d5618	-0.23177373
47	0xbc471196	-0.012150189
48	0x3d23fe1a	0.040037252
49	0xbd935e52	-0.071957245
50	0x3def698f	0.116900556
51	0x3c7e5394	0.015522856
52	0x3d9fbfed	0.07800279
53	0xbdbf290f	-0.09334003
54	0x3bed77e0	0.007246956
55	0x3e5dd543	0.21663384
56	0xbd92df70	-0.071715236
57	0x3ca7acf0	0.020468205
58	0x3c8ff234	0.017571546
59	0x3d99179c	0.07475206
60	0x3d4c8ca2	0.049938805
61	0xbdd998ba	-0.106248334
62	0xbde722d1	-0.112859376
63	0x3e079761	0.1324134
64	0x3c1f8f25	0.009738718
65	0xbda27b29	-0.07933647
66	0xbe03e8b4	-0.12881738
67	0xbcddf53f	-0.027094482
68	0x3baff57b	0.0053698397
69	0x3c85eda1	0.016348662
70	0xbc460035	-0.01208501
71	0xbd02295c	-0.031777725
72	0x3e05f3af	0.13081239
73	0x3d529262	0.051409133
74	0x3d65bbba	0.056087233
75	0xbd9c4a82	-0.07631399
76	0x3e837f12	0.25682884
77	0x3e77b8e4	0.24191624
78	0xbd215fb0	-0.039397895
79	0x3e063ae8	0.13108408
80	0xbe108988	-0.14114964
81	0xbdf2af44	-0.118498355
82	0x3cddb695	0.027064601
83	0x3d1f036f	0.038821634
84	0x3e19b557	0.15010582
85	0xbd0639d7	-0.032770004
86	0x3dc31147	0.0952478
87	0x3cc17812	0.023616824
88	0xbdfa9efb	-0.12237354
89	0x3e42ea4d	0.19034691
90	0x3e363ce4	0.17796665
91	0xbd085791	-0.033286635
92	0xbdb56ffb	-0.08859249
93	0xbdbc1f5e	-0.0918567
94	0x3ddb7f3b	0.10717627
95	0x3e0abbc3	0.13548188
96	0xbdc29418	-0.09500903
97	0xbdc8f322	-0.09811999
98	0xbd6d7574	-0.05797334
99	0x3d29f637	0.041494574
100	0x3d1460cd	0.03622513
101	0xbe8cf8f1	-0.27533677
102	0x3de24bd4	0.11049619
103	0xbd88e472	-0.066841975
104	0xbc3423bb	-0.010994847
105	0xbda8d728	-0.08244163
106	0xbd3d4b15	-0.046214182
107	0x3af35c78	0.0018566987
108	0xbe0e2391	-0.13880755
109	0x3e0ff1a1	0.14057018
110	0x3ba31fb5	0.004978145
111	0x3e09a6d7	0.1344255
112	0x3e027599	0.12740172
113	0x3dde82c5	0.10864786
114	0xbe4b5f01	-0.1986046
115	0x3cbcc76f	0.023044316
116	0xbd6a2624	-0.05716528
117	0xbcc8e4ec	-0.024523221
118	0xbe263d03	-0.16234212
119	0x3da14c85	0.07875923
120	0x3e2c7d7a	0.1684474
121	0xbde0132e	-0.10941158
122	0xbe533719	-0.20626487
123	0x3d2c5687	0.042074706
124	0xbce125f9	-0.027483927
125	0x3d85cca3	0.06533172
126	0x3d8591ea	0.065219715
127	0xb8993fb0	-7.307471e-05
128	0xbe2c19a4	-0.16806656
129	0xbd274b5a	-0.040843345
130	0xbe1a45f3	-0.15065746
131	0xbd84c96a	-0.06483729
132	0x3dc8c20f	0.09802639
133	0xbe0b4596	-0.13600764
134	0xbce459b4	-0.027874805
135	0xbe041e98	-0.12902296
136	0x3ddd6a57	0.10811298
137	0x3dcbb24a	0.09946115
138	0xbd429aaa	-0.04751078
139	0xbe67690a	-0.22598663
140	0xbcac14a9	-0.021005945
141	0xbe00fe6c	-0.12597054
142	0xbda5cea8	-0.08096057
143	0xbbc9fd4e	-0.0061642295
144	0xbe145a17	-0.14487492
145	0x3dd728f5	0.10505859
146	0x3d30a7a4	0.043128625
147	0xbdbaae29	-0.0911525
148	0xbdcff69b	-0.10154458
149	0xbdf10f30	-0.11770475
150	0xbe33ce73	-0.17559223
151	0xbe514bbd	-0.20439048
152	0x3cf7b6d9	0.030238556
153	0x3bf67c73	0.0075221597
154	0xbcebc2ad	-0.028779352
155	0x3e44fa5c	0.1923613
156	0x3e00d6ed	0.12581988
157	0x3d6a715a	0.057237007
158	0x3ca51006	0.020149242
159	0xbde96a89	-0.11397273
160	0xba18f504	-0.000583485
161	0xbdf616b6	-0.120160505
162	0x3dd38058	0.10327214
163	0xbe185c04	-0.14878851
164	0x3cc89b86	0.024488222
165	0xbe2399f9	-0.15976705
166	0xbdc7f4cb	-0.097634874
167	0xbe8b135f	-0.27163216
168	0xbe4ca2f1	-0.19984032
169	0xbd84690e	-0.0646535
170	0xbe91f8df	-0.28510186
171	0x3dcce04f	0.10003721
172	0xbd8a0c19	-0.06740589
173	0xbc8c6f48	-0.017142907
174	0xbc29fc3d	-0.01037508
175	0x3d708ab9	0.058726046
176	0xbd7f15a4	-0.062276497
177	0xbc8a807c	-0.01690697
178	0x3d8f0302	0.069829956
179	0x3dc7dd13	0.097589634
180	0x3e399a5d	0.18125291
181	0xbdc4a508	-0.0960179
182	0xbd116c1a	-0.035503484
183	0xbddc8049	-0.10766656
184	0x3d80d3fc	0.06290433
185	0xbe0d5cbc	-0.13804907
186	0x3cb21658	0.02173917
187	0xbe8609d5	-0.26179376
188	0x3cac9c46	0.02107061
189	0x3e2f0946	0.17093381
190	0xbdbe0370	-0.092779994
191	0xbe5e7235	-0.21723254
192	0xbe2ca60c	-0.16860217
193	0x3e07baa4	0.13254791
194	0x3e87284e	0.26397938
195	0xbd7a9adf	-0.061182853
196	0xbe46e545	-0.19423397
197	0x3d7a4bd6	0.06110748
198	0x3da2d0f3	0.0795001
199	0xbde85c76	-0.113457605
200	0x3e589e77	0.211542
201	0xbdd95c32	-0.10613288
202	0xbdadacf7	-0.08480256
203	0x3ed5477d	0.41656104
204	0xbe1a37cb	-0.15060346
205	0x3e5a62ed	0.213268
206	0xbd9f162c	-0.07767901
207	0x3d912dbe	0.07088803
208	0xbc77c4df	-0.015122621
209	0xbdc0f0a8	-0.094209015
210	0xbd3e0cd3	-0.04639895
211	0x3de44eda	0.11147852
212	0xbda678a0	-0.08128476
213	0xbd63625b	-0.05551372
214	0x3d9fea14	0.07808319
215	0xbd3c3f8c	-0.04595904
216	0xbdfea4a9	-0.1243375
217	0x3d8ce4c4	0.06879571
218	0xbe4563bb	-0.19276325
219	0x3d09e286	0.033663295
220	0x3c137698	0.009000443
221	0xbd30ceb0	-0.043165863
222	0xbd82b814	-0.06382766
223	0x3daae902	0.08345224
224	0xbde4cf50	-0.11172354
225	0x3d8638ce	0.065538034
226	0x3da765fd	0.081737496
227	0x3d9d21cc	0.07672462
228	0xbd0e59f6	-0.034753762
229	0x3d68fa09	0.056879077
230	0xbded0066	-0.115723416
231	0x3e8174ae	0.25284332
232	0xbd5cdf75	-0.053924043
233	0x3d159f49	0.03652886
234	0x3e1659aa	0.14682642
235	0x3a76593a	0.0009397451
236	0xbe070d40	-0.13188648
237	0xbd259fa7	-0.04043546
238	0x3e964d55	0.29355875
239	0x3d67f14c	0.056626603
240	0xbc52a6d2	-0.012857156
241	0xbe4f6706	-0.20254144
242	0xbd67084e	-0.056404404
243	0x3c5c484e	0.013444973
244	0xbda1d893	-0.079026364
245	0x3d4e4514	0.050358847
246	0x3da08156	0.07837169
247	0xbdda7e4c	-0.106686205
248	0xbd545c99	-0.05184612
249	0x3de19e12	0.11016478
250	0xbde9caea	-0.11415656
251	0x3c1d3ca4	0.009596977
252	0xbdbd5d6e	-0.09246336
253	0x3e571f9c	0.21008152
254	0xbd508202	-0.050905235
255	0x3e4b2a32	0.19840315

encoder.4.bias f4 [50]
0	0x3ac83505	0.001527459
1	0xbc38ffb9	-0.011291438
2	0x3c14b961	0.009077401
3	0x3c7ad766	0.015310144
4	0xbc4a2083	-0.012336853
5	0xbb863fb4	-0.0040969495
6	0xbf15e9b4	-0.5855973
7	0xbaef9780	-0.0018279403
8	0xbe049757	-0.12948357
9	0xbc485f2d	-0.012229723
10	0xbd536dd5	-0.051618416
11	0x3ba3c0ce	0.0049973493
12	0xbae4791c	-0.0017431113
13	0xbb11ad62	-0.0022228588
14	0xbdcdcd48	-0.1004892
15	0xbc0a5526	-0.0084431525
16	0x3c3d12cc	0.011540126
17	0x39cae967	0.0003870234
18	0xbc8f1fad	-0.017471159
19	0xbefe7085	-0.4969522
20	0xbdddab68	-0.10823709
21	0xbbe83ab9	-0.0070870784
22	0xbe51b32b	-0.20478503
23	0xbb4c16c4	-0.00311415
24	0x38c525a8	9.400706e-05
25	0xbc02d5e3	-0.007985565
26	0xbb9e56b0	-0.0048321113
27	0xbbb8338d	-0.0056213797
28	0x3b26d0d1	0.0025454054
29	0xbb23d0cb	-0.0024996276
30	0xba7bc001	-0.0009603501
31	0xbc8a510a	-0.016884346
32	0x3c3c8edb	0.011508669
33	0xbe0c7697	-0.13717113
34	0xbe1f821d	-0.15576978
35	0xbe32d5aa	-0.17464319
36	0xbe758179	-0.23975171
37	0xbd4f136b	-0.050555628
38	0xbee3756d	-0.44425526
39	0xba859094	-0.0010190182
40	0x3c1895b8	0.0093130395
41	0xbdcfb78a	-0.10142429
42	0xbba87893	-0.0051413267
43	0xbd515602	-0.051107414
44	0xbe2bdd2a	-0.16783586
45	0x3c38acec	0.011271697
46	0xbdd5e6a2	-0.1044438
47	0x3a8b03e2	0.0010606016
48	0xbb1481d0	-0.0022660382
49	0x3c4a707a	0.012355918

encoder.7.weight f4 [20, 50]
0	0x3d99e1a1	0.075137384
1	0x3d5c0005	0.053710956
2	0x3c1a6a63	0.009424779
3	0xbe770cdc	-0.24125999
4	0x3b02d9e8	0.0019966308
5	0x3df61eb3	0.12017574
6	0xbd9c59df	-0.07634329
7	0x3f0b54d0	0.5442629
8	0xbdc505b9	-0.09620232
9	0x3e8c4121	0.2739344
10	0x3e3edbe6	0.18638572
11	0xbe8013cf	-0.25015113
12	0xbe9d6110	-0.30738115
13	0xbe39cdec	-0.18144959
14	0xbe03a6b4	-0.12856561
15	0x3e8ba82d	0.27276745
16	0x3c7b8cf5	0.015353431
17	0x3eb42757	0.35186264
18	0xbdd6b33f	-0.10483407
19	0xbd315b40	-0.043299913
20	0xbd8efbe4	-0.06981638
21	0x3e983cb4	0.29733813
22	0xbe0de7d4	-0.13857967
23	0x3ebfee1f	0.3748636
24	0xbda1bc6b	-0.07897266
25	0x3ee8124c	0.4532646
26	0x3ebc8e59	0.36827353
27	0x3ef298e6	0.47382277
28	0xbe0f2ec1	-0.13982679
29	0xbcd30c67	-0.02576275
30	0xbe270ec2	-0.16314223
31	0x3ecd2be1	0.4007254
32	0xbe07c867	-0.13260041
33	0xbc1ecb74	-0.009692062
34	0xbd92bd79	-0.07165045
35	0xbd6309a5	-0.05542912
36	0xbd4e0a80	-0.050302982
37	0x3cd01981	0.025402786
38	0x3dd624e0	0.10456252
39	0xbe4aee16	-0.19817385
40	0xbde395e1	-0.111125715
41	0xbdc213e4	-0.0947645
42	0x3e2017a6	0.15634021
43	0x3df34f48	0.11880356
44	0x3e04498d	0.12918682
45	0xbe29c3d9	-0.16578616
46	0xbdb8195e	-0.089892134
47	0x3da3cfa0	0.07998586
48	0xbe67307d	-0.2257709
49	0xbe729157	-0.23688255
50	0x3ddfaf2e	0.10922085
51	0xbd50e17e	-0.050996296
52	0xbd56a274	-0.05240102
53	0x3ca7c82c	0.020481192
54	0x3e0873ea	0.13325468
55	0x3e65103f	0.22369479
56	0xbd97114d	-0.07376347
57	0x3e12c316	0.14332232
58	0x3dcb4b5f	0.09926485
59	0x3e0dd252	0.13849762
60	0x3dae026d	0.084965564
61	0x3e232a01	0.15933992
62	0xbcd85b61	-0.02641076
63	0xbdda0ac1	-0.106465824
64	0x3dc8328e	0.097752675
65	0xbb2d052d	-0.002640079
66	0x3c609305	0.013706927
67	0x3e545d10	0.20738626
68	0x3cd31c62	0.02577037
69	0x3db86de0	0.09005332
70	0xbd238d65	-0.039929766
71	0x3d515fe8	0.051116854
72	0xbdd31b1a	-0.103079036
73	0x3e463336	0.19355473
74	0x3dbc9785	0.092085876
75	0xbd1506a0	-0.03638327
76	0x3e0cabac	0.13737363
77	0x3d294484	0.041325107
78	0x3e467c2d	0.19383307
79	0x3d9c2f06	0.076261565
80	0xbc968dd8	-0.018378183
81	0x3d04393d	0.03228115
82	0x3dd46758	0.10371274
83	0xbd5a9925	-0.053368706
84	0xbcacfa22	-0.021115366
85	0xbd3e27eb	-0.046424787
86	0x3cbe252b	0.023211082
87	0xbd21018e	-0.039308123
88	0x3ddad25c	0.10684654
89	0xbbebc680	-0.007195294
90	0x3e32350f	0.17403053
91	0xbda0a51d	-0.07843993
92	0x3d384822	0.044990666
93	0x3e10365e	0.1408324
94	0xbd0f9d88	-0.035062343
95	0x3d5aabde	0.05338656
96	0x3d3c3a94	0.045954302
97	0x3cd8b3f3	0.026452994
98	0xbdd88fbf	-0.105742924
99	0x3e1b45d2	0.15163353
100	0x3ebbbec9	0.36668995
101	0x3e0182a4	0.12647492
102	0xbe8395f9	-0.25700358
103	0x3e6ef862	0.23336938
104	0xbe4f92e9	-0.20270886
105	0xbe89de9b	-0.26927647
106	0xbe77ed67	-0.24211656
107	0xbdae2269	-0.08502657
108	0xbe2cc56d	-0.16872187
109	0xbd8f46f8	-0.06995958
110	0xbee30f20	-0.44347477
111	0x3c1df519	0.009640955
112	0x3be7296f	0.0070545
113	0xbdf7e798	-0.1210472
114	0x3da5075d	0.08058045
115	0xbe49e6dd	-0.19716974
116	0xbe721017	-0.2363895
117	0xbe0daf8b	-0.13836496
118	0x3d39579c	0.045249566
119	0xbe251439	-0.16120996
120	0xbe578df8	-0.2105025
121	0xbe04fad7	-0.12986313
122	0xbee235de	-0.44181722
123	0xbe2682ff	-0.16260909
124	0xbe052c3a	-0.13005152
125	0xbd602613	-0.05472381
126	0x3cc6fb16	0.024289649
127	0xbe27db47	-0.16392241
128	0x3e7d75e0	0.24751997
129	0xbe15d65e	-0.14632556
130	0x3d029f64	0.031890288
131	0xbdde2a52	-0.10847916
132	0x3d0fb882	0.03508807
133	0x3de54cb0	0.111962676
134	0xbe36cbea	-0.17851225
135	0x3caa6abe	0.020802852
136	0xbe8046ef	-0.25054118
137	0x3d2df089	0.04246572
138	0xbe545ba0	-0.20738077
139	0x3d2fe58a	0.042943515
140	0x3ea4c49c	0.3218125
141	0x3dee8719	0.116468616
142	0xbe961463	-0.2931243
143	0xbe92b49b	-0.28653416
144	0x3e024f5a	0.12725583
145	0x3d7322b6	0.059359275
146	0x3da36a51	0.079792626
147	0x3ec6c5a5	0.38822666
148	0x3be88d17	0.0070968973
149	0x3e3e8ed2	0.18609169
150	0x3d12885f	0.035774585
151	0x3e2868f5	0.16446288
152	0xbe01bff5	-0.12670882
153	0x3b07b985	0.0020709943
154	0xbb3ba78c	-0.0028633801
155	0xbb826ab3	-0.0039800047
156	0xbcf3c9b0	-0.029759258
157	0x3dfea566	0.12433891
158	0xbdf75412	-0.12076582
159	0x3ef17d83	0.4716607
160	0x3e731eca	0.23742214
161	0x3a90fa5b	0.001106094
162	0x3e33e6dc	0.17568535
163	0x3e6786dd	0.2261004
164	0x3d23343c	0.039844736
165	0xbd343561	-0.04399622
166	0xbd84f8a9	-0.06492741
167	0x3dc9bebb	0.09850832
168	0x3e809945	0.25116935
169	0xbe2891cc	-0.16461867
170	0xbd17bea0	-0.03704703
171	0x3e4993e8	0.19685328
172	0x3e632336	0.221814
173	0x3e26cd8e	0.1628935
174	0x3e100180	0.14063072
175	0x3e58cf0f	0.21172737
176	0x3e8086bc	0.25102794
177	0x3e1c3024	0.15252739
178	0xbc2a504b	-0.01039512
179	0x3e29640f	0.16542076
180	0x3e65843f	0.22413729
181	0x3b9683ef	0.0045933644
182	0x3d2d384d	0.04229002
183	0x3cee5e74	0.029097773
184	0x3e985748	0.2975409
185	0xbd8c35cc	-0.068461984
186	0xbd2eb124	-0.042649403
187	0x3ecc5700	0.39910126
188	0xbc88d71f	-0.01670414
189	0x3da57d4c	0.08080539
190	0xbd0ce60b	-0.034399074
191	0xbd84b5a7	-0.0647996
192	0xbca16918	-0.019703433
193	0x3ed8a72b	0.4231504
194	0x3e070229	0.13184418
195	0xbc9535f1	-0.018214198
196	0xbdc9908e	-0.09842025
197	0x3d5f4f9d	0.054519285
198	0x3dcfa9ed	0.10139833
199	0xbc57465e	-0.013139335
200	0xbe94b117	-0.2904136
201	0x3ce5e4ca	0.028063197
202	0xbdf9cabd	-0.121968724
203	0xbe4d2812	-0.20034817
204	0xbdcb5f37	-0.0993027
205	0xbde0b1c7	-0.10971408
206	0xbdbf91b7	-0.09353965
207	0xba4d6062	-0.00078344916
208	0xbe22972b	-0.15877979
209	0x3dd2b952	0.10289253
210	0x3c83fb79	0.016111122
211	0x3d31d1f1	0.043413106
212	0x3e86ba15	0.26313844
213	0x3e884a3d	0.2661914
214	0x3c5487d0	0.012971833
215	0xbe0bac70	-0.13639998
216	0xbdabe12b	-0.08392557
217	0xba090934	-0.00052275066
218	0x3e0765e9	0.1322247
219	0xbe348604	-0.17629248
220	0xbd3c65f8	-0.045995682
221	0xbe0d27d8	-0.1378473
222	0x3e99c9e4	0.30036843
223	0x3d121a8f	0.03566986
224	0x3ebfc694	0.3745619
225	0xbc850f2d	-0.016242588
226	0xbd0f1e91	-0.03494126
227	0x3ce01ce2	0.027357522
228	0xbdc84c04	-0.09780124
229	0x3d7862e2	0.060641177
230	0x3e8737fc	0.264099
231	0xbde583c7	-0.11206775
232	0x3c1002f1	0.008789764
233	0xbd65eb2f	-0.05613249
234	0x3d7d8ac8	0.06189993
235	0xbd116259	-0.035494182
236	0xbd94bf08	-0.07262999
237	0x3e5ef1b6	0.21771893
238	0xbbf9c17c	-0.007621942
239	0x3e82ce3d	0.25547972
240	0xbdffc2a8	-0.124882996
241	0x3df8dace	0.12151109
242	0x3e15e320	0.14637423
243	0x3e2c0103	0.16797261
244	0x3d67af53	0.056563687
245	0xbe0ccc3b	-0.13749783
246	0x3d66b4e0	0.05632484
247	0xbe8a2e91	-0.26988652
248	0x3e80670f	0.25078627
249	0xbdf73b2e	-0.120718345
250	0xbe7a936e	-0.24470302
251	0xbe58b1f4	-0.21161634
252	0x3dc05ca0	0.09392667
253	0xbe4e1045	-0.20123394
254	0x3efa742a	0.4891675
255	0x3e85bda7	0.26121256

encoder.7.bias f4 [20]
0	0x3bdde288	0.0067713894
1	0xbc2349be	-0.009966312
2	0xbb8d4ae9	-0.0043119085
3	0xbab24d2f	-0.0013603325
4	0x38a5d55a	7.907553e-05
5	0x3c304852	0.01075943
6	0xbed9cd57	-0.42539474
7	0xbf4b4c6e	-0.794135
8	0x3aab1096	0.0013051208
9	0xbc246409	-0.010033616
10	0xbe4f2679	-0.2022952
11	0x3c64f442	0.013974251
12	0xbe574b39	-0.21024789
13	0x3b55f4a4	0.0032647038
14	0x3adf2af8	0.0017026355
15	0xbbbdc5a8	-0.0057913847
16	0xbb7e1fab	-0.00387762
17	0x3b8cc358	0.0042957477
18	0x3c0af68d	0.008481634
19	0xbecaa49e	-0.39578718

encoder.10.weight f4 [4, 20]
0	0x3f1ccb6e	0.6124791
1	0x3d60ea01	0.054910664
2	0xbf30cfdc	-0.6906717
3	0xbe64e768	-0.223539
4	0xbec34dff	-0.38145444
5	0x3f2d967a	0.67807734
6	0x3f07edc5	0.5309718
7	0x3f8673b2	1.0504057
8	0x3f1d31cd	0.61404115
9	0xbee4168c	-0.44548452
10	0xbe3caf4c	-0.18426245
11	0x3f26e3a2	0.6519109
12	0x3e0abeef	0.13549398
13	0x3f331e4e	0.69968116
14	0xbecb1d83	-0.39670953
15	0x3f45a730	0.7720823
16	0xbe3d3c2e	-0.18479988
17	0xbe667258	-0.22504556
18	0xbeb57ca2	-0.3544665
19	0x3f673b96	0.90325296
20	0xbe881daa	-0.26585132
21	0xbeda2331	-0.42604974
22	0xbecbb65b	-0.39787564
23	0xbe2fa774	-0.17153722
24	0x3f14f354	0.5818379
25	0xbe7910f6	-0.24322876
26	0x3dab3aa9	0.08360798
27	0x3ef7d309	0.48403195
28	0xbe122ec8	-0.14275658
29	0xbeb797ce	-0.35858005
30	0xbde950bc	-0.11392352
31	0xbe641520	-0.22273684
32	0xbd965ada	-0.07341547
33	0xbe9f3d0a	-0.31101257
34	0x3f1cd11f	0.61256593
35	0xbe99454b	-0.2993568
36	0xbe44681f	-0.19180344
37	0x3e5eb1a0	0.21747446
38	0x3f0a40b1	0.5400496
39	0x3e93f7d5	0.28900018
40	0xbf12fbcb	-0.57415456
41	0x3e3bbcf5	0.183338
42	0x3eade4a2	0.33963495
43	0xbde48e93	-0.111600064
44	0x3f025cca	0.50922835
45	0x3e92efd3	0.28698596
46	0x3e4f8bd1	0.2026818
47	0x3bd339e9	0.0064461124
48	0xbf0cadbf	-0.54952615
49	0x3ea310ce	0.31848758
50	0xbe415a94	-0.18882209
51	0x3df29451	0.11844695
52	0x3e50e714	0.2040065
53	0xbf21a684	-0.6314471
54	0x3f06fcf3	0.5272972
55	0xbf2ec8ce	-0.68275154
56	0xbe54c6e8	-0.20779002
57	0x3e7d16d5	0.24715741
58	0x3ef690b2	0.4815727
59	0xbcaea28c	-0.021317743
60	0x3ebcfbaf	0.3691077
61	0xbe01cd0a	-0.12675872
62	0x3ed6bdd3	0.419417
63	0xbef6f107	-0.48230764
64	0xbea0bf64	-0.3139602
65	0xbeb8ed13	-0.36118373
66	0xbda1dd15	-0.07903496
67	0xbebc61e3	-0.36793432
68	0x3e8e108d	0.27747002
69	0x3e81d28e	0.25355953
70	0xbe124a8d	-0.14286251
71	0xbe9674ea	-0.29386073
72	0xbe04adf1	-0.12956978
73	0x3ee9d050	0.45666742
74	0xbea266fd	-0.317192
75	0x3f00618c	0.50148845
76	0xbf01f75d	-0.5076807
77	0xbe712bd6	-0.23551878
78	0xbe90fcc5	-0.28317848
79	0xbe95cccc	-0.2925781

encoder.10.bias f4 [4]
0	0xbe0dc0c5	-0.13843067
1	0xbe1e4c2c	-0.15458745
2	0x3e2d1374	0.16901952
3	0x3e2857ee	0.16439793

decoder.0.weight f4 [20, 4]
0	0xbe7ae35e	-0.24500796
1	0x3dbd25e5	0.092357434
2	0x3f14c29d	0.58109456
3	0x3f9f3f34	1.2441163
4	0x3e9e95ad	0.3097357
5	0xbecc0e3b	-0.39854607
6	0xbef64266	-0.48097533
7	0x3f102e3f	0.56320566
8	0xbe6f1d8a	-0.23351112
9	0xbe6662f2	-0.22498682
10	0x3f18e81e	0.5972918
11	0x3f1ec83b	0.6202428
12	0xbdb8fefa	-0.09033008
13	0xbf8527f5	-1.0402819
14	0xbf620b59	-0.88298565
15	0x3f55b2aa	0.83475745
16	0xbcc91a25	-0.0245486
17	0x3dbb4acb	0.09145125
18	0x3e91ee71	0.2850223
19	0x3f3a3c1f	0.7274799
20	0x3f4779c7	0.7792019
21	0xbe57e8e8	-0.2108494
22	0x3da1b632	0.07896079
23	0xbf51e886	-0.8199543
24	0x3f8b5869	1.0886356
25	0xbdc57786	-0.09641938
26	0x3ebd8282	0.37013632
27	0xbf2a7260	-0.6658077
28	0x3ef999d5	0.48750177
29	0xbe547b0d	-0.20750065
30	0xbf003bc4	-0.50091195
31	0xbeb4240c	-0.35183752
32	0xbebfbfc2	-0.37450987
33	0x3f15cf1f	0.58519167
34	0xbcebd65b	-0.028788736
35	0xbeb12d0f	-0.3460469
36	0x3e641e4f	0.22277187
37	0x3ef2960e	0.47380108
38	0x3e6a077d	0.22854419
39	0xbec2905e	-0.38000768
40	0xbe6bae35	-0.23015673
41	0x3ea727e6	0.32647628
42	0x3ea050af	0.31311557
43	0xbde4a118	-0.11163539
44	0xbf9c6f56	-1.2221477
45	0x3e9f8477	0.3115575
46	0xbe41a572	-0.18910769
47	0x3ed6e50a	0.41971618
48	0x3d4cd1b3	0.050004672
49	0xbf5dddda	-0.86666644
50	0xbf19b196	-0.600366
51	0x3ee7266f	0.4514651
52	0x3f00b1b1	0.50271136
53	0x3eddb627	0.43303034
54	0x3de6ed76	0.11275761
55	0x3c8e615a	0.017380405
56	0x3c243584	0.010022525
57	0xbeba7e78	-0.36424613
58	0xbee117b1	-0.43963388
59	0xbe3910bc	-0.1807279
60	0x3e87f219	0.26551893
61	0xbebb9acd	-0.3664154
62	0x3ed67754	0.41887915
63	0xbebede6d	-0.37279072
64	0xbf766e14	-0.96261716
65	0xbe8f0b6c	-0.27938402
66	0x3e362656	0.17788061
67	0xbee4459b	-0.44584355
68	0xbf649664	-0.8929198
69	0xbe89c682	-0.26909262
70	0x3ee8c96f	0.45466182
71	0xbe1b0479	-0.15138425
72	0xbf101eb3	-0.56296843
73	0x3f0aa8a3	0.5416357
74	0x3e1c9211	0.15290095
75	0xbebbbc73	-0.36667213
76	0x3e47d23a	0.19513789
77	0xbe60c6b0	-0.21950793
78	0xbe8f4ed4	-0.2798983
79	0xbe39a737	-0.18130194

decoder.0.bias f4 [20]
0	0xbf239a28	-0.639071
1	0xbdb9c545	-0.09070829
2	0xbeaa307e	-0.33240122
3	0xbd2d25b0	-0.04227227
4	0xbe84bd08	-0.2592547
5	0x3e3cbef2	0.18432215
6	0x3e0adcb3	0.13560753
7	0x3ea26165	0.3171493
8	0xbe5c8b7b	-0.21537583
9	0x3eca1239	0.39467028
10	0x3e3a8cfc	0.18217844
11	0xbe60b6c0	-0.21944714
12	0x3e3612f3	0.17780666
13	0xbed450ae	-0.41467804
14	0xbef16c15	-0.47152773
15	0xbe47ec1a	-0.1952366
16	0xbd1a31bd	-0.03764509
17	0xbe118948	-0.14212525
18	0x3e4a75d6	0.19771513
19	0x3e094005	0.13403328

decoder.2.weight f4 [50, 20]
0	0x3e47ff3b	0.19530956
1	0xbe9c96d2	-0.30583817
2	0xbe36b8fb	-0.17844002
3	0xbe402c61	-0.18766929
4	0x3c7638f3	0.015028226
5	0x3da4bb87	0.080435805
6	0xbd39db8f	-0.045375403
7	0x3d9a3843	0.07530262
8	0x3e3d74eb	0.18501632
9	0x3e76d0a1	0.24103023
10	0x3c8873d5	0.016656796
11	0x3da8d742	0.08244182
12	0xbe1b4876	-0.1516436
13	0x3db08b03	0.086202644
14	0x3e5c7937	0.21530615
15	0x3e59d5a2	0.212729
16	0x3dd14195	0.10217587
17	0x3e4f0d31	0.20219876
18	0x3ddff606	0.10935597
19	0xbe52ed29	-0.20598282
20	0xbdcdef25	-0.10055379
21	0xbd14b4f0	-0.036305368
22	0xbccec55f	-0.025240598
23	0x3d8d351d	0.06894896
24	0xbe02164d	-0.1270382
25	0xbe0ff923	-0.14059882
26	0x3e481e2d	0.19542761
27	0x3d8aff03	0.06786921
28	0xbe575c34	-0.21031266
29	0xbe0c0343	-0.13673119
30	0x3df513b3	0.11966648
31	0x3e00be6d	0.12572642
32	0x3dbca034	0.09210244
33	0xbe1bb633	-0.15206222
34	0xbdafab47	-0.085775904
35	0xbc002443	-0.0078211455
36	0xbc24a32b	-0.010048668
37	0x3e55a38e	0.20863172
38	0xbe4fe872	-0.20303515
39	0x3e275eb5	0.16344722
40	0xbdf6c4ee	-0.1204928
41	0x3e305e73	0.1722353
42	0x3e2c406e	0.16821453
43	0xbd8159cf	-0.06315958
44	0xbb8f710f	-0.0043774913
45	0x3e217eb6	0.15770993
46	0x3de54adb	0.11195918
47	0xbc0ee091	-0.008720533
48	0xbdbd79a2	-0.09251715
49	0x3e0d1ed5	0.13781293
50	0xbc84307b	-0.016136399
51	0xbc6d020b	-0.014465819
52	0x3dcb6de9	0.09933073
53	0x3d4af9cb	0.049554627
54	0xbd9f4f1a	-0.07778759
55	0x3e2bfa91	0.16794802
56	0x3bd1226e	0.006382278
57	0xbe008345	-0.12550075
58	0xbca1a17f	-0.019730328
59	0x3d5e420d	0.05426221
60	0xbdac1533	-0.08402481
61	0x3e0a86f3	0.13528042
62	0xbd796604	-0.060888305
63	0xbd1907a7	-0.037360813
64	0xbe6b7aa3	-0.22996001
65	0x3b417f35	0.0029525284
66	0x3e1cb804	0.15304571
67	0x3e83c523	0.2573634
68	0x3d5d2f9c	0.054000482
69	0xbc7776d6	-0.015104016
70	0xbd6b496d	-0.05744307
71	0x3e341853	0.17587404
72	0x3d9f5865	0.07780532
73	0xbda81308	-0.08206755
74	0xbe60a8ce	-0.21939394
75	0x3dd345c3	0.1031604
76	0x3dc9ac38	0.09847301
77	0xbc80f6af	-0.015742628
78	0x3d6ed010	0.058303893
79	0xbd3b54a7	-0.045735028
80	0xbed315a8	-0.4122746
81	0xbe0dc8bc	-0.13846105
82	0x3db204e6	0.086923406
83	0x3e22fb08	0.15916073
84	0xbe2f3bf4	-0.17112714
85	0xbd333cc0	-0.043759108
86	0x3df0c5c8	0.11756474
87	0xbe00ba24	-0.12571007
88	0xbd9de33b	-0.077093564
89	0xbe5a0baf	-0.2129352
90	0xbe1bdc3c	-0.15220731
91	0x3e777a39	0.24167718
92	0x3e8fade8	0.28062367
93	0xbe0a7fc8	-0.13525307
94	0xbdce22b4	-0.10065213
95	0x3e3fd2f8	0.18732822
96	0x3e052c74	0.13005239
97	0x3d367772	0.044547506
98	0x3e1b7547	0.15181457
99	0x3e3a78c7	0.18210135
100	0x3dcfe881	0.101517685
101	0x3e2baf41	0.16766073
102	0x3e7d41ed	0.2473218
103	0xbdedbdf1	-0.11608494
104	0x3e5c6f74	0.21526891
105	0x3e3dafd9	0.18524112
106	0x3e4fe8fa	0.20303717
107	0xbeb7a06a	-0.35864574
108	0x3e43da2e	0.19126198
109	0x3e8ce527	0.2751858
110	0xbd696b9b	-0.056987386
111	0xbe02cc4f	-0.1277325
112	0xbd699973	-0.057031106
113	0xbe337fd0	-0.17529225
114	0x3e047392	0.12934712
115	0x3ce7fa62	0.028317634
116	0xbccaf5e6	-0.024775457
117	0xbed958a4	-0.4245044
118	0x3e47c8cf	0.19510196
119	0x3d77e7c8	0.06052378
120	0x3e54a0cd	0.20764466
121	0xbe40b64c	-0.1881954
122	0x3d1eea76	0.038797818
123	0xbcedbe60	-0.029021442
124	0x3dfc07ad	0.123061515
125	0x3e3a23a2	0.18177655
126	0xbbcd4deb	-0.006265392
127	0xbdad8b78	-0.08473867
128	0xbddc65e4	-0.107616216
129	0x3e4ba916	0.1988872
130	0xbd971ea3	-0.0737889
131	0x3e085f55	0.13317616
132	0xbdc40716	-0.09571664
133	0xbe635010	-0.2219851
134	0xbe5382ca	-0.20655361
135	0x3de18a14	0.110126644
136	0xbe5dbf01	-0.21654893
137	0xbd8b2c7f	-0.06795596
138	0xbcc5b244	-0.024132855
139	0xbe0118ae	-0.12607071
140	0xbd646902	-0.055764206
141	0xbd362800	-0.04447174
142	0xbe0c49a2	-0.13699964
143	0x3d06ae8a	0.032881297
144	0xbe1960b0	-0.1497829
145	0xbb0e6d63	-0.002173268
146	0x3e373cee	0.17894337
147	0x3d8b1021	0.06790186
148	0x3e2bf970	0.16794372
149	0x3e015a5d	0.12632127
150	0xbd0a14e5	-0.033711333
151	0x3e065c3f	0.13121127
152	0x3db7be95	0.089718975
153	0xbe288b7c	-0.16459459
154	0xbe134d03	-0.14384846
155	0x3a1f1c0f	0.00060695497
156	0x3dfe0377	0.124030046
157	0x3dac8fa8	0.08425838
158	0xbe844477	-0.25833485
159	0xbb1254a7	-0.0022328289
160	0x3ec4740d	0.3836979
161	0x3e63d49e	0.22249076
162	0x3e65b0c1	0.22430708
163	0xbe4d7073	-0.20062427
164	0x3e9a0532	0.3008209
165	0xbd49adfd	-0.049238194
166	0x3e6b2e18	0.22966802
167	0xbe5aabb2	-0.21354559
168	0x3dda9139	0.1067223
169	0x3e27ef3f	0.16399859
170	0x3e36cfc1	0.1785269
171	0x3c3499b0	0.01102297
172	0xbd07d074	-0.03315778
173	0x3ca81205	0.020516405
174	0xbe252543	-0.16127495
175	0xbe6bc5b3	-0.23024635
176	0xbe51c255	-0.20484288
177	0xbe0fe031	-0.14050366
178	0x3deede4b	0.11663493
179	0x3dc30e33	0.09524193
180	0x3e05ac1f	0.1305394
181	0xbcc0f20e	-0.02355292
182	0x3e43cbde	0.19120738
183	0x3e096c33	0.13420181
184	0xbd9f097e	-0.07765482
185	0xbe813762	-0.25237566
186	0xbdbe2fef	-0.09286486
187	0xbde1704f	-0.11007749
188	0xbe1ab23b	-0.15107052
189	0x3dc1e48a	0.094674185
190	0x3e083e90	0.13305116
191	0x3df0e6c0	0.11762762
192	0xbc05495c	-0.008135166
193	0xbdea09ff	-0.11427688
194	0x3de2ea94	0.110798985
195	0xbe26a416	-0.16273531
196	0xbe08a3a1	-0.1334367
197	0x3e35f45e	0.17769
198	0x3e2ab628	0.1667105
199	0x3e2c9a57	0.16855751
200	0xbd064212	-0.032777853
201	0x3e160677	0.14650904
202	0xbd15e51c	-0.03659545
203	0xbd0b10f2	-0.033951707
204	0x3e57c76e	0.2107217
205	0x3e20c3c2	0.15699676
206	0x3e493cf7	0.19652162
207	0x3e07c3ef	0.13258336
208	0x3e3d04a7	0.18458806
209	0xbd7bc301	-0.061465267
210	0x3db00956	0.08595531
211	0x3d8ebb25	0.06969289
212	0xbe0ca4a1	-0.13734676
213	0xbd0f83a5	-0.035037655
214	0x3d94e2dd	0.07269833
215	0xbe2198f1	-0.15780999
216	0x3e6244db	0.22096579
217	0xbe17f48d	-0.14839382
218	0x3e6d6309	0.2318231
219	0xbd1f72b8	-0.038927764
220	0x3e432b32	0.19059446
221	0x3cdf88e2	0.02728695
222	0x3dbc11b0	0.09183061
223	0x3ddb3c65	0.10704879
224	0xbdc516d6	-0.09623496
225	0xbe1fb56e	-0.15596554
226	0xbe58911b	-0.21149103
227	0x3e10339c	0.14082187
228	0xbda753dd	-0.081702925
229	0xbe35f80b	-0.17770402
230	0xbe65cafb	-0.22440712
231	0xbe5df6d0	-0.21676183
232	0x3c568506	0.013093239
233	0xbdbd2d8e	-0.092372045
234	0xbd7c230e	-0.06155687
235	0xbe575477	-0.21028315
236	0xbe067f70	-0.13134551
237	0x3dd2de6c	0.1029633
238	0xbd352480	-0.044224262
239	0x3d92cd6e	0.07168089
240	0x3dcdb0ea	0.10043509
241	0x3e8ba990	0.27277803
242	0x3c9633c2	0.018335227
243	0x3ebf4d8e	0.37363857
244	0x3d9f13b4	0.0776743
245	0xbc87de79	-0.016585575
246	0x3c823b88	0.015897527
247	0x3cd88adc	0.0264334
248	0x3e38d386	0.1804944
249	0x3e118969	0.14212574
250	0x3df96837	0.121780805
251	0xbe91ccbd	-0.28476515
252	0x3e9f6470	0.31131315
253	0xbddd0157	-0.10791271
254	0x3dfbbb88	0.12291628
255	0x3c9969ac	0.018727146

decoder.2.bias f4 [50]
0	0x3e6d548c	0.23176783
1	0xbdbaed2a	-0.09127267
2	0x3d20194c	0.039086625
3	0x3e36bce3	0.17845492
4	0x3d20ebcd	0.039287377
5	0x3e24c454	0.16090518
6	0xbe2250b5	-0.158511
7	0x3e5ae352	0.21375778
8	0x3e1b0f7f	0.1514263
9	0xbe504b39	-0.20341195
10	0x3dec8059	0.11547918
11	0xbdc2353f	-0.09482812
12	0xbdd51072	-0.10403527
13	0xbe4b3ef8	-0.1984824
14	0xbd89be92	-0.067258015
15	0xbda914f0	-0.08255947
16	0xbe4460f7	-0.19177614
17	0x3e381cb5	0.17979701
18	0xbd6587d7	-0.05603775
19	0xbddef46b	-0.10886463
20	0x3dfd4e71	0.12368477
21	0x3b397800	0.0028300285
22	0xbda9e932	-0.082964316
23	0x3c8e118b	0.01734235
24	0x3e845154	0.25843298
25	0x3dfac048	0.12243706
26	0xbdac4206	-0.084110305
27	0xbe1b99a8	-0.15195334
28	0x3df8d65e	0.12150262
29	0xbdd4b34f	-0.10385763
30	0xbe48b853	-0.19601564
31	0x3db66b39	0.0890717
32	0x3d9acd9c	0.07558748
33	0x3c406e3b	0.011745031
34	0xbde0f475	-0.109841265
35	0xbd6b261b	-0.057409387
36	0xbe62f758	-0.22164667
37	0x3bbf9ad5	0.005847315
38	0x3dd59bc6	0.10430102
39	0xbcd1bd58	-0.025602981
40	0xbe18c1d3	-0.14917688
41	0xbd117bb6	-0.03551837
42	0xbe03572b	-0.1282622
43	0xbe48a03f	-0.19592379
44	0x3ecc4fe9	0.39904717
45	0x3e32d405	0.17463692
46	0x3dba071c	0.09083387
47	0xbd341eaf	-0.043974575
48	0xbddad24d	-0.10684643
49	0xbc01f91e	-0.007932929

decoder.4.weight f4 [50, 50]
0	0x3d350533	0.04419441
1	0xbe074d7a	-0.13213149
2	0xbda36439	-0.079781
3	0xbd674f1f	-0.05647194
4	0x3c93abc5	0.018026242
5	0xbd589690	-0.052877963
6	0xbdc9b029	-0.09848053
7	0xbd0f4a2c	-0.034982845
8	0xbd803069	-0.062592335
9	0x3cc70eff	0.024299143
10	0x3d8b2fdf	0.0679624
11	0x3c03bef2	0.00804113
12	0xbdd6932d	-0.1047729
13	0xbdd550fa	-0.10415836
14	0x3dfe6905	0.12422375
15	0xbd81b54b	-0.06333407
16	0x3c38eaf6	0.011286488
17	0xbda14ff5	-0.07876579
18	0x3c0e6392	0.008690732
19	0xbcab4d63	-0.020910924
20	0xbdd01b5d	-0.10161469
21	0xbdad189b	-0.08451959
22	0xbdd219f0	-0.102588534
23	0x3dc02308	0.09381682
24	0xbdafb4bc	-0.08579394
25	0x3e09a782	0.13442805
26	0xbe0ce6c7	-0.1375991
27	0xbd77bd23	-0.06048311
28	0xbdf2ea9b	-0.11861154
29	0xbde2a891	-0.11067308
30	0x3e00765c	0.1254515
31	0x3dce9ff9	0.10089106
32	0x3d228eb0	0.03968686
33	0xbb1c9cac	-0.0023897095
34	0xbe05e6b5	-0.13076289
35	0xbde4b6f9	-0.11167712
36	0x3cec3d93	0.028837955
37	0xbd673da8	-0.056455284
38	0xbe0bc557	-0.13649498
39	0x3d1960b9	0.037445758
40	0x3cbb2ade	0.02284759
41	0xbdaf11c1	-0.08548308
42	0x3c91d9d2	0.01780406
43	0xbd9a2813	-0.07527175
44	0xbda69d6b	-0.08135494
45	0x3e046fd3	0.12933283
46	0x3df623ad	0.12018523
47	0xbc05f678	-0.0081764385
48	0xbd9e4653	-0.07728257
49	0xbdb7a90d	-0.08967791
50	0xbdd816b0	-0.10551202
51	0xbdea4e21	-0.11440683
52	0x3dc68f53	0.09695306
53	0x3cb0f189	0.021599548
54	0xbd8b1adf	-0.06792235
55	0x3e655308	0.22394955
56	0x3ce18ffb	0.027534476
57	0xbcfd54aa	-0.03092416
58	0x3e6c0a39	0.23050775
59	0x3ca7bfe3	0.02047724
60	0x3e1dc9f2	0.15409067
61	0x3dae2432	0.085029975
62	0x3dec4b1e	0.11537765
63	0x3dda1c2e	0.10649906
64	0xbe9e86fa	-0.30962354
65	0xbe136d4b	-0.1439716
66	0x3e70d18b	0.23517434
67	0x3c2898a4	0.010290299
68	0x3dab7ea9	0.08373768
69	0x3c966a72	0.018361304
70	0xbe436d5e	-0.19084689
71	0x3dde033c	0.10840461
72	0xbc3ec55f	-0.011643737
73	0x3dc01d42	0.093805805
74	0x3dbe9793	0.09306254
75	0x3e5659bb	0.20932667
76	0x3e2b4904	0.16727072
77	0xbdbb7dce	-0.09154855
78	0x3e8008b8	0.25006652
79	0xbd148737	-0.036261763
80	0xbe088359	-0.13331355
81	0xbdf0018a	-0.117190436
82	0xbd999b2d	-0.075003006
83	0x3dc94fa6	0.09829645
84	0x3e0947c9	0.1340629
85	0xbbee0866	-0.0072641848
86	0x3c104478	0.008805387
87	0x3e0c4989	0.13699926
88	0xbe07e2b9	-0.13270082
89	0x3e005d5d	0.12535615
90	0xbe02177f	-0.12704276
91	0xbe526b1f	-0.20548676
92	0xbd756744	-0.059912935
93	0x3df9b8a0	0.121934175
94	0x3e711f1f	0.23547028
95	0xbd00c5de	-0.0314387
96	0xbd3639c4	-0.044488683
97	0x3def3655	0.11680285
98	0xbcb74fc0	-0.022376895
99	0x3e0c2a29	0.13687958
100	0x3e53c9f8	0.20682514
101	0xbe0ecae5	-0.13944586
102	0xbd8c39fa	-0.06846996
103	0xbd60fc55	-0.054928143
104	0x3dfa5fac	0.12225279
105	0x3d8bede1	0.06832481
106	0xbde3e12c	-0.111269325
107	0xbd81945b	-0.06327125
108	0x3d46599d	0.048425306
109	0xbd660d18	-0.05616483
110	0xbd4cb5aa	-0.049977936
111	0x3d33ffa7	0.04394498
112	0xbe170dce	-0.1475136
113	0x3d82009c	0.063477725
114	0x3e653002	0.22381595
115	0xbd87aac2	-0.06624366
116	0x3d5d0de3	0.05396832
117	0xbd900c66	-0.07033615
118	0x3a8d303b	0.001077182
119	0xbd778f70	-0.060439527
120	0x3e066279	0.13123502
121	0xbd68c4d0	-0.05682832
122	0xbdcf28d5	-0.1011521
123	0xbdb5b75a	-0.08872862
124	0x3d9bc7fb	0.076065026
125	0xbca0f2e0	-0.019647062
126	0x3c30b3d8	0.010785066
127	0xbd0f04b6	-0.034916602
128	0xbc8693e0	-0.016427934
129	0xbdc5d864	-0.09660414
130	0x3ceb1399	0.028695868
131	0xbd93f4bf	-0.07224416
132	0x3c27e3ec	0.010247212
133	0x3de4709c	0.11154291
134	0xbdb61e32	-0.08892478
135	0x3cbdf99a	0.023190308
136	0x3deeed3a	0.11666341
137	0x3e02b4d8	0.12764299
138	0xbdf6d1bf	-0.12051725
139	0xbbd5adb8	-0.006520953
140	0x3d3a1faa	0.045440353
141	0x3dad1e4d	0.08453045
142	0x3dccb0e3	0.09994676
143	0x3ce22b7f	0.027608631
144	0x3e5f4aba	0.2180585
145	0xbdf10d9b	-0.11770173
146	0x3da01611	0.07816709
147	0xbe48cb2f	-0.19608758
148	0xbcdcd93d	-0.026959056
149	0x3e6e1126	0.23248729
150	0xbdb9c048	-0.09069878
151	0xbe031874	-0.12802297
152	0xbd719809	-0.058982883
153	0x3e102dd6	0.14079985
154	0xbcb3abc3	-0.021932488
155	0xbe85b732	-0.2611633
156	0x3dc81810	0.097702146
157	0xbcd7e604	-0.026354797
158	0xbde106a9	-0.109875984
159	0x3d3ad7b5	0.04561587
160	0xbd3b3c9e	-0.045712106
161	0xbdd76343	-0.105169795
162	0xbe27fbe1	-0.16404678
163	0x3eaf521c	0.34242332
164	0xbe3afaaf	-0.1825969
165	0xbddc42bf	-0.10754918
166	0xbc396e86	-0.011317855
167	0xbd12e34a	-0.03586129
168	0xbb9dfe14	-0.0048215482
169	0x3de2d1ef	0.11075198
170	0x3eb8c7f2	0.36090046
171	0x3decaa35	0.11555902
172	0xbd5be2e0	-0.05368316
173	0x3d883e30	0.06652486
174	0x3d902e5c	0.07040092
175	0x3b7cff69	0.0038604385
176	0xbdfe04d8	-0.124032676
177	0x3daa20e6	0.08307056
178	0x3d52e9f2	0.05149264
179	0x3d8715a8	0.065959275
180	0xbdf74b9c	-0.12074968
181	0x3e9d359c	0.30704963
182	0xbd7b912d	-0.061417747
183	0x3cf727fd	0.030170435
184	0x3ce3ae8d	0.027793193
185	0xbd802572	-0.06257142
186	0x3e74ab7c	0.23893541
187	0xbb8aac95	-0.004231999
188	0x3bf07d22	0.0073391357
189	0x3d1aa72a	0.037757076
190	0x3dbfdd02	0.09368326
191	0x3eab68b2	0.33478314
192	0x3d180833	0.037117194
193	0x3dd808d2	0.10548557
194	0x3e4a3389	0.19746222
195	0x3c845bb1	0.016157003
196	0x3e84a6e9	0.25908592
197	0xbe54bb90	-0.20774674
198	0x3dcc075b	0.099623404
199	0xbd9c6dad	-0.076381065
200	0x3da2ac14	0.079429775
201	0xbd34cb25	-0.044139046
202	0x3cb97d0d	0.022642637
203	0xbc463d69	-0.012099602
204	0x3d8e3900	0.06944466
205	0xbd66d249	-0.056352887
206	0x3d03cb32	0.032176204
207	0x3d4a6cd3	0.04942019
208	0xbd5ccd7c	-0.053906903
209	0x3e22a2a5	0.15882356
210	0xbd0edb22	-0.03487695
211	0x3e18ef9e	0.14935157
212	0xbd9b9159	-0.07596082
213	0x3ee5dcee	0.44895118
214	0x3db7c054	0.089722306
215	0xbb640b0a	-0.003479662
216	0x3e53b6c4	0.20675188
217	0xbdcd96d8	-0.10038537
218	0x3e0e8794	0.13918906
219	0x3d18ef06	0.037337326
220	0x3e2924eb	0.1651799
221	0x3d0ede97	0.034880247
222	0xba6bcaaa	-0.0008994738
223	0xbda35ba5	-0.07976464
224	0xbd366716	-0.044531904
225	0x3e199214	0.1499713
226	0x3cbf390d	0.023342634
227	0xbd83537c	-0.06412408
228	0xbd715faf	-0.05892914
229	0xbe2cf188	-0.16889012
230	0x3dfd1a32	0.12358512
231	0x3db475b9	0.08811516
232	0x3c6938fa	0.014234776
233	0x3e3ea23d	0.18616576
234	0x3b959cca	0.00456581
235	0x3deb652f	0.114939086
236	0x3e98d3ce	0.29849094
237	0xbe011f14	-0.12609512
238	0x3dc1cdf6	0.09463112
239	0x3e3fde44	0.18737131
240	0x3b8b064e	0.004242695
241	0x3e3f1269	0.18659367
242	0x3dcee9d3	0.10103192
243	0x3daab98a	0.0833617
244	0x3e3d709d	0.1849999
245	0x3be2b254	0.006918231
246	0x3d49a7c7	0.04923227
247	0x3c9114f7	0.017710192
248	0x3e203d73	0.15648441
249	0xbe93a50c	-0.28836858
250	0xbccf31b5	-0.025292257
251	0xbcc0feaf	-0.023558943
252	0x3dbdd836	0.092697546
253	0x3cbbb524	0.022913523
254	0x3de811d1	0.11331523
255	0x3bbee19b	0.005825234

decoder.4.bias f4 [50]
0	0xbe0030e9	-0.12518658
1	0x3e0e6dca	0.13909069
2	0x3eafe6c7	0.34355757
3	0xbe0a8e23	-0.13530783
4	0x3d7661c7	0.06015184
5	0xbdf8923d	-0.12137268
6	0xbe67f9bf	-0.22653864
7	0x3dbfe2b3	0.09369411
8	0xbdd8a8bb	-0.10579058
9	0x3d9827fd	0.07429502
10	0xbdf77ab3	-0.1208395
11	0xbdddadd4	-0.10824171
12	0xbe1203c9	-0.14259256
13	0x3cab7a2a	0.020932276
14	0x3db9a86e	0.090653285
15	0xbe268ee7	-0.1626545
16	0xbc4e02f9	-0.012573951
17	0xbbbb4ba4	-0.005715804
18	0x3d797801	0.06090546
19	0xbdd494e0	-0.10379958
20	0xbdcd5b35	-0.10027162
21	0xbaf9f8b5	-0.0019071313
22	0x3e8ff761	0.28118423
23	0xbcf96f71	-0.030448647
24	0x3e1599e4	0.14609486
25	0xbd9507f0	-0.072769046
26	0xbd710180	-0.05883932
27	0xbd7ee8a5	-0.062233586
28	0x3b57863d	0.0032886409
29	0x3e552a43	0.20816903
30	0x3d5e35d6	0.05425056
31	0x3ddb07ba	0.10694833
32	0x3c83ef08	0.01610519
33	0xbd128fef	-0.035781797
34	0xbc0f2ecc	-0.008739185
35	0x3d4f5f99	0.05062828
36	0x3e06db70	0.13169646
37	0xbbc674cb	-0.0060564033
38	0x3e0247e7	0.12722741
39	0xbbaec4a4	-0.0053335
40	0xbca5a3b4	-0.020219661
41	0x3d37c50f	0.044865664
42	0x3e28fb15	0.1650203
43	0x3d84184c	0.06449947
44	0xbe05813c	-0.1303758
45	0xbd7b9f21	-0.061431054
46	0x3d335a25	0.04378714
47	0xbd23a52b	-0.03995244
48	0x3e4a969d	0.19784017
49	0xbbe1cc6d	-0.0068908245
