model/checkpoint_550.tar (torch, 110796 bytes, 51 tensors)

encoder.1.weight f4 [50, 6]
00000000: 45d5 f9be a615 82bb 242d 0cbb 1aab 813e
00000010: 54a7 98be 2afc a73d ac9d af3b cae9 1bba
00000020: eed1 4bbb b77a 0740 3933 4a3c 20bf 95be
00000030: 8f32 49be ee52 56be 3d21 123b 27d8 84bd
00000040: 98a6 a13e 36d8 c5be 5690 453e 2742 aeba
00000050: 541d 8b3b 55c4 09be 0ccf 053c 076c 7d3f
00000060: b2d0 72bd 80c8 ecbd 20cf aab9 13b6 373f
00000070: 1f3a 753e bc2c 02bf 29cf 323f 0dc6 a13c
00000080: 5001 2a3c 00be 4b3e 950e 483b 7239 303f
00000090: 98f1 a3bd 5c69 66be f169 e0bd 9874 7bbe
000000a0: d0fe 5d3e c341 51be 0452 0ebf be2e 063e
000000b0: 68fa 143e ba73 bbbc 16a9 f5bd 6a43 3ebd
000000c0: e972 103f 210c abbb 1cf1 c1ba 42fd 6a3f
000000d0: a4c3 153f f76a 4d3d 0029 a5be 91e5 343c
000000e0: b87b 42be fb46 cdba 5145 4c3e 249c 383e
000000f0: 09b6 a3be ef8f 553b 1628 013b 92e5 6ebf
00000100: e06d 5ebe 474f e33d 828a 6ebe 3d93 36be
00000110: 9369 0c3e f298 703e 1971 bb3b 149d 22be
00000120: 9f06 45bd f460 81bd c947 45bd f63a 803f
00000130: c191 aabd 1e29 c43e c158 bdbe 8f3f ed3b
00000140: cc42 453a 6e81 40bf 2270 63be fd59 e83d
00000150: ee3b b5bf a785 8f3b e8be 953b 7acb d63e
00000160: fbd5 b5be 2048 593f e940 1dbf 1a00 2b3c
00000170: bf02 0dba 7a25 22be eb62 c8be a3be 26be
00000180: a83d 83be 4485 8a3e 8e61 1d3e 3592 a63e
00000190: 7586 9bbe 70c9 cbbe 37fa 61bf 60b7 afba
000001a0: 6f2b 5c3a a7fd 35bf c619 223f 2cea 053f
000001b0: 335f 87b8 cc3e 82bb 80a1 19bb 27ac 0340
000001c0: 04cf 9a3c c402 93be db84 af3d 5110 9dbe
000001d0: 92ad 5fbe 9a7a 44be 848c 6cbe 6342 943d
000001e0: 12c4 c7bd 1d6f 2f3b 1579 69bb cadf 27bf
000001f0: 2868 393f 1c4f ef3c 003c b5be 6a99 87be
00000200: 86e5 193e 2da3 1f3e 1140 81be d458 03be
00000210: d8b1 f3bf dca7 033c 7af0 bfba 6e32 80be
00000220: 87b2 a5be 2bde 553e 0932 a63e 3912 b1bd
00000230: d4f9 89bd c3c1 133e 2254 773d d0af 09be
00000240: 001e bfbe 6171 6ebe 4162 223d 8397 be3b
00000250: 163d cf3e a351 6fbd ff28 ccbd e029 c8be
00000260: b812 bfbe 5906 3a3e daa2 ac3e 4554 40ba
00000270: 01bd edbf 0f78 893c 206e 643b ea63 09bf
00000280: 81ea fbbd 1c01 b53d a2df d0bf 2f76 1e3c
00000290: 5e3e 043a a847 f0be 3357 02be d3c4 b0be
000002a0: 561e 373f 9072 09ba a86e 163b 03eb 73bf
000002b0: 9159 3b3f ff51 9a3d ebdc 67be 8652 d4bc
000002c0: 0200 94be 95f7 99bc 7867 6a3e e5e9 3bbe
000002d0: 025c 2f3f 009e 23bc 71fb 00ba 0f9e fb3e
000002e0: c6ae 9bbe c6ab b3be 1837 57bb edf1 a1bc
000002f0: 08f5 553c 1a51 e93d 55f0 3f3e 71e3 963f
00000300: f016 a03e c43a ccbe 9cab 2e3d 0a24 a2bc
00000310: a727 e03d 6438 cdbd 123e 053e b015 9ebe
00000320: e3a8 5e3e 3455 0b3f 830e 08bc 0e37 93be
00000330: fa30 08bf 9ff4 6dbc 6162 7bbb 080e 9b3d
00000340: ef12 c4bc a25a 613f b73a f439 86e0 6939
00000350: 4949 22ba f468 a83f 08e6 e63e b14b 3fbb
00000360: 963b 663e 919b 073e 1023 263d 2870 f2bd
00000370: ebab 7d3d 9f00 f03c 7362 f7bd f7bc 0ebb
00000380: ecc4 d93b 5ae3 26bf 334b 2a3d 3c11 143f
00000390: 75bf a23c d873 9abc 4381 5abc 6d30 06be
000003a0: 814c 523e 3572 a53f 7c59 7b3f 4611 19bc
000003b0: f02e 21bb 3e68 7fbe 2844 0cbe 399c 03bf
000003c0: 41a7 f1bf fc88 363c 3d64 953b f646 36bf
000003d0: 6d43 98be 1732 783e 8efa 0e3b 75de d8ba
000003e0: b282 9f3a 5ded 0340 936e a7be 3f79 2abe
000003f0: 85b1 05bf 0109 163b f822 eb3b fc8f 693e
-0.48795524 -0.003969866 -0.002138921 0.25325853 -0.2981516 0.08202393 0.005359372 -0.0005947618
-0.003110047 2.116865 0.012341314 -0.2924738 -0.19648193 -0.20930073 0.0022297644 -0.0648654
0.31572413 -0.38641518 0.19293341 -0.0013294861 0.0042454395 -0.13453801 0.00816704 0.9899296
-0.05928106 -0.1156168 -0.00032579247 0.717622 0.23947953 -0.5084951 0.6984735 0.019747758
0.0103762895 0.19896698 0.003052627 0.68837655 -0.08005065 -0.22501129 -0.10957707 -0.24556196
0.21679235 -0.20435242 -0.55593896 0.13103768 0.14548647 -0.022882331 -0.11995141 -0.04645101
0.5642534 -0.0052199517 -0.0014796588 0.9179269 0.5850165 0.050150838 -0.32257843 0.011041061
-0.18992507 -0.0015661413 0.19948317 0.18028313 -0.3197482 0.0032587012 0.001970773 -0.93319046
-0.21721601 0.11099105 -0.23295024 -0.17829604 0.13712148 0.23495844 0.0057202694 -0.15880233
-0.048102017 -0.063173205 -0.048164163 1.0017993 -0.083285816 0.3831262 -0.36981776 0.007240243
0.0007524907 -0.75197494 -0.22210744 0.11345289 -1.4158914 0.0043799463 0.004569877 0.41952115
-0.35514817 0.8487568 -0.6142717 0.010437036 -0.00053791323 -0.15834609 -0.39137968 -0.1628366
-0.25632977 0.270548 0.15369245 0.32533422 -0.3037602 -0.39802122 -0.8827242 -0.001340609
0.0008398806 -0.7109017 0.6332058 0.5231044 -6.455034e-05 -0.003974771 -0.0023442209 2.0573823
0.01889754 -0.28713048 0.08570262 -0.3067651 -0.21843556 -0.19187394 -0.23100477 0.07239225
-0.09754194 0.002676911 -0.003562515 -0.6557585 0.72424555 0.029212527 -0.3539734 -0.26484233
0.15028962 0.1558959 -0.2524419 -0.12826854 -1.9038649 0.008035626 -0.0014643811 -0.25038475
-0.32362768 0.20885532 0.3246005 -0.08646054 -0.06737104 0.14429383 0.06038297 -0.13445973
-0.37327576 -0.23285438 0.039644483 0.0058164014 0.40476292 -0.058427464 -0.09968757 -0.39094448
-0.3731897 0.18166484 0.33717996 -0.0007336776 -1.8573304 0.016780881 0.0034855679 -0.5366808
-0.123005874 0.08838102 -1.6318247 0.009671732 0.0005044694 -0.4692967 -0.12728576 -0.34525165
0.71530664 -0.00052432064 0.002295414 -0.95280474 0.7318354 0.07535171 -0.22642867 -0.025918256
-0.28906256 -0.018794814 0.22891033 -0.18350942 0.6849977 -0.009986401 -0.000492028 0.49144027
-0.3040678 -0.3509199 -0.0032839235 -0.01976868 0.013058908 0.11392422 0.18744023 1.178816
0.312675 -0.39888585 0.04264413 -0.019792575 0.10945063 -0.10020521 0.13011959 -0.3087592
0.21744113 0.54426885 -0.008304241 -0.2875294 -0.5319973 -0.014523654 -0.00383582 0.075710356
-0.02393481 0.8802892 0.00046583053 0.00022304253 -0.000619073 1.3157029 0.45097375 -0.0029189403
0.22483668 0.13242938 0.040560782 -0.11837798 0.061931532 0.029297171 -0.120793246 -0.0021780112
0.0066457894 -0.6519066 0.04157562 0.578388 0.019866684 -0.018854067 -0.013336482 -0.1310441
0.20536996 1.2925478 0.9818342 -0.009342497 -0.0024594627 -0.24942109 -0.13697875 -0.5141025
-1.8879167 0.011141058 0.0045590685 -0.7120203 -0.29738942 0.24237858 0.0021816823 -0.001654579
0.0012169688 2.0613625 -0.3270155 -0.16647814 -0.52224 0.002289355 0.0071757995 0.22808832

encoder.1.bias f4 [50]
00000000: 7f41 783e f15c 7bbb 6562 cbbc 6230 12be
00000010: d30e bebd 0cec 00bf c411 febd deee 05be
00000020: d6ba 8fbe 023c aabe 5c43 0c3e 5950 c9be
00000030: 2503 38bf c90a 233e 1cfb 3b3c ab2c 973e
00000040: cc91 bbbe d278 913c 39dc 9abb 761f 89be
00000050: 0e4c 513d e6a1 0fbe 8748 813c 7916 bebe
00000060: 187a 0cbe ac97 90be 030f ac3c 84b0 e83c
00000070: 9172 b6be b044 76be e8b4 babe 7da9 5cbe
00000080: f9bf d6be d14d 9fbe 2c08 143c badb 3ebb
00000090: 36fb b2be 35ac 793d 81fd 83be 3a13 15bf
000000a0: 11dc 8a3c ac13 46bb 2d96 623c ebe9 97be
000000b0: d411 0bbf 54d9 2e3c f00a 3cbc 732f e93c
000000c0: e5af 8bbe 39ce 93ba
0.24243735 -0.0038354958 -0.024827192 -0.14276269 -0.09280171 -0.5036018 -0.12405732 -0.13079402
-0.28072232 -0.33248907 0.1369757 -0.39319113 -0.718798 0.15922083 0.011473443 0.29526266
-0.36634672 0.017757807 -0.0047259596 -0.26781815 0.051097922 -0.14026603 0.015781654 -0.3712652
-0.1371845 -0.28240716 0.021003252 0.028404482 -0.35634282 -0.2404964 -0.36466146 -0.2154903
-0.4194334 -0.31114057 0.009035151 -0.0029122666 -0.34957284 0.060955245 -0.25779346 -0.5823246
0.016950639 -0.0030224128 0.01382975 -0.29670653 -0.5432408 0.010671932 -0.011477217 0.028465008
-0.27282634 -0.0011276669

encoder.4.weight f4 [50, 50]
00000000: 2786 903d f8d0 b2be a40e b0bd d50b f1bd
00000010: a945 59be fe10 e93d b96c 92bc 47c9 813d
00000020: f3de 1c3d ff9c b53d 925b 333e 3c26 ae3b
00000030: ef26 c4bd 9969 8e3c 7a62 3d3e 2654 5fbc
00000040: 19b0 0dbe e8ac 2fbb 8618 b4be af92 cabd
00000050: f0c5 81bd 17ff 063d 754b 4f3e 4cdb cfbc
00000060: 8894 873d e4fa 0dbd dd0d a53d 7d19 7e3e
00000070: 9909 c93c 1a66 ce3d 52ad 2d3e 4633 63bd
00000080: 07eb 193d dd49 8c3d de6d 823d 7b2d 77be
00000090: cb32 11ba 97bf 46bd 2712 423d 3504 613e
000000a0: 9afc 4e3e 6bb4 a2be 7e7e 3dbb 8b54 91bd
000000b0: 9288 b83e dcea 85bc 4a36 8cbe 7bd8 4abc
000000c0: 6cbf 373d bcb4 b0bd 554b b93d 2f47 313b
000000d0: ffef 8c3d e1ae fabd cc04 87bb 8928 533e
000000e0: 9638 93bd 4d22 8e3c b719 46bc 9c17 993d
000000f0: 1db1 c03b ba98 d9bd 516a e8bd c16c 033e
00000100: f38b 623d d19f 53bd 900b 05be 7ccf 233c
00000110: bec5 493b a1ed 853c 5923 8ebb 9d79 00bd
00000120: 387a 393e 0d23 533d f203 553d c3a9 9cbd
00000130: 7a73 9d3e 5a48 983e 34d4 64bc e83a 063e
00000140: 66bd debd be15 05be 8b66 dd3c 86e1 153d
00000150: 62ae 1c3e ba61 46bd 6f13 c33d 3e87 02bc
00000160: 74a2 06be c3ae 7e3e cb29 683e 2722 94bc
00000170: ca3a acbd 6ce6 c0bd 559f 0d3e ae8f 0b3e
00000180: 8302 00be b356 c1bd 1c26 59bd 0b23 353d
00000190: efb7 e33c 1bee a3be 77ce e53d 8d43 3c3d
000001a0: 15db 6fbc e896 a1bd dac8 39bd 26f7 d439
000001b0: ba7e 47be a1f1 0f3e 8e56 a03c d7a6 093e
000001c0: f265 023e 4687 ed3d 2f93 64be 4690 743c
000001d0: 0b80 66bd c664 71bd 5eb2 5abe 854c a13d
000001e0: b198 4d3e 0834 e0bd fae3 65be 8756 2c3d
000001f0: 4d88 b9bc 300c 863d 2090 3c3d 9ae8 b7bc
00000200: 2d11 51be 836b 27bd f42a 4fbe 997c 23bd
00000210: e1c9 c83d 3440 0abe 2367 18bc 2f9e 05be
00000220: 016d dd3d d83e 073e d1c3 d0bc a212 6dbe
00000230: 95e8 13bd 6bda 1ebe 2fba edbd dfb7 c8bb
00000240: 9432 1abe f408 d53d ebb6 8d3d fdb0 c5bd
00000250: 837e d0bd 5f1d 15be 3122 47be c5eb 60be
00000260: 9b10 893c 9fae 99bc ca60 27bd 58a2 563e
00000270: 98a0 003e 89b1 693d 2fee 2b3d 896a e9bd
00000280: eac7 e5bc b616 f6bd c732 d33d 0fb2 35be
00000290: 1fac c33c 1b34 47be 371e c8bd c95c 8dbe
000002a0: 44c2 5abe 0e69 84bd 2306 9abe 4fe0 cc3d
000002b0: 1469 8abd a81d 8abc 5cb5 3ebc 2a8f 703d
000002c0: 6f68 7fbd 7ec7 8bbc 697a 723d 13dd c73d
000002d0: 6991 3d3e 2e93 bfbd 2e8b 11bd e742 e1bd
000002e0: 184d 7e3d a2e3 2dbe b8c6 b13c 21b6 8cbe
000002f0: f8ed a13c 8ff2 603e ad19 bebd 486c 62be
00000300: 1700 33be 7ce2 063e ace8 9e3e c4f9 7abd
00000310: aa8f 79be af39 7a3d f58e ab3d be6c f1bd
00000320: 2c10 1c3e 37c0 cdbd 1eb6 8cbd baa3 e93e
00000330: 45ff 0cbe 69c2 8e3e cc4c 9ebd d72d d03d
00000340: c4ab 1aba 5eee c0bd c0ba 34bd da4e e43d
00000350: 6b10 7dbd d510 6ebd 2361 653d a7c2 02bd
00000360: 31a0 f8bd c2cd 8a3d aeb8 4ebe 86e2 093d
00000370: 15f8 54bb f5e0 2fbd db62 75bd 09fa aa3d
00000380: f724 8ebd 3a24 883d 6289 b03d 2e61 a83d
00000390: 04d2 84bb 68c0 683d 5c8f aabd aa3c aa3e
000003a0: 7354 5cbd 76dc 5e3d 971d 663e e5bf 983c
000003b0: c3a1 07be 8d47 7cbd f6a1 ae3e 7e3e f33d
000003c0: 78ec 1ebc 6995 72be ebee 39bd e6a6 323d
000003d0: 69ff a6bd 3ea4 4d3d 515a b33c 0582 e0bd
000003e0: aea0 6fbd b8f3 213e 159e c2bd cfee 94bc
000003f0: 935b 7fbd cbf4 993e 0b82 85bc 535e 833e
0.070568375 -0.34925056 -0.085965425 -0.11769835 -0.2121798 0.11380194 -0.017874109 0.06337219
0.03829856 0.08867835 0.175154 0.0053146165 -0.095777385 0.017384337 0.18494597 -0.013630902
-0.13836707 -0.002680594 -0.3517496 -0.09891259 -0.06336582 0.032958116 0.20243628 -0.025373124
0.06620127 -0.034663096 0.08059285 0.2481441 0.02454071 0.10078068 0.16960648 -0.05546882
0.037577655 0.06850026 0.06368612 -0.24138443 -0.000553888 -0.048522558 0.047380593 0.21974261
0.20213547 -0.31778273 -0.0028914507 -0.070962034 0.36041695 -0.016347341 -0.2738517 -0.0123807145
0.04486029 -0.08628222 0.090475716 0.0027050485 0.06881713 -0.12240387 -0.004120445 0.20620932
-0.07188527 0.01735034 -0.012091092 0.07475206 0.0058804885 -0.106248334 -0.11348403 0.12834455
0.055309247 -0.051666085 -0.12992692 0.009998199 0.003078803 0.016348662 -0.00433771 -0.03136598
0.18113029 0.0515471 0.052005716 -0.07649567 0.30752164 0.297427 -0.013966609 0.13108408
-0.10875969 -0.12996575 0.027026435 0.03659203 0.15300897 -0.048433043 0.09525191 -0.007966815
-0.13147908 0.24871354 0.22672193 -0.018082691 -0.084096506 -0.094189495 0.13830312 0.13629028
-0.12500958 -0.09440365 -0.05301486 0.044222873 0.027797667 -0.32017598 0.11221021 0.04596286
-0.014639636 -0.07890111 -0.045357563 0.0004061993 -0.19481936 0.14057018 0.019572522 0.1344255
0.12734202 0.11598067 -0.22321771 0.014926976 -0.056274455 -0.058933996 -0.21357104 0.07875923
0.20077778 -0.10947424 -0.22450247 0.042074706 -0.022648001 0.06545293 0.046035886 -0.02244978
-0.20416708 -0.040874016 -0.20231229 -0.039913747 0.0980413 -0.13501054 -0.009301933 -0.13048624
0.108118065 0.13207567 -0.025483998 -0.23151639 -0.03611048 -0.15513007 -0.11607777 -0.006125435
-0.15058357 0.10402098 0.069196545 -0.096528985 -0.1018038 -0.14561985 -0.19446637 -0.21964939
0.01673155 -0.018760024 -0.04086379 0.20960367 0.12561262 0.057054076 0.041975196 -0.11397273
-0.028049428 -0.120160505 0.103124194 -0.17743705 0.023885785 -0.1945347 -0.09771388 -0.27609852
-0.21363169 -0.0646535 -0.30082807 0.10003721 -0.06758323 -0.016859844 -0.011639919 0.058730282
-0.062355455 -0.017062899 0.05919877 0.097589634 0.18512501 -0.09354244 -0.035533123 -0.10999089
0.06208524 -0.16981366 0.021701202 -0.27482703 0.019766793 0.21967529 -0.09282241 -0.22111619
-0.17480503 0.13172334 0.3103689 -0.06127335 -0.2437121 0.061090168 0.08376876 -0.11788319
0.15240544 -0.10046428 -0.068706736 0.45632726 -0.13769253 0.27882698 -0.077294916 0.10164993
-0.0005900229 -0.09420465 -0.04412341 0.11147852 -0.061783236 -0.05812152 0.05600084 -0.031923916
-0.12139929 0.067775264 -0.20187637 0.033663295 -0.0032496501 -0.042939145 -0.05990873 0.08348472
-0.06940644 0.06647535 0.08619954 0.082216606 -0.004053356 0.056824118 -0.08328125 0.33249408
-0.053791475 0.054409467 0.22472225 0.01864619 -0.13245301 -0.061591674 0.3410794 0.11877154
-0.009699933 -0.23689808 -0.045393866 0.043616198 -0.08154184 0.05020546 0.021893652 -0.10962299
-0.058502845 0.15815628 -0.09502808 -0.018180279 -0.06234319 0.30069575 -0.01629736 0.256579

encoder.4.bias f4 [50]
00000000: 81e2 2bbb 4446 3abb 8cda 333c 660d 303c
00000010: 13e3 a7b9 40a7 b8ba 5431 24bf fe56 13bc
00000020: 2532 41be 891b 8fbc 437d 39bc 9a22 443c
00000030: 1dba 1ebb 72e1 adb9 fdc3 3fbe fcd8 88bc
00000040: 345d 203c d144 25bb 0526 70bc d10f 10bf
00000050: 4b6f bcbd 4d48 45bc 3fe8 71be 74f0 9aba
00000060: 5454 e8b9 874a 82bb 9e0c 1cbc 364f 8bba
00000070: 45ed fc3b 6e1b f7ba 247f 90ba 337c 83bc
00000080: bede 1a3c 3cd2 11be ad4d 56be c20b 38be
00000090: b58b 88be 75c0 63bd ffd9 07bf 865b 5dbb
000000a0: bd67 e03b 5470 08be f617 51bc b9e5 97bd
000000b0: d064 31be 8308 3a3c 0bc5 38be dd57 29bc
000000c0: 746e 82bb b76d 7a3c
-0.0026227536 -0.002842323 0.010977399 0.010745382 -0.00032021906 -0.001408793 -0.6413777 -0.0089929085
-0.18866785 -0.017469184 -0.011321369 0.01197114 -0.002421982 -0.000331651 -0.18727107 -0.016705029
0.009787846 -0.002521802 -0.014657502 -0.56274134 -0.09200915 -0.012041164 -0.23623751 -0.0011820928
-0.00044313318 -0.0039761695 -0.009524493 -0.0010628465 0.0077187144 -0.0018852779 -0.0011024219 -0.016050434
0.00945252 -0.14240354 -0.20928068 -0.17973235 -0.26669088 -0.055603463 -0.5306701 -0.0033776476
0.006848304 -0.133241 -0.01276206 -0.07416863 -0.17323613 0.011354568 -0.18043916 -0.01033589
-0.003980452 0.015284947

encoder.7.weight f4 [20, 50]
00000000: acbb f43d 301d e03d d204 293c ec01 8abe
00000010: 60d9 343c fa2c f43c 7dd7 9cbd 1f24 253f
00000020: 7826 b1bd dca8 a83e 26d4 0d3e 89af 89be
00000030: 02dc b1be f67d 49be 71e0 03be 410a 9d3e
00000040: cf02 6f3c 1f51 d73e ae85 24be e4ef 36bd
00000050: 3c65 91bd 1208 b33e 5323 1bbe 76fa f03e
00000060: ce41 95bd f8dd 0c3f 7e82 d73e 2d7f 103f
00000070: 19e1 36be bec8 6cbd 3136 5abe 35d2 ea3e
00000080: 4301 2ebe 74cb 1ebc 4148 b6bd 6109 63bd
00000090: 3c6d 4fbd c565 5f3c eefa d23d e628 7bbe
000000a0: ded4 1bbe 2b2d c2bd b4c9 113e fdaf 063e
000000b0: 8d49 043e 4306 77be 6039 b8bd 75f4 e23d
000000c0: 2763 89be 0273 8cbe ea06 133d 9ee5 4cbc
000000d0: 25a9 a4bd 9fd2 03bc 6242 8d3e b0fb bf3e
000000e0: 509d 82bd 078a 5b3e f7c9 0a3e c2c9 943e
000000f0: dea7 833e 1d0c 413b 1525 58bc d378 14bd
00000100: 7fe4 043e b64f 2f3d 185b c0bc 0892 9d3e
00000110: 24f4 db3c 8ce7 bf3d 35ee bc3c ffa7 e33d
00000120: 8644 e5bb b3c5 803e 850f 153e 019e 493d
00000130: 108a 643e bb89 e03d 719b 9c3d d9a6 763e
00000140: 2dfd 21bc 6ec3 703d 5b5e 873d e68d 59bd
00000150: 5a86 bb3d 80bd 3dbd 7ccf a13d 22fa 4a3c
00000160: 3bb9 eb3d e733 79bc 1038 3a3d 6e2f 33bd
00000170: 97ea 073c 957b 913e d111 0ebd 23b2 d33c
00000180: d1ed d83d 7620 623c dee1 d5bc 869c 023d
00000190: f9fe db3e 2a91 2e3e a91b 99be 9c47 8b3e
000001a0: 2841 7cbe ee68 9dbe bd4a 79be 3a53 b2bd
000001b0: 121a 3abe 3fe3 21be 94c7 f0be aeeb 29bc
000001c0: 4d7d 863c e876 d4bd 3159 693d 7101 54be
000001d0: d404 83be 6475 1fbe 8078 2c3d 5630 26be
000001e0: 70a3 7abe edbd f5bd facd 00bf c6c8 27be
000001f0: 9b29 04be a3e6 66bd 6dfc db3b 30cc 28be
00000200: 0eac 8e3e ec77 3bbe 6fa1 ab3c e649 e9bd
00000210: 3b2f 373d 4241 e53d db16 68be 5d27 aa3c
00000220: b604 92be 6c7d 523d fec8 56be 77a1 a73c
00000230: dc52 b43e b9bd bf3d e669 9abe 0ddf bcbe
00000240: 2b46 023e ea54 883d 30f6 2d3d 4e7e e53e
00000250: 99d2 0f3c 4a86 553e b7d4 e03c b513 013e
00000260: 0bfd eabd 99a2 fd3b e06e f5bc d5b7 78bd
00000270: fc80 40bd ca65 183e f5b7 05be b1bf fd3e
00000280: 75f8 083e 0a49 d73c 33dc 353e 686e 7d3e
00000290: 5cfe 1c3d 39d0 e0bc 2c2b 91bd d040 163e
000002a0: 5011 893e 7297 3ebe 0391 c0bc a586 573e
000002b0: 0100 833e bf80 463e caae 213e d2a5 823e
000002c0: fa49 8e3e 6a78 463e 594f 30bb c6d0 d43d
000002d0: 4450 863e 5a03 cd3c 168e ae3c 3091 ed3c
000002e0: 6017 b43e 4d51 8cbd b46c 31bd aec2 d43e
000002f0: 337f 1fbd e710 833d bdd1 e9ba 1aa2 78bd
00000300: 5d0e 36bb 47e2 e33e 14f2 063e 2eca 0abc
00000310: 5c59 c0bd fda6 253d 08ca d83d 6160 cdb9
00000320: 576b 97be 3a19 f43c b426 e8bd 6e44 74be
00000330: c6f1 97bd 7970 11be b4ec ddbd c5fe c2bc
00000340: 89b9 3fbe f37a ba3d 92d6 433d f61d ca3b
00000350: 2700 863e 9696 983e 955a 2b3c 305c 1ebe
00000360: 9dec cfbd 46c8 b43b 08aa 1d3e 8bd0 47be
00000370: 9a4f 0ebd 082c 11be 9d22 a93e ea22 af3c
00000380: 3785 c33e f3ce ccbc 98e1 27bd 7cb8 ba3c
00000390: eb34 ddbd 0f95 633d fc29 663e 4285 e7bd
000003a0: 928b b4bc aa21 66bd d710 953d eb7d 11bd
000003b0: f3a9 9dbd a24d 8f3e ea15 ddbc f8c1 803e
000003c0: 218d 12be 1365 fd3d e939 3b3e 48c5 463e
000003d0: f480 673d 0c21 10be 679c 6c3d a772 8cbe
000003e0: dfb7 853e a793 0fbe f86b 89be 8ce9 85be
000003f0: 75b9 143e bdd4 50be f74b dc3e 6b32 983e
0.11949858 0.10943067 0.010316091 -0.2695459 0.011038154 0.029806603 -0.07658289 0.6450824
-0.086499155 0.3294133 0.1385046 -0.26891735 -0.34738165 -0.19676957 -0.12878586 0.30671886
0.014588072 0.42054078 -0.1606662 -0.04466237 -0.07099387 0.34967095 -0.15150194 0.47066087
-0.07287942 0.550262 0.42091745 0.56444055 -0.17859305 -0.05780863 -0.21309735 0.458635
-0.16992669 -0.009692062 -0.089005 -0.055428866 -0.050641283 0.013635104 0.10301767 -0.2452732
-0.15217921 -0.09481271 0.142371 0.13153072 0.12918682 -0.24123482 -0.089953184 0.11081783
-0.2683346 -0.27431494 0.035895266 -0.012505917 -0.08040074 -0.008045821 0.2758971 0.3749671
-0.06377661 0.21439372 0.13553606 0.2906018 0.2571401 0.0029456683 -0.013192435 -0.03624804
0.1297779 0.042800628 -0.023480937 0.30775476 0.026849814 0.09370336 0.023062805 0.11116027
-0.006996694 0.25150833 0.14556701 0.04922295 0.22318292 0.1096377 0.076468356 0.24087085
-0.009887022 0.058780126 0.06609794 -0.05311384 0.09156485 -0.0463233 0.07900903 0.012388738
0.11509939 -0.015210128 0.04546362 -0.043746404 0.008295677 0.28414598 -0.03468496 0.025841778
0.10592235 0.013801685 -0.026108678 0.031887554 0.42967966 0.17047563 -0.29903916 0.2720307
-0.2463423 -0.30744117 -0.24344917 -0.087072805 -0.18174008 -0.15809344 -0.47027266 -0.010371132
0.01641717 -0.10374242 0.056969825 -0.20703675 -0.2558962 -0.15572125 0.042107105 -0.16229376
-0.24476409 -0.11999116 -0.50314295 -0.16385183 -0.12906496 -0.056372296 0.006713441 -0.16484141
0.27865642 -0.18307465 0.020951001 -0.11391048 0.044722777 0.111940876 -0.22664969 0.020770723
-0.2851922 0.051389143 -0.2097511 0.020462735 0.35219467 0.093623586 -0.3015892 -0.36888924
0.1272208 0.06656821 0.04247111 0.44822925 0.008778238 0.20852008 0.02744518 0.12605174
-0.11474045 0.0077403304 -0.029960096 -0.06072219 -0.04699801 0.1488258 -0.13058455 0.4956031
0.13376029 0.026279945 0.1775978 0.24749148 0.038328514 -0.027443038 -0.070883125 0.14673162
0.2677102 -0.1861246 -0.023506647 0.21047457 0.2558594 0.1938505 0.15789333 0.25517136
0.27790815 0.19381872 -0.0026902764 0.10391383 0.26233113 0.025026012 0.021307986 0.028999895
0.35174084 -0.068514444 -0.043316558 0.4155478 -0.038939666 0.06399708 -0.0017838996 -0.060701467
-0.0027779557 0.44508573 0.13178283 -0.008471055 -0.09392044 0.040442456 0.105854094 -0.00039172455
-0.2957408 0.029797185 -0.11335507 -0.23854229 -0.074191615 -0.14203061 -0.10836163 -0.023803124
-0.1872312 0.09105482 0.047812052 0.0061681224 0.2617199 0.29802388 0.010458608 -0.15464854
-0.10152552 0.0055170385 0.15396893 -0.19513147 -0.034743883 -0.14176953 0.3303422 0.021378953
0.38187572 -0.025001025 -0.040986627 0.022793047 -0.10801109 0.055562075 0.22476953 -0.11304714
-0.022039209 -0.05618445 0.072786026 -0.035520475 -0.07698431 0.27988917 -0.026987989 0.25147986
-0.14311649 0.12372794 0.1828381 0.19411194 0.056519464 -0.14075106 0.057766344 -0.27431223
0.26116845 -0.14021169 -0.26840186 -0.26154745 0.14523871 -0.20393653 0.43026707 0.29725966

encoder.7.bias f4 [20]
00000000: 0b19 203c 67f0 8cbb 24f7 91bb 1425 f2ba
00000010: 690a 01bb e58a 193c 0cff edbe 0883 73bf
00000020: f13f 913b 735a 03bc 4c8a 50be d6d6 b93b
00000030: 6e8a a7be d298 5b3a 3e40 7cbb d307 9fbb
00000040: c8df 14bb 5c6d 003a 00e0 9cb3 7ecd e1be
0.009771596 -0.004301119 -0.0044545103 -0.0018474185 -0.0019690043 0.009371494 -0.46483648 -0.9512181
0.0044326712 -0.00801717 -0.20365256 0.0056713624 -0.327228 0.0008376959 -0.003849044 -0.0048532276
-0.0022716392 0.00048991083 -7.3050614e-08 -0.4410209

encoder.10.weight f4 [4, 20]
00000000: 37b8 313f eb51 5f3e d0cf 47bf 3087 69be
00000010: 86db ddbe 7207 143f 2c8b 233f c456 983f
00000020: 5996 1b3f 65a7 f3be 2c91 3bbe f34c 103f
00000030: 7c89 613e e556 4f3f a9a0 eabe 9f3c 5e3f
00000040: 5baf 5dbe 1f95 8cbe f2ed bdbe 45a4 703f
00000050: 811f a7be b112 2cbf 9a4f ffbe 35b3 d0bd
00000060: 1d89 243f cf2f bfbe 9ebb af3d 5cd4 093f
00000070: fe5f 65be 8fca e2be 907b e6bd f2f0 cdbe
00000080: 3ccf 87bd fcc3 b6be cc9e 2c3f cfbd b9be
00000090: 1e01 21be 1932 8f3e ea48 073f eee2 553e
000000a0: a3d7 2bbf 13ec 333e dc7b d03e a541 03be
000000b0: 9d17 133f 7f6d 043f 21ea 663e ff4f b33b
000000c0: d3f2 1ebf 9806 bf3e 225f 41be 4692 aa3e
000000d0: c86b 843e 75cf 42bf 7aef 193f 5a64 50bf
000000e0: db11 3cbe 6388 7a3e db67 003f cd0b 4ebd
000000f0: c7a6 f13e 9b8b 57be c366 ea3e 9fee dfbe
00000100: eedc bebe ec38 12be a0d3 0ebe 704f d3be
00000110: b104 b23e 1c50 933e 3805 13be de08 07be
00000120: 1275 50be b5e6 123f cbf4 c6be 1d7c 1c3f
00000130: 1a1a edbe 61fb 95be 100f 9cbe d306 92be
0.69421715 0.21808593 -0.7805147 -0.22805476 -0.43331546 0.5782386 0.63884234 1.1901479
0.6077629 -0.4758865 -0.18317097 0.56367415 0.22025102 0.80991966 -0.458257 0.8681125
-0.21648924 -0.2745752 -0.370956 0.94000655 -0.32641223 -0.6721602 -0.4986542 -0.10190431
0.6427172 -0.37341163 0.08580707 0.5383966 -0.223999 -0.44295165 -0.112540364 -0.4022289
-0.06631324 -0.356964 0.67429805 -0.36277625 -0.15723082 0.2796791 0.52845633 0.20887348
-0.6712591 0.17570524 0.40719497 -0.1281801 0.57457906 0.5172958 0.2255025 0.0054721828
-0.6208927 0.37309718 -0.18883947 0.33314723 0.2586348 -0.76097804 0.6013104 -0.81403124
-0.18366186 0.2446609 0.5015847 -0.050304223 0.47197554 -0.21049349 0.45781526 -0.4373674
-0.3727793 -0.14279526 -0.13947916 -0.41271544 0.34769204 0.28772056 -0.1435746 -0.13186976
-0.20357159 0.5738328 -0.38858637 0.6112688 -0.46308976 -0.2929335 -0.30480242 -0.2852083

encoder.10.bias f4 [4]
00000000: 163d 30be 6314 34be fcbe 453e 4d27 523e
-0.17210802 -0.17585902 0.19311136 0.20522805

decoder.0.weight f4 [20, 4]
00000000: d99f 65be 6172 5c3e f3d9 2d3f 63cd b33f
00000010: 8c75 c83e 261b bbbe 6bf6 19bf 0c76 183f
00000020: 2a9e 5dbe 82c5 24be fb09 423f b6a6 1a3f
00000030: 3eb0 a8bd 7d38 7cbf 2c26 74bf 7074 553f
00000040: 529c 973b 87b3 233e bcc8 b93e a2cb 493f
00000050: ece6 403f b841 bcbe 224c 103e 3e3d 5fbf
00000060: 8a31 9a3f c0ca 12be 7d7c 063f 41d0 20bf
00000070: a621 013f 65f3 8dbe 125e 0fbf a589 d3be
00000080: e904 abbe 217e 2c3f fb36 20be c632 debe
00000090: b433 773e 16ee e83e 720f 693e 436c eebe
000000a0: 2875 4abe 9b63 b13e 6dc5 a43e b27d 27be
000000b0: 68fc b3bf f679 0a3f 5973 ddbe 4906 253f
000000c0: 8c3c ed3d 0525 72bf 7888 06bf 0487 df3e
000000d0: 951b 013f 72b1 dd3e 1cb1 e73d 03c0 883c
000000e0: cadf 113c b094 b9be 66a9 e0be 4f6e 38be
000000f0: dafd ac3e b27a e7be db2f 0d3f cd2d cfbe
00000100: e9f1 82bf a071 3dbe 915d 253e 3572 dcbe
00000110: 6300 6bbf 2cf4 a5be e4e8 083f 8b26 06be
00000120: 1906 12bf b897 123f 384f e33d 0389 91be
00000130: 1f2a 533e df52 88be 8471 2ebe e99f 63be
-0.22424258 0.21528007 0.6791069 1.4047054 0.3915218 -0.3654415 -0.6014163 0.59555125
-0.21642366 -0.16090968 0.7579648 0.6041063 -0.082367405 -0.98523694 -0.95370746 0.83380795
0.004626789 0.15986453 0.3628596 0.78826344 0.7535236 -0.3676889 0.14091542 -0.87202823
1.2046368 -0.14335155 0.52533704 -0.6281777 0.5044197 -0.27724758 -0.56002915 -0.41315952
-0.33402184 0.6737996 -0.15645973 -0.43398112 0.24140817 0.45494145 0.22759798 -0.46566972
-0.19771254 0.34646305 0.32181874 -0.16356543 -1.4061403 0.5409235 -0.43252066 0.64462715
0.11583814 -0.9458774 -0.52551985 0.43657696 0.5043271 0.43299443 0.11313078 0.01669312
0.008903453 -0.36246252 -0.4387924 -0.1801083 0.33787423 -0.45210797 0.55151147 -0.4046463
-1.0230075 -0.18500376 0.16148974 -0.43055883 -0.91797465 -0.3241285 0.5348036 -0.1310064
-0.57040554 0.57262754 0.11099094 -0.28424844 0.20621537 -0.26625726 -0.1703549 -0.2222897

decoder.0.bias f4 [20]
00000000: d959 32bf f851 dd3a 954a a2be 3b8f 2d3d
00000010: 4194 7cbe 1176 3c3e f66c 1b3e c4e7 ae3e
00000020: 122d 49be b103 d93e 362c 463e 4fcf 48be
00000030: 095c 6d3d 4b5a d3be b78f f2be 70cb ffbd
00000040: b958 12be 2fb1 1dbe bca2 943e 539c 263e
-0.69668347 0.001688539 -0.31697527 0.042372923 -0.2466593 0.18404414 0.15178284 0.34161198
-0.19646099 0.4238563 0.19352803 -0.19610332 0.0579491 -0.41279826 -0.4737527 -0.124899745
-0.14291658 -0.15399621 0.29030406 0.1627057

decoder.2.weight f4 [50, 20]
00000000: f02f 773e 668b b0be c41b 4fbe 8cb4 62be
00000010: 8103 fd3c 3b46 163e d574 dc3c efb7 ce3d
00000020: 3d11 333e 5920 7c3e bce8 a13c 517b 9d3d
00000030: 791e 2ebe d57e b03d 0d7a 5c3e 586d 9c3e
00000040: 6baf c23d 3d11 3b3e 6147 da3d 8952 37be
00000050: ce0a f9bd 9611 41bd 074a acbc 962f 8d3d
00000060: c7e4 0abe 7b61 18be fba7 4a3e 52eb 3c3d
00000070: c45c 57be 5d49 12be 97a7 ec3d a0b5 cd3d
00000080: ce95 c93d 83b6 1bbe 1a1b b0bd 0f4c 713c
00000090: e87a 593b a99f 5c3e 1cd2 4fbe 9c7a 203e
000000a0: 8512 07be 616f 393e 8bf5 363e 865f 30bd
000000b0: af36 0cbc f998 213e 5cd8 e03d 22d9 16bc
000000c0: c114 b5bd cbac 0a3e 8314 d7bc 7e90 2bbd
000000d0: 828d f13d 9029 4b3d 61df 9fbd 1637 1f3e
000000e0: 8bd1 893b 27e1 04be 160c f5bc deb7 503d
000000f0: 9c26 bcbd b8f1 0d3e 07cc 60bd daab 53bd
00000100: 5c6b 70be b885 a2bb 6873 103e f65f 8b3e
00000110: d3da 703d 0ed6 eabb 563f 3fbd 7274 233e
00000120: 0506 7d3d 38ca a7bd 9bed 60be e38d 863d
00000130: 9fc8 d53d 6bed eabb 74cb 8c3d 2cc0 56bd
00000140: ddd5 e0be 0028 75be 5bf2 f23d 28d4 ac3d
00000150: b004 42be c2b3 1dbd f341 343e aa98 5fbe
00000160: a924 97bd 0070 64be 574f 06be ad95 6f3e
00000170: 1f04 873e fb8b 0abe d67e cdbd 6d4e 913e
00000180: efe8 193e d7ac b83d 6bcb 213e 9c0c 133e
00000190: f276 013e fa3c 4b3e dc83 813e 5fa0 eabd
000001a0: 0816 6e3e 3aa6 583e c66b 6c3e 02bf cbbe
000001b0: af9e 343e 900c 8d3e 381e a1bd f3e5 26be
000001c0: 9ae6 84bd 7095 33be d751 043e 601d e73c
000001d0: a3ee afbc d2d1 debe cc56 2e3e 75d5 2b3d
000001e0: cda0 543e 6390 41be 580c 203d eb6d efbc
000001f0: 2208 fc3d f15c 413e 7d2c 093a 53cc a4bd
00000200: 45b1 ddbd 9cb6 4d3e a78a 98bd 555f 083e
00000210: 3f20 c5bd 9d58 63be ca82 53be cc86 ea3d
00000220: 1ad6 5cbe 778e 87bd 940f dcbc 4c64 fcbd
00000230: 9fb1 a7bd f396 6fbd 60ed e6bd e23d 013c
00000240: 0bc3 25be 336d a63a 436e 403e 4977 913d
00000250: f4bd 313e cd27 043e ce4f 22bd 0a40 043e
00000260: 2c58 b73d b067 28be e66f 13be 259e 24bc
00000270: db7b ef3d 33b8 a73d f99b 88be ca89 2dbc
00000280: 04c5 cf3e 3c15 873e 075c 713e 7b2f 5dbe
00000290: cddf a03e 629b 04bc b166 813e 0d34 67be
000002a0: 1907 c53d cb4a 223e b732 213e 63db 2e3d
000002b0: 0091 67bd 78c5 a73c 0820 25be bc98 99be
000002c0: fd20 32be 6d0c 08be 6cc4 cb3d f7a6 ae3d
000002d0: 0a23 253e b3d1 5dbc 29b1 523e 4c6b 033e
000002e0: 4a90 6fbd b94e 84be 89a4 dfbd 80aa e0bd
000002f0: 0310 13be bcff be3d 25ce 063e 651b 233e
00000300: 905c b7bc ff09 eabd 94ea e23d 4ba9 50be
00000310: 7056 27be 7bf1 163e e9d1 2a3e 12f3 273e
00000320: 413c 3ebd 0fd8 223e 5691 4ebd 0ab1 32bd
00000330: 061f 503e 4eaf 333e 178e 503e 084e 173e
00000340: ef54 363e a622 76bd 093e 973d 834b 643d
00000350: 194f 1bbe 4d05 0fbd 5cab 943d 4b42 3cbe
00000360: 49b5 613e 0441 2ebe c92a 663e 6365 19bd
00000370: 7a91 423e 8a78 043d 31fa a13d 18b4 e33d
00000380: 7b44 c5bd e97e 2cbe 107c 6abe fd8d 053e
00000390: dd53 a7bd e53c 38be a3c0 6dbe 1389 62be
000003a0: 18ba 193c 8e2d bdbd ab11 7cbd 06dd 59be
000003b0: 94d0 0dbe da5b ab3d 5f02 3abd bf25 8c3d
000003c0: 1a95 653d bb43 8d3e 45cd a2bc df57 c03e
000003d0: c464 4f3d 70e6 24bd be01 023c ad85 003c
000003e0: 61e8 453e 5330 333e 4475 0b3e 897f a1be
000003f0: fcf0 a83e 8444 ddbd 9690 fb3d 3e41 b73c
0.2413938 -0.34481353 -0.20225435 -0.22139186 0.03088546 0.14675228 0.026911179 0.10093676
0.17487045 0.24621715 0.019764297 0.07689536 -0.17003812 0.08617941 0.21530934 0.30552173
0.095061146 0.18268295 0.10658146 -0.17902578 -0.12160264 -0.047135912 -0.021031393 0.06893842
-0.13563834 -0.14880936 0.19790642 0.046122856 -0.21031481 -0.14285798 0.11555403 0.10044408
0.09843026 -0.15206341 -0.08598919 0.014727606 0.003318483 0.2154528 -0.20294994 0.15671772
-0.13190658 0.18108894 0.17867105 -0.04305985 -0.008557959 0.1578101 0.10978767 -0.009207042
-0.08841849 0.13542478 -0.026254898 -0.041885845 0.117945686 0.049600184 -0.07806278 0.15548357
0.0042058877 -0.12976514 -0.02991299 0.0509566 -0.09187052 0.1386174 -0.054882076 -0.051677562
-0.23478454 -0.004959788 0.14106524 0.2722165 0.058802437 -0.0071666306 -0.04669126 0.15962389
0.06177332 -0.08192867 -0.2196564 0.065700315 0.10438656 -0.0071694157 0.06874743 -0.052429363
-0.43913165 -0.2394104 0.11862632 0.08438903 -0.189471 -0.03850151 0.17603283 -0.2183558
-0.07380039 -0.2230835 -0.13116203 0.2339694 0.26370332 -0.13529961 -0.10033958 0.28380147
0.15030263 0.090173416 0.15800254 0.14360279 0.1264303 0.1984748 0.25295913 -0.114563696
0.23250592 0.2115716 0.23087987 -0.39794165 0.17638658 0.27548647 -0.07867092 -0.16298656
-0.06489296 -0.17537475 0.12921844 0.02821225 -0.021476096 -0.43519455 0.17025298 0.041951615
0.20764466 -0.18902735 0.039074272 -0.029227218 0.12306239 0.1888311 0.00052327645 -0.08046784
-0.10824827 0.20089191 -0.07448321 0.13317616 -0.09625291 -0.22201772 -0.20655361 0.11451492
-0.21566048 -0.0661897 -0.026862897 -0.123238176 -0.081881754 -0.058493566 -0.112757444 0.007888289
-0.16187684 0.0012697339 0.18792062 0.0710283 0.17357618 0.12905808 -0.03962689 0.12915054
0.08952364 -0.16445804 -0.14398155 -0.01004747 0.116935454 0.0818943 -0.26681498 -0.0105919335
0.40579998 0.26383388 0.23570262 -0.21600144 0.31420746 -0.008093687 0.2527366 -0.2257845
0.096204944 0.15848844 0.15742002 0.042689692 -0.056534767 0.020479903 -0.161255 -0.2999934
-0.17395397 -0.1328599 0.09949574 0.0852794 0.16126648 -0.013538766 0.20575394 0.128339
-0.058487214 -0.2584131 -0.109200545 -0.1097002 -0.14361577 0.09326121 0.13164575 0.15928419
-0.022383004 -0.11427688 0.110798985 -0.2037708 -0.16341567 0.14740555 0.16681637 0.16401318
-0.04644418 0.15902732 -0.050431572 -0.04362587 0.20324335 0.17547342 0.20366703 0.1477586
0.17805837 -0.060091637 0.07384879 0.055736076 -0.15166892 -0.034917165 0.07259247 -0.18384664
0.22041811 -0.17016989 0.22477259 -0.037450206 0.19000807 0.032341518 0.07909048 0.111183345
-0.09632202 -0.16845287 -0.22898889 0.13042445 -0.081702925 -0.1799198 -0.23218016 -0.22122602
0.009382747 -0.092372045 -0.061540287 -0.2127572 -0.13849097 0.08367129 -0.045412418 0.06843137
0.056050397 0.27590737 -0.01987327 0.3756704 0.050633207 -0.040258825 0.007934986 0.007844371
0.19326927 0.17498903 0.13618952 -0.31542614 0.32996356 -0.10804084 0.12283437 0.022369977

decoder.2.bias f4 [50]
00000000: 4f87 843e e421 b7bd 52d6 0f3d d486 203e
00000010: 89fa 843d 8d76 1e3e 8782 1cbe 40c3 503e
00000020: a5cf 003e 394c 68be 1e5a 9e3d 505c f1bd
00000030: 2b00 ffbd 0a7f 84be 9ce0 03be db1a b7bd
00000040: e198 9abe 6edb bf3d 4bfc 87bd 4481 dbbd
00000050: f7a9 163e fc56 943b 32e9 a9bd 7a89 113c
00000060: c121 6d3e 9d69 103e a94d 21be 7fb0 42be
00000070: d789 0b3e 3732 e2bd 53b8 48be 025e 9b3c
00000080: acc5 913d 9b83 be3c 16e5 2bbe 2b91 78bd
00000090: 7c39 9bbe 759d be3b 29e9 e33d 1fdb e4bd
000000a0: 44c1 14be 076f ccbd 2b57 03be 3fa0 48be
000000b0: 9f43 d03e e216 083e b3b4 c63d d87e b0bd
000000c0: 19b8 cdbd 72bb 73bd
0.25884482 -0.08942011 0.0351165 0.15676433 0.06493098 0.15474911 -0.15284167 0.20386982
0.1257921 -0.22685327 0.07732032 -0.11785185 -0.12451204 -0.25878173 -0.1287865 -0.08940669
-0.30194762 0.09368025 -0.06639918 -0.10718015 0.14713274 0.004526971 -0.082964316 0.008882875
0.23157407 0.14102788 -0.15752281 -0.1901264 0.136268 -0.11044734 -0.19601564 0.018965725
0.07117781 0.023256114 -0.16786608 -0.060685318 -0.30317295 0.00581711 0.11128456 -0.111746065
-0.1452685 -0.09982114 -0.1282622 -0.19592379 0.4067659 0.13289979 0.097024344 -0.086179435
-0.100448795 -0.059504934

decoder.4.weight f4 [50, 50]
00000000: 3305 353d 7a4d 07be 3964 a3bd 1f4f 67bd
00000010: c5ab 933c 9096 58bd 29b0 c9bd 2c4a 0fbd
00000020: 6930 80bd ff0e c73c df2f 8b3d f2be 033c
00000030: 2d93 d6bd fa50 d5bd 0569 fe3d 4bb5 81bd
00000040: f6ea 383c f54f a1bd 9263 0e3c 634d abbc
00000050: 5d1b d0bd 9b18 adbd f019 d2bd 0823 c03d
00000060: bcb4 afbd 82a7 093e c7e6 0cbe 23bd 77bd
00000070: 9bea f2bd 91a8 e2bd 5c76 003e f99f ce3d
00000080: b08e 223d ac9c 1cbb b5e6 05be f9b6 e4bd
00000090: 933d ec3c a83d 67bd 57c5 0bbe b960 193d
000000a0: de2a bb3c c111 afbd d2d9 913c 1328 9abd
000000b0: 6b9d a6bd d36f 043e ad23 f63d 78f6 05bc
000000c0: 5346 9ebd 0da9 b7bd 3887 fdbd d2ea dbbd
000000d0: 864c 9a3d ddb9 2b3c e9ab 38bd c8a1 5e3e
000000e0: a4e2 b13c d1da 25bd 7888 633e b384 ef3c
000000f0: 5bc9 0f3e 575a ca3d 600d f73d 795d 033e
00000100: ffb7 b9be a5c7 c8bd 4039 723e 4916 703c
00000110: 870e ad3d f609 a63c 0691 20be d508 e73d
00000120: 5fc5 3ebc 065b c63d 84e1 c73d 6f94 6a3e
00000130: 8ca7 2d3e e61c cabd 6609 823e 8d8c 0dbd
00000140: 5983 08be 068e d5bd 5d34 8bbd 5291 f43d
00000150: d939 233e cf6c efbb 0779 f23c 7349 0c3e
00000160: 8c67 08be 73ec 023e f994 09be 0084 40be
00000170: 4467 75bd a0b8 f93d 716f 7a3e e877 32bd
00000180: f0e4 07bd fcad e63d 2fbd a3bc f629 443e
00000190: 7ffa 7b3e 26fc 19be 7c08 6ebd db5d 82bd
000001a0: b091 033e dcd2 693d ffd5 e0bd d547 80bd
000001b0: d677 213d 0d59 74bd bba2 58bd 95c9 183d
000001c0: afb2 19be affb 4f3d 358a 803e 244d 80bd
000001d0: 2065 7b3d 6a25 94bd 6a61 65bb 6f5a 73bd
000001e0: 7f71 df3d b32d 75bd d528 cfbd 82b6 acbd
000001f0: be56 6d3d aa54 88bc 7023 633c 2b88 50bd
00000200: 20fb 4fbc 02c4 d4bd 9913 eb3c 1b33 b7bd
00000210: 5dad 753c 3f59 f43d 90ca d5bd 2a3f bd3c
00000220: c8a5 cb3d d8b4 023e 13f1 f6bd 55af 2a3b
00000230: f56b 2b3d dbea 903d e3b0 cc3d 7f2b e23c
00000240: b6a3 7f3e a641 d7bd 7e14 833d ce29 3bbe
00000250: 7995 c4bc 6694 763e 4bf1 b1bd 76ff f7bd
00000260: 668f 97bd 01e4 1d3e 5a69 6abd 04ee 85be
00000270: 6387 c93d 4253 b6bc e40a 28bd b13c ad3d
00000280: fbc2 ecbc 978d d6bd ac9a 37be ad21 c83e
00000290: 4dbc 47be 8d5e 17be 3532 dfbc 37b5 09bd
000002a0: b598 e3bb 9640 e43d cd09 c03e 9721 d93d
000002b0: e0e2 5bbd 2570 893d 9153 e03d b5ff a7bc
000002c0: 945a 0cbe 86ad 963d 85aa 7d3d 53f1 823d
000002d0: 9c4b f7bd 520f 983e fb1a 74bd 30fd dc3c
000002e0: bad4 313d 7225 80bd 70f2 8c3e 95ac 8abb
000002f0: cf96 e73b 814a 803d 2ff2 bf3d a217 ae3e
00000300: 3308 183d d208 d83d 8e4e 583e cd21 433c
00000310: 86f0 923e 1a6a 53be a532 f33d 7b7a fdbd
00000320: d761 fe3d a9ed 5abd bba4 0d3d e3d2 6dbc
00000330: ec32 ba3d 47cb 3fbd 89d4 f43c f02a 553d
00000340: 37f8 0cbd 836c 3e3e 583f 74bd e356 1d3e
00000350: 41b6 f9bd e668 013f 89b6 b13d 9068 57bd
00000360: e78c 853e e7d2 a1bd d072 153e f54d 323d
00000370: 224c 033e e7fd f53c aaca 6bba 5ca1 a6bd
00000380: 98f5 90bd 2f4d 093e dd11 0c3d 34e1 d4bd
00000390: 5020 90bd 4da4 50be 321a fd3d b346 403d
000003a0: a216 043d bd7b 533e 551b 173d 3bf4 ea3d
000003b0: 2230 b53e 141f 01be 6f9a c13d fe0b 7c3e
000003c0: d79c d5bb 57dc 343e d3e9 ce3d 8ab9 aa3d
000003d0: a05e 5d3e 94a3 263d f605 263d f451 743d
000003e0: d8da 1c3e 271b babe b531 cfbc affe c0bc
000003f0: 36d8 bd3d 24b5 bb3c d111 e83d 9be1 be3b
0.04419441 -0.13213149 -0.079781 -0.05647194 0.018026242 -0.052877963 -0.09848053 -0.034982845
-0.062592335 0.024299143 0.0679624 0.00804113 -0.1047729 -0.10415836 0.12422375 -0.06333407
0.011286488 -0.07876579 0.008690732 -0.020910924 -0.10161469 -0.08451959 -0.102588534 0.09381682
-0.08579394 0.13442805 -0.1375991 -0.06048311 -0.11861154 -0.11067308 0.1254515 0.10089106
0.03968686 -0.0023897095 -0.13076289 -0.11167712 0.028837955 -0.056455284 -0.13649498 0.037445758
0.02284759 -0.08548308 0.01780406 -0.07527175 -0.08135494 0.12933283 0.12018523 -0.0081764385
-0.07728257 -0.08967791 -0.123793066 -0.10738148 0.07534127 0.010481325 -0.04508582 0.21741402
0.021714516 -0.040491883 0.22220027 0.02923808 0.14041655 0.09880512 0.12063098 0.12828626
-0.3627319 -0.09803704 0.23654652 0.014653751 0.084500365 0.020268422 -0.15680322 0.112809815
-0.011643737 0.0968533 0.097598106 0.22908185 0.16958445 -0.09868793 0.25397795 -0.034557868
-0.13331355 -0.104274794 -0.06797097 0.1194178 0.15940036 -0.007306672 0.029598726 0.13699894
-0.1332075 0.1278551 -0.13435735 -0.18800354 -0.059912935 0.121934175 0.24456574 -0.043571383
-0.033177316 0.11263654 -0.01998767 0.19156632 0.24607275 -0.15037593 -0.05811356 -0.06365558
0.12848544 0.057085857 -0.109783165 -0.06263701 0.039420925 -0.059655238 -0.052889567 0.03730162
-0.15009569 0.050777134 0.25105444 -0.062647134 0.061375737 -0.07233699 -0.003500069 -0.059412416
0.109103195 -0.059858035 -0.1011521 -0.08433248 0.057944052 -0.016641933 0.013863429 -0.05091111
-0.01269415 -0.10388948 0.028695868 -0.089452945 0.014994946 0.11931085 -0.10439026 0.023101408
0.0994373 0.12764299 -0.120577 0.0026044447 0.041851003 0.07076045 0.09994676 0.027608631
0.24964795 -0.10510568 0.06400393 -0.18277666 -0.023997055 0.24080047 -0.08688601 -0.12109272
-0.07400398 0.15419008 -0.057229377 -0.26158154 0.09840276 -0.022256497 -0.04102601 0.084588416
-0.028901568 -0.10476225 -0.17930096 0.39088193 -0.19505425 -0.14782162 -0.02724562 -0.033620086
-0.0069456943 0.11145131 0.37507477 0.1060211 -0.05368316 0.06710843 0.10953439 -0.020507673
-0.13706428 0.07357316 0.0619302 0.06393685 -0.12074968 0.29699188 -0.059596043 0.026976198
0.043415762 -0.06257142 0.27528715 -0.004231999 0.0070675383 0.062642105 0.09372365 0.34002405
0.037117194 0.10548557 0.21123716 0.011909914 0.2869913 -0.20645943 0.11874894 -0.12376877
0.12421005 -0.053449307 0.034580927 -0.014515611 0.09091744 -0.04682472 0.0298865 0.0520429
-0.034416404 0.18596081 -0.05963072 0.15365176 -0.12192965 0.5055069 0.08677394 -0.052589953
0.26084062 -0.079015546 0.14594579 0.043531377 0.12822011 0.030028297 -0.0008994738 -0.081362456
-0.07078093 0.1340835 0.034196723 -0.103945166 -0.07037413 -0.20375176 0.12358512 0.046942424
0.032248147 0.20652671 0.0368913 0.114723645 0.35388285 -0.12609512 0.09453284 0.2461395
-0.006518941 0.17662178 0.10103192 0.0833617 0.21618128 0.040683344 0.04053303 0.05964847
0.15317857 -0.3634884 -0.025292257 -0.023558943 0.092697546 0.022913523 0.11331523 0.005825234

decoder.4.bias f4 [50]
00000000: e930 00be 6062 073e cb6a b13e cfa2 aabd
00000010: 1d4a ad3d 3d92 f8bd bc76 76be d7e3 be3d
00000020: 7b33 17be 5d28 983d cf3d ffbd c349 dcbd
00000030: db15 13be 3919 b73a a1b5 923d 68e5 26be
00000040: 58d8 44bb a44b bbbb 3362 953d e094 d4bd
00000050: 355b cdbd f411 883b eeeb 913e 716f f9bc
00000060: 1a02 d63d 4d4a 9ebd 9f07 4dbd a5e8 7ebd
00000070: b756 d5bc ef74 483e f93e 3c3d 419d fd3d
00000080: 07ea 4b3c 9e80 08bd a6a2 843a d645 683d
00000090: dd3d 203e 53b2 733d 8edf 073e b79b 7abb
000000a0: 8746 d4bc ce9d 083d 82a9 1b3e 4c18 843d
000000b0: 3c81 05be 550f 7abd fb25 843d 920f 8ebd
000000c0: eb78 453e 6dcc e1bb
-0.12518658 0.13221121 0.3465179 -0.083318345 0.084614016 -0.12137268 -0.24068731 0.09320801
-0.14765732 0.07429574 -0.12462961 -0.107562564 -0.14363806 0.0013969309 0.07163549 -0.16298449
-0.0030036177 -0.005715804 0.07294121 -0.10379958 -0.10027162 0.004152531 0.28500313 -0.030448647
0.104496196 -0.077290155 -0.050056096 -0.062233586 -0.026042325 0.19575857 0.045958493 0.123835094
0.012445933 -0.033325784 0.0010119274 0.056707226 0.15648599 0.059496235 0.13268873 -0.0038239786
-0.025912536 0.03335362 0.15201381 0.06449947 -0.1303758 -0.061049778 0.06452557 -0.069365636
0.19284408 -0.0068908245

decoder.6.weight f4 [6, 50]
00000000: 5a60 983d 4d46 bbbe 3350 8b3e c109 b1be
00000010: d09c 923d aab8 be3d 589a 353e bc31 7b3e
00000020: 0393 3abe 7636 f4bd 9db8 9ebd 2850 a4bd
00000030: fc0a 0dbe 04af 3e3e fac9 b73e 7914 bbbb
00000040: 7391 24bd 4ece 123d 86e6 88bd bb87 b4bd
00000050: 3362 aebd 1d17 8bbe 0fd9 163e bb4f fbbd
00000060: 6db0 763e 0548 f3bd 88fd b03e 471b cebd
00000070: f012 a43d 5a2c 4f3e 34cf 9e3e 66d9 0fbe
00000080: 1dd9 e53d f420 083e 45d3 77bf 4a94 bebd
00000090: 8b12 b93e ff40 a83e 39cf 333e 1c80 043e
000000a0: 07a4 9f3d db28 49bf aebd 56be 7109 9d3d
000000b0: 716a bcbd ce7b d73d f4ea a33e 2c36 72be
000000c0: d649 85be e342 693a 2ed6 3bbd 454c 8dbe
000000d0: 8347 c6bc a4bf 84be b396 a1bd 06ed 0bbd
000000e0: 35a9 90bd c787 51bd 285b 373e 34b2 fd3d
000000f0: 2ab3 9ebd be23 07bd f63b 99bd 0ddd cbbc
00000100: 8035 b9be 8d12 823d fbff 09be bc7a f03c
00000110: 82e6 1a3d 4d1e e43d 38a4 ed3b 5cc3 47bc
00000120: 4b10 41be 302e 8c3d c4e4 24bd 1753 983d
00000130: 8e59 d03d 3cd9 d5bd 5a43 6a3e f71c 37bd
00000140: 8a89 61bd 813a e23d a1a6 e23d a524 063d
00000150: 6432 693d 7bdd 843e d3c6 273d d280 a53d
00000160: 68e8 9cbe 7976 77bd a9b7 c43d 5552 063e
00000170: f468 5dbe 768a f73d 4b51 f63d 2033 99bd
00000180: 99fc 7d3e c0c0 2cbe ea16 d13b 51e2 59bd
00000190: 9b1a 633d 834d 033d 3158 a93d 0164 83bd
000001a0: 0050 0cbd 41b7 50bc a760 12bd 7a46 e4bc
000001b0: 934c 31bc d6cd 3abc 4e23 cfbd 2b94 253d
000001c0: dd6b d4bd ec3a c73b a96f e4bd 23c5 0dbe
000001d0: e991 533d 5cb5 febd c6ea 15bd 9f38 adbd
000001e0: 91c8 3fbd ab28 d83d fb3e 03bd f75a e9bd
000001f0: 7aeb 6abd 49a5 483c c33c 89bd f9ef a53c
00000200: ae4d d93d 6e7c a33d 4d5f afbc a554 a0bd
00000210: 1cb3 10be 62f8 a63d 912b a73c eb69 173e
00000220: d4a1 e83d 1218 383c d2e1 3dbe 0b60 39bd
00000230: 629e 35bd 8596 173c 5315 073d fc97 7b3d
00000240: 04e8 f43c d6a7 d2bd 1d2d 173e 61f9 1dbc
00000250: eebf 9ebc a7a1 f1bd 6c25 823d db55 ca3e
00000260: 1603 ce3e 5f8b 21bf 38e2 17bf 5326 b0bc
00000270: 7961 99bf 511f 353e e565 f4be 1b01 ddbd
00000280: bb1e 293d 2013 fb3d 3bd5 d03d f8d3 f3be
00000290: a094 4dbf be3e f43d 03ac 02bf e2d5 e3bd
000002a0: 5241 1ebf e683 05bd 69a8 91bd d356 febd
000002b0: 2500 283e 692c d9bd 5852 cebc 8b89 483c
000002c0: c5ff a93e 052a c4bc f950 10be 7ca2 a13e
000002d0: a6e5 093e 27f1 40bf d796 3f3d ba04 d6bd
000002e0: db94 92be e59e 67bd 1055 d3be 468c 92bf
000002f0: 4509 a13d 0e54 04be 509f 083e ce4b ef3e
00000300: 47d3 79bd 1c14 053e e201 0c3d 0441 f13d
00000310: 6d88 f73c e815 053e b12a 8ebf 10ff 8abd
00000320: 644d 9c3d f74b bbbe 4ab0 983e 1356 ac3e
00000330: 0fc2 6e3e c0f5 bebd e168 ddbe abfa 663d
00000340: b7af ec3d aa64 6c3b 397e bfbd 60eb da3d
00000350: d398 8e3d 3980 823e 17bb 84bf 6152 083e
00000360: c5b4 debe 56d0 883d d6c7 29bf efe7 8b3d
00000370: f813 22bd f35a 2cbe 35ed a63e 5955 933d
00000380: 5dc4 ab3e 13c7 b93d 4aa8 3ebe 263c d83d
00000390: b46b 9b3e cf56 673e 66e8 5dbe f02c 4abf
000003a0: e305 d93d 8a6c e23d e12e 09bf ed04 803e
000003b0: 5036 70bf 64c8 ac3d 07ef a03d bb44 97bc
000003c0: 91d5 0bbe 60e4 9b3e 6b34 0b3d 8927 f2bd
000003d0: ed64 54bd fc15 b2bd c8fd 35bf be6d ddbc
000003e0: 5619 51bf 9726 4fbd 0daf f23d d1cd 6abe
000003f0: c46b 10be 27d7 debe 5ba5 5ebf 7cf1 0e3d
0.074402526 -0.36577073 0.27209625 -0.34577754 0.07158816 0.093125656 0.17734659 0.24530691
-0.18220143 -0.1192445 -0.07750056 -0.08023101 -0.13773721 0.1862145 0.35896283 -0.0057092276
-0.040177774 0.03584128 -0.06684594 -0.08814951 -0.08514824 -0.27166072 0.14731239 -0.12271067
0.24090739 -0.11878971 0.3456843 -0.100637965 0.080114245 0.20231763 0.31017458 -0.14047775
0.11223052 0.1329382 -0.96806747 -0.09305628 0.3614696 0.32862088 0.17559518 0.12939495
0.077949576 -0.78577965 -0.20970795 0.076678164 -0.091999896 0.10521661 0.32015193 -0.23653477
-0.26032895 0.00088982115 -0.045858555 -0.27597252 -0.024204021 -0.2592746 -0.07890072 -0.03416159
-0.07063524 -0.051154878 0.17905867 0.12387505 -0.077490166 -0.03299307 -0.0748214 -0.024885679
-0.3617363 0.063511945 -0.13476555 0.0293554 0.037817486 0.11138592 0.0072522424 -0.012192573
-0.18853872 0.06844747 -0.04025723 0.07437723 0.10173331 -0.10441825 0.22877255 -0.044705357
-0.055062808 0.11046315 0.11066938 0.03274979 0.056932822 0.25950226 0.040961098 0.08081211
-0.30646062 -0.06041572 0.09605343 0.13117345 -0.21622068 0.12086956 0.12027224 -0.074804544
0.2480339 -0.16870403 0.0063809054 -0.053194348 0.055445295 0.032056343 0.08268774 -0.064155586
-0.03425598 -0.012739004 -0.035736706 -0.027865637 -0.010821479 -0.011401614 -0.10114156 0.040424507
-0.10372136 0.006080022 -0.1115411 -0.13844733 0.051652823 -0.12436935 -0.03660085 -0.08458065
-0.046822134 0.10554632 -0.032042485 -0.11394303 -0.057353474 0.012246438 -0.067010425 0.02025603
0.10610519 0.079827175 -0.021407748 -0.07828645 -0.14130825 0.08152844 0.020406516 0.14786498
0.11358991 0.011236208 -0.18543175 -0.04525761 -0.0443405 0.009252195 0.03297932 0.06142424
0.02989579 -0.102859184 0.14763303 -0.009641976 -0.019378629 -0.11798411 0.06354794 0.39518628
0.4023673 -0.6310329 -0.5932956 -0.02150265 -1.1982871 0.17687728 -0.4773399 -0.107912265
0.041289072 0.12259507 0.101969205 -0.47622657 -0.8030491 0.119260296 -0.5104372 -0.11124779
-0.6181842 -0.03259649 -0.071122 -0.12418904 0.16406305 -0.10604174 -0.025185749 0.012239824
0.3320295 -0.023945818 -0.14093389 0.31569278 0.1346651 -0.7536797 0.04677471 -0.1045012
-0.28629193 -0.056548018 -0.41275835 -1.1449058 0.07863096 -0.1292269 0.13342023 0.46737522
-0.060992505 0.12995952 0.034181483 0.11779979 0.03021642 0.12996638 -1.1106778 -0.067869306
0.076319486 -0.36581394 0.29821998 0.3365942 0.23316215 -0.09324217 -0.4324408 0.0563914
0.115569524 0.0036070743 -0.09350247 0.106894255 0.06962743 0.2548845 -1.0369595 0.13312675
-0.4349729 0.06680362 -0.6632055 0.06831347 -0.039569825 -0.1683157 0.3260285 0.07194013
0.3354825 0.090711735 -0.18618885 0.105583474 0.30355608 0.22591709 -0.21670684 -0.7897482
0.10596826 0.110558584 -0.53587157 0.25003758 -0.93832874 0.08436659 0.07858091 -0.01846539
-0.13655688 0.30447674 0.033985537 -0.11823947 -0.051854063 -0.086955994 -0.71090364 -0.027029868
-0.81679285 -0.05057391 0.118497945 -0.22930075 -0.1410361 -0.43523523 -0.8697106 0.034898266

decoder.6.bias f4 [6]
00000000: 46cf fe3d 64f2 c6be 8f58 fcbc 7209 153f
00000010: fbf1 6d3e dc11 c43e
0.12441878 -0.38856804 -0.030803947 0.5821754 0.2323684 0.38294876

cluster_layer.weight f4 [4, 4]
00000000: dd19 ccbd 0fe0 cabd 1533 cf3d f3ff cc3d
00000010: 94ae adbd 42fb dabd 139c d33d 73d6 d33d
00000020: 2f3b cdbd 56e1 c63d 5fd0 cf3d 2a27 cfbd
00000030: 2abb d33d f3b0 c9bd cbd9 d0bd c294 c43d
-0.099658705 -0.09906017 0.10117165 0.10009756 -0.08480564 -0.10692455 0.10332503 0.10343637
-0.10021054 0.09710948 0.101471655 -0.10114892 0.10338433 -0.098482035 -0.10197791 0.09598686
