RiskViz Folder/RiskViz Folder/model/checkpoint_250.tar (torch, 110796 bytes, 51 tensors)

encoder.1.weight f4 [50, 6]
0	0xbecdf937	-0.40229198
1	0xbb133274	-0.0022460492
2	0x3aa7c3f6	0.001279949
3	0x3e96cb05	0.29451767
4	0xbe801251	-0.25013974
5	0x3be8ec47	0.0071082446
6	0x3a25e6a8	0.0006328621
7	0xbb24d930	-0.0025153868
8	0xbb4fc053	-0.0031700328
9	0x3fe0422a	1.7520192
10	0x3cf45d79	0.029829727
11	0xbea0eb88	-0.31429696
12	0xbe36e313	-0.1786006
13	0xbe516dbd	-0.20452018
14	0x3c949b32	0.01814041
15	0xbdc16dab	-0.09444746
16	0x3e9da5c4	0.30790532
17	0xbeb515fc	-0.35368335
18	0x3e96ca24	0.29451096
19	0x3a6bae0a	0.00089904724
20	0x3bac330c	0.0052551087
21	0xbdc8246c	-0.09772572
22	0x3bfa8848	0.0076456405
23	0x3f1ee152	0.6206256
24	0xbdc44297	-0.095830135
25	0xbd100574	-0.03516145
26	0x3c4e53a3	0.012593183
27	0x3f2bf7f3	0.67175215
28	0x3e785fc6	0.24255285
29	0xbee2b2ad	-0.44276944
30	0x3f2afd00	0.667923
31	0x3b59764a	0.0033182078
32	0x3b341d1d	0.0027483173
33	0x3e4f3219	0.20233954
34	0xbccdc221	-0.025116982
35	0x3eefce5e	0.46837133
36	0xbda06ef2	-0.07833661
37	0xbe674735	-0.22585757
38	0xbdd95e0e	-0.10613643
39	0xbe7c3114	-0.24628097
40	0x3e6552bd	0.22394843
41	0xbe514be3	-0.20439105
42	0xbed28ec1	-0.41124538
43	0x3e3b5c79	0.18296994
44	0x3e794a15	0.24344666
45	0xbcabdeb7	-0.020980222
46	0xbdd738a2	-0.10508849
47	0xbd2f4f8f	-0.042800482
48	0x3ec6158c	0.38688314
49	0xbc36e4f9	-0.01116299
50	0xb9a78ca2	-0.00031957502
51	0x3f6d81c0	0.9277611
52	0x3f003752	0.5008441
53	0xbcd8f7eb	-0.026485404
54	0xbea52900	-0.32257843
55	0x3c369937	0.011144928
56	0xbe427bb8	-0.18992507
57	0xba96b337	-0.0011497502
58	0x3e4c84d3	0.19972543
59	0x3e38e7c4	0.18057162
60	0xbe3efa6b	-0.18650214
61	0xbc30c2ce	-0.010788633
62	0x3b9e399c	0.004828645
63	0xbf5eb06e	-0.8698796
64	0xbe52313f	-0.20526598
65	0x3dd6954c	0.10477695
66	0xbe6e8a82	-0.23295024
67	0xbe36933d	-0.17829604
68	0x3e0c6993	0.13712148
69	0x3e7098f2	0.23495844
70	0x3bbb7119	0.0057202694
71	0xbe229d14	-0.15880233
72	0x3dbd6e5c	0.09249565
73	0xbe0ad78f	-0.13558792
74	0xbd430b01	-0.047617916
75	0x3f52dbea	0.8236681
76	0xbd2eec7a	-0.04270599
77	0x3e726098	0.2366966
78	0xbe49f450	-0.19722104
79	0xbb89db44	-0.0042070467
80	0x39e06ff2	0.00042808015
81	0xbf30f4d3	-0.6912357
82	0xbe4e0853	-0.20120363
83	0x3dde3bc2	0.10851242
84	0xbf616430	-0.880435
85	0xbc35d2fb	-0.011097665
86	0xbbe39875	-0.0069456645
87	0x3eef6b97	0.46761772
88	0xbe7f8236	-0.24952015
89	0x3f67f48f	0.9060754
90	0xbf056bff	-0.52117914
91	0x3af788f8	0.0018885424
92	0xb918722a	-0.00014538379
93	0xbe4991c1	-0.19684507
94	0xbec86a7e	-0.39143747
95	0xbe26c897	-0.16287456
96	0xbe84cc18	-0.2593696
97	0x3e8b233e	0.27175325
98	0x3e1fcf6e	0.15606472
99	0x3ea64d7d	0.32480994
100	0xbe9b9c3d	-0.30392638
101	0xbecb5fbb	-0.39721474
102	0xbf2ecdda	-0.68282855
103	0x3b29eef3	0.0025929778
104	0xbc6294a8	-0.013829388
105	0xbf2279a8	-0.6346688
106	0x3f0d2949	0.5514112
107	0x3efe19c1	0.49629024
108	0xba34cf6b	-0.0006897363
109	0xbb61870a	-0.0034412765
110	0xbb80ee7d	-0.00393468
111	0x3fd3e4ca	1.6554196
112	0x3d0a04d1	0.033696
113	0xbea4540e	-0.3209538
114	0x3daf84db	0.08570262
115	0xbe9d1051	-0.3067651
116	0xbe5fad92	-0.21843556
117	0xbe447a9a	-0.19187394
118	0xbe6c8c84	-0.23100477
119	0x3d944263	0.07239225
120	0xbdd12a2b	-0.10213121
121	0x3a9575fc	0.001140296
122	0xbaff7085	-0.001948849
123	0xbf0bc27a	-0.5459362
124	0x3f215cff	0.63032526
125	0x3d8f4fa6	0.069976136
126	0xbeb542cf	-0.35402533
127	0xbe87a856	-0.26495618
128	0x3e167c43	0.1469584
129	0x3e23959c	0.1597504
130	0xbe814011	-0.2524419
131	0xbe02b8c3	-0.12765794
132	0xbfa79f85	-1.3095556
133	0xbbfe60b5	-0.007762993
134	0x3b4a7dc4	0.0030897716
135	0xbe14d68c	-0.14534968
136	0xbea31074	-0.3184849
137	0x3e77a1be	0.24182793
138	0x3ea7b3f7	0.3275449
139	0xbdad7ce1	-0.084710844
140	0xbd86c29a	-0.06580086
141	0x3e18357f	0.14864157
142	0x3d71bf01	0.059020046
143	0xbe0993cf	-0.13435291
144	0xbec05cef	-0.37570903
145	0xbe8264f1	-0.25467637
146	0x3d33f36d	0.04393332
147	0x3b8f9d27	0.0043827477
148	0x3ed1e3b2	0.4099403
149	0xbcb61f3c	-0.02223169
150	0xbdc0e7d1	-0.094192155
151	0xbec9f275	-0.39442793
152	0xbebf85d1	-0.3740678
153	0x3e38a882	0.1803303
154	0x3eb6b02f	0.35681292
155	0xba9f0eef	-0.0012135188
156	0xbf9e0739	-1.2345954
157	0xbca8edbc	-0.020621173
158	0xbba18e1d	-0.0049302713
159	0xbee5bf71	-0.4487262
160	0xbdf0c0a8	-0.11755496
161	0x3dace46f	0.08442008
162	0xbf7bf5f3	-0.98422164
163	0xbc7c3076	-0.015392413
164	0xbc3b8a24	-0.0114465095
165	0xbecd4b34	-0.40096438
166	0xbe025733	-0.12728576
167	0xbe637236	-0.22211537
168	0x3f20a808	0.62756395
169	0xbb89cb6c	-0.004205158
170	0xbb847862	-0.004042671
171	0xbf49728a	-0.786904
172	0x3f29f435	0.66388255
173	0xbc297e5e	-0.01034507
174	0xbe67dceb	-0.22642867
175	0xbcd9f41f	-0.026605664
176	0xbe940002	-0.28906256
177	0xbc9a4013	-0.018829381
178	0x3e6980db	0.2280306
179	0xbe3bef04	-0.18352896
180	0x3f20d2c3	0.62821597
181	0x3991b80c	0.0002779368
182	0x3b908564	0.0044104327
183	0x3eeac6bc	0.45854747
184	0xbe937a12	-0.2880407
185	0xbe59a6bd	-0.21255012
186	0x3c05a5c7	0.0081572
187	0xbb481a87	-0.003053339
188	0x3c2b8ad1	0.010470108
189	0x3e95bb2c	0.29244363
190	0x3e2ffeab	0.17186992
191	0x3f7ef6d3	0.99595374
192	0x3ea97e91	0.33104375
193	0xbecc3ac4	-0.39888585
194	0x3d598aa7	0.053110745
195	0xbcba9a0f	-0.022778539
196	0x3e03997e	0.12851521
197	0xbdccaf13	-0.0999433
198	0x3e046c40	0.12931919
199	0xbeb6c9ba	-0.3570078
200	0x3e53f822	0.20700124
201	0x3ee39929	0.4445279
202	0xbd4b63a4	-0.04965557
203	0xbea2a8e6	-0.31769484
204	0xbeb28880	-0.34869766
205	0xbbdf47ed	-0.006813994
206	0xbbab5f6c	-0.005229881
207	0x3d86d112	0.06582846
208	0xbce050f7	-0.027382357
209	0x3f1a47e6	0.6026596
210	0x3ac834c7	0.0015274518
211	0xb5e6e420	-1.7202728e-06
212	0xbb2685a8	-0.0025409255
213	0x3f871822	1.055424
214	0x3ebc6591	0.3679624
215	0xb9630a6c	-0.0002165229
216	0x3e6664c3	0.22499375
217	0x3e0716ff	0.13192366
218	0x3d29f681	0.04149485
219	0xbdf27028	-0.11837798
220	0x3d7c21da	0.06155572
221	0x3cf0c0bb	0.029388776
222	0xbe8fe67e	-0.2810554
223	0x3c73b9e9	0.014875867
224	0xb93316d0	-0.00017079269
225	0xbf07ac53	-0.5299732
226	0x3d8a714e	0.067598924
227	0x3eaca2c3	0.33717927
228	0xbce235cb	-0.027613541
229	0xbd4bb9f5	-0.04973789
230	0xbb817260	-0.003950402
231	0x3cd7b6bf	0.026332257
232	0x3e392fe2	0.18084672
233	0x3f8ba808	1.0910654
234	0x3f5f0575	0.871177
235	0xbb73663d	-0.0037139796
236	0xbb0f0ce0	-0.0021827742
237	0xbe29f4ec	-0.16597337
238	0xbe1ab11b	-0.15106623
239	0xbeba5cb7	-0.3639886
240	0xbfa2dc25	-1.2723433
241	0xbc29378a	-0.010328183
242	0xbb1a94ec	-0.00235873
243	0xbf1e899e	-0.6192874
244	0xbe8e09ef	-0.27741954
245	0x3e92467c	0.285694
246	0xbb8743a1	-0.004127935
247	0xbb3dd23d	-0.0028964423
248	0xbb5783bf	-0.0032884923
249	0x3fdb39f5	1.7127062
250	0xbe94f0c9	-0.29089954
251	0xbdd02a1b	-0.10164281
252	0xbed218bc	-0.41034496
253	0xbac32702	-0.0014888945
254	0xbbc584ce	-0.0060277944
255	0x3e99b1ff	0.30018613

encoder.1.bias f4 [50]
0	0x3e5072bd	0.20356269
1	0xba257ed6	-0.00063131505
2	0xbc81cda7	-0.015845133
3	0xbdf6ed8e	-0.12057029
4	0xbdd1e5a4	-0.102488786
5	0xbedb61b8	-0.4284799
6	0xbde95b0f	-0.11394321
7	0xbe5c3ac3	-0.21506791
8	0xbe1eff12	-0.15526989
9	0xbeaa199a	-0.33222657
10	0x3d859ed3	0.06524434
11	0xbec95059	-0.39319113
12	0xbf004c96	-0.5011686
13	0x3dac7a03	0.084217094
14	0x3c74c662	0.014939876
15	0x3e852360	0.2600355
16	0xbeb9f03f	-0.36316106
17	0x3cc54f1b	0.024085572
18	0x3abe1986	0.0014503456
19	0xbe891f76	-0.26781815
20	0x3d5c7377	0.053821053
21	0xbe0f3d22	-0.13988164
22	0x3cbc5b28	0.022992685
23	0xbebc898f	-0.368237
24	0xbe1ec790	-0.15505815
25	0xbe8699ae	-0.26289123
26	0x3cc024aa	0.023454983
27	0x3ce508b8	0.027958259
28	0xbe9f8efe	-0.31163782
29	0xbe76eefa	-0.241146
30	0xbea9519e	-0.3307008
31	0xbe410fb4	-0.18853647
32	0xbecc6f4a	-0.39928657
33	0xbeaf5f6a	-0.34252483
34	0x3c80f395	0.015741149
35	0xbaff797a	-0.0019491159
36	0xbeb2c123	-0.34912977
37	0x3dfce6cc	0.123487085
38	0xbe462704	-0.19350821
39	0xbef57bda	-0.47946054
40	0x3cff46a8	0.031161621
41	0xba9b6eb7	-0.0011858557
42	0x3c24b3b0	0.010052606
43	0xbe15650f	-0.14589332
44	0xbecd0165	-0.40040126
45	0xb87483e1	-5.8296955e-05
46	0xbb2d4566	-0.002643907
47	0x3d264b70	0.040599287
48	0xbe886080	-0.26636124
49	0xbb4c90bd	-0.00312142

encoder.4.weight f4 [50, 50]
0	0x3d930e4e	0.07180463
1	0xbea312e8	-0.31850362
2	0xbd438150	-0.047730744
3	0xbccbf2b2	-0.024896
4	0xbe44a04f	-0.19201778
5	0x3df00afb	0.11720844
6	0xbc8eae5a	-0.017417122
7	0x3d9539d7	0.07286423
8	0x3ccdf4b9	0.025141107
9	0x3db5a088	0.088685095
10	0x3e43cabe	0.19120309
11	0x3bae263c	0.0053146165
12	0xbdc41467	-0.09574204
13	0x3d17e5bd	0.03708433
14	0x3e09f917	0.13473926
15	0x3d2396a8	0.0399386
16	0xbe0c3f76	-0.13696083
17	0xbb888b36	-0.004166986
18	0xbea119ca	-0.31464988
19	0xbdca92af	-0.09891259
20	0xbdb82df9	-0.089931436
21	0x3d066267	0.032808688
22	0x3e1c9543	0.15291314
23	0xbcd0edf4	-0.02550409
24	0x3d9b34c7	0.07578426
25	0xbd0d88ec	-0.034554407
26	0x3cf01902	0.0293088
27	0x3e4c568b	0.19954889
28	0x3d5c7201	0.05381966
29	0x3dce661a	0.10078068
30	0x3e098f9b	0.13433687
31	0xbcd82882	-0.026386503
32	0x3d1bb662	0.03801573
33	0x3d90cafe	0.07069968
34	0x3d63945d	0.055561412
35	0xbe474f85	-0.19463928
36	0xb9ffa99c	-0.0004876376
37	0x3c21314d	0.009838414
38	0x3d994483	0.07483771
39	0x3e0f1f99	0.13976897
40	0x3e128fe2	0.143127
41	0xbe97b653	-0.2963129
42	0x3ca72ee3	0.0204081
43	0xbd90ab7b	-0.07063957
44	0x3e988017	0.29785225
45	0xbc7e153c	-0.015507992
46	0xbe4ece3d	-0.20195861
47	0xbc5a0b1e	-0.013308315
48	0x3d1a44e5	0.03766336
49	0xbd5060ab	-0.05087344
50	0x3deffa65	0.11717681
51	0x3d0568c0	0.0325706
52	0x3da3962a	0.07987626
53	0xbdb7770a	-0.08958252
54	0x3c77d134	0.0151255615
55	0x3e47ed5d	0.1952414
56	0xbd92da50	-0.07170546
57	0x3cc40fd0	0.023933321
58	0xb9a0c339	-0.0003066303
59	0x3d99179c	0.07475206
60	0x3d7b7a8f	0.061396178
61	0xbdd998ba	-0.106248334
62	0xbde52b32	-0.111898795
63	0x3e173762	0.1476722
64	0xbc6b375c	-0.01435646
65	0xbdbbeec1	-0.09176398
66	0xbe0335a8	-0.12813437
67	0xbd696572	-0.05698151
68	0x3c672ea8	0.014110245
69	0x3c85eda1	0.016348662
70	0xbd10ca6a	-0.035349287
71	0xbd02d1f4	-0.03193851
72	0x3dd002a0	0.10156751
73	0x3d52830d	0.05139451
74	0x3d6a2091	0.057159964
75	0xbd9c23da	-0.07624026
76	0x3e6646a4	0.22487885
77	0x3e5574c8	0.2084533
78	0xbdaedb1a	-0.08537884
79	0x3e063ae8	0.13108408
80	0xbe1be8c1	-0.15225507
81	0xbde31a75	-0.11089031
82	0x3cde8fc0	0.027168155
83	0x3d246de0	0.040143847
84	0x3e16a46a	0.14711156
85	0xbca1de82	-0.01975942
86	0x3dc312b8	0.09525055
87	0x3d59f2a3	0.053209912
88	0xbdf05eee	-0.117368564
89	0x3e01f642	0.12691596
90	0x3e173d09	0.14769377
91	0xbd134242	-0.03595186
92	0xbdbc250f	-0.09186756
93	0xbdb80a70	-0.08986366
94	0x3d947f82	0.07250883
95	0x3e0a1ff6	0.13488755
96	0xbd8ce31f	-0.068792574
97	0xbdcfa831	-0.10139502
98	0xbd760be2	-0.060069926
99	0x3d555dae	0.052091293
100	0x3cb03433	0.021509266
101	0xbe800d66	-0.25010222
102	0x3dd78998	0.10524291
103	0xbd5b5af8	-0.05355355
104	0xbc5e5724	-0.013570581
105	0xbd9b984b	-0.07597407
106	0xbd3f1c17	-0.046657648
107	0x3b8d7c5c	0.0043178033
108	0xbdd0288c	-0.10163984
109	0x3e0ff1a1	0.14057018
110	0xbb9bb8e9	-0.0047522676
111	0x3e09a6d7	0.1344255
112	0x3e02765f	0.12740467
113	0x3dc24ecc	0.094876856
114	0xbe4072ac	-0.18793744
115	0x3d24bc99	0.040218923
116	0xbd6b9157	-0.057511654
117	0xbc9541c1	-0.01821983
118	0xbe0ebf8c	-0.13940257
119	0x3da14c85	0.07875923
120	0x3dd7501c	0.105133265
121	0xbde0068d	-0.109387495
122	0xbe456e73	-0.19280414
123	0x3d2c5687	0.042074706
124	0xbcfedef0	-0.031112164
125	0x3d85e841	0.065384395
126	0x3d9c4749	0.07630784
127	0x3c6eb14f	0.014568641
128	0xbe0990ff	-0.13434218
129	0xbd2758e0	-0.040856242
130	0xbdfcdda5	-0.12346963
131	0xbd8942ef	-0.0670222
132	0x3dc8cb96	0.09804456
133	0xbe0b685a	-0.13614026
134	0xbcfa5d6e	-0.030562129
135	0xbe1ddaa2	-0.15415433
136	0x3ddd6b10	0.10811436
137	0x3daea511	0.08527578
138	0xbd4605f9	-0.04834554
139	0xbe5ff083	-0.21869092
140	0xbc599f63	-0.01328263
141	0xbdd78e8d	-0.10525236
142	0xbd9f64fb	-0.07782932
143	0xbbc93343	-0.006140144
144	0xbe1160fd	-0.14197154
145	0x3dd83e39	0.10558743
146	0x3ca3a455	0.01997582
147	0xbdb497c6	-0.08818011
148	0xbdcff69b	-0.10154458
149	0xbdcb8d6e	-0.09939085
150	0xbe2bdc03	-0.16783147
151	0xbe40b41b	-0.18818705
152	0x3d202099	0.039093588
153	0x3d688e62	0.05677641
154	0xbcc9a751	-0.024615915
155	0x3e32213c	0.1739549
156	0x3e00de8a	0.12584892
157	0x3d6f4b2a	0.05842129
158	0xbc0620d1	-0.008186535
159	0xbde96a89	-0.11397273
160	0x3c8a1e4b	0.016860148
161	0xbdf616b6	-0.120160505
162	0x3dd380ce	0.10327302
163	0xbdfeb0ef	-0.12436091
164	0x3ccb3012	0.024803195
165	0xbe07d0f5	-0.13263305
166	0xbdc7f093	-0.09762683
167	0xbe893028	-0.26794553
168	0xbe3ddc8f	-0.18541168
169	0xbd84690e	-0.0646535
170	0xbe89f045	-0.26941124
171	0x3dcce0dd	0.10003827
172	0xbd89d007	-0.06729131
173	0xbc8c812c	-0.017151438
174	0xbc2552e9	-0.010090568
175	0x3d709877	0.05873915
176	0xbd7e0398	-0.062015146
177	0xbc890487	-0.016725792
178	0x3db9adbc	0.0906634
179	0x3dc7dd13	0.097589634
180	0x3e41ab1f	0.18912934
181	0xbdcb06b0	-0.09913385
182	0xbd0ff12b	-0.035142105
183	0xbddb1ba7	-0.10698634
184	0x3d84db27	0.064871125
185	0xbdd15e80	-0.102231026
186	0x3cb232bc	0.021752708
187	0xbe7a1f16	-0.24425921
188	0x3cab9bdc	0.020948343
189	0x3e0de430	0.13856578
190	0xbdbd8aaa	-0.09254964
191	0xbe59b7e8	-0.21261561
192	0xbe28d894	-0.16488868
193	0x3e07bf70	0.13256621
194	0x3e611eff	0.2198448
195	0xbd7a9adf	-0.061182853
196	0xbe147f03	-0.14501576
197	0x3d7ad73d	0.061240423
198	0x3da042df	0.07825255
199	0xbdcec852	-0.10096802
200	0x3e40c688	0.18825734
201	0xbda2a014	-0.07940689
202	0xbda55297	-0.080723934
203	0x3e807fbf	0.25097463
204	0xbe0eb3fc	-0.13935846
205	0x3e52beed	0.20580645
206	0xbd9cc798	-0.07655257
207	0x3d5f8699	0.05457172
208	0xbd17de80	-0.037077427
209	0xbdc0f42e	-0.094215736
210	0xbd0be094	-0.03414972
211	0x3de44eda	0.11147852
212	0xbdbb8556	-0.09156291
213	0xbd75bb38	-0.059993
214	0x3dbb0c35	0.09133188
215	0xbd4dd719	-0.05025396
216	0xbe00a5b7	-0.12563215
217	0x3d7032da	0.058642246
218	0xbe27b965	-0.16379316
219	0x3d09e286	0.033663295
220	0x3c424a1a	0.0118584875
221	0xbd304fdc	-0.04304491
222	0xbd8aebca	-0.067832544
223	0x3dab0647	0.08350807
224	0xbdfee7fe	-0.12446593
225	0x3d875fab	0.06610044
226	0x3d9a266e	0.07526861
227	0x3d821a05	0.06352619
228	0xbd9332e9	-0.07187445
229	0x3d68e25c	0.056856498
230	0xbdf1649b	-0.11786767
231	0x3e6ec2a0	0.23316431
232	0xbd6948b1	-0.05695409
233	0x3d087369	0.03331319
234	0x3dbf031b	0.09326764
235	0xbd05bbd7	-0.03264984
236	0xbe06a90c	-0.13150424
237	0xbb4dd27c	-0.0031405976
238	0x3e9466f3	0.28984794
239	0x3d329cc7	0.043606546
240	0xbc8e901c	-0.017402701
241	0xbe2ccf98	-0.16876066
242	0xbd44d8a4	-0.048058167
243	0x3b5c85eb	0.0033649157
244	0xbda8254b	-0.08210238
245	0x3d4f2cd2	0.050579853
246	0x3dffaca9	0.12484104
247	0xbddb14f2	-0.106973544
248	0xbd427e61	-0.047483806
249	0x3dc24d30	0.094873786
250	0xbde3fe95	-0.11132542
251	0x3cf5eebc	0.030021064
252	0xbdc4c1de	-0.0960729
253	0x3d88c4a2	0.0667813
254	0xbda430ae	-0.080170974
255	0x3e1cd8eb	0.15317123

encoder.4.bias f4 [50]
0	0xba849c1b	-0.0010117324
1	0xbbc3a156	-0.0059701605
2	0x3c6b75ff	0.014371394
3	0x3c7bdf8e	0.015373124
4	0xbbcdc6ec	-0.006279817
5	0xbb6b9f08	-0.0035952944
6	0xbf075b2d	-0.528735
7	0xbbd443f6	-0.006477828
8	0xbdd2188d	-0.10258589
9	0xbc057246	-0.008144921
10	0xbd6900c4	-0.056885496
11	0x3b072898	0.002062356
12	0xbbc0e648	-0.0058868267
13	0x3ae6379b	0.0017564179
14	0xbdacf499	-0.08445091
15	0xbc6c8197	-0.0144351935
16	0x3c2c5392	0.010517972
17	0xbc55956e	-0.013036115
18	0xbc380c7a	-0.011233443
19	0xbee2040e	-0.44143718
20	0xbdcd4525	-0.10022954
21	0xbc10a398	-0.008828066
22	0xbe49f4d7	-0.19722305
23	0xbb4c28a4	-0.0031152153
24	0xbbb24e6b	-0.005441477
25	0xbbe4d448	-0.0069833137
26	0xbc75facd	-0.015013409
27	0xbac4d9fe	-0.001501858
28	0xbaf4a3b8	-0.0018664515
29	0xbc02614c	-0.007957768
30	0xbbff65b8	-0.0077941082
31	0xbc3383e2	-0.010956736
32	0x3c539173	0.012913096
33	0xbe0801d0	-0.13281941
34	0xbddf1423	-0.10892513
35	0xbe2e0eb9	-0.16997804
36	0xbe5d4479	-0.21608151
37	0xbd33d8bd	-0.04390787
38	0xbec20b87	-0.3789942
39	0xbbe2ff5e	-0.006927415
40	0x3bb2ed40	0.0054604113
41	0xbdceb91c	-0.100939006
42	0xbc45f932	-0.012083339
43	0xbd3b0c2e	-0.045665912
44	0xbe275bc5	-0.16343601
45	0x3c41e00b	0.011833201
46	0xbdfcfbd5	-0.12352721
47	0xbbfd8342	-0.0077365944
48	0xbbaa3763	-0.005194591
49	0x3bda891e	0.0066691777

encoder.7.weight f4 [20, 50]
0	0x3da45152	0.08023323
1	0x3c90a5d9	0.017657207
2	0x3d0d44f2	0.03448958
3	0xbe683cd5	-0.22679456
4	0x3d0144a5	0.031559605
5	0x3e321518	0.17390859
6	0xbd9c36b5	-0.07627622
7	0x3ef971b4	0.4871956
8	0xbdc5fff2	-0.09667958
9	0x3e7159d5	0.23569424
10	0x3e4bbd78	0.19896495
11	0xbe6497cd	-0.22323532
12	0xbe8c4927	-0.2739956
13	0xbe2d9f9a	-0.16955414
14	0xbe0385ce	-0.12844011
15	0x3e8250a8	0.2545216
16	0x3d463d46	0.04839828
17	0x3e9f581d	0.31121913
18	0xbd806315	-0.062688984
19	0xbd2e85f9	-0.042608235
20	0xbd8bfd5c	-0.06835434
21	0x3e8c99b3	0.27461013
22	0xbdee4898	-0.1163494
23	0x3e9fe980	0.31232834
24	0xbda034cd	-0.07822571
25	0x3ec57e3c	0.38572872
26	0x3eaabf8b	0.3334926
27	0x3ed257dd	0.4108266
28	0xbdec59d7	-0.11540573
29	0xbd2cf2b8	-0.042223662
30	0xbdf3ad15	-0.11898247
31	0x3eb57192	0.3543821
32	0xbdc6db8e	-0.097098455
33	0xbc1ecb74	-0.009692062
34	0xbd502963	-0.05082072
35	0xbd631116	-0.055436216
36	0xbd4bf2db	-0.049792152
37	0x3cee460e	0.029086139
38	0x3dd87924	0.10569981
39	0xbe2a6d74	-0.16643316
40	0xbd9b3624	-0.07578686
41	0xbdc192bb	-0.09451815
42	0x3e2e592d	0.17026205
43	0x3db71e48	0.089413226
44	0x3e04498d	0.12918682
45	0xbe1a32c7	-0.15058433
46	0xbdb8195e	-0.089892134
47	0x3d96e48f	0.07367813
48	0xbe4553eb	-0.19270293
49	0xbe587dc0	-0.2114172
50	0x3d83338c	0.06406316
51	0xbddec0b6	-0.108766004
52	0x3c484ac5	0.012224858
53	0xbd4f933f	-0.050677534
54	0x3d1b7a05	0.037958164
55	0x3e22219a	0.1583313
56	0xbd955bd7	-0.07292908
57	0x3d996f52	0.07491936
58	0x3dc5ca59	0.096577354
59	0x3d237f70	0.039916456
60	0x3c7d48f0	0.015459284
61	0x3d5a2ab8	0.053263396
62	0xbd3587cf	-0.04431897
63	0xbe0c20df	-0.13684414
64	0x3dc6b7b5	0.09703008
65	0xbcde96f3	-0.027171588
66	0x3dc82449	0.09772546
67	0x3e04bdf7	0.12963091
68	0xbc947e3d	-0.018126601
69	0x3dbb6e13	0.09151854
70	0xbd31b5ed	-0.04338639
71	0xbb8d570f	-0.0043133567
72	0xbdf40c00	-0.11916351
73	0x3e0e6b87	0.13908206
74	0x3d773143	0.060349714
75	0xbdd0ab8c	-0.1018897
76	0x3d844bf4	0.064597994
77	0xbca63a70	-0.020291537
78	0x3e0ed6bb	0.139491
79	0x3cc9a085	0.024612674
80	0xbd1bab51	-0.038005177
81	0xbc17cc6e	-0.009265048
82	0x3c68b8b0	0.014204189
83	0xbd5aacec	-0.053387567
84	0xbda36ace	-0.07979356
85	0xbd3e279c	-0.046424493
86	0x3c9f2868	0.019428447
87	0xbde1dd32	-0.11028518
88	0x3dddb43f	0.10825395
89	0xbcaac03a	-0.020843614
90	0x3e1ce2b0	0.1532085
91	0xbda28d3b	-0.07937094
92	0x3d61722e	0.05504053
93	0x3d794827	0.060859825
94	0xbd0fb2d5	-0.035082657
95	0xbd05061d	-0.032476533
96	0x3d378bf6	0.04481121
97	0xbd41a74f	-0.0472787
98	0xbe08f27f	-0.13373755
99	0x3e00600c	0.12536639
100	0x3eab2605	0.33427444
101	0x3deca7cd	0.11555443
102	0xbe5d6fe5	-0.21624716
103	0x3e471b30	0.19443965
104	0xbe23e832	-0.16006544
105	0xbe5f7c10	-0.2182467
106	0xbe766913	-0.2406352
107	0xbdaaf620	-0.08347726
108	0xbe225123	-0.15851264
109	0xbba16cee	-0.0049263155
110	0xbed670cc	-0.41882932
111	0x3b8c5dc1	0.0042836373
112	0x3c83053c	0.015993707
113	0xbdfd63ec	-0.12372574
114	0x3db8d0bd	0.09024189
115	0xbe4275ee	-0.18990299
116	0xbe61488e	-0.22000334
117	0xbdf325b6	-0.11872427
118	0x3d13d7d2	0.036094494
119	0xbe23cb35	-0.15995486
120	0xbe405be4	-0.18785053
121	0xbe043275	-0.12909873
122	0xbecfb04f	-0.405642
123	0xbe24fd44	-0.16112238
124	0xbe11935f	-0.14216374
125	0xbd5ddb68	-0.05416432
126	0x3d11fe5e	0.035642974
127	0xbe27093a	-0.16312113
128	0x3e743aac	0.23850507
129	0xbdf096ce	-0.11747514
130	0x3d12bafe	0.03582286
131	0xbdd64da6	-0.10464029
132	0x3cec4be2	0.028844777
133	0x3de55af7	0.11198991
134	0xbe075889	-0.13217367
135	0x3caaf5cd	0.02086916
136	0xbe65b560	-0.2243247
137	0x3d3b6472	0.04575009
138	0xbe529f76	-0.20568642
139	0x3d2bf5ab	0.041982334
140	0x3e9cbeb5	0.30614248
141	0x3e023566	0.12715682
142	0xbe902f56	-0.28161114
143	0xbe60fb5c	-0.21970886
144	0x3e025541	0.12727834
145	0x3cb6b378	0.022302374
146	0x3da8c0de	0.082399115
147	0x3eb232d3	0.348044
148	0x3cb0d0c0	0.021583915
149	0x3e210613	0.15724973
150	0x3d4e09fd	0.050302494
151	0x3e2a9105	0.16656883
152	0xbe03b611	-0.12862422
153	0x3bac77fa	0.0052633258
154	0x3d315617	0.043294992
155	0x3cd6254b	0.02614083
156	0xbc816ab8	-0.015797958
157	0x3dd880f5	0.105714716
158	0xbdf09774	-0.117476374
159	0x3ee1ef55	0.44127908
160	0x3e7127fc	0.23550409
161	0x3beafe3f	0.007171422
162	0x3e3e7368	0.18598711
163	0x3e5d3e52	0.21605805
164	0x3d278d78	0.0409064
165	0xbd47f16d	-0.048814226
166	0xbd5a680a	-0.053321876
167	0x3d6f29a6	0.05838933
168	0x3e65f8de	0.22458217
169	0xbe19bb95	-0.15012963
170	0xbd2d72cb	-0.042345803
171	0x3e28cd0c	0.16484469
172	0x3e4846b9	0.19558229
173	0x3e1a2005	0.15051277
174	0x3e003968	0.12521899
175	0x3e3ce78f	0.18447708
176	0x3e772f3f	0.24139117
177	0x3e085e5c	0.13317245
178	0xbbde9ec6	-0.0067938296
179	0x3e1771f8	0.1478957
180	0x3e41cf6d	0.18926783
181	0xbc14234f	-0.009041621
182	0x3d30e501	0.043187145
183	0x3ceeafaf	0.029136507
184	0x3e7fa31b	0.24964564
185	0xbd8bf9f9	-0.06834788
186	0xbd2dc841	-0.042427305
187	0x3ec2edc7	0.38072035
188	0xbb7cc9b4	-0.0038572373
189	0x3d973534	0.073831946
190	0xbd0e2bf2	-0.03470988
191	0xbd87f80c	-0.06639108
192	0xbc88269d	-0.016619975
193	0x3ec3bf4e	0.3823189
194	0x3e070eca	0.13189235
195	0xbbc60074	-0.0060425345
196	0xbdc8b451	-0.098000176
197	0x3d80ac76	0.06282894
198	0x3db6483e	0.08900498
199	0xb9ea4fe2	-0.00044691475
200	0xbe8d5765	-0.2760574
201	0x3d005eec	0.031340525
202	0xbdffa6ab	-0.12482961
203	0xbe328e95	-0.17437203
204	0xbd93d35c	-0.07218048
205	0xbdde073b	-0.10841223
206	0xbdac9107	-0.08426099
207	0x3c3c89a1	0.011507423
208	0xbe13ad4c	-0.14421576
209	0x3de2c3a0	0.11072469
210	0xbc07979a	-0.008275891
211	0x3d8f0537	0.069834165
212	0x3e7f89e6	0.24954948
213	0x3e77e75f	0.24209355
214	0x3c439407	0.011937148
215	0xbdfe1e83	-0.124081634
216	0xbd9ceead	-0.07662711
217	0xbbf5a57e	-0.007496535
218	0x3e014711	0.12624766
219	0xbe29d235	-0.16584094
220	0xbd5349aa	-0.051583923
221	0xbe144a3a	-0.1448144
222	0x3e8d13dd	0.27554217
223	0x3d3ab278	0.045580357
224	0x3eb6c646	0.35698146
225	0xbc113513	-0.008862752
226	0xbce74a45	-0.028233657
227	0x3d135611	0.03597075
228	0xbdc195d3	-0.09452405
229	0x3d8c44e4	0.06849077
230	0x3e94a246	0.29030055
231	0xbddf4bb5	-0.10903112
232	0x3d2e2dab	0.04252402
233	0xbd65c185	-0.056092758
234	0x3d53788a	0.051628627
235	0xbd112936	-0.035439692
236	0xbd93b237	-0.07211726
237	0x3e47831f	0.19483612
238	0x3ab9b8ae	0.0014169419
239	0x3e85b959	0.26117972
240	0xbdcf768e	-0.101300344
241	0x3df76359	0.12079496
242	0x3def7d9f	0.11693882
243	0x3e23b58f	0.15987228
244	0x3d67d6e0	0.056601405
245	0xbdf71fef	-0.12066638
246	0x3d675360	0.056475997
247	0xbe8648bc	-0.26227367
248	0x3e83393b	0.256296
249	0xbdc380ab	-0.09546026
250	0xbe411eec	-0.18859452
251	0xbe20afe6	-0.156921
252	0x3d9c5794	0.07633892
253	0xbe1ffcf9	-0.15623845
254	0x3ee10dae	0.4395575
255	0x3e8d14cd	0.27554932

encoder.7.bias f4 [20]
0	0x3be637aa	0.0070256786
1	0xbc1cfeee	-0.009582264
2	0xbace2e0b	-0.0015730275
3	0xbb1ecc96	-0.002423083
4	0xbaa5ad80	-0.0012640208
5	0x3c141054	0.009037096
6	0xbebaae31	-0.36461022
7	0xbf363db8	-0.71187925
8	0xba9d2672	-0.0011989607
9	0xbc126e90	-0.008937493
10	0xbe4b46cd	-0.19851227
11	0xbd8d748c	-0.06906995
12	0xbdeecdf9	-0.1166038
13	0xbad87e30	-0.0016517099
14	0xbb48b6e3	-0.0030626587
15	0xba91327c	-0.0011077668
16	0x37ea6100	2.7940143e-05
17	0x3b70856c	0.003670062
18	0x3b98b382	0.004660071
19	0xbed527d9	-0.41631964

encoder.10.weight f4 [4, 20]
0	0x3f11df44	0.569813
1	0xbd530b0f	-0.05152422
2	0xbf18a271	-0.59622866
3	0xbe275d96	-0.16344294
4	0xbea97fe9	-0.331054
5	0x3f3b1dea	0.7309252
6	0x3eeee135	0.46656194
7	0x3f74a694	0.9556668
8	0x3f25add2	0.64718354
9	0xbec0dcf9	-0.3766859
10	0xbe3d47af	-0.18484376
11	0x3f234b8e	0.6378716
12	0x3df1ce8a	0.11806972
13	0x3f1ece81	0.6203385
14	0xbeac3f7c	-0.33642185
15	0x3f3128ef	0.69203085
16	0xbe273649	-0.16329302
17	0xbe49d6de	-0.19710872
18	0xbea3938a	-0.319485
19	0x3f55a5bd	0.8345602
20	0xbe6842a1	-0.22681667
21	0xbe8882a4	-0.2666217
22	0xbec275ad	-0.37980404
23	0xbe4688ab	-0.19388072
24	0x3f0ba6fd	0.5455168
25	0xbc081b29	-0.008307257
26	0x3d5ac01b	0.053405862
27	0x3ee167b8	0.44024444
28	0xbe01df01	-0.12682725
29	0xbeba616d	-0.36402455
30	0xbded5eb3	-0.11590328
31	0x3c2e9787	0.010656244
32	0xbdcc9ad1	-0.099904664
33	0xbe93e4da	-0.28885537
34	0x3f0c5188	0.54811907
35	0xbe86c5db	-0.26322827
36	0xbe0b3ee5	-0.13598211
37	0x3e0db2a0	0.13837671
38	0x3f055b6c	0.52092624
39	0x3e87b23e	0.26503175
40	0xbf06fb9f	-0.52727693
41	0x3c85c0e3	0.016327327
42	0x3ea1109b	0.3145798
43	0xbdbaa479	-0.09113402
44	0x3ef26312	0.4734121
45	0x3dcdde81	0.10052205
46	0x3e3306a6	0.17483005
47	0xbb8d15e2	-0.004305587
48	0xbf060d55	-0.52364093
49	0x3e910595	0.2832457
50	0xbe427611	-0.18990351
51	0x3e0a2d02	0.13493732
52	0x3e31f6d1	0.17379309
53	0xbf119f04	-0.56883264
54	0x3ef9d8b5	0.48798147
55	0xbf229ea3	-0.6352331
56	0xbe4d4192	-0.20044544
57	0x3e437e2c	0.190911
58	0x3eed2891	0.46320012
59	0xbd277819	-0.04088602
60	0x3e997e45	0.29979149
61	0xbe19d08f	-0.15020965
62	0x3eb8eacb	0.36116633
63	0xbee4d770	-0.44695616
64	0xbe7f0c15	-0.24906953
65	0xbed60747	-0.41802427
66	0xbcf1ddc4	-0.029524691
67	0xbead88ca	-0.33893424
68	0x3e400187	0.18750583
69	0x3e49b5bc	0.19698232
70	0xbe10dd55	-0.14146931
71	0xbe6a8c85	-0.22905166
72	0xbdbf0408	-0.09326941
73	0x3eb763ce	0.35818332
74	0xbe84bff7	-0.25927708
75	0x3ecfd663	0.40593252
76	0xbefc542f	-0.49282977
77	0xbe861626	-0.26188773
78	0xbe815901	-0.25263217
79	0xbe7d689d	-0.24746938

encoder.10.bias f4 [4]
0	0xbdd1fa4d	-0.10252819
1	0xbe09271b	-0.13393824
2	0x3e169c2a	0.1470801
3	0x3dfba5d5	0.12287489

decoder.0.weight f4 [20, 4]
0	0xbe76d737	-0.24105535
1	0xbd8afd8e	-0.06786643
2	0x3f0e5e9d	0.5561312
3	0x3f88d65a	1.0690415
4	0x3e9a59e7	0.30146715
5	0xbedcd0e9	-0.43128136
6	0xbedfa47e	-0.43680185
7	0x3f05b7cb	0.5223357
8	0xbe55d2bf	-0.20881175
9	0xbe913836	-0.28363198
10	0x3f0440a5	0.5166114
11	0x3f1d9a7f	0.6156387
12	0xbdf5958a	-0.11991413
13	0xbf8b9d8a	-1.0907452
14	0xbf4c3e14	-0.79782224
15	0x3f4a080d	0.78918535
16	0xbd08048c	-0.03320746
17	0xbc2cb1d8	-0.010540448
18	0x3e8ba337	0.2727296
19	0x3f27deaa	0.65574133
20	0x3f42b5c3	0.76058596
21	0xbe06c678	-0.13161647
22	0x3d4c211a	0.049836256
23	0xbf4532bc	-0.7703054
24	0x3f7e5937	0.9935488
25	0xbdc7a82f	-0.09748875
26	0x3e7b80f2	0.24560907
27	0xbf36ff30	-0.71483135
28	0x3ee7d8c5	0.4528257
29	0xbe1d1c94	-0.15342933
30	0xbee48920	-0.44635868
31	0xbe98c0f9	-0.29834726
32	0xbeb7ff9a	-0.35937196
33	0x3f05a415	0.52203494
34	0x3ca3dc86	0.020002615
35	0xbe9fd56f	-0.31217524
36	0x3e512325	0.20423563
37	0x3ef7ad38	0.48374343
38	0x3e5f5902	0.21811298
39	0xbeae42c9	-0.34035328
40	0xbe67b3d4	-0.22627193
41	0x3e81da08	0.25361657
42	0x3eb31bb7	0.34982082
43	0xbd88e35c	-0.0668399
44	0xbf8cac20	-1.0990028
45	0x3e46c4b7	0.19410978
46	0xbdf67c25	-0.120353974
47	0x3e79a694	0.24379951
48	0x3bf32543	0.0074202134
49	0xbf4339b8	-0.76259947
50	0xbf377043	-0.7165567
51	0x3ed938cb	0.42426142
52	0x3eff260c	0.49833715
53	0x3edd2fa7	0.43200418
54	0x3de58636	0.11207239
55	0x3ca23f33	0.019805526
56	0x3c3e2fb7	0.011608056
57	0xbebb0030	-0.3652358
58	0xbee1cf19	-0.44103315
59	0xbe3992f2	-0.18122461
60	0x3e5d80cc	0.21631163
61	0xbe83170e	-0.25603527
62	0x3eac0435	0.3359696
63	0xbec8d127	-0.3922207
64	0xbf72ce73	-0.94846267
65	0xbeb75b51	-0.35811856
66	0x3e3e310e	0.185734
67	0xbeec0eed	-0.46105137
68	0xbf6632ff	-0.89921564
69	0xbe873cb7	-0.2641351
70	0x3eced1b7	0.40394375
71	0xbe34d761	-0.17660286
72	0xbf0e2b7e	-0.55535114
73	0x3eff24fd	0.49832907
74	0x3e55da21	0.20883991
75	0xbeaebd19	-0.34128645
76	0x3e33b012	0.17547634
77	0xbe3c87a6	-0.18411121
78	0xbe9af7ed	-0.30267277
79	0xbe275873	-0.16342334

decoder.0.bias f4 [20]
0	0xbf0d496a	-0.55190146
1	0xbde27890	-0.11058152
2	0xbe9bd4ba	-0.30435735
3	0x3d4b7b2f	0.049678024
4	0xbe67cea2	-0.22637418
5	0x3e3142e2	0.1731067
6	0x3dd2ea62	0.10298611
7	0x3e8ac7ca	0.27105552
8	0xbe731fb9	-0.2374257
9	0x3eb73ddd	0.35789385
10	0x3e6689dd	0.22513528
11	0xbe4e4173	-0.20142154
12	0x3e6e9488	0.23298848
13	0xbed73d85	-0.42039123
14	0xbef05632	-0.46940762
15	0xbea77562	-0.32706743
16	0x3caa4c21	0.020788254
17	0xbe02681e	-0.1273503
18	0x3e02e11f	0.1278119
19	0x3dd838c1	0.105577

decoder.2.weight f4 [50, 20]
0	0x3e381aae	0.17978927
1	0xbe95bc21	-0.29245093
2	0xbe300c1e	-0.17192122
3	0xbe2e9a7f	-0.17051123
4	0x3bd0844d	0.0063634277
5	0x3d61ae7a	0.055098034
6	0xbd908349	-0.07056291
7	0x3d7363cd	0.05942135
8	0x3e4217b9	0.18954362
9	0x3e679b02	0.22617725
10	0x3c80ea8a	0.015736837
11	0x3dbba4b1	0.09162272
12	0xbe03fd14	-0.1288951
13	0x3daff0b8	0.08590835
14	0x3e5c7725	0.21529825
15	0x3e513cda	0.2043337
16	0x3de41cd4	0.11138311
17	0x3e61699a	0.2201294
18	0x3dcb2950	0.09919989
19	0xbe5aef8e	-0.21380445
20	0xbd93d9e5	-0.072192945
21	0xbcfe6bf4	-0.031057335
22	0xbcc86488	-0.024462
23	0x3d8c079c	0.06837389
24	0xbdeeff37	-0.11669772
25	0xbe089185	-0.13336761
26	0x3e48c9b4	0.19608194
27	0x3d972221	0.073795564
28	0xbe575cf1	-0.21031548
29	0xbe0f3407	-0.1398469
30	0x3df75897	0.12077444
31	0x3e182c17	0.14860569
32	0x3dbb10f6	0.091340944
33	0xbe1bab15	-0.15201981
34	0xbdaf2e57	-0.085537605
35	0xbbc94e11	-0.0061433394
36	0xbc7bfd76	-0.015380254
37	0x3e547f0f	0.20751594
38	0xbe526989	-0.20548071
39	0x3e2a6ea7	0.16643773
40	0xbdd5f7a0	-0.10447621
41	0x3e2ed463	0.17073207
42	0x3e2e6c74	0.17033559
43	0xbd722b5e	-0.05912339
44	0x3b7aa7a5	0.0038246897
45	0x3e2388a5	0.15970095
46	0x3debe53f	0.115183346
47	0xbaafd34e	-0.0013414414
48	0xbdc2a9d1	-0.09505046
49	0x3e101b4c	0.14072913
50	0xbbc8a6cf	-0.0061234008
51	0x3c24af7d	0.010051605
52	0x3dc53503	0.09629252
53	0x3d4afdbc	0.049558386
54	0xbd9ed274	-0.077549845
55	0x3e353eec	0.17699784
56	0x3adfb73c	0.0017068158
57	0xbe00e838	-0.12588584
58	0xbc66d072	-0.014087783
59	0x3d6aebe4	0.05735387
60	0xbd8917b4	-0.06693974
61	0x3e11a9ab	0.1422488
62	0xbd87f5bc	-0.06638667
63	0xbcaf2153	-0.021378195
64	0xbe63287f	-0.22183417
65	0x3c286655	0.010278304
66	0x3e1e91a1	0.1548524
67	0x3e81dca0	0.25363636
68	0x3d58e722	0.0529548
69	0xbc9807b4	-0.01855836
70	0xbd817bfb	-0.063224755
71	0x3e4111b6	0.18854412
72	0x3db08ab9	0.08620209
73	0xbda80171	-0.082034
74	0xbe6069b9	-0.2191533
75	0x3de5db0c	0.112234205
76	0x3dc89732	0.09794463
77	0xbcc888db	-0.02447932
78	0x3d72103e	0.05909752
79	0xbd3a6013	-0.04550178
80	0xbec31176	-0.3809926
81	0xbdb98af7	-0.090597086
82	0x3d88a0ab	0.0667127
83	0x3e35c902	0.1775246
84	0xbe248fad	-0.16070433
85	0xbd562f13	-0.052290987
86	0x3db25a31	0.08708609
87	0xbda788bc	-0.08180377
88	0xbd9c6178	-0.07635778
89	0xbe500e9f	-0.20318078
90	0xbe1d2e08	-0.15349591
91	0x3e82d254	0.25551093
92	0x3e962cb9	0.29330996
93	0xbe0a73c5	-0.13520725
94	0xbdce5101	-0.10074044
95	0x3e1bef38	0.15227973
96	0x3e05533d	0.13020034
97	0x3d189a6f	0.037256654
98	0x3e2b38c3	0.16720872
99	0x3e523786	0.20528993
100	0x3d7c2bf1	0.061565343
101	0x3e126245	0.142953
102	0x3e72d65b	0.23714583
103	0xbe010ec3	-0.12603287
104	0x3e42eaf4	0.1903494
105	0x3e3d641a	0.18495217
106	0x3e581788	0.21102726
107	0xbea4f1a0	-0.32215595
108	0x3e40be13	0.18822508
109	0x3e8d3b59	0.2758434
110	0xbd3f2016	-0.04666146
111	0xbe04ee2e	-0.12981483
112	0xbd647b89	-0.055781875
113	0xbe336acc	-0.17521209
114	0x3e04ce6f	0.12969373
115	0x3d32c110	0.04364115
116	0xbce67901	-0.028133871
117	0xbed4ae4f	-0.41539237
118	0x3e434ad8	0.1907152
119	0x3da69d86	0.08135514
120	0x3e54a0cd	0.20764466
121	0xbe4092f8	-0.18806064
122	0x3d1ee2e5	0.038790602
123	0xbced91b0	-0.029000133
124	0x3dfc0632	0.12305869
125	0x3e38242d	0.1798255
126	0xbbfec456	-0.00777487
127	0xbdb2f98b	-0.08739003
128	0xbdd8b77f	-0.10581874
129	0x3e4db865	0.20089872
130	0xbd91b6ff	-0.07114982
131	0x3e085f55	0.13317616
132	0xbdc204de	-0.094735846
133	0xbe6361ec	-0.22205323
134	0xbe5382ca	-0.20655361
135	0x3de054f7	0.10953706
136	0xbe5dd6c6	-0.21663961
137	0xbd8b34ea	-0.06797202
138	0xbca4c24a	-0.020112175
139	0xbe02e734	-0.1278351
140	0xbd0efb5a	-0.034907676
141	0xbd0f15e0	-0.03493297
142	0xbe1913f7	-0.14949022
143	0x3d40d67c	0.04707955
144	0xbe0fe246	-0.1405116
145	0xbc31747b	-0.010830994
146	0x3e270b35	0.16312869
147	0x3d86be4c	0.06579265
148	0x3e2af83b	0.16696255
149	0x3df90714	0.12159553
150	0xbd0bceea	-0.034132876
151	0x3e107d3b	0.14110272
152	0x3db0701b	0.086151324
153	0xbe285e83	-0.16442303
154	0xbe13284f	-0.14370845
155	0xbb61e069	-0.0034466034
156	0x3e03ecee	0.1288335
157	0x3da306f9	0.07960314
158	0xbe7c5ee6	-0.24645576
159	0x3905ad7c	0.00012748496
160	0x3eb1adff	0.3470306
161	0x3e3e49b4	0.18582803
162	0x3e648ce7	0.22319375
163	0xbe54300f	-0.20721458
164	0x3e912cfa	0.28354627
165	0xbd69314c	-0.05693178
166	0x3e6d741b	0.23188822
167	0xbe5f0357	-0.21778618
168	0x3dcee5a8	0.10102397
169	0x3e269808	0.16268933
170	0x3e4037f0	0.18771338
171	0xbd07c0e8	-0.033142954
172	0xbd0aa08a	-0.03384451
173	0x3ca6ea9f	0.020375548
174	0xbe252594	-0.16127616
175	0xbe5325a6	-0.2061983
176	0xbe53c4b0	-0.20680499
177	0xbe0c9335	-0.1372803
178	0x3dd5bc68	0.10436326
179	0x3dc8dce3	0.09807756
180	0x3de520c1	0.11187888
181	0xbcf8f0c1	-0.030388238
182	0x3e40f10b	0.1884195
183	0x3e07b290	0.1325171
184	0xbdb55e76	-0.088559076
185	0xbe7839e9	-0.24240841
186	0xbda59e02	-0.08086778
187	0xbddedf59	-0.10882444
188	0xbe2036d1	-0.15645911
189	0x3dc2f1dc	0.09518787
190	0x3e07fa1e	0.13279006
191	0x3db528e0	0.08845687
192	0xbb937780	-0.0045003295
193	0xbdea09ff	-0.11427688
194	0x3de2ea94	0.110798985
195	0xbe257c4b	-0.16160695
196	0xbdec0f0d	-0.11526308
197	0x3e41aad8	0.18912828
198	0x3e2477bf	0.16061305
199	0x3e2da0e8	0.16955912
200	0xbcd3555e	-0.025797542
201	0x3e1638f3	0.14670162
202	0xbd22b24e	-0.039720826
203	0xbcfa91d1	-0.030587109
204	0x3e5a6a41	0.21329595
205	0x3e1ee83b	0.15518276
206	0x3e479034	0.19488603
207	0x3e0e5731	0.13900448
208	0x3e3ca265	0.18421324
209	0xbd833c22	-0.06407954
210	0x3db833d8	0.089942634
211	0x3d998da3	0.07497718
212	0xbe0b8273	-0.13623981
213	0xbd0f82b7	-0.03503677
214	0x3d94eb29	0.07271416
215	0xbe2017e0	-0.15634108
216	0x3e63b03d	0.22235198
217	0xbe143ee0	-0.1447711
218	0x3e6d5e67	0.23180543
219	0xbd0f53f5	-0.034992177
220	0x3e41e1b2	0.18933752
221	0x3cb3f7ac	0.021968685
222	0x3dbebcea	0.09313376
223	0x3dc95f35	0.098326124
224	0xbdc93a05	-0.098255195
225	0xbe18ce2b	-0.14922397
226	0xbe517add	-0.20457025
227	0x3e172632	0.14760664
228	0xbda753dd	-0.081702925
229	0xbe345c95	-0.17613442
230	0xbe61124b	-0.21979634
231	0xbe5c3bd1	-0.21507193
232	0x3c0fd79e	0.0087794345
233	0xbdbd2d8e	-0.092372045
234	0xbd7c31c7	-0.06157091
235	0xbe575175	-0.21027167
236	0xbe007e58	-0.12548196
237	0x3de2ff0f	0.11083805
238	0xbd352480	-0.044224262
239	0x3d98db88	0.07463747
240	0x3dcde4c2	0.10053398
241	0x3e930aa2	0.2871905
242	0x3ca128e5	0.01967282
243	0x3ec05e0f	0.3757176
244	0x3da42741	0.080152996
245	0xbce84b53	-0.02835623
246	0x3b642b9f	0.003481604
247	0x3da271ee	0.079318866
248	0x3e32f4f1	0.1747625
249	0x3e1f3329	0.1554686
250	0x3dfc14eb	0.12308677
251	0xbe8dfab7	-0.27730343
252	0x3e9a726c	0.30165422
253	0xbddb88b4	-0.107194334
254	0x3dfb445c	0.12268898
255	0xbbc1b726	-0.0059117256

decoder.2.bias f4 [50]
0	0x3e6cda93	0.23130254
1	0xbdd05e17	-0.10174196
2	0x3d3c256e	0.045934133
3	0x3e3725cf	0.17885517
4	0x3c618f5e	0.013767092
5	0x3e2f9628	0.17147124
6	0xbe213aeb	-0.15745132
7	0x3e46a6ec	0.19399613
8	0x3e383f0b	0.17992799
9	0xbe4000b9	-0.18750276
10	0x3ded6284	0.11591056
11	0xbdb8a641	-0.090160854
12	0xbdd515a3	-0.104045175
13	0xbdca7537	-0.09885638
14	0xbc61185e	-0.01373872
15	0xbdb3d8a4	-0.08781555
16	0xbdb65ef9	-0.08904833
17	0x3e2ad9ca	0.16684642
18	0xbd01320f	-0.03154188
19	0xbddb67ba	-0.10713144
20	0x3e00095f	0.12503575
21	0x3ca13c58	0.019682094
22	0xbda9e932	-0.082964316
23	0x3cbcd632	0.023051355
24	0x3e896467	0.26834413
25	0x3e0a382b	0.13497989
26	0xbd00e3b3	-0.03146715
27	0xbe1c84a6	-0.15284976
28	0x3dec6a2a	0.11543687
29	0xbdd10ffe	-0.102081284
30	0xbe48b853	-0.19601564
31	0x3de176e9	0.110090084
32	0x3da85c4b	0.082207285
33	0x3bf55196	0.0074865324
34	0xbd263eee	-0.04058736
35	0xbd6b1022	-0.057388432
36	0xbe0025f7	-0.12514482
37	0x3bbf9ad5	0.005847315
38	0x3dd54459	0.10413427
39	0x3d166878	0.036720723
40	0xbe15f66a	-0.14644781
41	0xbc1eec5c	-0.009699907
42	0xbe03572b	-0.1282622
43	0xbe48a03f	-0.19592379
44	0x3ecf0098	0.4043014
45	0x3e3e2c3c	0.18571562
46	0x3d9e54c9	0.07731015
47	0xbd59cbb1	-0.05317277
48	0xbdf9676e	-0.12177931
49	0x3cd5a61f	0.02608019

decoder.4.weight f4 [50, 50]
0	0x3d350533	0.04419441
1	0xbe074d7a	-0.13213149
2	0xbda36439	-0.079781
3	0xbd674f1f	-0.05647194
4	0x3c93abc5	0.018026242
5	0xbd589690	-0.052877963
6	0xbdc9b029	-0.09848053
7	0xbd0f4a2c	-0.034982845
8	0xbd803069	-0.062592335
9	0x3cc70eff	0.024299143
10	0x3d8b2fdf	0.0679624
11	0x3c03bef2	0.00804113
12	0xbdd6932d	-0.1047729
13	0xbdd550fa	-0.10415836
14	0x3dfe6905	0.12422375
15	0xbd81b54b	-0.06333407
16	0x3c38eaf6	0.011286488
17	0xbda14ff5	-0.07876579
18	0x3c0e6392	0.008690732
19	0xbcab4d63	-0.020910924
20	0xbdd01b5d	-0.10161469
21	0xbdad189b	-0.08451959
22	0xbdd219f0	-0.102588534
23	0x3dc02308	0.09381682
24	0xbdafb4bc	-0.08579394
25	0x3e09a782	0.13442805
26	0xbe0ce6c7	-0.1375991
27	0xbd77bd23	-0.06048311
28	0xbdf2ea9b	-0.11861154
29	0xbde2a891	-0.11067308
30	0x3e00765c	0.1254515
31	0x3dce9ff9	0.10089106
32	0x3d228eb0	0.03968686
33	0xbb1c9cac	-0.0023897095
34	0xbe05e6b5	-0.13076289
35	0xbde4b6f9	-0.11167712
36	0x3cec3d93	0.028837955
37	0xbd673da8	-0.056455284
38	0xbe0bc557	-0.13649498
39	0x3d1960b9	0.037445758
40	0x3cbb2ade	0.02284759
41	0xbdaf11c1	-0.08548308
42	0x3c91d9d2	0.01780406
43	0xbd9a2813	-0.07527175
44	0xbda69d6b	-0.08135494
45	0x3e046fd3	0.12933283
46	0x3df623ad	0.12018523
47	0xbc05f678	-0.0081764385
48	0xbd9e4653	-0.07728257
49	0xbdb7a90d	-0.08967791
50	0xbded820e	-0.115970716
51	0xbdf3cf92	-0.11904825
52	0x3de16748	0.110060275
53	0x3cf6264f	0.030047564
54	0xbdb8d77d	-0.09025476
55	0x3e56e565	0.20985945
56	0x3cf28768	0.029605582
57	0xbcc915af	-0.024546472
58	0x3e65138b	0.22370736
59	0x3c9072fb	0.017632952
60	0x3e1d6091	0.15368868
61	0x3d9c8cdb	0.076440535
62	0x3deed76e	0.11662184
63	0x3db2305a	0.087006286
64	0xbe812261	-0.25221542
65	0xbe28c37e	-0.16480824
66	0x3e639175	0.22223456
67	0x3a0c968f	0.0005363011
68	0x3d97bbab	0.07408842
69	0x3c8f05d2	0.01745883
70	0xbe5ae85f	-0.21377705
71	0x3dd5e1e0	0.10443473
72	0xbc3ec55f	-0.011643737
73	0x3dbd6763	0.09248235
74	0x3da31f8e	0.07965003
75	0x3e52e040	0.20593357
76	0x3e22348b	0.15840356
77	0xbdb6bf3f	-0.08923196
78	0x3e73bd3b	0.23802654
79	0xbcae88b6	-0.021305423
80	0xbe088359	-0.13331355
81	0xbe119915	-0.14218552
82	0xbdae6931	-0.085161574
83	0x3d99a9dd	0.07503102
84	0x3deac60a	0.11463554
85	0xbbee56a9	-0.0072735143
86	0xbc9e898a	-0.019352693
87	0x3e0c4989	0.13699926
88	0xbe07e1e2	-0.13269761
89	0x3ddfb9e4	0.10924128
90	0xbdfa56c2	-0.12223579
91	0xbe69565d	-0.22786851
92	0xbd756744	-0.059912935
93	0x3df9b8a0	0.121934175
94	0x3e5e9774	0.21737462
95	0xbcfa4cd6	-0.030554216
96	0xbd4f34d3	-0.050587486
97	0x3dc99b33	0.09844055
98	0xbd0d068d	-0.034430075
99	0x3dde4ad9	0.1085412
100	0x3e492d5f	0.19646214
101	0xbe050fcc	-0.12994307
102	0xbd8b3148	-0.06796509
103	0xbd453980	-0.04815054
104	0x3dfcb909	0.1233998
105	0x3d939886	0.07206826
106	0xbde7406e	-0.11291586
107	0xbd7106fd	-0.058844555
108	0x3d652b0b	0.055949252
109	0xbd5a1836	-0.053245746
110	0xbd55dbc8	-0.052211553
111	0x3d3567f7	0.0442886
112	0xbe1a307c	-0.15057558
113	0x3d797c85	0.060909767
114	0x3e4e7ad6	0.20164046
115	0xbd8c565a	-0.06852408
116	0x3d2f7259	0.04283366
117	0xbd8d60d6	-0.069032356
118	0x3b94e96e	0.0045444285
119	0xbd77a3f4	-0.060459092
120	0x3e121ddd	0.14269204
121	0xbd6104e0	-0.05493629
122	0xbdcf28d5	-0.1011521
123	0xbdba2196	-0.09088437
124	0x3db206ff	0.08692741
125	0xbce45203	-0.027871137
126	0x3c203047	0.009777135
127	0xbcf64630	-0.030062765
128	0xbca86787	-0.020557178
129	0xbdc80d3b	-0.097681485
130	0x3ceb1399	0.028695868
131	0xbd84947d	-0.064736344
132	0x3c63c301	0.013901473
133	0x3dcb1861	0.09916759
134	0xbdbacd5d	-0.09121201
135	0x3cbdfca3	0.023191756
136	0x3df7ec89	0.121056624
137	0x3e02b4d8	0.12764299
138	0xbdf6d1b2	-0.12051715
139	0xbc23272f	-0.009958073
140	0x3d41398b	0.047174018
141	0x3db5ffe8	0.08886701
142	0x3dccb0e3	0.09994676
143	0x3ce22b7f	0.027608631
144	0x3e523692	0.2052863
145	0xbdf20d34	-0.118189245
146	0x3dc077ee	0.09397875
147	0xbe4c13e7	-0.19929467
148	0xbd0f0deb	-0.034925383
149	0x3e632f09	0.22185911
150	0xbdbf563c	-0.0934262
151	0xbe0f9460	-0.14021444
152	0xbd5c8631	-0.053838912
153	0x3e033026	0.12811336
154	0xbc9dbf70	-0.019256324
155	0xbe756e85	-0.23967941
156	0x3dc81810	0.097702146
157	0xbd0276fc	-0.031851754
158	0xbe09077e	-0.13381764
159	0x3c66b1e7	0.014080501
160	0xbd4f016d	-0.05053847
161	0xbdc9b243	-0.09848454
162	0xbe167d8a	-0.14696327
163	0x3e99b40a	0.3002017
164	0xbe267c64	-0.16258389
165	0xbdd4160f	-0.1035577
166	0x3c0094e4	0.007847998
167	0xbd13e491	-0.03610665
168	0xba9deb10	-0.0012048203
169	0x3de11c4e	0.10991727
170	0x3eacc2c3	0.3374234
171	0x3dfe3d8f	0.12414085
172	0xbd5be2e0	-0.05368316
173	0x3d882e04	0.06649402
174	0x3d351ac2	0.04421497
175	0x3cd16436	0.02556048
176	0xbddfed96	-0.10933988
177	0x3db5242c	0.0884479
178	0x3d39d69e	0.04537069
179	0x3d8de61f	0.06928658
180	0xbdf74b9c	-0.12074968
181	0x3e95f540	0.29288673
182	0xbd9e626b	-0.077336155
183	0x3cf0b2ad	0.029382074
184	0x3ccaa29a	0.024735738
185	0xbd802572	-0.06257142
186	0x3e520387	0.20509158
187	0xbb8aac95	-0.004231999
188	0x3bf0865b	0.007340235
189	0x3c7f12b1	0.015568421
190	0x3dbfc3c8	0.09363514
191	0x3ea06aee	0.3133158
192	0x3d180833	0.037117194
193	0x3dd808d2	0.10548557
194	0x3e4d40b6	0.20044217
195	0x3c50b06b	0.012737374
196	0x3e6c2edc	0.2306475
197	0xbe5a4ba2	-0.21317914
198	0x3dbb469f	0.09144329
199	0xbd5eaf3b	-0.05436633
200	0x3d9b151a	0.07572384
201	0xbd244c9a	-0.040112115
202	0x3b2cca51	0.0026365707
203	0xbce736b4	-0.028224327
204	0x3d6742dd	0.05646025
205	0xbd6a8282	-0.05725337
206	0x3d0dff3d	0.034667242
207	0x3d278104	0.040894523
208	0xbd4e649a	-0.05038891
209	0x3e1170a1	0.14203121
210	0xbd143051	-0.03617889
211	0x3e105180	0.1409359
212	0xbd8309d6	-0.063983604
213	0x3eccff3d	0.4003848
214	0x3dba72d0	0.0910393
215	0x3c65d8ec	0.014028769
216	0x3e333612	0.17501095
217	0xbe020dfb	-0.12700646
218	0x3e0d6f60	0.13812017
219	0x3d12f200	0.03587532
220	0x3e3bad72	0.18327883
221	0x3d1f8f9d	0.03895532
222	0xba6bcaaa	-0.0008994738
223	0xbd9a0ec1	-0.07522345
224	0xbc968cab	-0.018377623
225	0x3e1c240c	0.15248126
226	0x3cb876b2	0.022517536
227	0xbd4bb258	-0.04973063
228	0xbd52352b	-0.051320236
229	0xbe22388d	-0.15841885
230	0x3dfd1a32	0.12358512
231	0x3dd7a8e6	0.10530262
232	0x3b788617	0.003792172
233	0x3e2717f4	0.16317731
234	0xbc3cced5	-0.011523922
235	0x3deb5712	0.11491217
236	0x3e7f17b8	0.24911392
237	0xbe011f14	-0.12609512
238	0x3dc1ce2a	0.09463151
239	0x3e19f749	0.15035738
240	0x3be7ed91	0.0070778807
241	0x3e39ed40	0.1815691
242	0x3dcee9d3	0.10103192
243	0x3daab98a	0.0833617
244	0x3e405da8	0.18785727
245	0xbcb8c2e7	-0.022553874
246	0x3d4962e2	0.049166568
247	0xbc81c256	-0.015839737
248	0x3e1c2546	0.15248594
249	0xbe7fd261	-0.24982597
250	0xbccf31b5	-0.025292257
251	0xbcc0feaf	-0.023558943
252	0x3dbdd836	0.092697546
253	0x3cbbb524	0.022913523
254	0x3de811d1	0.11331523
255	0x3bbee19b	0.005825234

decoder.4.bias f4 [50]
0	0xbe0030e9	-0.12518658
1	0x3e122ec1	0.14275648
2	0x3eb0ec67	0.3455536
3	0xbe19217a	-0.14954177
4	0x3d5c2183	0.053742897
5	0xbdf8923d	-0.12137268
6	0xbe797253	-0.24360017
7	0x3dcf0d43	0.10109951
8	0xbda97956	-0.08275096
9	0x3d9827fd	0.07429502
10	0xbdf38d6b	-0.11892208
11	0xbdddd002	-0.1083069
12	0xbe0fb72d	-0.1403472
13	0x3d225781	0.03963423
14	0x3d703705	0.05864622
15	0xbe237a17	-0.15964542
16	0xbd154736	-0.036444865
17	0xbbbb4ba4	-0.005715804
18	0x3d2b2f8a	0.041793384
19	0xbdd494e0	-0.10379958
20	0xbdcd5b35	-0.10027162
21	0x3c000658	0.0078140125
22	0x3e88ed75	0.26743665
23	0xbcf96f71	-0.030448647
24	0x3e249063	0.16070704
25	0xbd950702	-0.07276727
26	0xbd3975bd	-0.0452783
27	0xbd7ee8a5	-0.062233586
28	0x3c46e522	0.01213959
29	0x3e6a9ca0	0.2291131
30	0x3d82d7a7	0.06388789
31	0x3dbf2f46	0.093351886
32	0x3c547ba9	0.012968936
33	0xbd045e5d	-0.032316554
34	0xbb860e46	-0.004091057
35	0x3d3b8e73	0.045790147
36	0x3d9c825d	0.07642052
37	0xbc420a3b	-0.011843259
38	0x3df71b8b	0.120658
39	0xbb5392f4	-0.0032283636
40	0xbcd91a8f	-0.026501922
41	0x3cee580d	0.02909472
42	0x3e361faa	0.17785516
43	0x3d84184c	0.06449947
44	0xbe05813c	-0.1303758
45	0xbd7af5c8	-0.06126955
46	0x3ca4f681	0.020137073
47	0xbcd7d100	-0.026344776
48	0x3e3887fb	0.18020622
49	0xbbe1cc6d	-0.0068908245
