RiskViz Folder/RiskViz Folder/model/checkpoint_450.tar (torch, 110796 bytes, 51 tensors)

encoder.1.weight f4 [50, 6]
000000 14 af f6 be 13 9b b5 ba 5e 17 cc 3a 4f 7f 89 3e
       -0.4818045 -0.001385542 0.0015570929 0.2685494
000010 3e ab 8f be 73 ce a7 3d b5 ab 15 3a 22 3f 3d bc
       -0.28060335 0.08193674 0.0005709485 -0.011550697
000020 ec 84 06 bc 0c c4 00 40 07 68 58 3c 72 df 99 be
       -0.008210402 2.0119658 0.013208396 -0.30053288
000030 30 67 45 be 7e 60 51 be f2 b1 11 3b 1c c7 88 bd
       -0.19277644 -0.20446965 0.0022231308 -0.06678602
000040 22 5d a1 3e 08 3a c5 be b4 5d 50 3e 6f 2e 26 3c
       0.31516367 -0.38520837 0.20348245 0.010142907
000050 78 9d 7d 3a a6 f7 08 be e1 ff 4f bc 4e 1a 71 3f
       0.0009674649 -0.1337572 -0.012695284 0.9418076
000060 26 ff 7d bd fb d4 bf bd 9d fb 95 bb 8c 67 33 3f
       -0.062010907 -0.09366795 -0.004577114 0.70079875
000070 ea 62 78 3e c2 21 fb be ff 38 39 3f f1 8c cb 3c
       0.24256483 -0.49049193 0.72352594 0.02484748
000080 fd a7 f8 3a 58 23 64 3e 28 57 0c bc 4f be 0e 3f
       0.0018970963 0.22279108 -0.008565702 0.5575914
000090 6e 66 a4 bd f2 64 66 be e3 e5 dd bd 2d 9b 7b be
       -0.080273494 -0.22499445 -0.10834863 -0.24570914
0000a0 70 e4 5f 3e 48 76 51 be fd aa 04 bf 35 64 0c 3e
       0.21864486 -0.20455277 -0.5182341 0.13710101
0000b0 65 05 31 3e 71 57 a6 bc c0 e4 ec bd d2 5e 38 bd
       0.17287214 -0.020305367 -0.11567068 -0.045012303
0000c0 81 83 06 3f a1 ad dc bb f6 04 a6 39 ae 33 6d 3f
       0.5254441 -0.0067345654 0.00031665683 0.9265698
0000d0 3f 37 0e 3f 42 2b 0d 3d 00 29 a5 be 6c da 35 3c
       0.5555305 0.034465082 -0.32257843 0.011099439
0000e0 b8 7b 42 be 07 31 bb ba a6 63 4c 3e 71 bf 38 3e
       -0.18992507 -0.0014281579 0.19959888 0.18041779
0000f0 91 c8 83 be 84 7b 0c bc e4 c9 8f 3b ac 70 6a bf
       -0.25738958 -0.00857437 0.004388081 -0.91578174
000100 01 69 56 be f5 8d d9 3d 82 8a 6e be 3d 93 36 be
       -0.20938493 0.10622779 -0.23295024 -0.17829604
000110 93 69 0c 3e f2 98 70 3e 19 71 bb 3b 14 9d 22 be
       0.13712148 0.23495844 0.0057202694 -0.15880233
000120 4e b5 9a bc 99 80 aa bd d7 7f 47 bd 2b 33 74 3f
       -0.018885281 -0.08325309 -0.048705902 0.95390576
000130 44 ba 9a bd 56 23 ab 3e d4 bb 9c be c3 fa 9c 3c
       -0.075550586 0.33425397 -0.3061205 0.019162541
000140 2d 74 92 3b 4e 06 3d bf 18 86 5a be fc d8 e3 3d
       0.0044694156 -0.73837745 -0.21340215 0.11125371
000150 a1 59 9e bf 83 7e 81 3b 64 9e 5b 3a 29 59 e5 3e
       -1.2371103 0.003951849 0.0008377789 0.44794586
000160 41 cf ac be 3b 8c 61 3f 0d 73 16 bf 8d db 1f 3c
       -0.33751872 0.881046 -0.58769304 0.009756935
000170 9e d3 c3 b9 ae e0 2e be 7e 6a c8 be ab 33 2a be
       -0.00037350965 -0.17077896 -0.39143747 -0.16621272
000180 bb 8e 83 be 3b 48 8a 3e b9 55 1d 3e 9c 93 a6 3e
       -0.25694832 0.27008232 0.15364732 0.32534492
000190 b1 89 9b be c4 ad cb be 14 06 5a bf 14 68 2e bc
       -0.30378488 -0.3978101 -0.85165524 -0.010644931
0001a0 8a 86 3a bc 00 98 2e bf 98 7a 1b 3f fe 4a 05 3f
       -0.011384616 -0.68200684 0.6073394 0.52067554
0001b0 5d 81 2d bb 8b 92 3b bc c9 af d9 bb d6 98 f7 3f
       -0.0026474812 -0.011448513 -0.0066432697 1.9343517
0001c0 f4 c4 94 3c 6f f5 9c be db 84 af 3d 51 10 9d be
       0.01816032 -0.30656 0.08570262 -0.3067651
0001d0 92 ad 5f be 9a 7a 44 be 84 8c 6c be 63 42 94 3d
       -0.21843556 -0.19187394 -0.23100477 0.07239225
0001e0 0d a3 dd bd 8b b9 cb 3b 5a bc fc 3a b7 7e 22 bf
       -0.10822115 0.006217187 0.0019282207 -0.634746
0001f0 5f 7c 36 3f 3c 2b ec 3c a4 3e b5 be 12 a4 87 be
       0.71283525 0.02882921 -0.35399354 -0.26492363
000200 7a 29 1a 3e bb 94 20 3e 11 40 81 be f6 34 03 be
       0.15054885 0.15681736 -0.2524419 -0.12813172
000210 4a 83 dd bf 73 e4 0f 3b 94 87 86 bb 8d f0 5d be
       -1.7305691 0.0021956235 -0.0041055176 -0.21673794
000220 f3 8b a4 be 71 eb 58 3e 3b 8b a6 3e 12 ba af bd
       -0.32138023 0.21183564 0.325281 -0.08580412
000230 5d 08 89 bd 44 20 15 3e 88 a2 76 3d 65 b5 09 be
       -0.06691048 0.1456309 0.060213596 -0.13448103
000240 17 f7 c2 be 9a 55 78 be 55 2c f9 3c d3 85 d7 3b
       -0.3807914 -0.24251404 0.030416647 0.0065772324
000250 07 e6 cc 3e df 7a 59 bd dd 0f c8 bd 52 92 c8 be
       0.40019247 -0.053095695 -0.09768651 -0.39174134
000260 c9 1e bf be e9 47 3a 3e 97 66 af 3e 50 7c 5b ba
       -0.37328175 0.18191494 0.34257957 -0.0008372711
000270 9d 09 d7 bf dc 60 9a ba 49 7b 3b bb 47 c2 03 bf
       -1.6799809 -0.0011778134 -0.002860742 -0.5146832
000280 25 cb f0 bd a9 3c 9a 3d 7a 4c b9 bf c4 e2 6a 3b
       -0.11757497 0.07531101 -1.4476464 0.003584073
000290 c7 b1 77 bb 87 8f e5 be 33 57 02 be d3 06 9a be
       -0.0037795173 -0.44836065 -0.12728576 -0.3008333
0002a0 5d e2 30 3f ca 50 55 bb 63 aa 70 3a 18 16 68 bf
       0.690954 -0.0032549375 0.0009180663 -0.9065871
0002b0 ae e1 37 3f f5 90 8d 3d eb dc 67 be ba bb d6 bc
       0.71828735 0.06912414 -0.22642867 -0.026212562
0002c0 02 00 94 be 6d f4 99 bc bc c8 69 3e da eb 3b be
       -0.28906256 -0.01879331 0.2283048 -0.18351689
0002d0 ab a6 27 3f 87 8b 76 bb af 7e 0b ba 94 d7 f6 3e
       0.6548869 -0.0037619786 -0.00053213065 0.48211348
0002e0 ad 20 96 be 26 99 b0 be ce 7d cf bb 25 e1 9a bc
       -0.29321805 -0.34491843 -0.0063321358 -0.018906185
0002f0 e3 18 61 bb 18 41 15 3e af 74 41 3e 86 7f 93 3f
       -0.003434711 0.14575613 0.18892168 1.1523292
000300 ff 76 a0 3e c4 3a cc be 8d c8 30 3d 35 56 a3 bc
       0.31340787 -0.39888585 0.04316001 -0.019938568
000310 7d 95 e1 3d 53 3b cd bd 1d 95 08 3e 10 e9 a5 be
       0.11014841 -0.10021081 0.13338132 -0.32404375
000320 64 7d 61 3e ba 0b 04 3f 6b e6 84 bc cf a1 98 be
       0.22020489 0.51580393 -0.016223153 -0.2981095
000330 ec 35 f1 be 17 db 69 3b 36 72 89 bb e9 c5 99 3d
       -0.47111452 0.0035683566 -0.004194523 0.075084515
000340 23 06 df bc 65 f6 50 3f 39 f3 0d ba a7 5d b3 bb
       -0.027224606 0.8162597 -0.0005414966 -0.0054738107
000350 4e 25 82 bb 7f f7 9e 3f ad ff f1 3e 3c 37 09 39
       -0.003971732 1.241928 0.47265378 0.00013085915
000360 ca 96 66 3e 80 98 07 3e 30 3c 28 3d 28 70 f2 bd
       0.22518459 0.13241768 0.041073024 -0.11837798
000370 41 8c 7e 3d 1b b5 f0 3c 8c 36 67 be 6b aa 0b bb
       0.062145475 0.029383233 -0.22579402 -0.0021311294
000380 2c 4c b8 3a a0 5d 1e bf 52 f5 56 3d 9e 96 e4 3e
       0.0014060787 -0.6186161 0.05248005 0.44646162
000390 e5 f2 c5 3b 11 24 20 bd 28 5e 23 ba 3b c4 d2 bd
       0.006040918 -0.039096896 -0.0006231987 -0.10291334
0003a0 28 84 53 3e 23 80 9f 3f 3c df 74 3f 04 ac 83 bb
       0.20655882 1.2460979 0.9565313 -0.0040183086
0003b0 0c 5d 15 3b 0c b6 63 be 70 a8 0d be e8 a8 f2 be
       0.0022791056 -0.22237414 -0.13833785 -0.4739449
0003c0 0a 22 db bf 4f 4e 09 3b 77 c7 8d 39 fc 30 30 bf
       -1.7119763 0.0020951217 0.0002704223 -0.68824744
0003d0 f1 25 95 be 31 f3 7d 3e b1 57 5e bb c1 c9 13 bc
       -0.2913051 0.24799801 -0.003392678 -0.00902027
0003e0 aa df e9 bb 51 b3 fa 3f 53 cb a5 be ac 89 18 be
       -0.0071372585 1.9585973 -0.32381687 -0.14896268
0003f0 6d 33 fa be 82 88 03 bb da 33 45 ba b1 6f 7a 3e
       -0.4886736 -0.0020070379 -0.000752268 0.2445667

encoder.1.bias f4 [50]
000000 95 17 74 3e 06 36 2c bc 52 c1 d8 bc 73 07 06 be
       0.23837121 -0.010510927 -0.02645937 -0.13088779
000010 5c 58 dc bd f3 33 02 bf 46 be f9 bd 79 0f 26 be
       -0.10759041 -0.5086052 -0.12194495 -0.1621684
000020 9e 0a 83 be 3e 2b aa be a6 42 e1 3d 59 50 c9 be
       -0.25594038 -0.33236116 0.1099904 -0.39319113
000030 13 77 2b bf ec c3 05 3e 23 ba 8e 3c 50 62 8d 3e
       -0.6697857 0.1306302 0.017422741 0.2761407
000040 82 7f bb be bb bf df 3c a7 46 f8 bb 76 1f 89 be
       -0.36620718 0.027313104 -0.007576782 -0.26781815
000050 d2 32 66 3d 31 78 0e be 78 fd d9 3c e1 b3 bd be
       0.05620081 -0.13913037 0.026610121 -0.370513
000060 7a 0f 1b be 94 e0 8d be 58 96 a1 3c 1e 64 c8 3c
       -0.15142623 -0.27710402 0.01972501 0.024461802
000070 41 22 ae be 83 c6 76 be 68 fe b3 be 7e d3 5c be
       -0.3401051 -0.24099164 -0.35155034 -0.21565053
000080 99 56 d6 be 00 56 a0 be 60 73 26 3c 9f 93 8e bb
       -0.41862944 -0.31315613 0.0101593435 -0.004351094
000090 d5 c7 b2 be e8 67 ea 3d 4f a9 85 be 95 73 0f bf
       -0.34918085 0.114456 -0.26105735 -0.5603574
0000a0 b2 04 be 3c 7c db 03 bc 0a f2 7f 3c 87 38 82 be
       0.023195598 -0.008047935 0.015621671 -0.25433752
0000b0 41 df 03 bf 79 0f 3d 3c e7 75 35 bc 76 35 d9 3c
       -0.51512533 0.0115393335 -0.011075473 0.02651475
0000c0 0b 68 8b be 66 bf d3 bb
       -0.27227816 -0.0064620255

encoder.4.weight f4 [50, 50]
000000 69 ea 85 3d 7b 35 af be fe 66 95 bd 83 20 cb bd
       0.06538851 -0.3422049 -0.07295035 -0.099183105
000010 8d 41 53 be 03 6a f4 3d bf 4a 92 bc dd 36 87 3d
       -0.20630474 0.11934283 -0.017857907 0.06602261
000020 b7 ce 1f 3d ff 9c b5 3d ac 92 37 3e 3c 26 ae 3b
       0.039015498 0.08867835 0.17927045 0.0053146165
000030 ef 26 c4 bd 3d 0c f8 3c 60 cc 2f 3e 82 f5 ab 3c
       -0.095777385 0.030279273 0.17167807 0.02099109
000040 b2 65 0d be 60 16 46 bb 98 77 af be af 92 ca bd
       -0.13808325 -0.003022574 -0.3427093 -0.09891259
000050 e4 7a 97 bd 70 e6 06 3d 72 94 41 3e 67 73 d0 bc
       -0.073964864 0.032934606 0.18904284 -0.025445653
000060 66 ee 91 3d 50 fa 0d bd ac 7c 87 3d c7 42 6f 3e
       0.07125549 -0.034662545 0.06615576 0.23365317
000070 7e f5 45 3d 1a 66 ce 3d 24 af 24 3e 62 24 21 bd
       0.048329823 0.10078068 0.16082436 -0.039341338
000080 b2 f9 19 3d 69 a4 8d 3d 7a e7 85 3d 7b 82 6d be
       0.037591644 0.069161244 0.06538291 -0.23194306
000090 53 47 06 ba 78 9e ad bc 8c cb 8b 3d f4 b0 4d 3e
       -0.00051223225 -0.021193728 0.06825933 0.20087034
0000a0 c4 3e 3f 3e d1 61 9f be b2 69 50 3c 63 4b 91 bd
       0.18676287 -0.31129315 0.012720512 -0.07094457
0000b0 be 4d af 3e a7 87 86 bc e6 97 83 be 6c 49 51 bc
       0.34239 -0.016422106 -0.25701827 -0.012773853
0000c0 e9 88 2d 3d 25 f9 a4 bd fc 4d d9 3d a0 cc b8 3b
       0.042366896 -0.08055333 0.106105775 0.0056396276
0000d0 8d 46 95 3d cb 20 e4 bd 4b 8e 24 b9 0f e8 5d 3e
       0.07288847 -0.11139067 -0.00015693267 0.21670555
0000e0 ae 22 93 bd 8e 42 94 3c 16 f9 70 3b 9c 17 99 3d
       -0.07184349 0.018098142 0.003676956 0.07475206
0000f0 3f 51 11 3d ba 98 d9 bd dc 35 e8 bd 7c cf 01 3e
       0.035477873 -0.106248334 -0.11338398 0.12676805
000100 4e 6b 0e 3d f0 46 6a bd d3 85 04 be 4a dc 8b bb
       0.034770302 -0.057196558 -0.12941675 -0.004268204
000110 1b e9 63 3a a1 ed 85 3c 38 07 94 bb de c5 00 bd
       0.0008694098 0.016348662 -0.004517462 -0.0314387
000120 b5 1b 22 3e ed d8 52 3d 6b f0 5c 3d 33 76 9c bd
       0.15830882 0.051476408 0.053940218 -0.07639732
000130 8e c6 91 3e 7d 68 8b 3e 7d 50 62 bc e8 3a 06 3e
       0.28471798 0.27228156 -0.013813135 0.13108408
000140 a4 62 eb bd b0 78 ff bd 61 5c dd 3c 11 e8 17 3d
       -0.114934236 -0.12474191 0.027021589 0.03708655
000150 7b 0c 1a 3e c2 b0 3b bd 26 15 c3 3d a8 2c 0f 3c
       0.15043823 -0.045822866 0.09525518 0.008738674
000160 ca 6f 02 be cc fc 6a 3e c1 18 51 3e 43 a7 c8 bc
       -0.12737957 0.22947997 0.20419599 -0.02449382
000170 fb 44 b2 bd da e8 bf bd 8b a8 02 3e c8 20 0b 3e
       -0.08704563 -0.09370585 0.12759607 0.13586724
000180 bb 3d ee bd c1 ae c4 bd d1 9d 62 bd 55 63 25 3d
       -0.11632868 -0.09603644 -0.055326287 0.040377934
000190 78 f0 25 3d a2 60 99 be 35 cc e1 3d 77 93 5e bc
       0.040512532 -0.29956537 0.110252775 -0.013584963
0001a0 9d 0e 4c bc 3f f1 ac bd 92 c4 3b bd 43 a0 77 3a
       -0.012454656 -0.084444515 -0.04584176 0.0009446183
0001b0 d9 ca 37 be a1 f1 0f 3e 63 44 65 3c d7 a6 09 3e
       -0.17948474 0.14057018 0.013993355 0.1344255
0001c0 99 75 02 3e a7 31 fb 3d 88 4b 58 be 65 a7 ae 3c
       0.12740172 0.1226533 -0.21122563 0.021320054
0001d0 21 4b 68 bd 3b b4 36 bd 71 30 41 be 85 4c a1 3d
       -0.056712274 -0.044605475 -0.18866135 0.07875923
0001e0 2b 6a 45 3e ba 1f e0 bd 50 ec 5c be 87 56 2c 3d
       0.19278781 -0.10943551 -0.21574521 0.042074706
0001f0 0d a2 d5 bc fd 26 86 3d d6 dc 61 3d d3 be 3c bc
       -0.026078248 0.06550405 0.055142246 -0.011520105
000200 95 a5 3d be 07 59 27 bd 0c e6 34 be 13 02 5e bd
       -0.18520196 -0.040856387 -0.17665881 -0.054201197
000210 fa c1 c8 3d 3c b9 0a be 1f cd 9a bc ce 67 03 be
       0.09802623 -0.13547224 -0.018896637 -0.12832567
000220 2e 6a dd 3d e2 e3 ee 3d 08 15 17 bd 4c f6 6a be
       0.10811268 0.11664559 -0.03688529 -0.22945517
000230 e2 10 f1 bc 76 7f 10 be 9f 9b c4 bd c8 82 c5 bb
       -0.029426996 -0.14111122 -0.09599995 -0.006027553
000240 e7 01 17 be d5 b2 d5 3d 20 b2 7b 3d 69 26 c1 bd
       -0.1474682 0.104345 0.06144917 -0.09431154
000250 f9 62 d0 bd 17 6b 09 be 2d d9 3c be 38 80 5b be
       -0.101751275 -0.13419758 -0.18442221 -0.2143563
000260 59 dd c2 3c 1d 58 26 bc c7 04 10 bd 4f fa 50 3e
       0.023787187 -0.010152844 -0.035160806 0.20407985
000270 cb bc 00 3e 5d bc 69 3d 07 92 22 3d 89 6a e9 bd
       0.12572019 0.057064403 0.039690044 -0.11397273
000280 16 f5 86 bc b6 16 f6 bd 94 2f d3 3d b9 ba 2c be
       -0.016474288 -0.120160505 0.10311809 -0.16868104
000290 be fb c6 3c ba 59 3a be cb f4 c7 bd 05 16 8c be
       0.024289962 -0.1819829 -0.097634874 -0.2736055
0002a0 e2 1c 56 be 0e 69 84 bd 0e 08 96 be 4f e0 cc 3d
       -0.20909455 -0.0646535 -0.2930302 0.10003721
0002b0 9b 4c 8a bd b1 7c 8a bc 16 63 33 bc 2a 8f 70 3d
       -0.067528926 -0.01690516 -0.010948917 0.058730282
0002c0 62 4e 7f bd 2b 46 8b bc b2 58 6e 3d 13 dd c7 3d
       -0.06233061 -0.017001232 0.058190055 0.097589634
0002d0 b0 3b 3d 3e 18 0e bf bd df 81 11 bd 7f 02 df bd
       0.184798 -0.0932886 -0.035524245 -0.10889148
0002e0 52 57 7f 3d 77 d4 24 be 78 1b b2 3c c8 49 88 be
       0.062339135 -0.16096674 0.021741614 -0.2661879
0002f0 57 23 b7 3c 24 df 4b 3e e9 0f be bd 7c 06 61 be
       0.022355719 0.1990934 -0.09280378 -0.2197513
000300 89 00 30 be 06 50 07 3e ff bc 94 3e 44 9b 7a bd
       -0.17187704 0.1321412 0.29050443 -0.06118323
000310 50 a4 64 be d2 40 7a 3d 6a 29 a7 3d bb dc ef bd
       -0.22328305 0.061096974 0.08162196 -0.11712023
000320 eb 2f 43 3e 04 d5 e2 bd 7e 2e aa bd df 38 df 3e
       0.19061248 -0.11075786 -0.08309649 0.43598077
000330 08 1c 14 be f7 54 7f 3e 1d 9b 9f bd 86 b3 b2 3d
       -0.14463818 0.24934755 -0.077932574 0.08725648
000340 4c a5 7b bb 76 ee c0 bd fc 67 4e bd da 4e e4 3d
       -0.0038398085 -0.09420483 -0.050392136 0.11147852
000350 48 69 91 bd 35 35 62 bd 42 11 88 3d e2 0c 28 bd
       -0.07100159 -0.055226523 0.06643917 -0.04102791
000360 03 4a fb bd 36 b8 8c 3d 11 26 4f be 86 e2 09 3d
       -0.12269976 0.06871073 -0.20229365 0.033663295
000370 58 53 26 3c 28 1c 30 bd 6e 8e 7b bd 97 0e ab 3d
       0.010151707 -0.042995602 -0.06141513 0.08352392
000380 1d 6c b7 bd 8b 15 87 3d 74 92 ad 3d 10 55 a6 3d
       -0.08956168 0.06595906 0.08475199 0.08121693
000390 f7 0c 64 bc fd de 68 3d e3 34 c9 bd 48 96 98 3e
       -0.013919107 0.056853283 -0.098245405 0.29802155
0003a0 12 6a 5c bd 2e 51 38 3d dd 00 46 3e da b3 9d 3c
       -0.053812094 0.044999294 0.19336267 0.019250799
0003b0 ce 6e 07 be c4 7f 85 bd 9e 70 a2 3e 37 8e af 3d
       -0.13225862 -0.0651851 0.31726545 0.08572047
0003c0 ee db 3b bc b0 ef 61 be 68 ed 59 bd 83 14 ec 3c
       -0.01146601 -0.2206409 -0.053204924 0.028818374
0003d0 ec 60 96 bd 68 de 4d 3d dc 18 33 3d ff e0 dd bd
       -0.07342705 0.05026093 0.04372488 -0.1083393
0003e0 9c d3 62 bd 40 3f 0e 3e 75 25 f1 bd bf 03 c0 bb
       -0.055377588 0.13891315 -0.117747225 -0.0058598216
0003f0 ca 9e b0 bd b1 42 9c 3e 3a 3b 0d bd 8a 56 79 3e
       -0.086240366 0.30519632 -0.03448031 0.24349418

encoder.4.bias f4 [50]
000000 d3 0a cf bb 20 44 52 bc f4 a5 b2 3b 51 4a 23 3c
       -0.006318429 -0.012833625 0.005451912 0.009966449
000010 78 74 03 bb 7e d2 62 bb 2a ff 1e bf fa b3 79 bb
       -0.0020058434 -0.0034610326 -0.621081 -0.003810166
000020 3c f1 16 be 2a aa 74 bc 2b 59 89 bc 41 7a 2d 3c
       -0.14740461 -0.014933148 -0.016766151 0.01058823
000030 92 56 cf ba 3c 98 34 3a 58 a7 17 be 3c 17 21 bc
       -0.0015818647 0.000688914 -0.1480993 -0.0098322
000040 a7 0d 0a 3c 32 c7 32 bb b1 98 4b bc 99 c2 08 bf
       0.008426107 -0.0027279374 -0.012426541 -0.5342193
000050 a4 aa c4 bd a0 4e b4 bb 44 ce 75 be db e4 df bb
       -0.096028596 -0.005502537 -0.24004465 -0.0068327016
000060 e0 8c 02 ba c3 7a a5 bb a1 8b 57 bb 4a 1c 90 bb
       -0.00049800985 -0.0050500347 -0.0032889622 -0.0043979036
000070 3e 75 8b 3b 71 8e 83 bb 4f 74 1b bb 98 8d 6e bc
       0.0042559197 -0.004014783 -0.0023720448 -0.014560126
000080 f7 7b 25 3c 35 e7 0e be dd 11 34 be eb 27 36 be
       0.010100356 -0.13955386 -0.1758494 -0.17788665
000090 d0 e5 84 be 5c 91 62 bd 2c 07 fc be 47 66 bb ba
       -0.25956583 -0.055314407 -0.49224222 -0.0014297449
0000a0 f8 bf e3 3b 1f 02 f6 bd 9a 4e 25 bc 8f 85 72 bd
       0.0069503747 -0.12012123 -0.010089541 -0.059209403
0000b0 66 ed 2e be 5b c7 21 3c f2 bf 00 be 6a 55 c8 ba
       -0.17082748 0.00987419 -0.12573221 -0.0015284244
0000c0 b7 2e a1 bb 23 10 4a 3c
       -0.004918899 0.012332949

encoder.7.weight f4 [20, 50]
000000 e4 51 ca 3d 5b 0b b0 3d 49 0d a1 3b 5f 65 83 be
       0.09878901 0.08595916 0.004914914 -0.25663278
000010 d8 4d 36 bc 7b 4b 4a 3d 15 80 9c bd c3 9c 18 3f
       -0.011126958 0.04938839 -0.07641617 0.596142
000020 2f f0 ba bd bf a0 9a 3e 31 a6 27 3e e8 23 86 be
       -0.09127843 0.30200765 0.1637199 -0.2619927
000030 07 11 a9 be d6 64 41 be 99 e2 03 be 36 d9 93 3e
       -0.33020803 -0.18886122 -0.12879409 0.28876656
000040 46 b9 3c 3c 3a e3 c6 3e 3b 1e 0a be ea 2e 34 bd
       0.011518782 0.38845235 -0.13488095 -0.043990053
000050 a9 39 91 bd 65 3c a7 3e a5 45 15 be fb 88 da 3e
       -0.07091076 0.32663265 -0.14577349 0.42682633
000060 55 62 98 bd 71 31 01 3f d4 d0 ca 3e 72 df 05 3f
       -0.0744063 0.50466067 0.39612448 0.52294075
000070 a1 c8 26 be 64 3a 03 bd 69 ac 43 be 4b cd dd 3e
       -0.16287471 -0.032038108 -0.19108738 0.4332069
000080 6a dd 25 be 74 cb 1e bc f7 d0 a9 bd 73 09 63 bd
       -0.16197744 -0.009692062 -0.0829181 -0.055428933
000090 ee 05 4f bd 27 20 6b 3c c1 78 d4 3d c9 c7 69 be
       -0.050542764 0.014350927 0.103745945 -0.22830118
0000a0 13 63 0c be d2 2d c2 bd 53 d3 17 3e ff e2 00 3e
       -0.13709669 -0.09481396 0.14826708 0.12586592
0000b0 8d 49 04 3e fb a8 51 be f6 32 b8 bd a1 cc c3 3d
       0.12918682 -0.20474617 -0.08994095 0.09560514
0000c0 d0 25 80 be 5f 5e 84 be c7 89 9a 3d 69 f9 dc bc
       -0.2502885 -0.2585325 0.0754581 -0.026974397
0000d0 12 dd 98 bd 49 37 5d bb 0c 51 60 3e 3a 73 a2 3e
       -0.07464041 -0.0033754876 0.21905917 0.31728536
0000e0 18 49 94 bd 07 f9 43 3e 86 43 e6 3d c5 b4 71 3e
       -0.07240504 0.19137965 0.11243348 0.23604114
0000f0 84 fb 36 3e 22 dd ba 3d 58 0c ea bc 66 6f 08 bd
       0.17869383 0.09124209 -0.02857034 -0.033309363
000100 81 45 de 3d 99 c3 bd 3c 15 c6 ff bb 8f 1c 8b 3e
       0.108531006 0.023164557 -0.0078055956 0.27170226
000110 23 7c a3 3c 7a 38 b6 3d 99 a8 93 bc 43 e3 b3 3d
       0.019956654 0.08897491 -0.01802473 0.08783581
000120 56 e9 57 bd e4 d7 6a 3e 57 fb 0d 3e 98 cc 90 3c
       -0.05271276 0.22933918 0.1386541 0.017675683
000130 20 ff 3f 3e b3 f8 a6 3d 1d cf 18 3e 2f e8 1b 3e
       0.18749666 0.08152904 0.14922757 0.1522529
000140 9c da 6b bc 02 92 5d 3d 85 00 d4 3d 5b 33 5a bd
       -0.014395382 0.054094322 0.103516616 -0.053271633
000150 89 38 b8 3c 69 ec 3d bd b7 eb 36 3d 62 b4 27 bc
       0.022487896 -0.046368036 0.04465839 -0.010235878
000160 fe ad db 3d 05 5d 88 bc 14 16 d3 3d 90 45 8a bd
       0.10726546 -0.016645918 0.103069454 -0.06751549
000170 b7 25 71 3d c7 09 63 3e c2 fc 0e bd b0 f3 47 3d
       0.05887386 0.22171699 -0.034909017 0.048816383
000180 ca 1d 8a 3d 1d 0a 53 3c 76 bd 9c bd c2 e5 b4 3d
       0.06743963 0.012880829 -0.07653324 0.08832885
000190 1f d0 cc 3e 97 93 17 3e 53 dd 91 be 97 7d 82 3e
       0.40002534 0.14802395 -0.2848917 0.25486442
0001a0 c8 95 74 be 52 c1 96 be 4e 92 78 be c2 da b0 bd
       -0.23885262 -0.29444367 -0.24274561 -0.08635475
0001b0 79 d1 33 be ac 19 fe bd c3 c8 ec be e9 3b 1b 3b
       -0.17560376 -0.1240724 -0.4624692 0.0023686832
0001c0 ad b8 47 3c e0 fb ea bd ac 40 88 3d 8a 84 4f be
       0.012190026 -0.114738226 0.0665296 -0.20265403
0001d0 6e 85 7e be 26 c0 18 be 59 56 3f 3d ce 9b 25 be
       -0.24855587 -0.14917049 0.046713207 -0.16172716
0001e0 ec d7 6b be 58 85 ff bd 03 cb f3 be 9c e6 27 be
       -0.23031586 -0.12476605 -0.47615823 -0.16396564
0001f0 73 ac 09 be ff ce 64 bd 6e a2 82 3c 82 79 28 be
       -0.1344469 -0.05586147 0.015946593 -0.16452602
000200 cf bc 87 3e 3f cf 2c be 1f b3 d1 3c 06 1e e5 bd
       0.26511237 -0.16875933 0.025598107 -0.11187367
000210 ab 79 1e 3d 82 48 e5 3d 7b 3e 53 be b5 35 aa 3c
       0.03869025 0.111954704 -0.20629303 0.020777563
000220 d6 82 89 be 02 39 76 3d c9 c4 55 be b5 e3 87 3c
       -0.26857632 0.06011296 -0.20875849 0.016588071
000230 4e a6 ac 3e 61 67 d2 3d 04 51 99 be 47 ed a9 be
       0.3372063 0.10273624 -0.29944623 -0.3318884
000240 41 47 02 3e b3 dc 90 3d a6 a2 7b 3d 53 25 d7 3e
       0.12722494 0.07073345 0.06143441 0.42020664
000250 f0 77 28 3c fa bd 50 3e 80 bb 0f 3d 23 5a 17 3e
       0.010282502 0.2038497 0.035090923 0.14780478
000260 f8 06 e9 bd 0b 62 58 3b 85 ea 10 bd c2 b0 2a bd
       -0.11378282 0.0033017423 -0.035379905 -0.041672476
000270 94 b8 23 bd d5 4c 0a 3e 49 74 02 be 5f 3d f8 3e
       -0.03997095 0.13505872 -0.12739672 0.48484322
000280 b7 84 43 3e f9 f2 19 3c 49 a6 33 3e b7 9e 6e 3e
       0.19093595 0.009396308 0.17543902 0.23302732
000290 e2 86 1f 3d 64 fe 10 bd 07 f4 88 bd 35 64 fb 3d
       0.038946994 -0.035398856 -0.066871695 0.12274972
0002a0 ac 4f 87 3e 93 e8 35 be 96 ed fa bc 10 43 4f 3e
       0.26427972 -0.17764501 -0.030630868 0.20240426
0002b0 d6 64 76 3e e1 13 35 3e d4 07 16 3e 57 9f 73 3e
       0.24061903 0.17683364 0.14651424 0.23791252
0002c0 89 29 84 3e c3 59 2f 3e 78 9e 05 bc 59 a0 12 3e
       0.2581294 0.17124085 -0.008155458 0.1431898
0002d0 b3 d7 7b 3e e6 4a 5c 3c 0b ee 1f 3d d7 ef ed 3c
       0.24594001 0.013445592 0.039045375 0.029045029
0002e0 db 5e a9 3e 4f 46 8c bd 7e 07 31 bd be bf d3 3e
       0.3308018 -0.06849348 -0.043220036 0.41357225
0002f0 ac fb f2 bc 0d 6a 8e 3d b1 9f 96 bc b5 c3 7f bd
       -0.029661022 0.06953821 -0.018386694 -0.0624425
000300 13 2e 98 bc 74 8d df 3e 32 f9 06 3e 26 05 b2 bc
       -0.018576657 0.43662608 0.13180998 -0.02173097
000310 5f 58 c5 bd c8 1e 3e 3d fa f9 d3 3d cf 42 10 bc
       -0.09635996 0.046416074 0.103504136 -0.008804991
000320 e0 5d 96 be 6d c7 d0 3c 84 10 eb bd 25 c0 63 be
       -0.29368496 0.025485719 -0.114777595 -0.22241266
000330 01 5d b2 bd dc 3c f2 bd 2d b5 cf bd 8f 13 57 bc
       -0.08709145 -0.11828014 -0.101419784 -0.013127222
000340 da af 32 be bc 27 d4 3d 76 f7 2d 3d 0b 8b 9b 3c
       -0.17449895 0.10359141 0.042472325 0.0189872
000350 87 e4 85 3e ce d7 8e 3e cb 68 45 3c aa 5f 16 be
       0.26150915 0.2789902 0.01204891 -0.1468493
000360 2b 81 c8 bd 79 af 04 3c b6 10 10 3e 64 03 3f be
       -0.09790262 0.008098477 0.14068875 -0.18653637
000370 c3 09 22 bd 2b b6 0d be df b3 a2 3e 4a 5e e3 3c
       -0.03956009 -0.13839023 0.31777856 0.027754921
000380 0e 52 c0 3e 07 51 9c bc 69 5d 28 bd 12 03 d1 3c
       0.37562603 -0.019081606 -0.041104708 0.02551416
000390 8b 98 da bd 0a 64 70 3d 98 f8 79 3e fd 42 e5 bd
       -0.106736265 0.058689155 0.24411237 -0.111944176
0003a0 b9 64 94 bb 2c 05 66 bd 32 f2 93 3d ce 79 11 bd
       -0.0045286086 -0.056157276 0.072239295 -0.035516553
0003b0 e1 82 98 bd a6 4b 83 3e e5 21 90 bc b2 85 80 3e
       -0.07446838 0.25643653 -0.017594287 0.25102
0003c0 37 04 0d be 9f 82 fa 3d e9 6b 2b 3e 4e 1f 40 3e
       -0.13771139 0.12231945 0.16740383 0.18761942
0003d0 80 98 67 3d fe 2a 14 be d5 47 6a 3d 6c 7e 8c be
       0.05654192 -0.14469525 0.05719741 -0.27440202
0003e0 c4 aa 80 3e ad 58 06 be 12 d2 84 be 52 c5 77 be
       0.25130284 -0.13119765 -0.2594152 -0.24196365
0003f0 b5 4e f4 3d 55 9b 4d be 66 66 e6 3e b8 a4 95 3e
       0.11929075 -0.20078786 0.45 0.29227233

encoder.7.bias f4 [20]
000000 dc aa 89 3b 5c 3f f7 bb 1f 3c ae bb 52 87 91 b9
       0.004201276 -0.007545395 -0.0053172256 -0.00027757377
000010 11 ea 80 bb 31 28 ce 3b 24 d2 eb be b5 15 5f bf
       -0.003934153 0.0062914123 -0.46058762 -0.871425
000020 2c b1 d7 3b b9 3e 0a bc d2 09 50 be fc f6 28 3c
       0.0065824 -0.008437806 -0.20316246 0.010312792
000030 04 07 93 be cc e7 06 3b cc 16 c1 bb 62 cd 47 bb
       -0.2871629 0.002058494 -0.00589261 -0.0030487408
000040 c0 61 b3 b8 71 81 cb 3a 6f cc 3b 3a 8c 81 d5 be
       -8.5535925e-05 0.0015526247 0.0007163947 -0.417004

encoder.10.weight f4 [4, 20]
000000 b6 15 28 3f 7a 74 da 3d 03 39 42 bf 05 c9 5e be
       0.6565813 0.106667474 -0.7586824 -0.2175637
000010 ef 3b d2 be b5 97 21 3f 20 c6 16 3f 7b 81 90 3f
       -0.4106135 0.6312211 0.58896065 1.1289514
000020 b9 83 1a 3f 0f 0f f5 be 61 40 3c be 0d cf 21 3f
       0.6035724 -0.4786305 -0.18383934 0.6320656
000030 ea 2a 34 3e 85 36 43 3f 10 77 db be 80 56 52 3f
       0.17594495 0.76255065 -0.42864275 0.8216324
000040 a3 ce 4e be b6 08 82 be 61 be b9 be 25 bf 6e 3f
       -0.20196013 -0.2539727 -0.3627806 0.93260413
000050 2b e5 9b be 8b 7f 0d bf 8b 24 df be 70 1d 11 be
       -0.3044828 -0.5527274 -0.43582568 -0.14171386
000060 a2 7a 1e 3f a2 3f b1 be dd 3e c1 3d 34 af 04 3f
       0.6190587 -0.3461886 0.09435818 0.5182984
000070 17 4b 3e be 6e 0f cb be 0d ee e7 bd fd 11 ab be
       -0.18583332 -0.3966021 -0.113247015 -0.3341216
000080 24 d6 7d bd 63 b6 a8 be a3 70 25 3f d4 b6 ac be
       -0.0619718 -0.3295165 0.64624995 -0.33733237
000090 84 1b 34 be d6 f7 85 3e d8 16 05 3f 47 b7 84 3e
       -0.17588621 0.26165646 0.5198798 0.2592108
0000a0 2b 91 20 bf d6 f2 6e 3e 83 75 bd 3e 27 31 0a be
       -0.6272151 0.23334822 0.37003717 -0.13495313
0000b0 75 e4 0a 3f 5b 12 d7 3e ee e7 5f 3e 70 74 16 3c
       0.5425485 0.42006192 0.21865818 0.009183034
0000c0 c0 e5 15 bf 79 c9 af 3e 12 56 41 be 22 28 79 3e
       -0.58553696 0.343334 -0.1888049 0.24331716
0000d0 fb 78 6a 3e 36 94 32 bf 4a d9 0f 3f a0 fa 42 bf
       0.22897713 -0.697574 0.5619093 -0.76163673
0000e0 ac 40 56 be 70 3e 7b 3e ad 22 fd 3e 23 92 0c bd
       -0.20923108 0.24535537 0.49440518 -0.034319054
0000f0 e1 4a d6 3e 99 41 22 be dd 36 e6 3e 6e b0 ea be
       0.41854003 -0.15845336 0.44963732 -0.4583773
000100 0d 6f af be 39 26 58 be 28 03 ed bd d8 7a c9 be
       -0.34264413 -0.21108331 -0.11572868 -0.39351535
000110 05 fa a0 3e 96 3b 8e 3e 41 94 12 be 68 91 4c be
       0.3144075 0.27779835 -0.14314367 -0.19977343
000120 59 bf 29 be c8 a2 06 3f c2 cd af be 36 2c 10 3f
       -0.165769 0.52592134 -0.34336668 0.5631746
000130 0b 64 f7 be 8c 71 84 be 32 da 95 be ae 8c 96 be
       -0.48318514 -0.2586788 -0.29268032 -0.29404205

encoder.10.bias f4 [4]
000000 51 3c 1c be 17 01 1d be 9e 35 2e 3e 45 e2 3d 3e
       -0.15257384 -0.15332447 0.17012641 0.18543346

decoder.0.weight f4 [20, 4]
000000 71 03 76 be f5 c7 1f 3e 9c b4 22 3f 26 8f a9 3f
       -0.2402475 0.15603621 0.6355684 1.324681
000010 76 17 ab 3e 5b 24 ba be a8 61 10 bf 17 ed 17 3f
       0.33416337 -0.36355862 -0.5639901 0.59346145
000020 92 e1 69 be 25 b9 51 be 01 f7 32 3f 68 e8 1c 3f
       -0.22839954 -0.20480783 0.6990815 0.61292124
000030 18 a1 ba bd 8f 51 7e bf b8 6c 6d bf a2 8c 56 3f
       -0.091127574 -0.993432 -0.92744017 0.8380834
000040 2e 50 07 bc 84 a4 09 3e d9 73 a2 3e dc 9f 41 3f
       -0.008258862 0.13441664 0.3172901 0.7563455
000050 5e 19 47 3f cf ef 8f be bb c4 aa 3d d5 43 5b bf
       0.7777308 -0.28112647 0.083383046 -0.8565038
000060 35 41 93 3f 07 fb 0a be 65 d5 f1 3e 5c 69 20 bf
       1.1504275 -0.13572322 0.4723312 -0.62660766
000070 bf 74 00 3f 33 24 75 be 80 6a 0a bf a2 52 c3 be
       0.5017814 -0.2393959 -0.54068756 -0.3814898
000080 d6 d1 bd be 2b ca 23 3f 91 7e b5 bd 51 b1 c6 be
       -0.37074155 0.6398036 -0.08862031 -0.38807157
000090 9c f3 70 3e 63 98 eb 3e 28 49 68 3e 53 be da be
       0.2353043 0.460147 0.22684157 -0.4272333
0000a0 70 98 64 be 7a 07 b3 3e e2 18 9e 3e d9 6b 0c be
       -0.22323775 0.34966642 0.3087836 -0.13713016
0000b0 4e 30 a9 bf 9b 60 df 3e ef d1 a2 be bd a0 11 3f
       -1.3217866 0.43628392 -0.31800792 0.5688589
0000c0 dd 69 c8 3d b1 c0 6a bf e0 ab 09 bf c1 20 e4 3e
       0.09785817 -0.91700274 -0.53777885 0.4455624
0000d0 13 26 01 3f 17 b8 dd 3e 61 e5 e7 3d ee a0 87 3c
       0.5044872 0.43304512 0.113230474 0.01655623
0000e0 a3 78 18 3c 3e ff b9 be 0e de e0 be e4 c3 38 be
       0.009306106 -0.36327547 -0.43919414 -0.18043476
0000f0 99 fc 99 3e 72 fd e1 be 1f 27 03 3f 49 0d c0 be
       0.3007553 -0.44138676 0.5123157 -0.37510136
000100 a5 63 7e bf 99 97 4d be 9a 18 27 3e ed 71 e5 be
       -0.99370795 -0.20077361 0.16317979 -0.4481348
000110 6b b6 64 bf 93 49 9f be 6a 1a 02 3f 89 0e 08 be
       -0.8934085 -0.3111082 0.50821555 -0.13286795
000120 f1 28 12 bf e6 4b 0d 3f 7b ac 03 3e 97 7a a9 be
       -0.5709372 0.55193937 0.12858765 -0.3310134
000130 59 25 44 3e ee 4d 7a be f0 80 6f be 6c 9c 4d be
       0.19154872 -0.2444379 -0.2338903 -0.20079201

decoder.0.bias f4 [20]
000000 29 ff 2c bf e4 ef 31 bd 69 40 a2 be 59 9a 9b 3c
       -0.67576844 -0.04344167 -0.31689766 0.018994497
000010 37 de 85 be e8 7b 3c 3e 3b 53 19 3e 93 1e a7 3e
       -0.261461 0.18406641 0.14973156 0.32640514
000020 2b 8e 49 be 85 82 d1 3e 66 2b 3b 3e 5c 2d 5c be
       -0.19683139 0.4091989 0.18278274 -0.21501678
000030 4f 77 d3 3d e5 3a d3 be 38 07 f2 be 99 0c 08 be
       0.10325491 -0.4125587 -0.47271132 -0.13286056
000040 ef 7a ee bd 53 5a 09 be 36 0c 87 3e 6f 63 0a 3e
       -0.116445415 -0.13413362 0.26376504 0.13514493

decoder.2.weight f4 [50, 20]
000000 39 be 5f 3e d8 96 a6 be 22 67 3e be a0 39 4e be
       0.21849908 -0.3253696 -0.1859403 -0.2013917
000010 d3 52 d3 3c 17 a2 00 3e 88 5e a1 3b 8c 25 c1 3d
       0.02579633 0.12561832 0.004924599 0.094309896
000020 34 83 33 3e cf 64 7b 3e a8 e4 8b 3c ab 33 9e 3d
       0.17530519 0.24550174 0.017076805 0.07724699
000030 eb d6 1f be 88 91 b0 3d b2 7c 5c 3e f0 99 86 3e
       -0.15609328 0.08621508 0.21531942 0.2628932
000040 0f 76 cb 3d 17 a4 47 3e 76 da d6 3d 0b 9a 42 be
       0.09934627 0.19496189 0.10490887 -0.19004075
000050 eb 35 e8 bd 76 28 2a bd 16 74 c7 bc 95 ed 8e 3d
       -0.11338409 -0.041542493 -0.024347346 0.06978909
000060 6f 20 07 be 98 b2 15 be 74 f8 45 3e 3c 45 67 3d
       -0.13195966 -0.1461891 0.19333059 0.05646251
000070 7c 5c 57 be ee 29 10 be b4 de f1 3d 5b 48 dc 3d
       -0.21031374 -0.14078495 0.118100554 0.10755988
000080 63 c9 c4 3d c2 b6 1b be 7f f6 af bd 06 bb c6 ba
       0.09608724 -0.15206435 -0.08591937 -0.0015161938
000090 40 99 28 bb bf 06 59 3e a3 ac 4f be ad 49 22 3e
       -0.002572611 0.2119398 -0.202807 0.15848418
0000a0 e0 59 04 be 45 4b 38 3e f5 01 30 3e f3 3d 52 bd
       -0.1292491 0.17997463 0.17188247 -0.05132861
0000b0 e5 34 0a bc cc 3e 1f 3e 6a 04 d9 3d 26 df b3 bb
       -0.008435463 0.15551299 0.10596545 -0.005489248
0000c0 76 34 b8 bd 31 ef 08 3e b9 53 c2 bc 5d c4 0c bd
       -0.08994381 0.13372494 -0.023721563 -0.034366954
0000d0 8c 41 e3 3d ac 15 4b 3d 00 a2 9f bd eb f6 1d 3e
       0.110964864 0.049581215 -0.07794571 0.15426223
0000e0 b2 e6 8b 3b b0 b9 05 be f5 66 dc bc ce 57 59 3d
       0.0042694444 -0.13059115 -0.026904562 0.053062253
0000f0 76 28 b9 bd 1d 80 0c 3e 73 48 63 bd 60 ce 2e bd
       -0.090409204 0.13720746 -0.055489015 -0.042677283
000100 a9 63 6f be 2c 00 d4 bb 51 c4 0e 3e 56 17 87 3e
       -0.23377861 -0.006469747 0.13942076 0.2638499
000110 15 cd 6d 3d 46 70 4e bc 18 d0 4e bd 5b 7c 26 3e
       0.05805691 -0.01260001 -0.050491422 0.16258375
000120 85 74 92 3d 0a e8 a7 bd af d3 60 be ba cf a2 3d
       0.071511306 -0.08198555 -0.21955751 0.07949777
000130 7c d4 d2 3d fa 1b 00 bc 27 7f 80 3d 87 24 49 bd
       0.102944344 -0.00781917 0.062742524 -0.0491071
000140 1f a2 da be 2a 80 4d be 95 56 e0 3d 94 2f ea 3d
       -0.42701814 -0.20068422 0.10954014 0.11434856
000150 d2 39 37 be 65 e2 0d bd 3b be 20 3e 6e 21 40 be
       -0.1789315 -0.034639735 0.15697567 -0.18762752
000160 59 6a 98 bd 75 dc 58 be 99 a3 0a be 75 8d 6d 3e
       -0.07442159 -0.21177848 -0.1353897 0.23198493
000170 fb 0d 8c 3e eb 8a 0a be d8 e2 cd bd ff c3 81 3e
       0.27354416 -0.13529555 -0.10053033 0.25344846
000180 de 9f 13 3e 51 71 9a 3d a0 de 1e 3e 89 53 1f 3e
       0.14416453 0.07541145 0.15514612 0.1555921
000190 1a 69 eb 3d 09 08 40 3e 57 e6 7d 3e 8c d2 ec bd
       0.11494656 0.18753065 0.24794899 -0.11563596
0001a0 e4 4d 65 3e 4d 04 4c 3e 4a 10 5e 3e 7c ba bf be
       0.22392994 0.19923516 0.21685901 -0.37446964
0001b0 58 dc 40 3e 34 b3 8f 3e 99 17 87 bd 1d 0c 0c be
       0.18834054 0.2806641 -0.06596298 -0.13676496
0001c0 51 e1 7f bd c4 8e 33 be 33 65 04 3e 82 91 88 3c
       -0.062470738 -0.1753493 0.1292923 0.016670946
0001d0 5a f0 b1 bc 41 93 de be 22 ab 45 3e 33 5c 52 3d
       -0.021721054 -0.4347172 0.19303563 0.05135746
0001e0 cd a0 54 3e 27 ff 40 be 23 ed 1e 3d 2c fe ee bc
       0.20764466 -0.18847333 0.03880037 -0.029173933
0001f0 ad 07 fc 3d a0 f1 3d 3e c0 31 28 bb 0c d8 a7 bd
       0.123061515 0.18549204 -0.002566442 -0.081955045
000200 5c 76 dd bd 7a 8b 4c 3e 6e 13 99 bd 55 5f 08 3e
       -0.10813591 0.19975081 -0.07474409 0.13317616
000210 e7 75 c5 bd d6 52 63 be ca 82 53 be 48 c6 e4 3d
       -0.09641629 -0.22199568 -0.20655361 0.11170632
000220 15 a5 5d be 92 96 8a bd d8 48 d6 bc 9e 1d ff bd
       -0.21645005 -0.06767 -0.026157781 -0.12456821
000230 99 3a 95 bd f2 c3 51 bd 2f 0a ff bd 0b c1 aa 3c
       -0.07286567 -0.05121226 -0.12453114 0.020844003
000240 91 64 22 be 02 92 6e b9 e8 9c 3b 3e 1e c2 8d 3d
       -0.15858676 -0.00022751841 0.18321574 0.069217905
000250 6e d4 2f 3e a4 cd 02 3e ff 81 11 bd 19 72 fd 3d
       0.17170879 0.12773758 -0.035524365 0.12375278
000260 70 d8 c0 3d 15 7d 28 be 6d 66 13 be 1b dc fe ba
       0.09416282 -0.16453965 -0.14394541 -0.0019444259
000270 ea 02 f6 3d 0d 32 af 3d 7f 5b 87 be 4b ad d9 bb
       0.120122746 0.08554468 -0.26436993 -0.0066429726
000280 b5 58 c9 3e a1 00 80 3e a9 8e 67 3e eb 8c 53 be
       0.3932549 0.2500048 0.22613014 -0.20659225
000290 fc f4 9b 3e 51 9c dc bc d8 6b 78 3e bb dc 55 be
       0.30460346 -0.026930006 0.24259889 -0.20884983
0002a0 65 ee d6 3d 9d f3 28 3e 20 c8 2a 3e 04 2c 13 3d
       0.10494689 0.16499181 0.16677904 0.03593065
0002b0 02 27 44 bd 24 0f a8 3c 57 21 25 be 3e ba 8a be
       -0.047888763 0.020515032 -0.16126 -0.27095217
0002c0 e2 6c 3f be ef b0 10 be 4c fa eb 3d 96 13 bf 3d
       -0.18693879 -0.14129995 0.1152235 0.093299076
0002d0 5a e0 14 3e d7 f9 90 bc 22 8a 46 3e 6f bf 07 3e
       0.14538708 -0.017697258 0.19388631 0.1325662
0002e0 58 69 8d bd bc 8b 83 be c6 e2 d1 bd da 2d e1 bd
       -0.06904858 -0.25692546 -0.10248332 -0.109950736
0002f0 dc 43 16 be 81 87 c0 3d 89 87 06 3e 73 03 11 3e
       -0.14674324 0.09400845 0.1313764 0.14161472
000300 88 4c 86 bc ff 09 ea bd 94 ea e2 3d 14 90 37 be
       -0.016393915 -0.11427688 0.110798985 -0.17926055
000310 15 c3 19 be 80 d2 22 3e a4 e7 2a 3e 5b fd 2b 3e
       -0.15015824 0.15900612 0.16689926 0.16795866
000320 5c 85 2b bd 5a 7a 1c 3e 1f d3 2c bd a6 10 1d bd
       -0.04187523 0.15281048 -0.04219353 -0.038345955
000330 7c a0 52 3e 19 5b 26 3e 02 f5 47 3e 40 9b 0f 3e
       0.20569032 0.16245688 0.19527057 0.14024067
000340 01 82 3b 3e 9a 91 7a bd 15 dc a1 3d be 14 70 3d
       0.18311311 -0.061174013 0.079033054 0.05861353
000350 d7 70 13 be aa 35 0f bd a3 cd 94 3d db ff 30 be
       -0.14398514 -0.034963287 0.072657846 -0.17285101
000360 cf e1 60 3e 64 e1 23 be dd ef 69 3e f0 71 1c bd
       0.21961139 -0.16003948 0.22845407 -0.038194597
000370 85 64 41 3e 61 53 f7 3c a5 6f ac 3d b9 37 de 3d
       0.18886001 0.030191125 0.08419732 0.10850472
000380 5c 03 c6 bd 5f 52 27 be 9b fd 61 be 6e 1c 09 3e
       -0.096686095 -0.16340016 -0.22069399 0.13389751
000390 dd 53 a7 bd 5c 4f 37 be a3 e1 6a be 23 4c 61 be
       -0.081702925 -0.17901367 -0.22937636 -0.220017
0003a0 35 60 26 3c 8e 2d bd bd 5b 19 7c bd c8 3f 58 be
       0.0101547735 -0.092372045 -0.06154762 -0.2111808
0003b0 38 e9 0b be 71 42 ba 3d 88 18 36 bd b6 d3 8d 3d
       -0.13663185 0.09094704 -0.04445699 0.06925146
0003c0 d6 1a a1 3d 08 58 8b 3e 3a 87 93 ba d6 1f be 3e
       0.07866447 0.272156 -0.0011255511 0.37133664
0003d0 1a 3f 85 3d 2d 2c f1 bc 1d 33 5f 3c 59 b8 ed 3b
       0.06506176 -0.02944001 0.013623026 0.007254642
0003e0 86 65 41 3e fc 26 1f 3e 1c 6e 03 3e 76 4e 99 be
       0.18886384 0.15542215 0.12834972 -0.29942673
0003f0 74 01 a5 3e 36 50 dd bd b2 af fb 3d 3d cc dc 3c
       0.3222767 -0.10806315 0.122893706 0.026952857

decoder.2.bias f4 [50]
000000 f8 ac 84 3e f0 7a b6 bd d0 96 07 3d ce 53 2d 3e
       0.25913215 -0.08910167 0.03310281 0.169265
000010 10 a5 94 3d 43 f4 20 3e 1a 15 20 be 57 05 5b 3e
       0.07258046 0.15718178 -0.1563305 0.21388756
000020 b1 d3 04 3e c5 d8 63 be 78 90 c2 3d e9 18 e1 bd
       0.12971379 -0.2225066 0.095002115 -0.10991079
000030 2a fc ed bd 96 6a 71 be 29 38 d8 bd a0 2f b2 bd
       -0.11620362 -0.23575816 -0.10557587 -0.0870049
000040 76 19 8d be 72 a0 07 3e bb 61 66 bd 5e 0d dd bd
       -0.27558488 0.13244799 -0.056245547 -0.10793565
000050 8c 0d 14 3e f1 a2 46 3a 32 e9 a9 bd 8b b7 ff 3b
       0.14458293 0.0007577381 -0.082964316 0.0078038624
000060 63 1a 7d 3e a5 5a 14 3e 67 41 13 be b7 08 33 be
       0.24717097 0.14487703 -0.14380418 -0.17483793
000070 6b ab 09 3e 36 1d da bd 53 b8 48 be b1 9b 62 3d
       0.13444297 -0.10650103 -0.19601564 0.05532426
000080 5f 9b 9f 3d 43 93 01 3d 18 3a 17 be 0f 29 72 bd
       0.077933066 0.03163458 -0.14768255 -0.059121188
000090 6a 48 8e be 75 9d be 3b 85 07 da 3d a7 08 ad bd
       -0.27789623 0.00581711 0.106459655 -0.08448916
0000a0 a5 33 16 be 9a f0 ba bd 2b 57 03 be 3f a0 48 be
       -0.14668138 -0.09127922 -0.1282622 -0.19592379
0000b0 0c 91 d8 3e 86 6f 1a 3e 55 1e cd 3d 6e 20 95 bd
       0.42298162 0.15081605 0.10015551 -0.07281576
0000c0 fd b7 cc bd 79 55 18 bd
       -0.099960305 -0.037190888

decoder.4.weight f4 [50, 50]
000000 33 05 35 3d 7a 4d 07 be 39 64 a3 bd 1f 4f 67 bd
       0.04419441 -0.13213149 -0.079781 -0.05647194
000010 c5 ab 93 3c 90 96 58 bd 29 b0 c9 bd 2c 4a 0f bd
       0.018026242 -0.052877963 -0.09848053 -0.034982845
000020 69 30 80 bd ff 0e c7 3c df 2f 8b 3d f2 be 03 3c
       -0.062592335 0.024299143 0.0679624 0.00804113
000030 2d 93 d6 bd fa 50 d5 bd 05 69 fe 3d 4b b5 81 bd
       -0.1047729 -0.10415836 0.12422375 -0.06333407
000040 f6 ea 38 3c f5 4f a1 bd 92 63 0e 3c 63 4d ab bc
       0.011286488 -0.07876579 0.008690732 -0.020910924
000050 5d 1b d0 bd 9b 18 ad bd f0 19 d2 bd 08 23 c0 3d
       -0.10161469 -0.08451959 -0.102588534 0.09381682
000060 bc b4 af bd 82 a7 09 3e c7 e6 0c be 23 bd 77 bd
       -0.08579394 0.13442805 -0.1375991 -0.06048311
000070 9b ea f2 bd 91 a8 e2 bd 5c 76 00 3e f9 9f ce 3d
       -0.11861154 -0.11067308 0.1254515 0.10089106
000080 b0 8e 22 3d ac 9c 1c bb b5 e6 05 be f9 b6 e4 bd
       0.03968686 -0.0023897095 -0.13076289 -0.11167712
000090 93 3d ec 3c a8 3d 67 bd 57 c5 0b be b9 60 19 3d
       0.028837955 -0.056455284 -0.13649498 0.037445758
0000a0 de 2a bb 3c c1 11 af bd d2 d9 91 3c 13 28 9a bd
       0.02284759 -0.08548308 0.01780406 -0.07527175
0000b0 6b 9d a6 bd d3 6f 04 3e ad 23 f6 3d 78 f6 05 bc
       -0.08135494 0.12933283 0.12018523 -0.0081764385
0000c0 53 46 9e bd 0d a9 b7 bd ca 31 e4 bd 58 81 e2 bd
       -0.07728257 -0.08967791 -0.11142309 -0.110598266
0000d0 3a 4f ad 3d 45 93 77 3c 33 94 5b bd 4f dd 68 3e
       0.08462377 0.015110795 -0.05360813 0.22740673
0000e0 69 21 ca 3c b4 7a 16 bd 3a 22 69 3e 76 4d c6 3c
       0.024674134 -0.036738113 0.22766963 0.024206858
0000f0 f6 05 18 3e 15 6d bd 3d 38 44 e9 3d 9f 81 fa 3d
       0.14846024 0.09249321 0.11389965 0.122317545
000100 6f fd b0 be e2 49 f8 bd 5a 5a 74 3e a2 97 42 3c
       -0.34568354 -0.12123467 0.23862591 0.011876972
000110 ce 90 b1 3d 68 0d 9e 3c 08 74 2f be b9 0a e3 3d
       0.086701974 0.019293502 -0.17134106 0.110860296
000120 5f c5 3e bc 44 e1 c2 3d 3c d6 ca 3d d3 7e 5e 3e
       -0.011643737 0.09515622 0.09904143 0.21728067
000130 87 b4 2a 3e 25 f2 c5 bd 5e a8 83 3e 00 88 20 bd
       0.16670428 -0.09665326 0.2571439 -0.0391922
000140 59 83 08 be 52 37 e8 bd 54 d4 8c bd 4a 30 e2 3d
       -0.13331355 -0.113386765 -0.06876436 0.11044367
000150 7e aa 18 3e 51 26 ee bb e7 39 ce 3c 73 49 0c 3e
       0.14908788 -0.0072677513 0.025174094 0.13699894
000160 52 0e 08 be 26 0a 03 3e 3f 6e 06 be fb f0 40 be
       -0.13286713 0.1279684 -0.13127993 -0.18841927
000170 44 67 75 bd a0 b8 f9 3d af 9f 76 3e 23 f3 24 bd
       -0.059912935 0.121934175 0.24084352 -0.040270936
000180 de 7d 24 bd 72 1f e7 3d dd f9 9f bc 5c ac 28 3e
       -0.0401591 0.112852946 -0.019528324 0.16472
000190 94 0d 69 3e 2f 0f 15 be cf b5 7a bd 2e 00 6f bd
       0.22759086 -0.14556573 -0.061208542 -0.05834978
0001a0 42 1c 01 3e e6 2c 7d 3d 6e f7 e0 bd cc 59 7b bd
       0.12608436 0.061810397 -0.109846935 -0.061364934
0001b0 df ab 32 3d f4 b6 6b bd 05 ae 4d bd b7 64 26 3d
       0.04362094 -0.057547525 -0.050214786 0.040623393
0001c0 86 e8 15 be 94 46 63 3d 1b fe 74 3e 99 42 85 bd
       -0.14639482 0.05548723 0.23925059 -0.06506843
0001d0 db fa 68 3d 4d 3d 8c bd 07 c8 0d bb 5f e6 75 bd
       0.05687986 -0.0684763 -0.0021634118 -0.060034152
0001e0 74 5d f6 3d 9a ac 6e bd d5 28 cf bd a3 17 b2 bd
       0.120295435 -0.058270074 -0.1011521 -0.086959146
0001f0 1d b8 82 3d 48 a2 85 bc 44 e3 48 3c e3 37 32 bd
       0.06382773 -0.016312733 0.012261216 -0.04351033
000200 eb d9 7e bc 3e 31 cd bd 99 13 eb 3c fb 64 a1 bd
       -0.015554885 -0.10019158 0.028695868 -0.078805886
000210 56 d6 4c 3c 14 5e f1 3d 0b 04 c6 bd ba bb bd 3c
       0.012502274 0.11785522 -0.0966874 0.023160804
000220 e5 1c d7 3d d8 b4 02 3e 84 00 f7 bd e1 cf 21 bb
       0.10503558 0.12764299 -0.12060645 -0.0024690556
000230 77 69 32 3d db a8 96 3d e3 b0 cc 3d 7f 2b e2 3c
       0.04355761 0.073564254 0.09994676 0.027608631
000240 40 4d 71 3e a2 95 dd bd 7b 4a 91 3d d6 b3 3d be
       0.23564625 -0.10819556 0.07094284 -0.18525633
000250 f6 16 c6 bc 13 40 71 3e 63 2e ba bd 6f 99 fb bd
       -0.02418087 0.23559599 -0.09090879 -0.122851245
000260 1b 74 8f bd 96 58 17 3e 3b bd 21 bd 69 ac 87 be
       -0.07004567 0.14779887 -0.039487105 -0.26498726
000270 b3 27 c8 3d f8 98 c8 bc 40 da 9b bd 44 60 8c 3d
       0.09773197 -0.024487004 -0.07609987 0.06854299
000280 9c f6 17 bd ba ea d7 bd 68 8e 31 be a6 6d bf 3e
       -0.03710042 -0.105428174 -0.1733948 0.37388343
000290 b7 48 45 be 2d 22 fd bd 1f 42 a1 bc 4d 30 03 bd
       -0.1926602 -0.12360034 -0.01968485 -0.032028485
0002a0 1b 84 d6 bb 85 34 e3 3d aa 2e be 3e 85 9f e0 3d
       -0.00654651 0.11094002 0.37144977 0.10967926
0002b0 e0 e2 5b bd c8 47 88 3d d8 1e c0 3d 62 70 43 bc
       -0.05368316 0.06654316 0.09380883 -0.01192865
0002c0 38 02 07 be 56 50 a1 3d a2 c5 70 3d 28 fc 86 3d
       -0.1318444 0.07876651 0.058782227 0.06591064
0002d0 9c 4b f7 bd d4 6e 9b 3e 87 fa 6e bd 19 51 ef 3c
       -0.12074968 0.30357993 -0.05834439 0.029213475
0002e0 37 e3 1a 3d 72 25 80 bd eb 3a 87 3e 95 ac 8a bb
       0.037814345 -0.06257142 0.26412138 -0.004231999
0002f0 0d 46 ee 3b 4c e7 5b 3d f7 e2 bf 3d 10 71 b0 3e
       0.0072715343 0.05368738 0.09369462 0.3446126
000300 33 08 18 3d d2 08 d8 3d 1c 54 4d 3e d3 60 83 3c
       0.037117194 0.10548557 0.20051616 0.01603738
000310 2a aa 8d 3e 13 d9 51 be aa 55 df 3d 96 f9 c7 bd
       0.27668887 -0.20492963 0.10905011 -0.097644016
000320 82 a5 d6 3d 14 1e 53 bd b8 5c 03 3d e6 df 8c bc
       0.10480787 -0.051542357 0.032070845 -0.017196607
000330 f2 ee b6 3d 8b 22 44 bd 08 18 fc 3c a4 ad 4f 3d
       0.08932294 -0.047884505 0.030773178 0.050702706
000340 56 04 42 bd 43 b8 32 3e 89 1b 62 bd 8d c6 1b 3e
       -0.047367416 0.17453103 -0.05520204 0.1521246
000350 82 5a e4 bd bb 63 f8 3e aa 16 a0 3d fa 7c e6 bc
       -0.111500755 0.48513588 0.07816823 -0.028135765
000360 d9 54 72 3e a7 02 ae bd fb d7 12 3e 21 96 23 3d
       0.2366518 -0.084966 0.14340203 0.039938096
000370 c7 ba 0e 3e f9 11 08 3d aa ca 6b ba d2 73 a7 bd
       0.13938437 0.033220265 -0.0008994738 -0.08176388
000380 18 7d 8e bd 1a b2 0f 3e 6a ca e4 3c 32 62 af bd
       -0.069574535 0.14032784 0.02792855 -0.08563651
000390 1e 6f 8e bd a6 31 47 be 32 1a fd 3d 43 df 84 3d
       -0.06954788 -0.19452533 0.12358512 0.06487896
0003a0 96 a1 f5 3c b4 54 4c 3e 1d 14 c9 3c 89 3f eb 3d
       0.029984277 0.19954187 0.024545724 0.11486728
0003b0 f2 da aa 3e 14 1f 01 be 55 a5 c1 3d 65 2c 62 3e
       0.33370167 -0.12609512 0.09455363 0.22087248
0003c0 3d 42 25 bb 65 1b 3d 3e d3 e9 ce 3d 8a b9 aa 3d
       -0.0025216483 0.18467481 0.10103192 0.0833617
0003d0 3d 3e 4a 3e 8d e1 d9 3c d8 16 25 3d 9d 88 30 3d
       0.19750305 0.026596809 0.04030499 0.043099035
0003e0 a7 fc 19 3e 69 c1 a8 be b5 31 cf bc af fe c0 bc
       0.15037785 -0.3296006 -0.025292257 -0.023558943
0003f0 36 d8 bd 3d 24 b5 bb 3c d1 11 e8 3d 9b e1 be 3b
       0.092697546 0.022913523 0.11331523 0.005825234

decoder.4.bias f4 [50]
000000 e9 30 00 be bf 99 08 3e 4f c2 b3 3e b6 91 eb bd
       -0.12518658 0.133399 0.35109183 -0.115024015
000010 3f 71 91 3d 3d 92 f8 bd fe 1d 66 be 13 bd c6 3d
       0.07101678 -0.12137268 -0.22472379 0.09704032
000020 9b ca 04 be fd 27 98 3d 4d 8c fa bd a5 16 dd bd
       -0.12967913 0.07429502 -0.122337915 -0.10795335
000030 5b 65 12 be 50 51 80 3b c9 24 ba 3d c1 1d 26 be
       -0.14296477 0.003915943 0.090890475 -0.16222288
000040 11 0a 31 bb a4 4b bb bb 57 24 8f 3d e0 94 d4 bd
       -0.0027014057 -0.005715804 0.06989353 -0.10379958
000050 35 5b cd bd f2 d1 07 bb 55 61 93 3e 71 6f f9 bc
       -0.10027162 -0.0020724502 0.28785196 -0.030448647
000060 ab 96 f5 3d 84 20 99 bd 96 2f 68 bd a5 e8 7e bd
       0.11991628 -0.07476905 -0.056686006 -0.062233586
000070 51 8e 7e bc 9b fb 4c 3e 56 2a 48 3d f4 36 e2 3d
       -0.015536861 0.20017855 0.0488685 0.11045638
000080 2f ab 5d 3c 78 45 15 bd ae 2c 0a bc bc 6d 6d 3d
       0.013529583 -0.036443204 -0.008433504 0.05796598
000090 55 d2 1f 3e a4 4d 17 3d ec 73 06 3e 4e 6f b3 bb
       0.15607579 0.03693928 0.13130158 -0.005475915
0000a0 51 cd ab bc 78 7c 31 3d dc 87 1e 3e 4c 18 84 3d
       -0.020971926 0.043331593 0.15481514 0.06449947
0000b0 3c 81 05 be fd 09 7d bd 6b a8 75 3d 52 1b 5e bd
       -0.1303758 -0.061777104 0.05997507 -0.054225273
0000c0 79 4e 4c 3e 6d cc e1 bb
       0.1995181 -0.0068908245
