RiskViz Folder/RiskViz Folder/model/checkpoint_1400.tar (torch, 110796 bytes, 51 tensors)

encoder.1.weight f4 [50, 6]
0	0xbf0a074a	-0.5391737
1	0x3c3227d6	0.010873755
2	0x3b49e445	0.0030806225
3	0x3e5688aa	0.2095057
4	0xbeb778b2	-0.3583427
5	0x3e01aad1	0.12662818
6	0xbbcad9fd	-0.006190537
7	0xbbc52b37	-0.0060171145
8	0xbbb37aef	-0.0054773013
9	0x403129eb	2.7681835
10	0x3c65be97	0.014022491
11	0xbe1156bd	-0.14193244
12	0xbe3755b6	-0.1790379
13	0xbe2379b2	-0.15964392
14	0x3c5b0c38	0.013369612
15	0xbdbf7196	-0.09347837
16	0x3ee205f8	0.4414518
17	0xbe959bc3	-0.292204
18	0x3e551c41	0.2081156
19	0xbaeaf8c3	-0.001792692
20	0x3bdb95ce	0.0067012077
21	0xbe0e46f9	-0.13894261
22	0x3bf905f1	0.007599585
23	0x3f98e4e1	1.1944848
24	0xbd22fe9a	-0.03979359
25	0xbe31274d	-0.17300148
26	0xbbe3bfc8	-0.0069503523
27	0x3f5858d3	0.84510535
28	0x3e7c027c	0.24610323
29	0xbf0bc96c	-0.5460422
30	0x3f26d8e0	0.65174675
31	0x3ce6ea8a	0.028188009
32	0x3c103d2c	0.008803647
33	0x3d352fd1	0.044235054
34	0x3d45c747	0.04828575
35	0x3f8f620b	1.1201795
36	0xbda01ce5	-0.07818011
37	0xbe671ffa	-0.22570792
38	0xbded626a	-0.115910366
39	0xbe7b1f36	-0.24523625
40	0x3e53c4ef	0.20680593
41	0xbe50ec98	-0.20402753
42	0xbf54399b	-0.829004
43	0x3e309692	0.17244938
44	0xbc148208	-0.009064205
45	0xbd2a3797	-0.04155692
46	0xbdf7a809	-0.12092597
47	0xbd403685	-0.046926994
48	0x3f34ad4b	0.70576924
49	0xbbd63e93	-0.006538221
50	0xbb25ffde	-0.002532951
51	0x3f5ffc87	0.874947
52	0x3f2c1e05	0.67233306
53	0x3d5ebcb5	0.054379184
54	0xbea52900	-0.32257843
55	0x3c321481	0.010869146
56	0xbe427bb8	-0.18992507
57	0xbb186c90	-0.0023258068
58	0x3e4bdfcd	0.19909592
59	0x3e382f86	0.17986879
60	0xbf00cdec	-0.5031421
61	0x3a342686	0.00068721955
62	0xbb07390b	-0.0020633365
63	0xbf7974fd	-0.97444135
64	0xbe9fb135	-0.31189886
65	0x3e29b967	0.16574632
66	0xbe6e8a82	-0.23295024
67	0xbe36933d	-0.17829604
68	0x3e0c6993	0.13712148
69	0x3e7098f2	0.23495844
70	0x3bbb7119	0.0057202694
71	0xbe229d14	-0.15880233
72	0xbe3f8974	-0.18704778
73	0xbc1a25ca	-0.009408424
74	0xbce878df	-0.028377948
75	0x3f8d8d58	1.105876
76	0xbdca68a3	-0.09883239
77	0x3f38a37c	0.7212446
78	0xbf0b7b3c	-0.54484916
79	0x3ba5aa2c	0.0050556865
80	0x3b6d0023	0.0036163412
81	0xbf490a94	-0.78531766
82	0xbe9a2e5c	-0.30113494
83	0x3dfe74bb	0.12424608
84	0xc0237a33	-2.5543334
85	0xbb336872	-0.0027375487
86	0x3b2792ef	0.0025569757
87	0x3dceca84	0.100972205
88	0xbef43758	-0.47698474
89	0x3ee2b699	0.44279936
90	0xbf2abf09	-0.66697747
91	0x3bd44e32	0.006479048
92	0x394e4d6a	0.0001967453
93	0xbdaab59e	-0.08335422
94	0xbee0bfc0	-0.43896294
95	0xbd978f71	-0.07400406
96	0xbe866e26	-0.26255912
97	0x3e8fa967	0.2805893
98	0x3e23bbb8	0.15989578
99	0x3ea5220a	0.32252532
100	0xbe9ab9e7	-0.30219957
101	0xbecd0063	-0.40039358
102	0xbf8221ee	-1.0166605
103	0xbcab93e3	-0.020944541
104	0x3a2adf4c	0.0006518259
105	0xbf67ef1b	-0.9059922
106	0x3f38aa5a	0.72134936
107	0x3f16a050	0.5883837
108	0x3a779437	0.0009444388
109	0xbba9da88	-0.0051835217
110	0xbb58ad2b	-0.00330622
111	0x402a9506	2.6653457
112	0x3bd97cb1	0.006637179
113	0xbde36a7b	-0.11104294
114	0x3daf84db	0.08570262
115	0xbe9d1051	-0.3067651
116	0xbe5fad92	-0.21843556
117	0xbe447a9a	-0.19187394
118	0xbe6c8c84	-0.23100477
119	0x3d944263	0.07239225
120	0xbe465927	-0.19369946
121	0xba85ef96	-0.0010218497
122	0x3addbe80	0.0016917735
123	0xbf35285c	-0.7076471
124	0x3f407b31	0.75187975
125	0x3db84e98	0.089993656
126	0xbeb54113	-0.3540121
127	0xbe879c83	-0.26486596
128	0x3e1e3e41	0.15453435
129	0x3e1a66a8	0.15078223
130	0xbe814011	-0.2524419
131	0xbe0412dd	-0.12897821
132	0xc03722a5	-2.8614895
133	0xbc15a1b3	-0.00913279
134	0x3b9fbe7e	0.0048750034
135	0xbee53508	-0.44767022
136	0xbea73a76	-0.3266179
137	0x3e7354f4	0.23762876
138	0x3eaa1688	0.33220315
139	0xbdb03bca	-0.08605154
140	0xbd831355	-0.06400172
141	0x3e151dad	0.14562102
142	0x3d828c32	0.063743964
143	0xbe095ed0	-0.13415074
144	0xbe963254	-0.29335272
145	0xbdedba12	-0.11607756
146	0x3d6ec081	0.058289055
147	0xbdf9786f	-0.12181174
148	0x3f13ae18	0.5768752
149	0x3dad0e3e	0.08449982
150	0xbdd9fb6c	-0.10643658
151	0xbec7efc8	-0.39050126
152	0xbebf2563	-0.3733321
153	0x3e2fa4d6	0.17152724
154	0x3e9eedfe	0.3104095
155	0xbb0d2be5	-0.0021541056
156	0xc035b2d7	-2.8390405
157	0xbad1bcf5	-0.0016001748
158	0x3a67da22	0.0008844455
159	0xbf36e6ef	-0.71446127
160	0xbe2f8bb5	-0.17143138
161	0x3e256daa	0.16155115
162	0xc026ec86	-2.6081862
163	0xbb1f8a67	-0.0024343969
164	0x3be5893e	0.007004886
165	0xbf207b08	-0.6268773
166	0xbe025733	-0.12728576
167	0xbf0c1287	-0.5471577
168	0x3f565af9	0.83732563
169	0xbba95f28	-0.005168814
170	0xba60201c	-0.00085497065
171	0xbf9e27e9	-1.235593
172	0x3f254c3c	0.6456945
173	0x3d7f5512	0.06233699
174	0xbe67dceb	-0.22642867
175	0xbcda7ab4	-0.026669838
176	0xbe940002	-0.28906256
177	0xbc9a4f2b	-0.018836578
178	0x3e694afb	0.22782509
179	0xbe3be40e	-0.18348715
180	0x3f581778	0.8441081
181	0xbc4a03a2	-0.012329968
182	0xba27b40b	-0.0006397373
183	0x3f0dddc7	0.5541653
184	0xbeb6c719	-0.35698774
185	0xbe7a0305	-0.24415214
186	0x3d6dd524	0.058064595
187	0xbb8d9586	-0.004320803
188	0xbb17a2ff	-0.0023137925
189	0xbdeef92a	-0.11668618
190	0x3e1cb87f	0.15304755
191	0x3fb0d282	1.3814242
192	0x3ea00b2f	0.31258532
193	0xbecc3ac4	-0.39888585
194	0x3d2dfa1b	0.042474847
195	0xbc9f8a66	-0.019475173
196	0x3de0501e	0.10952781
197	0xbdcd04fc	-0.10010716
198	0x3da1c2fd	0.07898519
199	0xbe59098e	-0.21195051
200	0x3e0f967a	0.14022246
201	0x3f3698eb	0.71327084
202	0x3bdff632	0.0068347687
203	0xbe639941	-0.2222643
204	0xbf38a72e	-0.72130096
205	0xbbb19a64	-0.005420016
206	0x3aec9f8f	0.0018052923
207	0xbc451668	-0.012029268
208	0xbc9afb3d	-0.018918628
209	0x3f9a4d0c	1.2054763
210	0xba3bdc61	-0.0007166323
211	0xbaf391d3	-0.0018582888
212	0xbb952b48	-0.0045522787
213	0x3fdcf085	1.7260901
214	0x3ea6121d	0.32435694
215	0x3ad5a7e1	0.0016300642
216	0x3e672aaf	0.22574876
217	0x3e0a455a	0.13503018
218	0x3d23a5e2	0.03995312
219	0xbdf27028	-0.11837798
220	0x3d81b5c3	0.063334964
221	0x3cefc8ee	0.029270615
222	0x3cbc0a1d	0.022954041
223	0x3b8f1ec3	0.0043676808
224	0x3a8f0011	0.0010910054
225	0xbf45dea5	-0.77292854
226	0x3d3dfd84	0.04638435
227	0x3f4254b8	0.7591052
228	0x3c497b9f	0.01229754
229	0xbbe57492	-0.0070024217
230	0x3b808002	0.0039215097
231	0xbe81e52a	-0.2537015
232	0x3e7c9198	0.24664915
233	0x3fc6922c	1.5513358
234	0x3f9798bc	1.1843486
235	0xba30786e	-0.00067318126
236	0xbb5189a7	-0.0031972916
237	0xbed19112	-0.40930992
238	0xbe0194d6	-0.12654433
239	0xbf22cd32	-0.63594353
240	0xc037b86e	-2.8706317
241	0x3c30c246	0.010788506
242	0x3a807ed2	0.000980342
243	0xbf69529c	-0.91141677
244	0xbea45adb	-0.32100567
245	0x3e7f29d8	0.24918306
246	0xbad05ece	-0.0015897395
247	0xbb1e2f0a	-0.0024136924
248	0xbbf760a0	-0.0075493604
249	0x40270fc6	2.6103377
250	0xbec8a5ba	-0.3918894
251	0xbe4adda7	-0.19811116
252	0xbf212781	-0.62950903
253	0x3bd78a6c	0.0065777805
254	0x3ba1183b	0.0049162186
255	0x3e3c3523	0.18379645

encoder.1.bias f4 [50]
0	0x3e7cc8d3	0.24685983
1	0xbbec4c91	-0.007211276
2	0xbc0d7ab3	-0.008635211
3	0xbe1dd47b	-0.15413086
4	0xbdb9c475	-0.09070674
5	0xbf08d397	-0.5344786
6	0xbe098fa0	-0.13433695
7	0xbd663004	-0.056198135
8	0xbeb89013	-0.3604742
9	0xbeaa739d	-0.3329133
10	0x3e520269	0.20508732
11	0xbec95059	-0.39319113
12	0xbf7cb84c	-0.98718715
13	0x3e739e7e	0.23790929
14	0x3c752c7b	0.014964218
15	0x3eac69c7	0.33674452
16	0xbeb76495	-0.35818925
17	0x3c84b737	0.016200645
18	0xbb9c25b0	-0.004765235
19	0xbe891f76	-0.26781815
20	0x3dc4629b	0.0958912
21	0xbe13fb9b	-0.14451449
22	0x3c81701b	0.015800526
23	0xbebad5dd	-0.3649129
24	0xbd89cb37	-0.06728213
25	0xbe9e5e2b	-0.3093122
26	0x3c869020	0.016426146
27	0x3caac77a	0.020847071
28	0xbeda9d48	-0.4269812
29	0xbe77560b	-0.24153917
30	0xbee7806d	-0.4521517
31	0xbe81070a	-0.25200683
32	0xbed6e9b2	-0.4197517
33	0xbebdac37	-0.37045452
34	0xbb7f6401	-0.003896952
35	0xba8e42ad	-0.0010853611
36	0xbeb330e8	-0.3499825
37	0xbce31861	-0.027721586
38	0xbec20c97	-0.3790023
39	0xbf3a1738	-0.7269168
40	0x3c87e544	0.016588815
41	0xba9197b4	-0.0011107833
42	0x3c420af5	0.011843433
43	0xbf01474e	-0.5049943
44	0xbf3e58ae	-0.74354064
45	0xb998791e	-0.0002908194
46	0xbba8fdf7	-0.005157228
47	0x3c7186d1	0.014741615
48	0xbe94da0c	-0.29072607
49	0x3a2c9c52	0.0006584573

encoder.4.weight f4 [50, 50]
0	0x3d298c77	0.041393723
1	0xbec438a4	-0.38324463
2	0xbe2367b9	-0.15957536
3	0xbd4b84ee	-0.04968732
4	0xbe7f68c3	-0.24942307
5	0x3dc1d645	0.09464697
6	0xbc93cde2	-0.018042509
7	0x3d422795	0.04740103
8	0x3d87544e	0.06607877
9	0x3db59b91	0.088675626
10	0x3e1a3da0	0.1506257
11	0x3bae263c	0.0053146165
12	0xbdc4884b	-0.09596308
13	0x3c5d8bf1	0.013522134
14	0x3e75f469	0.24019016
15	0xbd227268	-0.039659888
16	0xbe0fef7c	-0.140562
17	0x3a26b27d	0.0006358994
18	0xbec4c004	-0.38427746
19	0xbdca92af	-0.09891259
20	0xbbd9437f	-0.0066303606
21	0x3d053daf	0.03252953
22	0x3e84cadb	0.25936016
23	0xbccfecac	-0.025381409
24	0xbd1654b0	-0.036701858
25	0xbd0df396	-0.03465613
26	0x3e11133f	0.14167498
27	0x3ea01afb	0.31270584
28	0x3d1fd6ea	0.039023317
29	0x3dce6694	0.10078159
30	0x3e082959	0.13297023
31	0xbe03a443	-0.1285563
32	0x3d19aee8	0.03752032
33	0x3d880817	0.06642168
34	0x3dca6332	0.09882201
35	0xbea411e2	-0.32044894
36	0xba4aba02	-0.0007733406
37	0xbd9a5c2f	-0.07537114
38	0xbcb28ad9	-0.021794723
39	0x3e80cdaf	0.25156924
40	0x3e88140b	0.26577792
41	0xbeaeed84	-0.34165585
42	0xbd6c3bc6	-0.057674192
43	0xbd928e42	-0.0715604
44	0x3efc3a55	0.49263254
45	0xbc7e48f9	-0.015520328
46	0xbe9a2936	-0.30109566
47	0xbbf3012c	-0.007415911
48	0x3d9098dd	0.07060406
49	0xbdfe2c1d	-0.12410758
50	0xbc0636cb	-0.008191775
51	0xbc41f2d1	-0.011837677
52	0x3d2a2e1a	0.041547872
53	0xbdd52266	-0.104069516
54	0xbcd233bc	-0.025659434
55	0x3e48d14d	0.19611092
56	0xbd938e79	-0.07204909
57	0xbc2d4c40	-0.010577261
58	0xbd82fda9	-0.06396038
59	0x3d9915ac	0.07474837
60	0xbd8efe63	-0.06982114
61	0xbdd998ba	-0.106248334
62	0xbde89f9f	-0.1135857
63	0x3e86834d	0.2627205
64	0x3e052973	0.13004093
65	0xbcb8edfd	-0.02257442
66	0xbe0a0b86	-0.13480958
67	0x3c7abdcc	0.01530404
68	0xbb07f966	-0.0020748018
69	0x3c85eda1	0.016348662
70	0xbc88100c	-0.016609214
71	0xbcfcd96c	-0.030865394
72	0x3e83da06	0.25752276
73	0x3d538b7d	0.0516467
74	0x3c83193e	0.016003247
75	0xbd9ca6e1	-0.07649017
76	0x3ec676b6	0.38762444
77	0x3ec71369	0.38881996
78	0xbcd35a3d	-0.025799865
79	0x3e063d0b	0.13109224
80	0xbdb67414	-0.08908859
81	0xbe1d06e8	-0.15334666
82	0x3cdd9122	0.027046744
83	0x3d0c03a9	0.034183178
84	0x3e1fee12	0.1561816
85	0xbdcdb1ba	-0.10043664
86	0x3dc34115	0.09533898
87	0x3c113c93	0.00886454
88	0xbe1ff9d9	-0.15622653
89	0x3ec4837e	0.3838157
90	0x3e9e4586	0.30912417
91	0xbbd3c275	-0.00646239
92	0xbdf3741d	-0.11887381
93	0xbdc3fcb0	-0.09569681
94	0x3e8b3531	0.2718902
95	0x3e0d0a38	0.1377343
96	0xbe028fa3	-0.12750106
97	0xbdb8cf21	-0.09023882
98	0xbcff3ff8	-0.031158432
99	0x3d2fbc56	0.04290422
100	0x3caa686e	0.02080175
101	0xbeee79b0	-0.46577215
102	0x3d76992b	0.060204666
103	0x3d929dea	0.07159026
104	0xbd39ca2d	-0.045358825
105	0x3d1688a4	0.036751404
106	0xbd2f2190	-0.042756617
107	0x3c298e06	0.010348802
108	0xbe49a601	-0.19692232
109	0x3e0fe3f3	0.140518
110	0x3d2bb843	0.041923773
111	0x3e09a6d7	0.1344255
112	0x3e0240bb	0.12720005
113	0x3d3d7999	0.046258543
114	0xbe7b63f2	-0.24549845
115	0x3ca48961	0.020085039
116	0xbd58fe31	-0.05297679
117	0xbd122036	-0.03567525
118	0xbebcd745	-0.36882988
119	0x3da14c85	0.07875923
120	0x3e7596f8	0.23983371
121	0xbde117ea	-0.10990889
122	0xbe75a155	-0.23987325
123	0x3d2c5641	0.042074446
124	0xbcb5948c	-0.02216556
125	0x3d856057	0.06512516
126	0x3cfcbd22	0.030851904
127	0xbd6b8e5a	-0.057508804
128	0xbe46e44c	-0.19423026
129	0xbd2789f5	-0.04090305
130	0xbea69d0d	-0.32541695
131	0x3e0cc712	0.13747814
132	0x3dc8cd19	0.09804744
133	0xbe0985a6	-0.13429889
134	0x3d81b68f	0.063336484
135	0xbd536964	-0.05161418
136	0x3ddd690e	0.10811053
137	0x3d8ad3f8	0.06778711
138	0x3d557f26	0.05212321
139	0xbe81b24d	-0.25331345
140	0xbd38f4e5	-0.045155425
141	0xbe51a7d3	-0.20474176
142	0xbdf303de	-0.11865972
143	0xbbc7ab3d	-0.0060934112
144	0xbe2da16a	-0.16956106
145	0x3dd2fd68	0.1030224
146	0xbbe9ff00	-0.007140994
147	0xbdd64424	-0.104622155
148	0xbdd1aa08	-0.10237509
149	0xbe3dfd3b	-0.18553631
150	0xbe9062f7	-0.28200504
151	0xbe709f2f	-0.23498224
152	0xbd19bafd	-0.03753184
153	0xbd9e6c8b	-0.07735547
154	0xbd92b57e	-0.07163523
155	0x3e66a4ff	0.22523879
156	0x3dffc3ad	0.12488494
157	0x3d6838ae	0.05669468
158	0x3d802828	0.06257659
159	0xbde96a89	-0.11397273
160	0xbdd2419c	-0.1026642
161	0xbdf616b6	-0.120160505
162	0x3dd250e0	0.10269332
163	0xbe6bb951	-0.23019911
164	0x3cc0f9c5	0.0235566
165	0xbe564e06	-0.20928201
166	0xbdc87536	-0.09787981
167	0xbe90d424	-0.2828685
168	0xbe692358	-0.22767389
169	0xbd84690e	-0.0646535
170	0xbeb6164b	-0.35563883
171	0x3dccdfc4	0.100036174
172	0xbd8b0b63	-0.06789281
173	0xbc89af9b	-0.016807368
174	0xbd8206e1	-0.06348968
175	0x3d708eec	0.05873005
176	0xbd800742	-0.06251384
177	0xbc8d376e	-0.017238345
178	0x3d094db7	0.03352138
179	0x3dc7dd13	0.097589634
180	0x3e040d88	0.12895787
181	0xbdfd6115	-0.123720326
182	0xbd11b384	-0.03557159
183	0xbde5d16d	-0.112215854
184	0x3d696d96	0.056989275
185	0xbe866870	-0.26251554
186	0x3caf0c2e	0.021368112
187	0xbea3470a	-0.31890136
188	0xbbec2fe9	-0.00720786
189	0x3ea437d0	0.32073832
190	0xbdbe82d4	-0.09302297
191	0xbe625572	-0.22102907
192	0xbe4091c7	-0.1880561
193	0x3e06085f	0.13089131
194	0x3ef2b0d1	0.47400525
195	0xbd7af900	-0.06127262
196	0xbe9f6add	-0.31136218
197	0x3d7a55bf	0.06111693
198	0x3ddd747b	0.108132325
199	0xbdfb4a10	-0.12269986
200	0x3ccea02c	0.02522286
201	0xbe5f5c27	-0.21812497
202	0x3d05caeb	0.03266422
203	0x3ef4df8a	0.47826797
204	0xbdf896bb	-0.121381246
205	0x3ec5a009	0.3859866
206	0xbd8f7f43	-0.07006695
207	0x3e3598c5	0.17734058
208	0xbcd0d528	-0.025492266
209	0xbdc0e64e	-0.09418927
210	0xbc8ec54f	-0.017428068
211	0x3de44eda	0.11147852
212	0xbcb349f8	-0.021885857
213	0xbbbed190	-0.0058233216
214	0x3cdd47ab	0.027011713
215	0xbc0cea93	-0.008600849
216	0xbdec9b07	-0.115530066
217	0xbca8aede	-0.020591196
218	0xbe854e9f	-0.26036546
219	0x3d09e286	0.033663295
220	0x3c3d47eb	0.011552791
221	0xbd2dc2ea	-0.042422213
222	0xbd7413be	-0.05958914
223	0x3dab2ba8	0.08357936
224	0x3cf35831	0.029705139
225	0x3d877f82	0.06616117
226	0x3dc42c78	0.09578794
227	0x3dc669de	0.09688161
228	0xbc40b45f	-0.011761754
229	0x3d67567c	0.056478962
230	0xbd4e8003	-0.05041505
231	0x3eed2bc0	0.4632244
232	0xbd5e20f7	-0.054230656
233	0x3deed2a1	0.11661268
234	0x3eb749ca	0.35798484
235	0x3d4f56ae	0.050619774
236	0xbe0a542e	-0.13508675
237	0xbd9bd611	-0.07609189
238	0x3eea9843	0.4581929
239	0x3e5060a4	0.20349365
240	0xbc43b8c3	-0.011945906
241	0xbe815553	-0.2526041
242	0xbc073f5a	-0.00825485
243	0x3dda9300	0.10672569
244	0xbda5126e	-0.08060156
245	0x3d4fa88b	0.050697844
246	0x3cb7d6de	0.022441324
247	0xbde15a63	-0.11003568
248	0xbda1f17d	-0.07907388
249	0x3e1900da	0.14941731
250	0xbc9593a6	-0.01825888
251	0xbd791c5e	-0.06081807
252	0x3d17b929	0.037041817
253	0x3e5c8205	0.21533974
254	0x3d55a4e9	0.052159224
255	0x3e948fe0	0.29016018

encoder.4.bias f4 [50]
0	0xbb49b0de	-0.0030775587
1	0xbc92c515	-0.017916242
2	0x3bceee5e	0.0063150367
3	0x3c043d09	0.008071193
4	0xbac761a2	-0.0015211592
5	0x3aba9863	0.0014236089
6	0xbf3a346f	-0.7273626
7	0xbaa0fef4	-0.0012283013
8	0xbeca018c	-0.39454305
9	0xbc873441	-0.016504409
10	0xbc297634	-0.010343123
11	0x3c624d0a	0.013812313
12	0xbb46b8b3	-0.0030322492
13	0xba8390ca	-0.0010037657
14	0xbebaa242	-0.36451918
15	0xbd298c8c	-0.0413938
16	0x3bd3c23e	0.0064623645
17	0xbbf0a932	-0.0073443884
18	0xbc674641	-0.014115871
19	0xbf325466	-0.6966003
20	0xbe137708	-0.14400876
21	0xbc34392d	-0.01099996
22	0xbe97016b	-0.2949327
23	0xbc03417a	-0.008011216
24	0xba9a251c	-0.0011760327
25	0xbc3a31df	-0.011364429
26	0xbc0beaa2	-0.008539828
27	0xbbaa2093	-0.0051918714
28	0x3c01ee9a	0.007930422
29	0xbbabd1d5	-0.00524352
30	0xbb992359	-0.004673403
31	0xbcdc085a	-0.026859451
32	0x3c43c45d	0.011948672
33	0xbe1d538c	-0.15363902
34	0xbea6f488	-0.32608438
35	0xbe3e15d4	-0.18563014
36	0xbec51025	-0.3848888
37	0xbd6b24b6	-0.057408057
38	0xbf2c59ce	-0.6732453
39	0xba4220d0	-0.0007405402
40	0x3baf5602	0.005350829
41	0xbe6ae03d	-0.22937103
42	0xbca33b6a	-0.019925792
43	0xbe20a4b3	-0.15687828
44	0xbe386536	-0.18007359
45	0x3c25f7b0	0.010129854
46	0xbef19da2	-0.47190577
47	0xbcb88da9	-0.022528486
48	0xba20549e	-0.00061161246
49	0x3c1b1362	0.00946507

encoder.7.weight f4 [20, 50]
0	0x3e346d29	0.17619766
1	0x3e652227	0.2237631
2	0x3cb90ab3	0.02258811
3	0xbea5521f	-0.32289216
4	0x3d2b937a	0.04188869
5	0x3d0ea6bb	0.034826975
6	0xbda89809	-0.082321234
7	0x3f66ed54	0.90205884
8	0xbd4b73fb	-0.049671154
9	0x3eff7eb0	0.49901342
10	0x3ce4eeca	0.027945895
11	0xbea97f7d	-0.33105078
12	0xbede3984	-0.43403256
13	0xbe7375cf	-0.23775409
14	0xbe07dd19	-0.13267936
15	0x3ebe934c	0.37221754
16	0x3cb979d2	0.022641096
17	0x3f1ba967	0.6080536
18	0xbe86aacd	-0.26302186
19	0xbd3ee3e0	-0.046604037
20	0xbd9ebde0	-0.077510595
21	0x3ef7bfc3	0.4838849
22	0xbe1a6a2e	-0.15079567
23	0x3f397cbf	0.7245597
24	0xbd9d1b36	-0.07671206
25	0x3f47bb8c	0.7802055
26	0x3f14cec8	0.58128023
27	0x3f499dd2	0.7875644
28	0xbe8ffb31	-0.2812133
29	0x3c88e952	0.016712818
30	0xbe990070	-0.29883146
31	0x3f110b9b	0.56658334
32	0xbe0126e6	-0.12612495
33	0xbc1ecb74	-0.009692062
34	0xbda56d34	-0.080774695
35	0xbd637621	-0.05553258
36	0xbd680913	-0.05664928
37	0x3c6281c1	0.013824881
38	0x3dc244cd	0.09485779
39	0xbea5b75e	-0.3236646
40	0xbe5c2251	-0.21497466
41	0xbdc3cddc	-0.09560749
42	0x3e0bc2b3	0.1364849
43	0x3e58ad05	0.21159752
44	0x3e04498d	0.12918682
45	0xbec1abd8	-0.3782642
46	0xbdbaa1d9	-0.09112901
47	0x3e0a35eb	0.1349713
48	0xbebeaf61	-0.37243178
49	0xbeafa16d	-0.34302846
50	0x3bc25cbd	0.0059314654
51	0x3cd63e90	0.026152879
52	0x39ee6aee	0.00045474566
53	0x3c7a1f8a	0.015266309
54	0x3e8b0a16	0.27156132
55	0x3eaee5a6	0.34159583
56	0x3c98847c	0.018617861
57	0x3e6f1a95	0.23349984
58	0x3e90f5dc	0.28312576
59	0x3eaeecfe	0.34165186
60	0x3eb3e664	0.35136712
61	0x3b1c04f3	0.002380666
62	0xbb60345f	-0.0034210903
63	0xbc24f5c9	-0.010068365
64	0x3e9da874	0.30792582
65	0x3c1808f5	0.009279479
66	0xbd057bca	-0.032588758
67	0x3e8bfde5	0.27342144
68	0xbbc7682a	-0.0060854154
69	0x3e19ea29	0.15030731
70	0x3deb21a7	0.11481028
71	0x3dae2787	0.08503633
72	0xbc8e74b0	-0.017389625
73	0x3e9bdb9c	0.30440986
74	0x3c46eede	0.012141911
75	0x3d81d7f5	0.06340019
76	0x3e63ebb3	0.22257881
77	0x3e09a9f0	0.13443732
78	0x3b4623e4	0.0030233795
79	0x3ee26e72	0.44224888
80	0x3aaa9ec7	0.001301729
81	0x3c85e27a	0.016343344
82	0x3b38e96e	0.0028215307
83	0xbd566b8e	-0.052348666
84	0x3ebdb16f	0.37049434
85	0xbd3cd7b2	-0.04610414
86	0x3e93aee9	0.28844383
87	0xbba10d66	-0.0049149273
88	0x3e3b5cfd	0.18297191
89	0xba19c297	-0.0005865483
90	0x3c913273	0.017724251
91	0x3e33348e	0.17500517
92	0x3bfca648	0.007710252
93	0x3eb29dd6	0.34886044
94	0xbd093434	-0.03349705
95	0x3ad773ac	0.0016437671
96	0x3eab727a	0.33485776
97	0x3cc4e538	0.024035081
98	0xba5c2775	-0.00083982135
99	0x3bc01a94	0.0058625434
100	0x3f0e0fcb	0.5549285
101	0x3e987202	0.2977448
102	0xbed2500a	-0.4107669
103	0x3ec76781	0.38946155
104	0xbde180f8	-0.11010927
105	0xbe85beca	-0.26122123
106	0xbe7b7bee	-0.24558994
107	0xbdb93dc7	-0.09044986
108	0xbe48f979	-0.19626416
109	0xbe96c22e	-0.29445022
110	0xbeb07d87	-0.3447077
111	0xb99fba88	-0.0003046582
112	0x3b5f4e03	0.0034073598
113	0xbdaf5dc2	-0.08562805
114	0x3bfc7b02	0.0077050934
115	0xbe75e00e	-0.24011251
116	0xbe9d27ff	-0.30694577
117	0xbe302007	-0.17199717
118	0x3d64ca51	0.055857006
119	0xbe27ec0f	-0.16398643
120	0xbe9ac324	-0.30227005
121	0xbd9923f6	-0.07477562
122	0xbf15c668	-0.5850587
123	0xbe29e75b	-0.16592161
124	0xbdb18689	-0.08668239
125	0xbd5fda93	-0.054651808
126	0xbd3e547c	-0.04646729
127	0xbe2e3d3f	-0.17015551
128	0x3ec3f6aa	0.38274127
129	0xbe028ddd	-0.12749429
130	0x3c6ef625	0.014585053
131	0xbe041c1f	-0.12901352
132	0x3e2fdadd	0.17173333
133	0x3de52676	0.111889765
134	0xbe7dc4de	-0.2478213
135	0x3ca9e90a	0.020741004
136	0xbeb81f27	-0.35961267
137	0x3da84a56	0.082173035
138	0xbe5a3bec	-0.21311921
139	0x3c80d2cb	0.015725514
140	0x3eea517f	0.45765302
141	0x3cfad275	0.030617932
142	0xbe99d7c5	-0.30047432
143	0xbf03c3a2	-0.51470387
144	0x3e0236d3	0.12716226
145	0x3e0fd3bf	0.14045618
146	0xbbdb439e	-0.00669141
147	0x3f12855d	0.57234746
148	0x3c86a619	0.016436623
149	0x3e9ba5b6	0.30399865
150	0x3c947b35	0.018125156
151	0x3d8f4c55	0.06996981
152	0xbdff6b0d	-0.1247159
153	0x3c22d4f2	0.009938465
154	0x3a1e3dce	0.00060364313
155	0x3b2e2d4f	0.00265773
156	0xbd933cc1	-0.07189322
157	0x3e1875e1	0.14888717
158	0xbe34f840	-0.17672825
159	0x3f04abdf	0.51824754
160	0x3c66e628	0.014092959
161	0xbc1092bb	-0.008824046
162	0x3e6345fc	0.22194666
163	0x3e879b17	0.26485512
164	0x3d2828e6	0.04105463
165	0xbd86f2b0	-0.06589258
166	0xbdbb7d1f	-0.09154724
167	0x3e531b77	0.20615946
168	0x3eaab0fa	0.33338147
169	0xbe5c7bcb	-0.21531598
170	0x3c2a33b9	0.010388308
171	0x3e5c3bec	0.21507233
172	0x3ead4386	0.3384058
173	0x3e583f28	0.21117842
174	0x3e5ba508	0.21449673
175	0x3e8e5932	0.27802426
176	0x3eb6dd29	0.35715607
177	0x3e6a9d7e	0.22911641
178	0x3c3bc049	0.011459419
179	0x3b332537	0.0027335414
180	0x3eb62d5b	0.35581478
181	0x3d2c81fe	0.042116158
182	0x3c186caf	0.009303256
183	0x3ced55e7	0.028971625
184	0x3e9c73ea	0.30557185
185	0xbd8c5763	-0.06852605
186	0xbd4adada	-0.04952512
187	0x3ef78076	0.48340195
188	0xbd94613a	-0.07245107
189	0x3e30b02f	0.17254709
190	0x3bbf7fb8	0.0058440827
191	0xbd3bca16	-0.04584702
192	0x3cb76243	0.022385722
193	0x3ed826bb	0.4221705
194	0x3e06e2b0	0.13172412
195	0x3c86dd0c	0.016462825
196	0xbdb59fc9	-0.08868367
197	0x3ce2b511	0.02767423
198	0x3e0f59d3	0.13999109
199	0x3c081261	0.008305163
200	0xbea21eb4	-0.3166405
201	0x3d1fd02d	0.03901689
202	0xbe06cb34	-0.13163453
203	0xbe93e494	-0.2888533
204	0x3c674025	0.014114414
205	0xbdb17af4	-0.086660296
206	0xbe12b9e8	-0.1432873
207	0xbd808908	-0.06276137
208	0xbe81239d	-0.25222483
209	0x3d252bd1	0.04032499
210	0x3cd25b3e	0.025678273
211	0xbcb608c2	-0.022220973
212	0x3e84a886	0.25909823
213	0x3eaf04ce	0.34183353
214	0x3b341b1a	0.0027481974
215	0xbe4fe893	-0.20303564
216	0xbe160f4a	-0.1465427
217	0xbcf924ff	-0.030413149
218	0x3e449054	0.19195682
219	0xbe724503	-0.23659138
220	0x3a88a034	0.0010423721
221	0xbe39b4f5	-0.18135436
222	0x3edbde01	0.42942813
223	0xbcb071bf	-0.021538613
224	0x3ed079ab	0.40717825
225	0xbd1f9890	-0.038963854
226	0xbc56d0c3	-0.013111296
227	0x3b923909	0.0044623655
228	0xbde93694	-0.11387363
229	0x3d1a03ca	0.03760127
230	0x3e46e25d	0.19422288
231	0xbdf4a4b3	-0.119454764
232	0xbdb1d283	-0.0868273
233	0xbd662e56	-0.056196533
234	0x3da9cdb8	0.08291191
235	0xbd111c33	-0.035427283
236	0xbdd38db0	-0.10329759
237	0x3ec52fe0	0.38513088
238	0xbd8dd5eb	-0.06925567
239	0x3e88e908	0.2674029
240	0xbe46ce08	-0.19414532
241	0x3e09aaf2	0.13444117
242	0x3e6c96c4	0.23104388
243	0x3e839bed	0.257049
244	0x3d674b99	0.05646858
245	0xbdec3cde	-0.11535047
246	0x3d50bf4e	0.050963692
247	0xbe8e7ea0	-0.27830982
248	0x3e9d0d8f	0.30674407
249	0xbe357eb4	-0.17724115
250	0xbe96afb4	-0.29430926
251	0xbe9e1d56	-0.30881757
252	0x3e13d3de	0.1443629
253	0xbeaa26f2	-0.33232838
254	0x3eea7a17	0.45796272
255	0x3ea9b7a3	0.33147916

encoder.7.bias f4 [20]
0	0x3bb1e0b5	0.0054283985
1	0xbb23668e	-0.0024932954
2	0xbbfb0464	-0.0076604355
3	0x3970d153	0.00022966163
4	0xbae1f3f5	-0.0017238843
5	0x3c13eb5e	0.009028284
6	0xbe72618b	-0.23670022
7	0xbfaa996e	-1.3328073
8	0x3c01d003	0.007923129
9	0xbc023630	-0.00794749
10	0xbe569aa3	-0.20957427
11	0x3aadcab4	0.0013259263
12	0xbedc4e6f	-0.4302859
13	0x3b544bac	0.0032393737
14	0xbb7b81e5	-0.0038376984
15	0x3b681d26	0.0035417764
16	0xbad83c26	-0.0016497418
17	0x3ab92c6b	0.0014127617
18	0xbb265d47	-0.0025385187
19	0xbf131f27	-0.5746941

encoder.10.weight f4 [4, 20]
0	0x3f707b6a	0.93938315
1	0x3e3863b0	0.18006778
2	0xbf523e85	-0.8212665
3	0xbe907e07	-0.2822115
4	0xbee8faa0	-0.45503712
5	0x3eab5581	0.33463672
6	0x3f362677	0.7115244
7	0x3fb88629	1.4415942
8	0x3f53ded3	0.8276188
9	0xbf192b90	-0.59832096
10	0xbe334f27	-0.17510663
11	0x3e89c2e7	0.2690651
12	0x3ee075c4	0.43839848
13	0x3f8e018e	1.1094224
14	0xbeeabac6	-0.45845622
15	0x3f8e6496	1.1124446
16	0xbe842274	-0.25807536
17	0xbe918b82	-0.2842675
18	0xbec3bcc5	-0.38229957
19	0x3f817b6e	1.0115793
20	0xbf004e74	-0.5011971
21	0xbf3e58c0	-0.7435417
22	0xbf38b877	-0.7215647
23	0x3d93329b	0.071873866
24	0x3f511a13	0.8168041
25	0xbf0dd2be	-0.5539969
26	0xbe3d2d13	-0.18474226
27	0x3f14f691	0.5818873
28	0xbeeaba1f	-0.45845124
29	0xbf07cc6b	-0.5304629
30	0xbddeb3c3	-0.108741306
31	0xbf1f4f10	-0.62230015
32	0xbe04fefc	-0.12987894
33	0xbf0eb9b2	-0.557521
34	0x3f58340f	0.84454435
35	0xbf114ea8	-0.56760645
36	0xbdb8d394	-0.0902473
37	0x3e9d0c09	0.30673245
38	0x3f18ba61	0.5965939
39	0xbd075666	-0.03304138
40	0xbf644ffe	-0.8918456
41	0x3e35b897	0.17746197
42	0x3f0d6806	0.5523685
43	0xbd745402	-0.05965043
44	0x3f186fcb	0.5954558
45	0x3f26800d	0.6503914
46	0x3e8eb298	0.2787063
47	0xbd47cd9c	-0.04878007
48	0xbf50d852	-0.8158008
49	0x3eeb9174	0.4600941
50	0xbe43b452	-0.19111755
51	0x3efd3d51	0.49460843
52	0x3eefe1d4	0.4685198
53	0xbf83d2a9	-1.0298663
54	0x3f1e2c55	0.61786395
55	0xbf861983	-1.0476536
56	0xbe205afd	-0.1565971
57	0x3e1ba099	0.15197982
58	0x3ecbe7df	0.3982534
59	0xbca3219d	-0.019913489
60	0x3f2396d8	0.63902044
61	0xbe6f7400	-0.23384094
62	0x3f19fea2	0.60154164
63	0xbf093cfe	-0.5360869
64	0xbee82d75	-0.4534718
65	0x3c1dcc69	0.009631255
66	0xbe4338a6	-0.19064578
67	0xbeffff31	-0.49999383
68	0x3f06c45f	0.5264339
69	0x3ed094fa	0.4073866
70	0xbe152592	-0.14565113
71	0xbd99df85	-0.07513336
72	0xbed512df	-0.4161596
73	0x3f4547ad	0.77062494
74	0xbeea5730	-0.45769644
75	0x3f464af0	0.77458096
76	0xbf0aea68	-0.54263926
77	0xbed2f359	-0.41201285
78	0xbee433a6	-0.44570655
79	0xbea3cef1	-0.3199382

encoder.10.bias f4 [4]
0	0xbea9c94d	-0.33161393
1	0xbeaf3bfd	-0.34225455
2	0x3ebb13e6	0.3653862
3	0x3ec18e88	0.37804055

decoder.0.weight f4 [20, 4]
0	0xbe6fdb93	-0.23423605
1	0x3f3b6d39	0.73213536
2	0x3f5c8ccb	0.86152333
3	0x3fe37143	1.776894
4	0x3f285ab4	0.657634
5	0xbe9ee9d0	-0.3103776
6	0xbf27378c	-0.6531913
7	0x3f215414	0.6301892
8	0xbea3070b	-0.3184131
9	0x3d58d7ba	0.052940108
10	0x3f737984	0.95107293
11	0x3ef9bfa3	0.4877902
12	0xbcc405e3	-0.023928588
13	0xbf891485	-1.0709387
14	0xbf72a7fb	-0.9478757
15	0x3f46611c	0.7749193
16	0x3daf9ae8	0.08574468
17	0x3ecbb606	0.3978731
18	0x3f1b4674	0.6065438
19	0x3f789f9b	0.9711854
20	0x3f2ea408	0.6821904
21	0xbf273ab8	-0.6532397
22	0x3ee02df8	0.4378507
23	0xbf814af0	-1.0100994
24	0x3fb81184	1.4380345
25	0xbe084862	-0.13308862
26	0x3f239d25	0.6391166
27	0xbf59039c	-0.8477113
28	0x3ee5b31e	0.44863218
29	0xbefe2a64	-0.49641716
30	0xbf089095	-0.53345615
31	0xbf043cc3	-0.51655215
32	0xbde0ec6b	-0.10982593
33	0x3f4010f4	0.7502587
34	0xbef867e8	-0.48516774
35	0xbf22d9dc	-0.6361368
36	0x3e757bc5	0.23972996
37	0x3f2b1053	0.66821784
38	0x3e56cb44	0.20975977
39	0xbefba1a2	-0.49146754
40	0xbe2eb68b	-0.17061822
41	0x3e6c8910	0.2309916
42	0x3ecaeeda	0.39635354
43	0xbe4101df	-0.1884837
44	0xbfeda8d2	-1.8567145
45	0x3f5d96eb	0.8655841
46	0xbf6fc669	-0.93662125
47	0x3f5dbbc1	0.86614615
48	0x3d35619c	0.04428254
49	0xbf8b7b10	-1.0896931
50	0xbf0a0786	-0.5391773
51	0x3eca555d	0.39518252
52	0x3f00ed79	0.50362355
53	0x3edd9ef0	0.43285322
54	0x3de726b3	0.11286678
55	0x3c8be6c4	0.017077811
56	0x3c058362	0.008149
57	0xbeb8eeaf	-0.361196
58	0xbee07b9a	-0.438443
59	0xbe387fe2	-0.18017533
60	0x3f07e46c	0.5308292
61	0xbf14e930	-0.58168316
62	0x3f2c36c4	0.67271066
63	0xbf25b574	-0.6473
64	0xbf96f3b6	-1.1793125
65	0xbe85b6c1	-0.26115993
66	0x3e8fa052	0.28052002
67	0xbf210286	-0.62894475
68	0xbfa25029	-1.2680713
69	0xbeace9b0	-0.3377204
70	0x3f2ad6c6	0.6673397
71	0xbd27bc1f	-0.04095089
72	0xbf095e7a	-0.53659785
73	0x3f3e84d0	0.74421406
74	0xbdacfd08	-0.084466994
75	0xbd6e597f	-0.05819082
76	0x3e860485	0.26175323
77	0xbecc1ce1	-0.39865783
78	0xbc8aeed9	-0.016959595
79	0xbecd583c	-0.4010638

decoder.0.bias f4 [20]
0	0xbf343124	-0.7038748
1	0x3e2f6bf6	0.17131028
2	0xbeab0aed	-0.33406773
3	0x3d195e02	0.03744317
4	0xbe6e0957	-0.2324575
5	0x3e3a76d2	0.18209389
6	0x3de295f4	0.110637575
7	0x3e8d8329	0.2763913
8	0xbd9004c4	-0.07032159
9	0x3f032cf1	0.5124045
10	0x3e2116c7	0.15731345
11	0xbe313c1b	-0.17308085
12	0xbdb59147	-0.088656
13	0xbed3dca9	-0.41379288
14	0xbef33b56	-0.47506207
15	0xbcf17f02	-0.029479507
16	0xbe9e7209	-0.30946377
17	0xbec89fb2	-0.39184338
18	0x3e5895f1	0.21150948
19	0x3e152e80	0.1456852

decoder.2.weight f4 [50, 20]
0	0x3ebfa18b	0.37427935
1	0xbef47c1a	-0.47750932
2	0xbe3b72fd	-0.18305583
3	0xbeb2b408	-0.34902978
4	0xbc2909a2	-0.010317238
5	0x3e20f962	0.15720132
6	0x3d9603c6	0.073249385
7	0x3e35480b	0.17703263
8	0x3e4dde4d	0.20104332
9	0x3e229674	0.15877706
10	0x3d01e5ca	0.031713285
11	0x3d426755	0.047461826
12	0xbe7ccac6	-0.24686727
13	0x3db060d9	0.08612222
14	0x3e5c85d5	0.21535428
15	0x3ecc2827	0.39874384
16	0x3e0de728	0.1385771
17	0x3e448937	0.19192968
18	0x3d9439bb	0.07237574
19	0xbddbb59c	-0.107279986
20	0xbe19c032	-0.15014723
21	0xbd7abfca	-0.06121806
22	0xbbbb9b34	-0.0057252888
23	0x3dafbdd3	0.08581128
24	0xbe11ba3c	-0.14231199
25	0xbe1d4b1e	-0.15360686
26	0x3e76bbda	0.24095097
27	0xba86ddac	-0.0010289452
28	0xbe5741dd	-0.21021219
29	0xbe200bb9	-0.15629472
30	0x3dbbf926	0.09178381
31	0x3d561f81	0.05227614
32	0x3dfb53ce	0.12271844
33	0xbe1bb372	-0.15205172
34	0xbdb0586a	-0.08610614
35	0x3d9cf017	0.07662981
36	0x3c9288a9	0.01788743
37	0x3e5aadf1	0.21355416
38	0xbe6860f2	-0.22693232
39	0x3e23e6b2	0.16005972
40	0xbe0399f9	-0.12851705
41	0x3e4a2399	0.19740142
42	0x3e334417	0.17506443
43	0xbbf058ce	-0.007334805
44	0x3a9eb899	0.0012109458
45	0x3e3c4f13	0.1838954
46	0x3e1bb4b6	0.15205655
47	0xbd21562e	-0.039388828
48	0xbdf66b01	-0.12032128
49	0x3e10113e	0.14069077
50	0xbd717028	-0.05894485
51	0xbd17e88f	-0.03708702
52	0x3e0f8438	0.14015281
53	0x3d4b4a62	0.049631484
54	0xbda052b1	-0.07828272
55	0x3e531531	0.20613553
56	0x3bbe002b	0.00579836
57	0xbe0014f8	-0.12507999
58	0xbd9bed0a	-0.07613571
59	0x3d712b1e	0.05887901
60	0xbdd73f9a	-0.10510178
61	0x3de6c6c7	0.112683825
62	0xbd81849f	-0.063241236
63	0xbdacc143	-0.08435299
64	0xbe6f4497	-0.23366009
65	0xbd1ee9ee	-0.03879731
66	0x3e3278ef	0.17428945
67	0x3e6a66fc	0.22890848
68	0x3b32392f	0.0027194729
69	0x3d18d6d7	0.037314262
70	0xbcc31b53	-0.02381674
71	0x3e2a8acd	0.16654511
72	0x3d090148	0.033448488
73	0xbda7b406	-0.081886336
74	0xbe611bf4	-0.2198332
75	0x3d7dab55	0.061930973
76	0x3dfbfdc4	0.12304261
77	0x3d026f01	0.031844143
78	0x3dad77ca	0.084701136
79	0xbdb0696c	-0.086138576
80	0xbef704ea	-0.48245937
81	0xbeaa5a25	-0.332719
82	0x3e384cde	0.17998073
83	0x3db60e1b	0.08889409
84	0xbe6eee66	-0.2333313
85	0xbccbc508	-0.024874225
86	0x3eb021c7	0.3440077
87	0xbe617c23	-0.2202001
88	0xbda29999	-0.07939453
89	0xbe5eda4a	-0.21762958
90	0xbde717df	-0.1128385
91	0x3e53dc63	0.2068954
92	0x3e8b4e08	0.2720797
93	0xbe0a899f	-0.13529061
94	0xbdcd2fc8	-0.10018879
95	0x3eacbfdf	0.33740136
96	0x3e7556c7	0.23958884
97	0x3e40aa24	0.18814903
98	0x3e23f320	0.16010714
99	0x3e160e3c	0.14653867
100	0x3e1d8ab2	0.1538494
101	0x3e98e4df	0.29862115
102	0x3e84e124	0.2595302
103	0xbe221a62	-0.15830377
104	0x3e93494c	0.2876686
105	0x3ea9317a	0.3304556
106	0x3e65c969	0.22440113
107	0xbf07def9	-0.53074604
108	0x3e281954	0.16415912
109	0x3e45ed38	0.19328773
110	0xbe0460b4	-0.12927514
111	0xbe98b953	-0.2982889
112	0xbdf1a4c4	-0.11799005
113	0xbe339815	-0.17538483
114	0x3e043aa8	0.12913
115	0x3e3acdfa	0.18242636
116	0x3c3a28cb	0.011362265
117	0xbed41bfe	-0.41427606
118	0x3d410f20	0.047133565
119	0x3c0d037c	0.008606788
120	0x3e5445f9	0.20729817
121	0xbe50e1ae	-0.2039859
122	0x3d3a583e	0.04549431
123	0xbd176236	-0.036958896
124	0x3dfa727b	0.12228867
125	0x3e58f56a	0.21187368
126	0x3c8e3802	0.017360691
127	0xbdbcf917	-0.092271976
128	0xbdeb3ef0	-0.11486614
129	0x3e5daac3	0.21647172
130	0xbd5a18bb	-0.05324624
131	0x3e05d98d	0.1307127
132	0xbdc72dc7	-0.09725528
133	0xbe635c53	-0.22203188
134	0xbe5382ca	-0.20655361
135	0x3e10c416	0.14137301
136	0xbe5685d5	-0.2094949
137	0xbd300a87	-0.04297879
138	0xbca1ec40	-0.019765973
139	0xbdf3af2b	-0.11898645
140	0xbe0591b0	-0.13043857
141	0xbd9f855a	-0.07789107
142	0xbded54b9	-0.11588425
143	0xbcf21ee8	-0.029555753
144	0xbe202b85	-0.15641601
145	0x3b6ac8f2	0.003582534
146	0x3e8b9867	0.2726471
147	0x3d3baa2d	0.04581659
148	0x3e0e202d	0.13879462
149	0x3e2fb946	0.1716052
150	0xbd75da45	-0.06002261
151	0x3e1687da	0.14700261
152	0x3d9020ad	0.070374824
153	0xbe28556f	-0.1643884
154	0xbe1392b0	-0.14411426
155	0xbc65428c	-0.013992917
156	0x3deaf306	0.11472134
157	0x3d980ed0	0.074247
158	0xbe883863	-0.2660552
159	0xbcba4c99	-0.022741603
160	0x3ef093fd	0.46987906
161	0x3e919823	0.28436384
162	0x3e8976b8	0.26848388
163	0xbe833a4e	-0.2563042
164	0x3ecaeff1	0.39636186
165	0x3e1dfb04	0.15427786
166	0x3e7662ac	0.24061078
167	0xbead551a	-0.3385399
168	0x3d8716d1	0.06596149
169	0x3da6a007	0.081359915
170	0x3e14a4bb	0.14515965
171	0x3d75a55c	0.059972152
172	0xbd9ba458	-0.075997055
173	0x3ca75f36	0.020431142
174	0xbe251cac	-0.16124219
175	0xbe965be9	-0.29366997
176	0xbe352f87	-0.17693911
177	0xbd85370a	-0.065046385
178	0x3c7067b1	0.014673159
179	0x3d58ca1a	0.052927114
180	0x3e77537e	0.24152943
181	0xbcfec928	-0.031101778
182	0x3e7b8fca	0.2456657
183	0x3dc89d0d	0.0979558
184	0x3bafed63	0.005368875
185	0xbe8ef80a	-0.27923614
186	0xbddd36c0	-0.10801458
187	0xbde69970	-0.11259735
188	0xbdef65ee	-0.116893634
189	0x3ddd8e55	0.10818163
190	0x3e1bc36a	0.15211263
191	0x3e5bb499	0.21455611
192	0xbd4810ae	-0.048844032
193	0xbdea09ff	-0.11427688
194	0x3de2ea94	0.110798985
195	0xbe944c17	-0.28964302
196	0xbe6c8af2	-0.23099878
197	0x3e218239	0.15772332
198	0x3e3ac0b6	0.18237576
199	0x3e04e63a	0.1297845
200	0xbd3aaa4e	-0.04557257
201	0x3e327ccf	0.17430423
202	0xbdd813bb	-0.10550638
203	0xbcb5cebe	-0.022193309
204	0x3e532765	0.20620497
205	0x3e45c95d	0.19315095
206	0x3e84b791	0.259213
207	0x3deb958c	0.11503133
208	0x3e09c029	0.1345221
209	0xbd3a843c	-0.045536265
210	0x3d8ebf7a	0.06970115
211	0x3df38925	0.118913926
212	0xbe189545	-0.14900692
213	0xbd0edab2	-0.034876533
214	0x3d946511	0.072458394
215	0xbe5bc130	-0.21460414
216	0x3e86f480	0.26358414
217	0xbe181bc5	-0.14854343
218	0x3e72f8d7	0.23727737
219	0xbd2daa84	-0.042398944
220	0x3e3f0aec	0.1865651
221	0x3de58650	0.11207259
222	0x3cb29735	0.021800617
223	0x3e4012dd	0.18757196
224	0xbdeb86af	-0.11500298
225	0xbe166eaf	-0.1469066
226	0xbe5f7ee7	-0.21825753
227	0x3e56386f	0.20919965
228	0xbda74771	-0.08167923
229	0xbe3489b8	-0.1763066
230	0xbe80ccf5	-0.2515637
231	0xbe5bb5bb	-0.21456043
232	0x3d608a87	0.05481961
233	0xbdbd2d8e	-0.092372045
234	0xbd7bed36	-0.06150552
235	0xbe6391b5	-0.22223552
236	0xbe12e19f	-0.1434388
237	0x3c62ec5b	0.013850297
238	0xbd3e3223	-0.046434533
239	0x3dcc728e	0.09982787
240	0xbd434559	-0.047673557
241	0x3e6bee83	0.23040204
242	0xbc909de8	-0.01765342
243	0x3ebc0f38	0.3673036
244	0xbb84d3d5	-0.0040535727
245	0xbd0ae9ff	-0.033914562
246	0xbd81bcdc	-0.0633485
247	0x3c3a1644	0.011357848
248	0x3e24dc03	0.16099553
249	0x3e8fe283	0.28102502
250	0x3e1ab03a	0.15106288
251	0xbe9ba862	-0.30401903
252	0x3eacca88	0.3374827
253	0xbddd15f5	-0.107952036
254	0x3dfb151d	0.122598864
255	0x3d8066af	0.06269585

decoder.2.bias f4 [50]
0	0x3e81945b	0.253085
1	0xbdafc5b1	-0.085826285
2	0x3cf496a3	0.029856985
3	0x3df6228d	0.12018309
4	0x3da573f7	0.08078759
5	0x3e4dc30f	0.2009394
6	0xbe007bbd	-0.12547202
7	0x3e0f8862	0.1401687
8	0x3e3b2079	0.18274106
9	0xbe37966d	-0.17928477
10	0x3d80bc96	0.0628597
11	0xbdf75fb0	-0.12078798
12	0xbe23c3c6	-0.1599265
13	0xbe8625a8	-0.26200604
14	0xbe545865	-0.20736845
15	0xbd93682a	-0.07197602
16	0xbe9c301d	-0.30505458
17	0x3cd81dd6	0.026381414
18	0xbdaad25e	-0.083409056
19	0xbdbe4bf0	-0.09291828
20	0x3e13c460	0.1443038
21	0x3c7f42ed	0.015579921
22	0xbdc4c350	-0.096075654
23	0x3b9500b1	0.0045472016
24	0x3e22649b	0.1585869
25	0x3da61ca1	0.08110929
26	0xbe6ca898	-0.23111188
27	0xbe8c195a	-0.27363092
28	0x3e1a138d	0.1504652
29	0xbe0f0368	-0.13966143
30	0xbe48b853	-0.19601564
31	0x3d9c0873	0.07618799
32	0x3dcfc9db	0.10145923
33	0x3c23eb03	0.010004762
34	0xbe4e9511	-0.20174052
35	0xbd89d449	-0.06729943
36	0xbea1ba55	-0.31587473
37	0x3bbe9d75	0.00581711
38	0x3deb3fda	0.11486788
39	0xbe2363b7	-0.15956007
40	0xbe16dec3	-0.14733414
41	0xbd9b0a8f	-0.07570373
42	0xbe047779	-0.129362
43	0xbe48a03f	-0.19592379
44	0x3ed408cb	0.41412959
45	0x3dc78505	0.09742168
46	0x3cd64cac	0.026159607
47	0xbdd4106a	-0.10354693
48	0xbdc20722	-0.09474017
49	0xbe6906cd	-0.227565

decoder.4.weight f4 [50, 50]
0	0x3d350533	0.04419441
1	0xbe074d7a	-0.13213149
2	0xbda36439	-0.079781
3	0xbd674f1f	-0.05647194
4	0x3c93abc5	0.018026242
5	0xbd589690	-0.052877963
6	0xbdc9b029	-0.09848053
7	0xbd0f4a2c	-0.034982845
8	0xbd803069	-0.062592335
9	0x3cc70eff	0.024299143
10	0x3d8b2fdf	0.0679624
11	0x3c03bef2	0.00804113
12	0xbdd6932d	-0.1047729
13	0xbdd550fa	-0.10415836
14	0x3dfe6905	0.12422375
15	0xbd81b54b	-0.06333407
16	0x3c38eaf6	0.011286488
17	0xbda14ff5	-0.07876579
18	0x3c0e6392	0.008690732
19	0xbcab4d63	-0.020910924
20	0xbdd01b5d	-0.10161469
21	0xbdad189b	-0.08451959
22	0xbdd219f0	-0.102588534
23	0x3dc02308	0.09381682
24	0xbdafb4bc	-0.08579394
25	0x3e09a782	0.13442805
26	0xbe0ce6c7	-0.1375991
27	0xbd77bd23	-0.06048311
28	0xbdf2ea9b	-0.11861154
29	0xbde2a891	-0.11067308
30	0x3e00765c	0.1254515
31	0x3dce9ff9	0.10089106
32	0x3d228eb0	0.03968686
33	0xbb1c9cac	-0.0023897095
34	0xbe05e6b5	-0.13076289
35	0xbde4b6f9	-0.11167712
36	0x3cec3d93	0.028837955
37	0xbd673da8	-0.056455284
38	0xbe0bc557	-0.13649498
39	0x3d1960b9	0.037445758
40	0x3cbb2ade	0.02284759
41	0xbdaf11c1	-0.08548308
42	0x3c91d9d2	0.01780406
43	0xbd9a2813	-0.07527175
44	0xbda69d6b	-0.08135494
45	0x3e046fd3	0.12933283
46	0x3df623ad	0.12018523
47	0xbc05f678	-0.0081764385
48	0xbd9e4653	-0.07728257
49	0xbdb7a90d	-0.08967791
50	0xbe278936	-0.16360936
51	0xbdc88278	-0.0979051
52	0x3bbaea73	0.005704218
53	0xbc523a44	-0.012831274
54	0xbd8b4dfd	-0.068019845
55	0x3e105f16	0.14098772
56	0x3c28e616	0.010308763
57	0xbd7d56b7	-0.061850276
58	0x3e1c3b9b	0.15257113
59	0x3d341b24	0.043971196
60	0x3e043c21	0.12913562
61	0x3defab42	0.11702587
62	0x3e136d35	0.14397128
63	0x3e0bbd9f	0.13646553
64	0xbeb76d25	-0.35825458
65	0xbd5023cd	-0.050815392
66	0x3e706d04	0.23479086
67	0x3d0b5002	0.03401185
68	0x3dab29a7	0.08357554
69	0x3c817fa7	0.01580794
70	0xbe059cc8	-0.13048089
71	0x3de4abe9	0.11165602
72	0xbc3e2783	-0.0116061
73	0x3de68e75	0.1125764
74	0x3de0a503	0.109689735
75	0x3e4700f2	0.19433954
76	0x3e3699de	0.17832133
77	0xbe1042ad	-0.14087935
78	0x3e827bb2	0.25484997
79	0xbc87df9b	-0.016586116
80	0xbe088359	-0.13331355
81	0xbda26e14	-0.07931152
82	0xbdffbc0c	-0.12487039
83	0x3e1984a7	0.14992009
84	0x3e3ad430	0.18245006
85	0xbc1d766a	-0.009610752
86	0x3d464fea	0.048416056
87	0x3e0c4973	0.13699894
88	0xbe08166c	-0.13289803
89	0x3e200340	0.1562624
90	0xbe1a9f09	-0.1509973
91	0xbe39bc0d	-0.18138142
92	0xbd75b9df	-0.059991714
93	0x3df9b8a0	0.121934175
94	0x3e2ecc06	0.17070016
95	0xbcd09d15	-0.025465528
96	0xbcfaa1bd	-0.030594701
97	0x3df351b8	0.11880821
98	0xbd40b525	-0.047047753
99	0x3eb24793	0.34820232
100	0x3e91e60e	0.2849583
101	0xbe2989ca	-0.16556469
102	0xbdce25f3	-0.10065832
103	0xbdca7f3b	-0.098875485
104	0x3deb1ae3	0.114797376
105	0x3d594486	0.053043865
106	0xbdf797a3	-0.12089469
107	0xbd9930f2	-0.07480039
108	0x3d66c755	0.05634244
109	0xbd8d256c	-0.06891903
110	0xbdcd389c	-0.10020563
111	0x3cbe0667	0.023196412
112	0xbe6cb883	-0.2311726
113	0x3d77d871	0.06050915
114	0x3e7e1305	0.24811943
115	0xbc771767	-0.015081263
116	0x3dcaed86	0.09908585
117	0xbe0144c9	-0.12623896
118	0xbbec125d	-0.0072043375
119	0xbd94294f	-0.072344415
120	0x3d97bd6a	0.07409175
121	0xbd938636	-0.07203333
122	0xbdcf5308	-0.10123259
123	0xbd715f9a	-0.058929063
124	0x3d214a62	0.039377578
125	0xbcef1138	-0.029183015
126	0x3cce7149	0.025200503
127	0xbd7b3440	-0.061329126
128	0xbd04ef75	-0.032454927
129	0xbe02cfaf	-0.12774538
130	0x3ceb1399	0.028695868
131	0xbdcbd07e	-0.09951876
132	0x3ce01fd8	0.027358934
133	0x3df49750	0.11942923
134	0xbdd5ab95	-0.10433117
135	0x3caa4dae	0.020788994
136	0x3dd55dd5	0.10418288
137	0x3e02b4d8	0.12764299
138	0xbdef1c0e	-0.11675273
139	0x3ce99b8e	0.028516557
140	0x3d17ba42	0.037042864
141	0x3d8d8844	0.06910756
142	0x3dccbad7	0.09996574
143	0x3ce22b7f	0.027608631
144	0x3e9bf509	0.30460384
145	0xbe04841c	-0.1294102
146	0x3d5e6a7f	0.05430078
147	0xbe64c231	-0.22339703
148	0x3c05b362	0.008160444
149	0x3ec1fc59	0.37887838
150	0xbd9c1211	-0.076206334
151	0xbdc3b493	-0.09555926
152	0xbd122625	-0.03568091
153	0x3e3a3abd	0.1818647
154	0xbe0b9933	-0.1363266
155	0xbe544ae1	-0.20731689
156	0x3df35cdc	0.11882946
157	0xbcd06049	-0.025436537
158	0x3d1291f6	0.03578373
159	0x3d9a74e9	0.0754183
160	0x3ba68a06	0.0050823716
161	0xbd90dd76	-0.0707349
162	0xbde35bec	-0.11101517
163	0x3ed27200	0.411026
164	0xbd8c430c	-0.06848726
165	0xbe9bc3dd	-0.3042287
166	0xbd662adf	-0.05619323
167	0xbd397621	-0.045278672
168	0xbb4f8867	-0.0031666995
169	0x3e0f21ac	0.13977689
170	0x3e9fe9b5	0.31232992
171	0x3da73493	0.081643246
172	0xbd5b2fec	-0.0535125
173	0x3d85f341	0.065405376
174	0x3e174542	0.14772514
175	0xbd23a2ef	-0.039950307
176	0xbe257f1f	-0.16161774
177	0xbb95dfb2	-0.0045737857
178	0x3dbb7607	0.09153371
179	0x3d3d8831	0.04627246
180	0xbdf74b9c	-0.12074968
181	0x3e734f85	0.23760803
182	0xbdf220cc	-0.11822662
183	0xbd0a04fe	-0.033696167
184	0x3a1020aa	0.00054980314
185	0xbd802d2c	-0.06258616
186	0x3e8ba7fc	0.272766
187	0xbb8aac95	-0.004231999
188	0x3bc815dd	0.006106122
189	0x3d9c4bed	0.07631669
190	0x3dc16356	0.09442775
191	0x3e9c2ee0	0.30504513
192	0x3d184cf6	0.03718277
193	0x3dd808d2	0.10548557
194	0x3e6fe889	0.23428549
195	0x3cba35b4	0.022730686
196	0x3e8a1bb4	0.2697426
197	0xbe62224b	-0.22083394
198	0x3dcb7dac	0.099360794
199	0xbeb9e6c3	-0.3630887
200	0x3e3483a0	0.17628336
201	0xbce03f1c	-0.027373843
202	0x3d0705d9	0.03296456
203	0xba32f2ee	-0.00068263605
204	0x3c91995d	0.017773325
205	0xbc492b66	-0.012278413
206	0x3ccd15c6	0.025034796
207	0x3d20bc62	0.039242156
208	0x3d64203d	0.055694807
209	0x3e5f30fc	0.2179603
210	0xbd77d650	-0.06050712
211	0x3e304dc4	0.17217165
212	0xbe153b86	-0.14573488
213	0x3f05ecf3	0.5231468
214	0x3e10c635	0.1413811
215	0xbe284a78	-0.16434658
216	0x3ea6b276	0.3255803
217	0xbe02a383	-0.12757687
218	0x3e162fb4	0.14666635
219	0x3da23ee2	0.0792215
220	0x3d920bd8	0.07131165
221	0xba1a4f06	-0.0005886409
222	0xba858abb	-0.001018844
223	0xbd89cbfc	-0.0672836
224	0xbd2e3ccc	-0.04253845
225	0x3de4ea18	0.11177462
226	0x3d46b622	0.04851354
227	0xbe4d7eac	-0.20067853
228	0xbd8b7010	-0.068084836
229	0xbe83266a	-0.25615245
230	0x3dfd1a32	0.12358512
231	0x3c3fad98	0.011699103
232	0x3bbcab6c	0.00575774
233	0x3e2f65b4	0.1712864
234	0x3d1d1b4a	0.038356103
235	0x3de30119	0.11084194
236	0x3ecb69a8	0.39729047
237	0xbe011f14	-0.12609512
238	0x3dc6d09b	0.09707757
239	0x3eacb21b	0.33729634
240	0xbcbf9d68	-0.023390487
241	0x3debe204	0.115177184
242	0x3dcf1957	0.10112255
243	0x3daab98a	0.0833617
244	0x3e9666bd	0.29375258
245	0x3d914bf8	0.07094568
246	0x3cb53aac	0.022122703
247	0x3d5b8589	0.053594146
248	0x3e38c0b4	0.1804226
249	0xbeee2e1c	-0.46519554
250	0xbccf31b5	-0.025292257
251	0xbcc0feaf	-0.023558943
252	0x3dbdd836	0.092697546
253	0x3cbbb524	0.022913523
254	0x3de811d1	0.11331523
255	0x3bbee19b	0.005825234

decoder.4.bias f4 [50]
0	0xbe0030e9	-0.12518658
1	0x3de4a075	0.11163417
2	0x3e986fa8	0.29772687
3	0x3cd62981	0.026142837
4	0x3e3207bb	0.17385761
5	0xbdf8923d	-0.12137268
6	0xbe8ea1b2	-0.2785774
7	0x3d3a807f	0.0455327
8	0xbe135d1f	-0.14390992
9	0x3d896c10	0.067100644
10	0xbe0d3421	-0.13789417
11	0xbde5cc41	-0.11220599
12	0xbe191c86	-0.14952287
13	0x3bc7fa83	0.0061028614
14	0x3a3fb5a5	0.0007313139
15	0xbe2d6bf0	-0.16935706
16	0xbd17c545	-0.037053365
17	0xbc6aced6	-0.01433154
18	0x3d9d2c39	0.076744504
19	0xbdd494e0	-0.10379958
20	0xbdcd5b35	-0.10027162
21	0x3d8d5515	0.06900994
22	0x3e5c6d10	0.21525979
23	0xbc9d109b	-0.019172957
24	0x3d896db6	0.06710379
25	0xbdadccef	-0.084863536
26	0xbdc1781d	-0.09446738
27	0xbd7ed9b8	-0.06221935
28	0xbd3aac99	-0.04557476
29	0x3e342893	0.17593603
30	0x3d763370	0.06010765
31	0x3e1c679f	0.15273903
32	0x3be76b37	0.0070623416
33	0xbce09883	-0.027416473
34	0x3d8b24af	0.06794106
35	0x3d23167c	0.039816365
36	0x3de6ddb1	0.11272753
37	0x3e27c5bd	0.16384025
38	0x3e18c403	0.14918523
39	0xba676d22	-0.0008828213
40	0xbd3faf62	-0.046798117
41	0xbd922f49	-0.07137925
42	0x3e586636	0.2113274
43	0x3d8f6116	0.070009395
44	0xbe05813c	-0.1303758
45	0xbd9872ee	-0.07443796
46	0x3aa3e2bb	0.0012503484
47	0xbdba6f24	-0.0910323
48	0x3e755516	0.23958239
49	0xbbe1cc6d	-0.0068908245
