RiskViz Folder/RiskViz Folder/model/checkpoint_900.tar (torch, 110796 bytes, 51 tensors)

encoder.1.weight f4 [50, 6]
-0.51343685 0.0011206106 -0.0006681295 0.23222423 -0.32624862 0.11809749 -0.0039240182 0.00090102357
-0.0075978623 2.4329574 0.0058040824 -0.22206266 -0.17873771 -0.21887062 0.013154411 -0.06251096
0.35257024 -0.366125 0.19225548 -0.0019264886 0.0016294434 -0.11696467 0.014401569 1.0929189
-0.03468589 -0.15540309 -0.0074374713 0.76501566 0.23513758 -0.5361575 0.63697726 0.009293216
0.005890382 0.1200667 0.031121762 0.94333494 -0.0773605 -0.22558475 -0.112722754 -0.24519505
0.21349266 -0.20395143 -0.66452134 0.11030744 0.006636298 -0.028813286 -0.12092597 -0.053216856
0.6500712 -0.005425208 -0.0015400752 0.9008662 0.6370448 0.048943017 -0.32257843 0.010902175
-0.18992507 -0.0019455539 0.19914684 0.17989656 -0.44617313 0.014770811 -0.0012054129 -0.9585418
-0.26278472 0.13295954 -0.23295024 -0.17829604 0.13712148 0.23495844 0.0057202694 -0.15880233
-0.12766181 -0.032684766 -0.04267424 1.0717641 -0.08773308 0.5399447 -0.4891315 0.008707854
-0.0011170913 -0.7723891 -0.2669666 0.111134954 -1.9844854 0.005391893 0.0010614394 0.25274888
-0.44994622 0.6281086 -0.6691355 0.0017938522 0.00087355456 -0.11839959 -0.40733096 -0.11628476
-0.25586534 0.27739263 0.15720037 0.32470673 -0.30337077 -0.3989353 -0.96293336 -0.012040429
-0.0022140506 -0.8129058 0.68853897 0.5256099 0.0006455714 -0.0041261874 -0.0025091732 2.3506281
0.020100227 -0.19414215 0.08570262 -0.3067651 -0.21843556 -0.19187394 -0.23100477 0.07239225
-0.10157349 -0.0014873367 -0.002613217 -0.69081616 0.7379795 0.058516357 -0.35397303 -0.2648631
0.15069388 0.15290214 -0.2524419 -0.1287048 -2.392894 -0.007168746 -0.0007705574 -0.34601706
-0.32362768 0.19988173 0.3214876 -0.0874762 -0.06824305 0.14042345 0.057535093 -0.13453357
-0.32706514 -0.22237992 0.06981866 -0.024516085 0.47330773 -0.029308703 -0.10347028 -0.39002258
-0.3732352 0.17813966 0.3214034 -0.001309573 -2.3553815 -0.0029042275 0.004179337 -0.6140278
-0.1385121 0.11730978 -2.132757 0.0030317395 0.003999819 -0.5448491 -0.12728576 -0.47355008
0.7889377 -0.004281455 0.005013195 -1.0921084 0.67176753 0.05927282 -0.22642867 -0.026560923
-0.28906256 -0.018840296 0.22787298 -0.18349355 0.7643851 -0.01029573 -0.0021117174 0.5201754
-0.3334033 -0.31634453 0.034348343 -0.0067179655 0.0049724844 -0.045923993 0.15621135 1.2747912
0.31277952 -0.39888585 0.042699676 -0.019512469 0.109704874 -0.100164354 0.09970033 -0.26676348
0.19311693 0.6217893 -0.0024656984 -0.25618133 -0.6560407 -0.029440003 -0.0031794512 0.0579172
-0.013758993 1.0523406 0.00017184757 0.0007541921 -0.0020741492 1.5190986 0.4109387 0.0052145724
0.22566088 0.13407896 0.0406402 -0.11837798 0.06293194 0.029193873 0.0067675263 0.004863923
0.0043906844 -0.7117367 0.0427384 0.71541244 0.023305848 -0.02607572 -0.0070444485 -0.16401961
0.22377053 1.4131861 1.0749651 -0.0031842845 0.0008410461 -0.3244018 -0.12052974 -0.59015304
-2.3893504 -0.0057162642 -0.0029946968 -0.8078565 -0.3093924 0.22757573 -0.0031907381 0.00020870032
-0.0006296846 2.3254945 -0.38124174 -0.18590392 -0.58695185 -2.908199e-05 -0.015648631 0.18562953
00000000: 9970 03bf 74e1 923a 6925 2fba 30cc 6d3e
00000010: 0f0a a7be 19dd f13d 0d95 80bb ab32 6c3a
00000020: 7df7 f8bb 93b5 1b40 2c30 be3b 6564 63be
00000030: 0507 37be 9f1f 60be 9985 573c bf05 80bd
00000040: 1684 b43e bc74 bbbe 9fde 443e 3b82 fcba
00000050: 0c93 d53a 2c8b efbd 8ff4 6b3c c4e4 8b3f
00000060: cb12 0ebd fd21 1fbe 08b6 f3bb 11d8 433f
00000070: e8c7 703e 9e41 09bf f110 233f 9342 183c
00000080: 1b04 c13b 88e5 f53d 11f3 fe3c 667e 713f
00000090: 2f6f 9ebd b0ff 66be 30db e6bd 6914 7bbe
000000a0: d29d 5a3e a5d8 50be 121e 2abf dee8 e13d
000000b0: 4d75 d93b d709 ecbc 09a8 f7bd ebf9 59bd
000000c0: 116b 263f f1c5 b1bb 59dc c9ba 2b9f 663f
000000d0: 5e15 233f 7978 483d 0029 a5be 099f 323c
000000e0: b87b 42be f501 ffba 26ed 4b3e ce36 383e
000000f0: ce70 e4be 4601 723c f2fe 9dba ff62 75bf
00000100: b88b 86be 8c26 083e 828a 6ebe 3d93 36be
00000110: 9369 0c3e f298 703e 1971 bb3b 149d 22be
00000120: c7b9 02be 76e0 05bd 2fcb 2ebd 912f 893f
00000130: 67ad b3bd d139 0a3f 726f fabe 63ab 0e3c
00000140: 5d6b 92ba 4bbb 45bf d9af 88be b99a e33d
00000150: 9e03 febf 7aae b03b ff1f 8b3a 4d68 813e
00000160: 5a5f e6be bacb 203f 774c 2bbf b11f eb3a
00000170: 41ff 643a 7c7b f2bd af8d d0be b426 eebd
00000180: c800 83be 6806 8e3e 22f9 203e f63f a63e
00000190: 6a53 9bbe 3f41 ccbe cd82 76bf 3845 45bc
000001a0: 9b19 11bb 981a 50bf 1744 303f 5f8e 063f
000001b0: 903b 293a f834 87bb f170 24bb b170 1640
000001c0: 3ba9 a43c 33cd 46be db84 af3d 5110 9dbe
000001d0: 92ad 5fbe 9a7a 44be 848c 6cbe 6342 943d
000001e0: c305 d0bd bdf2 c2ba 8242 2bbb 54d9 30bf
000001f0: 39ec 3c3f d9ae 6f3d f43b b5be 239c 87be
00000200: 7f4f 1a3e 6192 1c3e 1140 81be 31cb 03be
00000210: 2d25 19c0 cde7 eabb 3bff 49ba 2629 b1be
00000220: 87b2 a5be ccad 4c3e 069a a43e b926 b3bd
00000230: 03c3 8bbd 2acb 0f3e eba9 6b3d 2bc3 09be
00000240: 1575 a7be 90b7 63be 16fd 8e3d f5d5 c8bc
00000250: 6455 f23e ce18 f0bc 3ae8 d3bd 0ab1 c7be
00000260: af18 bfbe 3e6a 363e fd8e a43e faa5 abba
00000270: 92be 16c0 da54 3ebb d2f2 883b ed30 1dbf
00000280: 1ed6 0dbe 1c40 f03d 177f 08c0 26b0 463b
00000290: ea10 833b 3b7b 0bbf 3357 02be 2875 f2be
000002a0: d2f7 493f 734b 8cbb ba45 a43b 35ca 8bbf
000002b0: f5f8 2b3f 0ec8 723d ebdc 67be 4b96 d9bc
000002c0: 0200 94be f756 9abc 8957 693e bce5 3bbe
000002d0: beae 433f 6caf 28bc bd64 0abb 372a 053f
000002e0: d6b3 aabe e9f7 a1be d9b0 0c3d 6122 dcbb
000002f0: 39f0 a23b cc1a 3cbd def5 1f3e 5c2c a33f
00000300: a324 a03e c43a ccbe dbe5 2e3d 9dd8 9fbc
00000310: f3ac e03d f822 cdbd b02f cc3d 3995 88be
00000320: 72c0 453e 952d 1f3f 8e97 21bb 332a 83be
00000330: 49f2 27bf 292c f1bc 575e 50bb 963a 6d3d
00000340: 666d 61bc 19b3 863f fb31 3439 fab4 453a
00000350: 73ee 07bb d371 c23f 8f66 d23e 01df aa3b
00000360: a513 673e ff4b 093e 5776 263d 2870 f2bd
00000370: 76e2 803d fd27 ef3c 20c2 dd3b 8b61 9f3b
00000380: bbdf 8f3b 6034 36bf 760e 2f3d 4525 373f
00000390: e8eb be3c c09c d5bc 1ed5 e6bb c2f4 27be
000003a0: 1a24 653e 48e3 b43f 7598 893f 6eaf 50bb
000003b0: a679 5c3a fe17 a6be 4cd8 f6bd 4514 17bf
000003c0: 1eeb 18c0 804f bbbb ad42 44bb afcf 4ebf
000003d0: ae68 9ebe 9d09 693e b41b 51bb 91d6 5a39
000003e0: 6b11 25ba e7d4 1440 1e32 c3be 995d 3ebe
000003f0: 7a42 16bf 19f5 f3b7 8f31 80bc ab15 3e3e

encoder.1.bias f4 [50]
0.24759085 -0.002429772 -0.0153993275 -0.15487091 -0.09152164 -0.49886632 -0.12794556 -0.03441704
-0.3259994 -0.33285695 0.17913343 -0.39319113 -0.8602937 0.2132365 0.017275175 0.33348462
-0.36196944 0.017217634 0.0015226997 -0.26781815 0.052560855 -0.14436314 0.01944922 -0.37494236
-0.054188594 -0.29831365 0.024799347 0.020582428 -0.4003264 -0.2414824 -0.4093581 -0.23117635
-0.41938356 -0.3290305 0.0034056043 -0.00068180764 -0.34936714 -0.014011238 -0.32950345 -0.6560626
0.023095062 -0.0010228371 0.0014962391 -0.41148967 -0.6386824 0.0010692617 -0.007800471 0.019275265
-0.27376592 -0.0007098138
00000000: 7588 7d3e cf3c 1fbb 764d 7cbc 7b96 1ebe
00000010: b36f bbbd 686b ffbe 2904 03be e2f8 0cbd
00000020: 65e9 a6be 3a6c aabe c16e 373e 5950 c9be
00000030: 353c 5cbf ab5a 5a3e ab84 8d3c 7fbe aa3e
00000040: 0f54 b9be ff0b 8d3c 5395 c73a 761f 89be
00000050: 0d4a 573d eed3 13be f853 9f3c 72f8 bfbe
00000060: dcf4 5dbd 91bc 98be 0028 cb3c 7b9c a83c
00000070: 95f7 ccbe 2a47 77be 6397 d1be 7eb9 6cbe
00000080: 71b9 d6be b076 a8be 8f30 5f3b 56bb 32ba
00000090: 40e0 b2be 648f 65bc adb4 a8be b8f3 27bf
000000a0: db31 bd3c b810 86ba 741d c43a c6ae d2be
000000b0: b180 23bf 7826 8c3a 189b ffbb 29e7 9d3c
000000c0: 0c2b 8cbe cc12 3aba

encoder.4.weight f4 [50, 50]
0.053501826 -0.36886576 -0.11703548 -0.113832325 -0.23086254 0.11028346 -0.01797632 0.054386057
0.054138124 0.08867835 0.17860667 0.0053146165 -0.09590788 -0.002219354 0.21879442 -0.04514013
-0.1395739 0.011627433 -0.37098816 -0.09891259 -0.038810574 0.032504316 0.23683387 -0.02532121
0.04708858 -0.03465613 0.11567537 0.2844232 0.029395381 0.10078159 0.14224245 -0.096486814
0.0375566 0.067575574 0.0830661 -0.27940238 -0.00070785265 -0.100574434 0.0156946 0.24351926
0.23950121 -0.33049577 -0.01768004 -0.07122941 0.4236989 -0.016081758 -0.28862196 -0.009176506
0.054613188 -0.106717706 -0.008086638 -0.01679332 0.05389162 -0.116110176 -0.016993936 0.20155364
-0.07212203 0.006289657 -0.045923017 0.07474837 -0.039089594 -0.106248334 -0.11355818 0.21237981
0.09974727 -0.018169004 -0.13209675 0.01828422 -0.0069148866 0.016348662 0.008209851 -0.031040275
0.23004475 0.051571082 0.037869737 -0.076502256 0.35806498 0.353695 -0.019540338 0.13108516
-0.100194894 -0.14237645 0.027046585 0.034747884 0.15653096 -0.07279121 0.09526415 -0.020261167
-0.140797 0.31824827 0.27751347 -0.015547196 -0.08841326 -0.09550715 0.19889821 0.13713393
-0.12132465 -0.09005606 -0.0444917 0.03719906 0.033190284 -0.3900955 0.10714968 0.1131255
-0.023885975 -0.022629438 -0.04377028 0.004454575 -0.20751478 0.14056641 0.03524956 0.1344255
0.12720023 0.08262644 -0.23912674 0.033666313 -0.05432565 -0.045166522 -0.28947127 0.07875923
0.22762856 -0.10972537 -0.23742309 0.042074706 0.004213874 0.06521418 0.03434761 -0.043888867
-0.20639469 -0.040886834 -0.2676542 0.05238376 0.09804442 -0.13437575 0.026742334 -0.057179764
0.108114794 0.12800984 0.03395077 -0.24026687 -0.04550158 -0.1815805 -0.104354784 -0.006091674
-0.16072668 0.10337817 0.021805529 -0.101779446 -0.102082744 -0.16760896 -0.23527105 -0.22917737
-0.008148115 -0.05489667 -0.056684896 0.21775271 0.12487943 0.056843676 0.05540134 -0.11397273
-0.07656122 -0.120160505 0.102702364 -0.20451915 0.023689581 -0.20656054 -0.097763054 -0.28110877
-0.22140378 -0.0646535 -0.3222605 0.10003752 -0.06770597 -0.016829707 -0.022837596 0.05873005
-0.062375527 -0.017140303 0.03887707 0.097589634 0.1614113 -0.10760933 -0.035563674 -0.11130242
0.05935544 -0.21996336 0.021531513 -0.30412266 0.0063476325 0.2671788 -0.092941 -0.22159924
-0.18318625 0.1311291 0.379642 -0.061272036 -0.2876194 0.06115721 0.09263851 -0.119047165
0.07863368 -0.14052606 -0.043347105 0.48105046 -0.12764758 0.32486096 -0.07330683 0.13060515
-0.013048968 -0.09419143 -0.05791201 0.11147852 -0.038955297 -0.056786116 0.037557706 -0.028871495
-0.119137965 0.023642078 -0.21630585 0.033663295 0.020857923 -0.04270869 -0.057453804 0.08348354
-0.0144799445 0.06626312 0.093089744 0.08973762 0.003926864 0.056622777 -0.043819826 0.41183636
-0.053939696 0.08479218 0.2970602 0.023227207 -0.13346812 -0.050248027 0.39988062 0.18247697
-0.00875666 -0.25089744 -0.034867655 0.07849761 -0.08184301 0.04992964 0.0035306397 -0.109924495
-0.06747222 0.15951395 -0.0412089 -0.040462587 -0.026951358 0.25420105 0.018836148 0.2550088
00000000: bb24 5b3d f9db bcbe 4cb0 efbd ec20 e9bd
00000010: 3b67 6cbe 4bdc e13d 1343 93bc eac3 5e3d
00000020: f0bf 5d3d ff9c b53d abe4 363e 3c26 ae3b
00000030: 5a6b c4bd 9572 11bb a50b 603e dbe4 38bd
00000040: 76ec 0ebe fd80 3e3c 29f2 bdbe af92 cabd
00000050: d6f7 1ebd 3f23 053d 9484 723e 6d6e cfbc
00000060: f4df 403d 96f3 0dbd 35e7 ec3d eb9f 913e
00000070: 95ce f03c 9466 ce3d 01a8 113e e19a c5bd
00000080: f3d4 193d 1065 8a3d 8f1e aa3d d40d 8fbe
00000090: 308f 39ba f8f9 cdbd f691 803c 1d5d 793e
000000a0: ce3f 753e be36 a9be bbd5 90bc bae0 91bd
000000b0: 10ef d83e e4bd 83bc 42c6 93be 0e59 16bc
000000c0: 14b2 5f3d d08e dabd d17d 04bc 2592 89bc
000000d0: 76bd 5c3d 2ccb edbd de36 8bbc 1464 4e3e
000000e0: b7b4 93bd 7819 ce3b c619 3cbd ac15 993d
000000f0: 691c 20bd ba98 d9bd 3191 e8bd 187a 593e
00000100: 4c48 cc3d 2ad7 94bc 5f44 07be cac8 953c
00000110: 4696 e2bb a1ed 853c 9c82 063c 2d48 febc
00000120: da90 6b3e 333c 533d 4c1d 1b3d 37ad 9cbd
00000130: 4b54 b73e 8317 b53e 0f13 a0bc 303b 063e
00000140: fb32 cdbd 22cb 11be cd90 dd3c cc53 0e3d
00000150: a749 203e 8f13 95bd da19 c33d bffa a5bc
00000160: 172d 10be 70f1 a23e 3f16 8e3e abb9 7ebc
00000170: 0312 b5bd 4199 c3bd f9ab 4b3e d66c 0c3e
00000180: 0f79 f8bd 506f b8bd ee3c 36bd 0b5e 183d
00000190: 89f2 073d 99ba c7be 4b71 db3d 58ae e73d
000001a0: 85ac c3bc 5f61 b9bc 7748 33bd aff7 913b
000001b0: c17e 54be a4f0 0f3e d861 103d d7a6 093e
000001c0: c740 023e 0d38 a93d a4dd 74be b0e5 093d
000001d0: 9384 5ebd 8800 39bd 9435 94be 854c a13d
000001e0: 7617 693e b2b7 e0bd 0a1f 73be 8756 2c3d
000001f0: 8a14 8a3b 038f 853d 14b0 0c3d d0c4 33bd
00000200: 2159 53be f478 27bd f909 89be 5b90 563d
00000210: 83cb c83d cc99 09be bd12 db3c 5435 6abd
00000220: 4a6b dd3d 0315 033e f60f 0b3d 8508 76be
00000230: dd5f 3abd 3df0 39be f6b7 d5bd aa9c c7bb
00000240: 8995 24be efb7 d33d 82a1 b23c be71 d0bd
00000250: c210 d1bd afa1 2bbe e5ea 70be 79ad 6abe
00000260: ac7f 05bc 55db 60bd 6c2e 68bd 91fa 5e3e
00000270: c9c0 ff3d ead4 683d 84ec 623d 896a e9bd
00000280: 21cc 9cbd b616 f6bd 9e55 d23d 786d 51be
00000290: a710 c23c 9b84 53be ff37 c8bd 7ded 8fbe
000002a0: acb7 62be 0e69 84bd 54ff a4be 79e0 cc3d
000002b0: 6da9 8abd 74de 89bc e915 bbbc ec8e 703d
000002c0: 7b7d 7fbd d269 8cbc 903d 1f3d 13dd c73d
000002d0: 0149 253e 4862 dcbd 37ab 11bd 86f2 e3bd
000002e0: b11e 733d 133e 61be db62 b03c f7b5 9bbe
000002f0: cdff cf3b a9cb 883e da57 bebd e9ea 62be
00000300: 2d95 3bbe b546 063e 7060 c23e 63f8 7abd
00000310: da42 93be fc7f 7a3d 42b9 bd3d 00cf f3bd
00000320: b20a a13d 10e6 0fbe bc8c 31bd 3f4c f63e
00000330: 0cb6 02be 2d54 a63e e421 96bd 5bbd 053e
00000340: 57cb 55bc 70e7 c0bd 2535 6dbd da4e e43d
00000350: 978f 1fbd 8f98 68bd 1cd6 193d ea83 ecbc
00000360: 9bfe f3bd 08ad c13c 487f 5dbe 86e2 093d
00000370: 3cde aa3c 4fef 2ebd ae54 6bbd 6bf9 aa3d
00000380: 4a3d 6dbc f5b4 873d d6a5 be3d 5bc8 b73d
00000390: ecac 803b 49ed 673d 6b7c 33bd 37dc d23e
000003a0: dfef 5cbd 86a7 ad3d 4618 983e fc46 be3c
000003b0: deab 08be e0d0 4dbd 27bd cc3e 3edb 3a3e
000003c0: 1878 0fbc a175 80be 63d1 0ebd 5bc3 a03d
000003d0: 4f9d a7bd 0683 4c3d 4e62 673b 1820 e1bd
000003e0: e02e 8abd a057 233e aaca 28bd 19bc 25bd
000003f0: 18c9 dcbc a426 823e 444e 9a3c 8390 823e

encoder.4.bias f4 [50]
-0.0010946547 -0.008424863 0.005078469 0.00986537 -0.0015083157 0.0020017144 -0.68883616 -0.006353158
-0.30577317 -0.015720885 -0.0011054025 0.012120096 -0.0010484189 -0.0024284306 -0.28499523 -0.027775547
0.007860027 -0.004873557 -0.011079312 -0.62293583 -0.1006526 -0.015275026 -0.2624344 -0.0059621013
-0.0026420753 -0.0042677824 -0.007316082 -0.0043883906 0.008268543 -0.004940664 -0.0022233794 -0.022016795
0.011758109 -0.14923945 -0.26640972 -0.18313508 -0.32078865 -0.048682645 -0.61781114 -0.0014567145
0.006339284 -0.16542909 -0.01292334 -0.12012897 -0.17773467 0.007414352 -0.32829455 -0.0167817
-0.0021521722 0.009866125
00000000: 847a 8fba 7008 0abc 4969 a63b 5ca2 213c
00000010: adb2 c5ba 322f 033b 9157 30bf 272e d0bb
00000020: 4d8e 9cbe 16c9 80bc 27e3 90ba 5e93 463c
00000030: 1a6b 89ba 4e26 1fbb e5ea 91be 8b89 e3bc
00000040: 58c7 003c 5cb2 9fbb 0186 35bc b978 1fbf
00000050: f322 cebd 1a44 7abc cd5d 86be bb5d c3bb
00000060: ab26 2dbb c1d8 8bbb bebb efbb 7dcc 8fbb
00000070: c878 073c 4be5 a1bb 1eb6 11bb 915c b4bc
00000080: 15a5 403c 3ad2 18be db66 88be c387 3bbe
00000090: 693e a4be 7467 47bd df28 1ebf 3aef beba
000000a0: c5b9 cf3b 3e66 29be 6bbc 53bc 2d06 f6bd
000000b0: 1400 36be 18f4 f23b 3916 a8be c779 89bc
000000c0: 750b 0dbb 87a5 213c

encoder.7.weight f4 [20, 50]
0.1616288 0.17013225 0.017509121 -0.297071 0.036611907 0.055534728 -0.07699667 0.7784822
-0.06424757 0.41310215 0.091318 -0.31500822 -0.38698724 -0.21537967 -0.12988967 0.3489404
0.02151125 0.5178523 -0.21286844 -0.04560841 -0.07364111 0.41807202 -0.15177876 0.5966106
-0.06634114 0.66741747 0.5029058 0.6798689 -0.22520795 -0.009666614 -0.25305387 0.51496136
-0.14365335 -0.009692062 -0.08602905 -0.05544059 -0.052653506 0.016358888 0.100913346 -0.28442964
-0.1821857 -0.09495226 0.13522953 0.17037353 0.12918682 -0.31551114 -0.0901424 0.13440171
-0.3204037 -0.31261462 0.0014655648 0.01766037 -0.021485992 0.011494769 0.31264794 0.37754744
-0.02239073 0.24617481 0.20537567 0.3150925 0.3251684 0.0036641357 -0.01122902 -0.025059406
0.2167947 0.06240552 -0.025306638 0.30052152 -0.0048113465 0.12362983 0.064616986 0.12470014
-0.012384336 0.2908956 0.09119025 0.08339625 0.24648234 0.14818452 0.012219893 0.3545452
-0.0009663099 0.03241801 0.015355714 -0.05268058 0.22339654 -0.046095066 0.16880424 0.021434486
0.15014985 -0.0072877435 0.015577083 0.059263736 -0.020882823 0.34351683 -0.03401083 0.005089909
0.21640146 0.028020192 -0.010293545 0.0075999745 0.49679574 0.23648174 -0.35265446 0.3325562
-0.19426228 -0.3063371 -0.2444594 -0.08846722 -0.19110027 -0.23746568 -0.4267985 -0.010827286
0.010199842 -0.08999078 0.031015886 -0.22306694 -0.27955374 -0.16911422 0.059656672 -0.16319095
-0.27741116 -0.100490965 -0.551494 -0.16507877 -0.08935898 -0.056171846 -0.016308267 -0.16854763
0.33129105 -0.17538264 0.017852835 -0.12102197 0.11221835 0.11189101 -0.24088249 0.020776307
-0.32806093 0.06704276 -0.2119338 0.01890377 0.40181544 0.061449856 -0.30051318 -0.45363787
0.12720837 0.10206782 0.012501504 0.5076585 0.01943272 0.2500471 0.02216762 0.090510964
-0.12530683 0.009371716 -0.005352195 -0.03913546 -0.061682463 0.1674235 -0.14764537 0.5193973
0.053493693 0.006096002 0.19660687 0.28834647 0.038098898 -0.045508754 -0.08313554 0.18924141
0.29135436 -0.20293176 -0.006002929 0.21270673 0.29660547 0.21598376 0.18698655 0.27903026
0.32820815 0.22505727 0.0038541234 0.027308572 0.3125313 0.036998507 0.0052459976 0.02897041
0.3449792 -0.068539016 -0.04603079 0.43553525 -0.059162762 0.11266151 0.00514585 -0.054189645
0.025403969 0.45216513 0.1317481 0.0062687513 -0.09070564 0.027738895 0.116912924 0.00773192
-0.30335584 0.03097123 -0.12614784 -0.26023868 -0.035946358 -0.12904593 -0.12667632 -0.04685438
-0.22562484 0.06537835 0.040668104 -0.007214113 0.27541953 0.32656503 0.005024284 -0.17972696
-0.12215662 -0.0072276243 0.18426557 -0.21689588 -0.017645389 -0.16202421 0.38262308 -0.0013085837
0.397153 -0.039081298 -0.032441862 0.0068909274 -0.10829925 0.034260865 0.21184537 -0.119305335
-0.054515444 -0.056191247 0.07717388 -0.03555259 -0.0894398 0.34752646 -0.04976711 0.25782534
-0.16492096 0.12750937 0.20202039 0.21976769 0.05648727 -0.12316286 0.053993594 -0.27191123
0.28978014 -0.16006452 -0.28335428 -0.29718122 0.14967938 -0.25081885 0.44768772 0.3067319
00000000: 0582 253e 2637 2e3e 4a6f 8f3c b119 98be
00000010: 5ef6 153d 6278 633d 6eb0 9dbd 9c4a 473f
00000020: 3b94 83bd 2082 d33e ee04 bb3d c248 a1be
00000030: 3123 c6be 7d8c 5cbe cc01 05be 51a8 b23e
00000040: 5c38 b03c f891 043f 2ffa 59be e2cf 3abd
00000050: 26d1 96bd 890d d63e e46b 1bbe 79bb 183f
00000060: dddd 87bd dfdb 2a3f 6fbe 003f e30b 2e3f
00000070: ea9c 66be b860 1ebc 4790 81be 82d4 033f
00000080: dd19 13be 74cb 1ebc 0030 b0bd ac15 63bd
00000090: 34ab 57bd 1303 863c a8ab ce3d c3a0 91be
000000a0: e38e 3abe 5576 c2bd 9c79 0a3e 6676 2e3e
000000b0: 8d49 043e ad8a a1be 949c b8bd 9aa0 093e
000000c0: f40b a4be 060f a0be 3218 c03a 7bac 903c
000000d0: 6403 b0bc 8e54 3c3c 6413 a03e e64d c13e
000000e0: c46c b7bc 4015 7c3e 004e 523e ce53 a13e
000000f0: 797c a63e ff21 703b ecf9 37bc 6249 cdbc
00000100: 6eff 5d3e ee9c 7f3d de4f cfbc f5dd 993e
00000110: 80a8 9dbb a331 fd3d e955 843d c962 ff3d
00000120: ace7 4abc 45f0 943e f4c1 ba3d a7cb aa3d
00000130: de65 7c3e afbd 173e f235 483c f386 b53e
00000140: f64f 7dba bfc8 043d 8896 7b3c 98c7 57bd
00000150: 10c2 643e 2ece 3cbd 05db 2c3e 6097 af3c
00000160: e2c0 193e 06ce eebb 0637 7f3c 88be 723d
00000170: 7412 abbc 70e1 af3e f14e 0bbd 40c9 a63b
00000180: 5898 5d3e 9a8a e53c 42a6 28bc 3509 f93b
00000190: 035c fe3e 4528 723e 208f b4be ce44 aa3e
000001a0: b1ec 46be 37d8 9cbe 9153 7abe 4d2e b5bd
000001b0: caaf 43be 342a 73be 5585 dabe ee64 31bc
000001c0: 3d1d 273c 164d b8bd 0715 fe3c a96b 64be
000001d0: ab21 8fbe 472c 2dbe 8e5a 743d 871b 27be
000001e0: d608 8ebe 35ce cdbd b62e 0dbf 690a 29be
000001f0: d701 b7bd 7314 66bd ea98 85bc c097 2cbe
00000200: fb9e a93e 8297 33be 1c40 923c 5eda f7bd
00000210: bcd2 e53d 1d27 e53d e6a9 76be 1333 aa3c
00000220: 9af7 a7be b74d 893d 2d05 59be 14dc 9a3c
00000230: c1ba cd3e d8b2 7b3d dddc 99be 3943 e8be
00000240: e942 023e ef08 d13d 1cd3 4c3c e8f5 013f
00000250: 5e31 9f3c 2c06 803e de98 b53c d05d b93d
00000260: 6f50 00be d38b 193c 7761 afbb 814c 20bd
00000270: c0a6 7cbd 1171 2b3e 5930 17be 39f7 043f
00000280: 341c 5b3d f9c0 c73b 5053 493e 26a2 933e
00000290: 970d 1c3d 6367 3abd f742 aabd 80c8 413e
000002a0: 662c 953e 58cd 4fbe 38b4 c4bb cbcf 593e
000002b0: acdc 973e d92a 5d3e 6779 3f3e 0edd 8e3e
000002c0: e60a a83e 6a75 663e 7695 7c3b 3ab6 df3c
000002d0: 1a04 a03e bf8b 173d 9ee6 ab3b 5a53 ed3c
000002e0: 1da1 b03e 2f5e 8cbd c88a 3cbd 7afe de3e
000002f0: a754 72bd 14bb e63d 859e a83b f6f5 5dbd
00000300: fc1b d03c 3082 e73e f9e8 063e 196a cd3b
00000310: e1c3 b9bd ae3c e33c 0b70 ef3d 0c5c fd3b
00000320: 7551 9bbe 60b7 fd3c e62c 01be 013e 85be
00000330: 7d3c 13bd 9e24 04be 70b7 01be 61ea 3fbd
00000340: 330a 67be 16e5 853d 9993 263d 5e64 ecbb
00000350: ca03 8d3e 8833 a73e c0a2 a43b 580a 38be
00000360: 402d fabd b5d5 ecbb 1db0 3c3e f419 5ebe
00000370: 108d 90bc ade9 25be 2ce7 c33e c884 abba
00000380: a357 cb3e b613 20bd c2e1 04bd 4acd e13b
00000390: ffcb ddbd 1f55 0c3d feed 583e 5b56 f4bd
000003a0: 964b 5fbd cb28 66bd 570d 9e3d 989f 11bd
000003b0: 372c b7bd fdee b13e 99d8 4bbd af01 843e
000003c0: 0ae1 28be d191 023e 6fde 4e3e c80a 613e
000003d0: 325f 673d cf3c fcbd 6328 5d3d f337 8bbe
000003e0: 105e 943e f4e7 23be d013 91be 2328 98be
000003f0: 8d45 193e 546b 80be 5337 e53e f70b 9d3e

encoder.7.bias f4 [20]
0.006608215 -0.0027777571 -0.006061116 -0.00016348471 -0.0028849558 0.0060262037 -0.4197038 -1.1411574
0.005492756 -0.008717871 -0.20599055 0.0034189138 -0.39571527 0.0002322353 -0.0026313546 -0.0010860537
-0.0019943449 0.0025436038 0.00049088825 -0.48321173
00000000: ba89 d83b 080b 36bb 539c c6bb 186d 2bb9
00000010: 8711 3dbb 7677 c53b 6be3 d6be 7211 92bf
00000020: 94fc b33b 67d5 0ebc 30ef 52be db0f 603b
00000030: 319b cabe 3084 7339 ce72 2cbb ea59 8eba
00000040: 8eb3 02bb 97b2 263b f4ae 003a 8767 f7be

encoder.10.weight f4 [4, 20]
0.82711804 0.23575248 -0.7899372 -0.25877684 -0.4579213 0.41211775 0.73189294 1.3223027
0.7227106 -0.5525777 -0.18019472 0.37404183 0.35137218 0.9697303 -0.47235295 0.9962597
-0.24104989 -0.29071406 -0.376 0.95980704 -0.42122808 -0.7506344 -0.6291962 -0.025060127
0.7467306 -0.49542916 -0.008017229 0.56533796 -0.35547513 -0.48243442 -0.11121738 -0.5196944
-0.093470745 -0.44098818 0.7632736 -0.44588742 -0.12208529 0.3079632 0.55344486 0.05705321
-0.7905339 0.12356043 0.49182516 -0.090712175 0.6196052 0.6194067 0.23225655 -0.016161606
-0.72654194 0.41651726 -0.19000888 0.49957296 0.36502674 -0.9109878 0.6460524 -0.93252456
-0.14766297 0.20664708 0.45893523 -0.053771622 0.54894614 -0.23273791 0.5232078 -0.48788008
-0.43080768 -0.0068657435 -0.18017785 -0.4578012 0.4531204 0.3575515 -0.14412433 -0.04763221
-0.3218513 0.67065835 -0.4375507 0.68871176 -0.4886837 -0.37542987 -0.38690522 -0.28127006
00000000: 02be 533f 1969 713e 5339 4abf 667e 84be
00000010: a974 eabe 1901 d33e 565d 3b3f 3741 a93f
00000020: 9003 393f bb75 0dbf f784 38be 6982 bf3e
00000030: 0ee7 b33e 3f40 783f 3fd8 f1be e00a 7f3f
00000040: c8d5 76be 79d8 94be 1283 c0be eab5 753f
00000050: 35ab d7be 9329 40bf 0113 21bf e54a cdbc
00000060: bd29 3f3f e4a8 fdbe b25a 03bc fdb9 103f
00000070: d600 b6be a501 f7be f0c5 e3bd b10a 05bf
00000080: 976d bfbd 34c9 e1be e665 433f 5b4b e4be
00000090: da07 fabd 5aad 9d3e 90ae 0d3f a0b0 693d
000000a0: 6e60 4abf 400d fd3d 82d0 fb3e 4ec7 b9bd
000000b0: 729e 1e3f 7091 1e3f a9d4 6d3e 5865 84bc
000000c0: a7fe 39bf c041 d53e b091 42be 07c8 ff3e
000000d0: c9e4 ba3e 7f36 69bf b163 253f eeb9 6ebf
000000e0: f634 17be 4b9b 533e 8ff9 ea3e a23f 5cbd
000000f0: bc87 0c3f d952 6ebe f2f0 053f 6bcb f9be
00000100: d392 dcbe 08fa e0bb 8b80 38be eb64 eabe
00000110: 66ff e73e fd10 b73e 5495 13be fe19 43bd
00000120: b2c9 a4be 44b0 2b3f a506 e0be 6a4f 303f
00000130: c034 fabe 5838 c0be 7118 c6be a102 90be

encoder.10.bias f4 [4]
-0.22929458 -0.2373469 0.26281768 0.28007436
00000000: 33cc 6abe 110b 73be 0a90 863e e865 8f3e

decoder.0.weight f4 [20, 4]
-0.22580113 0.4620083 0.7657685 1.5910178 0.52446765 -0.35257223 -0.64032423 0.6105787
-0.29291013 -0.049813315 0.8961722 0.5078205 -0.06719318 -1.0093131 -0.93758357 0.8162062
0.030523393 0.2632841 0.49981532 0.8564384 0.6646227 -0.5390131 0.32345462 -0.9333711
1.3400322 -0.11359625 0.565403 -0.732737 0.4693313 -0.3888963 -0.5783689 -0.4653423
-0.23048052 0.7449443 -0.3421158 -0.5849599 0.24837542 0.53491086 0.23173328 -0.50524414
-0.16243263 0.29000258 0.36645046 -0.1999435 -1.6254394 0.73734146 -0.69094455 0.75366586
0.06697432 -1.0061374 -0.5118624 0.42030472 0.503765 0.43288106 0.11294275 0.016986903
0.00844413 -0.36171725 -0.43866608 -0.18010862 0.44469863 -0.50915235 0.5934878 -0.5125846
-1.0947154 -0.22976667 0.21645047 -0.47496802 -1.074012 -0.3676612 0.6248844 -0.080011375
-0.55619496 0.66305244 0.046603773 -0.16589354 0.2512292 -0.31999356 -0.07403486 -0.31504926
00000000: 6938 67be 5a8c ec3e 6809 443f 79a6 cb3f
00000010: 8343 063f 5984 b4be 4aec 23bf e34e 1c3f
00000020: 51f8 95be 0c09 4cbd 8b6b 653f 8600 023f
00000030: 949c 89bd 2c31 81bf 7a05 70bf e4f2 503f
00000040: 320c fa3c 2ccd 863e cbe7 ff3e 8c3f 5b3f
00000050: b724 2a3f c3fc 09bf d89b a53e 69f1 6ebf
00000060: 2d86 ab3f 27a5 e8bd 40be 103f a794 3bbf
00000070: 314c f03e 6a1d c7be fc0f 14bf 5941 eebe
00000080: 1603 6cbe abb4 3e3f cd29 afbe efbf 15bf
00000090: 2056 7e3e ebef 083f 7d4b 6d3e ae57 01bf
000000a0: bd54 26be 387b 943e 659f bb3e fdbd 4cbe
000000b0: 660e d0bf 69c2 3c3f bee1 30bf 3ff0 403f
000000c0: d529 893d 1cc9 80bf 6a09 03bf 2e32 d73e
000000d0: bef6 003f 96a2 dd3e 874e e73d 1e28 8b3c
000000e0: 4059 0a3c 0133 b9be d798 e0be 656e 38be
000000f0: 8aaf e33e cf57 02bf d1ee 173f bf38 03bf
00000100: a21f 8cbf f447 6bbe 31a5 5d3e 022f f3be
00000110: 3a79 89bf 173e bcbe 6df8 1f3f 01dd a3bd
00000120: cb62 0ebf cebd 293f 99e3 3e3d ffdf 29be
00000130: 1da1 803e 32d6 a3be 979f 97bd 234e a1be

decoder.0.bias f4 [20]
-0.7273327 0.07810965 -0.3040984 0.07682565 -0.23815541 0.2044573 0.1266483 0.32589516
-0.15840343 0.4596494 0.19639996 -0.19612989 -0.042217445 -0.41358846 -0.4744631 -0.059923157
-0.20187248 -0.24886934 0.28572536 0.16582486
00000000: 7a32 3abf f4f7 9f3d c9b2 9bbe c456 9d3d
00000010: 03df 73be 415d 513e 18b0 013e bbdb a63e
00000020: 8234 22be 2b57 eb3e 121d 493e 46d6 48be
00000030: 33ec 2cbd dec1 d3be d4ec f2be fc71 75bd
00000040: a9b7 4ebe 9bd7 7ebe 984a 923e fecd 293e

decoder.2.weight f4 [50, 20]
0.32066423 -0.41248357 -0.20671019 -0.28642294 0.025093263 0.1715928 0.039667424 0.1426411
0.188752 0.22027728 0.026521793 0.07091446 -0.21078862 0.08613269 0.21533465 0.36155713
0.110742435 0.18000828 0.097513095 -0.14131583 -0.13472968 -0.05392601 -0.009838005 0.07322768
-0.14164968 -0.15665892 0.21607596 0.022523345 -0.21031256 -0.14938183 0.1027619 0.07944991
0.109660156 -0.1520584 -0.08608443 0.043142833 0.011523484 0.21872823 -0.21161878 0.15825018
-0.13764562 0.18305546 0.18185885 -0.029078327 -0.007972342 0.16954726 0.13679671 -0.03140796
-0.09888649 0.13671553 -0.03834662 -0.045046553 0.12765566 0.04961962 -0.07823234 0.1795822
0.010755926 -0.119515434 -0.049830567 0.053072866 -0.09840355 0.13720326 -0.065106764 -0.07950397
-0.23595901 -0.015690114 0.16058151 0.26836172 0.041542403 0.013499717 -0.03694524 0.16079189
0.036958773 -0.0818956 -0.21979956 0.058069073 0.10803594 0.0011904543 0.0832012 -0.06591716
-0.4612503 -0.28916577 0.14706437 0.08082675 -0.22419737 -0.033809204 0.25050506 -0.2187775
-0.072573364 -0.22602329 -0.1190109 0.23051666 0.2726294 -0.1352957 -0.1002008 0.31316176
0.19708322 0.1497952 0.17181756 0.1421757 0.14758405 0.23359706 0.26175287 -0.11711792
0.25784722 0.2804765 0.25480574 -0.4706765 0.15812021 0.23764572 -0.10784859 -0.24587964
-0.076342486 -0.17538132 0.12914146 0.1002848 -0.010062548 -0.4286452 0.09357375 0.028011832
0.20772453 -0.19454874 0.043794222 -0.030990763 0.12306003 0.20207855 0.00896342 -0.08409673
-0.10598189 0.21667232 -0.059823282 0.13319886 -0.095518485 -0.22203068 -0.20655361 0.12689906
-0.20630778 -0.0510705 -0.014888286 -0.120326586 -0.10538639 -0.07926783 -0.105092704 -0.029159535
-0.16288108 0.0030591248 0.23330674 0.060193844 0.16273811 0.14737023 -0.048121452 0.14843218
0.067842506 -0.1644019 -0.14406794 -0.012628615 0.11451531 0.07869545 -0.26319346 -0.01988584
0.4268828 0.26320058 0.27017084 -0.23065558 0.34727016 0.0764376 0.2585297 -0.30290166
0.082724795 0.12285597 0.15210204 0.05632285 -0.060841806 0.020441176 -0.16125062 -0.29629892
-0.14589211 -0.07738183 0.0504065 0.069234304 0.2030491 -0.018169317 0.2272601 0.10739587
-0.026998641 -0.25901508 -0.1129823 -0.11056511 -0.1253976 0.10746444 0.14641696 0.19245084
-0.04252402 -0.11427688 0.110798985 -0.24797194 -0.19037428 0.1419453 0.18281528 0.14589362
-0.06057956 0.1708203 -0.07971514 -0.041365866 0.1974352 0.2015102 0.23757172 0.13975519
0.16080311 -0.057136294 0.06941726 0.077902555 -0.15698381 -0.034880135 0.07248507 -0.189202
0.24525738 -0.16392769 0.22579697 -0.033316977 0.18976584 0.0656864 0.0541975 0.14211506
-0.10212786 -0.16273332 -0.23125823 0.16207407 -0.081702925 -0.17873426 -0.24008843 -0.21804437
0.024906846 -0.092372045 -0.061525345 -0.21973954 -0.14164992 0.055690046 -0.046631783 0.079476535
-0.008652584 0.2556665 -0.034917504 0.36209062 0.010070575 -0.04891448 -0.009695776 0.0073681306
0.17961863 0.23093985 0.15420055 -0.33414146 0.32983387 -0.10797194 0.12270561 0.046271894
00000000: 1a2e a43e 0c31 d3be d6ab 53be 07a6 92be
00000010: 6390 cd3c 06b6 2f3e 4f7a 223d 8210 123e
00000020: 3448 413e 5e90 613e 3b44 d93c 9a3b 913d
00000030: f9d8 57be 5666 b03d b080 5c3e 041e b93e
00000040: eecc e23d 1754 383e f2b4 c73d 19b5 10be
00000050: 94f6 09be 85e1 5cbd 952f 21bc 65f8 953d
00000060: 9d0c 11be 326b 20be 0443 5d3e e182 b83c
00000070: 2d5c 57be 8df7 18be d574 d23d a2b6 a23d
00000080: 8195 e03d 32b5 1bbe 094d b0bd 8ab6 303d
00000090: ffcc 3c3c 4bfa 5f3e 98b2 58be 560c 223e
000000a0: f9f2 0cbe e472 3b3e 3539 3a3e ac35 eebc
000000b0: 6d9e 02bc cc9d 2d3e 7014 0c3e a2a5 00bd
000000c0: 0085 cabd 28ff 0b3e 5811 1dbd bc82 38bd
000000d0: 2ab8 023e f13d 4b3d 4738 a0bd 65e4 373e
000000e0: a039 303c 82c4 f4bd 231b 4cbd ef62 593d
000000f0: cd87 c9bd 037f 0c3e b256 85bd fad2 a2bd
00000100: 3d9f 71be 8e88 80bc 7b6f 243e b566 893e
00000110: 5e28 2a3d eb2d 5d3c e453 17bd a1a6 243e
00000120: 1562 173d e1b8 a7bd 2313 61be d6d9 6d3d
00000130: f241 dd3d 0509 9c3a 6465 aa3d 93ff 86bd
00000140: 0029 ecbe 890d 94be 0b98 163e 7f88 a53d
00000150: ff93 65be 857b 0abd 3342 803e 3507 60be
00000160: 58a1 94bd a672 67be fdbb f3bd 8f0c 6c3e
00000170: 1596 8b3e f58a 0abe 1436 cdbd bd56 a03e
00000180: 2fd0 493e ea63 193e f1f0 2f3e 8296 113e
00000190: 4620 173e 1134 6f3e 7904 863e 85db efbd
000001a0: 8d04 843e 9e9a 8f3e e675 823e 83fc f0be
000001b0: 44ea 213e 6659 733e b9df dcbd dfc7 7bbe
000001c0: 7359 9cbd 2997 33be a93d 043e 1e62 cd3d
000001d0: 63dd 24bc 6277 dbbe 98a3 bf3d 1279 e53c
000001e0: bdb5 543e c937 47be 9261 333d 57e0 fdbc
000001f0: e606 fc3d aeed 4e3e 4fdb 123c e83a acbd
00000200: 080d d9bd 59df 5d3e 4209 75bd 4865 083e
00000210: 329f c3bd 035c 63be ca82 53be d4f1 013e
00000220: 5942 53be 4d2f 51bd ffed 73bc c96d f6bd
00000230: d2d4 d7bd 2c57 a2bd d83a d7bd fadf eebc
00000240: 4cca 26be 997b 483b f6e7 6e3e d28d 763d
00000250: d2a4 263e 39e8 163e 001b 45bd 9bfe 173e
00000260: 03f1 8a3d f958 28be 8c86 13be 40e8 4ebc
00000270: 0187 ea3d 152b a13d 4bc1 86be a1e7 a2bc
00000280: 6290 da3e 3ac2 863e d553 8a3e fa30 6cbe
00000290: 65cd b13e 518b 9c3d 015e 843e ed15 9bbe
000002a0: 9e6b a93d e99b fb3d a3c0 1b3e cab2 663d
000002b0: 4235 79bd 4174 a73c e21e 25be 7eb4 97be
000002c0: be64 15be 5d7a 9ebd 0c77 4e3d b7ca 8d3d
000002d0: 1aec 4f3e d2d7 94bc dfb6 683e 5ef2 db3d
000002e0: 412c ddbc a09d 84be 4463 e7bd f66f e2bd
000002f0: 3a68 00be 5116 dc3d 54ee 153e d511 453e
00000300: ab2d 2ebd ff09 eabd 94ea e23d 5bec 7dbe
00000310: 7af1 42be 1c5a 113e ee33 3b3e 2365 153e
00000320: 4622 78bd 84eb 2e3e b141 a3bd 416f 29bd
00000330: 742c 4a3e b158 4e3e 0046 733e fc1b 0f3e
00000340: 92a9 243e bf07 6abd a32a 8e3d 608b 9f3d
00000350: 5dc0 20be 79de 0ebd 0d73 943d 2bbe 41be
00000360: c024 7b3e a9dc 27be 5237 673e 6277 08bd
00000370: fa51 423e 9786 863d 33fe 5d3d 9c86 113e
00000380: 6928 d1bd 90a3 26be f5ce 6cbe bff6 253e
00000390: dd53 a7bd 1d06 37be bed9 75be 0647 5fbe
000003a0: 7109 cc3c 8e2d bdbd 0002 7cbd 6703 61be
000003b0: ad0c 11be 3f1b 643d f800 3fbd 98c4 a23d
000003c0: 91c3 0dbc b8e6 823e a805 0fbd f163 b93e
000003d0: 0eff 243c 8d5a 48bd 08db 1ebc 5c70 f13b
000003e0: f2ed 373e 7f7b 6c3e c0e6 1d3e 9714 abbe
000003f0: fcdf a83e 6420 ddbd 144d fb3d 9987 3d3d

decoder.2.bias f4 [50]
0.25795114 -0.08971649 0.033964355 0.12530896 0.08078006 0.17018612 -0.1296022 0.17233443
0.1712892 -0.20676756 0.06179366 -0.12178803 -0.14910924 -0.2717772 -0.17199832 -0.08498671
-0.3237917 0.045409117 -0.07792148 -0.09544025 0.15605193 0.012089306 -0.09070621 -0.0029453798
0.20317857 0.11321898 -0.20153773 -0.2336135 0.14818221 -0.1241693 -0.19601564 0.03609553
0.07827157 0.014323606 -0.19439772 -0.06368151 -0.32432657 0.00581711 0.11817407 -0.14116713
-0.14091979 -0.087880015 -0.12864193 -0.19592379 0.40406656 0.11273357 0.065484226 -0.114711635
-0.09854888 -0.14931804
00000000: 2c12 843e 47bd b7bd 351e 0b3d fe50 003e
00000010: 0470 a53d 4545 2e3e 70b6 04be 7078 303e
00000020: 7066 2f3e e0ba 53be 591b 7d3d 016c f9bd
00000030: 18b0 18be 6226 8bbe 5420 30be 830d aebd
00000040: 07c8 a5be e9fe 393d 4c95 9fbd 2e76 c3bd
00000050: 14cc 1f3e 3912 463c 2dc4 b9bd 4607 41bb
00000060: 0b0e 503e 5adf e73d e85f 4ebe 6138 6fbe
00000070: 14bd 173e 794c febd 53b8 48be e8d8 133d
00000080: d84c a03d 8fad 6a3c 3210 47be 746b 82bd
00000090: 220e a6be 759d be3b 3f05 f23d 1e8e 10be
000000a0: 474d 10be 70fa b3bd b6ba 03be 3fa0 48be
000000b0: d0e1 ce3e dce0 e63d 981c 863d efed eabd
000000c0: ffd3 c9bd d4e6 18be

decoder.4.weight f4 [50, 50]
0.04419441 -0.13213149 -0.079781 -0.05647194 0.018026242 -0.052877963 -0.09848053 -0.034982845
-0.062592335 0.024299143 0.0679624 0.00804113 -0.1047729 -0.10415836 0.12422375 -0.06333407
0.011286488 -0.07876579 0.008690732 -0.020910924 -0.10161469 -0.08451959 -0.102588534 0.09381682
-0.08579394 0.13442805 -0.1375991 -0.06048311 -0.11861154 -0.11067308 0.1254515 0.10089106
0.03968686 -0.0023897095 -0.13076289 -0.11167712 0.028837955 -0.056455284 -0.13649498 0.037445758
0.02284759 -0.08548308 0.01780406 -0.07527175 -0.08135494 0.12933283 0.12018523 -0.0081764385
-0.07728257 -0.08967791 -0.14951621 -0.1035132 0.046951964 -0.004408862 -0.044462346 0.18683566
0.010241783 -0.054177973 0.1842627 0.030324113 0.13093437 0.10286923 0.13961542 0.1226994
-0.3740841 -0.050873466 0.22936775 0.013962862 0.08000432 0.018621085 -0.14295591 0.11948918
-0.011504506 0.103789225 0.091611534 0.23112448 0.16669849 -0.12834874 0.25287613 -0.02000058
-0.13331355 -0.10577372 -0.093093015 0.12376394 0.16738364 -0.007913446 0.032184556 0.13699894
-0.13308604 0.13755007 -0.14531264 -0.19781731 -0.059960812 0.121934175 0.22430922 -0.04734249
-0.03787903 0.10420995 -0.035695408 0.2685212 0.27718335 -0.16683343 -0.07884131 -0.098332256
0.12398775 0.053184155 -0.11086824 -0.0764702 0.047339745 -0.06212077 -0.079960816 0.032548383
-0.18984166 0.036487833 0.23978277 -0.043492973 0.081530266 -0.09951816 -0.0069105644 -0.06189805
0.07400264 -0.06062012 -0.10123467 -0.073038824 0.035980918 -0.021602761 0.025965607 -0.058086693
-0.014596607 -0.12067751 0.028695868 -0.10936982 0.0210282 0.1247779 -0.10867389 0.02253802
0.0888075 0.12764299 -0.118810944 0.014983673 0.038888697 0.05191027 0.09995636 0.027608631
0.2847409 -0.12048289 0.043785647 -0.20462964 -0.011535895 0.29662016 -0.07678916 -0.11118117
-0.056675617 0.1797619 -0.108185485 -0.2421701 0.106515765 -0.019597348 0.008317351 0.087174945
0.003051155 -0.09481336 -0.147671 0.4057596 -0.14941363 -0.2399972 -0.03903873 -0.038352
-0.0059658317 0.12232594 0.3561317 0.09335947 -0.05351022 0.066023454 0.142639 -0.03584567
-0.15177177 0.035782095 0.077998355 0.05861527 -0.12074968 0.26572278 -0.08631601 -0.006314003
0.028741933 -0.062588125 0.28817135 -0.004231999 0.006240582 0.072838664 0.09400177 0.32318634
0.03716159 0.10548557 0.22626624 0.017357368 0.28932944 -0.2124299 0.12007101 -0.25627142
0.15700036 -0.04768743 0.03250514 -0.0026072825 0.053825144 -0.05597049 0.029710377 0.046305887
0.0019062562 0.20479713 -0.063147776 0.15979274 -0.12787877 0.5208579 0.12778312 -0.1154676
0.3029622 -0.09348554 0.14901845 0.06246928 0.10782519 0.02055266 -0.000976418 -0.076970376
-0.056586754 0.119761616 0.04404401 -0.16221188 -0.07047541 -0.22270411 0.12358512 0.024433365
0.019112037 0.19475517 0.047379952 0.11358736 0.38536465 -0.12609512 0.095589474 0.29523015
-0.016345644 0.1442394 0.10109096 0.0833617 0.2623332 0.06760189 0.035855927 0.067119844
0.16613106 -0.44831994 -0.025292257 -0.023558943 0.092697546 0.022913523 0.11331523 0.005825234
00000000: 3305 353d 7a4d 07be 3964 a3bd 1f4f 67bd
00000010: c5ab 933c 9096 58bd 29b0 c9bd 2c4a 0fbd
00000020: 6930 80bd ff0e c73c df2f 8b3d f2be 033c
00000030: 2d93 d6bd fa50 d5bd 0569 fe3d 4bb5 81bd
00000040: f6ea 383c f54f a1bd 9263 0e3c 634d abbc
00000050: 5d1b d0bd 9b18 adbd f019 d2bd 0823 c03d
00000060: bcb4 afbd 82a7 093e c7e6 0cbe 23bd 77bd
00000070: 9bea f2bd 91a8 e2bd 5c76 003e f99f ce3d
00000080: b08e 223d ac9c 1cbb b5e6 05be f9b6 e4bd
00000090: 933d ec3c a83d 67bd 57c5 0bbe b960 193d
000000a0: de2a bb3c c111 afbd d2d9 913c 1328 9abd
000000b0: 6b9d a6bd d36f 043e ad23 f63d 78f6 05bc
000000c0: 5346 9ebd 0da9 b7bd c71a 19be bbfe d3bd
000000d0: b450 403d 3778 90bb 261e 36bd d951 3f3e
000000e0: 27cd 273c b9e9 5dbd 5caf 3c3e 466a f83c
000000f0: a913 063e 1aad d23d 58f7 0e3e d349 fb3d
00000100: f387 bfbe b260 50bd 61df 6a3e 7dc4 643c
00000110: 4ed9 a33d 3f8b 983c 0963 12be beb6 f43d
00000120: 657d 3cbc 728f d43d d49e bb3d e5ab 6c3e
00000130: 02b3 2a3e da6d 03be fb78 813e 42d8 a3bc
00000140: 5983 08be e49f d8bd 8da7 bebd f377 fd3d
00000150: 9e66 2b3e 66a7 01bc f4d3 033d 7349 0c3e
00000160: b547 08be edd9 0c3e d6cc 14be 9f90 4abe
00000170: 7899 75bd a0b8 f93d 51b1 653e 33ea 41bd
00000180: 0b27 1bbd 076c d53d 5935 12bd 9c7b 893e
00000190: faea 8d3e 62d6 2abe 8e77 a1bd 6c62 c9bd
000001a0: 4aed fd3d a1d7 593d e30e e3bd 699c 9cbd
000001b0: 52e7 413d 5972 7ebd 7fc2 a3bd 7451 053d
000001c0: da65 42be 4474 153d 9d89 753e b025 32bd
000001d0: 57f9 a63d 2dd0 cbbd 0472 e2bb cf88 7dbd
000001e0: b28e 973d ce4c 78bd 1f54 cfbd 6195 95bd
000001f0: ba60 133d 46f8 b0bc d3b5 d43c 50ec 6dbd
00000200: 9b26 6fbc c525 f7bd 9913 eb3c 49fd dfbd
00000210: 5543 ac3c 8e8b ff3d 6b90 debd a7a1 b83c
00000220: b5e0 b53d d8b4 023e 2753 f3bd 147e 753c
00000230: c149 1f3d dd9f 543d ecb5 cc3d 7f2b e23c
00000240: 8fc9 913e bcbf f6bd 9458 333d 6f8a 51be
00000250: 0d01 3dbc 99de 973e a343 9dbd f4b2 e3bd
00000260: b124 68bd 8113 383e 5a90 ddbd 70fb 77be
00000270: f024 da3d 9e8a a0bc 8045 083c c788 b23d
00000280: e3f5 473b 822d c2bd 1137 17be b9bf cf3e
00000290: e3ff 18be d3c1 75be 13e7 1fbd fd16 1dbd
000002a0: 067d c3bb 0686 fa3d e556 b63e 4033 bf3d
000002b0: 882d 5bbd 4e37 873d f50f 123e e9d2 12bd
000002c0: 0f6a 1bbe 3f90 123d 9abd 9f3d 9116 703d
000002d0: 9c4b f7bd d10c 883e 73c6 b0bd b2e5 cebb
000002e0: 3474 eb3c 342e 80bd 328b 933e 95ac 8abb
000002f0: cc7d cc3b 702c 953d 0084 c03d ae78 a53e
00000300: c036 183d d208 d83d 56b2 673e 0a31 8e3c
00000310: fd22 943e 3987 59be cae7 f53d 0236 83be
00000320: b4c4 203e e553 43bd 1c24 053d f1de 2abb
00000330: c177 5c3d 5041 65bd 2d63 f33c 3eab 3d3d
00000340: 58db f93a 57b6 513e 9f53 81bd b5a0 233e
00000350: a7f2 02be f156 053f 94d9 023e 477a ecbd
00000360: dd1d 9b3e 5975 bfbd 4b98 183e cadf 7f3d
00000370: 74d3 dc3d 0d5e a83c 4ef6 7fba a5a2 9dbd
00000380: 83c7 67bd 9445 f53d 7e67 343d df1a 26be
00000390: 6955 90bd 8c0c 64be 321a fd3d 7b28 c83c
000003a0: d990 9c3c e66d 473e 7b11 423d 7da0 e83d
000003b0: 844e c53e 141f 01be 6ac4 c33d 6828 973e
000003c0: 4de7 85bc 7eb3 133e c708 cf3d 8ab9 aa3d
000003d0: 8a50 863e dc72 8a3d aadd 123d 2176 893d
000003e0: 431e 2a3e 318a e5be b531 cfbc affe c0bc
000003f0: 36d8 bd3d 24b5 bb3c d111 e83d 9be1 be3b

decoder.4.bias f4 [50]
-0.12518658 0.10528917 0.3126444 -0.014211481 0.1285796 -0.12137268 -0.265048 0.07270284
-0.14943358 0.07536116 -0.13268927 -0.107855596 -0.14592277 -0.0023874484 0.024249624 -0.17003027
-0.022010531 -0.009244185 0.06898163 -0.10379958 -0.10027162 0.027316123 0.26683643 -0.024460156
0.08239967 -0.07932942 -0.07092557 -0.062233586 -0.031313967 0.18969402 0.046107583 0.1472311
0.007297381 -0.03214228 0.02508146 0.04723132 0.13582821 0.122520566 0.13994275 -0.0009802511
-0.04017552 -0.014243497 0.17040287 0.064497165 -0.1303758 -0.06755572 0.044677883 -0.09204505
0.22045009 -0.0068908245
00000000: e930 00be d9a1 d73d ed12 a03e 46d7 68bc
00000010: 5faa 033e 3d92 f8bd 5fb4 87be 3ae5 943d
00000020: 1e05 19be f456 9a3d b2df 07be 65e3 dcbd
00000030: c76c 15be bd76 1cbb 26a7 c63c 6a1c 2ebe
00000040: 6e4f b4bc ec74 17bc 3e46 8d3d e094 d4bd
00000050: 355b cdbd 10c6 df3c c99e 883e aa60 c8bc
00000060: 28c1 a83d 7777 a2bd 6d41 91bd a5e8 7ebd
00000070: 1343 00bd 263f 423e 4edb 3c3d c0c3 163e
00000080: de1e ef3b a0a7 03bd a277 cd3c a175 413d
00000090: 8d16 0b3e 10ec fa3d 274d 0f3e c57b 80ba
000000a0: 168f 24bd 8e5d 69bc 177e 2e3e 1717 843d
000000b0: 3c81 05be a75a 8abd 2800 373d 1d82 bcbd
000000c0: abbd 613e 6dcc e1bb

decoder.6.weight f4 [6, 50]
0.074402526 -0.32564917 0.28911486 -0.3002797 0.069403924 0.093125656 0.24496208 0.27126318
-0.18762293 -0.14860183 -0.07547067 -0.08014376 -0.14022586 0.27408394 0.43371394 -0.021701891
-0.04739625 0.035487097 -0.08658234 -0.08814951 -0.08514824 -0.29294783 0.16569023 -0.1227003
0.29549304 -0.11879264 0.3523264 -0.100637965 0.07134271 0.23279768 0.289767 -0.1618602
0.13512115 0.14476365 -0.98258984 -0.10328119 0.3484371 0.33010465 0.25523037 0.12924649
0.08711348 -0.9172416 -0.34995314 0.07667814 -0.091999896 0.10525105 0.2921513 -0.29728854
-0.2612353 0.00088982115 -0.045858555 -0.2697433 0.011236155 -0.25139576 -0.066911206 -0.03416159
-0.15981352 -0.08544808 0.16414838 0.13894938 -0.07670162 -0.033146325 -0.070787385 -0.038845014
-0.40203926 0.06961027 -0.16707721 0.029380763 0.061246462 0.11138592 0.0072522424 0.011074148
-0.21276316 0.06821314 -0.013735547 0.07410158 0.10350512 -0.10441825 0.28308794 -0.05323031
-0.06569302 0.106562324 0.09957598 0.0022412231 0.06565049 0.37482855 0.0725007 0.059027273
-0.40850458 -0.060087726 0.12816209 0.11426401 -0.19522035 0.12086956 0.12027224 -0.07485194
0.25712764 -0.17788886 -0.009858246 -0.053194348 0.055445295 0.059138723 0.06633395 -0.06004255
-0.0012880655 -0.012739004 -0.033199232 -0.04630161 0.011476583 -0.026565695 -0.10077396 0.04053924
-0.10094427 0.021821618 -0.121065676 -0.14963447 0.08473321 -0.1243777 -0.0034687691 -0.08458065
-0.046822134 0.11433388 -0.014347506 -0.11380531 -0.019378038 0.012213002 -0.06234258 0.02025603
0.10937209 0.07730982 -0.023164084 -0.08828822 -0.15987125 0.09263243 0.03185769 0.10667054
0.1130561 -0.00716242 -0.21359777 -0.045169845 -0.028863223 0.017137155 0.028006285 0.061424244
0.02989579 -0.10274046 0.15041398 -0.03903592 -0.083012365 -0.11798411 0.06354794 0.4126227
0.46837303 -0.67609835 -0.6802734 -0.02150265 -1.2108319 0.20357454 -0.528232 -0.10791118
0.041583534 0.12259609 0.10451841 -0.5378664 -0.7625748 0.119277276 -0.5678319 -0.11124779
-0.6462722 -0.03259649 -0.071122 -0.19698744 0.18881513 -0.107404806 -0.023608591 0.012015529
0.41554964 -0.023945818 -0.1646442 0.34132823 0.19262707 -0.83338034 0.031955518 -0.12271462
-0.34103984 -0.043071892 -0.4505121 -1.2509369 0.09325414 -0.1298761 0.15952075 0.6103067
-0.07500443 0.12995952 0.034181483 0.11780266 0.037122525 0.12985295 -1.2294638 -0.067869306
0.076319486 -0.3552304 0.2858094 0.32085916 0.29921418 -0.09324217 -0.42072827 0.036763858
0.15489425 0.0036163365 -0.093996786 0.10689734 0.07155844 0.29605496 -1.138612 0.133155
-0.47891045 0.06680362 -0.71667755 0.06831347 -0.039569825 -0.12706654 0.3035279 0.07223097
0.31551182 0.09127931 -0.25061494 0.105583474 0.31000736 0.22052374 -0.26077077 -0.7968876
0.12627189 0.124480866 -0.5608893 0.24915704 -1.0776106 0.13690384 0.10675273 -0.01895909
-0.16667502 0.29651788 0.053776253 -0.11823946 -0.051854063 -0.08693987 -0.817238 -0.026592439
-0.8375407 -0.05057391 0.118497945 -0.21804848 -0.17781834 -0.4345392 -0.95499754 0.034898266
00000000: 5a60 983d 7dbb a6be dd06 943e 43be 99be
00000010: a523 8e3d aab8 be3d 57d7 7a3e 02e3 8a3e
00000020: 3a20 40be 142b 18be 5e90 9abd 6922 a4bd
00000030: 5e97 0fbe bb54 8c3e c10f de3e 2ac8 b1bc
00000040: 9222 42bd eb5a 113d 1552 b1bd bb87 b4bd
00000050: 3362 aebd 42fd 95be b3aa 293e 4b4a fbbd
00000060: dd4a 973e 8e49 f3bd 2064 b43e 471b cebd
00000070: 201c 923d 8462 6e3e 575c 943e aebe 25be
00000080: 335d 0a3e ec3c 143e 028b 7bbf 1785 d3bd
00000090: 5966 b23e 7a03 a93e 8ead 823e 3159 043e
000000a0: 8d68 b23d 58d0 6abf 0f2d b3be 6e09 9d3d
000000b0: 716a bcbd dd8d d73d db94 953e 3436 98be
000000c0: a2c0 85be e342 693a 2ed6 3bbd cb1b 8abe
000000d0: da17 383c f2b6 80be be08 89bd 06ed 0bbd
000000e0: 28a6 23be 67ff aebd 8316 283e bf48 0e3e
000000f0: bd15 9dbd 71c4 07bd faf8 90bd f31b 1fbd
00000100: 17d8 cdbe d48f 8e3d 4a16 2bbe edaf f03c
00000110: 92dd 7a3d 4d1e e43d 38a4 ed3b 5870 353c
00000120: 96de 59be 55b3 8b3d 0f0b 61bc 92c2 973d
00000130: 7efa d33d 3cd9 d5bd e7f0 903e 0708 5abd
00000140: 108a 86bd 593d da3d 7eee cb3d 7ce1 123b
00000150: c473 863d 87e9 bf3e 3f7b 943d 95c6 713d
00000160: 8327 d1be 8c1e 76bd ec3c 033e 4003 ea3d
00000170: d8e7 47be 768a f73d 4b51 f63d f94b 99bd
00000180: 3ca6 833e 7f28 36be 7b84 21bc 51e2 59bd
00000190: 9b1a 633d 723b 723d 18da 873d 2def 75bd
000001a0: 4ed4 a8ba 41b7 50bc ebfb 07bd c2a6 3dbd
000001b0: 4708 3c3c 4da0 d9bc 9462 cebd 790c 263d
000001c0: dfbb cebd 40c3 b23c 48f1 f7bd c739 19be
000001d0: 9b88 ad3d bcb9 febd 4a54 63bb 9f38 adbd
000001e0: 91c8 3fbd e227 ea3d cd11 6bbc c212 e9bd
000001f0: b1be 9ebc 0b19 483c ef5a 7fbd f9ef a53c
00000200: 79fe df3d 9c54 9e3d 9bc2 bdbc 74d0 b4bd
00000210: 4ab5 23be 12b6 bd3d 367d 023d 1676 da3d
00000220: f589 e73d bcb2 eabb 60b9 5abe 0404 39bd
00000230: 9172 ecbc 3863 8c3c 706d e53c fd97 7b3d
00000240: 04e8 f43c 9769 d2bd 1f06 1a3e 21e4 1fbd
00000250: 6302 aabd a7a1 f1bd 6c25 823d 4843 d33e
00000260: 97ce ef3e c814 2dbf 6626 2ebf 5326 b0bc
00000270: 8afc 9abf d875 503e 363a 07bf 8900 ddbd
00000280: 7f53 2a3d a913 fb3d c00d d63d 9db1 09bf
00000290: 1a38 43bf a547 f43d 6e5d 11bf e2d5 e3bd
000002a0: 1872 25bf e683 05bd 69a8 91bd 13b7 49be
000002b0: c158 413e 0df7 dbbd ce66 c1bc c8dc 443c
000002c0: ecc2 d43e 052a c4bc 7d98 28be 93c2 ae3e
000002d0: 0840 453e 6a58 55bf cae3 023d cd51 fbbd
000002e0: c69c aebe 276c 30bd 86a9 e6be b31e a0bf
000002f0: 07fc be3d 3efe 04be 6859 233e 0f3d 1c3f
00000300: ec9b 99bd 1c14 053e e201 0c3d 8542 f13d
00000310: ca0d 183d 2cf8 043e 125f 9dbf 10ff 8abd
00000320: 644d 9c3d c2e0 b5be 9c55 923e a747 a43e
00000330: 9a32 993e c0f5 bebd b269 d7be b395 163d
00000340: 999c 1e3e 0f00 6d3b 6381 c0bd feec da3d
00000350: 3b8d 923d 8494 973e 0abe 91bf c959 083e
00000360: c033 f5be 56d0 883d 2e78 37bf efe7 8b3d
00000370: f813 22bd bb1d 02be 0268 9b3e d5ed 933d
00000380: c48a a13e a6f0 ba3d 9a50 80be 263c d83d
00000390: 49b9 9e3e fad0 613e bf83 85be d300 4cbf
000003a0: 6b4d 013e d3ef fe3d 7196 0fbf 0623 7f3e
000003b0: 25ef 89bf 8530 0c3e 2da1 da3d 1850 9bbc
000003c0: dbac 2abe 31d1 973e 7d44 5c3d 8827 f2bd
000003d0: ed64 54bd 880d b2bd 8236 51bf 63d8 d9bc
000003e0: 1169 56bf 9726 4fbd 0daf f23d 1a48 5fbe
000003f0: 0316 36be ec7b debe b87a 74bf 7cf1 0e3d

decoder.6.bias f4 [6]
0.13318641 -0.3834667 -0.009516264 0.5680181 0.20719628 0.3918449
00000000: 0562 083e bf55 c4be 1bea 1bbc a269 113f
00000010: 432b 543e e59f c83e

cluster_layer.weight f4 [4, 4]
-0.11614128 -0.09442551 0.09748084 0.089958385 -0.09088533 -0.10023552 0.10151323 0.10671345
-0.099127166 0.09770952 0.101700045 -0.10140886 0.101291835 -0.099372916 -0.10048898 0.09882788
00000000: 7bdb edbd 2962 c1bd 09a4 c73d 1a3c b83d
00000010: 1722 babd 4848 cdbd 2be6 cf3d 958c da3d
00000020: 2f03 cbbd ee1b c83d 1d48 d03d 73af cfbd
00000030: 1872 cf3d 0784 cbbd 2bcd cdbd 4666 ca3d
