RiskViz Folder/RiskViz Folder/model/checkpoint_1200.tar (torch, 110796 bytes, 51 tensors)

encoder.1.weight f4 [50, 6]
-0.53281265 0.008616578 0.0008505528 0.2185946 -0.34410474 0.12699501 -0.0033588586 -0.00022469932
-0.0070227524 2.6431465 0.0070171356 -0.17000166 -0.20695119 -0.20730162 0.009602965 -0.07439639
0.3776291 -0.33139157 0.19547999 -0.0065330705 -0.00022548798 -0.12255191 0.013243763 1.15712
-0.035367317 -0.1780033 -0.006438188 0.81056565 0.24462155 -0.545565 0.64269906 0.022470903
0.0035655545 0.06963925 0.045143265 1.0581038 -0.079287246 -0.22574419 -0.11522808 -0.24516533
0.20537415 -0.20402573 -0.7660451 0.12301088 -0.009456483 -0.03640854 -0.12092597 -0.053949147
0.6801979 -0.006129772 -0.0020189006 0.8870951 0.6578074 0.041510094 -0.32257843 0.010742197
-0.18992507 -0.002200631 0.19882312 0.1795435 -0.4856572 0.014566159 0.0010716426 -0.96807826
-0.29242817 0.1580843 -0.23295024 -0.17829604 0.13712148 0.23495844 0.0057202694 -0.15880233
-0.1714177 -0.014832926 -0.03699287 1.0928926 -0.098279566 0.65055853 -0.5194792 0.0051064556
0.0007611041 -0.7802653 -0.28836542 0.1249428 -2.3623362 -0.003466256 0.0066704545 0.15571621
-0.4692464 0.49269164 -0.67054784 -0.0040830276 -0.0009290562 -0.09557751 -0.4351837 -0.090449505
-0.25942183 0.27963972 0.15826641 0.32275012 -0.30279005 -0.39987883 -1.0005298 -0.0019958594
-0.001909317 -0.8727782 0.7089888 0.56892204 -0.0025264302 -0.0028507859 -0.0069800923 2.5433955
0.011485679 -0.13693967 0.08570262 -0.3067651 -0.21843556 -0.19187394 -0.23100477 0.07239225
-0.14750297 0.0054139374 0.000109677036 -0.70270175 0.7583549 0.0765406 -0.35397404 -0.26483002
0.15469465 0.15160935 -0.2524419 -0.12889786 -2.6982596 0.0022959402 -0.00011011271 -0.40760925
-0.32362768 0.2203689 0.32739368 -0.08662816 -0.06647166 0.14371444 0.060947802 -0.13429374
-0.3027093 -0.16496897 0.072470464 -0.08088788 0.54805356 0.033816215 -0.10569875 -0.39031443
-0.37330672 0.17372091 0.31324154 -0.0019129378 -2.6751993 -0.0029086347 0.0012413046 -0.6740776
-0.15571885 0.13794094 -2.4480302 0.0067430926 -0.00062818284 -0.5864225 -0.12728576 -0.5237177
0.813509 -0.0050436696 -0.0017886716 -1.1844562 0.6415784 0.056758694 -0.22642867 -0.026677558
-0.28906256 -0.018839795 0.22735868 -0.18348381 0.81469387 -0.01287423 -0.0013224734 0.5399612
-0.3560193 -0.27490407 0.05057569 -0.011855318 -0.004631996 -0.099842906 0.15115029 1.3394456
0.31316233 -0.39888585 0.04288093 -0.019480452 0.11011002 -0.100112654 0.08599807 -0.23460582
0.1589279 0.6780943 0.00038459775 -0.23547305 -0.6991916 -0.021125479 -0.00037234437 0.020946775
-0.014198012 1.1538714 0.0013629821 -0.0026696194 -0.0034442183 1.6467389 0.3558621 0.0028178222
0.22588417 0.13471745 0.04017266 -0.11837798 0.06328507 0.029269014 0.017254509 0.007262986
0.004497111 -0.7500019 0.041223906 0.7424168 0.015262829 -0.009020854 0.002334588 -0.22413336
0.2600317 1.4989812 1.1474861 -0.004893361 0.0011297973 -0.38052002 -0.11788204 -0.6225919
-2.7059925 0.002489763 0.0013457101 -0.8666126 -0.3143412 0.22941771 -0.00087476097 -0.0014950393
-0.004986823 2.4999146 -0.39224982 -0.19401309 -0.61861354 -0.0030838095 -0.00078127836 0.17908058
00000000: 6966 08bf 8c2c 0d3c a2f7 5e3a 43d7 5f3e
00000010: 7f2e b0be fb0a 023e 4c20 5cbb 449d 6bb9
00000020: 1e1f e6bb 5029 2940 00f0 e53b ea14 2ebe
00000030: 03eb 53be e046 54be c155 1d3c 225d 98bd
00000040: 9a58 c13e 28ac a9be e82b 483e 5e13 d6bb
00000050: f870 6cb9 7ffc fabd 5efc 583c 821c 943f
00000060: 52dd 10bd 7f46 36be 6ff7 d2bb 3b81 4f3f
00000070: 127e 7a3e 26aa 0bbf ed87 243f e614 b83c
00000080: 14ac 693b 069f 8e3d 25e8 383d f26f 873f
00000090: 5a61 a2bd 7c29 67be b3fc ebbd 9f0c 7bbe
000000a0: 9a4d 523e 1fec 50be 881b 44bf 21ed fb3d
000000b0: 5def 1abc 1f21 15bd 09a8 f7bd c8f9 5cbd
000000c0: 7321 2e3f 41dc c8bb 884f 04bb aa18 633f
000000d0: 1166 283f 7d06 2a3d 0029 a5be 0a00 303c
000000e0: b87b 42be 7638 10bb 4a98 4b3e 40da 373e
000000f0: 0fa8 f8be e6a6 6e3c 5c76 8c3a fad3 77bf
00000100: 25b9 95be dae0 213e 828a 6ebe 3d93 36be
00000110: 9369 0c3e f298 703e 1971 bb3b 149d 22be
00000120: 1f88 2fbe cd05 73bc d685 17bd e8e3 8b3f
00000130: cc46 c9bd 018b 263f 97fc 04bf 0e54 a73b
00000140: d584 473a 77bf 47bf a2a4 93be 03e2 ff3d
00000150: 8430 17c0 202a 63bb d493 da3b 1274 1f3e
00000160: 1041 f0be 1442 fc3e 06a9 2bbf ebca 85bb
00000170: e88b 73ba 24be c3bd 66d0 debe 973d b9bd
00000180: f0d2 84be f02c 8f3e 9710 223e 813f a53e
00000190: 4c07 9bbe ebbc ccbe 5c11 80bf f7cc 02bb
000001a0: 0c42 faba 646e 5fbf 4a80 353f e0a4 113f
000001b0: 7792 25bb 40d4 3abb 42b9 e4bb fec6 2240
000001c0: 6e2e 3c3c ea39 0cbe db84 af3d 5110 9dbe
000001d0: 92ad 5fbe 9a7a 44be 848c 6cbe 6342 943d
000001e0: 050b 17be 6667 b13b 6902 e638 43e4 33bf
000001f0: 8c23 423f 51c1 9c3d 163c b5be cd97 87be
00000200: 4668 1e3e 7b3f 1b3e 1140 81be cdfd 03be
00000210: 49b0 2cc0 7c77 163b 50ec e6b8 29b2 d0be
00000220: 87b2 a5be 63a8 613e 25a0 a73e 1b6a b1bd
00000230: 4b22 88bd e129 133e 67a4 793d 4c84 09be
00000240: b7fc 9abe a0ed 28be 656b 943d 8ba8 a5bd
00000250: 3d4d 0c3f df82 0a3d 9678 d8bd 4bd7 c7be
00000260: 0f22 bfbe e5e3 313e 3261 a03e 8bbb faba
00000270: 7736 2bc0 cb9e 3ebb 45b3 a23a 5990 2cbf
00000280: c374 1fbe 6440 0d3e 87ac 1cc0 29f5 dc3b
00000290: a3ac 24ba c91f 16bf 3357 02be 5d12 06bf
000002a0: 2042 503f 5e45 a5bb dc71 eaba 439c 97bf
000002b0: 7b3e 243f ce7b 683d ebdc 67be e58a dabc
000002c0: 0200 94be ea55 9abc b7d0 683e 2ee3 3bbe
000002d0: c78f 503f 6fee 52bc d856 adba e63a 0a3f
000002e0: 2948 b6be 3ac0 8cbe 7428 4f3d cf3c 42bc
000002f0: 00c8 97bb 707a ccbd 24c7 1a3e f472 ab3f
00000300: d056 a03e c43a ccbe eaa3 2f3d 7895 9fbc
00000310: 5d81 e13d dd07 cdbd c21f b03d 823c 70be
00000320: ffbd 223e 9797 2d3f d6a3 c939 d91f 71be
00000330: 38fe 32bf 570f adbc 3737 c3b9 9298 ab3c
00000340: c79e 68bc 0fb2 933f 17a6 b23a c8f4 2ebb
00000350: 65b8 61bb 57c8 d23f 8f33 b63e 36ab 383b
00000360: 2e4e 673e 5ff3 093e 168c 243d 2870 f2bd
00000370: 9a9b 813d 92c5 ef3c 5459 8d3c 58fe ed3b
00000380: 805c 933b 2000 40bf 66da 283d 070f 3e3f
00000390: f210 7a3c 34cc 13bc e3ff 183b 3783 65be
000003a0: e022 853e 9ede bf3f d3e0 923f 7d58 a0bb
000003b0: b515 943a 85d3 c2be 246c f1bd 2f62 1fbf
000003c0: fb2e 2dc0 4b2b 233b 8a62 b03a 53da 5dbf
000003d0: 54f1 a0be 7aec 6a3e 3750 65ba 32f5 c3ba
000003e0: 8168 a3bb 9afe 1f40 f8d4 c8be 5eab 46be
000003f0: 755d 1ebf bd19 4abb b4ce 4cba e660 373e

encoder.1.bias f4 [50]
0.25362742 -0.0031001614 -0.028264109 -0.15700541 -0.083285525 -0.51320285 -0.13634948 -0.033510327
-0.34582227 -0.3332145 0.19534013 -0.39319113 -0.9416217 0.23329528 0.01843686 0.34290576
-0.3604969 0.009957776 -0.00052320864 -0.26781815 0.07506768 -0.14256625 0.018870803 -0.36925638
-0.04968903 -0.30653134 0.019812437 0.017844677 -0.41677073 -0.24197364 -0.4382325 -0.24288654
-0.41907215 -0.3544552 -0.004929657 -0.0042530983 -0.3496246 -0.02425742 -0.36015257 -0.70700055
0.014520019 -0.0022705458 0.022220703 -0.4743149 -0.7058916 0.004252491 -0.0052270475 0.019765936
-0.2858563 -0.0011515251
00000000: 74db 813e 142c 4bbb 228a e7bc 07c6 20be
00000010: 9a91 aabd 4361 03bf 339f 0bbe 2042 09bd
00000020: 9e0f b1be 179b aabe 3e07 483e 5950 c9be
00000030: 1f0e 71bf f5e4 6e3e e608 973c 5891 af3e
00000040: 0d93 b8be f125 233c f027 09ba 761f 89be
00000050: 15bd 993d e3fc 11be f196 9a3c 2c0f bdbe
00000060: b986 4bbd adf1 9cbe b14d a23c 002f 923c
00000070: f962 d5be f0c7 77be 0360 e0be 40b7 78be
00000080: a090 d6be 277b b5be f688 a1bb 935d 8bbb
00000090: ff01 b3be 7fb7 c6bc eb65 b8be fdfd 34bf
000000a0: 60e5 6d3c 70cd 14bb 3108 b63c 67d9 f2be
000000b0: 50b5 34bf 7b58 8b3b a747 abbb 2cec a13c
000000c0: c25b 92be c5ee 96ba

encoder.4.weight f4 [50, 50]
0.052117202 -0.37655947 -0.13802546 -0.079736464 -0.24199383 0.10757294 -0.017999897 0.05288819
0.0729217 0.088675626 0.1639365 0.0053146165 -0.09596308 -0.0055362694 0.23411794 -0.04109456
-0.14015305 0.0071712546 -0.37768295 -0.09891259 -0.020771496 0.03245827 0.25371292 -0.025328524
0.00032106336 -0.03465613 0.13394193 0.304282 0.042081304 0.10078159 0.13138796 -0.11678446
0.037555084 0.066420734 0.09413811 -0.30060056 -0.0007188585 -0.09119255 -0.006400007 0.25500116
0.2578536 -0.3353947 -0.03956166 -0.0715604 0.4678497 -0.01569953 -0.2964318 -0.008004639
0.065548055 -0.116017684 -0.016845003 -0.014527549 0.04756279 -0.111377425 -0.022565672 0.19824602
-0.072049074 -0.0014396482 -0.05787605 0.07474837 -0.061606962 -0.106248334 -0.113572694 0.25624123
0.12035771 -0.028108183 -0.13362567 0.018625192 -0.004451388 0.016348662 -0.01117149 -0.030976828
0.24920537 0.05160369 0.027211946 -0.07649027 0.37896526 0.3778534 -0.02465642 0.13109224
-0.09093662 -0.14924957 0.027055318 0.034480497 0.15573612 -0.09160262 0.09531443 -0.0049390323
-0.1497922 0.357338 0.29925716 -0.011386686 -0.10563796 -0.09562183 0.24508674 0.13761964
-0.124912456 -0.09000764 -0.03645181 0.04121826 0.03132937 -0.43838918 0.086078554 0.084566295
-0.039334107 0.012914798 -0.043118432 0.0061905594 -0.18884555 0.14055245 0.045609158 0.1344255
0.12720023 0.0617378 -0.24329062 0.028412627 -0.053338137 -0.032849997 -0.33917147 0.07875923
0.24875112 -0.10984811 -0.23931314 0.042074706 -0.0149284145 0.065070935 0.03223647 -0.052585576
-0.20658253 -0.04089626 -0.30453074 0.107749686 0.098044924 -0.13432498 0.050605994 -0.052576065
0.10811084 0.07782623 0.048500784 -0.2480395 -0.045525953 -0.19527061 -0.1216927 -0.0060929144
-0.16640586 0.10316491 -0.00538797 -0.10357914 -0.10231258 -0.17886671 -0.26392484 -0.23357163
-0.021023436 -0.071648054 -0.06477147 0.22351155 0.12488349 0.056784153 0.06317375 -0.11397273
-0.09338275 -0.120160505 0.10269332 -0.22118771 0.023598557 -0.21080717 -0.09780396 -0.2826481
-0.22650017 -0.0646535 -0.3422484 0.10003765 -0.067791544 -0.016788973 -0.04521605 0.05873005
-0.062400952 -0.017195724 0.037359096 0.097589634 0.1345453 -0.11630971 -0.035565652 -0.111965075
0.057782304 -0.24769898 0.021491613 -0.31221998 -0.0027394413 0.30282348 -0.092950135 -0.22119857
-0.18651855 0.13102366 0.43695787 -0.061272576 -0.30547062 0.061141342 0.10266069 -0.121542595
0.055029288 -0.18551508 -0.002187905 0.47621945 -0.118244715 0.36037993 -0.07242255 0.14951885
-0.015009307 -0.09418705 -0.03537237 0.11147852 -0.02736691 -0.017954918 0.029660106 -0.013248435
-0.117605135 0.0051469826 -0.23694946 0.033663295 -0.0077746706 -0.0425582 -0.05860679 0.08349135
0.044305213 0.066055 0.09450846 0.094778195 -0.012839457 0.05652001 -0.041790664 0.4450008
-0.054151803 0.10469949 0.33912545 0.044669673 -0.13448747 -0.066118754 0.4380959 0.19957389
-0.01067111 -0.25512865 -0.023555132 0.0968719 -0.08163008 0.050504718 0.003472141 -0.1097998
-0.07526732 0.1489762 -0.023810338 -0.050031323 0.006480706 0.22987229 0.026194917 0.27570403
00000000: d978 553d 67cc c0be 8c56 0dbe df4c a3bd
00000010: 3bcd 77be 344f dc3d 8574 93bc 49a1 583d
00000020: f957 953d 919b b53d f8de 273e 3c26 ae3b
00000030: 4b88 c4bd 9869 b5bb 9dbc 6f3e c552 28bd
00000040: 4884 0fbe d8fc ea3b a95f c1be af92 cabd
00000050: fc28 aabc f7f2 043d a9e6 813e c47d cfbc
00000060: 6554 a839 96f3 0dbd 1328 093e daca 9b3e
00000070: 725d 2c3d 9466 ce3d 918a 063e b12c efbd
00000080: 5cd3 193d 9807 883d 7bcb c03d 51e8 99be
00000090: c771 3cba 29c3 babd 26b7 d1bb 838f 823e
000000a0: 6305 843e dbb8 abbe 680b 22bd 428e 92bd
000000b0: ff89 ef3e 4d9c 80bc e9c5 97be e425 03bc
000000c0: 0f3e 863d ae9a edbd 88fe 89bc f504 6ebc
000000d0: 33d1 423d d919 e4bd a5db b8bc 0101 4b3e
000000e0: 778e 93bd 94b2 bcba 700f 6dbd ac15 993d
000000f0: 9557 7cbd ba98 d9bd cd98 e8bd 0d32 833e
00000100: 1a7e f63d 2243 e6bc 2bd5 08be dc93 983c
00000110: f3dc 91bb a1ed 853c a008 37bc 1ec3 fdbc
00000120: b12f 7f3e 645e 533d 96eb de3c eea6 9cbd
00000130: bc07 c23e 0076 c13e 43fc c9bc 0b3d 063e
00000140: fb3c babd e1d4 18be 1da3 dd3c 6c3b 0d3d
00000150: 4a79 1f3e 289a bbbd 3634 c33d 9bd7 a1bb
00000160: 2063 19be 02f5 b63e 3c38 993e 398f 3abc
00000170: b758 d8bd 61d5 c3bd 05f8 7a3e 2aec 0c3e
00000180: 1ad2 ffbd ed55 b8bd 7e4e 15bd 7ad4 283d
00000190: 3a53 003d 8c74 e0be f449 b03d 1831 ad3d
000001a0: cd1c 21bd 9798 533c f49c 30bd 2dda ca3b
000001b0: ba60 41be fbec 0f3e abd0 3a3d d7a6 093e
000001c0: c740 023e c6e0 7c3d 2d21 79be 99c1 e83c
000001d0: 1779 5abd b88d 06bd e2a7 adbe 854c a13d
000001e0: 9db8 7e3e 0cf8 e0bd 810e 75be 8756 2c3d
000001f0: 4f96 74bc e943 853d 640a 043d f963 57bd
00000200: 5f8a 53be d682 27bd 74eb 9bbe deab dc3d
00000210: c7cb c83d 7d8c 09be 3b48 4f3d 005a 57bd
00000220: 3769 dd3d 5c63 9f3d c2a8 463d 11fe 7dbe
00000230: 6c79 3abd 05f5 47be 063a f9bd 12a7 c7bb
00000240: 4c66 2abe 2048 d33d 918d b0bb 4d21 d4bd
00000250: 4289 d1bd d628 37be 2821 87be 672d 6fbe
00000260: 5739 acbc 37bc 92bd e8a6 84bd 36e0 643e
00000270: eac2 ff3d 8096 683d 3d61 813d 896a e9bd
00000280: 753f bfbd b616 f6bd e050 d23d 087f 62be
00000290: c351 c13c d6dd 57be 714d c8bd 40b7 90be
000002a0: a9ef 67be 0e69 84bd 2f3b afbe 8ae0 cc3d
000002b0: 4bd6 8abd 0789 89bc 7734 39bd ec8e 703d
000002c0: 2498 7fbd 0cde 8cbc da05 193d 13dd c73d
000002d0: 3ec6 093e c933 eebd 4aad 11bd f24d e5bd
000002e0: 23ad 6c3d cda4 7dbe 2e0f b03c 4cdb 9fbe
000002f0: 3388 33bb ae0b 9b3e a45c bebd e181 62be
00000300: b8fe 3ebe 112b 063e f1b8 df3e f4f8 7abd
00000310: a566 9cbe 586f 7a3d c53f d23d 53eb f8bd
00000320: 6466 613d aaf7 3dbe f462 0fbb 09d3 f33e
00000330: 492a f2bd b883 b83e 4652 94bd 781b 193e
00000340: 99e9 75bc 24e5 c0bd 9ee2 10bd da4e e43d
00000350: 9230 e0bc 3116 93bc c0f9 f23c f70f 59bc
00000360: f6da f0bd 05a8 a83b e1a2 72be 86e2 093d
00000370: aac2 febb 8251 2ebd ac0d 70bd 83fd aa3d
00000380: 6279 353d d847 873d a78d c13d 121b c23d
00000390: 965c 52bc 8781 673d b02c 2bbd 25d7 e33e
000003a0: 48ce 5dbd b06c d63d daa1 ad3e 8cf7 363d
000003b0: 15b7 09be 4569 87bd 1b4e e03e 195d 4c3e
000003c0: e1d5 2ebc 39a0 82be b1f6 c0bc c664 c63d
000003d0: ac2d a7bd 09de 4e3d dc8c 633b b8de e0bd
000003e0: c125 9abd 388d 183e e60d c3bc a5ed 4cbd
000003f0: 1a5c d43b a463 6b3e b996 d63c 1429 8d3e

encoder.4.bias f4 [50]
-0.0031636066 -0.014823437 0.0035664842 0.0068833614 -0.0058226464 -0.0025107507 -0.7150855 -0.001084615
-0.36707887 -0.013485643 -0.0005858151 0.014311469 -0.0021635424 -0.0018024219 -0.33512136 -0.032612104
0.007663292 -0.0018584856 -0.012993542 -0.67220104 -0.12704863 -0.007674806 -0.27074644 -0.00063939055
-0.0032690202 -0.003161109 -0.0095779775 -0.0015912363 0.0062200744 -0.0005836532 -0.0065773395 -0.021797212
0.01349475 -0.15240996 -0.29307386 -0.1852327 -0.36242124 -0.053294078 -0.65760386 -0.0017948017
0.0059820507 -0.20317234 -0.01580192 -0.14097036 -0.17943415 0.010240432 -0.41730127 -0.022778615
-0.0018955136 0.01088246
00000000: 8354 4fbb 00de 72bc adbb 693b d28d e13b
00000010: e6cb bebb 688b 24bb d80f 37bf a429 8eba
00000020: c3f1 bbbe e3f2 5cbc 6391 19ba a77a 6a3c
00000030: 38ca 0dbb 3e3f ecba 0795 abbe 4594 05bd
00000040: 5a1c fb3b 6e98 f3ba dde2 54bc 5e15 2cbf
00000050: 0919 02be f07c fbbb 479f 8abe c69c 27ba
00000060: 0f3d 56bb 9c2a 4fbb f3ec 1cbc 0891 d0ba
00000070: c4d1 cb3b 4e00 19ba b986 d7bb 1190 b2bc
00000080: 1519 5d3c 5b11 1cbe c70d 96be a4ad 3dbe
00000090: 478f b9be e44a 5abd ba58 28bf 8d3f ebba
000000a0: 1405 c43b 690c 50be 0773 81bc 895a 10be
000000b0: 96bd 37be 7cc7 273c 83a8 d5be 389a babc
000000c0: e272 f8ba 584c 323c

encoder.7.weight f4 [20, 50]
0.17294934 0.20834003 0.018092183 -0.3141157 0.04498109 0.046989966 -0.07971712 0.85716504
-0.05308101 0.46895272 0.04984169 -0.32408452 -0.4165095 -0.2254077 -0.13020371 0.36484843
0.026024498 0.58024436 -0.24697714 -0.04596349 -0.07471803 0.4633941 -0.14906721 0.6785211
-0.06884137 0.7388887 0.55790585 0.75098014 -0.25835365 0.017685296 -0.2835274 0.54852027
-0.12883879 -0.009692062 -0.08491203 -0.055496864 -0.054542355 0.014610461 0.096689805 -0.30765906
-0.20216917 -0.095338315 0.13762167 0.2029244 0.12918682 -0.3538551 -0.09111578 0.13534093
-0.35316277 -0.33270735 0.0059721842 0.024059732 -0.013674346 0.0129307695 0.27731618 0.3472054
0.006358395 0.2503509 0.25920194 0.34709275 0.34633514 0.0069135744 -0.0061459066 -0.006418157
0.2777829 0.038239595 -0.032714408 0.28982517 0.0029082904 0.14218876 0.09573858 0.11022912
-0.012848122 0.31557593 0.02289778 0.081704736 0.23721404 0.14848419 0.010065094 0.40458784
-0.005010915 0.026768386 0.0104724625 -0.05240625 0.31711254 -0.046033483 0.2506572 0.0021470531
0.17245767 -0.0011346911 0.014301175 0.13711958 0.011436874 0.35258624 -0.033588577 0.004933004
0.29348487 0.022771483 -0.004289498 0.0065479344 0.53352743 0.27405134 -0.39174956 0.36731634
-0.14568964 -0.28654966 -0.24519657 -0.09007471 -0.19453652 -0.27512008 -0.37892666 0.0020764167
0.005632498 -0.08608592 0.015701843 -0.23363487 -0.2976217 -0.17102158 0.057267524 -0.16372603
-0.2934695 -0.08513331 -0.57383597 -0.16581495 -0.090318516 -0.05685147 -0.036698543 -0.16977663
0.35911238 -0.14863351 0.014528969 -0.12642504 0.15211229 0.11189016 -0.24324663 0.020741144
-0.34875607 0.082755856 -0.21276847 0.015114816 0.43702078 0.040854268 -0.30235702 -0.4941486
0.12716258 0.12941377 -0.00063210627 0.5482753 0.013985697 0.28046125 0.021955365 0.079946674
-0.12653524 0.00833754 0.0024531581 -0.010326635 -0.068408355 0.15691404 -0.16679132 0.5199818
0.02286409 -0.0035287964 0.2231844 0.2822075 0.03946008 -0.05906936 -0.082830325 0.19947614
0.3176544 -0.21118006 0.0059234304 0.21302047 0.32301474 0.21520662 0.20642023 0.2773291
0.34867495 0.22674502 0.009276372 0.008089151 0.34462342 0.04299559 0.011053836 0.028971577
0.32251242 -0.068529665 -0.047942776 0.46416214 -0.06774747 0.15289392 0.0036639152 -0.04866989
0.029680043 0.4396369 0.1317271 0.014818961 -0.0893145 0.023555664 0.13501778 0.0138034085
-0.31261504 0.033209283 -0.12588789 -0.28278017 -0.01296251 -0.099154636 -0.13797785 -0.05663915
-0.25142658 0.049516104 0.022197388 -0.011359453 0.2590646 0.33148623 0.0031704209 -0.19591561
-0.13737683 -0.027349854 0.19807327 -0.22974718 -0.0054071834 -0.17811596 0.4108145 -0.0173937
0.4030382 -0.04074027 -0.022796819 0.0027151294 -0.11376866 0.026286606 0.19692084 -0.120347396
-0.08667 -0.056193553 0.07676467 -0.03548235 -0.09912528 0.3738954 -0.061708156 0.26654613
-0.18666872 0.1315739 0.21827273 0.23716629 0.05647447 -0.12537971 0.051506672 -0.2772041
0.29486975 -0.1803244 -0.29135507 -0.306823 0.14383925 -0.2952517 0.45943502 0.3290785
00000000: a219 313e 1757 553e 0f36 943c c6d3 a0be
00000010: 173e 383d 8d78 403d bb42 a3bd 2b6f 5b3f
00000020: 796b 59bd 921a f03e cd26 4c3d 68ee a5be
00000030: bc40 d5be 47d1 66be 1f54 05be 6acd ba3e
00000040: 5431 d53c e58a 143f 93e7 7cbe 3644 3cbd
00000050: c405 99bd fe41 ed3e 13a5 18be 8fb3 2d3f
00000060: b4fc 8cbd cf27 3d3f ebd2 0e3f 3c40 403f
00000070: ee46 84be c1e0 903c 812a 91be d36b 0c3f
00000080: 51ee 03be 74cb 1ebc 5ce6 adbd ae50 63bd
00000090: ce67 5fbd b760 6f3c 4e05 c63d 7d85 9dbe
000000a0: 6f05 4fbe bc40 c3bd b2ec 0c3e 6acb 4f3e
000000b0: 8d49 043e 7f2c b5be e99a babd d096 0a3e
000000c0: c0d1 b4be 9e58 aabe 50b2 c33b ea18 c53c
000000d0: 5d0a 60bc 94db 533c 63fc 8d3e e8c4 b13e
000000e0: 155a d03b fe2d 803e 1eb6 843e 24b6 b13e
000000f0: d752 b13e 448b e23b 9a63 c9bb 674f d2bb
00000100: 8f39 8e3e 1fa1 1c3d 8bff 05bd f763 943e
00000110: 0499 3e3b ee99 113e 9712 c43d cebf e13d
00000120: ee80 52bc 2b93 a13e 2094 bb3c d054 a73d
00000130: 3de8 723e 3d0c 183e 10e8 243c 2326 cf3e
00000140: 9a32 a4bb 6049 db3c b194 2b3c f0a7 56bd
00000150: 935c a23e 9b8d 3cbd 2456 803e 93b5 0c3b
00000160: be98 303e eab9 94ba 7a4f 6a3c 1369 0c3e
00000170: ba61 3b3c 2f86 b43e 2d94 09bd 09a5 a13b
00000180: a643 963e 438b ba3c eb8e 8cbb 0e90 d63b
00000190: 4195 083f 7550 8c3e 6693 c8be e310 bc3e
000001a0: aa2f 15be a3b6 92be cf14 7bbe 1779 b8bd
000001b0: 9534 47be 8adc 8cbe ad02 c2be 7e14 083b
000001c0: d190 b83b d14d b0bd 27a1 803c fb3d 6fbe
000001d0: df61 98be 4820 2fbe 5a91 6a3d cca7 27be
000001e0: a241 96be 5f5a aebd eae6 12bf 65cb 29be
000001f0: eaf8 b8bd 16dd 68bd 3651 16bd edd9 2dbe
00000200: 94dd b73e 6233 18be ea0a 6e3c 9175 01be
00000210: 53c3 1b3e ab26 e53d a515 79be 55e9 a93c
00000220: 2890 b2be e77b a93d fadf 59be 22a4 773c
00000230: 30c1 df3e ce56 273d 8ace 9abe 0c01 fdbe
00000240: e836 023e 0b85 043e efb3 25ba c55b 0c3f
00000250: 4424 653c 9e98 8f3e bddb b33c 15bb a33d
00000260: 7492 01be 2d9a 083c 2ac5 203b 0c31 29bc
00000270: ae19 8cbd 13ae 203e 58cb 2abe 871d 053f
00000280: 794d bb3c 6143 67bb 748a 643e 807d 903e
00000290: e5a0 213d b7f2 71bd f2a2 a9bd 7943 4c3e
000002a0: 99a3 a23e 963f 58be 5619 c23b 0a22 5a3e
000002b0: 3062 a53e 205f 5c3e d35f 533e 14fe 8d3e
000002c0: 8685 b23e d92f 683e edfb 173c 5c88 043c
000002d0: 7b72 b03e 251c 303d 261b 353c cd55 ed3c
000002e0: 5920 a53e 4859 8cbd a55f 44bd a9a6 ed3e
000002f0: 30bf 8abd 3990 1c3e 4c1e 703b 145a 47bd
00000300: 9023 f33c 1618 e13e 78e3 063e 3acb 723c
00000310: 85ea b6bd cff7 c03c 1a42 0a3e b127 623c
00000320: 140f a0be 7506 083d c1e8 00be 90c8 90be
00000330: b560 54bc 9611 cbbd 114a 0dbe 74fe 67bd
00000340: fcba 80be 66d1 4a3d 4cd7 b53c 001d 3abc
00000350: 1ea4 843e 90b8 a93e d6c6 4f3b 1a9e 48be
00000360: 83ac 0cbe cd0c e0bc b8d3 4a3e d842 6bbe
00000370: be2e b1bb 0864 36be 4756 d23e 3c7d 8ebc
00000380: 065b ce3e 45df 26bd 65c0 babc 50f0 313b
00000390: 8bff e8bd 0257 d73c 9ea5 493e b278 f6bd
000003a0: 0a80 b1bd 362b 66bd cc36 9d3d f155 11bd
000003b0: 3202 cbbd 386f bf3e b1c1 7cbd bc78 883e
000003c0: 1626 3fbe 4fbb 063e e382 5f3e b8db 723e
000003d0: c651 673d 8a63 00be a9f8 523d b2ed 8dbe
000003e0: 2bf9 963e f6a6 38be 7e2c 95be e717 9dbe
000003f0: 994a 133e 3b2b 97be 113b eb3e fa7c a83e

encoder.7.bias f4 [20]
0.0042027817 -0.003490081 -0.005222337 -0.0014368147 -0.0042050774 0.0060780603 -0.32378334 -1.2617465
0.0071370294 -0.008649083 -0.2080412 0.004517927 -0.4274501 0.00379579 -0.0034442327 -0.0012988469
-0.00429326 -4.0046172e-05 -0.0031091908 -0.53928477
00000000: 7db7 893b d8b9 64bb 2320 abbb 8053 bcba
00000010: bfca 89bb 772a c73b eec6 a5be e980 a1bf
00000020: bedd e93b e2b4 0dbc c108 55be 1e0b 943b
00000030: bdda dabe cac2 783b a3b8 61bb 123e aaba
00000040: 7aae 8cbb 40f7 27b8 91c3 4bbb 910e 0abf

encoder.10.weight f4 [4, 20]
0.8984098 0.19369264 -0.8048413 -0.28279078 -0.46286204 0.35993892 0.7369107 1.396497
0.7905128 -0.58206266 -0.17713208 0.2992617 0.4163877 1.0540153 -0.47202015 1.0694001
-0.24624562 -0.296016 -0.38944602 0.9890841 -0.4797833 -0.7643739 -0.69158506 0.04623317
0.78448594 -0.53840005 -0.12230165 0.57495034 -0.41726658 -0.5112148 -0.109469354 -0.5862384
-0.11445615 -0.5156646 0.81491363 -0.5279058 -0.123786375 0.31540802 0.5899703 -0.011021596
-0.86023134 0.14529416 0.52822375 -0.082222566 0.62824416 0.64253163 0.24838124 -0.038067207
-0.7807081 0.4430677 -0.19054902 0.5152852 0.43214506 -0.9937083 0.64485043 -1.0029167
-0.16244085 0.18320616 0.42046675 -0.037114743 0.6063728 -0.2281837 0.5722907 -0.5237585
-0.44753027 0.021576859 -0.18513088 -0.48459804 0.50572085 0.3861435 -0.14530419 -0.052640885
-0.3877796 0.73951995 -0.45314476 0.74770546 -0.5160511 -0.40420586 -0.42882147 -0.30126673
00000000: 2ffe 653f 5d57 463e 140a 4ebf f4c9 90be
00000010: 41fc ecbe ea49 b83e 2ea6 3c3f 6ac0 b23f
00000020: 0c5f 4a3f 0f02 15bf 1d62 35be d438 993e
00000030: c530 d53e f9e9 863f a0ac f1be 1ae2 883f
00000040: d027 7cbe 698f 97be 7865 c7be 9e34 7d3f
00000050: 28a6 f5be 02ae 43bf b80b 31bf fe5e 3d3d
00000060: 12d4 483f 96d4 09bf 4a79 fabd f22f 133f
00000070: f7a3 d5be f9de 02bf 7831 e0bd b813 16bf
00000080: fc67 eabd 9802 04bf 2e9e 503f d624 07bf
00000090: b683 fdbd 297d a13e 4b08 173f ed93 34bc
000000a0: 1f38 5cbf fec7 143e ac39 073f 4e64 a8bd
000000b0: 9cd4 203f f47c 243f a757 7e3e 5cec 1bbd
000000c0: 7cdc 47bf c5d9 e23e 481f 43be bbe9 033f
000000d0: 1e42 dd3e ab63 7ebf eb14 253f 935f 80bf
000000e0: e556 26be 659a 3b3e 6b47 d73e a105 18bd
000000f0: 3f3b 1b3f fda8 69be a581 123f 0915 06bf
00000100: b022 e5be f4c1 b03c f392 3dbe 3c1d f8be
00000110: ec76 013f 9ab4 c53e 9fca 14be f89d 57bd
00000120: 0c8b c6be 2e51 3d3f 9702 e8be a069 3f3f
00000130: ed1b 04bf 12f4 cebe 7d8e dbbe a23f 9abe

encoder.10.bias f4 [4]
-0.28821468 -0.29952207 0.31452063 0.3344035
00000000: e090 93be f55a 99be d908 a13e f036 ab3e

decoder.0.weight f4 [20, 4]
-0.22827049 0.6327984 0.8281068 1.7106721 0.60310096 -0.3330369 -0.6532585 0.6261304
-0.32192138 0.009593684 0.931898 0.48931906 -0.034498136 -1.0519421 -0.93886894 0.79055196
0.0590922 0.3621699 0.5727912 0.9188001 0.6769141 -0.61756784 0.38659325 -0.98652256
1.4024435 -0.12298455 0.61175436 -0.8115238 0.45400137 -0.45083514 -0.5568568 -0.5048958
-0.15648992 0.74824435 -0.4358773 -0.6299085 0.25359902 0.6171324 0.2274596 -0.4995882
-0.1642731 0.25672528 0.38584775 -0.19187935 -1.7655604 0.81698877 -0.8495178 0.8183886
0.042482633 -1.0578213 -0.52395797 0.40250206 0.50363487 0.4328567 0.1128832 0.01706891
0.00822173 -0.36132503 -0.43850675 -0.18018405 0.49619243 -0.56066626 0.6369467 -0.60635287
-1.1362718 -0.25529796 0.2609841 -0.56508 -1.1989796 -0.36052808 0.65009624 -0.04565612
-0.53838223 0.7069636 -0.016485948 -0.081845 0.26062873 -0.3666085 -0.038265105 -0.3696945
00000000: bdbf 69be 13ff 213f cffe 533f 4ef7 da3f
00000010: d364 1a3f d083 aabe f33b 27bf 154a 203f
00000020: e1d2 a4be d42e 1d3c de90 6e3f 0788 fa3e
00000030: eb4d 0dbd 0aa6 86bf b759 70bf 9d61 4a3f
00000040: aa0a 723d 556e b93e 72a2 123f 7c36 6b3f
00000050: 3e4a 2d3f ed18 1ebf 8def c53e be8c 7cbf
00000060: 4583 b33f 53df fbbd ef9b 1c3f 06c0 4fbf
00000070: de72 e83e ddd3 e6be 2b8e 0ebf da40 01bf
00000080: e53e 20be f18c 3f3f 4f2b dfbe af41 21bf
00000090: bbd7 813e 64fc 1d3f 2beb 683e 06ca ffbe
000000a0: 3537 28be 7f71 833e d68d c53e 057c 44be
000000b0: e2fd e1bf 2d26 513f 007a 59bf ea81 513f
000000c0: 4502 2e3d b066 87bf 1c22 06bf c014 ce3e
000000d0: 37ee 003f 659f dd3e 4f2f e73d 19d4 8b3c
000000e0: 6fb4 063c 98ff b8be f583 e0be 2b82 38be
000000f0: ef0c fe3e d387 0fbf f00e 233f f139 1bbf
00000100: 5b71 91bf 6ab6 82be b59f 853e 15a9 10bf
00000110: 2a78 99bf 2397 b8be b56c 263f e901 3bbd
00000120: 6bd3 09bf 91fb 343f 8a0d 87bc 5a9e a7bd
00000130: 2171 853e 1cb4 bbbe dfbb 1cbd 9948 bdbe

decoder.0.bias f4 [20]
-0.702811 0.13115917 -0.3313876 0.0612911 -0.22398902 0.19340311 0.12147968 0.2991218
-0.10502343 0.49579263 0.16567144 -0.19478634 -0.07947561 -0.41377196 -0.4749025 -0.03521834
-0.26642615 -0.341146 0.25184324 0.15586151
00000000: 6ceb 33bf 974e 063e a3ab a9be 600c 7b3d
00000010: 615d 65be 770b 463e 57ca f83d 7e26 993e
00000020: 8616 d7bd 88d8 fd3e c6a5 293e 1276 47be
00000030: 1cc4 a2bd ebd9 d3be 6c26 f3be 1b41 10bd
00000040: 0269 88be b0aa aebe 99f1 803e 299a 1f3e

decoder.2.weight f4 [50, 20]
0.3596439 -0.45360956 -0.19321862 -0.32704768 0.004951029 0.17275742 0.05916474 0.17110974
0.19620034 0.18344064 0.026863676 0.05502262 -0.23378009 0.08612358 0.21535428 0.39217782
0.12812915 0.18487132 0.07352281 -0.11431919 -0.14289112 -0.060351606 -0.0051322617 0.07900651
-0.14247409 -0.15725143 0.22949319 0.005160311 -0.21028167 -0.15497388 0.09530136 0.065920435
0.117033444 -0.15205185 -0.08610263 0.06274697 0.018294413 0.22055392 -0.22065897 0.1587098
-0.13274805 0.1924509 0.17762017 -0.016285738 -0.0038059314 0.17974779 0.14920497 -0.038258355
-0.110869326 0.14080033 -0.048888132 -0.038921032 0.1349711 0.049628366 -0.07827082 0.1962841
0.011314297 -0.11930913 -0.063840605 0.056579508 -0.10225856 0.12303736 -0.06396116 -0.0857279
-0.23487586 -0.03073969 0.17060496 0.24597235 0.018892776 0.02955694 -0.027313128 0.16397628
0.031910114 -0.08188838 -0.21982503 0.059134427 0.1163443 0.02069962 0.0864304 -0.078627326
-0.48119685 -0.30539292 0.16337334 0.090466954 -0.24274342 -0.027396766 0.31284267 -0.20909685
-0.077208005 -0.22078165 -0.11491559 0.216746 0.27407622 -0.13529147 -0.100184634 0.32987872
0.22348231 0.17720011 0.16266643 0.14643006 0.15613265 0.27252725 0.25761956 -0.14292856
0.27766293 0.3182985 0.23874933 -0.5133685 0.16116756 0.20814918 -0.12009438 -0.2779411
-0.103222094 -0.17538412 0.12913568 0.15197802 0.010126692 -0.4203158 0.06708131 0.015519063
0.20780315 -0.20144276 0.045852214 -0.0355367 0.12277508 0.2054404 0.0114114145 -0.09183831
-0.10940641 0.22175165 -0.052203044 0.13241367 -0.09807474 -0.22203225 -0.20655361 0.13306607
-0.20571057 -0.044082925 -0.012992238 -0.12139808 -0.12170158 -0.08209978 -0.1115203 -0.036226902
-0.15979224 0.0014991133 0.26211494 0.049368773 0.14844188 0.16209003 -0.055161595 0.15035696
0.06493682 -0.16438958 -0.1440988 -0.014397543 0.11205168 0.07465055 -0.26340833 -0.023359096
0.45048916 0.28002986 0.27043742 -0.24668404 0.3794892 0.12841575 0.25308627 -0.32416505
0.07353479 0.09518111 0.14689341 0.06015674 -0.07186978 0.020433702 -0.1612505 -0.29597682
-0.15725833 -0.06770713 0.027924037 0.06038625 0.22856958 -0.025928766 0.24396493 0.10266065
-0.004053342 -0.27026102 -0.10997878 -0.11193463 -0.12069089 0.110020496 0.15328221 0.20396174
-0.045334842 -0.11427688 0.110798985 -0.27198204 -0.211948 0.15685625 0.18357827 0.1363881
-0.052097514 0.17721719 -0.097509295 -0.028498452 0.20356806 0.20089343 0.252664 0.123549506
0.14411573 -0.05220687 0.06843833 0.09954091 -0.15182436 -0.034876943 0.072466254 -0.20128587
0.25452015 -0.15822116 0.23046897 -0.036890894 0.18269898 0.103432916 0.027555695 0.1734818
-0.11426687 -0.1490413 -0.22132096 0.19943006 -0.081702925 -0.17654008 -0.24877408 -0.21680324
0.044923756 -0.092372045 -0.06151908 -0.22191307 -0.14394376 0.022910394 -0.0465868 0.09487322
-0.041171536 0.23615909 -0.030573128 0.36188507 -0.008917621 -0.032455944 -0.03554305 0.008203069
0.16688995 0.2714594 0.15881547 -0.32503355 0.33459595 -0.10795535 0.12262654 0.06422036
00000000: 3f23 b83e 833f e8be 1adb 45be cb72 a7be
00000010: 3e3c a23b 52e7 303e ba56 723d 6437 2f3e
00000020: bee8 483e ddd7 3b3e 3611 dc3c 665f 613d
00000030: 0c64 6fbe 8f61 b03d d585 5c3e 88cb c83e
00000040: 4a34 033e e84e 3d3e 2193 963d 2e20 eabd
00000050: 0d52 12be 3f33 77bd 882c a8bb 2ace a13d
00000060: bae4 11be 8506 21be 4300 6b3e d317 a93b
00000070: 1454 57be 79b1 1ebe 5c2d c33d 4b01 873d
00000080: 3baf ef3d 7bb3 1bbe 9356 b0bd 7c81 803d
00000090: 2ade 953c e3d8 613e 6df4 61be d284 223e
000000a0: 1bef 07be d911 453e 10e2 353e ab69 85bc
000000b0: ef6c 79bb ce0f 383e 30c9 183e cbb4 1cbd
000000c0: 750f e3bd f62d 103e ec3e 48bd a96b 1fbd
000000d0: dd35 0a3e 1d47 4b3d 744c a0bd b3fe 483e
000000e0: 9a5f 393c 5858 f4bd ddbe 82bd eabf 673d
000000f0: f06c d1bd 03fb fb3d 12fe 82bd 1c92 afbd
00000100: 4c83 70be cdd1 fbbc 11b3 2e3e 2de0 7b3e
00000110: 06c5 9a3c 6521 f23c c8bf dfbc 66e9 273e
00000120: 2eb4 023d 18b5 a7bd d019 61be f136 723d
00000130: ec45 ee3d 4092 a93c 6c02 b13d 5d07 a1bd
00000140: 6f5f f6be 765c 9cbe 574b 273e bd46 b93d
00000150: bb91 78be 2f6f e0bc ea2c a03e 7c1d 56be
00000160: 3b1f 9ebd 9614 62be dd58 ebbd aaf2 5d3e
00000170: b853 8c3e d989 0abe 9a2d cdbd dde5 a83e
00000180: 8cd8 643e f273 353e 0792 263e c3f1 153e
00000190: 3de1 1f3e b188 8b3e b6e6 833e dd5b 12be
000001a0: d629 8e3e 05f8 a23e b47a 743e 1e6c 03bf
000001b0: 1c09 253e 0f25 553e 0bf4 f5bd 4c4e 8ebe
000001c0: 1b66 d3bd e597 33be 253c 043e 20a0 1b3e
000001d0: 6dea 253c a233 d7be ed61 893d ab43 7e3c
000001e0: 59ca 543e 0347 4ebe 88cf 3b3d ee8e 11bd
000001f0: 8071 fb3d f85e 523e f1f6 3a3c b915 bcbd
00000200: 7810 e0bd dd12 633e dcd2 55bd 7397 073e
00000210: 69db c8bd 6c5c 63be ca82 53be 7942 083e
00000220: cba5 52be 4c90 34bd 65dd 54bc 8e9f f8bd
00000230: ae3e f9bd ee23 a8bd c164 e4bd a962 14bd
00000240: 94a0 23be e57d c43a ee33 863e e936 4a3d
00000250: 2601 183e eefa 253e 20f1 61bd 2df7 193e
00000260: 98fd 843d be55 28be a38e 13be ace3 6bbc
00000270: 5a7b e53d 63e2 983d 75dd 86be 935b bfbc
00000280: 84a6 e63e 1360 8f3e c676 8a3e be9a 7cbe
00000290: 694c c23e 6b7f 033e 8694 813e f6f8 a5be
000002a0: 6899 963d 50ee c23d 3a6b 163e ea66 763d
000002b0: 7730 93bd 9464 a73c da1e 25be 468a 97be
000002c0: 5408 21be 09aa 8abd f3c0 e43c 9357 773d
000002d0: 250e 6a3e 9068 d4bc f1d1 793e bf3f d23d
000002e0: e6d1 84bb a75f 8abe 8e3c e1bd fc3d e5bd
000002f0: c92c f7bd 6d52 e13d 03f6 1c3e 59db 503e
00000300: 07b1 39bd ff09 eabd 94ea e23d 3b41 8bbe
00000310: e608 59be ed9e 203e f1fb 3b3e 52a9 0b3e
00000320: 3464 55bd 6c78 353e f4b2 c7bd 9675 e9bc
00000330: 2574 503e 02b7 4d3e 2d5d 813e 8607 fd3d
00000340: 1393 133e dfd6 55bd 6529 8c3d 1bdc cb3d
00000350: d877 1bbe 20db 0ebd 3069 943d e21d 4ebe
00000360: 7750 823e ba04 22be 0f00 6c3e e81a 17bd
00000370: 7115 3b3e a3d4 d33d 7bbc e13c 37a5 313e
00000380: c004 eabd 489e 18be f6a1 62be 6537 4c3e
00000390: dd53 a7bd ecc6 34be a2be 7ebe ab01 5ebe
000003a0: f901 383d 8e2d bdbd 6efb 7bbd 2e3d 63be
000003b0: fe65 13be 94ae bb3c cdd1 3ebd e44c c23d
000003c0: 7ca3 28bd b0d3 713e 7f74 fabc 0049 b93e
000003d0: 371b 12bc 86f0 04bd 9795 11bd 2a66 063c
000003e0: 33e5 2a3e bafc 8a3e 86a0 223e cc6a a6be
000003f0: 2950 ab3e b217 ddbd a023 fb3d f785 833d

decoder.2.bias f4 [50]
0.25392503 -0.08641684 0.033032026 0.12068258 0.078448065 0.18600672 -0.12496784 0.14928709
0.18300627 -0.18197212 0.05936152 -0.12504591 -0.15900221 -0.26472187 -0.19461958 -0.076520674
-0.3200257 0.027446998 -0.07693218 -0.09195399 0.15182766 0.0109541025 -0.09431177 0.0012877764
0.16628791 0.09820886 -0.22091527 -0.26161537 0.15108107 -0.13248433 -0.19601564 0.057885416
0.09275478 0.019886812 -0.19052976 -0.066090085 -0.3195173 0.00581711 0.115504086 -0.15505876
-0.1458441 -0.08284681 -0.12956387 -0.19592379 0.40788573 0.10058944 0.04333654 -0.11759384
-0.09669028 -0.20343289
00000000: 7602 823e 50fb b0bd 974c 073d 6e28 f73d
00000010: 61a9 a03d 8c78 3e3e 24ef ffbd b7de 183e
00000020: ff65 3b3e e656 3abe 1125 733d 090c 00be
00000030: 7ad1 22be a089 87be 5b4a 47be dfb6 9cbd
00000040: 69da a3be 87d8 e03c 9e8e 9dbd 6052 bcbd
00000050: b678 1b3e d678 333c 8726 c1bd 9bca a83a
00000060: 6147 2a3e ba21 c93d 9d37 62be 73f2 85be
00000070: ffb4 1a3e f9a9 07be 53b8 48be 4219 6d3d
00000080: 38f6 bd3d abe9 a23c 3c1a 43be 3d5a 87bd
00000090: c697 a3be 759d be3b 688d ec3d b9c7 1ebe
000000a0: 2858 15be 97ab a9bd 64ac 04be 3fa0 48be
000000b0: 66d6 d03e d601 ce3d a881 313d 0ad5 f0bd
000000c0: 8e05 c6bd b650 50be

decoder.4.weight f4 [50, 50]
0.04419441 -0.13213149 -0.079781 -0.05647194 0.018026242 -0.052877963 -0.09848053 -0.034982845
-0.062592335 0.024299143 0.0679624 0.00804113 -0.1047729 -0.10415836 0.12422375 -0.06333407
0.011286488 -0.07876579 0.008690732 -0.020910924 -0.10161469 -0.08451959 -0.102588534 0.09381682
-0.08579394 0.13442805 -0.1375991 -0.06048311 -0.11861154 -0.11067308 0.1254515 0.10089106
0.03968686 -0.0023897095 -0.13076289 -0.11167712 0.028837955 -0.056455284 -0.13649498 0.037445758
0.02284759 -0.08548308 0.01780406 -0.07527175 -0.08135494 0.12933283 0.12018523 -0.0081764385
-0.07728257 -0.08967791 -0.15867957 -0.100834034 0.019964917 -0.010609083 -0.05990302 0.15778898
0.00933709 -0.059977796 0.16315119 0.03812457 0.13020454 0.10984522 0.14827831 0.12948555
-0.363199 -0.045677487 0.2324269 0.026066048 0.08086452 0.016299533 -0.13497525 0.1171585
-0.011520262 0.10936987 0.101061456 0.21076472 0.17464334 -0.13844064 0.25586897 -0.015313235
-0.13331355 -0.09018553 -0.114851266 0.13808432 0.17760056 -0.008743546 0.044830643 0.13699894
-0.1329404 0.14945793 -0.1496745 -0.19111264 -0.05998896 0.121934175 0.19094817 -0.03364302
-0.03472981 0.11358196 -0.045503687 0.32273594 0.28444508 -0.16805357 -0.090675734 -0.100545906
0.11796877 0.05244168 -0.11604809 -0.07519473 0.05202657 -0.06750683 -0.093110576 0.027272621
-0.21431836 0.049615014 0.24479829 -0.023616532 0.0925026 -0.11450688 -0.006730296 -0.06878314
0.07100868 -0.065324664 -0.10123467 -0.06447363 0.03021247 -0.026136657 0.026689596 -0.05835063
-0.025839329 -0.12380092 0.028695868 -0.10635886 0.02485873 0.12270032 -0.10655629 0.021711074
0.09652735 0.12764299 -0.11747921 0.024293713 0.03761587 0.056864243 0.099966794 0.027608631
0.2981642 -0.123895295 0.048451763 -0.21533258 0.0009630311 0.3500426 -0.072739966 -0.10099596
-0.04282307 0.18295509 -0.12585938 -0.21972403 0.11500253 -0.02201906 0.03007197 0.080374695
0.008581369 -0.08097727 -0.12524253 0.4007055 -0.10343521 -0.2860153 -0.052702766 -0.042208444
-0.0039353957 0.13540456 0.33175057 0.08379527 -0.053511932 0.06623257 0.1506927 -0.039584484
-0.15952879 0.010720149 0.08969608 0.049757186 -0.12074968 0.24781345 -0.10499617 -0.023626223
0.009769328 -0.0625931 0.27785388 -0.004231999 0.0061910776 0.071598396 0.09437087 0.31035653
0.0371815 0.10548557 0.23332626 0.021675231 0.27816126 -0.21892369 0.10827402 -0.33583462
0.17030545 -0.03623739 0.030841226 0.00034478903 0.024960436 -0.038742557 0.026338005 0.041137483
0.03479048 0.21502647 -0.061281458 0.16936453 -0.14110912 0.5210632 0.1411623 -0.15118918
0.31780252 -0.11480092 0.15045044 0.07579498 0.08411931 0.0066473302 -0.000982558 -0.07054601
-0.04849416 0.11490339 0.047661338 -0.18816644 -0.0694342 -0.24288157 0.12358512 0.014468647
0.009573781 0.17841385 0.042979863 0.112246566 0.3934175 -0.12609512 0.09656861 0.32144767
-0.021475315 0.124036126 0.101118796 0.0833617 0.28221822 0.07351335 0.027194787 0.059612494
0.1768927 -0.4699455 -0.025292257 -0.023558943 0.092697546 0.022913523 0.11331523 0.005825234
00000000: 3305 353d 7a4d 07be 3964 a3bd 1f4f 67bd
00000010: c5ab 933c 9096 58bd 29b0 c9bd 2c4a 0fbd
00000020: 6930 80bd ff0e c73c df2f 8b3d f2be 033c
00000030: 2d93 d6bd fa50 d5bd 0569 fe3d 4bb5 81bd
00000040: f6ea 383c f54f a1bd 9263 0e3c 634d abbc
00000050: 5d1b d0bd 9b18 adbd f019 d2bd 0823 c03d
00000060: bcb4 afbd 82a7 093e c7e6 0cbe 23bd 77bd
00000070: 9bea f2bd 91a8 e2bd 5c76 003e f99f ce3d
00000080: b08e 223d ac9c 1cbb b5e6 05be f9b6 e4bd
00000090: 933d ec3c a83d 67bd 57c5 0bbe b960 193d
000000a0: de2a bb3c c111 afbd d2d9 913c 1328 9abd
000000b0: 6b9d a6bd d36f 043e ad23 f63d 78f6 05bc
000000c0: 5346 9ebd 0da9 b7bd e67c 22be 1382 cebd
000000d0: 778d a33c b8d1 2dbc de5c 75bd 6f93 213e
000000e0: 98fa 183c 47ab 75bd 1b11 273e 8228 1c3d
000000f0: 5754 053e 88f6 e03d 45d6 173e dc97 043e
00000100: 38f5 b9be 5118 3bbd 5101 6e3e 7788 d53c
00000110: 4c9c a53d 9986 853c f436 0abe ccf0 ef3d
00000120: 7bbf 3cbc 4ffd df3d 4ff9 ce3d b5d2 573e
00000130: b4d5 323e 62c3 0dbe 4201 833e 5de4 7abc
00000140: 5983 08be 31b3 b8bd 2437 ebbd fa65 0d3e
00000150: ecdc 353e 1741 0fbc 56a0 373d 7349 0c3e
00000160: 8721 08be 800b 193e 4644 19be 08b3 43be
00000170: fcb6 75bd a0b8 f93d eb87 433e 43cd 09bd
00000180: d840 0ebd a99d e83d 1362 3abd a53d a53e
00000190: c9a2 913e 3c16 2cbe 33b4 b9bd 03eb cdbd
000001a0: 9c99 f13d 16cd 563d 9faa edbd b2ff 99bd
000001b0: d019 553d 0541 8abd c2b0 bebd d56a df3c
000001c0: 4676 5bbe 1d39 4b3d 67ac 7a3e 7577 c1bc
000001d0: 0172 bd3d 9582 eabd d189 dcbb 2dde 8cbd
000001e0: 006d 913d f0c8 85bd 1f54 cfbd c00a 84bd
000001f0: 2480 f73c 8b1c d6bc 24a4 da3c 1201 6fbd
00000200: 00ad d3bc 568b fdbd 9913 eb3c add2 d9bd
00000210: 89a4 cb3c 4e4a fb3d 2f3a dabd 6cdb b13c
00000220: 22b0 c53d d8b4 023e f198 f0bd 9c03 c73c
00000230: 1913 1a3d 7bea 683d 64bb cc3d 7f2b e23c
00000240: faa8 983e d1bc fdbd 5b75 463d 2580 5cbe
00000250: ec73 7c3a c938 b33e b1f8 94bd f8d6 cebd
00000260: 3e67 2fbd 9458 3b3e 48e1 00be 56ff 60be
00000270: 7286 eb3d 5161 b4bc 7e59 f63c 7d9b a43d
00000280: df98 0c3c 69d7 a5bd 943f 00be 4529 cd3e
00000290: d7d5 d3bd 9970 92be dbde 57bd c3e2 2cbd
000002a0: 7ef4 80bb 7ea7 0a3e 36db a93e db9c ab3d
000002b0: 542f 5bbd f1a4 873d 304f 1a3e 5723 22bd
000002c0: 845b 23be 90a3 2f3c 94b2 b73d 31ce 4b3d
000002d0: 9c4b f7bd cfc2 7d3e 3b08 d7bd c88b c1bc
000002e0: 880f 203c d030 80bd dd42 8e3e 95ac 8abb
000002f0: 86de ca3b 2ea2 923d 8445 c13d 0de7 9e3e
00000300: a14b 183d d208 d83d 14ed 6e3e 4190 b13c
00000310: 276b 8e3e 882d 60be c5be dd3d 84f2 abbe
00000320: 8d64 2e3e a86d 14bd bda6 fc3c cdc4 b439
00000330: d479 cc3c 84b0 1ebd cdc2 d73c c77f 283d
00000340: 7680 0e3d e62f 5c3e 4402 7bbd e56d 2d3e
00000350: e97e 10be 6664 053f da8c 103e 56d1 1abe
00000360: 03b7 a23e bf1c ebbd ae0f 1a3e 663a 9b3d
00000370: bf46 ac3d d9d1 d93b 2dc9 80ba 6d7a 90bd
00000380: d0a1 46bd 7852 eb3d 8938 433d b4ae 40be
00000390: 8533 8ebd f2b5 78be 321a fd3d e70d 6d3c
000003a0: 59db 1c3c 1fb2 363e a70b 303d 87e1 e53d
000003b0: 056e c93e 141f 01be c3c5 c53d ca94 a43e
000003c0: 00ed afbc a706 fe3d 5f17 cf3d 8ab9 aa3d
000003d0: e87e 903e 2b8e 963d 9ac7 de3c 3b2c 743d
000003e0: 5c23 353e b29c f0be b531 cfbc affe c0bc
000003f0: 36d8 bd3d 24b5 bb3c d111 e83d 9be1 be3b

decoder.4.bias f4 [50]
-0.12518658 0.10591597 0.30246714 0.020690123 0.15550265 -0.12137268 -0.27652958 0.054109097
-0.14433128 0.07035383 -0.13639525 -0.10957893 -0.1481296 -0.0012726908 0.0064258394 -0.17143075
-0.040679064 -0.012292296 0.07060943 -0.10379958 -0.10027162 0.045490976 0.23572521 -0.020663034
0.069172494 -0.081918254 -0.08511596 -0.062222697 -0.03802903 0.18434216 0.04986587 0.15009718
0.0072588525 -0.029055167 0.05371443 0.040617276 0.1203256 0.14913931 0.14359875 -0.0006423068
-0.04579918 -0.052323613 0.19700515 0.0637064 -0.1303758 -0.072585806 0.014486086 -0.092785835
0.23212565 -0.0068908245
00000000: e930 00be 79ea d83d f9dc 9a3e 557e a93c
00000010: 163c 1f3e 3d92 f8bd 4995 8dbe 80a1 5d3d
00000020: 94cb 13be ab15 903d 32ab 0bbe eb6a e0bd
00000030: 49af 17be 6bd0 a6ba d98f d23b 8b8b 2fbe
00000040: 179f 26bd a065 49bc ad9b 903d e094 d4bd
00000050: 355b cdbd bf54 3a3d f361 713e 8645 a9bc
00000060: 4faa 8d3d c2c4 a7bd 4751 aebd 3add 7ebd
00000070: 54c4 1bbd 31c4 3c3e 2840 4c3d 13b3 193e
00000080: abdb ed3b 1a05 eebc aa03 5c3d 4d5e 263d
00000090: 456d f63d fab7 183e 8d0b 133e 7b60 28ba
000000a0: ec97 3bbd 4951 56bd b8bb 493e 8078 823d
000000b0: 3c81 05be dea7 94bd 0c57 6d3c 8006 bebd
000000c0: 59b2 6d3e 6dcc e1bb

decoder.6.weight f4 [6, 50]
0.074402526 -0.29175457 0.31567934 -0.26956475 0.062496074 0.093125656 0.27545372 0.2978062
-0.16089475 -0.17776401 -0.073983096 -0.077416345 -0.14122507 0.33168095 0.46939382 -0.03040772
-0.058147382 0.035385802 -0.10063293 -0.08814951 -0.08514824 -0.30656928 0.154696 -0.12698598
0.33281907 -0.11882217 0.34542432 -0.10063781 0.06641695 0.22697309 0.2768054 -0.17209098
0.17124625 0.14446045 -0.9954853 -0.08621213 0.32922897 0.29906094 0.32207566 0.12921846
0.11161138 -0.98449767 -0.4267095 0.076522656 -0.091999896 0.105199784 0.26501122 -0.35106942
-0.2587109 0.00088982115 -0.045858555 -0.27412185 0.03408359 -0.21769992 -0.07671785 -0.03416159
-0.19034493 -0.10748903 0.14704384 0.1551891 -0.07671988 -0.038422644 -0.0671184 -0.02859328
-0.39769757 0.07624097 -0.1683968 0.029385665 0.08885044 0.11138592 0.0072522424 0.028245322
-0.23024493 0.06383386 0.0065343273 0.073505424 0.120072864 -0.104418345 0.30854258 -0.041623913
-0.06852551 0.098613024 0.082306065 -0.0069854315 0.094439715 0.41199788 0.09081248 0.027108613
-0.4539175 -0.06002012 0.16242708 0.115053356 -0.16818346 0.12090334 0.12027224 -0.07484984
0.23626028 -0.18786061 -0.038243253 -0.053194348 0.055445295 0.075822376 0.051248144 -0.054513026
0.0149163995 -0.012739004 -0.022226712 -0.059106886 0.019440155 -0.03393821 -0.10054161 0.043538816
-0.097892955 0.029733628 -0.12077387 -0.15717244 0.11572817 -0.12436673 0.020770209 -0.08458065
-0.046822134 0.11163617 -0.009407131 -0.11231723 0.004710294 0.012156538 -0.060614746 0.020256003
0.10966981 0.091846764 -0.031799674 -0.10473502 -0.1655001 0.10069375 0.03640906 0.09726235
0.10820866 -0.03673802 -0.23207366 -0.045154236 -0.0061495765 0.021094473 0.032603122 0.0614196
0.02989579 -0.10274469 0.14639068 -0.058499116 -0.11272649 -0.11798411 0.06354794 0.41927746
0.5043434 -0.6921849 -0.7341382 -0.02150265 -1.2278773 0.22646245 -0.54685545 -0.10791052
0.041611306 0.12261396 0.10653517 -0.5717171 -0.707199 0.11928425 -0.6078476 -0.11124779
-0.6595687 -0.03259649 -0.071122 -0.23313476 0.18991822 -0.11880856 -0.015711 0.011800648
0.46302694 -0.023945838 -0.17456582 0.3604837 0.22067055 -0.87185925 0.026173217 -0.14557196
-0.37967983 -0.031551268 -0.48363483 -1.299227 0.08130662 -0.12992895 0.18141511 0.6951348
-0.08455725 0.12996879 0.034181483 0.117802516 0.033925682 0.1296644 -1.2892337 -0.067869306
0.076319486 -0.34628415 0.28918326 0.3175837 0.35120764 -0.09324217 -0.40400118 0.033276152
0.16283518 0.0036211514 -0.0942644 0.10700041 0.076577194 0.32547137 -1.2123151 0.13317302
-0.49865395 0.06680363 -0.75081384 0.06831347 -0.039569825 -0.10730714 0.2993569 0.077164285
0.30353358 0.09205913 -0.28399116 0.10558347 0.30804324 0.2223224 -0.28239563 -0.8063882
0.13785861 0.14453949 -0.590554 0.23684406 -1.171487 0.17746049 0.13717087 -0.019097673
-0.20097403 0.3083355 0.071614526 -0.11819454 -0.051854063 -0.086939886 -0.8877058 -0.026125431
-0.8534185 -0.05057391 0.118497945 -0.22788881 -0.20226099 -0.43362585 -0.97512203 0.034898266
00000000: 5a60 983d db60 95be b9a0 a13e 6404 8abe
00000010: e2fb 7f3d aab8 be3d 4508 8d3e 0e7a 983e
00000020: 98c1 24be c507 36be 7384 97bd 768c 9ebd
00000030: 4e9d 10be 16d2 a93e 6354 f03e 9c19 f9bc
00000040: f32b 6ebd b4f0 103d a318 cebd bb87 b4bd
00000050: 3362 aebd a6f6 9cbe a168 1e3e 9d08 02be
00000060: 4367 aa3e 0a59 f3bd 75db b03e 321b cebd
00000070: 9c05 883d a26b 683e 70b9 8d3e 9e38 30be
00000080: 2d5b 2f3e 71ed 133e 20d8 7ebf fc8f b0bd
00000090: b390 a83e 841e 993e 1ae7 a43e d851 043e
000000a0: 8294 e43d 0a08 7cbf ab79 dabe e9b7 9c3d
000000b0: 716a bcbd fc72 d73d 8daf 873e 5fbf b3be
000000c0: c175 84be e342 693a 2ed6 3bbd b359 8cbe
000000d0: 3c9b 0b3d baec 5ebe 401e 9dbd 06ed 0bbd
000000e0: c8e9 42be 3523 dcbd a992 163e e4e9 1e3e
000000f0: 501f 9dbd 1061 1dbd 5f75 89bd 743c eabc
00000100: 049f cbbe 3a24 9c3d 3670 2cbe 35ba f03c
00000110: 38f7 b53d 4d1e e43d 38a4 ed3b bc62 e73c
00000120: 54c5 6bbe 54bb 823d e91d d63b 038a 963d
00000130: c3e8 f53d 49d9 d5bd 4bf9 9d3e d67d 2abd
00000140: 1a57 8cbd a0f5 c93d 1590 a83d 0ce6 e4bb
00000150: 9c69 c13d 63f1 d23e e5fb b93d e212 de3c
00000160: e067 e8be a8d7 75bd 4953 263e 18a1 eb3d
00000170: 4938 2cbe 2c9c f73d 4b51 f63d df4a 99bd
00000180: 37ee 713e 885e 40be f5a4 1cbd 51e2 59bd
00000190: 9b1a 633d c348 9b3d 93e9 513d 0d49 5fbd
000001a0: ea63 743c 41b7 50bc cb14 b6bc 101a 72bd
000001b0: f640 9f3c cb02 0bbd c2e8 cdbd c255 323d
000001c0: 1a7c c8bd f093 f33c 4a58 f7bd d0f1 20be
000001d0: e402 ed3d fcb3 febd 4926 aa3c 9f38 adbd
000001e0: 91c8 3fbd 81a1 e43d 5e20 1abc 9306 e6bd
000001f0: cf58 9a3b 372c 473c 2b47 78bd ebef a53c
00000200: 919a e03d 281a bc3d 6040 02bd 507f d6bd
00000210: dc78 29be 8638 ce3d ab21 153d 7c31 c73d
00000220: 809c dd3d 9b7a 16bd b8a4 6dbe a6f3 38bd
00000230: 6382 c9bb 51ce ac3c da8a 053d 1e93 7b3d
00000240: 04e8 f43c cf6b d2bd 70e7 153e c59c 6fbd
00000250: 25dd e6bd a7a1 f1bd 6c25 823d 89ab d63e
00000260: a61c 013f 0833 31bf 7bf0 3bbf 5326 b0bc
00000270: 152b 9dbf c6e5 673e b8fe 0bbf 3100 ddbd
00000280: 9e70 2a3d 071d fb3d 1c2f da3d 0d5c 12bf
00000290: fe0a 35bf 4d4b f43d e69b 1bbf e2d5 e3bd
000002a0: 7fd9 28bf e683 05bd 69a8 91bd e1ba 6ebe
000002b0: ec79 423e e751 f3bd 5bb4 80bc 8157 413c
000002c0: de11 ed3e 102a c4bc 62c1 32be 5291 b83e
000002d0: 76f7 613e 2b32 5fbf 3769 d63c d110 15be
000002e0: 6565 c2be e73b 01bd fc9e f7be 124d a6bf
000002f0: 1684 a63d 180c 05be e2c4 393e 5bf4 313f
00000300: 5a2c adbd 8a16 053e e201 0c3d 7242 f13d
00000310: a8f5 0a3d bfc6 043e 9c05 a5bf 10ff 8abd
00000320: 644d 9c3d 284c b1be d40f 943e 559a a23e
00000330: 7dd1 b33e c0f5 bebd 3ed9 cebe 934c 083d
00000340: 44be 263e d750 6d3b b20d c1bd 0823 db3d
00000350: 81d4 9c3d 2fa4 a63e 242d 9bbf 825e 083e
00000360: 924f ffbe 57d0 883d 5635 40bf efe7 8b3d
00000370: f813 22bd d9c3 dbbd 4f45 993e 4f08 9e3d
00000380: c168 9b3e 7f89 bc3d 4a67 91be 253c d83d
00000390: d8b7 9d3e 7ca8 633e 2996 90be 756f 4ebf
000003a0: cf2a 0d3e 2902 143e 8c2e 17bf 4087 723e
000003b0: 49f3 95bf 34b8 353e 8576 0c3e b972 9cbc
000003c0: 23cc 4dbe 27de 9d3e a3aa 923d fb0f f2bd
000003d0: ed64 54bd 8a0d b2bd b040 63bf 0005 d6bc
000003e0: a379 5abf 9726 4fbd 0daf f23d af5b 69be
000003f0: 811d 4fbe 3504 debe 99a1 79bf 7cf1 0e3d

decoder.6.bias f4 [6]
0.10721265 -0.40290952 0.0014694848 0.54327947 0.210852 0.3820134
00000000: 4e92 db3d 284a cebe ba9b c03a 5d14 0b3f
00000010: 96e9 573e 4397 c33e

cluster_layer.weight f4 [4, 4]
-0.09217647 0.11084443 0.093233235 -0.10258936 -0.09888685 -0.1013216 0.09988648 0.099890016
-0.11526225 0.08228683 0.10773561 -0.09130462 0.10022495 -0.10187429 -0.09808847 0.09977596
00000000: 04c7 bcbd 6802 e33d 11f1 be3d 5f1a d2bd
00000010: 3085 cabd b381 cfbd 4891 cc3d 2393 cc3d
00000020: 9d0e ecbd ff85 a83d 7da4 dc3d ebfd babd
00000030: bd42 cd3d 78a3 d0bd 9ce2 c8bd 5757 cc3d
