RiskViz Folder/RiskViz Folder/model/checkpoint_1250.tar (torch, 110796 bytes, 51 tensors)

encoder.1.weight f4 [50, 6]
0	0xbf08bf27	-0.53416675
1	0x3c182762	0.009286733
2	0xbaf142e6	-0.0018406778
3	0x3e5d51b0	0.21613193
4	0xbeb21121	-0.34778693
5	0x3e018f84	0.12652403
6	0x3a0e3f98	0.00054263463
7	0xbb54e946	-0.0032487675
8	0x3ab9c9c0	0.0014174506
9	0x402b2da1	2.67466
10	0x3c95f01b	0.018302968
11	0xbe248f9c	-0.16070408
12	0xbe466fbc	-0.19378561
13	0xbe4b88b7	-0.19876371
14	0x3c6ff9e1	0.014646978
15	0xbd9f0f1f	-0.07766556
16	0x3ecbff7a	0.3984335
17	0xbea609e5	-0.32429424
18	0x3e4f4809	0.20242323
19	0xbaa61a7b	-0.0012672687
20	0x3be410bc	0.0069600027
21	0xbdf9f0a9	-0.122041054
22	0x3bf3ecd3	0.007444003
23	0x3f957d4d	1.1678864
24	0xbcfabbd8	-0.030607149
25	0xbe3444a0	-0.17604303
26	0xbc07a629	-0.008279362
27	0x3f51a48a	0.8189169
28	0x3e80d585	0.25162902
29	0xbf0bd60a	-0.5462347
30	0x3f235c06	0.6381229
31	0x3cac9625	0.021067688
32	0x3b42f8d0	0.0029750355
33	0x3d877b1a	0.06615277
34	0x3d450c89	0.048107658
35	0x3f8a2b45	1.0794455
36	0xbda2cb95	-0.079489864
37	0xbe6735a2	-0.22579053
38	0xbdec47c1	-0.115371235
39	0xbe7b1113	-0.24518232
40	0x3e51ec90	0.20500398
41	0xbe50edaf	-0.20403169
42	0xbf48600c	-0.78271556
43	0x3e06b725	0.13155802
44	0xbbbcaeec	-0.005758157
45	0xbd1bc898	-0.038033098
46	0xbdf7a809	-0.12092597
47	0xbd544f24	-0.051833287
48	0x3f309218	0.6897292
49	0xbc0952c6	-0.008381551
50	0xbb3dac61	-0.0028941857
51	0x3f62604c	0.8842819
52	0x3f27da5a	0.65567553
53	0x3d4ba6af	0.04971951
54	0xbea52900	-0.32257843
55	0x3c310898	0.010805272
56	0xbe427bb8	-0.18992507
57	0xbb124876	-0.0022321022
58	0x3e4bb62d	0.19893713
59	0x3e38050b	0.17970674
60	0xbefa5dad	-0.48899594
61	0x3bf2d2ab	0.0074103675
62	0xb92a25d6	-0.00016226558
63	0xbf784c7f	-0.96991724
64	0xbe9802e5	-0.29689708
65	0x3e281faa	0.16418329
66	0xbe6e8a82	-0.23295024
67	0xbe36933d	-0.17829604
68	0x3e0c6993	0.13712148
69	0x3e7098f2	0.23495844
70	0x3bbb7119	0.0057202694
71	0xbe229d14	-0.15880233
72	0xbe32bffa	-0.17456046
73	0xbc3033cf	-0.01075454
74	0xbd0b53c7	-0.034015443
75	0x3f8c88c9	1.0979244
76	0xbdc9f71b	-0.09861585
77	0x3f2b7629	0.66977173
78	0xbf07be05	-0.5302432
79	0x3b28b107	0.0025740282
80	0x3a814e52	0.000986526
81	0xbf481190	-0.781518
82	0xbe94ba69	-0.2904847
83	0x3e00a521	0.12562992
84	0xc01a7364	-2.413293
85	0x3b0c6eab	0.0021428268
86	0xbb91b678	-0.004446801
87	0x3e0feb3c	0.14054579
88	0xbef0aae2	-0.47005373
89	0x3ef415dd	0.4767293
90	0xbf2bb426	-0.6707176
91	0xb934560c	-0.00017198193
92	0x3a4b00c4	0.00077439495
93	0xbdbe31f9	-0.09286875
94	0xbedf1db2	-0.43577343
95	0xbdaf0d33	-0.085474394
96	0xbe85493d	-0.2603244
97	0x3e8fbf6c	0.2807573
98	0x3e231a6a	0.15928045
99	0x3ea5364c	0.32267988
100	0xbe9af002	-0.30261236
101	0xbeccc586	-0.39994448
102	0xbf809731	-1.004614
103	0xbc898d39	-0.016790973
104	0xbbbb6148	-0.005718384
105	0xbf619f9e	-0.8813418
106	0x3f377152	0.7165729
107	0x3f119125	0.568621
108	0xbc01c378	-0.007920139
109	0xbb4be27e	-0.0031110342
110	0xbb15dba1	-0.0022866505
111	0x40252a20	2.580696
112	0x3b985b8f	0.0046495865
113	0xbe00a51a	-0.12562981
114	0x3daf84db	0.08570262
115	0xbe9d1051	-0.3067651
116	0xbe5fad92	-0.21843556
117	0xbe447a9a	-0.19187394
118	0xbe6c8c84	-0.23100477
119	0x3d944263	0.07239225
120	0xbe19a239	-0.1500329
121	0xbb4f2284	-0.0031606266
122	0xb9df275c	-0.000425632
123	0xbf3469f1	-0.70474154
124	0x3f41a35e	0.75639904
125	0x3da35f30	0.0797714
126	0xbeb53de0	-0.3539877
127	0xbe87989c	-0.2648362
128	0x3e1e9a6a	0.15488592
129	0x3e1b1ec0	0.15148449
130	0xbe814011	-0.2524419
131	0xbe040541	-0.12892629
132	0xc02f766c	-2.741603
133	0x3ba845a4	0.005135255
134	0x3b19cb9e	0.0023467313
135	0xbed6082f	-0.4180312
136	0xbea68f5f	-0.32531258
137	0x3e61a5c8	0.22035897
138	0x3ea81cf2	0.32834584
139	0xbdb17505	-0.08664898
140	0xbd8781aa	-0.06616528
141	0x3e130ce4	0.14360386
142	0x3d7af21e	0.061266057
143	0xbe097f44	-0.13427454
144	0xbe911291	-0.28334478
145	0xbe136e5e	-0.1439757
146	0x3d868d3e	0.065699086
147	0xbdbd085f	-0.09230112
148	0x3f12676a	0.5718905
149	0x3d3a968e	0.045553736
150	0xbdd88c28	-0.10573608
151	0xbec7dd11	-0.39035848
152	0xbebf22e2	-0.373313
153	0x3e315638	0.17318046
154	0x3ea03410	0.3128972
155	0xbb034dee	-0.0020035463
156	0xc02e06eb	-2.7191722
157	0xbaedbee1	-0.0018138551
158	0x3997a480	0.00028923526
159	0xbf2f24d8	-0.68415594
160	0xbe22d776	-0.15902504
161	0x3e140dbd	0.14458366
162	0xc01f63d6	-2.4904685
163	0xbbc79de9	-0.0060918224
164	0x393490de	0.00017220105
165	0xbf19b9cb	-0.6004912
166	0xbe025733	-0.12728576
167	0xbf077b6b	-0.52922696
168	0x3f52555f	0.82161516
169	0xbb1c80b0	-0.0023880415
170	0x3a831631	0.001000112
171	0xbf994279	-1.1973411
172	0x3f23a3d0	0.63921833
173	0x3d8b6292	0.0680591
174	0xbe67dceb	-0.22642867
175	0xbcd8aba3	-0.02644903
176	0xbe940002	-0.28906256
177	0xbc9a6204	-0.018845566
178	0x3e695dc1	0.2278967
179	0xbe3be400	-0.18348694
180	0x3f51e125	0.8198417
181	0xbc36d8c2	-0.0111600775
182	0xbb1e38b2	-0.002414268
183	0x3f0aea50	0.5426378
184	0xbeb875c5	-0.3602735
185	0xbe883980	-0.2660637
186	0x3d84d634	0.064861685
187	0xbc418717	-0.011811993
188	0x3ba30ce4	0.004975902
189	0xbdd11ff6	-0.10211174
190	0x3e18002d	0.14843817
191	0x3fad134a	1.3521512
192	0x3ea0723d	0.31337157
193	0xbecc3ac4	-0.39888585
194	0x3d30353d	0.043019522
195	0xbc9f595a	-0.019451786
196	0x3de1e66c	0.110302776
197	0xbdcd06e4	-0.1001108
198	0x3dae6f9e	0.08517383
199	0xbe698acd	-0.22806855
200	0x3e1f71f1	0.15570809
201	0x3f300e5e	0.6877192
202	0x3af6523c	0.0018792818
203	0xbe6d95d9	-0.23201694
204	0xbf35ee35	-0.710666
205	0xbc7cb401	-0.015423776
206	0xbb90af26	-0.0044154106
207	0x3c005352	0.007832365
208	0xbc5cd31f	-0.01347807
209	0x3f954658	1.1662092
210	0x3a17717e	0.00057771045
211	0xbb79bbd9	-0.003810635
212	0xbac30ef4	-0.0014881776
213	0x3fd55af9	1.6668388
214	0x3eb66ceb	0.35629973
215	0xba003287	-0.00048903417
216	0x3e676ea5	0.22600801
217	0x3e0a1d5d	0.13487764
218	0x3d250f63	0.040297877
219	0xbdf27028	-0.11837798
220	0x3d81f38e	0.063452825
221	0x3cefcc34	0.029272176
222	0x3c7b3c91	0.015334264
223	0x3c021589	0.007939705
224	0xba36be92	-0.0006971146
225	0xbf417e21	-0.7558308
226	0x3d2fdd41	0.042935614
227	0x3f3e745e	0.7439631
228	0x3c6f4c9b	0.0146056665
229	0xbb8ec88f	-0.0043574045
230	0x3c13a854	0.0090123005
231	0xbe6afbd6	-0.2294763
232	0x3e85b5d0	0.26115274
233	0x3fc1f308	1.5152292
234	0x3f939a0a	1.1531384
235	0xbb329df8	-0.0027254801
236	0xba9dd166	-0.0012040555
237	0xbec6eb87	-0.38851568
238	0xbe08ce0d	-0.13359852
239	0xbf1fd2c7	-0.62430996
240	0xc0300f78	-2.7509441
241	0xbb363ed9	-0.0027808456
242	0xba3d53f7	-0.00072222896
243	0xbf614f13	-0.8801128
244	0xbea2b9dd	-0.31782427
245	0x3e6bf8b6	0.23044094
246	0xbbb9c192	-0.0056688273
247	0xbbf00f1a	-0.007326019
248	0xbb319b91	-0.0027100781
249	0x402203e5	2.5314877
250	0xbec81e9d	-0.39085856
251	0xbe458f11	-0.19292857
252	0xbf1c5240	-0.61063004
253	0x3b6364e2	0.0034697582
254	0xbc189cd0	-0.009314731
255	0x3e384a07	0.17996989

encoder.1.bias f4 [50]
0	0x3e7c1e4d	0.24620934
1	0xba63cb88	-0.00086896913
2	0xbc455e1f	-0.012046366
3	0xbe1fceeb	-0.15606277
4	0xbd9f0059	-0.07763738
5	0xbf048bbb	-0.5177571
6	0xbe0bfbcc	-0.13670272
7	0xbd275895	-0.040855963
8	0xbeb435ad	-0.351972
9	0xbeaa8a6d	-0.33308735
10	0x3e479711	0.19491221
11	0xbec95059	-0.39319113
12	0xbf73bb93	-0.9520809
13	0x3e6e8c8f	0.23295806
14	0x3c8e7d02	0.017393593
15	0x3eadf46a	0.33975536
16	0xbeb7dd25	-0.35910907
17	0x3c91b8ed	0.017788375
18	0xbaedf9e1	-0.0018156135
19	0xbe891f76	-0.26781815
20	0x3d9b0282	0.07568838
21	0xbe127b47	-0.14304839
22	0x3c31dc1c	0.010855701
23	0xbebcab65	-0.36849514
24	0xbd55e38e	-0.052218966
25	0xbe9d2307	-0.30690786
26	0x3caf53d9	0.021402286
27	0x3c8751a4	0.016518421
28	0xbed6904d	-0.41906968
29	0xbe77477a	-0.2414836
30	0xbee14961	-0.44001296
31	0xbe77baed	-0.241924
32	0xbed677f3	-0.4188839
33	0xbeb6a1eb	-0.3567041
34	0x3a4b24c3	0.00077493134
35	0xbadee057	-0.0017004114
36	0xbeb2f76f	-0.34954402
37	0xbcd96e50	-0.026541859
38	0xbeb8e1f3	-0.36109886
39	0xbf3568c0	-0.7086296
40	0x3ca32607	0.019915594
41	0xba96c2cf	-0.0011502149
42	0x3c313005	0.010814671
43	0xbef66445	-0.48123375
44	0xbf371f34	-0.7153199
45	0x3bd425be	0.006474226
46	0xbbae59c6	-0.0053207604
47	0x3ca0a74e	0.019611027
48	0xbe911fb1	-0.2834449
49	0xbabbe848	-0.0014336193

encoder.4.weight f4 [50, 50]
0	0x3d37b175	0.04484697
1	0xbec1bf25	-0.37841144
2	0xbe130ea3	-0.14361052
3	0xbd8ca32d	-0.06867061
4	0xbe7b098a	-0.24515358
5	0x3ddb0513	0.10694327
6	0xbc9362b9	-0.01799141
7	0x3d5483b4	0.051883414
8	0x3d9d09bd	0.07667873
9	0x3db59b91	0.088675626
10	0x3e2008c0	0.15628338
11	0x3bae263c	0.0053146165
12	0xbdc4884b	-0.09596308
13	0xbc0a8eba	-0.00845688
14	0x3e706b16	0.2347835
15	0xbd19ed6b	-0.037579935
16	0xbe0f8d06	-0.1401864
17	0x3ba96c49	0.0051703793
18	0xbec2dea6	-0.38060492
19	0xbdca92af	-0.09891259
20	0xbccde1e0	-0.02513212
21	0x3d04ff19	0.032469843
22	0x3e82a1ce	0.25514072
23	0xbccff7fa	-0.0253868
24	0xbc2cd718	-0.010549329
25	0xbd0df396	-0.03465613
26	0x3e0b3524	0.1359449
27	0x3e9cb7d0	0.30608988
28	0x3d3b07a7	0.045661595
29	0x3dce6694	0.10078159
30	0x3e0b080b	0.13577287
31	0xbdf8b3ba	-0.12143655
32	0x3d19b269	0.03752366
33	0x3d880798	0.066420734
34	0x3dc2afd9	0.095061965
35	0xbe9d82d8	-0.30763888
36	0xba459e91	-0.0007538582
37	0xbdb48965	-0.088152684
38	0xbc210b9f	-0.009829431
39	0x3e80f7c4	0.2518903
40	0x3e852c37	0.26010296
41	0xbead1539	-0.33805254
42	0xbd37ad48	-0.04484299
43	0xbd928e42	-0.0715604
44	0x3ef3b956	0.47602338
45	0xbc80059d	-0.015627677
46	0xbe98de36	-0.29857033
47	0xbc030c93	-0.007998603
48	0x3d8828f2	0.06648435
49	0xbdf2f0f5	-0.11862365
50	0xbcda2764	-0.026630111
51	0xbc6587a0	-0.014009386
52	0x3d3b3fac	0.04571502
53	0xbde2929b	-0.11063119
54	0xbcc10f89	-0.023566978
55	0x3e4b1200	0.19831085
56	0xbd938e77	-0.072049074
57	0xbb5e47d1	-0.0033917318
58	0xbd75846d	-0.059940744
59	0x3d9915ac	0.07474837
60	0xbd8661ac	-0.06561598
61	0xbdd998ba	-0.106248334
62	0xbde89b1e	-0.11357711
63	0x3e846eb4	0.2586571
64	0x3dfa78eb	0.122300945
65	0xbd0a483f	-0.033760305
66	0xbe0916ec	-0.1338765
67	0x3c86dca1	0.016462626
68	0xbb890051	-0.004180946
69	0x3c85eda1	0.016348662
70	0xbc5c9bcf	-0.013464882
71	0xbcfd68e8	-0.030933812
72	0x3e80eb66	0.25179595
73	0x3d5366ad	0.05161159
74	0x3cc6d6a3	0.024272269
75	0xbd9ca713	-0.076490544
76	0x3ec35746	0.38152522
77	0x3ec2ecaa	0.38071185
78	0xbcaeeeb1	-0.021354051
79	0x3e063d0b	0.13109224
80	0xbdb46af3	-0.088094614
81	0xbe1a5dc1	-0.15074827
82	0x3cdd9a71	0.027051182
83	0x3d0cf80c	0.034416243
84	0x3e1fdd2f	0.15611719
85	0xbdc24d23	-0.09487369
86	0x3dc3381e	0.09532188
87	0xbb1443d6	-0.0022623441
88	0xbe1ab82f	-0.15109323
89	0x3ebb438a	0.36574966
90	0x3e9abd34	0.30222476
91	0xbc3aaedc	-0.011394229
92	0xbde05976	-0.10954563
93	0xbdc3e05d	-0.09564278
94	0x3e8204a7	0.25394174
95	0x3e0cf017	0.13763462
96	0xbe00e4f2	-0.12587336
97	0xbdb8a43e	-0.09015702
98	0xbd0fe5b7	-0.035131183
99	0x3d27c374	0.040957883
100	0x3cc8c8d8	0.024509832
101	0xbee41e6f	-0.4455447
102	0x3da973b5	0.082740225
103	0x3db27bda	0.08715029
104	0xbd24bf4f	-0.04022151
105	0x3cac64f7	0.021044238
106	0xbd2f7b27	-0.042842057
107	0x3be201fa	0.0068972083
108	0xbe3e230c	-0.18568057
109	0x3e0fe80b	0.14053361
110	0x3d30e85a	0.043190338
111	0x3e09a6d7	0.1344255
112	0x3e0240b7	0.12719999
113	0x3d732751	0.059363667
114	0xbe7a5cbc	-0.24449438
115	0x3cb4a061	0.02204913
116	0xbd59d441	-0.053180937
117	0xbd0f81e8	-0.035035998
118	0xbeb27a57	-0.34858963
119	0x3da14c85	0.07875923
120	0x3e7581c1	0.23975278
121	0xbde108ba	-0.109879926
122	0xbe75a2fe	-0.23987958
123	0x3d2c5687	0.042074706
124	0xbc8c11d5	-0.017098347
125	0x3d854622	0.065075174
126	0x3d01c6f0	0.031683862
127	0xbd5dc1d2	-0.05413992
128	0xbe536048	-0.20642197
129	0xbd2782d0	-0.040896237
130	0xbe9e8482	-0.3096047
131	0x3df12234	0.11774102
132	0x3dc8cd37	0.098047666
133	0xbe0986a5	-0.13430269
134	0x3d648a76	0.05579611
135	0xbd6150a3	-0.05500854
136	0x3ddd6a48	0.10811287
137	0x3da1f486	0.07907967
138	0x3d4ca3d2	0.04996092
139	0xbe7f463c	-0.24929136
140	0xbd39432e	-0.045230083
141	0xbe4a96eb	-0.19784133
142	0xbdf9a417	-0.12189501
143	0xbbc7af4e	-0.006093896
144	0xbe2b5949	-0.16733278
145	0x3dd33b0f	0.10313999
146	0xbc8265d8	-0.015917704
147	0xbdd4ea82	-0.10396291
148	0xbdd18a34	-0.10231438
149	0xbe395f32	-0.1810272
150	0xbe899650	-0.26872492
151	0xbe6fa994	-0.23404533
152	0xbccee6d4	-0.025256552
153	0xbd9aba71	-0.07555092
154	0xbd8b1a13	-0.06792083
155	0x3e624369	0.22096027
156	0x3dffc301	0.12488366
157	0x3d689196	0.056779467
158	0x3d567102	0.052353866
159	0xbde96a89	-0.11397273
160	0xbdc44918	-0.09584254
161	0xbdf616b6	-0.120160505
162	0x3dd250e0	0.10269332
163	0xbe64da10	-0.22348809
164	0x3cc149f6	0.023594838
165	0xbe585233	-0.21125107
166	0xbdc85951	-0.09782661
167	0xbe90b780	-0.28265
168	0xbe68afdc	-0.22723335
169	0xbd84690e	-0.0646535
170	0xbeb103ad	-0.34573117
171	0x3dcce07d	0.10003755
172	0xbd8af47e	-0.067849144
173	0xbc8a20da	-0.016861368
174	0xbd4f5d2e	-0.050625972
175	0x3d708eec	0.05873005
176	0xbd80034e	-0.0625063
177	0xbc8cdd67	-0.017195417
178	0x3d0886e7	0.033331778
179	0x3dc7dd13	0.097589634
180	0x3e01d8bc	0.12680334
181	0xbdf743d0	-0.12073481
182	0xbd11b0b1	-0.035568897
183	0xbde5beb8	-0.11218017
184	0x3d6b1f71	0.05740303
185	0xbe81c3ce	-0.253447
186	0x3cafdddc	0.021468095
187	0xbea1781c	-0.3153695
188	0xbb9f9708	-0.0048702992
189	0x3e9ae3eb	0.30252013
190	0xbdbe5f30	-0.09295499
191	0xbe620db3	-0.22075538
192	0xbe3f7233	-0.18695907
193	0x3e06085f	0.13089131
194	0x3ee4ac37	0.4466264
195	0xbd7af8ef	-0.061272558
196	0xbe9e39b9	-0.30903414
197	0x3d7a6f76	0.061141454
198	0x3dd46bc4	0.10372117
199	0xbdfb520a	-0.12271507
200	0x3d441f09	0.04788116
201	0xbe45d94e	-0.19321176
202	0x3b9f8dd9	0.0048692045
203	0x3ef478cb	0.47748408
204	0xbdf562f0	-0.119817615
205	0x3ebb6d4f	0.36606833
206	0xbd938b77	-0.07204335
207	0x3e1e4506	0.15456018
208	0xbb8a11b7	-0.0042135376
209	0xbdc0e635	-0.094189085
210	0xbcf40a62	-0.029790107
211	0x3de44eda	0.11147852
212	0xbcd5216f	-0.026016919
213	0xbc9223a1	-0.017839255
214	0x3cecdc6c	0.0289137
215	0xbc52bd7d	-0.01286256
216	0xbdeff66d	-0.11716924
217	0xbc0fb1c2	-0.008770408
218	0xbe7822aa	-0.24231973
219	0x3d09e286	0.033663295
220	0x3bbafe66	0.005706596
221	0xbd2e3cf8	-0.042538613
222	0xbd72c08c	-0.05926566
223	0x3dab09e7	0.08351498
224	0x3d3af3d2	0.04564268
225	0x3d8745a0	0.06605077
226	0x3dc1d41b	0.09464284
227	0x3dc3cbcf	0.09560358
228	0xbc4d91fc	-0.012547012
229	0x3d677b38	0.056513995
230	0xbd306a5b	-0.04307018
231	0x3ee70c7c	0.45126712
232	0xbd5dcaee	-0.054148607
233	0x3ddcba79	0.10777754
234	0x3eafe25b	0.34352383
235	0x3d4f2efa	0.05058191
236	0xbe09d88e	-0.13461515
237	0xbd8e732a	-0.069555596
238	0x3ee31450	0.44351435
239	0x3e4d133f	0.20026873
240	0xbc358159	-0.011078202
241	0xbe82791d	-0.25483027
242	0xbc9fdd68	-0.019514754
243	0x3dcb5e18	0.09930056
244	0xbda525c5	-0.080638446
245	0x3d4f64c9	0.050633226
246	0x3c454d42	0.0120423455
247	0xbde112ba	-0.109899
248	0xbd9c500c	-0.07632455
249	0x3e143fbf	0.14477442
250	0xbce62cc0	-0.02809751
251	0xbd514dd1	-0.051099602
252	0x3c47fb30	0.012205884
253	0x3e67d034	0.22638017
254	0x3d01fad3	0.031733345
255	0x3e8e4b49	0.27791813

encoder.4.bias f4 [50]
0	0xba943363	-0.0011306818
1	0xbc8afa65	-0.0169651
2	0x3b4d8079	0.0031357093
3	0x3c24b25f	0.010052293
4	0xbabe7659	-0.001453112
5	0xbb090ed4	-0.002091338
6	0xbf3797d4	-0.71716046
7	0xbb78e412	-0.0037977737
8	0xbebfdb2c	-0.37471902
9	0xbc3797fa	-0.011205668
10	0xbbd1a655	-0.006398002
11	0x3c6b178f	0.0143488785
12	0xbac20ef0	-0.0014805477
13	0xbba0713e	-0.004896312
14	0xbeafe87a	-0.34357053
15	0xbd28a74c	-0.04117517
16	0x3b99a754	0.0046891365
17	0xbb93ea64	-0.0045140255
18	0xbc56a00a	-0.01309968
19	0xbf2ccbec	-0.6749866
20	0xbe051b2c	-0.12998646
21	0xbc38a21f	-0.011269121
22	0xbe8e3b80	-0.2777977
23	0xbb922d1b	-0.0044609434
24	0xbb7a0e64	-0.003815555
25	0xbb911cc3	-0.0044284775
26	0xbc040c12	-0.008059518
27	0xbc0f4feb	-0.008747081
28	0x3bfca6f1	0.0077103307
29	0xbbaa1eb3	-0.005191648
30	0xbb99aa2e	-0.0046894765
31	0xbcceb25e	-0.025231536
32	0x3c5b1f1e	0.013374118
33	0xbe1c3d8e	-0.15257856
34	0xbe96cca5	-0.29453006
35	0xbe3dba90	-0.18528199
36	0xbebd176e	-0.36931938
37	0xbd4fa229	-0.050691757
38	0xbf29c147	-0.6631054
39	0xbb173616	-0.002307301
40	0x3be537ac	0.006995162
41	0xbe57fc77	-0.21092401
42	0xbc930bc3	-0.017949944
43	0xbe151cbd	-0.14561744
44	0xbe37e734	-0.1795929
45	0x3c37ac2f	0.011210485
46	0xbeddaf73	-0.4329792
47	0xbca08dd0	-0.019598871
48	0xbb186778	-0.0023255032
49	0x3c1eceb2	0.009692835

encoder.7.weight f4 [20, 50]
0	0x3e336688	0.17519581
1	0x3e5c633c	0.2152223
2	0x3c9cfab4	0.019162513
3	0xbea1eeae	-0.3162741
4	0x3d21e3f8	0.03952405
5	0x3d29a3de	0.04141604
6	0xbda3834c	-0.07984027
7	0x3f5eb944	0.8700144
8	0xbd57bc32	-0.05266971
9	0x3ef460de	0.47730154
10	0x3d24d0e6	0.040238284
11	0xbea68c98	-0.3252914
12	0xbed680de	-0.41895193
13	0xbe6b559c	-0.22981876
14	0xbe055e27	-0.13024198
15	0x3ebc2e48	0.3675406
16	0x3cb7c41a	0.022432376
17	0x3f17681e	0.59143245
18	0xbe80611c	-0.2507409
19	0xbd3af2c1	-0.045641664
20	0xbd9900a3	-0.074708246
21	0x3ef03af4	0.46919978
22	0xbe19d611	-0.15023066
23	0x3f3112a4	0.6916907
24	0xbd8f790e	-0.07005511
25	0x3f40987e	0.75232685
26	0x3f10c085	0.5654376
27	0x3f42d2ef	0.7610311
28	0xbe871b23	-0.2638789
29	0x3c84ef1b	0.016227296
30	0xbe91bc69	-0.28464058
31	0x3f0dc455	0.55377704
32	0xbe0558f2	-0.13022211
33	0xbc1ecb74	-0.009692062
34	0xbdacc3ce	-0.08435784
35	0xbd6352e7	-0.055498984
36	0xbd600d05	-0.054699916
37	0x3c7d23ac	0.015450399
38	0x3dc5b7a8	0.0965417
39	0xbe9da6b1	-0.30791238
40	0xbe529ed1	-0.20568396
41	0xbdc340bc	-0.095338315
42	0x3e0f6b2b	0.14005725
43	0x3e547023	0.20745902
44	0x3e04498d	0.12918682
45	0xbeb90d0c	-0.36142766
46	0xbdba9ae9	-0.09111578
47	0x3e0da515	0.13832505
48	0xbeb76bf0	-0.35824537
49	0xbeac02f2	-0.33595997
50	0x3bd753d5	0.006571273
51	0x3cb41695	0.021983424
52	0xbbf77375	-0.0075516053
53	0x3c876351	0.01652685
54	0x3e8cfa01	0.27534488
55	0x3eb101db	0.34571728
56	0x3c29886a	0.010347465
57	0x3e7ee397	0.24891506
58	0x3e879a47	0.26484892
59	0x3eb20b72	0.34774357
60	0x3eb11656	0.34587353
61	0x3c878360	0.016542137
62	0xba57c78e	-0.0008231335
63	0xbba6b437	-0.0050874013
64	0x3e91b559	0.2845867
65	0x3d04b101	0.032395367
66	0xbd0ba47d	-0.034092415
67	0x3e91785c	0.2841214
68	0xbbce3c72	-0.0062938267
69	0x3e142c45	0.14470012
70	0x3dcfd1c9	0.10147435
71	0x3dd85c48	0.10564476
72	0xbbe657b1	-0.0070294966
73	0x3ea2856d	0.3174242
74	0x3c83b89a	0.016079236
75	0x3dab6c24	0.083702356
76	0x3e7170c3	0.23578171
77	0x3e176cf2	0.14787653
78	0x3be2f11d	0.0069257156
79	0x3ed35815	0.4127814
80	0xbb611c91	-0.0034349302
81	0x3cc334a6	0.023828816
82	0x3b99952a	0.004686971
83	0xbd569864	-0.052391425
84	0x3eaa0a1b	0.33210835
85	0xbd3c9394	-0.04603918
86	0x3e8627d8	0.26202273
87	0x3bae3d29	0.0053173495
88	0x3e3356d1	0.17513587
89	0xbb579934	-0.0032897713
90	0x3c9b6e63	0.018973535
91	0x3e15f660	0.14644766
92	0x3c1ff3e2	0.009762736
93	0x3eb4b365	0.35293117
94	0xbd098169	-0.03357068
95	0x3b800106	0.003906372
96	0x3e9beaf0	0.3045268
97	0x3cbfcd26	0.023413252
98	0xbbdddff2	-0.006771081
99	0x3bf13280	0.0073607564
100	0x3f0a2464	0.5396178
101	0x3e8f9366	0.28042144
102	0xbecc07b4	-0.39849627
103	0x3ebe733a	0.37197286
104	0xbe0c6551	-0.13710524
105	0xbe8fe3dc	-0.2810353
106	0xbe7b1f83	-0.2452374
107	0xbdb8d6c8	-0.09025341
108	0xbe47b748	-0.1950351
109	0xbe8ed4de	-0.2789678
110	0xbebe03ca	-0.37112266
111	0xbb403952	-0.002933104
112	0x3b773004	0.0037717829
113	0xbdaf269f	-0.08552288
114	0x3c5f35dd	0.013623682
115	0xbe70e252	-0.23523834
116	0xbe99c9dd	-0.30036822
117	0xbe2fa68e	-0.1715338
118	0x3d6604d5	0.056156952
119	0xbe27c5fb	-0.16384117
120	0xbe979332	-0.2960449
121	0xbda98dd0	-0.08279002
122	0xbf1314fa	-0.5745388
123	0xbe29c780	-0.1658001
124	0xbdb6a1df	-0.08917593
125	0xbd68afc4	-0.05680825
126	0xbd217efa	-0.039427735
127	0xbe2dae76	-0.16961083
128	0x3ebaba4a	0.36470252
129	0xbe1308db	-0.14358847
130	0x3c8267c1	0.015918614
131	0xbe02143f	-0.12703036
132	0x3e212cf7	0.15739809
133	0x3de526ab	0.11189016
134	0xbe7914ca	-0.24324337
135	0x3ca9eab4	0.020741798
136	0xbeb4338e	-0.35195583
137	0x3da6f8e7	0.08152943
138	0xbe59fcaa	-0.2128779
139	0x3c997951	0.018734606
140	0x3ee28657	0.44243118
141	0x3d1a1dcc	0.037626073
142	0xbe9aa643	-0.30204973
143	0xbf002172	-0.50051033
144	0x3e0236e6	0.12716255
145	0x3e04f96d	0.12985773
146	0xbb20b33c	-0.0024520895
147	0x3f0e344d	0.55548555
148	0x3c7c3594	0.015393633
149	0x3e92fd06	0.28708667
150	0x3cc812f8	0.024423108
151	0x3d9c1443	0.07621052
152	0xbe01832a	-0.12647691
153	0x3c00c378	0.007859103
154	0x3a841924	0.0010078293
155	0xbbdde4f6	-0.006771679
156	0xbd8e4365	-0.06946448
157	0x3e1e3736	0.15450749
158	0xbe2cc0c0	-0.16870403
159	0x3f047103	0.5173494
160	0x3cb12f0a	0.021628875
161	0xbbcb43f8	-0.006203171
162	0x3e66e69f	0.22548912
163	0x3e8f10d4	0.27942526
164	0x3d2272fa	0.03966043
165	0xbd790346	-0.060794137
166	0xbdb1f93c	-0.08690116
167	0x3e4dea62	0.20108941
168	0x3ea4fb47	0.3222296
169	0xbe597d49	-0.21239199
170	0x3bee8b0c	0.0072797593
171	0x3e58b3de	0.21162364
172	0x3ea739db	0.32661328
173	0x3e5b163d	0.21395202
174	0x3e582d0d	0.21110936
175	0x3e8e157f	0.27750775
176	0x3eb4169e	0.35173506
177	0x3e6762c6	0.22596273
178	0x3c1d41ea	0.009598235
179	0x3b9ca8c9	0.004780863
180	0x3eb5b74b	0.35491404
181	0x3d2b0ea3	0.041762006
182	0x3c578981	0.013155342
183	0x3ced5548	0.02897133
184	0x3ea28c18	0.31747508
185	0xbd8c581b	-0.06852742
186	0xbd45d3da	-0.04829774
187	0x3ef0d406	0.4703676
188	0xbd8d7eab	-0.069089256
189	0x3e23b16c	0.1598565
190	0x3b8f51de	0.004373773
191	0xbd43fd84	-0.047849193
192	0x3ceff6f7	0.029292567
193	0x3edea717	0.43486854
194	0x3e06e42d	0.1317298
195	0x3c44888f	0.011995449
196	0xbdb63bf5	-0.08898155
197	0x3ce5c10e	0.028046157
198	0x3e0d4937	0.1379746
199	0x3c339ce7	0.010962701
200	0xbea048ff	-0.31305692
201	0x3d0a97b0	0.033836067
202	0xbe02730e	-0.12739202
203	0xbe902eac	-0.28160608
204	0xbbc59996	-0.0060302718
205	0xbdbc11cd	-0.09183083
206	0xbe0f0753	-0.13967638
207	0xbd75a578	-0.059972256
208	0xbe80e5ad	-0.2517523
209	0x3d457448	0.048206598
210	0x3ccdc9d9	0.025120663
211	0xbb7192f4	-0.0036861273
212	0x3e8654fd	0.26236716
213	0x3eab4216	0.33448857
214	0x3b4254eb	0.0029652666
215	0xbe4ca5a2	-0.19985059
216	0xbe0f610e	-0.14001867
217	0xbd07bad1	-0.033137146
218	0x3e4cbdc9	0.19994272
219	0xbe6daec7	-0.23211204
220	0xbb71a423	-0.0036871515
221	0xbe38b654	-0.18038303
222	0x3ed34853	0.41266116
223	0xbca22557	-0.019793196
224	0x3ece8961	0.40339187
225	0xbd28ca69	-0.04120866
226	0xbcab257e	-0.020891901
227	0x3af5908e	0.0018735097
228	0xbde45996	-0.111499
229	0x3cec5757	0.02885024
230	0x3e484c52	0.19560364
231	0xbdf6f27f	-0.12057971
232	0xbdaf255b	-0.08552047
233	0xbd662d38	-0.056195468
234	0x3d996083	0.07489111
235	0xbd1150af	-0.035477336
236	0xbdcd85d6	-0.10035293
237	0x3ebfcd39	0.3746126
238	0xbd830406	-0.06397252
239	0x3e886b91	0.26644567
240	0xbe3e8364	-0.18604809
241	0x3e076eb5	0.13225825
242	0x3e61b7f0	0.22042823
243	0x3e71d9a2	0.23618177
244	0x3d674fd1	0.056472603
245	0xbdf096c4	-0.11747506
246	0x3d5258d3	0.05135424
247	0xbe8e277d	-0.27764502
248	0x3e9a70b6	0.30164117
249	0xbe38756d	-0.18013544
250	0xbe96490d	-0.29352608
251	0xbe9df02d	-0.30847302
252	0x3e125b76	0.14292702
253	0xbe9b5ddc	-0.30345047
254	0x3eeb131d	0.4591302
255	0x3ea76579	0.32694605

encoder.7.bias f4 [20]
0	0x3b458012	0.003013615
1	0xbb9d2376	-0.004795487
2	0xbbe001cb	-0.0068361512
3	0xb8c64ec0	-9.456044e-05
4	0xb94a5341	-0.00019295236
5	0x3bb334f4	0.005468959
6	0xbe98ca7e	-0.2984199
7	0xbfa370be	-1.2768781
8	0x3bc2e241	0.0059473817
9	0xbbd69de7	-0.006549585
10	0xbe558760	-0.20852423
11	0x3b82bc6a	0.003989746
12	0xbed99369	-0.42495278
13	0x3a9550a4	0.0011391831
14	0xbb88da01	-0.0041763787
15	0xba00f6b8	-0.00049195765
16	0xbad67f5b	-0.0016364859
17	0x3b38dd5b	0.002820811
18	0xbb5f8e18	-0.0034111794
19	0xbf0d2093	-0.5512783

encoder.10.weight f4 [4, 20]
0	0x3f6852cf	0.90751356
1	0x3e43663d	0.1908197
2	0xbf4f08fb	-0.8087308
3	0xbe90777d	-0.28216162
4	0xbeea29b0	-0.4573493
5	0x3eb40be1	0.35165313
6	0x3f3b81c3	0.73244876
7	0x3fb441c9	1.4082576
8	0x3f4cabe4	0.79949784
9	0xbf1773bf	-0.5916099
10	0xbe34ec5f	-0.17668293
11	0x3e94ca56	0.2906062
12	0x3ed8f779	0.42376307
13	0x3f88eb62	1.0696833
14	0xbeedfc2f	-0.46481463
15	0x3f8a86b0	1.0822353
16	0xbe7d1592	-0.2471526
17	0xbe95c6c9	-0.29253224
18	0xbec5cc06	-0.3863222
19	0x3f7e533c	0.99345756
20	0xbef806dd	-0.48442736
21	0xbf4387f4	-0.76379323
22	0xbf3292b8	-0.69755125
23	0x3d4ad3e3	0.049518477
24	0x3f4a86d0	0.7911196
25	0xbf0afc15	-0.54290897
26	0xbe0e1753	-0.13876085
27	0x3f134b9b	0.5753724
28	0xbedd88f9	-0.43268564
29	0xbf0441b9	-0.51662785
30	0xbddf684a	-0.109085634
31	0xbf16bbf8	-0.5888057
32	0xbded33c7	-0.11582141
33	0xbf053505	-0.52034026
34	0x3f525e3f	0.8217506
35	0xbf0cfbf2	-0.5507194
36	0xbdf1c394	-0.11804882
37	0x3ea4cd26	0.32187766
38	0x3f16a4cc	0.5884521
39	0xbc58392f	-0.013197227
40	0xbf5f010a	-0.8711096
41	0x3e1a3edd	0.15063043
42	0x3f09c9db	0.5382363
43	0xbd9da495	-0.07697407
44	0x3f1d6168	0.61476755
45	0x3f254b97	0.64568466
46	0x3e82f590	0.25577974
47	0xbd2bd508	-0.04195121
48	0xbf49c6d4	-0.7881901
49	0x3ee54efb	0.4478682
50	0xbe43117f	-0.19049643
51	0x3f04b98c	0.5184562
52	0x3ee35914	0.444039
53	0xbf7ef4d8	-0.9959235
54	0x3f211e24	0.62936616
55	0xbf827cf0	-1.0194378
56	0xbe1dab36	-0.15397343
57	0x3e33eab1	0.17569996
58	0x3ed40d6f	0.414165
59	0xbce7b9a5	-0.028286764
60	0x3f1fdfc2	0.624508
61	0xbe66912d	-0.22516318
62	0x3f142421	0.5786763
63	0xbf075f88	-0.52880144
64	0xbee61921	-0.44941047
65	0x3c954ea6	0.018225979
66	0xbe3e1caa	-0.18565622
67	0xbef98b33	-0.48739013
68	0x3f0249eb	0.5089404
69	0x3ec7d3a8	0.39028668
70	0xbe151356	-0.14558157
71	0xbd615a6b	-0.05501787
72	0xbecb9f54	-0.39769995
73	0x3f421882	0.75818646
74	0xbee5ca9f	-0.4488115
75	0x3f3f9546	0.7483715
76	0xbf05562e	-0.52084625
77	0xbece6bc2	-0.40316588
78	0xbedcacd8	-0.4310062
79	0xbe9e466d	-0.30913106

encoder.10.bias f4 [4]
0	0xbe98634a	-0.29763252
1	0xbe9d6ea5	-0.30748478
2	0x3ea7e35c	0.3279065
3	0x3eac6d10	0.33676958

decoder.0.weight f4 [20, 4]
0	0xbe6c7611	-0.23091914
1	0x3f2933eb	0.66094846
2	0x3f574c53	0.84100837
3	0x3fdcf2e5	1.7261626
4	0x3f1df081	0.61695105
5	0xbea8b1a3	-0.32948026
6	0xbf273c31	-0.6532622
7	0x3f1ffd34	0.6249573
8	0xbea49492	-0.321446
9	0x3ccbbac5	0.024869332
10	0x3f7045b3	0.9385635
11	0x3ef89eb6	0.48558587
12	0xbcf61d51	-0.030043276
13	0xbf874816	-1.0568874
14	0xbf70daa7	-0.94083637
15	0x3f4a6207	0.7905583
16	0x3d88b473	0.06675043
17	0x3ec0ffbf	0.3769512
18	0x3f14e275	0.58158046
19	0x3f6dbd7d	0.9286726
20	0x3f2e4c1c	0.68084884
21	0xbf21aad2	-0.63151276
22	0x3ecbef52	0.39831024
23	0xbf7d708b	-0.9899985
24	0x3fb514a1	1.414692
25	0xbe08c615	-0.13356812
26	0x3f1dd3e5	0.6165145
27	0xbf50fc28	-0.8163476
28	0x3ee77afa	0.4521101
29	0xbeeb7e47	-0.4599478
30	0xbf0d4471	-0.5518256
31	0xbf017198	-0.50563955
32	0xbe1203ba	-0.14259234
33	0x3f3fd9c8	0.7494168
34	0xbee64ec8	-0.4498198
35	0xbf219abe	-0.6312674
36	0x3e8261cd	0.2546524
37	0x3f205b42	0.6263925
38	0x3e62036a	0.22071615
39	0xbefd6656	-0.4949214
40	0xbe28d631	-0.16487958
41	0x3e7fc7b9	0.24978532
42	0x3ec74187	0.3891718
43	0xbe4505c4	-0.1924048
44	0xbfe46fea	-1.7846653
45	0x3f54a51b	0.8306443
46	0xbf60b59f	-0.8777713
47	0x3f54b249	0.8308454
48	0x3d2d547c	0.0423169
49	0xbf880cbf	-1.062889
50	0xbf07cae3	-0.53043956
51	0x3ecdd300	0.40200043
52	0x3f00ef2b	0.5036494
53	0x3edd9f84	0.43285763
54	0x3de732cc	0.112889856
55	0x3c8bc234	0.017060377
56	0x3c0663d3	0.008202511
57	0xbeb8fbf5	-0.36129728
58	0xbee0816e	-0.43848747
59	0xbe3881a9	-0.18018211
60	0x3f027ef7	0.5097498
61	0xbf125757	-0.5716452
62	0x3f247efc	0.6425626
63	0xbf1dadd5	-0.6159337
64	0xbf9349bf	-1.150688
65	0xbe826f51	-0.25475553
66	0x3e88fc68	0.2675507
67	0xbf152850	-0.58264637
68	0xbf9c2023	-1.2197307
69	0xbeb45c8b	-0.35226855
70	0x3f277330	0.6541014
71	0xbd4e2067	-0.05032387
72	0xbf0a758f	-0.5408563
73	0x3f361e20	0.7113972
74	0xbcf4985e	-0.02985781
75	0xbd969363	-0.073523305
76	0x3e8612a5	0.261861
77	0xbebf62fe	-0.37380213
78	0xbd1692bf	-0.03676104
79	0xbec089ea	-0.3760522

decoder.0.bias f4 [20]
0	0xbf3440cb	-0.70411366
1	0x3e0e99e6	0.13925895
2	0xbeac51dc	-0.33656204
3	0x3d5b2564	0.053502455
4	0xbe6ea29d	-0.2330422
5	0x3e42626c	0.18982857
6	0x3dfaa8d9	0.122392364
7	0x3e9624eb	0.2932504
8	0xbdca92ac	-0.09891257
9	0x3f01286f	0.5045232
10	0x3e2a9be5	0.16661032
11	0xbe4a97e8	-0.1978451
12	0xbdaf8656	-0.085705444
13	0xbed3d777	-0.41375324
14	0xbef32b8f	-0.4749417
15	0xbcfeb99f	-0.03109437
16	0xbe8d5232	-0.27601773
17	0xbeb621be	-0.35572618
18	0x3e7f1288	0.24909413
19	0x3e1c4c22	0.15263417

decoder.2.weight f4 [50, 20]
0	0x3eb9c2aa	0.3628133
1	0xbeeb3473	-0.45938453
2	0xbe45198b	-0.19248025
3	0xbea98ec2	-0.33116728
4	0xb9a884b5	-0.00032142331
5	0x3e2d4cf5	0.16923888
6	0x3d82ab00	0.06380272
7	0x3e310ae2	0.17289308
8	0x3e4ce398	0.20008695
9	0x3e376bdf	0.17912243
10	0x3ce79ee7	0.028274013
11	0x3d5a3521	0.053273324
12	0xbe715231	-0.2356651
13	0x3db061c8	0.086124
14	0x3e5c85d5	0.21535428
15	0x3ec9c7b5	0.39410177
16	0x3e0948e2	0.13406709
17	0x3e3ff843	0.18747048
18	0x3d94a803	0.07258608
19	0xbde492b1	-0.11160792
20	0xbe13a281	-0.14417459
21	0xbd7739c1	-0.060357813
22	0xbbac6f24	-0.0052622724
23	0x3da58f95	0.08084027
24	0xbe11920e	-0.14215872
25	0xbe20011f	-0.15625428
26	0x3e6d9feb	0.23205535
27	0x3b966a00	0.004590273
28	0xbe57529c	-0.21027607
29	0xbe1f2e8e	-0.15545103
30	0x3dc11291	0.094273694
31	0x3d809dc7	0.06280094
32	0x3df23c8c	0.11827955
33	0xbe1bb391	-0.15205218
34	0xbdb0565f	-0.08610224
35	0x3d87a3c7	0.06623035
36	0x3c987cce	0.018614199
37	0x3e605aad	0.2190959
38	0xbe63dbbd	-0.22251792
39	0x3e231565	0.1592613
40	0xbe06abc6	-0.13151464
41	0x3e472e4c	0.19451255
42	0x3e361e49	0.1778499
43	0xbc57d4c4	-0.013173286
44	0xbb2256bc	-0.0024770936
45	0x3e3b0bf5	0.1826628
46	0x3e1b37c8	0.15157998
47	0xbd188ac7	-0.037241723
48	0xbdeaa7c7	-0.11457782
49	0x3e0fb815	0.14035065
50	0xbd529369	-0.051410113
51	0xbd1b519d	-0.03791963
52	0x3e0c272f	0.13686822
53	0x3d4b467d	0.04962777
54	0xbda04dbf	-0.07827329
55	0x3e4cea99	0.20011367
56	0x3c1d93aa	0.009617725
57	0xbdf67298	-0.12033576
58	0xbd8a9621	-0.06766916
59	0x3d6d96d9	0.058005188
60	0xbdd1ef22	-0.10250689
61	0x3df752a0	0.12076306
62	0xbd83192b	-0.06401285
63	0xbdae43a7	-0.085089974
64	0xbe6fb953	-0.2341054
65	0xbd05f390	-0.032702982
66	0x3e2fe708	0.17177975
67	0x3e7803f2	0.24220255
68	0x3c709560	0.014684051
69	0x3cfe15aa	0.03101619
70	0xbcdc81c7	-0.026917351
71	0x3e288b24	0.16459328
72	0x3d0474f4	0.032338098
73	0xbda7b56b	-0.081888996
74	0xbe611a0e	-0.21982595
75	0x3d757cad	0.059933353
76	0x3defdb46	0.11711745
77	0x3cbb9d23	0.022902077
78	0x3daeb053	0.08529725
79	0xbda4d322	-0.08048083
80	0xbef76f82	-0.4832726
81	0xbe9d9b0a	-0.30782348
82	0x3e2af4a2	0.16694883
83	0x3dbfb647	0.093609385
84	0xbe795b2e	-0.24351189
85	0xbce0d9c4	-0.027447589
86	0x3ea3932d	0.31948224
87	0xbe54d7f5	-0.20785506
88	0xbda05175	-0.07828037
89	0xbe609861	-0.21933128
90	0xbde7efab	-0.1132501
91	0x3e5b3804	0.21408087
92	0x3e8c8d19	0.274514
93	0xbe0a8a08	-0.13529217
94	0xbdcd2c0d	-0.10018168
95	0x3ea9d7ed	0.3317255
96	0x3e6aa861	0.22915794
97	0x3e3a6595	0.18202813
98	0x3e25f056	0.16204962
99	0x3e15d031	0.146302
100	0x3e1e88a2	0.15481809
101	0x3e8f3faf	0.27978274
102	0x3e858df2	0.26084858
103	0xbe16f284	-0.1474095
104	0x3e8f5147	0.27991697
105	0x3ea46914	0.32111418
106	0x3e702681	0.23452188
107	0xbf047431	-0.51739794
108	0x3e227ff5	0.15869124
109	0x3e4c1f9a	0.1993393
110	0xbdfeb9f9	-0.12437815
111	0xbe92133a	-0.28530294
112	0xbddc977e	-0.10771082
113	0xbe3397f9	-0.17538442
114	0x3e043c38	0.12913597
115	0x3e235f8b	0.15954416
116	0x3c1839b1	0.009291098
117	0xbed56f38	-0.41686416
118	0x3d71d451	0.05904037
119	0x3c5fa775	0.013650765
120	0x3e54bb3c	0.20774549
121	0xbe4ecbf9	-0.20194997
122	0x3d3be6df	0.045874473
123	0xbd12dd32	-0.03585548
124	0x3dfb55f1	0.122722514
125	0x3e53eb4a	0.20695224
126	0x3c58854b	0.013215373
127	0xbdbcccba	-0.09218736
128	0xbde16674	-0.110058695
129	0x3e62d5e7	0.2215191
130	0xbd549149	-0.051896367
131	0x3e074bfe	0.13212582
132	0xbdc84c04	-0.09780124
133	0xbe635c75	-0.22203238
134	0xbe5382ca	-0.20655361
135	0x3e0a4145	0.13501461
136	0xbe538859	-0.20657481
137	0xbd32d49e	-0.0436598
138	0xbc607e24	-0.013701949
139	0xbdf7b89e	-0.1209576
140	0xbdfd792c	-0.12376627
141	0xbda61db3	-0.081111334
142	0xbde5d7aa	-0.11222775
143	0xbd0de2be	-0.034640066
144	0xbe2256a1	-0.15853359
145	0x3b118750	0.0022205897
146	0x3e87ae5d	0.26500216
147	0x3d49609d	0.049164403
148	0x3e153ca7	0.14573918
149	0x3e289f26	0.1646696
150	0xbd656d25	-0.05601229
151	0x3e195640	0.14974308
152	0x3d878a25	0.06618146
153	0xbe28562c	-0.16439122
154	0xbe138eb2	-0.14409903
155	0xbc675fb1	-0.014121936
156	0x3de5f1f0	0.112277865
157	0x3d98c1f1	0.074588664
158	0xbe86f4a7	-0.2635853
159	0xbcbd6a27	-0.023121906
160	0x3ee8a1a3	0.4543582
161	0x3e8e85df	0.2783651
162	0x3e8a3fd0	0.2700181
163	0xbe8250eb	-0.2545236
164	0x3ec45c2f	0.3835158
165	0x3e0afd90	0.13573289
166	0x3e7f6846	0.24942121
167	0xbea8d9fe	-0.32978815
168	0x3d93a444	0.072090656
169	0x3db949a7	0.09047251
170	0x3e157bf5	0.14598067
171	0x3d7808c3	0.06055523
172	0xbd9befc9	-0.07614095
173	0x3ca764c9	0.0204338
174	0xbe251eda	-0.1612505
175	0xbe974f42	-0.29552656
176	0xbe24df40	-0.16100788
177	0xbd8742d3	-0.066045426
178	0x3ccf25b1	0.025286527
179	0x3d6e0f2c	0.058119938
180	0x3e6df358	0.2323736
181	0xbcdd2a4f	-0.026997713
182	0x3e7b873e	0.2456331
183	0x3dd2e4ef	0.10297572
184	0xba3f38c7	-0.0007294532
185	0xbe8b31a4	-0.2718631
186	0xbde0cafb	-0.109762155
187	0xbde598f1	-0.11210812
188	0xbdf43cd0	-0.119256616
189	0x3ddf7116	0.10910241
190	0x3e1d148a	0.15339866
191	0x3e53eeab	0.20696513
192	0xbd38452a	-0.044987835
193	0xbdea09ff	-0.11427688
194	0x3de2ea94	0.110798985
195	0xbe8d428e	-0.2758984
196	0xbe5c1a08	-0.21494305
197	0x3e23a8c5	0.15982349
198	0x3e3b3548	0.18282044
199	0x3e0a867a	0.13527861
200	0xbd5453d9	-0.051837776
201	0x3e3635b3	0.17793922
202	0xbdccc332	-0.09998168
203	0xbcd45d06	-0.025923263
204	0x3e50677b	0.20351975
205	0x3e4b3d7a	0.1984767
206	0x3e8206a9	0.25395706
207	0x3df8c93d	0.12147758
208	0x3e10bad0	0.14133763
209	0xbd505c71	-0.05086941
210	0x3d8c1401	0.06839753
211	0x3dd3e4c5	0.10346369
212	0xbe19d56d	-0.15022822
213	0xbd0edc3a	-0.034877993
214	0x3d946843	0.07246449
215	0xbe51d3b5	-0.20490916
216	0x3e835663	0.25651845
217	0xbe2056c0	-0.15658092
218	0x3e6e0886	0.23245439
219	0xbd1bf979	-0.038079713
220	0x3e3b9d84	0.18321806
221	0x3ddba68a	0.10725124
222	0x3cd1f02f	0.025627224
223	0x3e374208	0.17896283
224	0xbdeb29a1	-0.114825495
225	0xbe171393	-0.1475356
226	0xbe6156d2	-0.22005776
227	0x3e500b62	0.20316842
228	0xbda753dd	-0.081702925
229	0xbe34a1c2	-0.1763983
230	0xbe7f94a3	-0.24959044
231	0xbe5d72c2	-0.21625808
232	0x3d486e61	0.04893339
233	0xbdbd2d8e	-0.092372045
234	0xbd7bfb68	-0.061519057
235	0xbe6342a5	-0.22193392
236	0xbe134f6f	-0.1438577
237	0x3ca52ea9	0.02016385
238	0xbd3e5c06	-0.04647448
239	0x3dc65eb2	0.096860304
240	0xbd2e6a7b	-0.042582016
241	0x3e6e8a07	0.23294841
242	0xbcd52758	-0.026019737
243	0x3eb9cdca	0.36289817
244	0xbbfa1fe7	-0.0076331976
245	0xbcfa789e	-0.030575093
246	0xbd2ed463	-0.042683017
247	0x3c170723	0.00921801
248	0x3e25619e	0.16150519
249	0x3e8c7deb	0.27439818
250	0x3e21a2d7	0.15784775
251	0xbea48d23	-0.3213893
252	0x3eabd3de	0.3356008
253	0xbddd179b	-0.10795518
254	0x3dfb2273	0.1226243
255	0x3d88aa11	0.066730626

decoder.2.bias f4 [50]
0	0x3e83117a	0.2559927
1	0xbdb00495	-0.08594624
2	0x3d07c999	0.033151243
3	0x3df60a20	0.1201365
4	0x3da24bec	0.07924637
5	0x3e3f598e	0.18686506
6	0xbdfe14cc	-0.124063104
7	0x3e1703c0	0.14747524
8	0x3e38b561	0.1803794
9	0xbe363ded	-0.1779706
10	0x3d7525e8	0.059850603
11	0xbdfc4755	-0.12318293
12	0xbe247e0a	-0.16063705
13	0xbe867459	-0.2626064
14	0xbe4c2e97	-0.19939648
15	0xbd9a5832	-0.07536353
16	0xbea0c301	-0.31398776
17	0x3cb28357	0.021791143
18	0xbd9aa5e7	-0.075511746
19	0xbdbca5bc	-0.09211299
20	0x3e19f3dd	0.15034433
21	0x3c5cda6c	0.01347981
22	0xbdc2beeb	-0.09509071
23	0x3ad4040c	0.0016175522
24	0x3e276662	0.1634765
25	0x3dc11251	0.09427322
26	0xbe60e5a4	-0.21962601
27	0xbe88843f	-0.26663396
28	0x3e1ae422	0.15126088
29	0xbe09077f	-0.13381766
30	0xbe48b853	-0.19601564
31	0x3d7e567b	0.062094193
32	0x3dc52277	0.09625714
33	0x3c8374ec	0.016046964
34	0xbe433aea	-0.19065443
35	0xbd88053b	-0.06641623
36	0xbea33b3a	-0.31881124
37	0x3bbe9d75	0.00581711
38	0x3deb7ae4	0.11498049
39	0xbe205484	-0.1565724
40	0xbe161904	-0.1465798
41	0xbd9bf5d0	-0.076152444
42	0xbe049b88	-0.12949955
43	0xbe48a03f	-0.19592379
44	0x3ed2a36a	0.411403
45	0x3dd0b01a	0.10189839
46	0x3d216eeb	0.03941242
47	0xbdee9dba	-0.11651178
48	0xbdc53db2	-0.09630908
49	0xbe5565ca	-0.2083961

decoder.4.weight f4 [50, 50]
0	0x3d350533	0.04419441
1	0xbe074d7a	-0.13213149
2	0xbda36439	-0.079781
3	0xbd674f1f	-0.05647194
4	0x3c93abc5	0.018026242
5	0xbd589690	-0.052877963
6	0xbdc9b029	-0.09848053
7	0xbd0f4a2c	-0.034982845
8	0xbd803069	-0.062592335
9	0x3cc70eff	0.024299143
10	0x3d8b2fdf	0.0679624
11	0x3c03bef2	0.00804113
12	0xbdd6932d	-0.1047729
13	0xbdd550fa	-0.10415836
14	0x3dfe6905	0.12422375
15	0xbd81b54b	-0.06333407
16	0x3c38eaf6	0.011286488
17	0xbda14ff5	-0.07876579
18	0x3c0e6392	0.008690732
19	0xbcab4d63	-0.020910924
20	0xbdd01b5d	-0.10161469
21	0xbdad189b	-0.08451959
22	0xbdd219f0	-0.102588534
23	0x3dc02308	0.09381682
24	0xbdafb4bc	-0.08579394
25	0x3e09a782	0.13442805
26	0xbe0ce6c7	-0.1375991
27	0xbd77bd23	-0.06048311
28	0xbdf2ea9b	-0.11861154
29	0xbde2a891	-0.11067308
30	0x3e00765c	0.1254515
31	0x3dce9ff9	0.10089106
32	0x3d228eb0	0.03968686
33	0xbb1c9cac	-0.0023897095
34	0xbe05e6b5	-0.13076289
35	0xbde4b6f9	-0.11167712
36	0x3cec3d93	0.028837955
37	0xbd673da8	-0.056455284
38	0xbe0bc557	-0.13649498
39	0x3d1960b9	0.037445758
40	0x3cbb2ade	0.02284759
41	0xbdaf11c1	-0.08548308
42	0x3c91d9d2	0.01780406
43	0xbd9a2813	-0.07527175
44	0xbda69d6b	-0.08135494
45	0x3e046fd3	0.12933283
46	0x3df623ad	0.12018523
47	0xbc05f678	-0.0081764385
48	0xbd9e4653	-0.07728257
49	0xbdb7a90d	-0.08967791
50	0xbe26f80f	-0.16305564
51	0xbdcdb819	-0.100448795
52	0x3c6b8392	0.0143746305
53	0xbc592bd4	-0.013255078
54	0xbd7e4b07	-0.06208327
55	0x3e1abd60	0.15111303
56	0x3c0f95ac	0.008763712
57	0xbd7f731b	-0.062365633
58	0x3e2379d1	0.15964438
59	0x3d25fa11	0.040521685
60	0x3e0250c2	0.12726119
61	0x3de3254a	0.11091097
62	0x3e1612b3	0.1465557
63	0x3e0635c0	0.13106441
64	0xbeb9f4a5	-0.3631946
65	0xbd36af89	-0.044600997
66	0x3e6e7ce2	0.23289827
67	0x3ce598cb	0.028026959
68	0x3da5f090	0.08102524
69	0x3c86efc5	0.016471753
70	0xbe090612	-0.13381222
71	0x3deee0ec	0.11663994
72	0xbc3cece1	-0.011531086
73	0x3de16c50	0.11006987
74	0x3dd02377	0.101630144
75	0x3e54571e	0.20736358
76	0x3e337e18	0.1752857
77	0xbe101cf5	-0.14073546
78	0x3e82a573	0.25516853
79	0xbc805bfa	-0.015668858
80	0xbe088359	-0.13331355
81	0xbdb18b4d	-0.08669148
82	0xbdeffb52	-0.117178574
83	0x3e114105	0.14184959
84	0x3e36f82b	0.17868106
85	0xbc129a36	-0.0089479
86	0x3d3b4b55	0.04572614
87	0x3e0c4973	0.13699894
88	0xbe081ffb	-0.1329345
89	0x3e1a593a	0.150731
90	0xbe19a125	-0.15002878
91	0xbe425659	-0.18978252
92	0xbd75b7ee	-0.059989862
93	0x3df9b8a0	0.121934175
94	0x3e3d6c78	0.18498409
95	0xbd04836a	-0.03235189
96	0xbd0b4b19	-0.034007166
97	0x3dea0c84	0.114281684
98	0xbd401664	-0.046896353
99	0x3ea90bfa	0.3301695
100	0x3e9235df	0.28556725
101	0xbe2b36f8	-0.16720188
102	0xbdbe0d94	-0.092799336
103	0xbdcc61ac	-0.09979567
104	0x3df21b3c	0.11821601
105	0x3d578513	0.052617144
106	0xbdef8160	-0.11694598
107	0xbd97e9e5	-0.07417659
108	0x3d58e90b	0.052956622
109	0xbd8bbed5	-0.06823508
110	0xbdc1ce45	-0.09463171
111	0x3cd63926	0.026150297
112	0xbe5f7ff0	-0.21826148
113	0x3d571951	0.052514378
114	0x3e7b7434	0.24556047
115	0xbca37a4a	-0.019955773
116	0x3dc0d6dc	0.09415981
117	0xbdf017e1	-0.117233045
118	0xbbde2cf5	-0.0067802616
119	0xbd8ed729	-0.06974632
120	0x3d94450a	0.07239731
121	0xbd88b737	-0.066755705
122	0xbdcf541f	-0.10123467
123	0xbd80fec3	-0.06298592
124	0x3d02193e	0.031762354
125	0xbcdaae41	-0.026694419
126	0x3cd907d6	0.026492994
127	0xbd6f0721	-0.058356408
128	0xbce0b2ff	-0.027429102
129	0xbdff19f4	-0.12456122
130	0x3ceb1399	0.028695868
131	0xbdd573b8	-0.10422462
132	0x3cd5ba27	0.02608974
133	0x3dfa2a95	0.12215153
134	0xbdd92367	-0.106024556
135	0x3cb014af	0.021494238
136	0x3dc9a068	0.09845048
137	0x3e02b4d8	0.12764299
138	0xbdf01e7c	-0.117245644
139	0x3cd00186	0.025391351
140	0x3d197f4f	0.037474927
141	0x3d78f712	0.0607825
142	0x3dccbb6f	0.099966876
143	0x3ce22b7f	0.027608631
144	0x3e99bcdc	0.300269
145	0xbe001b8f	-0.12510513
146	0x3d4d898f	0.050180014
147	0xbe5e5e2a	-0.21715608
148	0x3b553abe	0.0032536234
149	0x3eb7015b	0.35743222
150	0xbd9540bb	-0.07287737
151	0xbdcb8f88	-0.09939486
152	0xbd298aaa	-0.041392006
153	0x3e3b8e5c	0.18316025
154	0xbe04296f	-0.1290643
155	0xbe5c1214	-0.21491271
156	0x3ded7cbe	0.11596058
157	0xbcb4b109	-0.022057073
158	0x3d0673cd	0.03282528
159	0x3da0719d	0.0783417
160	0x3c1bdd7d	0.009513256
161	0xbda10202	-0.07861711
162	0xbdf781a4	-0.12085274
163	0x3ecdc40b	0.4018863
164	0xbdc1839a	-0.09448929
165	0xbe961307	-0.29311392
166	0xbd5fe287	-0.054659393
167	0xbd2e4435	-0.042545516
168	0xbb6f6356	-0.0036527715
169	0x3e0bbc55	0.13646062
170	0x3ea74759	0.3267162
171	0x3da85245	0.08218817
172	0xbd5b2f88	-0.053512126
173	0x3d8722ae	0.065984115
174	0x3e1b41eb	0.15161864
175	0xbd260829	-0.040535126
176	0xbe241dc3	-0.16026978
177	0x3be75811	0.007060059
178	0x3dbab2ba	0.09116121
179	0x3d44ac18	0.048015684
180	0xbdf74b9c	-0.12074968
181	0x3e7a7e9f	0.24462365
182	0xbde06734	-0.109571844
183	0xbcd1cd4e	-0.025610592
184	0x3bf212d9	0.0073875007
185	0xbd8031f1	-0.062595256
186	0x3e8ddcd6	0.27707547
187	0xbb8aac95	-0.004231999
188	0x3bca4b3a	0.0061735185
189	0x3d92e246	0.071720645
190	0x3dc1582a	0.09440644
191	0x3e9eb70b	0.30999026
192	0x3d184b94	0.037181452
193	0x3dd808d2	0.10548557
194	0x3e6e3fd6	0.23266539
195	0x3cb67d80	0.02227664
196	0x3e8d3e79	0.27586725
197	0xbe609b6c	-0.21934289
198	0x3dd9ab97	0.10628431
199	0xbeafb285	-0.34315887
200	0x3e30ed8b	0.17278115
201	0xbd0a7d78	-0.033811063
202	0x3cf31df6	0.029677372
203	0x3a0d35d2	0.0005386743
204	0x3cb1d865	0.02170963
205	0xbd02d00b	-0.031936686
206	0x3cd37d7a	0.025816668
207	0x3d296462	0.041355498
208	0x3d2715eb	0.040792387
209	0x3e5bffc3	0.21484284
210	0xbd746a3b	-0.05967162
211	0x3e2e3a54	0.17014438
212	0xbe110ddc	-0.14165443
213	0x3f05610d	0.5210121
214	0x3e10c10b	0.1413614
215	0xbe1fb305	-0.15595634
216	0x3ea39f1d	0.3195733
217	0xbdf34d7f	-0.118800156
218	0x3e18f69f	0.14937828
219	0x3d9ce74d	0.076613046
220	0x3da6d02e	0.08145176
221	0x3b865a75	0.004100139
222	0xba81c0e2	-0.0009899403
223	0xbd8eebf1	-0.06978596
224	0xbd3910a4	-0.045181885
225	0x3de820fd	0.11334417
226	0x3d452fd9	0.048141334
227	0xbe45180d	-0.19247456
228	0xbd8b9a94	-0.06816593
229	0xbe7ce887	-0.24698077
230	0x3dfd1a32	0.12358512
231	0x3c60ea0d	0.013727677
232	0x3c00403a	0.007827813
233	0x3e34cc93	0.17656164
234	0x3d2c01d0	0.041993916
235	0x3de527f5	0.11189262
236	0x3eca4b18	0.39510417
237	0xbe011f14	-0.12609512
238	0x3dc625c6	0.096751735
239	0x3ea69576	0.32535905
240	0xbcb513c5	-0.022104153
241	0x3dfcc5fb	0.12342449
242	0x3dcf1806	0.10112004
243	0x3daab98a	0.0833617
244	0x3e91ecd6	0.28501004
245	0x3d942a7c	0.07234666
246	0x3cd3d9c8	0.025860682
247	0x3d6a5790	0.057212412
248	0x3e36fa39	0.1786889
249	0xbef04fe9	-0.46935967
250	0xbccf31b5	-0.025292257
251	0xbcc0feaf	-0.023558943
252	0x3dbdd836	0.092697546
253	0x3cbbb524	0.022913523
254	0x3de811d1	0.11331523
255	0x3bbee19b	0.005825234

decoder.4.bias f4 [50]
0	0xbe0030e9	-0.12518658
1	0x3dd696d5	0.10477988
2	0x3e9a85b3	0.3018013
3	0x3cc3f2ba	0.023919452
4	0x3e243cfd	0.1603889
5	0xbdf8923d	-0.12137268
6	0xbe8bcfe1	-0.27307037
7	0x3d516f9d	0.051131833
8	0xbe13a80e	-0.14419577
9	0x3d8ced79	0.06881232
10	0xbe0c1757	-0.13680778
11	0xbde1b68a	-0.11021145
12	0xbe171eca	-0.14757839
13	0x39154bcf	0.00014237988
14	0x3beaf3a4	0.0071701575
15	0xbe2fa84b	-0.17154042
16	0xbd1f71cd	-0.03892689
17	0xbc4e1bc0	-0.012579858
18	0x3d938690	0.072034
19	0xbdd494e0	-0.10379958
20	0xbdcd5b35	-0.10027162
21	0x3d54a035	0.051910598
22	0x3e6c2955	0.23062642
23	0xbca6e15c	-0.020371132
24	0x3d8d698f	0.06904899
25	0xbda965be	-0.08271359
26	0xbdb78968	-0.08961755
27	0xbd7ee109	-0.06222633
28	0xbd22960e	-0.039693885
29	0x3e3ac263	0.18238215
30	0x3d559d7e	0.05215215
31	0x3e1a4ba3	0.15067916
32	0x3c01d9b8	0.007925443
33	0xbceb0edb	-0.028693607
34	0x3d65c23a	0.056093432
35	0x3d222da8	0.039594322
36	0x3def9644	0.11698583
37	0x3e1eb998	0.15500486
38	0x3e14a8b0	0.14517474
39	0xba767922	-0.00094022055
40	0xbd3ac0ec	-0.04559414
41	0xbd7a408d	-0.061096717
42	0x3e4cbc37	0.19993673
43	0x3d9246e4	0.071424276
44	0xbe05813c	-0.1303758
45	0xbd953dd0	-0.072871804
46	0x3c1d7e3f	0.009612619
47	0xbdbbf449	-0.09177453
48	0x3e71b3f2	0.236038
49	0xbbe1cc6d	-0.0068908245
