RiskViz Folder/RiskViz Folder/model/checkpoint_750.tar (torch, 110796 bytes, 51 tensors)

encoder.1.weight f4 [50, 6]
00000000: e736 01bf 09c6 c9ba d87f 8c37 93a8 753e
00000010: e2e5 a2be a8a0 d93d bf0b 5e3a e25a afbb
00000020: fe33 b5bb 480e 1340 a636 b33b 652e 84be
00000030: c718 3abe e283 68be 6175 263c 472b 84bd
00000040: 19df a93e bae7 c1be 1030 4b3e a70f 85bc
00000050: 4a0c 9fba 95b7 f4bd 9341 b03b 0bc7 873f
00000060: ae0b 14bd f29e 18be 7d5c 7abb f2f1 3e3f
00000070: 9067 723e 67e7 06bf c9ba 283f b980 943c
00000080: eaa2 ec3a 10a7 173e 0fe6 b63c 73b2 5a3f
00000090: 8ed1 a0bd 0e7d 66be 2999 e6bd ee26 7bbe
000000a0: ee61 5a3e 5e00 51be cd66 1ebf 855d da3d
000000b0: a81d a03d 662d d2bc 09a8 f7bd 328a 50bd
000000c0: 8dca 1f3f 6b92 9bbb 0a73 8db9 935f 683f
000000d0: 255c 1d3f 66da 433d 0029 a5be 3d99 333c
000000e0: b87b 42be a459 edba 9312 4c3e d260 383e
000000f0: bb24 d3be 34e3 0d3c 1050 2539 f2f5 72bf
00000100: 71e6 7bbe 9111 f53d 828a 6ebe 3d93 36be
00000110: 9369 0c3e f298 703e 1971 bb3b 149d 22be
00000120: d204 d0bd 6473 30bd ba3c 4abd 94ac 853f
00000130: 4163 bcbd 5398 f43e a71d e6be 4935 803b
00000140: 92ba f23a b3a9 43bf 0b08 7dbe 7a68 ee3d
00000150: 3fc5 e0bf 72f4 ef3b 8f9c b33b f1f4 aa3e
00000160: 9844 d8be 2901 373f 0175 2bbf 6edc 9c38
00000170: 1ca1 aa3a 047e 05be aa0e ccbe dd67 07be
00000180: 8048 82be ef39 8d3e 4a6a 203e df6d a63e
00000190: 9e72 9bbe f31a ccbe 8b2e 71bf 2427 5ebc
000001a0: 3616 3aba acfc 45bf 6e9b 293f c1a6 063f
000001b0: e44b 2b3b 8f89 d0ba 202e 833a 89ac 0e40
000001c0: caae 4a3c dd89 72be db84 af3d 5110 9dbe
000001d0: 92ad 5fbe 9a7a 44be 848c 6cbe 6342 943d
000001e0: 44ea c3bd 6c7a 863b ca17 3b3a 87c4 2dbf
000001f0: 32b2 3b3f 5def 393d d837 b5be 7f95 87be
00000200: 64de 1a3e d2f3 1d3e 1140 81be a0a0 03be
00000210: 23a7 0cc0 5c74 0d3c e82b 9f3b 0fa5 97be
00000220: 87b2 a5be 5edc 433e 97b8 a43e 3706 b3bd
00000230: 30bc 8abd 2b00 113e 14ce 6f3d debf 09be
00000240: 29ba b7be bb3e 74be 266f 2e3d 4ad3 45ba
00000250: 5a02 d63e d381 52bd 84cb d2bd bc9d c7be
00000260: fe16 bfbe b51e 383e 8cc6 a63e d7a7 aaba
00000270: eb3e 0ac0 8b9a 133b c575 1ebb c94b 12bf
00000280: 6be0 05be 3035 d03d 0abe f8bf 2052 263c
00000290: 6235 52bb 4556 00bf 3357 02be 2b9b d9be
000002a0: 0199 463f 824e 253b 9781 803a a283 84bf
000002b0: 5a2f 2f3f 05aa 8d3d ebdc 67be 04cc d5bc
000002c0: 0200 94be 893c 9abc 4ee3 693e 84e3 3bbe
000002d0: 8210 3d3f 29f7 2fbc 8517 f0ba 62a5 013f
000002e0: e6a5 a5be 7ed2 aabe f05e ad3c 9c88 0abc
000002f0: a3e1 613b 1cee 6cba 8e33 293e b824 9e3f
00000300: b430 a03e c43a ccbe 1b41 2f3d 7ac2 a0bc
00000310: 9ebe e03d 5a2b cdbd 6d32 ed3d c6fe 8fbe
00000320: 9de7 563e e66f 173f 7f15 8abb 7545 89be
00000330: 2576 20bf 22d7 fb3b 7402 5cb8 eeae 853d
00000340: 85a8 d7bc 490c 7c3f d283 3bba c64f 9cbb
00000350: ec9e cfba 354f b73f 4a2d e13e 178f a13b
00000360: 8fd7 663e 3ad6 083e 6c51 263d 2870 f2bd
00000370: 232b 803d 291d ef3c 4a59 f9bb 62b7 a63b
00000380: 2070 f03a 29b0 30bf 251f f73c 3c88 303f
00000390: 41cc 953c 6ffa 96bc 5660 12ba b2f8 1bbe
000003a0: e0e8 573e 73e4 ae3f d79a 853f 0722 16bc
000003b0: d46e 643a 314d 96be c1b0 ffbd fd24 11bf
000003c0: 18a0 0cc0 9fea 373c db83 a5b8 1a6e 40bf
000003d0: 1994 9bbe fe8d 633e 8979 493b b584 33bb
000003e0: 9544 1ebb 54b3 0d40 d63d b8be b036 42be
000003f0: d01b 14bf f926 f5bb 56e5 91bc cc5c 4c3e
-0.504744 -0.0015394102 1.6748832e-05 0.23990087 -0.31816012 0.10626346 0.0008470378 -0.0053514102
-0.0055298796 2.2977467 0.005469161 -0.25816646 -0.18173514 -0.2270656 0.010159821 -0.06453567
0.33178023 -0.37872106 0.19842553 -0.016242815 -0.00121344 -0.11949078 0.005378911 1.0607618
-0.03614395 -0.14904383 -0.00382021 0.7458793 0.23672318 -0.5269684 0.6591001 0.018127786
0.0018053923 0.14809823 0.022326497 0.8542854 -0.078524694 -0.22508642 -0.11259682 -0.24526569
0.2132642 -0.20410296 -0.6187561 0.10662369 0.078181565 -0.025656413 -0.12092597 -0.050913043
0.6241844 -0.004747679 -0.00026979327 0.90770835 0.61468726 0.047815703 -0.32257843 0.010961828
-0.18992507 -0.001810838 0.1992896 0.18005684 -0.4123896 0.0086601265 0.00015765452 -0.9490653
-0.24599625 0.11966241 -0.23295024 -0.17829604 0.13712148 0.23495844 0.0057202694 -0.15880233
-0.101571694 -0.043078795 -0.04937432 1.0443292 -0.09198619 0.47772464 -0.44944498 0.003912602
0.0018518737 -0.76430815 -0.247101 0.11641021 -1.7560195 0.0073228413 0.0054813097 0.3339
-0.42239833 0.71486145 -0.6697541 7.479718e-05 0.0013017985 -0.13036352 -0.39854938 -0.13223214
-0.25445938 0.27583262 0.15665546 0.325057 -0.30360883 -0.3986431 -0.94211644 -0.013559137
-0.00070986466 -0.7733867 0.6625279 0.52598196 0.0026137764 -0.0015910136 0.0010008253 2.2292807
0.0123707745 -0.23685403 0.08570262 -0.3067651 -0.21843556 -0.19187394 -0.23100477 0.07239225
-0.09566167 0.0041039493 0.0007137029 -0.67878 0.7331878 0.04539429 -0.35394168 -0.26481244
0.15123898 0.15425041 -0.2524419 -0.12854242 -2.1977012 0.008633699 0.004857529 -0.29618117
-0.32362768 0.19127032 0.3217208 -0.0874142 -0.06774175 0.1416022 0.05854614 -0.13452098
-0.35884216 -0.23852055 0.04258647 -0.0007546438 0.4179867 -0.05139334 -0.10292724 -0.3898753
-0.3732223 0.17980464 0.32573354 -0.0013019991 -2.1600902 0.0022522535 -0.0024179083 -0.5714689
-0.1307389 0.10166395 -1.9432995 0.010151416 -0.0032075276 -0.50131637 -0.12728576 -0.42501196
0.77577215 0.0025223796 0.0009804246 -1.0352671 0.6843163 0.06917194 -0.22642867 -0.026098259
-0.28906256 -0.018827694 0.22840616 -0.18348509 0.73853314 -0.01074008 -0.0018317556 0.5064298
-0.32353133 -0.33363718 0.021163434 -0.008455422 0.0034466765 -0.00090381666 0.16523573 1.2354956
0.31287158 -0.39888585 0.0427867 -0.019623984 0.10973857 -0.10018034 0.115818836 -0.28124064
0.20986791 0.5915512 -0.0042139883 -0.26810804 -0.62680274 0.007685558 -5.2454372e-05 0.06527506
-0.026325474 0.98456246 -0.00071531266 -0.004770252 -0.0015840209 1.4321047 0.43979865 0.0049303877
0.22543167 0.13362971 0.040604994 -0.11837798 0.06258228 0.02918871 -0.007609521 0.005087779
0.0018343963 -0.690188 0.030166218 0.6895788 0.018285872 -0.018429963 -0.0005583813 -0.15231588
0.21084929 1.3663467 1.0437878 -0.009163386 0.00087140244 -0.29355767 -0.12484885 -0.56697065
-2.1972713 0.011225372 -7.892373e-05 -0.75168 -0.30386427 0.22222134 0.0030742607 -0.0027392332
-0.0024149765 2.2140703 -0.35984677 -0.18966174 -0.5785494 -0.0074814525 -0.017809551 0.19957274

encoder.1.bias f4 [50]
00000000: da6f 7b3e 2782 8bbb bcf6 a2bc c47d 1cbe
00000010: cea1 abbd fd17 00bf 3162 03be 12a6 a0bd
00000020: ecf0 9fbe d357 aabe 3670 2e3e 5950 c9be
00000030: 3328 50bf 985a 4d3e 8e7e 923c 6cb0 a93e
00000040: 76b9 b9be 0bda 773c 9097 d939 761f 89be
00000050: 21be 4d3d ad1c 11be 94c6 7e3c 71ac bfbe
00000060: 02ee e5bd 3c81 96be 2064 c73c 4650 cc3c
00000070: 6bdc c7be c1cb 76be 7a31 cabe 0044 6dbe
00000080: 34a9 d6be 3da2 a1be 8b04 d83b 2649 48bb
00000090: a2e8 b2be d5c0 2ebc 37ef 9bbe b724 21bf
000000a0: 1cd5 d03c 1ae7 60bb b67a 6b3b 25f0 babe
000000b0: 8c82 18bf 3d74 bc3b 7f0f fcbb 37bb be3c
000000c0: 6f37 8cbe 2bd6 11bb
0.24554387 -0.0042574587 -0.019893043 -0.15282351 -0.08380471 -0.50036603 -0.12830426 -0.078441754
-0.31238496 -0.3327013 0.17034993 -0.39319113 -0.8131134 0.2005409 0.017882612 0.33142412
-0.36274308 0.015127669 0.00041502388 -0.26781815 0.05023015 -0.14171095 0.015550274 -0.3743625
-0.11227037 -0.29395473 0.024339736 0.024940621 -0.39035353 -0.24101163 -0.39490873 -0.23170471
-0.41925967 -0.3156909 0.0065923384 -0.0030561178 -0.3494311 -0.010666092 -0.30455944 -0.6294665
0.025492243 -0.0034317435 0.0035931296 -0.3651134 -0.595742 0.0057511614 -0.007692277 0.02328263
-0.27386042 -0.0022252898

encoder.4.weight f4 [50, 50]
00000000: e227 3c3d 1912 b7be 615e d5bd 9790 04be
00000010: f00c 63be 2b02 f53d 1b40 93bc 01b4 723d
00000020: 8e64 4e3d ff9c b53d 9204 463e 3c26 ae3b
00000030: 5a6b c4bd c48d aa3b 33e2 543e 07a0 25bd
00000040: 4952 0ebe 9c0e 043c 08cc b8be af92 cabd
00000050: 5ecc 40bd 3aff 053d a160 663e fb8a cfbc
00000060: 9e3a 7f3d 1ff3 0dbd beab d33d cdb0 8b3e
00000070: 3692 1b3d 7b66 ce3d bce8 203e dcdb a6bd
00000080: 41d0 193d 85b8 8a3d d4c9 9a3d d273 88be
00000090: 63f9 22ba 7b45 bcbd 85d9 e43c fe65 6b3e
000000a0: c606 683e cf6c a4be 2ff2 0cbc bae0 91bd
000000b0: fa81 cb3e b766 84bc 5d61 91be eece 23bc
000000c0: 8485 4d3d e257 c5bd 4169 6f3d 934b e2bb
000000d0: 7163 773d 84aa f7bd 08b1 46bc 1968 4f3e
000000e0: 9380 93bd 66e8 453c ac7c 06bd 9c17 993d
000000f0: da57 d2bc ba98 d9bd fd8d e8bd cc99 163e
00000100: 6b7b b43d 0977 c4bc 6622 06be 221a ba3c
00000110: 2039 163a a1ed 853c 729c 363c 0d8e ffbc
00000120: dd43 5c3e 5742 533d 5254 353d 04ac 9cbd
00000130: 70eb ae3e ad87 ab3e ec3f 92bc dc3a 063e
00000140: c35a cfbd 103b 0dbe fb7a dd3c 8a35 113d
00000150: 554d 213e 41fb 6abd 6f15 c33d 241b e6bc
00000160: 26aa 0bbe 9711 973e 6ae5 853e 65cb 2cbc
00000170: c210 a8bd 4e2c c3bd 4dac 2f3e fe2c 0c3e
00000180: b048 f6bd ad47 babd 093d 47bd c3d6 283d
00000190: 2057 193d 5b2f b8be d531 e73d e96f d83d
000001a0: de41 a0bc 72ce 49bd b0ae 37bd b0a9 6b3b
000001b0: 67ec 5abe a1f1 0f3e 9c34 183d d7a6 093e
000001c0: 5967 023e f2a9 d73d e147 6fbe 6b38 ef3c
000001d0: e16b 62bd ccd2 57bd cc38 83be 854c a13d
000001e0: 6138 503e 8a2e e0bd 418e 6ebe 8756 2c3d
000001f0: 068a 47ba c6ad 853d 4a99 193d 6adf 14bd
00000200: 5b2d 4bbe 856b 27bd 74f3 78be 3a3c 253c
00000210: 90c9 c83d 8ab0 09be b1a3 763c 64b2 c0bd
00000220: 5f6b dd3d 7dbc 153e 0be9 393c 6034 73be
00000230: 164b 30bd f815 2cbe 3bb8 e0bd 931b c4bb
00000240: a6e0 20be 28f8 d33d cfd1 473d 18d5 ccbd
00000250: 66e9 d0bd 4f5c 1fbe b8d1 5ebe 161c 66be
00000260: 46f0 323a 5ed3 29bd cfc1 4abd d1bb 603e
00000270: f7c4 ff3d 236c 693d b787 3d3d 896a e9bd
00000280: eb69 81bd b616 f6bd 4a1f d33d 9dec 45be
00000290: a43c c33c 91bc 50be 8c1e c8bd 4112 8fbe
000002a0: c159 5fbe 0e69 84bd 6743 a0be 79e0 cc3d
000002b0: dc8b 8abd 01f6 89bc 8afd 69bc 1f8f 703d
000002c0: 3360 7fbd 2a16 8cbc 2fbb 3a3d 13dd c73d
000002d0: 9bd4 323e a3c7 cfbd 13ab 11bd 465a e3bd
000002e0: bf7c 773d 28c4 4bbe e9fa b03c ea4f 96be
000002f0: ebd5 433c 8af9 7f3e a321 bebd 0d21 63be
00000300: d683 36be 39bc 063e 6462 b33e dbe4 7abd
00000310: 474d 8dbe 9682 7a3d 5d73 b23d c28f f2bd
00000320: 90da d63d 70a7 fabd bccb 7bbd c891 f43e
00000330: bf27 01be f45b 9c3e 33b5 9abd 4c0c f83d
00000340: 19bf cfbb 4ae9 c0bd 0dfc 89bd da4e e43d
00000350: 018e 41bd 7f66 93bd e0d1 353d 4aeb efbc
00000360: 20e9 f5bd 8946 203d e0a8 53be 86e2 093d
00000370: 3aa5 0b3c 0c5b 2fbd 2f54 6fbd ebf6 aa3d
00000380: 6b60 11bd a81c 883d 621b ba3d 31fa b13d
00000390: 5384 aebb 7f78 683d 0c01 40bd d698 c53e
000003a0: 38ce 5cbd c167 963d 40ac 8a3e dd25 ca3c
000003b0: 142a 08be e721 50bd 246b c13e e039 303e
000003c0: bdf0 12bc 31fd 7dbe fb05 27bd 110c 893d
000003d0: 7d0f a7bd fbcd 4c3d 05c0 663c a2d9 e0bd
000003e0: 4ff1 82bd 5f43 293e 9d5f 30bd c461 09bd
000003f0: 5686 2fbd fe32 8c3e 7e77 0c3c 4e75 813e
0.045936473 -0.35755995 -0.10418392 -0.12945782 -0.22172904 0.11963304 -0.017974904 0.059253696
0.050388865 0.08867835 0.19337681 0.0053146165 -0.09590788 0.005204888 0.20789413 -0.040435817
-0.13898577 0.008060124 -0.36093163 -0.09891259 -0.0470699 0.032714106 0.22497799 -0.025334826
0.06231176 -0.034655686 0.103354916 0.27283326 0.037981234 0.1007814 0.15713781 -0.081474036
0.037552122 0.067734756 0.07558027 -0.26650864 -0.0006216971 -0.0919294 0.027935753 0.22988126
0.22658834 -0.32114264 -0.008602663 -0.07122941 0.39747602 -0.01616226 -0.28394595 -0.009998066
0.05017616 -0.09635903 0.058449987 -0.006905982 0.06039757 -0.1209307 -0.0121271685 0.20254554
-0.07202258 0.012079334 -0.03283374 0.07475206 -0.025676657 -0.106248334 -0.11355207 0.14707106
0.088126026 -0.023982542 -0.1309906 0.02271754 0.0005730558 0.016348662 0.011145698 -0.031195665
0.21510263 0.05157694 0.044269867 -0.07649997 0.34164 0.3350195 -0.017852746 0.1310839
-0.10124733 -0.13792062 0.02703618 0.03545145 0.15752156 -0.05736852 0.095255725 -0.028089114
-0.13639125 0.29505607 0.26151592 -0.01054654 -0.08206321 -0.09529935 0.17155571 0.13689038
-0.12025583 -0.09095702 -0.048642192 0.041220438 0.037436604 -0.3597363 0.112888016 0.1056822
-0.019562658 -0.049269147 -0.04484433 0.0035959296 -0.21379243 0.14057018 0.037159547 0.1344255
0.12734737 0.10530461 -0.23367263 0.029201707 -0.055278663 -0.052691266 -0.2562927 0.07875923
0.20334007 -0.109463766 -0.23296453 0.042074706 -0.00076118147 0.06527285 0.037499703 -0.036345877
-0.1984152 -0.040874023 -0.2431162 0.01008516 0.0980407 -0.1344625 0.0150536755 -0.09409025
0.10811495 0.14622684 0.011347066 -0.23750448 -0.043040358 -0.16805255 -0.10972639 -0.0059847324
-0.15710697 0.103500664 0.048784073 -0.10001582 -0.10200767 -0.15562557 -0.21759689 -0.22471651
0.00068259647 -0.04146134 -0.049501237 0.21946646 0.1248874 0.056987893 0.046272006 -0.11397273
-0.063190304 -0.120160505 0.10308702 -0.19328542 0.023832627 -0.20384432 -0.09771451 -0.27943614
-0.21811582 -0.0646535 -0.31301424 0.10003752 -0.06764957 -0.016840937 -0.01428164 0.05873024
-0.062347602 -0.017100412 0.04558867 0.097589634 0.17463915 -0.101454996 -0.03556354 -0.11101203
0.0604217 -0.19899046 0.021604018 -0.29357845 0.0119528575 0.24997535 -0.092837594 -0.22180577
-0.17823729 0.13157739 0.35036004 -0.06125341 -0.2759802 0.061159693 0.0871341 -0.11843826
0.10490906 -0.122389674 -0.061473593 0.47767472 -0.12612818 0.30538905 -0.07554092 0.121117204
-0.0063399193 -0.09419496 -0.06737528 0.11147852 -0.047254566 -0.07197284 0.044389606 -0.029287
-0.12007356 0.039129768 -0.2066989 0.033663295 0.00852328 -0.04281144 -0.058429893 0.08347877
-0.035492342 0.06646091 0.09087254 0.08690298 -0.005325833 0.05675554 -0.046876 0.38593167
-0.053907603 0.07344008 0.2708454 0.024676258 -0.13297302 -0.05081358 0.37777054 0.17209578
-0.008968529 -0.24803616 -0.040777188 0.066917546 -0.08157251 0.050001126 0.014083867 -0.1097901
-0.06393682 0.16529606 -0.043059934 -0.033540502 -0.042852722 0.27382654 0.008573411 0.2528481

encoder.4.bias f4 [50]
00000000: 47df 88bb e44c e5bb eaf9 d83b 37cd 133c
00000010: d6c6 aebb 3eba a83a e4c1 2bbf 7304 1bbb
00000020: fcaa 80be cd33 87bc 5823 92bb 3f7a 7c3c
00000030: e6fb f9ba a720 8939 da01 7abe 0daa 9cbc
00000040: 88aa cb3b 43c0 09bc e08d 43bc 37a1 19bf
00000050: 505f c9bd 448e 07bc dd2b 73be 1f17 abbb
00000060: 9795 04bb 1c23 00bb 0823 bfbb f656 82bb
00000070: 12f3 173c 4ef4 a3bb e84e 22bb cac0 94bc
00000080: b2ad 3b3c 4d74 16be 1329 77be b11b 3bbe
00000090: 7458 98be 8d55 44bd abd9 15bf 965f 2cba
000000a0: 7ec5 8f3b 29ae 15be 80c9 6abc ba39 cdbd
000000b0: 05b8 34be 66c7 433c 034f 88be 2f2d a1bc
000000c0: 78fa 46bb 2a27 093c
-0.0041770074 -0.0069976915 0.006621589 0.009021095 -0.0053337617 0.0012872887 -0.6709273 -0.0023653775
-0.2513045 -0.016504193 -0.0044597797 0.015410005 -0.0019072264 0.00026155004 -0.24414769 -0.019124055
0.0062153973 -0.008407655 -0.011935681 -0.6001162 -0.098326325 -0.008273665 -0.23747201 -0.005221262
-0.0020230764 -0.0019552177 -0.0058330335 -0.0039776517 0.009274261 -0.0050034886 -0.002476627 -0.018158335
0.011454986 -0.14692803 -0.24136762 -0.18272282 -0.29754984 -0.04793315 -0.5853526 -0.0006575523
0.0043875566 -0.14617218 -0.014330268 -0.10020776 -0.17648323 0.011949396 -0.2662278 -0.019674866
-0.0030361693 0.008371154

encoder.7.weight f4 [20, 50]
00000000: 274b 163e 7a5f 163e 65b4 ac3c 2c14 93be
00000010: 0b1e cc3c 328a 6d3d ee0a 9dbd eefb 393f
00000020: ce7c 96bd 14f3 c23e cab2 ea3d f93f 9bbe
00000030: edc5 bcbe d035 4dbe 2cfa 03be 08d2 aa3e
00000040: d3c1 c83c 4438 f73e 038a 49be 929e 38bd
00000050: 9d03 96bd d0d7 c83e d8c7 1bbe 24c1 0b3f
00000060: 1b93 78bd 7ad3 1e3f d3ea f13e aefc 223f
00000070: a2ca 52be b999 fbbc 40ca 6fbe 3e1a fb3e
00000080: 3dcd 24be 74cb 1ebc 1dd5 b6bd 7815 63bd
00000090: cc88 52bd b041 7d3c f98e cf3d e48c 89be
000000a0: 7e95 2ebe 2f42 c2bd ed8e 163e 8e83 1c3e
000000b0: 8d49 043e 52c6 93be e25f b8bd 8e4c 083e
000000c0: 16a6 98be 125e 98be 8d6e 263c 3660 193c
000000d0: 067e 42bd 528b fd3b 96b0 a13e c55d c73e
000000e0: 3a98 26bd 216d 723e b7f7 353e dd5b a03e
000000f0: c513 9d3e 5cfb 3abb afce 67bc 4d74 05bd
00000100: 2f2a 383e c5c8 8e3d 70a3 49bc 9731 9b3e
00000110: 9f2d 753c 4064 e33d 31d1 5d3d d8d0 023e
00000120: d0a4 033a 2696 8c3e 8dd7 fc3d 35ff 8c3d
00000130: 5d57 7d3e a450 0e3e 12b0 a93c 5a23 a93e
00000140: 5a83 39bc 1d1f 2b3d 1a71 bf3c df61 58bd
00000150: 711f 373e 12f2 3cbd 8535 063e b0bc e43c
00000160: c28b 0a3e 0eaf 6ebc dd85 863c 15cc 693c
00000170: 96e4 e5bc 0b4a a83e ff67 0cbd 1c29 073c
00000180: df99 2e3e 65df 2a3d be36 9cbc 6ac9 453c
00000190: f0e4 f33e 5fdd 593e 0acf a8be 8293 9f3e
000001a0: bc5d 63be 31de 9fbe 89e7 79be c3ff b2bd
000001b0: f2f2 40be 6f2e 5dbe 54ed e5be 75a1 a03b
000001c0: 233c 8b3c 7113 b7bd 3ae5 2a3d ba55 5dbe
000001d0: d9a2 89be 3236 2abe 2209 433d 53e7 26be
000001e0: 7486 87be 0c57 dcbd 463a 09bf 8413 28be
000001f0: 6a05 d3bd af5b 63bd c189 8abb 713a 2abe
00000200: e977 a03e 5e6e 41be 725f c23c 6ba2 f2bd
00000210: 110f bb3d 3b2a e53d 16cb 73be 1421 aa3c
00000220: b0ef 9fbe 2e52 8f3d 4123 58be 59c6 fc3b
00000230: c77a c43e a927 993d 8eee 99be 174f dabe
00000240: 2b46 023e a72a c13d a2ea b03c 6cee f83e
00000250: a804 753c d33d 703e a74b c93c 0a9d d33d
00000260: 283a f4bd 85da 523c efff 06bc e1f8 41bd
00000270: effb 65bd dc3b 2a3e f4f9 0cbe b247 033f
00000280: 7642 ae3d cdad 693c 3617 503e e2ec 903e
00000290: c058 1a3d 79fe fabc 5699 8dbd 6e36 323e
000002a0: 0905 8d3e 8a32 49be 4928 4cbc 0ecc 5a3e
000002b0: aa92 8e3e 53d8 573e b8c5 3a3e 165a 8b3e
000002c0: 82a1 9f3e 4ee3 603e de0b 723b e7be 4d3d
000002d0: 2556 943e 8c80 013d f1f7 1a3c 0b78 ed3c
000002e0: ee38 b63e 8e59 8cbd 53a3 35bd 940f d93e
000002f0: 53da 54bd 5a5f ca3d 625f 223b bb47 68bd
00000300: 5e01 b03c ce30 e83e 3eed 063e 8f8a 913a
00000310: be38 bbbd 5790 e53c b846 dc3d fdec b13b
00000320: 61dd 9abe 4027 fa3c 15ab f7bd afdf 80be
00000330: 3a0a 2abd f97c 0bbe 089d f4bd 1eca 0dbd
00000340: e663 55be 704e 943d c10c 583d 3232 a1bb
00000350: d148 8f3e 0f26 9f3e b60a e73b d5fd 29be
00000360: 3859 edbd 539e 593b 1e8a 2c3e 9582 54be
00000370: 5de4 c4bc 0445 1ebe eeab b83e 60ff d33b
00000380: 0b40 c33e 0d91 00bd 119f 0ebd abb9 753c
00000390: f686 e0bd a1af 2a3d 625c 5b3e 3329 e8bd
000003a0: 4f9a 20bd af23 66bd 5e71 ab3d 2f8b 11bd
000003b0: 828e aabd 1e39 a53e f0fa 25bd e467 823e
000003c0: 3e28 21be 9616 013e c74a 493e 536f 5c3e
000003d0: 1767 673d a73c 11be 9da1 663d 63ba 8bbe
000003e0: 5b3a 903e 0029 20be 105f 8ebe 04e3 92be
000003f0: 1191 173e 19e7 6cbe bec4 e03e 9287 973e
0.14677106 0.14684859 0.021082113 -0.28726327 0.02491667 0.05799312 -0.076681 0.7265004
-0.07348023 0.3807608 0.114598826 -0.30322245 -0.36869755 -0.20040059 -0.12888402 0.33363366
0.024506485 0.48285115 -0.19681554 -0.0450731 -0.07324908 0.39227152 -0.15212953 0.54591584
-0.060687166 0.6204144 0.4724947 0.6366681 -0.20585111 -0.03071295 -0.23416996 0.4904346
-0.16093917 -0.009692062 -0.08927367 -0.055440396 -0.05139999 0.015457556 0.10134692 -0.26865304
-0.17049214 -0.0948528 0.1470296 0.15284559 0.12918682 -0.28862244 -0.09002663 0.13310453
-0.29814214 -0.2975927 0.010158193 0.009361317 -0.047483467 0.0077375555 0.31580037 0.38938728
-0.04067252 0.23674442 0.17770277 0.31320086 0.30679145 -0.002853117 -0.014148398 -0.032581616
0.17984842 0.069718875 -0.012307033 0.30311272 0.01496449 0.111031055 0.05415458 0.1277498
0.00050218124 0.27458304 0.123458005 0.068846144 0.24740358 0.1389795 0.02071384 0.33034784
-0.011322821 0.04177772 0.02336936 -0.052827712 0.17883088 -0.046129294 0.13106354 0.027922004
0.13529876 -0.0145681035 0.016421253 0.014269848 -0.0280631 0.3286899 -0.034278866 0.008249547
0.17050885 0.041716952 -0.019069072 0.012071947 0.47635603 0.21275853 -0.32970458 0.31167227
-0.22203726 -0.31224206 -0.2440473 -0.08740189 -0.18842676 -0.21599744 -0.4490763 0.0049020597
0.016996449 -0.08939255 0.041722514 -0.21614733 -0.26882055 -0.16622236 0.04761613 -0.1629918
-0.26469767 -0.107587904 -0.53604543 -0.16413695 -0.10303767 -0.05550736 -0.0042278473 -0.16623856
0.31341484 -0.18889758 0.023727152 -0.11847385 0.09133733 0.111896954 -0.2380794 0.020767726
-0.31237555 0.069980964 -0.21107198 0.0077140746 0.38374922 0.07478268 -0.30064815 -0.42638466
0.1272208 0.094319634 0.021596257 0.486194 0.014954723 0.23461084 0.024572207 0.10332687
-0.11925155 0.012869482 -0.00823973 -0.04735649 -0.056148466 0.16624397 -0.13767225 0.51281273
0.0850877 0.014262629 0.20321354 0.28305727 0.037682295 -0.03063892 -0.06914012 0.17403576
0.27542904 -0.19648185 -0.012460777 0.21366903 0.2784627 0.21078615 0.18239486 0.27217168
0.31177908 0.2196171 0.0036933343 0.050230887 0.28971973 0.031616732 0.009458528 0.028987905
0.3559031 -0.06853019 -0.04434521 0.42394698 -0.051966023 0.09881468 0.002477609 -0.056709033
0.021485027 0.45349735 0.13176438 0.0011103916 -0.09141682 0.028022928 0.10755676 0.0054298625
-0.30247024 0.030536294 -0.12093178 -0.25170657 -0.04151366 -0.13621892 -0.11944014 -0.034616582
-0.2083889 0.07241523 0.052746538 -0.004919314 0.27985242 0.31083724 0.0070508374 -0.16600735
-0.11589283 0.003320594 0.16849563 -0.20752938 -0.024034673 -0.15456015 0.36068672 0.006469652
0.38134798 -0.03138833 -0.034819666 0.01499788 -0.10963242 0.0416714 0.2142196 -0.11335983
-0.03920966 -0.056186374 0.083712325 -0.035533126 -0.083279625 0.3227014 -0.040522516 0.25469887
-0.15738007 0.12606272 0.19657432 0.21526842 0.0564948 -0.14183293 0.05630647 -0.2729064
0.28169522 -0.1564064 -0.27806902 -0.28688824 0.14801432 -0.23135032 0.43900102 0.2959562

encoder.7.bias f4 [20]
00000000: ab4d 783b a694 a1bb 149c 1cbb cc60 593a
00000010: 2dad 05b9 fb1b a03b 836d e6be 13ee 88bf
00000020: 6e59 a73b e4af 04bc a427 52be be08 113b
00000030: 31b6 bdbe 8e61 4d3b b01c 30bb 9834 a1bb
00000040: 67fc 03bb 0d98 1a3b c6d4 f5ba 2b8e edbe
0.003788809 -0.0049310504 -0.002389674 0.0008292317 -0.00012748381 0.004886148 -0.45005426 -1.0697654
0.0051070964 -0.008098576 -0.20522934 0.0022130455 -0.37053064 0.0031338665 -0.0026872568 -0.0049195997
-0.0020139457 0.0023589164 -0.0018755428 -0.46397528

encoder.10.weight f4 [4, 20]
00000000: d63a 473f 23da 803e eab7 48bf 4300 80be
00000010: a87f ebbe 768b eb3e b6d4 343f 0a81 a33f
00000020: da85 2b3f f06c 07bf 2ab1 39be f936 e63e
00000030: e632 983e 9e9d 663f dee9 f0be 400b 723f
00000040: 16d1 71be 040b 93be d160 c2be 26ec 733f
00000050: 670a c5be e630 40bf 3b30 18bf 3d42 56bd
00000060: 190a 343f f1f7 e9be 7a96 413d 0edf 0f3f
00000070: d76b 9bbe b401 efbe cd08 e4bd 7e12 f1be
00000080: dcb0 a8bd 1da3 d1be ecd0 373f 9766 d0be
00000090: 8c75 10be e7f0 973e 79ae 0a3f 54ee f13d
000000a0: 5c58 3dbf fddc e53d b5a3 f13e 6b64 d6bd
000000b0: 36cd 1b3f 15ea 163f f096 723e a117 bcbb
000000c0: 28af 2dbf fff6 ce3e 6bb4 41be a93a eb3e
000000d0: 6aec a33e 3e4d 5abf ec41 1f3f ed74 63bf
000000e0: beb6 16be bdbc 5c3e fec4 f63e aaf3 65bd
000000f0: 5095 063f f69a 6cbe add1 fe3e b09e edbe
00000100: 9a7e d2be a87b 3abd cb14 35be d1d2 e2be
00000110: 9f91 d33e 1f59 ac3e d2b9 13be 3550 99bd
00000120: 8484 8cbe 2ad5 203f 3052 d7be af40 283f
00000130: 0872 efbe c839 b0be f0f5 afbe 84b5 90be
0.7782415 0.25166425 -0.7840563 -0.250002 -0.4599583 0.46004838 0.7063707 1.2773755
0.67001116 -0.529006 -0.18133989 0.44963816 0.29726332 0.90084255 -0.47053427 0.94548416
-0.23614916 -0.28719342 -0.3796449 0.9528221 -0.384845 -0.75074613 -0.59448594 -0.052309263
0.7032791 -0.45696977 0.047262646 0.5619973 -0.30355713 -0.46680987 -0.11134491 -0.4708442
-0.08236858 -0.40944758 0.71803164 -0.4070327 -0.1410734 0.2967598 0.54172474 0.118130356
-0.7396295 0.11223791 0.4719521 -0.10468372 0.6086 0.5895093 0.2369039 -0.0057401215
-0.6784539 0.40422818 -0.1891648 0.45943192 0.32016307 -0.8527411 0.62209964 -0.8885029
-0.14718148 0.21556373 0.48197168 -0.05614058 0.5257158 -0.23105988 0.49769345 -0.4641013
-0.41112214 -0.045528084 -0.17683713 -0.44301465 0.41322038 0.33661744 -0.14426354 -0.074860014
-0.2744485 0.6282526 -0.42054892 0.657237 -0.46766686 -0.34419084 -0.34367323 -0.28263485

encoder.10.bias f4 [4]
00000000: bd74 5bbe a3f6 61be 23d8 6e3e aa55 803e
-0.21431251 -0.2206674 0.23324637 0.25065356

decoder.0.weight f4 [20, 4]
00000000: 2d76 64be 14ef b83e 4e3f 3a3f f96d c23f
00000010: f34a f33e d8c6 b8be 63ba 1fbf ec37 1a3f
00000020: 1fc1 8cbe 95a3 94bd 53cd 5c3f 1458 073f
00000030: 8759 a4bd bfc0 7fbf ec90 71bf 10d6 543f
00000040: 1c18 923c b198 553e 96a4 e43e b9cf 543f
00000050: a060 313f a6d6 fbbe 6c52 883e 133b 64bf
00000060: 87d9 a43f 0801 e5bd 24b2 0d3f 2cfb 30bf
00000070: c249 f93e 2808 b1be 9c4d 15bf 8d0d e6be
00000080: ad8f 8abe 1d85 393f eb7d 8dbe 9651 09bf
00000090: 6f26 823e 4108 fe3e 8376 663e 4982 00bf
000000a0: 7a90 24be 6fc5 9e3e 7af4 b23e 1779 48be
000000b0: 9877 c5bf 828f 2f3f ce84 17bf aa1d 363f
000000c0: 91da a93d bfae 7cbf a68d 03bf 997a db3e
000000d0: f3f8 003f 00a5 dd3e 6e63 e73d 5ee0 8a3c
000000e0: 1ee2 0e3c f17f b9be c2be e0be 3484 38be
000000f0: 562f cd3e d2f1 f5be 3dc3 143f f9b8 ecbe
00000100: b0cc 88bf 29b6 54be d2c0 3d3e c442 e3be
00000110: d86d 80bf 2e84 babe a3b8 183f 2530 c7bd
00000120: c15d 10bf 0ec6 203f 5def 903d dcda 55be
00000130: 3b96 703e 0526 93be 9190 cebd d638 92be
-0.22310705 0.36119902 0.72752845 1.5189811 0.4751812 -0.36089206 -0.6239378 0.6024158
-0.2749109 -0.07257763 0.862508 0.5286877 -0.080248885 -0.9990348 -0.9436176 0.83139133
0.017833762 0.20859028 0.4465682 0.8312946 0.69288063 -0.491872 0.26625383 -0.8915264
1.2878884 -0.11181837 0.55349946 -0.6913326 0.48689085 -0.34576535 -0.5832155 -0.44932213
-0.2706274 0.7246874 -0.2763513 -0.53640115 0.25419948 0.49615672 0.22506146 -0.501988
-0.16070738 0.31010005 0.34952146 -0.19577442 -1.5427122 0.6857835 -0.5918702 0.71139014
0.08293641 -0.9870414 -0.51388013 0.42866972 0.50379866 0.43289948 0.112982616 0.01695269
0.008720903 -0.36230424 -0.43895537 -0.18019181 0.40075177 -0.48036057 0.5811041 -0.46234873
-1.0687466 -0.20772614 0.18530586 -0.44386876 -1.0033522 -0.3642897 0.59656733 -0.0972598
-0.5639306 0.6280221 0.07076905 -0.2088427 0.23494808 -0.28739944 -0.100861676 -0.28558987

decoder.0.bias f4 [20]
00000000: ba24 3abf 7cb9 3f3d 2c47 91be c51f 943d
00000010: ea31 70be 3241 5a3e cf82 093e f45f ac3e
00000020: dd90 38be 7f4a e73e 069e 593e 8e44 3abe
00000030: ecd1 03bc 56b9 d3be 658e f2be 14b6 adbd
00000040: 8644 38be 3c00 47be ce8e 963e 6d10 2e3e
-0.7271229 0.04680775 -0.28374612 0.07232622 -0.2345654 0.21313933 0.13428806 0.33666956
-0.18024011 0.45174024 0.21251687 -0.18190214 -0.008045655 -0.41352338 -0.47374263 -0.08481994
-0.1799489 -0.19433683 0.29405826 0.16998453

decoder.2.weight f4 [50, 20]
00000000: 26f5 933e cad8 c5be d793 53be 8738 86be
00000010: aa03 003d 9ce1 263e dc8d 203d 208c fd3d
00000020: 470c 373e 14ea 6f3e d3e2 d83c eb93 a13d
00000030: 4d6e 49be d56c b03d d080 5c3e e495 af3e
00000040: 56fc cb3d 6d00 393e d608 d93d e620 23be
00000050: d1d1 05be 6979 52bd 9161 5ebc 192f 913d
00000060: 7f56 0fbe a73b 1ebe 63ef 543e e910 013d
00000070: d65c 57be 5ed5 16be 48e0 dd3d 66f2 b03d
00000080: 6aa5 d73d f5b5 1bbe 5d46 b0bd d7b0 073d
00000090: 34ab 073c dcc0 5e3e fb99 54be 6e9e 213e
000000a0: 0266 0cbe 52a4 393e d693 3a3e 4d9c 0cbd
000000b0: 65d9 11bc 4f84 293e 770f 023e 1a5b b8bc
000000c0: 87fd bcbd 0653 0c3e 486c 06bd cca2 3fbd
000000d0: f75e ff3d 7637 4b3d 4d19 a0bd 9d68 2d3e
000000e0: 0863 eb3b e907 00be 25b2 26bd 64d4 543d
000000f0: 4c1c c5bd 983a 0f3e 55b9 84bd 3618 93bd
00000100: 7c04 72be f711 13bc 42cf 1a3e 6698 8c3e
00000110: e185 583d bf9d a43b 1d08 2fbd b85e 203e
00000120: 3afc 333d 58bb a7bd 1008 61be 15c8 6f3d
00000130: 6da9 d23d 2a90 2fbc 3482 9d3d 2057 70bd
00000140: aed6 e6be c669 8cbe 2e95 0d3e 5ae6 9e3d
00000150: 9015 56be 3fb6 1ebd f21a 5a3e c6a2 67be
00000160: 722c 94bd 2c63 6fbe 9052 fcbd ac24 723e
00000170: a58d 893e 738a 0abe 1865 cdbd b902 9a3e
00000180: 121e 383e f699 043e 6dcb 2c3e bb0a 0f3e
00000190: e02d 103e d589 5d3e 8274 853e f81e ecbd
000001a0: 1f33 7d3e dd24 823e 84f5 813e 16cd e2be
000001b0: 78cb 243e ef3c 833e adcf cabd a432 60be
000001c0: 4d56 8fbd 4d98 33be 7f47 043e b84b 953d
000001d0: dc7b 7abc 0afb dbbe 8669 f63d 125d 063d
000001e0: 84a8 543e c4b6 43be 2a85 273d 3f0e f3bc
000001f0: eb0f fc3d bc81 493e a55c d43b 1ade a3bd
00000200: 8c2c dcbd f576 543e 4d27 8dbd 0862 083e
00000210: b919 c2bd 1f5c 63be ca82 53be 68f4 f83d
00000220: ac67 58be f7ab 72bd df3d b8bc 6f2b f7bd
00000230: 48ef c3bd 6767 92bd a96c d8bd fb8a 6cbc
00000240: 5783 27be 242c 593b 83fb 543e 9ba3 8a3d
00000250: 4dd9 2f3e 56a1 0d3e 0f8d 37bd 2f47 113e
00000260: 020c 9c3d a25a 28be fb80 13be 95a8 77bc
00000270: 3562 f33d 9d87 a43d c830 87be 2cd9 79bc
00000280: 3eaf d53e 3e41 853e 24c4 843e 2123 64be
00000290: 1c05 a93e 36a8 443d 1210 873e 7563 8ebe
000002a0: ac18 b13d 5585 123e 39d9 1c3e 2f61 523d
000002b0: 7d78 5ebd 987b a73c d81e 25be fd26 96be
000002c0: df2c 17be 3c40 babd 7361 8e3d 664a 9d3d
000002d0: 26c9 3f3e 3a8a 7abc cc25 5f3e ef64 e63d
000002e0: c68a 25bd 8c7e 83be 925c e8bd 5b34 e1bd
000002f0: 4a38 07be 8288 cf3d 96b7 0e3e 0218 3c3e
00000300: 5753 1cbd ff09 eabd 94ea e23d d227 70be
00000310: bc86 38be 3133 0d3e bb29 353e 4ac5 1b3e
00000320: 51bb 71bd 020d 2a3e f410 8fbd e01f 37bd
00000330: c665 493e d828 4b3e f209 683e be0c 183e
00000340: f80d 2c3e d046 6cbd d13f 8e3d 25d6 853d
00000350: 85b9 1fbe f0e4 0ebd e389 943d 4956 3dbe
00000360: f7e6 713e 4d14 2dbe 656c 643e 9176 04bd
00000370: af9c 453e 88d3 2c3d 2e93 8c3d 4123 fa3d
00000380: 07f3 c5bd 61d0 2ebe 40e2 72be a60b 0d3e
00000390: dd53 a7bd 2898 38be 863b 71be ec4f 60be
000003a0: fa90 523c 8e2d bdbd 2ffe 7bbd 5be6 5dbe
000003b0: 1c14 0fbe 3b0d 933d 09f8 3cbd f052 903d
000003c0: 7931 933c d1f1 883e 096b 05bd 940e bc3e
000003d0: febf e43c ff0c 6ebd 2ea0 01bc b08d 803b
000003e0: c22e 423e a959 523e a85f 173e 7f2c a9be
000003f0: fc18 a83e 6e25 ddbd 4c67 fb3d 1733 e83c
0.2889797 -0.3864196 -0.20661865 -0.26215002 0.031253494 0.16297 0.039197788 0.12380242
0.17875777 0.23429137 0.026475346 0.07889541 -0.19670983 0.08614508 0.21533513 0.34294045
0.09960239 0.18066569 0.105973884 -0.15930519 -0.1306832 -0.051385317 -0.013573066 0.07089061
-0.1399784 -0.15452443 0.20794444 0.031510267 -0.21031508 -0.1472983 0.10833794 0.08639984
0.10529597 -0.1520613 -0.08607171 0.033127632 0.008280564 0.21753258 -0.20761864 0.15783092
-0.13710788 0.1812909 0.18220457 -0.034328748 -0.008901929 0.16554378 0.12701212 -0.022504378
-0.09228044 0.13703546 -0.03281811 -0.046786115 0.12469285 0.04961344 -0.07817326 0.16934438
0.0071834363 -0.12503017 -0.040697236 0.051960364 -0.09624538 0.13987195 -0.06480662 -0.07182352
-0.23634523 -0.008976451 0.15118125 0.2746002 0.052862052 0.0050236876 -0.042732347 0.15661132
0.043941714 -0.0819003 -0.21975732 0.058540422 0.10286222 -0.010715524 0.0769085 -0.05867684
-0.45085663 -0.2742445 0.13826439 0.0775878 -0.20906663 -0.038748022 0.21299341 -0.22620687
-0.0723504 -0.23377675 -0.12320435 0.23646802 0.2686588 -0.13529377 -0.10029048 0.30080202
0.17980221 0.12949356 0.16874476 0.13968937 0.1408 0.2163461 0.2606545 -0.11529344
0.24726532 0.2541875 0.25382626 -0.44297093 0.16093242 0.25632426 -0.09902892 -0.21894318
-0.069988824 -0.17538567 0.12917899 0.07289833 -0.015288319 -0.42964965 0.12031846 0.032803603
0.20767409 -0.19112688 0.04089848 -0.029669879 0.123077236 0.19678396 0.0064807707 -0.08001347
-0.10750684 0.20748504 -0.06892262 0.13318646 -0.094775625 -0.2220311 -0.20655361 0.12155992
-0.21133298 -0.05924603 -0.02249044 -0.12068831 -0.09567124 -0.07148629 -0.105676 -0.014437432
-0.16358696 0.0033137882 0.20799069 0.067694865 0.17172737 0.13831076 -0.04481226 0.1418731
0.07619478 -0.16440824 -0.14404671 -0.015115877 0.11883966 0.08033679 -0.26404405 -0.015249532
0.41735262 0.26026338 0.25930893 -0.22279026 0.3301171 0.04801198 0.26379448 -0.27810255
0.08647284 0.14308675 0.15317239 0.051362213 -0.054314125 0.020444676 -0.16125047 -0.2932662
-0.1476321 -0.09094283 0.06952181 0.07680206 0.18729076 -0.015291745 0.21791762 0.1124972
-0.040415548 -0.25682485 -0.113457814 -0.10996314 -0.13205066 0.10133459 0.1393722 0.18368533
-0.038165417 -0.11427688 0.110798985 -0.2345269 -0.18020147 0.13789059 0.176917 0.15211979
-0.05901653 0.16606525 -0.069856554 -0.044708133 0.1966773 0.198398 0.22660044 0.14848611
0.16802204 -0.05768472 0.06945766 0.065349855 -0.15598114 -0.0348863 0.07252862 -0.18489946
0.23623262 -0.16902275 0.22306974 -0.032339636 0.19298051 0.04219392 0.0686401 0.122137554
-0.096654944 -0.17071678 -0.2371912 0.13773975 -0.081702925 -0.18026793 -0.23557863 -0.21905488
0.012851948 -0.092372045 -0.061521705 -0.21669905 -0.13972515 0.07180258 -0.046134982 0.07047069
0.017967926 0.2674699 -0.03257278 0.36729872 0.02792358 -0.058117863 -0.007911725 0.0039231405
0.18963149 0.20542015 0.14782584 -0.3304176 0.32831562 -0.10798155 0.12275562 0.028344674

decoder.2.bias f4 [50]
00000000: 883f 843e 52b0 b9bd 2cd9 103d 37e7 053e
00000010: 0d67 913d b137 253e a665 10be eeda 3e3e
00000020: 0dfd 253e 9ba7 63be 1ffc 843d 0c99 fcbd
00000030: 4b17 11be 8747 8ebe 2162 1bbe 1231 b5bd
00000040: d335 a4be 9ec5 6c3d 787c a3bd 21be cabd
00000050: 589d 1b3e 0428 4b3c ea8e b2bd 68ab eb3a
00000060: 842e 5a3e 20a0 fe3d ffc6 3bbe 8e9f 5bbe
00000070: 82ef 153e 507e f0bd 53b8 48be c04d b13c
00000080: 5578 8d3d d248 8a3c d9d8 40be e1ce 7dbd
00000090: 2be7 a4be 759d be3b 724e f43d 7338 0bbe
000000a0: eb5e 0ebe 24bf c9bd bc28 03be 3fa0 48be
000000b0: b54e cd3e 38b4 e93d 8d53 ad3d 0a24 dfbd
000000c0: 74fc cebd 6b4e e8bd
0.2582972 -0.090668336 0.03536336 0.13076483 0.070997335 0.16134526 -0.14101276 0.18638203
0.16209812 -0.22231905 0.06493401 -0.12333879 -0.14169042 -0.27788946 -0.15174152 -0.0884725
-0.32072315 0.05780565 -0.07982725 -0.098995455 0.1519674 0.012399677 -0.08718665 0.001798016
0.21306807 0.12432885 -0.1833763 -0.21447584 0.14642146 -0.11742842 -0.19601564 0.02164352
0.06907717 0.016880427 -0.18832721 -0.061964873 -0.32207617 0.00581711 0.11929025 -0.13595752
-0.13903396 -0.0985091 -0.12808508 -0.19592379 0.4009911 0.11411327 0.08463202 -0.10895546
-0.10106745 -0.11343082

decoder.4.weight f4 [50, 50]
00000000: 3305 353d 7a4d 07be 3964 a3bd 1f4f 67bd
00000010: c5ab 933c 9096 58bd 29b0 c9bd 2c4a 0fbd
00000020: 6930 80bd ff0e c73c df2f 8b3d f2be 033c
00000030: 2d93 d6bd fa50 d5bd 0569 fe3d 4bb5 81bd
00000040: f6ea 383c f54f a1bd 9263 0e3c 634d abbc
00000050: 5d1b d0bd 9b18 adbd f019 d2bd 0823 c03d
00000060: bcb4 afbd 82a7 093e c7e6 0cbe 23bd 77bd
00000070: 9bea f2bd 91a8 e2bd 5c76 003e f99f ce3d
00000080: b08e 223d ac9c 1cbb b5e6 05be f9b6 e4bd
00000090: 933d ec3c a83d 67bd 57c5 0bbe b960 193d
000000a0: de2a bb3c c111 afbd d2d9 913c 1328 9abd
000000b0: 6b9d a6bd d36f 043e ad23 f63d 78f6 05bc
000000c0: 5346 9ebd 0da9 b7bd 6eb1 10be 7be6 d9bd
000000d0: 703d 7c3d f91b e83a 79c7 38bd d2cc 4d3e
000000e0: c2ab 6d3c 2bae 4bbd c833 4a3e 73f4 df3c
000000f0: 1ad9 093e efc3 d13d 04b2 053e 1589 f63d
00000100: b08d bebe ef2f 8fbd b316 6c3e b378 153c
00000110: 1b3d a63d 8c7b a03c b791 1dbe e46d f13d
00000120: 426d 3cbc 8a30 ce3d 009e b33d 7300 713e
00000130: 37a9 2b3e 8043 eabd 38b0 803e 247d ccbc
00000140: 5983 08be 446e e6bd 61f9 abbd 8d21 ef3d
00000150: 53e3 273e f53a fabb 8a3d e23c 7349 0c3e
00000160: 6d6e 08be e1b2 073e 626e 10be 4b01 4bbe
00000170: 8d80 75bd a0b8 f93d b49a 713e 18f7 51bd
00000180: 5d2a 20bd dd7d d23d e0c5 e5bc b491 703e
00000190: d799 883e 0141 24be 4e34 8bbd eb97 b2bd
000001a0: ad18 043e 1030 5a3d 222a e0bd 663f 94bd
000001b0: 0d1c 3a3d 5594 6dbd 6e1a 91bd 8c28 153d
000001c0: f6e5 2cbe fa75 413d 281e 7f3e 3917 50bd
000001d0: 81da a33d 0f4e aabd 4011 cbbb ffc1 71bd
000001e0: 1533 ac3d fbaf 78bd d154 cfbd d156 9fbd
000001f0: 0a82 373d 0d84 9fbc b1e9 cb3c 456c 67bd
00000200: ceee 53bc 6b56 ebbd 9913 eb3c f79b cdbd
00000210: a730 a73c d2b3 013e f628 d8bd a4bc ba3c
00000220: 72a4 c43d d8b4 023e 48eb f4bd 7300 4d3c
00000230: 6946 233d dd59 7d3d 38b6 cc3d 7f2b e23c
00000240: 9114 8c3e 64a9 debd 83d3 513d 2ddd 40be
00000250: b5c1 9fbc d159 893e eb95 a1bd 2bf7 f0bd
00000260: c068 89bd e20d 2e3e bbf6 bdbd c407 81be
00000270: 7eb4 d03d 2d75 aabc 2238 dcbb a091 b83d
00000280: cbe7 0abc 62db cdbd 8370 29be 0377 cf3e
00000290: 8a95 30be 8de5 53be 1193 f5bc 33bb 1cbd
000002a0: fd25 dbbb 951a ec3d b709 bb3e 1fac cb3d
000002b0: 8a2a 5bbd 0041 883d 3d15 063e f8eb 06bd
000002c0: f2c7 14be 315d 583d 388b 923d 0f2c 783d
000002d0: 9c4b f7bd 473f 8d3e bb76 9abd 45f2 093c
000002e0: 15c1 1d3d f824 80bd ca13 943e 95ac 8abb
000002f0: 4efa d23b 33b2 953d 5ff5 bf3d 8f8a a83e
00000300: 661c 183d d208 d83d cf5d 623e bea9 3a3c
00000310: d879 943e 8b6f 59be 1c95 ff3d bdef 4abe
00000320: a01e 143e ede9 50bd 244a 083d 5dc7 eebb
00000330: 4acf 943d 00fc 65bd 6721 f53c a596 4b3d
00000340: 6dac 50bc 8b78 4c3e 1350 82bd c04e 203e
00000350: b99a 00be e1fd 043f 0632 e53d eccb bebd
00000360: 20d9 943e f978 acbd 9825 173e 72a8 5b3d
00000370: de7f f13d 351b d03c 4b96 77ba 53b7 a3bd
00000380: 97c0 80bd 32a7 fc3d 133c 223d 76de 0fbe
00000390: e7ee 92bd 7969 5bbe 321a fd3d a430 fd3c
000003a0: af51 cd3c e09c 503e 96e4 3d3d d289 e93d
000003b0: 2b0e c13e 141f 01be aaab c23d 5ad4 8e3e
000003c0: 4700 52bc f0fe 1f3e acf5 ce3d 8ab9 aa3d
000003d0: 7582 7c3e a2af 733d 55b8 253d 0f34 8e3d
000003e0: 6469 243e 5ad0 d6be b531 cfbc affe c0bc
000003f0: 36d8 bd3d 24b5 bb3c d111 e83d 9be1 be3b
0.04419441 -0.13213149 -0.079781 -0.05647194 0.018026242 -0.052877963 -0.09848053 -0.034982845
-0.062592335 0.024299143 0.0679624 0.00804113 -0.1047729 -0.10415836 0.12422375 -0.06333407
0.011286488 -0.07876579 0.008690732 -0.020910924 -0.10161469 -0.08451959 -0.102588534 0.09381682
-0.08579394 0.13442805 -0.1375991 -0.06048311 -0.11861154 -0.11067308 0.1254515 0.10089106
0.03968686 -0.0023897095 -0.13076289 -0.11167712 0.028837955 -0.056455284 -0.13649498 0.037445758
0.02284759 -0.08548308 0.01780406 -0.07527175 -0.08135494 0.12933283 0.12018523 -0.0081764385
-0.07728257 -0.08967791 -0.14130184 -0.10639664 0.06158203 0.0017708532 -0.045112107 0.20097664
0.014506282 -0.049726646 0.19746315 0.027338242 0.13461724 0.102424495 0.13056189 0.12037865
-0.37217474 -0.069915645 0.23055534 0.009123015 0.08117124 0.019590162 -0.15387617 0.11788538
-0.0115006585 0.10067852 0.087703705 0.23535328 0.16763769 -0.11438656 0.25134444 -0.024962015
-0.13331355 -0.112515 -0.083971746 0.11676321 0.16395311 -0.0076364228 0.027617235 0.13699894
-0.13323374 0.1325183 -0.14104608 -0.19824712 -0.05993705 0.121934175 0.23594171 -0.051261038
-0.0391029 0.10277913 -0.028048456 0.23493081 0.2667987 -0.16040422 -0.06797086 -0.08720382
0.12900038 0.053268492 -0.10945536 -0.07238655 0.045436908 -0.05800279 -0.07085119 0.03641562
-0.16884598 0.04723165 0.24913847 -0.050803397 0.08000661 -0.0831567 -0.0061971247 -0.0590229
0.084081806 -0.060714703 -0.10123599 -0.07780231 0.04480175 -0.019472146 0.024891706 -0.05649974
-0.012935353 -0.11491092 0.028695868 -0.100395136 0.020408941 0.12666252 -0.10554688 0.022795029
0.09601678 0.12764299 -0.11958939 0.012512314 0.03986207 0.06185328 0.09995693 0.027608631
0.2735944 -0.108721524 0.051227104 -0.18834372 -0.019501546 0.26826337 -0.07889923 -0.117658935
-0.067094326 0.16997483 -0.09275576 -0.25201237 0.10190676 -0.020807827 -0.0067205587 0.09012151
-0.008478115 -0.100516096 -0.16546826 0.40520486 -0.17244545 -0.20693035 -0.029977353 -0.038264465
-0.006687878 0.115285076 0.3653085 0.09944939 -0.053507365 0.06653023 0.1309404 -0.03293988
-0.14529398 0.05282325 0.0715546 0.060588893 -0.12074968 0.2758734 -0.07542177 0.008419578
0.038514215 -0.06257051 0.28921348 -0.004231999 0.00643853 0.073093794 0.09372973 0.32918212
0.037136458 0.10548557 0.22106098 0.011393009 0.2899921 -0.21233957 0.12479612 -0.19818015
0.14464808 -0.05100434 0.03327383 -0.0072869495 0.072661 -0.05614853 0.029923154 0.049704213
-0.012736422 0.19967858 -0.06362929 0.1565504 -0.12559022 0.5194989 0.11191182 -0.09316239
0.29071903 -0.08421511 0.14760435 0.05362744 0.11791967 0.025403598 -0.00094446976 -0.07993951
-0.062867336 0.123365775 0.039608072 -0.14049706 -0.07174473 -0.21426953 0.12358512 0.030906983
0.025063364 0.20372343 0.046360575 0.1140324 0.37706122 -0.12609512 0.095053986 0.27896386
-0.012817449 0.15624595 0.10105452 0.0833617 0.2465914 0.05949367 0.040458996 0.06943523
0.16055828 -0.41955835 -0.025292257 -0.023558943 0.092697546 0.022913523 0.11331523 0.005825234

decoder.4.bias f4 [50]
00000000: e930 00be 5835 da3d 6bd0 a83e 4d9c 2cbd
00000010: 97d2 e23d 3d92 f8bd 012c 83be 8113 b43d
00000020: 9462 21be 7315 a13d c2b2 04be 25cf dbbd
00000030: 79b7 14be 677b 0c39 e0ce 203d 31c8 2cbe
00000040: 3f82 58bc 0a34 ddbb 109a 873d e094 d4bd
00000050: 355b cdbd 4f3e 843c e395 8d3e f323 f8bc
00000060: e8aa b83d 2aa9 a1bd f532 68bd a5e8 7ebd
00000070: 97ef e9bc 0b55 443e 4f94 353d a505 0f3e
00000080: 0458 de3b a7f3 03bd c23c 6c3c c979 503d
00000090: 1d29 143e 2a1e cb3d 45d5 0e3e 6884 23bb
000000a0: dddd 1ebd e1f0 fe3b d0b0 223e 4c18 843d
000000b0: 3c81 05be e5bf 81bd 872c 6a3d af11 b6bd
000000c0: 521b 563e 6dcc e1bb
-0.12518658 0.10654706 0.3297151 -0.042141248 0.11075323 -0.12137268 -0.2561951 0.087927826
-0.15760261 0.07865419 -0.12958816 -0.10732869 -0.14523114 0.00013397411 0.03925979 -0.16873242
-0.013214647 -0.0067505883 0.06621182 -0.10379958 -0.10027162 0.016142992 0.27653417 -0.03029058
0.09016973 -0.078935936 -0.05668922 -0.062233586 -0.028556628 0.19173066 0.04433089 0.13966997
0.0067853946 -0.032214787 0.014418783 0.050897393 0.14468808 0.09917863 0.13948543 -0.0024950746
-0.038785804 0.00778018 0.15887761 0.06449947 -0.1303758 -0.06335429 0.05717137 -0.08890092
0.2090886 -0.0068908245

decoder.6.weight f4 [6, 50]
00000000: 5a60 983d 0535 afbe 0532 8f3e 7627 a2be
00000010: cfd7 933d aab8 be3d dd79 613e 6ab7 863e
00000020: fbc3 44be a92d 09be e36d 9cbd 6462 a4bd
00000030: 1a54 0ebe 0aa8 733e 7e9d ce3e 6e19 86bc
00000040: 2c5a 34bd 7d66 123d 4021 a6bd bb87 b4bd
00000050: 3362 aebd 7fa3 90be 2f66 233e 1950 fbbd
00000060: c455 8b3e 0d1d f3bd a8b6 b43e 471b cebd
00000070: ba2b 973d edab 693e f416 983e 94d8 1fbe
00000080: 8e49 003e cada 0f3e e93a 7bbf ffef d4bd
00000090: 2bc9 b53e 88f9 ac3e 522d 603e e15e 043e
000000a0: 4fee 9f3d 736b 5ebf 2763 98be 7109 9d3d
000000b0: 716a bcbd 6ca0 d73d 9adb 9b3e 59de 8abe
000000c0: 45b6 87be e342 693a 2ed6 3bbd daa8 8bbe
000000d0: a1da a3bb 9ca7 85be 5032 8abd 06ed 0bbd
000000e0: 0c34 06be 02ab 93bd 4909 2c3e c52f 063e
000000f0: c79a 9dbd 0f2c 07bd b9b7 95bd 1259 1dbd
00000100: 5652 cbbe 9e2d 883d 2b3c 20be 948d f03c
00000110: bbfe 443d 4d1e e43d 38a4 ed3b fe42 bf3a
00000120: 04f5 52be f82d 8c3d a563 ebbc bd22 983d
00000130: 6911 cd3d 3cd9 d5bd 9d23 873e 2a42 5abd
00000140: d444 81bd 0215 e03d ac2c da3d 904a 483c
00000150: 563e 5c3d 719b ac3e bea9 743d d9f4 973d
00000160: 258b c0be cf8c 76bd ca49 e23d 1f44 fa3d
00000170: 62de 54be 768a f73d 4b51 f63d fa57 99bd
00000180: baf8 843e c932 32be d3f1 5c3a 51e2 59bd
00000190: 9b1a 633d 4175 343d 8430 9c3d 2679 7ebd
000001a0: 95c8 20bc 41b7 50bc 8c06 0bbd a4bb 25bd
000001b0: 4c77 ddb9 f594 9abc 06b5 cebd bf90 253d
000001c0: b7ab d1bd 6100 4c3c b613 f9bd 2c99 13be
000001d0: b679 923d 9bb8 febd 6679 92bc 9f38 adbd
000001e0: 91c8 3fbd 819b e13d 2e25 a4bc 7f5a e9bd
000001f0: 7857 1bbd d7f5 483c 90f0 80bd f9ef a53c
00000200: 0cbd e13d 2205 983d eeaf 9dbc ef70 abbd
00000210: 08d1 1cbe b16d b73d e9e9 e43c 1853 fc3d
00000220: 6ab0 e83d 52f7 193b d733 53be f513 39bd
00000230: 217b 1bbd a4a0 793c 7005 dc3c fc97 7b3d
00000240: 04e8 f43c e36e d2bd 30a1 1a3e f92a c3bc
00000250: b2b8 71bd a7a1 f1bd 6c25 823d 1785 cf3e
00000260: 3c73 e23e f561 29bf 5cf9 24bf 5326 b0bc
00000270: da40 9abf 62cd 443e 9715 03bf edff dcbd
00000280: d2ff 293d 3e13 fb3d 6dae d33d 3b75 03bf
00000290: f094 48bf d644 f43d 06f9 0abf e2d5 e3bd
000002a0: b203 23bf e683 05bd 69a8 91bd 9bc8 2dbe
000002b0: ad2a 3b3e 662e d9bd 4a6e ccbc 5b46 483c
000002c0: 50b3 c33e 052a c4bc 786c 20be 1f5f a83e
000002d0: 4519 2f3e cddc 4dbf 2802 113d d246 e5bd
000002e0: 13af a2be ef25 48bd 2c2c debe 5821 9bbf
000002f0: a3cc c13d 37cc 04be e6ea 163e bf4d 0d3f
00000300: 9e80 8dbd 1c14 053e e201 0c3d 8542 f13d
00000310: b5cf 0f3d b90c 053e 55a1 97bf 10ff 8abd
00000320: 644d 9c3d 5c82 b7be daa5 933e d4ab a73e
00000330: 7ac4 8b3e c0f5 bebd 6ab4 d9be 1bde 2b3d
00000340: 9472 153e 5c99 6c3b 3327 c0bd 75eb da3d
00000350: 2d48 8f3d 6551 8e3e 13c1 8cbf b856 083e
00000360: c05c efbe 56d0 883d a446 32bf efe7 8b3d
00000370: f813 22bd 125a 10be b535 9e3e 5f54 933d
00000380: 7a11 a53e 0140 ba3d 8939 69be 263c d83d
00000390: f9b1 9d3e d0d6 633e 16d5 7bbe bb29 4bbf
000003a0: cd94 f13d 9e38 ed3d 777a 0cbf e4e0 813e
000003b0: 7d15 83bf 53bf f03d 5384 bb3d fedc 99bc
000003c0: fd15 1bbe d7a8 983e 0b79 363d 8927 f2bd
000003d0: ed64 54bd 880d b2bd 3ae4 46bf fa61 dbbc
000003e0: 5353 54bf 9726 4fbd 0daf f23d b45e 60be
000003f0: e09d 26be 2150 debe c0e0 6ebf 7cf1 0e3d
0.074402526 -0.34220138 0.2796785 -0.3167073 0.072188966 0.093125656 0.22019143 0.2631181
-0.19215386 -0.13396324 -0.07638147 -0.08026579 -0.1389927 0.2379457 0.40354532 -0.016369548
-0.044031307 0.03574227 -0.08111811 -0.08814951 -0.08514824 -0.28249738 0.15956949 -0.12271137
0.2721387 -0.11870775 0.35295606 -0.100637965 0.07381387 0.2281949 0.29705012 -0.15609962
0.12528059 0.14048305 -0.98136765 -0.10397338 0.3550504 0.33784127 0.21892288 0.12926818
0.07809126 -0.86882704 -0.29763147 0.076678164 -0.091999896 0.10528645 0.3044098 -0.27122763
-0.26506248 0.00088982115 -0.045858555 -0.2727726 -0.005000428 -0.26104438 -0.067478776 -0.03416159
-0.13105792 -0.072103515 0.16800417 0.1310416 -0.07695537 -0.033001002 -0.07310433 -0.038415022
-0.39711255 0.06649326 -0.15647952 0.029364385 0.048094492 0.11138592 0.0072522424 0.0014592109
-0.20601279 0.06844705 -0.028734038 0.07428501 0.10013086 -0.10441825 0.26394358 -0.053285755
-0.06311956 0.10941507 0.10653052 0.012224808 0.053770386 0.33712342 0.05973219 0.07419748
-0.3760616 -0.06019288 0.110492304 0.12220024 -0.20787957 0.12086956 0.12027224 -0.07487483
0.25971013 -0.17402185 0.00084283686 -0.053194348 0.055445295 0.044057135 0.07626441 -0.062127255
-0.0098134475 -0.012739004 -0.03394179 -0.04046215 -0.00042241288 -0.018869856 -0.10093121 0.040421244
-0.1023783 0.012451262 -0.12161963 -0.14413899 0.07152121 -0.124375544 -0.017880153 -0.08458065
-0.046822134 0.11015988 -0.02003726 -0.11394214 -0.037925214 0.012265644 -0.06295884 0.02025603
0.11022386 0.07422854 -0.019248929 -0.0837115 -0.15314114 0.08956469 0.027943568 0.123205364
0.11361773 0.0023493362 -0.20625244 -0.045185048 -0.03795922 0.015236054 0.026858062 0.06142424
0.02989579 -0.10275056 0.1510055 -0.023824202 -0.05901403 -0.11798411 0.06354794 0.40531227
0.44228542 -0.66165096 -0.6444299 -0.02150265 -1.2051041 0.19218972 -0.5120482 -0.107910015
0.041503735 0.122595295 0.103360035 -0.51350754 -0.7835226 0.11927192 -0.5428623 -0.11124779
-0.63677514 -0.03259649 -0.071122 -0.16971056 0.18277998 -0.10604553 -0.024954934 0.012223805
0.38222742 -0.023945818 -0.15666378 0.32885072 0.17099483 -0.8041504 0.035402447 -0.111951485
-0.31774196 -0.0488643 -0.43393075 -1.2119551 0.094628595 -0.12968527 0.14738044 0.55196756
-0.069092974 0.12995952 0.034181483 0.11780266 0.035110194 0.12993135 -1.184611 -0.067869306
0.076319486 -0.35841644 0.28837472 0.32748282 0.27298337 -0.09324217 -0.42520458 0.041959863
0.1459449 0.0036102151 -0.09382477 0.10689441 0.06996188 0.27796474 -1.0996422 0.1331433
-0.4675045 0.06680362 -0.6963904 0.06831347 -0.039569825 -0.14096859 0.3090035 0.07193827
0.32239896 0.09094239 -0.22775854 0.105583474 0.30799845 0.22249913 -0.24593005 -0.7936055
0.117959596 0.115830645 -0.54874367 0.2536689 -1.0240933 0.11755242 0.09156098 -0.018782135
-0.15145107 0.29816315 0.04454903 -0.11823947 -0.051854063 -0.08693987 -0.77691996 -0.026780117
-0.8293964 -0.05057391 0.118497945 -0.21911126 -0.16271162 -0.43420509 -0.9331169 0.034898266

decoder.6.bias f4 [6]
00000000: 5bf5 093e dcaa c2be b8c1 8fbc 6018 143f
00000010: e4d6 583e 13f4 c93e
0.13472502 -0.3802098 -0.017548427 0.57849693 0.21175724 0.39444026

cluster_layer.weight f4 [4, 4]
00000000: 175e abbd 9bf5 e0bd 8292 cc3d 4d5b d63d
00000010: a589 cabd 4866 cbbd 2592 cc3d 77a3 d03d
00000020: 3b33 cebd 479f c63d 325b cf3d 93e5 cebd
00000030: d0c1 cc3d 8ccf cabd 0296 ccbd 3b06 cf3d
-0.083675556 -0.109843455 0.09988882 0.10466633 -0.09889535 -0.09931618 0.09988812 0.101874284
-0.10068365 0.096983485 0.10124816 -0.101023816 0.09997904 -0.09902868 -0.09989549 0.1010861
