RiskViz Folder/model/checkpoint_1500.tar (torch, 110796 bytes, 51 tensors)

encoder.1.weight f4 [50, 6]
-0.5435107 0.0074375113 -0.00020953984 0.20683667 -0.36292496 0.12577468 -0.0021609508 -0.006096327
-0.0060421 2.8252966 0.01736612 -0.12809926 -0.16416727 -0.12527837 0.008061965 -0.10813503
0.4712323 -0.26342523 0.21230714 0.0020387266 0.0017254348 -0.14352085 0.0060892436 1.2125385
-0.031285524 -0.1541933 -0.0064600585 0.8655922 0.24295983 -0.54763305 0.6578149 0.026810765
-0.0060361223 0.03507036 0.069197394 1.1533843 -0.07726007 -0.22561006 -0.11648516 -0.2452837
0.21043281 -0.20402303 -0.8617173 0.20708829 -0.0057437983 -0.04336016 -0.12092597 -0.045979746
0.7126262 -0.008191539 -0.0033119605 0.8710527 0.6707335 0.055998057 -0.32257843 0.010853922
-0.18992507 -0.0023718332 0.19905533 0.17982157 -0.50654393 0.00881712 -0.005855655 -0.9772439
-0.32434902 0.1595173 -0.23295024 -0.17829604 0.13712148 0.23495844 0.0057202694 -0.15880233
-0.18636924 -0.008086446 -0.031557653 1.1106969 -0.09480156 0.7493639 -0.5469954 0.006734075
-0.0031463134 -0.7868981 -0.3076112 0.12389863 -2.6426 -0.0043665404 0.008376025 0.07943973
-0.480478 0.42224637 -0.6681225 0.0038816156 0.0010505414 -0.07641613 -0.4407067 -0.057463124
-0.2642139 0.27941355 0.15899475 0.32169014 -0.3020622 -0.40073156 -1.0207728 -0.03151196
-0.008251761 -0.9196695 0.7335198 0.6004064 -0.0037266223 -0.0035134566 -0.0059285164 2.7202857
0.010296295 -0.10497489 0.08570262 -0.3067651 -0.21843556 -0.19187394 -0.23100477 0.07239225
-0.242308 0.0044683684 -0.0020657755 -0.71462697 0.74426466 0.097838394 -0.35404223 -0.26491043
0.15518469 0.15044476 -0.2524419 -0.12898743 -2.9392989 0.006378424 0.007147267 -0.46951276
-0.33265567 0.2341908 0.33536756 -0.08451464 -0.062347516 0.14933977 0.06694511 -0.13394453
-0.28669295 -0.0890065 0.052915778 -0.13958131 0.59277177 0.11271334 -0.106732465 -0.39057043
-0.37332195 0.1711327 0.31105378 -0.0021758587 -2.915492 -0.0025383537 0.0017427735 -0.734825
-0.17604424 0.16845214 -2.6797028 -0.003221427 0.0036427875 -0.6435343 -0.12728576 -0.5605644
0.84267676 -0.0037562537 -0.00042663014 -1.2596304 0.6516809 0.04791458 -0.22642867 -0.026689379
-0.28906256 -0.018850517 0.22728829 -0.18349594 0.85947716 -0.012450344 -0.0017798573 0.5593056
-0.36181322 -0.23466356 0.051113047 -0.0017954207 0.0017801941 -0.12362501 0.16022567 1.3986399
0.31295428 -0.39888585 0.04275021 -0.019513125 0.109933235 -0.10009864 0.07746903 -0.20231828
0.1304311 0.73093575 0.014269869 -0.21510786 -0.7483165 -0.0053004036 -0.0055380696 -0.01556509
-0.0149760535 1.2116425 -0.0030263434 -0.0010650252 -0.0058205733 1.7619842 0.30270675 0.0016837107
0.2257957 0.13533066 0.039910335 -0.11837798 0.063402414 0.029284671 0.026242182 0.0010627435
0.00033959578 -0.78456897 0.039171856 0.76724917 0.014134775 -0.006751517 0.0015051544 -0.2690421
0.2557138 1.5790414 1.2040757 0.00023607735 -0.0017284071 -0.42229822 -0.12420281 -0.64618915
-2.9444869 0.009037302 0.0029945811 -0.93177485 -0.3277247 0.24240467 -0.0032622195 -0.0035324984
-0.0074351514 2.663328 -0.39338687 -0.20090084 -0.63174224 0.014820037 -0.011354808 0.18577354
00000000: 8423 0bbf 5eb6 f33b ecb7 5bb9 fecc 533e
00000010: 4dd1 b9be 14cb 003e bd9e 0dbb b3c3 c7bb
00000020: cffc c5bb a9d1 3440 6543 8e3c 742c 03be
00000030: 771b 28be f948 00be 5516 043c e675 ddbd
00000040: 5c45 f13e acdf 86be 0b67 593e 289c 053b
00000050: fc27 e23a 21f7 12be 4788 c73b 7634 9b3f
00000060: 4025 00bd d9e4 1dbe e6ae d3bb 7397 5d3f
00000070: 76ca 783e ae31 0cbf 8f66 283f 40a2 db3c
00000080: aaca c5bb f0a5 0f3d 5db7 8d3d 19a2 933f
00000090: 873a 9ebd 5306 67be c68f eebd a62b 7bbe
000000a0: b37b 573e 6aeb 50be 8199 5cbf f40e 543e
000000b0: 7936 bcbb 6c9a 31bd 09a8 f7bd 4255 3cbd
000000c0: ac6e 363f ce35 06bc 7a0d 59bb 4ffd 5e3f
000000d0: 31b5 2b3f 385e 653d 0029 a5be a6d4 313c
000000e0: b87b 42be c270 1bbb 29d5 4b3e 2523 383e
000000f0: ddac 01bf af75 103c cbe0 bfbb a82c 7abf
00000100: 1311 a6be 8158 233e 828a 6ebe 3d93 36be
00000110: 9369 0c3e f298 703e 1971 bb3b 149d 22be
00000120: 94d7 3ebe 037d 04bc 9942 01bd 512b 8e3f
00000130: 5227 c2bd 50d6 3f3f e407 0cbf 84a9 dc3b
00000140: 6132 4ebb 2772 49bf 377f 9dbe 91be fd3d
00000150: 5c20 29c0 3215 8fbb 983b 093c 4cb1 a23d
00000160: 3601 f6be ad30 d83e 130a 2bbf b462 7e3b
00000170: 52b2 893a 0f80 9cbd 4fa4 e1be 745e 6bbd
00000180: 0b47 87be 4b0f 8f3e 85cf 223e 92b4 a43e
00000190: e6a7 9abe b02c cdbe afa8 82bf af12 01bd
000001a0: 6532 07bc 766f 6bbf f4c7 3b3f 3cb4 193f
000001b0: 593a 74bb 0542 66bb 0044 c2bb 2919 2e40
000001c0: cbb1 283c 13fd d6bd db84 af3d 5110 9dbe
000001d0: 92ad 5fbe 9a7a 44be 848c 6cbe 6342 943d
000001e0: 971f 78be 646b 923b f661 07bb cbf1 36bf
000001f0: 2188 3e3f 7f5f c83d 0645 b5be 57a2 87be
00000200: bce8 1e3e 310e 1a3e 1140 81be 4815 04be
00000210: 791d 3cc0 1902 d13b 9f33 ea3b fa63 f0be
00000220: d851 aabe b7cf 6f3e 4cb5 ab3e 0316 adbd
00000230: 1c60 7fbd 86ec 183e 851a 893d c128 09be
00000240: 6bc9 92be 0a49 b6bd 37be 583d 67ee 0ebe
00000250: e4bf 173f 40d6 e63d 8d96 dabd d9f8 c7be
00000260: 0e24 bfbe 693d 2f3e 7142 9f3e da98 0ebb
00000270: 6c97 3ac0 825a 26bb c66d e43a 7e1d 3cbf
00000280: f144 34be b87e 2c3e 4080 2bc0 941e 53bb
00000290: d5bb 6e3b aabe 24bf 3357 02be 2681 0fbf
000002a0: aab9 573f 7b2b 76bb 54ad dfb9 923b a1bf
000002b0: 8fd4 263f 1442 443d ebdc 67be afa3 dabc
000002c0: 0200 94be 666c 9abc 43be 683e 5ce6 3bbe
000002d0: b206 5c3f 87fc 4bbc 1a4a e9ba a72e 0f3f
000002e0: 953f b9be a54b 70be ea5b 513d 5254 ebba
000002f0: 6755 e93a 1c2f fdbd 3312 243e a206 b33f
00000300: 8b3b a03e c43a ccbe d81a 2f3d fdd9 9fbc
00000310: ad24 e13d 8400 cdbd 15a8 9e3d 862c 4fbe
00000320: bb8f 053e 9b1e 3b3f 2bcc 693c 3c45 5cbe
00000330: ac91 3fbf 02af adbb b278 b5bb b804 7fbc
00000340: 1f5e 75bc 1a17 9b3f 9e55 46bb 5198 8bba
00000350: 82ba bebb b388 e13f 61fc 9a3e f5af dc3a
00000360: fd36 673e 1f94 0a3e 0579 233d 2870 f2bd
00000370: 20d9 813d 68e6 ef3c d8f9 d63c c14b 8b3a
00000380: c60b b239 83d9 48bf ab72 203d 716a 443f
00000390: 8b95 673c d43b ddbb 9a48 c53a e3bf 89be
000003a0: ebec 823e 071e ca3f 271f 9a3f 888b 7739
000003b0: b88b e2ba 7937 d8be 0b5e febd a76c 25bf
000003c0: 7972 3cc0 3111 143c bc40 443b cc88 6ebf
000003d0: 88cb a7be ee38 783e f6ca 55bb 7d81 67bb
000003e0: 92a2 f3bb f773 2a40 016a c9be f3b8 4dbe
000003f0: dcb9 21bf becf 723c 8409 3abc 6b3b 3e3e

encoder.1.bias f4 [50]
0.2525677 2.5525631e-05 -0.009399961 -0.15791392 -0.096622534 -0.5354996 -0.12963375 -0.079902895
-0.3672898 -0.33295783 0.20727663 -0.39319113 -1.0116118 0.23330608 0.015282496 0.34106272
-0.35917535 0.026725125 -0.0038040716 -0.26781815 0.11838931 -0.14510174 0.022077728 -0.3617693
-0.055143803 -0.30871147 0.01678863 0.017353496 -0.42783996 -0.2420286 -0.4574985 -0.2513423
-0.41935992 -0.37848538 -0.01203162 -0.000888436 -0.3501778 -0.030116968 -0.38111722 -0.7413382
0.012350778 -0.0026987388 0.012686657 -0.52318776 -0.7603249 0.012634753 -0.0013157828 0.023244685
-0.29536524 0.00012234367
00000000: 8e50 813e e01f d637 4b02 1abc 30b4 21be
00000010: 09e2 c5bd 8016 09bf b6be 04be 21a4 a3bd
00000020: 690d bcbe 7379 aabe 5340 543e 5950 c9be
00000030: 7f7c 81bf cae7 6e3e 6f63 7a3c c69f ae3e
00000040: d5e5 b7be a6ee da3c bb4d 79bb 761f 89be
00000050: 1876 f23d 8d95 14be 5adc b43c d339 b9be
00000060: 78de 61bd 6e0f 9ebe 4f88 893c eb28 8e3c
00000070: d70d dbbe 58d6 77be 3e3d eabe f0af 80be
00000080: 58b6 d6be d6c8 c1be 4620 45bc eee5 68ba
00000090: 814a b3be dcb7 f6bc cc21 c3be 57c8 3dbf
000000a0: eb5a 4a3c 53dd 30bb b2db 4f3c a2ef 05bf
000000b0: a7a4 42bf ff01 4f3c 5876 acba a36b be3c
000000c0: 1d3a 97be 6149 0039

encoder.4.weight f4 [50, 50]
0.031516977 -0.3859748 -0.16809167 -0.03613124 -0.2518303 0.084495045 -0.018058926 0.04147336
0.07184746 0.088675626 0.14970976 0.0053146165 -0.09596308 0.009737381 0.24192023 -0.03460338
-0.1407951 0.0009456307 -0.38626516 -0.09891259 -0.012315387 0.03212549 0.26182902 -0.025358735
-0.048224457 -0.03465613 0.14394815 0.31679806 0.052934933 0.10078159 0.13152596 -0.1335632
0.037528288 0.06636218 0.10203155 -0.33100644 -0.0008698682 -0.06426021 -0.03330043 0.25398773
0.26888502 -0.34465232 -0.06425101 -0.0715604 0.5066787 -0.015396607 -0.30256796 -0.0071961144
0.072190255 -0.1280064 -0.013279331 -0.010210051 0.038155295 -0.10090518 -0.026709732 0.1923628
-0.07204909 -0.018928822 -0.065005764 0.07474837 -0.060842514 -0.106248334 -0.113593206 0.2562486
0.13355598 -0.026049174 -0.13524383 0.0120095 0.0017117754 0.016348662 -0.021963805 -0.03097622
0.26085362 0.051699165 0.011450063 -0.07649286 0.39059722 0.39378458 -0.024936235 0.13109224
-0.09312914 -0.15571925 0.027050696 0.03398911 0.15462217 -0.10214589 0.09533883 0.010597083
-0.16046484 0.39477992 0.31199977 -0.0025780825 -0.12623332 -0.09576929 0.28298444 0.13743931
-0.1279097 -0.09038615 -0.029071154 0.045738555 0.022020241 -0.47721264 0.049674243 0.06245799
-0.04672033 0.042148013 -0.042142726 0.01373795 -0.19053721 0.140518 0.04019422 0.1344255
0.12720051 0.040394932 -0.24464324 0.023508988 -0.052886862 -0.036465086 -0.38121992 0.07875923
0.2304568 -0.11003997 -0.24072647 0.042074446 -0.02315096 0.06514943 0.02992024 -0.059966575
-0.18508033 -0.040903438 -0.3346737 0.15143168 0.09804737 -0.1342973 0.06562113 -0.044169977
0.108073935 0.060825974 0.05572999 -0.2571488 -0.045276668 -0.20976958 -0.11721347 -0.0060932976
-0.17115018 0.102652654 -0.0032056426 -0.10530778 -0.10242921 -0.18918958 -0.2891233 -0.2355613
-0.04692467 -0.08570133 -0.07533028 0.22377506 0.124883376 0.056643818 0.06307033 -0.11397273
-0.10622942 -0.120160505 0.10269551 -0.23378363 0.02350522 -0.20852251 -0.0978889 -0.28324643
-0.22821173 -0.0646535 -0.361289 0.100036174 -0.06789111 -0.016767329 -0.07187718 0.05873005
-0.062560566 -0.017251143 0.027090743 0.097589634 0.12153999 -0.12661919 -0.03557025 -0.112215295
0.056750834 -0.2698692 0.02126039 -0.32285798 -0.00816788 0.32349288 -0.09308461 -0.22079788
-0.1888624 0.12998101 0.4899302 -0.06127262 -0.31271327 0.06111685 0.1106847 -0.12211231
0.018941876 -0.23665532 0.035422925 0.4750056 -0.11663837 0.40015602 -0.06979837 0.20092921
-0.015836753 -0.09418666 -0.0071249413 0.11147852 -0.019667089 -0.00043542645 0.027626853 -0.0033181717
-0.1149184 -0.0087095145 -0.2760742 0.033663295 -0.0033533596 -0.04230303 -0.059934348 0.08352757
0.033795957 0.06623548 0.09746421 0.09771393 -0.011372655 0.056435432 -0.057892647 0.46896946
-0.054293443 0.12283692 0.36600417 0.04442342 -0.13547404 -0.08378476 0.4659747 0.20241602
-0.011781367 -0.25318477 -0.0011460889 0.11113721 -0.07946844 0.05100494 0.021135954 -0.11016235
-0.08119057 0.15081044 -0.014129195 -0.06880303 0.020768888 0.21433681 0.060031533 0.30437264
00000000: f217 013d 7d9e c5be 3920 2cbe 5afe 13bd
00000010: e7ef 80be bd0b ad3d 50f0 93bc f8df 293d
00000020: c324 933d 919b b53d 844d 193e 3c26 ae3b
00000030: 4b88 c4bd 8989 1f3c f0b9 773e 46bc 0dbd
00000040: 972c 10be 34e4 773a 8cc4 c5be af92 cabd
00000050: 7ac6 49bc 0596 033d 740e 863e 1fbd cfbc
00000060: 0287 45bd 96f3 0dbd 2567 133e 5b33 a23e
00000070: 4dd2 583d 9466 ce3d beae 063e cbc4 08be
00000080: 43b7 193d e5e8 873d ebf5 d03d ad79 a9be
00000090: de07 64ba db9a 83bd 0866 08bd ae0a 823e
000000a0: 4cab 893e 4576 b0be 0996 83bd 428e 92bd
000000b0: b2b5 013f 0d42 7cbc 30ea 9abe 62cd ebbb
000000c0: 7cd8 933d 1c14 03be 8d91 59bc 0f48 27bc
000000d0: ba48 1c3d 60a7 cebd 5ece dabc c1fa 443e
000000e0: 798e 93bd 9e10 9bbc be21 85bd ac15 993d
000000f0: 0036 79bd ba98 d9bd 8ea3 e8bd 0433 833e
00000100: e6c2 083e 1465 d5bc 5c7d 0abe 7ec3 443c
00000110: a75d e03a a1ed 853c 70ed b3bc d7c1 fdbc
00000120: 9b8e 853e 81c2 533d 0c99 3b3c 4aa8 9cbd
00000130: 5cfc c73e 229e c93e 1347 ccbc 0b3d 063e
00000140: 7eba bebd de74 1fbe 6c99 dd3c 2a38 0b3d
00000150: 4655 1e3e dd31 d1bd 0141 c33d 639f 2d3c
00000160: e550 24be 9820 ca3e 6fbe 9f3e 0cf5 28bb
00000170: 4f43 01be b122 c4bd 56e3 903e e4bc 0c3e
00000180: c3fa 02be 601c b9bd a126 eebc 5a58 3b3d
00000190: cb63 b43c 3755 f4be 3877 4b3d f3d3 7f3d
000001a0: d15d 3fbd 65a3 2c3d da9d 2cbd 2315 613c
000001b0: 301c 43be f3e3 0f3e b2a2 243d d7a6 093e
000001c0: da40 023e 2875 253d c283 7abe ec95 c03c
000001d0: e59f 58bd 6a5c 15bd 422f c3be 854c a13d
000001e0: defc 6b3e a35c e1bd 0081 76be 4156 2c3d
000001f0: 15a7 bdbc 106d 853d 4b1b f53c 839f 75bd
00000200: b385 3dbe 5d8a 27bd 5a5a abbe e810 1b3e
00000210: 0fcd c83d 3b85 09be 5f64 863d 94eb 34bd
00000220: de55 dd3d a824 793d 2145 643d 02a9 83be
00000230: 0774 39bd d6cd 56be 9e0d f0bd 49aa c7bb
00000240: fe41 2fbe 8e3b d23d c215 52bb 9bab d7bd
00000250: 68c6 d1bd eaba 41be f807 94be fb36 71be
00000260: 1534 40bd 2e84 afbd c346 9abd 4a25 653e
00000270: dbc2 ff3d 5903 683d 042b 813d 896a e9bd
00000280: cf8e d9bd b616 f6bd 0652 d23d fa64 6fbe
00000290: 058e c03c ed86 55be fa79 c8bd ad05 91be
000002a0: 56b0 69be 0e69 84bd dffa b8be c4df cc3d
000002b0: 7f0a 8bbd a35b 89bc 5834 93bd ec8e 703d
000002c0: c11f 80bd 4552 8dbc 68ed dd3c 13dd c73d
000002d0: f5e9 f83d 76a8 01be 1cb2 11bd 22d1 e5bd
000002e0: 9073 683d 4c2c 8abe 452a ae3c a44d a5be
000002f0: 92d2 05bc dca0 a53e 25a3 bebd d718 62be
00000300: 2565 41be be19 053e 22d8 fa3e 00f9 7abd
00000310: f41b a0be a955 7a3d a9ae e23d 0516 fabd
00000320: fe2b 9b3c c655 72be a117 113d ef33 f33e
00000330: 19e0 eebd 40e1 cc3e 73f2 8ebd 63c0 4d3e
00000340: 14bc 81bc f0e4 c0bd 5778 e9bb da4e e43d
00000350: e01c a1bc f349 e4b9 b651 e23c af75 59bb
00000360: 575a ebbd 5ab2 0ebc 9959 8dbe 86e2 093d
00000370: 0ac4 5bbb f145 2dbd b87d 75bd 8110 ab3d
00000380: a16d 0a3d 78a6 873d 519b c73d 3e1e c83d
00000390: 5f54 3abc d728 673d d720 6dbd c41c f03e
000003a0: cd62 5ebd ec91 fb3d e664 bb3e 55f5 353d
000003b0: b5b9 0abe 5897 abbd 3c94 ee3e 2546 4f3e
000003c0: a206 41bc 6fa1 81be 5d38 96ba e89b e33d
000003d0: 59c0 a2bd 8eea 503d 4f25 ad3c cc9c e1bd
000003e0: 3e47 a6bd 0d6e 1a3e 247e 67bc 9ae8 8cbd
000003f0: 8423 aa3c 1c7b 5b3e a0e3 753d bbd6 9b3e

encoder.4.bias f4 [50]
-0.0012148487 -0.014821529 0.007854922 0.008430588 -0.0027662292 -0.00064367393 -0.7381672 -0.0061000437
-0.40891287 -0.012604663 -0.007171063 0.012548479 -0.001954476 -0.0006068699 -0.38177684 -0.04254249
0.0068269917 0.0017765122 -0.016552731 -0.71548015 -0.15506801 -0.008959986 -0.30787167 -0.006000679
-0.003756448 -0.011105159 -0.009902089 -0.011960741 0.007199616 -0.008566919 -0.0028914034 -0.021959852
0.013221591 -0.15458915 -0.32635128 -0.1857693 -0.39470127 -0.056310937 -0.68114936 -0.004612368
0.005930976 -0.24221875 -0.01791821 -0.15263067 -0.18034667 0.010275663 -0.4931477 -0.022915183
-0.0022055858 0.014946273
00000000: 8f3b 9fba 00d6 72bc eeb1 003c 7320 0a3c
00000010: a049 35bb 3abc 28ba 87f8 3cbf e0e2 c7bb
00000020: 075d d1be ca83 4ebc 3dfb eabb 2398 4d3c
00000030: ab16 00bb 5916 1fba 4178 c3be 0941 2ebd
00000040: f5b4 df3b dcd9 e83a 9899 87bc b529 37bf
00000050: 26ca 1ebe e8cc 12bc 5ba1 9dbe 58a1 c4bb
00000060: bd2e 76bb 6af2 35bc 5f3c 22bc fcf6 43bc
00000070: c2ea eb3b 435c 0cbc b37d 3dbb 26e5 b3bc
00000080: 5f9f 583c 9e4c 1ebe 8417 a7be 4f3a 3ebe
00000090: 4916 cabe 4ca6 66bd ce5f 2ebf 5923 97bb
000000a0: a258 c23b 3108 78be 36c9 92bc 374b 1cbe
000000b0: ccac 38be 415b 283c db7d fcbe 9fb8 bbbc
000000c0: 978b 10bb 36e1 743c

encoder.7.weight f4 [20, 50]
0.17820686 0.22575796 0.021790767 -0.32624382 0.038762286 0.026143834 -0.08391969 0.92244387
-0.039282322 0.5141437 0.023379078 -0.3297743 -0.44143227 -0.24217246 -0.13283579 0.37464124
0.021636605 0.6246428 -0.27134362 -0.043659363 -0.07879661 0.49624163 -0.14713901 0.7465789
-0.07630634 0.7995168 0.5960342 0.80877 -0.28816816 0.029524397 -0.30907282 0.5784016
-0.11999168 -0.009692062 -0.07737508 -0.0555394 -0.057374567 0.005612985 0.09688063 -0.33559045
-0.22167456 -0.09583797 0.13774025 0.21836017 0.12918682 -0.38843572 -0.09123069 0.13719907
-0.3826463 -0.34671506 0.0018025783 0.021962706 -0.001782217 0.024692284 0.26308182 0.33733624
0.022790395 0.22088253 0.29540047 0.33658332 0.35245818 0.005430304 -0.008894916 -0.008213592
0.3219337 -0.007898989 -0.030926006 0.26846623 -0.0021277627 0.1533172 0.12290997 0.07243343
-0.017517451 0.29889932 0.018174862 0.05292647 0.21305533 0.12669641 0.0015727294 0.45981595
-0.00061962113 0.016431686 -0.007894107 -0.052290753 0.3925282 -0.046106152 0.30411142 0.006678663
0.1888345 -0.0056230514 0.020162897 0.19287154 0.012081751 0.3502565 -0.03345687 -0.002697917
0.35246128 0.026292 -2.9240207e-05 0.0031406232 0.56641674 0.30880257 -0.4160195 0.3988167
-0.092746414 -0.24718805 -0.24572854 -0.0908611 -0.1971538 -0.30533457 -0.32580417 -0.0048197373
0.002086735 -0.07996414 0.0039233523 -0.24341707 -0.31140015 -0.17340088 0.05107435 -0.16418943
-0.305775 -0.07039583 -0.5900878 -0.16595387 -0.07874127 -0.0549682 -0.049559053 -0.1702742
0.39189887 -0.11834237 0.012027665 -0.13058373 0.18409193 0.111889765 -0.24921556 0.020740233
-0.36328664 0.09015228 -0.21343683 0.0193534 0.4706199 0.025939167 -0.30120075 -0.52347565
0.12715904 0.14632572 -0.009239934 0.58191794 0.012159798 0.31137398 0.024243454 0.066599175
-0.1269488 0.011209929 -0.0027569567 0.003990863 -0.07394735 0.14676216 -0.18378918 0.518048
0.0074906996 -0.005162109 0.22909166 0.255672 0.041891295 -0.07034405 -0.090539075 0.2069909
0.33899525 -0.21808113 0.012404665 0.2167783 0.34319696 0.21182138 0.21674187 0.2777355
0.35888284 0.22977872 0.01348908 -0.0036191847 0.3595521 0.04301514 0.012295242 0.028971378
0.2928074 -0.06852683 -0.050022405 0.49130347 -0.07554824 0.18315266 0.0045244517 -0.044276826
0.023014363 0.4062011 0.13172305 0.013207578 -0.08834985 0.0265117 0.14292619 0.008844748
-0.31947204 0.038882874 -0.13397002 -0.2947766 0.009127682 -0.077651285 -0.14680897 -0.065989524
-0.2522641 0.037222564 0.020108238 -0.023653956 0.25700197 0.34272128 0.0023207134 -0.20426999
-0.1534402 -0.034765635 0.18923102 -0.23935913 0.0041133775 -0.18488652 0.42856854 -0.02147837
0.40275002 -0.039084148 -0.01201178 0.0033821089 -0.117929794 0.023319732 0.19439663 -0.120208666
-0.100084454 -0.056196824 0.08877264 -0.035423238 -0.10364004 0.39736408 -0.073134296 0.27310488
-0.20281371 0.13549574 0.2336077 0.2597791 0.056462247 -0.12558937 0.05075346 -0.28040457
0.30499727 -0.18192779 -0.28935057 -0.30582678 0.1315997 -0.3500812 0.4638045 0.33884948
00000000: dc7b 363e 182d 673e 8d82 b23c 6e09 a7be
00000010: 34c5 1e3d 982b d63c 16de abbd 4825 6c3f
00000020: 80e6 20bd ec9e 033f 7b85 bf3c 2dd8 a8be
00000030: 6903 e2be 0ffc 77be 1b06 08be fad0 bf3e
00000040: 403f b13c 97e8 1f3f 8ded 8abe 29d4 32bd
00000050: 1e60 a1bd 6213 fe3e 9cab 16be cb1f 3f3f
00000060: 8046 9cbd 22ad 4c3f b395 183f 8d0b 4f3f
00000070: c78a 93be 26dd f13c cb3e 9ebe 2112 143f
00000080: 33be f5bd 74cb 1ebc d376 9ebd 487d 63bd
00000090: 9801 6bbd 22ed b73b 5a69 c63d 83d2 abbe
000000a0: a8fe 62be b346 c4bd c80b 0d3e cf99 5f3e
000000b0: 8d49 043e 0ce1 c6be 28d7 babd ea7d 0c3e
000000c0: 37ea c3be a384 b1be 7e44 ec3a 22eb b33c
000000d0: 4799 e9ba 7947 ca3c a9b2 863e 56b7 ac3e
000000e0: ecb2 ba3c 082f 623e bb3e 973e a654 ac3e
000000f0: 6675 b43e b1f0 b13b fbbb 11bc 4d92 06bc
00000100: 7ed4 a43e c36a 01bc 8958 fdbc 6874 893e
00000110: ef71 0bbb 2fff 1c3e 39b8 fb3d fa57 943d
00000120: c280 8fbc 5509 993e 73e3 943c 6dc9 583d
00000130: 2d2b 5a3e b4bc 013e 0b24 ce3a ff6c eb3e
00000140: 126e 22ba be9b 863c 4956 01bc d42e 56bd
00000150: 75f9 c83e ced9 3cbd 7eb4 9b3e b0d8 da3b
00000160: d55d 413e 9341 b8bb a92c a53c 1e80 453e
00000170: 89f2 453c d254 b33e 120a 09bd 89cf 30bb
00000180: ce75 b43e 5262 d73c de48 f5b7 ead2 4d3b
00000190: b000 113f 5f1b 9e3e 8200 d5be b431 cc3e
000001a0: d5f1 bdbd dd1e 7dbe 43a0 7bbe 6215 babd
000001b0: b0e2 49be d054 9cbe cecf a6be e3ee 9dbb
000001c0: 9bc1 083b 3dc4 a3bd 778f 803b 5342 79be
000001d0: d76f 9fbe 0090 31be 5633 513d 4621 28be
000001e0: 8a8e 9cbe b02b 90bd fe0f 17bf d0ef 29be
000001f0: 1a43 a1bd 5626 61bd 6ffe 4abd 5c5c 2ebe
00000200: f8a6 c83e 7c5d f2bd af0f 453c beb7 05be
00000210: 9882 3c3e 7626 e53d 5d32 7fbe 6ce7 a93c
00000220: b500 babe c2a1 b83d 2f8f 5abe 068b 9e3c
00000230: 17f5 f03e 607e d43c fc36 9abe 8002 06bf
00000240: fb35 023e 69d6 153e 1863 17bc 93f8 143f
00000250: e439 473c 696c 9f3e 359a c63c 2665 883d
00000260: defe 01be daa9 373c 0fae 34bb c9c5 823b
00000270: b571 97bd d248 163e 3b33 3cbe cb9e 043f
00000280: 8b74 f53b e926 a9bb 0197 6a3e 71e7 823e
00000290: 3596 2b3d 8b10 90bd 8d6c b9bd 6cf5 533e
000002a0: c990 ad3e a950 5fbe f03c 4b3c 21fb 5d3e
000002b0: 83b7 af3e b4e7 583e 95f1 5d3e 5933 8e3e
000002c0: 7ebf b73e 1d4b 6b3e 4d01 5d3c d82f 6dbb
000002d0: 3617 b83e a530 303d fc71 493c 6255 ed3c
000002e0: daea 953e cb57 8cbd 4be4 4cbd 218c fb3e
000002f0: 09b9 9abd 5f8c 3b3e da41 943b 9e5b 35bd
00000300: 9e88 bc3c 97f9 cf3e 68e2 063e 9964 583c
00000310: c4f0 b4bd 112f d93c 3e5b 123e 90e9 103c
00000320: d791 a3be a643 1f3d 702f 09be f5ec 96be
00000330: 468c 153c a307 9fbd 1755 16be 8425 87bd
00000340: c328 81be b076 183d 08ba a43c f1c5 c1bc
00000350: c395 833e 2a79 af3e 1c17 183b 272c 51be
00000360: 6e1f 1dbe 6966 0ebd c7c5 413e 8f1a 75be
00000370: 83c9 863b e452 3dbe 566d db3e 68f3 afbc
00000380: 4035 ce3e b316 20bd 0fcd 44bc 5fa6 5d3b
00000390: 2d85 f1bd 0609 bf3c e90f 473e f62f f6bd
000003a0: 14f9 ccbd a42e 66bd 6ece b53d f517 11bd
000003b0: 3b41 d4bd 4e73 cb3e 6fc7 95bd 67d4 8b3e
000003c0: 66ae 4fbe 65bf 0a3e db36 6f3e c401 853e
000003d0: f544 673d 809a 00be dce2 4f3d 3091 8fbe
000003e0: 9a28 9c3e 474b 3abe c225 94be 5495 9cbe
000003f0: 12c2 063e d83d b3be c977 ed3e ae7d ad3e

encoder.7.bias f4 [20]
0.0035883174 -0.0017440921 -0.006274052 -0.0010892086 -0.0037216195 0.007837955 -0.18649456 -1.3546373
0.0036610055 -0.009127383 -0.21006188 -0.001361839 -0.4363692 0.003027807 -0.003829143 0.001466222
-0.0015970325 0.0013913414 -0.002854942 -0.5849173
00000000: fa29 6b3b 059a e4ba 9096 cdbb c7c3 8eba
00000010: 6ae6 73bb c46a 003c 6ef8 3ebe c164 adbf
00000020: 7bed 6f3b 058b 15bc 761a 57be bc7f b2ba
00000030: c96b dfbe 2c6e 463b 5cf2 7abb 3f2e c03a
00000040: 8553 d1ba ac5d b63a fb19 3bbb 24bd 15bf

encoder.10.weight f4 [4, 20]
0.9552495 0.1707276 -0.82785976 -0.28618637 -0.4492337 0.32553062 0.6934833 1.4616125
0.84005094 -0.60846335 -0.17409979 0.25442734 0.44676816 1.1264368 -0.45428184 1.1354684
-0.26833054 -0.28939065 -0.37898684 1.0248088 -0.5326716 -0.73249525 -0.7376103 0.08538589
0.8266361 -0.55984443 -0.22516274 0.58587784 -0.46685714 -0.53466356 -0.10876601 -0.6407275
-0.14296643 -0.5901214 0.84544724 -0.5811136 -0.073356405 0.30377245 0.5946079 -0.04562131
-0.91937125 0.19094852 0.5599224 -0.060113605 0.57882 0.65913916 0.28912142 -0.05320376
-0.8280128 0.46697423 -0.19173522 0.47845507 0.48017088 -1.0545367 0.60723114 -1.0560203
-0.15298657 0.1462794 0.3752697 -0.016154008 0.63922983 -0.22910565 0.61724323 -0.5390929
-0.45597446 0.00692486 -0.19080086 -0.5074804 0.5392633 0.417223 -0.14557922 -0.09313539
-0.4234905 0.78289837 -0.45634812 0.7978887 -0.55912966 -0.4093959 -0.44169357 -0.3260305
00000000: 3b8b 743f 37d3 2e3e 9eee 53bf 0587 92be
00000010: f601 e6be f3ab a63e 1f88 313f 1e16 bb3f
00000020: 940d 573f 41c4 1bbf 3747 32be 4d44 823e
00000030: ccbe e43e 152f 903f a197 e8be 0757 913f
00000040: 9f62 89be 032b 94be 900a c2be ef2c 833f
00000050: 2a5d 08bf cf84 3bbf 07d4 3cbf ccde ae3d
00000060: 6c9e 533f f751 0fbf 1091 66be 17fc 153f
00000070: e607 efbe b6df 08bf b7c0 debd b806 24bf
00000080: cb65 12be 3212 17bf 3b6f 583f dcc3 14bf
00000090: e23b 96bd 1088 9b3e 3938 183f 69dd 3abd
000000a0: ea5b 6bbf 0288 433e 1357 0f3f af39 76bd
000000b0: 8c2d 143f 58bd 283f b907 943e 30ec 59bd
000000c0: a6f8 53bf 3f17 ef3e 3d56 44be 10f8 f43e
000000d0: f5d8 f53e 0ffb 86bf 8073 1b3f ac2b 87bf
000000e0: 83a8 1cbe 44ca 153e 5a23 c03e 6955 84bc
000000f0: 91a4 233f ac9a 6abe a703 1e3f fe01 0abf
00000100: 7c75 e9be f0e9 e23b 4d61 43be 3cea 01bf
00000110: 290d 0a3f 419e d53e b812 15be c4bd bebd
00000120: bfd3 d8be 076c 483f 76a6 e9be 6f42 4c3f
00000130: 1f23 0fbf 579c d1be a925 e2be 78ed a6be

encoder.10.bias f4 [4]
-0.34660116 -0.3559696 0.3736351 0.3909146
00000000: b575 b1be a641 b6be 1a4d bf3e f525 c83e

decoder.0.weight f4 [20, 4]
-0.24599083 0.780094 0.87518966 1.8024231 0.68437475 -0.29393148 -0.6525941 0.6299866
-0.32287723 0.08365511 0.95531887 0.4834521 -0.018942336 -1.0906209 -0.9439186 0.7599301
0.092202075 0.41550726 0.6293958 0.98890215 0.6849404 -0.67697227 0.4606877 -1.0163461
1.4528544 -0.11800072 0.6508831 -0.8771683 0.44459653 -0.51764673 -0.5251883 -0.51925915
-0.08626452 0.74521494 -0.51263624 -0.6331953 0.23463461 0.6918921 0.19442248 -0.49031714
-0.17359868 0.22256161 0.40178242 -0.1909163 -1.8955433 0.9015317 -0.9738166 0.8823193
0.046234358 -1.1123897 -0.54324883 0.386656 0.5036099 0.4328491 0.11286317 0.017090082
0.00809856 -0.3611181 -0.43838996 -0.18017213 0.5446291 -0.59705466 0.6871434 -0.6657958
-1.1966488 -0.27294937 0.28920785 -0.65198386 -1.2966154 -0.33648783 0.67809826 -0.030515581
-0.54408514 0.74939716 -0.10924852 -0.035578053 0.26002383 -0.41636145 -0.010033397 -0.41582146
00000000: 05e5 7bbe 3eb4 473f 6e0c 603f cdb5 e63f
00000010: 2f33 2f3f 307e 96be 6810 27bf cd46 213f
00000020: 2a50 a5be 5f53 ab3d c78f 743f 0987 f73e
00000030: f52c 9bbc 7799 8bbf a6a4 71bf c78a 423f
00000040: 71d4 bc3d 5ebd d43e 1520 213f b128 7d3f
00000050: 4158 2f3f 0e4e 2dbf 42df eb3e a117 82bf
00000060: 22f7 b93f 5daa f1bd 46a0 263f 1a8e 60bf
00000070: 28a2 e33e 7f84 04bf be72 06bf 2bee 04bf
00000080: 74ab b0bd 68c6 3e3f 213c 03bf 1619 22bf
00000090: 0e44 703e d71f 313f b016 473e d90a fbbe
000000a0: dac3 31be 31e7 633e 6db6 cd3e 907f 43be
000000b0: 2aa1 f2bf c8ca 663f 0b4c 79bf addf 613f
000000c0: 3d60 3d3d c962 8ebf 5b12 0bbf c6f7 c53e
000000d0: 94ec 003f 669e dd3e ce24 e73d 8000 8c3c
000000e0: d3af 043c 79e4 b8be a674 e0be 0b7f 38be
000000f0: d06c 0b3f 93d8 18bf a1e8 2f3f 9871 2abf
00000100: ca2b 99bf 05c0 8bbe 0d13 943e 6ae8 26bf
00000110: 7ef7 a5bf 2248 acbe d997 2d3f d0fb f9bc
00000120: 2a49 0bbf 7ed8 3f3f b0bd dfbd 4bba 11bd
00000130: d821 853e 542d d5be 1e63 24bc 8de6 d4be

decoder.0.bias f4 [20]
-0.70328814 0.19056775 -0.32968986 0.030403854 -0.24347731 0.17804845 0.10327914 0.26686364
-0.062840655 0.52446145 0.15250264 -0.17188276 -0.09708781 -0.413812 -0.47517154 -0.025704144
-0.33457187 -0.4168049 0.20339826 0.14083508
00000000: b10a 34bf 3124 433e 1ccd a8be 8111 f93c
00000010: 1e52 79be 5552 363e 0484 d33d 5aa2 883e
00000020: 9ab2 80bd 1b43 063f a729 1c3e 0902 30be
00000030: f9d5 c6bd 2bdf d3be af49 f3be 7f91 d2bc
00000040: 014d abbe 7467 d5be a247 503e 1237 103e

decoder.2.weight f4 [50, 20]
0.37670913 -0.48941472 -0.17904556 -0.35787985 -0.020691847 0.15296657 0.07072912 0.1792945
0.20361397 0.14511804 0.034370545 0.04141282 -0.25059402 0.08612103 0.21535808 0.40289626
0.14205584 0.19410597 0.07678236 -0.10330258 -0.15199138 -0.06183051 -0.005103801 0.086430274
-0.14109121 -0.15286896 0.24576901 -0.0046567493 -0.21006751 -0.15590768 0.0915514 0.044031966
0.12300431 -0.15205055 -0.086107045 0.08260251 0.017646862 0.21048565 -0.22991902 0.15953816
-0.12546332 0.19995013 0.17461072 -0.001089163 0.0049299058 0.18479002 0.15312372 -0.040556177
-0.12507059 0.1406131 -0.063541435 -0.03758007 0.14340252 0.049633406 -0.078282826 0.21005145
0.003773146 -0.12658927 -0.083203845 0.05956161 -0.10571154 0.107302874 -0.061413664 -0.083903
-0.2318825 -0.04397941 0.17732313 0.22018431 -0.0059623485 0.040766142 -0.022004895 0.16700125
0.03397064 -0.081884935 -0.21983303 0.063967586 0.12412541 0.036277693 0.08255838 -0.09003411
-0.47717926 -0.34238696 0.19153945 0.09062741 -0.2225681 -0.024042971 0.35973403 -0.22280945
-0.08201998 -0.2194783 -0.11178167 0.20131902 0.27504835 -0.13528939 -0.100186974 0.33989114
0.24593204 0.19370727 0.15859798 0.14873183 0.15447283 0.31103465 0.25819474 -0.17143613
0.29252672 0.33526757 0.22178493 -0.5375495 0.16989218 0.1882616 -0.13413389 -0.3065444
-0.13047643 -0.17538458 0.12912802 0.19374521 0.011207992 -0.41453224 0.03907495 0.004947938
0.20683596 -0.2047809 0.043582354 -0.03702177 0.121894196 0.21575552 0.020839045 -0.09177357
-0.1179822 0.2111124 -0.05569148 0.12925142 -0.09630308 -0.2220316 -0.20655361 0.14579505
-0.21284881 -0.04479204 -0.025177045 -0.117101744 -0.13095906 -0.07682473 -0.11671657 -0.027645146
-0.15239285 0.0025061711 0.2783602 0.042453095 0.13426101 0.17469884 -0.06304741 0.14493503
0.07154502 -0.16438593 -0.14411625 -0.014910198 0.11454756 0.07414911 -0.27005574 -0.02349195
0.47577032 0.28504947 0.26429594 -0.26324782 0.40083793 0.17085673 0.23757781 -0.34124812
0.06709638 0.07905245 0.14549099 0.059747733 -0.079287045 0.020430043 -0.16123913 -0.2893547
-0.18224269 -0.062401522 0.011046686 0.05244395 0.24634051 -0.03245198 0.24502976 0.09518238
0.008288884 -0.28333187 -0.10892271 -0.1128249 -0.11661563 0.106860004 0.15134953 0.22036237
-0.050916508 -0.11427688 0.110798985 -0.29742378 -0.23914114 0.15829025 0.18278182 0.12684363
-0.04284826 0.17444253 -0.11174175 -0.019163944 0.20619354 0.1926076 0.2652594 0.11295462
0.1311387 -0.043024354 0.06827874 0.12878431 -0.14777873 -0.03487529 0.07245909 -0.21983942
0.26714545 -0.14713696 0.23911056 -0.043172844 0.18839702 0.11531411 0.01857218 0.19571349
-0.115814514 -0.14486738 -0.21636468 0.21385412 -0.08157195 -0.17627968 -0.25332528 -0.21372414
0.06149585 -0.092372045 -0.061499763 -0.22142398 -0.14343819 0.00872682 -0.04642396 0.10292664
-0.045818076 0.2261287 -0.0097577805 0.3713227 0.0019175073 -0.037710745 -0.0750293 0.011784163
0.15507996 0.2830131 0.14593872 -0.29214233 0.3410027 -0.10795004 0.12259632 0.059997912
00000000: 05e0 c03e 9194 fabe b857 37be 073c b7be
00000010: f381 a9bc 45a3 1c3e 6eda 903d fa98 373e
00000020: 2e80 503e d399 143e 21c8 0c3d 7da0 293d
00000030: dc4d 80be 3960 b03d d486 5c3e 6b48 ce3e
00000040: 1677 113e b7c3 463e 1240 9d3d 4e90 d3bd
00000050: a1a3 1bbe fd41 7dbd c93d a7bb 5b02 b13d
00000060: 377a 10be ae89 1cbe dfaa 7b3e a597 98bb
00000070: f01b 57be 43a6 1fbe 4d7f bb3d dd5a 343d
00000080: afe9 fb3d 24b3 1bbe e458 b0bd 812b a93d
00000090: 2790 903c 8d89 573e e46f 6bbe f95d 233e
000000a0: 7579 00be babf 4c3e 27cd 323e 3fc2 8eba
000000b0: 0c8b a13b 9839 3d3e 77cc 1c3e 3c1e 26bd
000000c0: 8112 00be e1fc 0f3e 0322 82bd 8fed 19bd
000000d0: 1cd8 123e 664c 4b3d bf52 a0bd ba17 573e
000000e0: e346 773b 9ea0 01be c766 aabd e0f6 733d
000000f0: 4b7f d8bd 9cc1 db3d e58c 7bbd 56d5 abbd
00000100: 9b72 6dbe c123 34bd 3294 353e ff77 613e
00000110: ce5f c3bb 66fa 263d 9c43 b4bc 6002 2b3e
00000120: cc24 0b3d 4ab3 a7bd e91b 61be 7001 833d
00000130: 7735 fe3d eb97 143d 5e14 a93d ce63 b8bd
00000140: d750 f4be 584d afbe eb22 443e dd9a b93d
00000150: e4e8 63be c4f5 c4bc 0f2f b83e 2928 64be
00000160: 17fa a7bd ebbe 60be caed e4bd 9326 4e3e
00000170: 23d3 8c3e 4d89 0abe d42e cdbd 3606 ae3e
00000180: 9cd5 7b3e 335b 463e 8267 223e 284d 183e
00000190: 202e 1e3e ef3f 9f3e 1a32 843e f48c 2fbe
000001a0: 10c6 953e 31a8 ab3e 971b 633e d89c 09bf
000001b0: 37f8 2d3e a6c7 403e 655a 09be 63f3 9cbe
000001c0: 9d9b 05be 0498 33be 233a 043e 2565 463e
000001d0: baa1 373c 923d d4be 0e0d 203d 5022 a23b
000001e0: cecc 533e 16b2 51be 6983 323d 24a4 17bd
000001f0: aaa3 f93d 04ef 5c3e a5b6 aa3c c8f3 bbbd
00000200: a7a0 f1bd d92d 583e c01c 64bd 7c5a 043e
00000210: 8d3a c5bd 405c 63be ca82 53be 4c4b 153e
00000220: 0af5 59be dc77 37bd 1740 cebc 0ad3 efbd
00000230: 221a 06be 4956 9dbd 1909 efbd 1378 e2bc
00000240: df0c 1cbe 933e 243b 3a85 8e3e 4ce3 2d3d
00000250: b87b 093e 41e4 323e 001f 81bd d969 143e
00000260: 3286 923d c954 28be 3693 13be e749 74bc
00000270: e997 ea3d 7ddb 973d bf44 8abe 3172 c0bc
00000280: 2b98 f33e 01f2 913e cc51 873e 6bc8 86be
00000290: a13a cd3e 11f5 2e3e 9947 733e 13b8 aebe
000002a0: d469 893d 40e6 a13d 97fb 143e 0aba 743d
000002b0: 3f61 a2bd e85c a73c df1b 25be 4d26 94be
000002c0: d49d 3abe bd98 7fbd 29fd 343c 78cf 563d
000002d0: b040 7c3e 5eec 04bd 15e9 7a3e fbee c23d
000002e0: 19ce 073c e010 91be df12 dfbd be10 e7bd
000002f0: 2dd4 eebd 6bd9 da3d 5ffb 1a3e aca6 613e
00000300: d48d 50bd ff09 eabd 94ea e23d ee47 98be
00000310: 6ae1 74be d716 223e 282b 3b3e 4ce3 013e
00000320: a881 2fbd 10a1 323e dcd8 e4bd b4fd 9cbc
00000330: 6624 533e ed3a 453e 14d0 873e c054 e73d
00000340: 3949 063e 4e3a 30bd b9d5 8b3d 09e0 033e
00000350: 4f53 17be 64d9 0ebd 6e65 943d 961d 61be
00000360: 4ac7 883e 12ab 16be 66d9 743e 02d6 30bd
00000370: 26eb 403e ce29 ec3d af24 983c 1e69 483e
00000380: 2930 edbd 1d58 14be b48e 5dbe 93fc 5a3e
00000390: 320f a7bd a982 34be dab3 81be 80da 5abe
000003a0: 13e3 7b3d 8e2d bdbd 2de7 7bbd f8bc 62be
000003b0: 76e1 12be f0fa 0e3c 0d27 3ebd 34cb d23d
000003c0: bcab 3bbd 488e 673e 19df 1fbc 021e be3e
000003d0: de54 fb3a 9576 1abd f6a8 99bd 5d12 413c
000003e0: 48cd 1e3e 18e7 903e f670 153e ae93 95be
000003f0: e897 ae3e e914 ddbd c813 fb3d 5fc0 753d

decoder.2.bias f4 [50]
0.2536543 -0.08574472 0.029671822 0.12102939 0.0893653 0.20271382 -0.12829223 0.13460578
0.1839198 -0.18039833 0.062160876 -0.11831641 -0.16077332 -0.26412892 -0.21621305 -0.068456575
-0.2959287 0.024639467 -0.085472986 -0.09277792 0.14107232 0.012461394 -0.09634365 0.007940621
0.15641567 0.07255674 -0.23308219 -0.28137293 0.1462666 -0.14231916 -0.19601564 0.08091262
0.10463799 0.009540259 -0.20971636 -0.066628724 -0.31831872 0.00581711 0.1153809 -0.16621126
-0.14828621 -0.07020638 -0.1293117 -0.19592379 0.4117023 0.09991114 0.02240951 -0.100161225
-0.09413143 -0.2431695
00000000: fade 813e ee9a afbd 5212 f33c 42de f73d
00000010: 2805 b73d 3694 4f3e 0a5f 03be 19d6 093e
00000020: 7955 3c3e 57ba 38be 679c 7e3d e04f f2bd
00000030: c3a1 24be e83b 87be f466 5dbe f632 8cbd
00000040: f783 97be b5d8 c93c 760c afbd 5a02 bebd
00000050: 4375 103e e02a 4c3c d24f c5bd 6119 023c
00000060: 6e2b 203e a198 943d 19ad 6ebe 1d10 90be
00000070: e9c6 153e 1dbc 11be 53b8 48be 84b5 a53d
00000080: 714c d63d bf4e 1c3c e3bf 56be a474 88bd
00000090: acfa a2be 759d be3b d24c ec3d 4933 2abe
000000a0: 57d8 17be 5dc8 8fbd 496a 04be 3fa0 48be
000000b0: a5ca d23e 369e cc3d 2694 b73c 5421 cdbd
000000c0: fbc7 c0bd 6d01 79be

decoder.4.weight f4 [50, 50]
0.04419441 -0.13213149 -0.079781 -0.05647194 0.018026242 -0.052877963 -0.09848053 -0.034982845
-0.062592335 0.024299143 0.0679624 0.00804113 -0.1047729 -0.10415836 0.12422375 -0.06333407
0.011286488 -0.07876579 0.008690732 -0.020910924 -0.10161469 -0.08451959 -0.102588534 0.09381682
-0.08579394 0.13442805 -0.1375991 -0.06048311 -0.11861154 -0.11067308 0.1254515 0.10089106
0.03968686 -0.0023897095 -0.13076289 -0.11167712 0.028837955 -0.056455284 -0.13649498 0.037445758
0.02284759 -0.08548308 0.01780406 -0.07527175 -0.08135494 0.12933283 0.12018523 -0.0081764385
-0.07728257 -0.08967791 -0.16434632 -0.095138155 0.003136744 -0.012424235 -0.06893933 0.1352733
0.009955702 -0.061592747 0.14595093 0.04416796 0.12968606 0.121173166 0.14479765 0.13612093
-0.35323963 -0.05444354 0.23605208 0.04095814 0.08637574 0.015628437 -0.12699543 0.10893869
-0.011673261 0.1134267 0.11339779 0.18733399 0.17982604 -0.14038208 0.25294164 -0.017193034
-0.13331355 -0.07653948 -0.13027357 0.15605697 0.18272312 -0.010344376 0.049659688 0.13699894
-0.1328759 0.15818527 -0.15147439 -0.17690767 -0.059996232 0.121934175 0.1658106 -0.01715679
-0.029115789 0.123641625 -0.044870693 0.35637343 0.2855803 -0.16415024 -0.10370701 -0.09669403
0.11544641 0.053007204 -0.1234351 -0.07476555 0.056352407 -0.069849774 -0.10419512 0.021324921
-0.2386146 0.06668367 0.2497309 -0.010867805 0.101983786 -0.13194014 -0.007095294 -0.074039966
0.07872734 -0.073238075 -0.101234734 -0.05639614 0.045182742 -0.02864495 0.023854433 -0.064370155
-0.035435382 -0.12876019 0.028695868 -0.09402878 0.028701833 0.11744178 -0.102932334 0.020168664
0.108545244 0.12764299 -0.11638448 0.031128643 0.036829937 0.07413382 0.09996974 0.027608631
0.30694804 -0.13120744 0.05737571 -0.2289802 0.011082056 0.3896263 -0.07575338 -0.091857284
-0.032050323 0.17969224 -0.13706386 -0.2004422 0.12087454 -0.026500266 0.037524156 0.07291902
-0.00026287473 -0.06650393 -0.10629989 0.41671175 -0.052335028 -0.30722588 -0.055502493 -0.04532733
-0.0025068612 0.14105672 0.30460253 0.08009972 -0.0535126 0.065566264 0.14420593 -0.040473368
-0.16173962 -0.0109803155 0.09089497 0.043878615 -0.12074968 0.23383397 -0.1225814 -0.03544511
-0.002976552 -0.06257549 0.2707458 -0.004231999 0.006000184 0.07708841 0.09442603 0.30585492
0.037183784 0.10548557 0.23699294 0.02188891 0.26598695 -0.2236401 0.09459187 -0.37018684
0.17413524 -0.02264659 0.03498163 -0.0021761656 0.016491357 -0.00062916696 0.022926725 0.036675654
0.06000984 0.21843624 -0.06348031 0.17214216 -0.15020049 0.52487797 0.13945994 -0.17038342
0.33043382 -0.1339842 0.14457731 0.08022011 0.06405985 -0.0038698395 -0.0010652767 -0.06576936
-0.039996013 0.11119255 0.049076285 -0.2089648 -0.068937026 -0.2622597 0.12358512 0.0064856918
0.0028451863 0.16724826 0.037091635 0.10966319 0.39809415 -0.12609512 0.097281784 0.34492067
-0.02415709 0.110698074 0.101125136 0.0833617 0.2960175 0.068772435 0.018316254 0.04779875
0.18117844 -0.46130055 -0.025292257 -0.023558943 0.092697546 0.022913523 0.11331523 0.005825234
00000000: 3305 353d 7a4d 07be 3964 a3bd 1f4f 67bd
00000010: c5ab 933c 9096 58bd 29b0 c9bd 2c4a 0fbd
00000020: 6930 80bd ff0e c73c df2f 8b3d f2be 033c
00000030: 2d93 d6bd fa50 d5bd 0569 fe3d 4bb5 81bd
00000040: f6ea 383c f54f a1bd 9263 0e3c 634d abbc
00000050: 5d1b d0bd 9b18 adbd f019 d2bd 0823 c03d
00000060: bcb4 afbd 82a7 093e c7e6 0cbe 23bd 77bd
00000070: 9bea f2bd 91a8 e2bd 5c76 003e f99f ce3d
00000080: b08e 223d ac9c 1cbb b5e6 05be f9b6 e4bd
00000090: 933d ec3c a83d 67bd 57c5 0bbe b960 193d
000000a0: de2a bb3c c111 afbd d2d9 913c 1328 9abd
000000b0: 6b9d a6bd d36f 043e ad23 f63d 78f6 05bc
000000c0: 5346 9ebd 0da9 b7bd 674a 28be cbd7 c2bd
000000d0: d591 4d3b 058f 4bbc 1030 8dbd 1585 0a3e
000000e0: 3e1d 233c ad48 7cbd 2974 153e 76e9 343d
000000f0: 6ccc 043e a329 f83d d645 143e 4963 0b3e
00000100: d3db b4be 3000 5fbd a3b7 713e b9c3 273d
00000110: c4e5 b03d 3507 803c 170b 02be 3f1b df3d
00000120: 3541 3fbc 424c e83d 1a3d e83d 7bd4 3f3e
00000130: 5124 383e 52c0 0fbe 9181 813e 68d8 8cbc
00000140: 5983 08be bbc0 9cbd 6f66 05be 66cd 1f3e
00000150: c51b 3b3e 757b 29bc f567 4b3d 7349 0c3e
00000160: 9f10 08be 52fb 213e 1a1c 1bbe 4927 35be
00000170: 9cbe 75bd a0b8 f93d 41ca 293e 658c 8cbc
00000180: 3c84 eebc d237 fd3d 55ca 37bd 9476 b63e
00000190: 9537 923e 0017 28be 5764 d4bd 8507 c6bd
000001a0: 2b6f ec3d 151e 593d 8bcb fcbd ae1e 99bd
000001b0: c8d1 663d 660d 8fbd 4064 d5bd 9ab1 ae3c
000001c0: 6357 74be 7391 883d 75b9 7f3e e10e 32bc
000001d0: e0dc d03d 511b 07be a47f e8bb 44a2 97bd
000001e0: cd3b a13d d8fd 95bd 2854 cfbd a4ff 66bd
000001f0: 8a11 393d d0a8 eabc 5f6a c33c 80d4 83bd
00000200: b124 11bd b6d9 03be 9913 eb3c 2992 c0bd
00000210: 1b20 eb3c 5185 f03d 30ce d2bd c138 a53c
00000220: f84c de3d d8b4 023e fc5a eebd 7f01 ff3c
00000230: fdda 163d 79d3 973d efbc cc3d 7f2b e23c
00000240: 4b28 9d3e 3e5b 06be cb02 6b3d c979 6abe
00000250: 8391 353c 197d c73e 9724 9bbd ac1f bcbd
00000260: 3347 03bd 3e01 383e 785a 0cbe b840 4dbe
00000270: 128d f73d 1617 d9bc eeb2 193d 9156 953d
00000280: 73d2 89b9 3633 88bd c2b3 d9bd 3e5b d53e
00000290: 415d 56bd b64c 9dbe 9556 63bd 26a9 39bd
000002a0: 274a 24bb 2c71 103e ddf4 9b3e 520b a43d
000002b0: 0730 5bbd 9b47 863d b8aa 133e 67c7 25bd
000002c0: 129f 25be c8e6 33bc 2427 ba3d 10ba 333d
000002d0: 9c4b f7bd 2c72 6f3e f50b fbbd e42e 11bd
000002e0: 4112 43bb 9427 80bd 329f 8a3e 95ac 8abb
000002f0: 319d c43b 87e0 9d3d 6f62 c13d 0499 9c3e
00000300: 064e 183d d208 d83d 47ae 723e 5f50 b33c
00000310: 712f 883e e901 65be 62b9 c13d 2189 bdbe
00000320: 8250 323e 5785 b9bc e648 0f3d 009e 0ebb
00000330: e218 873c aeee 24ba d4d0 bb3c 3639 163d
00000340: e1cc 753d c0ad 5f3e f701 82bd 0946 303e
00000350: 28ce 19be 675e 063f 96ce 0e3e fe78 2ebe
00000360: 9f2e a93e 2733 09be 130c 143e 714a a43d
00000370: d031 833d 229d 7dbb c1a0 8bba 16b2 86bd
00000380: dcd2 23bd ebb8 e33d 3704 493d defa 55be
00000390: db2e 8dbd e746 86be 321a fd3d ed85 d43b
000003a0: 4e76 3a3b 2143 2b3e 66ed 173d 1897 e03d
000003b0: ffd2 cb3e 141f 01be ac3b c73d 7199 b03e
000003c0: 17e5 c5bc acb5 e23d b21a cf3d 8ab9 aa3d
000003d0: 9b8f 973e 90d8 8c3d f80b 963c 9fc8 433d
000003e0: d786 393e 962f ecbe b531 cfbc affe c0bc
000003f0: 36d8 bd3d 24b5 bb3c d111 e83d 9be1 be3b

decoder.4.bias f4 [50]
-0.12518658 0.11814546 0.29688394 0.030006051 0.17805234 -0.12137268 -0.2834156 0.0398583
-0.14429046 0.06555726 -0.13893914 -0.11294482 -0.14929742 0.0070178746 -0.0046869535 -0.16825406
-0.034854002 -0.015344282 0.07757343 -0.10379958 -0.10027162 0.07904039 0.20798394 -0.018515045
0.06475661 -0.08599762 -0.09571676 -0.06220103 -0.04638487 0.17081456 0.06807223 0.15327698
0.0057514985 -0.0272626 0.06953588 0.03738675 0.11050092 0.16728136 0.15376954 -0.0027489401
-0.05115729 -0.07821957 0.21990493 0.068701796 -0.1303758 -0.07505331 -0.0055638514 -0.09081608
0.24197787 -0.0068908245
00000000: e930 00be 3ff6 f13d 2c01 983e 40cf f53c
00000010: 5a53 363e 3d92 f8bd d91b 91be 7542 233d
00000020: e1c0 13be e242 863d 1046 0ebe 9d4f e7bd
00000030: 6ce1 18be 33f6 e53b 0495 99bb cb4a 2cbe
00000040: 12c3 0ebd 9566 7bbc d2de 9e3d e094 d4bd
00000050: 355b cdbd eedf a13d bef9 543e ddac 97bc
00000060: 1d9f 843d 851f b0bd 2607 c4bd 82c6 7ebd
00000070: 10fe 3dbd 03ea 2e3e 7469 8b3d a4f4 1c3e
00000080: 1177 bc3b d155 dfbc d468 8e3d d922 193d
00000090: 4e4e e23d ce4b 2b3e c375 1d3e 9027 34bb
000000a0: 4e8a 51bd 9531 a0bd c22e 613e 87b3 8c3d
000000b0: 3c81 05be 8db5 99bd f850 b6bb c8fd b9bd
000000c0: 0cc9 773e 6dcc e1bb

decoder.6.weight f4 [6, 50]
0.074402526 -0.2585447 0.34850258 -0.250098 0.054456957 0.093125656 0.29320174 0.3231835
-0.14165999 -0.20519246 -0.07276299 -0.07377804 -0.14153 0.35818988 0.48960677 -0.037403505
-0.06974264 0.035303593 -0.10339392 -0.08814951 -0.08514824 -0.31305802 0.15445925 -0.13832282
0.3531292 -0.11873593 0.3307227 -0.10064156 0.048553374 0.20958889 0.2614566 -0.17076969
0.22908084 0.13738026 -0.9892922 -0.054194506 0.29618087 0.28235373 0.3765099 0.13052136
0.15346316 -1.0330942 -0.4994714 0.0856711 -0.091999896 0.10517679 0.22608355 -0.40704036
-0.2410182 0.00088982115 -0.045858555 -0.2819119 0.052983064 -0.18912384 -0.092773154 -0.03416159
-0.21627024 -0.12739632 0.1337492 0.16972445 -0.076759465 -0.045047786 -0.06412177 -0.02083432
-0.39665094 0.080374904 -0.15129197 0.029369773 0.11533578 0.11138592 0.0072522424 0.042624585
-0.25674018 0.061259974 0.005940667 0.0731199 0.14038649 -0.10442013 0.33625937 -0.030411065
-0.070592284 0.095856585 0.07079471 -0.011196448 0.114183895 0.43968275 0.10488286 0.0030721962
-0.50628597 -0.05913984 0.18840905 0.13015808 -0.14698593 0.11892695 0.12027224 -0.07484736
0.22679174 -0.19729263 -0.05787799 -0.053194348 0.055445295 0.08335802 0.056404434 -0.052296847
0.03457788 -0.012739004 -0.0024264834 -0.06641086 0.021354785 -0.026384989 -0.10028497 0.04719887
-0.09463086 0.026402868 -0.11990339 -0.16063887 0.14053662 -0.12433935 0.038609333 -0.08458065
-0.046822134 0.11213666 -0.0032842723 -0.11149132 0.015765155 0.012193895 -0.06355654 0.020255864
0.10361363 0.09043519 -0.038971663 -0.10952549 -0.15940142 0.10758036 0.033144306 0.11798498
0.10374321 -0.049143374 -0.24928741 -0.044690996 0.0095074875 0.027300956 0.04375823 0.061000347
0.02989579 -0.10274843 0.14934498 -0.060580265 -0.14257711 -0.11798411 0.06354794 0.41882497
0.5267328 -0.69410294 -0.770373 -0.02150265 -1.25411 0.244182 -0.56115675 -0.10790942
0.041567 0.12263579 0.11006461 -0.5914692 -0.66166 0.119290516 -0.63543934 -0.111247756
-0.67628056 -0.03259649 -0.071122 -0.260363 0.19353358 -0.12870854 -0.008335955 0.011834261
0.49263814 -0.023946894 -0.1777274 0.37621278 0.23608322 -0.9016456 0.02823163 -0.16487984
-0.40947604 -0.022374664 -0.5217162 -1.3247701 0.07554674 -0.12933308 0.2055886 0.7592898
-0.09173012 0.14148307 0.034181483 0.117802516 0.020469721 0.12949459 -1.3295702 -0.067869306
0.076319486 -0.32861447 0.29896098 0.32185063 0.38817132 -0.09324217 -0.3782193 0.038525615
0.17081656 0.0036360535 -0.09444742 0.10708833 0.08226703 0.3511277 -1.2683506 0.13318673
-0.52152854 0.066804476 -0.7812027 0.06831347 -0.039569825 -0.08935732 0.29068232 0.0845766
0.29681093 0.092287816 -0.29915562 0.10558281 0.30396235 0.22800432 -0.29348505 -0.822183
0.13916744 0.16433375 -0.6271416 0.22444236 -1.2491 0.20651823 0.15928106 -0.019878518
-0.24054548 0.32767308 0.08944333 -0.120654054 -0.051854063 -0.08693987 -0.9456035 -0.025692595
-0.8771162 -0.05057391 0.118497945 -0.2485721 -0.22120656 -0.42363065 -0.98327047 0.034898266
00000000: 5a60 983d f95f 84be ee6e b23e d80c 80be
00000010: 420e 5f3d aab8 be3d 8a1e 963e 4f78 a53e
00000020: 510f 11be f91d 52be c304 95bd f118 97bd
00000030: 3eed 10be aa64 b73e bdad fa3e 6b34 19bd
00000040: 3bd5 8ebd 809a 103d 31c0 d3bd bb87 b4bd
00000050: 3362 aebd 2449 a0be 912a 1e3e 7fa4 0dbe
00000060: 5acd b43e d32b f3bd 7c54 a93e 2a1d cebd
00000070: e7df 463d 789e 563e a4dd 853e 40de 2ebe
00000080: 2b94 6a3e 69ad 0c3e 4142 7dbf 0ffb 5dbd
00000090: 05a5 973e ab90 903e e8c5 c03e 64a7 053e
000000a0: 7225 1d3e 6e3c 84bf b7ba ffbe 5474 af3d
000000b0: 716a bcbd ee66 d73d 7282 673e 9867 d0be
000000c0: 7acd 76be e342 693a 2ed6 3bbd c256 90be
000000d0: c504 593d aea9 41be daff bdbd 06ed 0bbd
000000e0: f275 5dbe 2e74 02be 8df5 083e 3fcc 2d3e
000000f0: 1134 9dbd 0784 38bd 4652 83bd bcac aabc
00000100: d515 cbbe 999b a43d 48ec 1abe e198 f03c
00000110: 2a35 ec3d 4d1e e43d 38a4 ed3b 1e97 2e3d
00000120: 7373 83be bdeb 7a3d eda9 c23b e3bf 953d
00000130: 7ac1 0f3e 39da d5bd 302a ac3e a020 f9bc
00000140: b092 90bd 7550 c43d d1fc 903d 4e71 37bc
00000150: 3fd9 e93d 191e e13e d3cc d63d e656 493b
00000160: f59b 01bf 9e3c 72bd 4dee 403e 2948 053e
00000170: 7b83 16be f98f f33d 4b51 f63d 9349 99bd
00000180: 183c 683e 1407 4abe 7911 6dbd 51e2 59bd
00000190: 9b1a 633d 9cb7 aa3d 5608 673d 3835 56bd
000001a0: 89a1 0d3d 41b7 50bc a305 1fbb 6b02 88bd
000001b0: 3bf0 ae3c 5525 d8bc 3562 cdbd 9a53 413d
000001c0: d3cd c1bd d44a d83c e98f f5bd 847e 24be
000001d0: d5e8 0f3e a1a5 febd d224 1e3d 9f38 adbd
000001e0: 91c8 3fbd e8a7 e53d f23c 57bb 9055 e4bd
000001f0: ed25 813c e7c8 473c ee29 82bd a0ef a53c
00000200: 6233 d43d 1636 b93d c0a0 1fbd e64e e0bd
00000210: 203a 23be 1753 dc3d 53c2 073d 1ca2 f13d
00000220: 5277 d43d 904a 49bd 3345 7fbe e80d 37bd
00000230: 4bc5 1b3c 41a6 df3c d43b 333d 80db 793d
00000240: 04e8 f43c c56d d2bd e4ed 183e 0323 78bd
00000250: bcff 11be a7a1 f1bd 6c25 823d 3a70 d63e
00000260: f6d7 063f bbb0 31bf 2a37 45bf 5326 b0bc
00000270: ad86 a0bf d90a 7a3e f8a7 0fbf 9dff dcbd
00000280: 2942 2a3d 7928 fb3d 8e69 e13d 876a 17bf
00000290: 8d62 29bf 964e f43d 27ac 22bf ddd5 e3bd
000002a0: b920 2dbf e683 05bd 69a8 91bd 4d4e 85be
000002b0: ab2d 463e 2ccc 03be 8893 08bc 7de4 413c
000002c0: 113b fc3e 472c c4bc 2cfe 35be f69e c03e
000002d0: cdbf 713e 3fd2 66bf 0546 e73c 43d6 28be
000002e0: d8a6 d1be 124b b7bc 318f 05bf 1192 a9bf
000002f0: 40b8 9a3d e46f 04be d185 523e d160 423f
00000300: 00dd bbbd f0e0 103e e201 0c3d 7242 f13d
00000310: 1eb0 a73c 3b9a 043e 5b2f aabf 10ff 8abd
00000320: 644d 9c3d 2840 a8be 6a11 993e 9bc9 a43e
00000330: 64be c63e c0f5 bebd f6a5 c1be 09cd 1d3d
00000340: 89ea 2e3e db4a 6e3b a66d c1bd 2051 db3d
00000350: 9e7b a83d 03c7 b33e 5059 a2bf 1a62 083e
00000360: e582 05bf c9d0 883d e6fc 47bf efe7 8b3d
00000370: f813 22bd f800 b7bd 50d4 943e 7f36 ad3d
00000380: 9af7 973e 6501 bd3d ed2a 99be cd3b d83d
00000390: f4a0 9b3e f779 693e ac43 96be 967a 52bf
000003a0: e981 0e3e 1b47 283e 5a8c 20bf 38d4 653e
000003b0: 82e2 9fbf 8479 533e 931a 233e 46d8 a2bc
000003c0: 8e51 76be c4c4 a73e 112e b73d 7919 f7bd
000003d0: ed64 54bd 880d b2bd 1213 72bf 4779 d2bc
000003e0: b08a 60bf 9726 4fbd 0daf f23d af89 7ebe
000003f0: f983 62be 1ee6 d8be 9db7 7bbf 7cf1 0e3d

decoder.6.bias f4 [6]
0.06626102 -0.42230698 0.011522138 0.5237047 0.21131144 0.37175623
00000000: dcb3 873d 9f38 d8be 59c7 3c3c 8311 063f
00000010: 0762 583e d556 be3e

cluster_layer.weight f4 [4, 4]
-0.081094585 0.12582491 0.0822803 -0.10402747 -0.09884605 -0.1014781 0.099393 0.10026308
-0.11260587 0.07756793 0.108553015 -0.09756731 0.097066544 -0.105318904 -0.09472091 0.10253763
00000000: eb14 a6bd 3fd8 003e 9382 a83d 5b0c d5bd
00000010: cc6f cabd c0d3 cfbd 8f8e cb3d bb56 cd3d
00000020: e89d e6bd efdb 9e3d 0b51 de3d 5fd1 c7bd
00000030: d3ca c63d 70b1 d7bd 09fd c1bd 40ff d13d
