RiskViz Folder/model/checkpoint_200.tar (torch, 110796 bytes, 51 tensors)

encoder.1.weight f4 [50, 6]
00000000: 224c b5be 01de 21bc 091a f4ba 9556 973e
00000010: 504c 75be d2ea c4bc 9f50 a2bb 1b2f 07bc
00000020: 44ed a5bb 4908 d63f 7367 d83c e9ec a1be
00000030: f0b9 2cbe f950 65be 1c56 b3bb fc66 e3bd
00000040: cad5 843e 85a2 b2be 0cf7 943e 7100 35bc
00000050: 9a30 053c 3a5f 93bd 79ab 953d a6e3 053f
00000060: c1f8 d5bd 8269 1bbd db1e 853c 88a9 263f
00000070: 987d 703e 9fb2 d7be 2f51 233f d3cf 063c
00000080: 6ca1 c03a 57b0 4a3e 6a1a 64bc 5909 ed3e
00000090: 9f83 9ebd 496c 68be 1ba6 d6bd b487 7cbe
000000a0: c580 663e d5d4 50be a5c1 bfbe baf4 553e
000000b0: a34c 853e 8205 a9bc e208 cfbd a8ba 30bd
000000c0: 177a bb3e f9c3 dfbb bdc2 a2bb 24db 6b3f
000000d0: a6c1 e63e d296 18bd 0029 a5be e98d 363c
000000e0: b87b 42be 69b2 8bba 048c 4c3e 52ee 383e
000000f0: 8f13 31be 4af2 513b f58f 273c 8a5d 5abf
00000100: d7c8 51be 67ea f23d 828a 6ebe 3d93 36be
00000110: 9369 0c3e f298 703e 1971 bb3b 149d 22be
00000120: 0d55 fe3d 569e 1cbe 588f 3ebd e2d9 473f
00000130: 893f f6bc c026 563e 276d 2dbe 9d27 d7bb
00000140: 4a3b 833b 3ddc 2cbf 3e90 4bbe 39a6 d13d
00000150: 45f5 4fbf 73f1 f33b 1256 ce3b e024 ec3e
00000160: 36eb 32be 1647 643f c1e0 01bf 47d4 ecbb
00000170: 24c7 c6bb f3cf 4bbe 7e6a c8be 27d1 1ebe
00000180: 849e 84be 77d7 8b3e a2e8 203e 7bd9 a53e
00000190: 35a2 9bbe e360 cbbe 107d 1bbf bffa 063c
000001a0: 5a81 353c 4897 1fbf 17cc 083f 9825 fa3e
000001b0: 0406 5dbb e48d 23bb d4ef d9bb 4a8d c93f
000001c0: ad10 023d 6768 a2be db84 af3d 5110 9dbe
000001d0: 92ad 5fbe 9a7a 44be 848c 6cbe 6342 943d
000001e0: ac02 c8bd 67d1 8aba 4a8b 043b 819a 01bf
000001f0: a5c2 173f 372c 9c3d a542 b5be 06a7 87be
00000200: 7ad1 183e e764 243e 1140 81be b89a 02be
00000210: 3c67 97bf d48c 863b 0cac 203c c383 f4bd
00000220: 7396 a2be d0b8 823e 386a a63e b563 aebd
00000230: 7729 87bd cb12 183e 9eda 6c3d e699 09be
00000240: 7c45 c2be a0a0 84be 4451 243d dacc 1dbb
00000250: 83c4 cd3e 6059 37bc 7364 c2bd 936e cabe
00000260: d8ad bfbe bde0 363e 4fbc b73e 5b0c 10bb
00000270: 1a94 8cbf f03e 21bc 5ceb 5b3c ec7b dabe
00000280: 71e0 dcbd 0ab1 d03d 9d5d 56bf cbae 15bc
00000290: 150a 243a 536b c5be 3357 02be 7fde 58be
000002a0: 3e7d 1c3f 406f 7fbb cab8 09bb 3e9a 3bbf
000002b0: 3b7f 233f 43d6 2a3b ebdc 67be 0ca7 dbbc
000002c0: 0200 94be d539 9abc 1bff 683e dbef 3bbe
000002d0: 25ba 1a3f 3315 303a 7ce6 243b 0fe3 e63e
000002e0: 861b 8dbe f11b 3dbe b0e1 0bbc 2b91 2d3d
000002f0: 2820 443c 5b30 bf3e 4058 083e d904 633f
00000300: e33f b23e c43a ccbe 5dae 813d f356 cdbc
00000310: 4d4c 133e 2ca8 cabd 65fb 003e a116 babe
00000320: 4f5f 4d3e 2368 db3e 418f 6cbd fb0d a4be
00000330: dbb0 adbe 06f4 a8bb 9555 253a 42df 763d
00000340: fa6e febc 59e4 033f 86a8 683b f65a 863b
00000350: 54fe 6bbb 15ac 7b3f af24 8f3e d236 0e3b
00000360: 01b1 663e 2af7 063e b2bb 293d 2870 f2bd
00000370: 187c 7c3d d7a8 f03c d256 8ebe 21a1 953c
00000380: 91b2 f73a 83d5 ffbe bb81 893d 4262 9d3e
00000390: 8398 c1bc 3c60 80bd 353d 70bc 6fa0 9a3d
000003a0: f632 1b3e c763 7f3f 4fc1 543f 54a5 e4bb
000003b0: 16ea a6bb 559e 14be 968d c2bd aa30 b6be
000003c0: 2fe1 90bf c099 85bb a83e bd3b b6e7 18bf
000003d0: cbc8 87be 6c5c 9d3e 0dcb 02bb 00ee 8cba
000003e0: 3fdf 9ebb ec92 cf3f 935b 91be 1231 b4bd
000003f0: 33ae d2be 6378 a1b9 821c c23a eeee a83e
-0.35409647 -0.00987959 -0.0018623482 0.29558244 -0.23954892 -0.024037752 -0.0049534584 -0.008250977
-0.0050636847 1.6721278 0.026416516 -0.3162606 -0.16867805 -0.2239417 -0.0054729115 -0.11103627
0.25944358 -0.34889618 0.29094732 -0.0110474685 0.008129263 -0.071958974 0.073080964 0.5230049
-0.10447837 -0.037942417 0.016250065 0.65102434 0.2348541 -0.42128465 0.6379575 0.00822826
0.0014696545 0.19793831 -0.013922313 0.46296194 -0.077399485 -0.22697558 -0.10480901 -0.24661142
0.22510059 -0.20393689 -0.37452427 0.20894137 0.26035032 -0.02063251 -0.10109116 -0.04314676
0.36616585 -0.0068287817 -0.0049670623 0.9213126 0.45069617 -0.03725321 -0.32257843 0.011142232
-0.18992507 -0.0010658029 0.19975287 0.18059662 -0.17292617 0.0032035285 0.010227193 -0.8529898
-0.2048677 0.11861115 -0.23295024 -0.17829604 0.13712148 0.23495844 0.0057202694 -0.15880233
0.12418566 -0.15294775 -0.046523422 0.7806684 -0.030059593 0.2091322 -0.1693617 -0.0065660016
0.0040048705 -0.67523557 -0.19879243 0.102367826 -0.81233627 0.0074445545 0.0062968815 0.46121883
-0.17472538 0.8917097 -0.5073357 -0.007227454 -0.00606622 -0.19903545 -0.39143747 -0.15509473
-0.25902188 0.27312824 0.15713742 0.32392487 -0.30397192 -0.39722356 -0.60737705 0.008238493
0.011078203 -0.6234021 0.53436416 0.48856807 -0.003372551 -0.00249564 -0.006650904 1.5746243
0.031754185 -0.31720278 0.08570262 -0.3067651 -0.21843556 -0.19187394 -0.23100477 0.07239225
-0.097661346 -0.0010590971 0.0020224624 -0.5062638 0.5928138 0.07625621 -0.35402408 -0.26494616
0.14923659 0.16054116 -0.2524419 -0.12754333 -1.182838 0.0041061435 0.009806644 -0.11939194
-0.3175541 0.25531626 0.32502913 -0.08515111 -0.06599706 0.14850919 0.057825677 -0.13437614
-0.37943637 -0.25903797 0.040116563 -0.00240784 0.4018899 -0.011190742 -0.094918154 -0.39537486
-0.3743732 0.17859168 0.35885856 -0.002198002 -1.0982697 -0.009841666 0.013422813 -0.4267267
-0.10784996 0.101900175 -0.8373659 -0.009135912 0.0006257606 -0.38558444 -0.12728576 -0.21178626
0.61128604 -0.0038976222 -0.0021014684 -0.7328223 0.63866013 0.0026067651 -0.22642867 -0.026813053
-0.28906256 -0.018826405 0.22753565 -0.18353216 0.60440284 0.0006717026 0.0025161793 0.45095107
-0.2756006 -0.1846769 -0.008537695 0.04237477 0.011970557 0.3734158 0.13314915 0.8867927
0.34814367 -0.39888585 0.06332085 -0.025065875 0.14384575 -0.098953575 0.125959 -0.3634539
0.20055889 0.42852888 -0.057753805 -0.32041916 -0.33923993 -0.005156043 0.0006307003 0.06027151
-0.031058777 0.51520306 0.0035500838 0.004100199 -0.0036009746 0.9830945 0.27957675 0.0021700156
0.22528459 0.13180223 0.041438766 -0.11837798 0.061641783 0.029377384 -0.27800614 0.018265309
0.0018897821 -0.49967584 0.06714197 0.30739027 -0.023632294 -0.06268355 -0.01466303 0.075501315
0.15156159 0.99761623 0.83107466 -0.0069777165 -0.005093823 -0.14513524 -0.094996616 -0.35584003
-1.131872 -0.0040771663 0.0057752915 -0.5972856 -0.2652038 0.30734575 -0.0019957453 -0.0010752082
-0.0048483904 1.6216712 -0.28390178 -0.08798422 -0.41148528 -0.00030798008 0.0014809521 0.3299479

encoder.1.bias f4 [50]
00000000: 2949 403e 293d 37bb 21fc 56bd b490 f5bd
00000010: 5176 bfbd 67a2 cabe 99e6 e3bd d312 72be
00000020: 3e75 0abe c415 aabe e80a 453d 5950 c9be
00000030: fab5 e7be db21 913d a418 ca3c a4cd 843e
00000040: 016f b9be aafd b13c 57f4 94ba 761f 89be
00000050: 3053 543d 5079 0cbe cc73 e43c 3bbf bdbe
00000060: 6423 27be 64b0 85be b558 d53c ba3f 0b3d
00000070: f9e7 91be 2153 77be cee5 a5be 78cc 30be
00000080: d319 c3be d7f0 b4be 432d 943c 87c2 8cbb
00000090: fd92 b2be 0770 043e 3682 1bbe a073 e2be
000000a0: 5012 f33c 5b2c f2ba 2c7e 6c3c 7d7c f1bd
000000b0: 3d16 b7be 926e 36b9 404a 18ba 29af 903d
000000c0: 3b06 8abe 5de6 a938
0.18777908 -0.0027960038 -0.052486543 -0.119904906 -0.09348739 -0.39577028 -0.111279674 -0.23639993
-0.13521287 -0.3321973 0.048106104 -0.39319113 -0.45256025 0.070865355 0.024669953 0.2593814
-0.36217502 0.021727402 -0.0011364323 -0.26781815 0.051837146 -0.13718152 0.027887248 -0.3705996
-0.16322094 -0.26111138 0.026043275 0.03399632 -0.28497294 -0.24152805 -0.3240189 -0.17265499
-0.3810564 -0.35339996 0.018087989 -0.0042956504 -0.34877768 0.1293336 -0.1518639 -0.4422884
0.029671818 -0.0018476354 0.014434379 -0.117913224 -0.35759154 -0.00017398063 -0.0005809404 0.07064659
-0.26957878 8.1014565e-05

encoder.4.weight f4 [50, 50]
00000000: 58e2 903d c52e 9cbe fa9f 25bd 09f1 f2ba
00000010: 7ed3 40be eef4 d33d 4143 8dbc 12a6 9c3d
00000020: 0566 6d3c 57a7 b53d 483a 473e 3c26 ae3b
00000030: 7811 c4bd 4e5b 293d 801c f33d b60b 1e3d
00000040: 89d9 0bbe ebd2 d8b9 7bef 9dbe af92 cabd
00000050: 6670 b0bd de35 073d dfab 0b3e 4e89 d1bc
00000060: e030 a23d 93fc 0cbd 74d1 683c a1cc 3c3e
00000070: fbec 2b3d 1a66 ce3d 7b06 083e 4b5c dfbc
00000080: 546b 1b3d e2c0 903d cfe3 523d 3f7c 33be
00000090: cb32 eab9 eed4 223d 1e88 a13d 471e 003e
000000a0: e0bb 003e 1569 94be 997a eb3c 5da9 90bd
000000b0: a3a4 913e 452d 7cbc 456e 37be f4f8 44bc
000000c0: 0d91 123d cff4 1cbd 5c4d d83d cd96 293d
000000d0: b2e4 a53d 4a0d bbbd a7af 9d3c 62e1 413e
000000e0: 41c3 92bd dd77 c73c 55b3 02bb 9c17 993d
000000f0: 63ae 7d3d ba98 d9bd 6de9 e3bd 6d2e 1a3e
00000100: 2c8f f9bc f8b9 e8bd e3ca 02be 7d00 9bbd
00000110: 38ab 953c a1ed 853c f705 2fbd e0ea 02bd
00000120: 38d6 a83d 2956 523d 8c58 6b3d 6d29 9cbd
00000130: fe34 523e 9dc3 3e3e 55b7 e1bd e83a 063e
00000140: 7785 1bbe b575 d6bd 2fe8 e33c bff1 253d
00000150: 55c4 0f3e 784f 25bc 0d15 c33d d1e7 453d
00000160: 4bab e7bd c74b bc3d f42a 033e 9934 1bbd
00000170: 45e2 c8bd 6690 b6bd a008 5b3d 4d16 0a3e
00000180: d7f0 31bd 32cb d0bd 7154 7abd 6972 5f3d
00000190: cad9 143c bb0e 77be 04fc d73d 33ca 21bd
000001a0: ca70 78bc 40af 86bd 2a65 3fbd 6948 df3b
000001b0: 609f d9bd a1f1 0f3e 2bc0 0fbc d7a6 093e
000001c0: 5f76 023e d5db b03d 57cf 3bbe a065 423d
000001d0: 643b 6cbd 0558 a2bc 7825 06be 854c a13d
000001e0: 9cb2 a13d 1ea7 dfbd 13c6 3fbe 8756 2c3d
000001f0: b10d 07bd 5d00 863d 2028 a53d 0b19 ad3c
00000200: fa2d e9bd 0846 27bd 7932 ddbd 50cb 8abd
00000210: 01cb c83d 5a68 0bbe 33e4 fbbc 481f 22be
00000220: 106b dd3d de51 a23d b80c 42bd 9460 59be
00000230: 360e 28bc c95c c0bd b342 9ebd de1c c9bb
00000240: fde9 0dbe 846a d83d f54c 983c fadc b1bd
00000250: 9bf6 cfbd e522 bebd aac9 20be 370d 37be
00000260: ffda 343d 7c43 8e3d b510 b7bc 4da4 2b3e
00000270: 1cfd 003e cefb 743d b3e6 f4bc 896a e9bd
00000280: 7ded c13c b616 f6bd 869e d33d c55c e5bd
00000290: ca63 cf3c f2d4 f7bd 86f0 c7bd 8e45 87be
000002a0: 331a 33be 0e69 84bd d7a7 83be dde0 cc3d
000002b0: 33d0 89bd 14ae 8cbc 83a5 23bc afb8 703d
000002c0: 45fe 7dbd cae5 88bc 52b5 bc3d 13dd c73d
000002d0: 688b 433e 9cc8 bebd e557 0dbd 6913 dbbd
000002e0: 8ab7 893d b42c 8bbd 2f7a b23c 281f 6fbe
000002f0: bc56 0a3d af27 fc3d 1279 bdbd 1a6e 51be
00000300: ab88 23be 15d0 073e 864d 483e df9a 7abd
00000310: b250 dbbd e90d 7c3d ec63 9e3d 1b77 b8bd
00000320: 834a 423e 6f09 7cbd 143e 87bd fc89 1a3e
00000330: f99f f8bd d8c8 333e 2e8d 9fbd dbe9 533d
00000340: 1498 0fbd 3bf7 c0bd 1a27 5abc da4e e43d
00000350: d8e5 c8bd 5714 3ebd 3724 c53d cc56 28bd
00000360: ec18 01be fbeb 3c3d cc1d 0abe 86e2 093d
00000370: a089 d73c fbb0 2fbd e8db 88bd dc38 ab3d
00000380: aec5 07be f3d5 863d 6c67 943d 4915 6f3d
00000390: 42b0 d6bd f1e1 683d 521b ecbd 8c2b 483e
000003a0: 810e 7bbd ba2a 043d 76db 793d d445 57bd
000003b0: cf75 06be 0f1e 04bc 780b 843e 3566 283c
000003c0: 021c 90bc 283c 12be 45c2 64bd 902b 20bb
000003d0: f194 aabd c787 4f3d 4d78 023e 9ace d3bd
000003e0: 84b2 3ebd 1f53 aa3d ca6e a7bd 8c5f 253d
000003f0: 19ba a3bd 6267 103d 8ba9 b2bd d76a 003e
0.07074422 -0.30504432 -0.04043577 -0.0018534969 -0.18830678 0.10349451 -0.017243983 0.07648863
0.014489655 0.08869808 0.19455826 0.0053146165 -0.095736444 0.04134684 0.1187067 0.038585387
-0.13657202 -0.00041355877 -0.30846772 -0.09891259 -0.08615188 0.033010356 0.13639782 -0.025578167
0.079194784 -0.03442056 0.014210094 0.18437435 0.04197405 0.10078068 0.13283722 -0.027265688
0.037944153 0.070680395 0.051486786 -0.17527865 -0.00044669802 0.039753847 0.078872904 0.1251155
0.12571669 -0.2898642 0.028744983 -0.070635535 0.2844592 -0.0153916525 -0.17913158 -0.012022246
0.035782862 -0.038319405 0.1056163 0.04140358 0.08100261 -0.09133394 0.019248797 0.18933633
-0.07166148 0.024349147 -0.0019943316 0.07475206 0.061933886 -0.106248334 -0.11128507 0.15056773
-0.030463777 -0.11363596 -0.12772708 -0.075684525 0.01827012 0.016348662 -0.042730298 -0.031962276
0.08243984 0.0513517 0.05745749 -0.07625089 0.20528027 0.18629308 -0.11021296 0.13108408
-0.15187632 -0.104716696 0.027820675 0.04051375 0.14039738 -0.010089748 0.095254995 0.04831678
-0.113119684 0.09194141 0.12809354 -0.037891958 -0.098087825 -0.089142606 0.053475022 0.1348507
-0.043442573 -0.101950064 -0.061115686 0.05455247 0.009085128 -0.24126713 0.10546115 -0.039499473
-0.01516361 -0.06576395 -0.046727337 0.006814052 -0.106261015 0.14057018 -0.008773844 0.1344255
0.12740467 0.0863568 -0.18340813 0.0474602 -0.057673827 -0.019817362 -0.1310023 0.07875923
0.07895395 -0.10920547 -0.18727903 0.042074706 -0.03297204 0.06543038 0.08064294 0.021130105
-0.113857225 -0.04083827 -0.108006425 -0.0677706 0.09804345 -0.13614026 -0.030748462 -0.15832245
0.10811436 0.07925771 -0.04737541 -0.21228248 -0.010257294 -0.09392697 -0.077275656 -0.0061374744
-0.1385879 0.10567191 0.018591383 -0.08684726 -0.10154458 -0.09283999 -0.15701929 -0.17876135
0.044154163 0.069464654 -0.022346834 0.16761895 0.12596554 0.059810452 -0.029895162 -0.11397273
0.023672814 -0.120160505 0.1033297 -0.11199335 0.025316138 -0.12101163 -0.09762673 -0.26420254
-0.17490463 -0.0646535 -0.2571399 0.10003827 -0.06729164 -0.01717285 -0.009988192 0.058769878
-0.06201007 -0.016711134 0.092142716 0.097589634 0.19096148 -0.09315607 -0.03450765 -0.106970616
0.067244604 -0.06795636 0.021786777 -0.23351729 0.033774123 0.123122565 -0.09251608 -0.20452157
-0.15970103 0.13262971 0.19560823 -0.061182853 -0.10708751 0.061536703 0.07733902 -0.090070926
0.18973736 -0.061532434 -0.06603637 0.150917 -0.12139887 0.17557085 -0.077906 0.051736694
-0.035057142 -0.094221555 -0.013314987 0.11147852 -0.09809464 -0.046406116 0.09626048 -0.0410984
-0.12607163 0.046123486 -0.13487929 0.033663295 0.026310742 -0.04289339 -0.06682569 0.083604544
-0.13259003 0.06583776 0.07246289 0.05836991 -0.10482837 0.0568561 -0.115286484 0.19547862
-0.06129313 0.03226731 0.06100031 -0.052556828 -0.13130878 -0.008063807 0.2579 0.010278274
-0.01759148 -0.1428076 -0.055849332 -0.0024440028 -0.083291896 0.050666597 0.12741204 -0.103421405
-0.046556965 0.08316635 -0.08175428 0.040374324 -0.0799448 0.035254844 -0.08723744 0.12540756

encoder.4.bias f4 [50]
00000000: 41e5 a3ba c720 01ba 6345 8f3c 522e 803c
00000010: f387 19bc 3394 4fbc 8973 fbbe 1489 313b
00000020: e686 bcbd e85c 5bbc 2af3 6abd 056a 8e3b
00000030: 13a9 43bc e9ec a13a a91d bbbd e39d d1bb
00000040: 5851 533c 9e3e 3dbb 2754 64bc f3c2 d1be
00000050: 259d b4bd 157e b8bb 3bc6 40be 70a5 6d38
00000060: c837 59bb aab7 2a3b 5c0f f1bb 3270 fb3a
00000070: 957c 1fbb e2d1 14bc bab6 1cbc 3f8f c9bb
00000080: a37b 003a 179d 05be d911 a4bd c0e1 2abe
00000090: 200b 4dbe 0d36 32bd 4aef b0be a52f b4bb
000000a0: 9700 783b f13e d2bd af4b 4ebc 9147 2cbd
000000b0: 11f9 23be ebb9 1d3c 4a4a 01be 7e13 353a
000000c0: 52dd b4ba 79c8 473c
-0.0012504236 -0.00049258437 0.01748914 0.015647087 -0.009370792 -0.012669611 -0.49111584 0.0027089762
-0.09205417 -0.01338885 -0.057360806 0.0043461346 -0.011942166 0.001235393 -0.091365166 -0.0063969954
0.012897812 -0.0028876434 -0.013936079 -0.40969047 -0.088190354 -0.0056302645 -0.18825619 5.665928e-05
-0.003314482 0.0026049414 -0.0073565673 0.0019183217 -0.0024335731 -0.009083243 -0.00956505 -0.0061511095
0.0004901236 -0.13048206 -0.08011217 -0.1668768 -0.20023775 -0.043508578 -0.34557563 -0.0054988437
0.0037842148 -0.10265911 -0.012591287 -0.04206044 -0.1601298 0.009626846 -0.12625995 0.00069075066
-0.0013798869 0.0121937925

encoder.7.weight f4 [20, 50]
00000000: 65fb 9a3d dd55 73bc f415 423d 540a 61be
00000010: 9a11 113d c197 4c3e b7ec 9bbd 9b45 e13e
00000020: 7d2a c9bd 145d 5f3e a00a 3a3e 8830 4ebe
00000030: 5fe6 82be 4d55 2bbe 8c67 03be 8940 773e
00000040: 76c7 903d 726a 903e d3f6 20bd 7437 2dbd
00000050: 880a 8cbd 3f5d 7f3e 56f2 c8bd e67e 883e
00000060: 0433 adbd 4c1d ae3e d697 9c3e cbab bc3e
00000070: cff1 c3bd 33ff 65bd 27d8 bfbd a971 a53e
00000080: 508e 8dbd 1acb 1ebc e530 27bd d010 63bd
00000090: 9146 4bbd 643f 1c3d 8fcd d83d 2bb1 15be
000000a0: d49c 5bbd 7590 c1bd f3a2 2f3e 2aa7 803d
000000b0: 8d49 043e bdbd 19be ff18 b8bd 2086 7e3d
000000c0: adbf 35be d328 4cbe ce3b 043d 3348 e8bd
000000d0: 2e95 e23c 7b76 b4bd 6673 d03c 431e 133e
000000e0: 3a57 95bd d5ce 883d 6bb3 c23d a256 e53c
000000f0: a972 33bb 90d7 3c3c 9498 3cbd 3c36 0ebe
00000100: 949f c63d 5efb e7bc aed7 f73d e7df f33d
00000110: 235e babc d1a1 bb3d 28f1 31bd b387 72bc
00000120: b1fd f5bd c769 083e efff 703d c3f2 dcbd
00000130: 151b 573d 0261 d3bc c803 a63d 69dd 673c
00000140: dd93 1cbd 4fef 46bc be28 dabc 2fac 5abd
00000150: 25ab bcbd 2126 3ebd 6838 9f3c ff56 f8bd
00000160: fbcb dd3d 5714 c3bc 0977 d33d d696 a2bd
00000170: 5174 803d c327 393d 0eb1 0fbd 01bd 97bd
00000180: 4093 373d 7792 9ebd fb80 0fbe cb1b 8f3d
00000190: 0f06 a13e 7f5a dc3d 8358 4dbe b40e 2e3e
000001a0: 534b 07be 96cf 35be 8066 75be ddca a6bd
000001b0: 7b4e 1bbe 3dfc 803c 2eb6 cabe 9831 92ba
000001c0: 3cf0 aa3c 4465 e0bd 4099 be3d 9309 3ebe
000001d0: 9616 5cbe 7ace d2bd 9c6e 163d e496 22be
000001e0: 5c90 33be 5d31 03be 9bfd c4be 7376 24be
000001f0: 392f 1dbe 5878 58bd f78a 253d e49d 25be
00000200: 010f 783e c3ed babd 0a58 2c3d b06c d0bd
00000210: 8edc 513d 246e e53d 1d70 cbbd d72e ab3c
00000220: 3bcb 53be cbd5 263d 88b8 50be d929 143d
00000230: 1088 993e a85c 043e f522 8cbe 07bf 24be
00000240: a669 023e 63fb ee3c b85d a93d f6dc a83e
00000250: e447 e23c 9e3c 123e c094 953d 8956 323e
00000260: 11ba 01be 4c2f 0fbc c89b 703d 377f 1e3c
00000270: 5e07 18bc ed70 c63d 18fb f3bd be29 d63e
00000280: f7cb 5e3e 15fc 713c 46c9 4e3e 84d1 533e
00000290: ff40 273d bb46 60bd bafb 39bd eb99 0e3d
000002a0: 81ea 563e cb00 13be c3fb 3abd f987 163e
000002b0: b87b 353e 5995 143e 7fdb e83d dbfd 333e
000002c0: cd23 6c3e 4cd0 073e e316 253c ca3c 003e
000002d0: b284 493e 7e33 95bc e047 4e3d 94e2 ee3c
000002e0: 5a2a 643e 34df 8bbd 9b95 2fbd 3800 c63e
000002f0: 905b b23a 1cdd a33d f1fd d9bc 784f 88bd
00000300: 1470 2bbc 0ea6 b03e 5418 073e bc1d 9cbc
00000310: 4444 c8bd 2061 943d a2ee c13d f214 df3c
00000320: 36ea 88be eb08 1c3d 19d8 f6bd 7cc8 1cbe
00000330: 13a5 97bd f272 dabd 7c78 a1bd ed0e e33c
00000340: 31e7 0dbe ec93 d93d 6d2e 01bd c437 9c3d
00000350: 5fc8 7f3e b2b8 6d3e 07c7 3d3c 25f9 efbd
00000360: 5f48 82bd 50f4 7dbc d574 d93d 810e 24be
00000370: 7e25 69bd c342 1cbe c7ef 793e c39f 703d
00000380: 00d8 b13e adce b83a 2f29 d6bc e959 383d
00000390: f3b6 c9bd 1ce7 7d3d d297 913e 4ae4 d2bd
000003a0: 35bc 743d cab6 65bd 90a0 3a3d 2604 11bd
000003b0: 177b 94bd 0f2e 363e 1925 c73b 3c78 853e
000003c0: d945 a5bd 1a22 f73d 8650 e23d 875b 153e
000003d0: 98f0 673d 525d e9bd 4d65 673d 0c24 84be
000003e0: ec2a 7f3e 1468 8fbd bfaa 19be bdec 07be
000003f0: 9260 7f3d ebe3 cabd d6a4 af3e d20b 883e
0.07567481 -0.014852014 0.047384217 -0.21976596 0.035417177 0.19979765 -0.07613509 0.43998417
-0.09822557 0.2181285 0.18168116 -0.201357 -0.25566384 -0.16731758 -0.12832469 0.24145712
0.07069294 0.2820621 -0.03929789 -0.042289212 -0.06837946 0.24937914 -0.09811847 0.26659316
-0.08456996 0.34006727 0.30584592 0.36849818 -0.09567606 -0.05615158 -0.093674 0.32313278
-0.069119096 -0.009691978 -0.040818114 -0.055435956 -0.049627844 0.03814639 0.10586082 -0.14618365
-0.05361636 -0.09451381 0.17152004 0.06281884 0.12918682 -0.15013786 -0.089891426 0.06213963
-0.177489 -0.19937448 0.032283597 -0.11341896 0.027659025 -0.08811661 0.025445651 0.14367013
-0.07292028 0.06680075 0.095068775 0.027995411 -0.0027381575 0.0115260035 -0.046043947 -0.13887876
0.09698406 -0.028318103 0.121016845 0.1190794 -0.022749966 0.091617234 -0.043442875 -0.014802861
-0.120112784 0.13321601 0.058837827 -0.107884906 0.05251606 -0.025803093 0.0810619 0.014151909
-0.03822695 -0.012142017 -0.026630756 -0.053386863 -0.09212331 -0.04642308 0.019436076 -0.12125968
0.10829922 -0.02381341 0.103254385 -0.07938926 0.062721856 0.045203935 -0.035080962 -0.074090965
0.044818163 -0.0774278 -0.14014046 0.06987723 0.31449935 0.10759448 -0.20053296 0.16997796
-0.13212328 -0.17754969 -0.23964882 -0.08144162 -0.15166657 0.015745277 -0.39592117 -0.0011153696
0.020866506 -0.10956815 0.09306574 -0.1855834 -0.21492991 -0.102932885 0.03672658 -0.15877873
-0.17535537 -0.128118 -0.38474736 -0.1606081 -0.15350045 -0.052849144 0.04041573 -0.16173512
0.24224474 -0.09127381 0.042076148 -0.101769805 0.051235728 0.11202648 -0.09933493 0.020896358
-0.20682995 0.040731233 -0.20382893 0.03617272 0.2998662 0.1292597 -0.2737042 -0.16088496
0.12735614 0.029172605 0.082698286 0.3298108 0.02762217 0.14280936 0.073037624 0.17415823
-0.12668635 -0.008739304 0.058742315 0.009673885 -0.0092791 0.09689508 -0.11913127 0.41828722
0.21757494 0.014769574 0.20193967 0.20685393 0.04083347 -0.054754954 -0.04540608 0.034814756
0.20987894 -0.14355771 -0.045650255 0.14700307 0.17722976 0.14510097 0.113699906 0.17577307
0.23060532 0.13263053 0.010076257 0.12523189 0.19679525 -0.01821303 0.050361514 0.029160775
0.22281781 -0.06829682 -0.042867284 0.38672042 0.001360761 0.08001158 -0.026610347 -0.066557825
-0.010463733 0.3450169 0.13192874 -0.019057147 -0.09778646 0.072450876 0.09469344 0.027231667
-0.2674119 0.038094442 -0.12052936 -0.15310854 -0.07404532 -0.10666455 -0.07884309 0.027717078
-0.13857724 0.10623917 -0.031538416 0.07627824 0.2497878 0.23214987 0.011583096 -0.117174424
-0.0636146 -0.015500143 0.10617987 -0.16021158 -0.05692052 -0.15259843 0.24407874 0.05874611
0.34735107 0.001409968 -0.026142685 0.04500762 -0.09849348 0.06198798 0.28436142 -0.10297449
0.0597498 -0.056082524 0.04556328 -0.035404347 -0.0725004 0.17791007 0.0060774204 0.26068294
-0.08069963 0.12067051 0.11050515 0.14585696 0.056625932 -0.113947526 0.056493092 -0.25808752
0.24918717 -0.07002273 -0.1500654 -0.13273902 0.062347956 -0.09906753 0.34305447 0.26571518

encoder.7.bias f4 [20]
00000000: 4abc 0cbb 2636 97bd 89d9 28bb 9c27 b4bb
00000010: 3c78 55ba 6e8a 703c c932 a5be 85bd 29bf
00000020: ce30 ad3b 5e2c b2bb 7682 47be cc9a 02be
00000030: 181f c0bd 029f 7c3b a626 06bb 805a 8eba
00000040: 01c9 ddbb 1098 913a 46cf be3a c2e2 e6be
-0.0021474534 -0.07383375 -0.0025764427 -0.005497886 -0.00081432215 0.014681442 -0.32265308 -0.6630481
0.005285359 -0.005437418 -0.1948336 -0.12754363 -0.09380931 0.0038546924 -0.0020469814 -0.0010860711
-0.0067683463 0.001110794 0.0014557622 -0.45094877

encoder.10.weight f4 [4, 20]
00000000: 47f8 063f 045b 6dbd 8405 14bf 9ecf 1cbe
00000010: d90d 91be 2305 383f d2e6 d63e b97f 663f
00000020: d998 2c3f 6150 b9be 7824 3ebe 0a7b 0d3f
00000030: 7ec6 953d 2618 0f3f e6da 94be d0d4 283f
00000040: 7754 2abe ddcb 42be 7817 96be c869 4c3f
00000050: dcd6 55be fb9f 72be dd21 adbe 8242 34be
00000060: 12ad 013f be0c 363e e670 f53c 603b d43e
00000070: 3f02 fbbd d11c a7be 693a efbd e868 193d
00000080: 8ef1 00be 39bb 8dbe 2409 ff3e cd54 8abe
00000090: 52f9 d9bd 7d94 093e 8c50 f13e 0092 743e
000000a0: 453a f4be 3c35 223d 69fe 913e 4fbb c6bd
000000b0: 9ba5 ea3e 30b2 84bb 0b2f 233e e5a2 0bbc
000000c0: 1545 00bf 7224 6f3e 940c 43be 23f2 063e
000000d0: 92df 193e 9cf3 0bbf a441 f03e f4bf 1abf
000000e0: 9c5f 65be ab39 293e 1e1f e73e 5374 6cbd
000000f0: cac5 783e 8eec 01be d5c8 a23e f3c6 e0be
00000100: 97b4 5cbe 8a5f b0be b04a 15ba 8107 a5be
00000110: a322 063e 6567 223e 7e28 10be e025 33be
00000120: ddbf 62bd c3ae 943e aed1 6bbe f1b0 a23e
00000130: 6534 00bf 5109 91be e965 7abe 876d 62be
0.5272259 -0.057948127 -0.57820916 -0.15313575 -0.28330877 0.7188284 0.41972977 0.9003864
0.67420727 -0.36194137 -0.18568599 0.5526587 0.0731325 0.5589622 -0.29073256 0.65949726
-0.16633783 -0.1902308 -0.2931478 0.7984891 -0.20882744 -0.2369384 -0.33814898 -0.17603496
0.5065471 0.17778298 0.02996106 0.4145155 -0.12256288 -0.32639173 -0.11681063 0.037453562
-0.12592146 -0.27681902 0.4981166 -0.27017823 -0.10643257 0.1343555 0.47131765 0.2388382
-0.47700706 0.03960155 0.28514412 -0.09703695 0.45829472 -0.004049562 0.15935914 -0.008522724
-0.5010541 0.23353747 -0.19047767 0.13178305 0.15026692 -0.54668593 0.4692508 -0.6044915
-0.22399753 0.16525905 0.45140928 -0.057728123 0.242942 -0.12687895 0.31793848 -0.43901786
-0.21553265 -0.3444789 -0.0005695028 -0.32232288 0.1309915 0.15859754 -0.14077947 -0.17494917
-0.055358756 0.29039583 -0.23029205 0.3177562 -0.5007995 -0.2832742 -0.24452938 -0.22112094

encoder.10.bias f4 [4]
00000000: 6390 b4bd 47ae f1bd 05b5 013e 501b dd3d
-0.08816602 -0.11800819 0.1266671 0.10796225

decoder.0.weight f4 [20, 4]
00000000: 758e 81be d16e 3dbe 94d6 033f 7a0e 7a3f
00000010: 5ad4 933e 33c0 ddbe 8cb5 d5be 2580 fd3e
00000020: 4ff1 42be cec6 a8be c663 f93e 5afe 1a3f
00000030: f999 1cbe 89df 89bf 4eda 41bf 7a39 413f
00000040: cdfd babc 3bf9 bfbd 7cba 7d3e d525 223f
00000050: 5665 363f 293e 89bd d620 9a3c 81b7 40bf
00000060: 38c9 643f abdc bebd a030 573e ca01 3cbf
00000070: 75a3 e93e 33f2 fdbd edd5 e1be b6f5 43be
00000080: d296 b4be 8994 f53e bc89 183d ffb5 95be
00000090: 23c5 333e e4c4 ef3e 9062 4b3e 5c7a a2be
000000a0: 7873 71be f2d5 653e 83e6 b73e f7ba 20bd
000000b0: 3661 87bf e35e 0a3e 16e2 b0bd a0b0 273e
000000c0: 7a62 74bc 9c60 38bf 3fe9 3bbf 35da cc3e
000000d0: d976 fe3e 6fcb dc3e 6934 e53d c709 ab3c
000000e0: d6ae 4b3c 4cea babe d92e e2be d8df 39be
000000f0: 6a20 573e af4a 71be 430f a73e f581 cbbe
00000100: b397 6fbf f05f c8be 41cf 493e 1d9a eabe
00000110: 9b7f 62bf 1345 96be 64f4 cb3e 5b04 27be
00000120: cc71 12bf 14e2 f13e e87d 773e e49c 98be
00000130: 7929 123e cf13 2abe 4559 92be 3172 0bbe
-0.25304 -0.18499304 0.51499295 0.9767834 0.2887295 -0.433107 -0.41740072 0.4951183
-0.19037364 -0.32964176 0.48708934 0.6054436 -0.15293111 -1.0771343 -0.7572373 0.7547833
-0.0228261 -0.09373709 0.2477817 0.6333898 0.71248376 -0.06701309 0.018814486 -0.75280005
0.89369535 -0.09319433 0.21014643 -0.7344023 0.4563252 -0.123997115 -0.44108525 -0.191367
-0.35271317 0.47964886 0.03724073 -0.29240415 0.1755567 0.46829903 0.19861817 -0.31733978
-0.23579204 0.22444895 0.35918054 -0.039240804 -1.0576541 0.13512759 -0.086368725 0.16375971
-0.014916057 -0.72022414 -0.7340278 0.4001023 0.4970005 0.43123958 0.11191637 0.020878686
0.012431821 -0.3650688 -0.44176367 -0.18151796 0.21008459 -0.23563646 0.3262883 -0.39747587
-0.9359085 -0.39135695 0.19707967 -0.45820704 -0.8847596 -0.29349574 0.39834893 -0.16310255
-0.5720489 0.47242796 0.24169123 -0.29807198 0.14273633 -0.16609119 -0.28583732 -0.1361778

decoder.0.bias f4 [20]
00000000: a085 f2be adc0 edbd 0812 89be 46c1 e53d
00000010: d451 23be a7b2 d73d 4ab6 5f3d 161e 1f3e
00000020: 2c35 82be 4c55 ab3e 078e 793e 3a5a 1cbe
00000030: 5137 903e 8d52 d8be 4e0d f0be e7e8 aebe
00000040: 81ec 023d 94b9 e1bd ae40 b23d 798d ad3d
-0.47367573 -0.116090156 -0.2677157 0.112185046 -0.15949184 0.10532122 0.054617204 0.1553882
-0.25431192 0.33463514 0.24370585 -0.15268794 0.28167203 -0.4225048 -0.4688515 -0.34162065
0.03196383 -0.11021724 0.08703743 0.084742494

decoder.2.weight f4 [50, 20]
00000000: d3de 2d3e 235f 91be 8f66 30be 3461 25be
00000010: 7187 54b9 6d1d 483d 8558 9dbd 83f4 6f3d
00000020: 933b 433e e8a4 5a3e c640 2c3c 015d cd3d
00000030: e0b1 e9bd 08a9 af3d 6f7e 5c3e 8d16 513e
00000040: 6b21 f43d e429 6d3e 2712 bc3d 51af 5abe
00000050: ae3f 72bd 777c bebc 8e88 bfbc d204 8c3d
00000060: c3c6 eabd f12b 09be c640 443e f79a 923d
00000070: f25b 57be b26a 0fbe 4647 f93d 85f3 143e
00000080: a0f5 bf3d 63a9 1bbe e001 afbd 521a d1bb
00000090: ea46 a1bc eb1f 503e dd12 56be 197b 293e
000000a0: 1219 cdbd eb24 313e cc7c 2f3e 58a2 5bbd
000000b0: 95cf ce3b 9d81 213e 0d8d e63d 7d66 873b
000000c0: 03bc c7bd 77f3 113e b68a a8b8 aaa6 0a3c
000000d0: 8020 c83d 2a15 4b3d cbce 9ebd cbe7 363e
000000e0: c4da 1e3a 65d7 01be 51c0 68bc f7e7 733d
000000f0: f29f 70bd 94a4 193e 1c1c 87bd a42b 4ebc
00000100: bdea 5fbe a6c2 953b 4d45 163e 2b06 7b3e
00000110: 5833 5a3d d2d9 89bc f984 82bd 07c6 3a3e
00000120: 174d b83d ddef a7bd 1f62 60be cc74 e63d
00000130: 69e0 bf3d c91e 02bd cd0e 6f3d 8c5e 4bbd
00000140: dd05 bbbe cbe5 94bd 2524 853d 7cc3 373e
00000150: f1d8 22be ead5 85bd c67b 8c3d 89c6 adbd
00000160: 6a5c a0bd db6f 4abe b2c8 18be 3560 7f3e
00000170: 7cab 9a3e 166c 0abe 9f68 cebd e12b 183e
00000180: a2d2 033e c315 0e3d 8710 2d3e a63c 513e
00000190: b75e 433d cba1 eb3d a7ff 6d3e 7d01 12be
000001a0: 2b04 363e 584c 423e f892 5d3e e1a4 97be
000001b0: 772c 3c3e f276 883e e43e 1ebd 1eb6 e8bd
000001c0: 2c9a 87bd c066 33be 55fa 043e 7d1e 403d
000001d0: 46a9 ecbb cc5d c9be e8fd 423e 5fe5 c53d
000001e0: b49e 543e 7a92 40be 8fda 1e3d 2391 edbc
000001f0: c802 fc3d 8b07 333e ce58 50bc 7bd7 b9bd
00000200: e2a6 d7bd ff4b 4b3e ee81 91bd 555f 083e
00000210: 79d9 c1bd dc6a 63be ca82 53be 98a8 df3d
00000220: 2e3e 5ebe a93f 8bbd 6f1a a0bc 869d 04be
00000230: 5328 e9bc 56bf d6bc 2358 1bbe 3528 783d
00000240: d4a9 0dbe a75d d7bc 6a6a 153e ba7e 623d
00000250: 765b 2c3e b235 fc3d bbaa f3bc cc2c 083e
00000260: 5bdd b93d fb54 28be c835 13be 5c82 a4bb
00000270: 02b5 003e 92e7 983d 0d20 77be fbda 79bb
00000280: 0d95 a93e 1649 1f3e 1398 613e 2485 59be
00000290: bdf9 8b3e 9440 47bd 2d79 753e 4b6a 55be
000002a0: 55c3 cb3d c579 203e cf92 443e 72b9 06bd
000002b0: bac5 2abd 8e1a a63c 2df9 24be b2aa 4ebe
000002c0: 82dc 32be 2e81 efbd 059a d43d fa40 d93d
000002d0: 7a44 dd3d a8e6 05bd a1a9 413e 74e3 103e
000002e0: d8c4 b9bd dc56 72be d29d 97bd 0ac6 d8bd
000002f0: 360c 24be 4b83 b83d 91c5 053e 1acf aa3d
00000300: 0fe9 133b ff09 eabd 94ea e23d ac78 25be
00000310: e888 d7bd fb10 483e 3850 1e3e 96ac 2f3e
00000320: 1270 c2bc 26f2 153e 0021 1ebd 5451 d3bc
00000330: fb02 5b3e 7b83 1b3e 44b6 433e 70ea 113e
00000340: c9eb 3b3e 88e9 87bd 86ef bf3d 010e 913d
00000350: 7650 08be c57e 0fbd 86d5 943d efdb 1fbe
00000360: 771b 683e 0ff8 0ebe 336b 6a3e 7284 08bd
00000370: 15bf 3d3e dbe2 8f3c 3d9b b43d 01fd af3d
00000380: f8ea d2bd 0e47 15be f83e 4ebe af7f 1b3e
00000390: dd53 a7bd 8102 34be c77e 60be 42a1 5bbe
000003a0: a2a6 983a 8e2d bdbd af32 7cbd 7551 57be
000003b0: ba65 fdbd e722 e73d 8024 35bd 419f 9c3d
000003c0: 4786 ca3d 46f6 903e 960e aa3c 4014 bc3e
000003d0: 7646 a83d 4db3 1dbd 7878 24bb 67ca ce3d
000003e0: 26b9 293e 7a1e 2b3e 5158 083e 8b99 8bbe
000003f0: e5ac 953e cda4 dabd ed0a fb3d f0f9 16bc
0.16979532 -0.28392896 -0.17226623 -0.16150361 -0.00020268351 0.048856188 -0.076828994 0.058582794
0.19065695 0.21351969 0.01051349 0.10027505 -0.1141088 0.08577162 0.21532606 0.20418759
0.119204365 0.23160511 0.0918315 -0.2135594 -0.05914276 -0.023252709 -0.023380544 0.06836857
-0.11463692 -0.13395669 0.19165334 0.071584634 -0.21031168 -0.14005545 0.121717975 0.1454602
0.09373021 -0.15201335 -0.085452795 -0.0063813115 -0.019687135 0.20324676 -0.20905633 0.16550864
-0.100145474 0.1729924 0.1713745 -0.05362162 0.006311367 0.157721 0.11257372 0.0041320906
-0.09752657 0.1425303 -8.036701e-05 0.008462587 0.09771824 0.04958073 -0.077542864 0.1786186
0.00060598203 -0.12679823 -0.014206008 0.05954739 -0.058746286 0.15004188 -0.06597158 -0.012583647
-0.2186689 0.004570323 0.14674874 0.24514072 0.05327162 -0.016827498 -0.06373019 0.18239604
0.08999079 -0.08200047 -0.2191243 0.11252746 0.09368975 -0.03176764 0.058363724 -0.049650714
-0.3652791 -0.07270392 0.06501035 0.17945665 -0.15903069 -0.065349415 0.068595454 -0.08485133
-0.078301266 -0.19769232 -0.14920309 0.24939044 0.30208957 -0.13517794 -0.10078549 0.14860488
0.12873319 0.034688722 0.16900836 0.20433292 0.04769775 0.11505469 0.23242055 -0.1425838
0.17775027 0.18974435 0.21638095 -0.2961798 0.18376337 0.26653248 -0.038634196 -0.11362861
-0.06621203 -0.17519665 0.12986119 0.046904076 -0.0072223274 -0.39329374 0.1904217 0.0966289
0.20763665 -0.18805876 0.038782652 -0.02899987 0.12305218 0.17483346 -0.012716485 -0.09074303
-0.10529877 0.19853209 -0.0710486 0.13317616 -0.09465308 -0.22208732 -0.20655361 0.109208286
-0.21703407 -0.067992516 -0.019543855 -0.12950715 -0.02846161 -0.026214283 -0.1517034 0.06058522
-0.13834316 -0.026289774 0.14591375 0.055296637 0.16831765 0.12314929 -0.029744497 0.13298339
0.09075423 -0.16438667 -0.14375985 -0.005020423 0.12569049 0.074660435 -0.2413332 -0.0038124907
0.3312153 0.15555224 0.22030668 -0.21242195 0.27338973 -0.04864557 0.23972006 -0.20841329
0.09949366 0.15671451 0.19196628 -0.0328917 -0.041692473 0.020276334 -0.16110678 -0.20182303
-0.1746693 -0.11694561 0.103809394 0.106080964 0.108040765 -0.032690674 0.18912365 0.14149266
-0.09070748 -0.23665947 -0.07403149 -0.10584648 -0.16020283 0.09009417 0.13063647 0.08340283
0.0022569334 -0.11427688 0.110798985 -0.16159314 -0.1052416 0.19537728 0.15460289 0.1715568
-0.02373508 0.14643154 -0.03860569 -0.025795616 0.21387856 0.15186875 0.19112498 0.14249587
0.18351664 -0.066363394 0.09371857 0.07082749 -0.13311943 -0.035033006 0.07267289 -0.15611242
0.22666727 -0.13961814 0.22892456 -0.033329435 0.18529923 0.017564228 0.08818672 0.085931785
-0.10298723 -0.14577886 -0.20141208 0.15185426 -0.081702925 -0.1757908 -0.21923362 -0.21448234
0.001164634 -0.092372045 -0.061571773 -0.21027167 -0.123729184 0.11285954 -0.044224262 0.07647563
0.098888926 0.28312892 0.020758908 0.367342 0.08216564 -0.038501073 -0.002509622 0.10097199
0.16574535 0.16710845 0.1331494 -0.2726558 0.2923347 -0.106759645 0.12257943 -0.009214863

decoder.2.bias f4 [50]
00000000: 88d7 6a3e 1a91 d3bd f675 5f3d 9701 373e
00000010: 6761 693c bd90 323e 38f6 24be 9372 433e
00000020: bf7b 433e c3dd 39be 70a0 f73d c062 c5bd
00000030: 94cd b7bd c2f9 a4bd 20d4 1d39 8939 afbd
00000040: 4da8 42bd f5c1 233e fd3e 7dbc 58be e5bd
00000050: 7516 083e 5e66 b93c 32e9 a9bd c992 ce3c
00000060: 89db 863e e26a 0a3e 6514 49bb 063f 1ebe
00000070: 0273 e03d 960b d9bd 53b8 48be ccfa 033e
00000080: dcda b73d 22d5 073d 56f2 4b3b 87c6 68bd
00000090: 83f8 e1bd d59a bf3b 5944 d53d c696 443d
000000a0: bd0b 0ebe 2f95 d7bb f956 03be 3fa0 48be
000000b0: d363 cd3e 6144 443e 30cf 873d 2171 95bd
000000c0: 700a 0fbe 52ab 223d
0.22933781 -0.1033041 0.054555856 0.178717 0.014244414 0.17438026 -0.1610955 0.19086675
0.19090174 -0.18151002 0.12091148 -0.09637976 -0.08974758 -0.0805545 0.0001505171 -0.08555896
-0.047523785 0.15991957 -0.015456912 -0.11217946 0.13289817 0.02263182 -0.082964316 0.025216477
0.26339367 0.13517335 -0.0030682322 -0.15453729 0.10959436 -0.10597913 -0.19601564 0.1288864
0.08977291 0.033162244 0.0031119785 -0.056829955 -0.11033728 0.005847315 0.10413427 0.04799535
-0.13871665 -0.0065790634 -0.12826146 -0.19592379 0.40115222 0.1916671 0.06631315 -0.07296968
-0.13968825 0.039714165

decoder.4.weight f4 [50, 50]
00000000: 3305 353d 7a4d 07be 3964 a3bd 1f4f 67bd
00000010: c5ab 933c 9096 58bd 29b0 c9bd 2c4a 0fbd
00000020: 6930 80bd ff0e c73c df2f 8b3d f2be 033c
00000030: 2d93 d6bd fa50 d5bd 0569 fe3d 4bb5 81bd
00000040: f6ea 383c f54f a1bd 9263 0e3c 634d abbc
00000050: 5d1b d0bd 9b18 adbd f019 d2bd 0823 c03d
00000060: bcb4 afbd 82a7 093e c7e6 0cbe 23bd 77bd
00000070: 9bea f2bd 91a8 e2bd 5c76 003e f99f ce3d
00000080: b08e 223d ac9c 1cbb b5e6 05be f9b6 e4bd
00000090: 933d ec3c a83d 67bd 57c5 0bbe b960 193d
000000a0: de2a bb3c c111 afbd d2d9 913c 1328 9abd
000000b0: 6b9d a6bd d36f 043e ad23 f63d 78f6 05bc
000000c0: 5346 9ebd 0da9 b7bd 2476 f7bd d535 f1bd
000000d0: 27d3 f63d 8ddc 313d 2f3e c2bd ffaf 483e
000000e0: 3752 f53c 4c92 64bc 1cf1 573e 3ae3 8f3c
000000f0: 0d73 213e 3016 8d3d c476 f33d d703 a03d
00000100: 5e39 5ebe d5e4 2dbe 994b 543e f74f b23a
00000110: c9f1 843d 63ad 8f3c 5175 5abe 41f7 d03d
00000120: 5fc5 3ebc 60f6 ba3d 56ca 8e3d d3ad 4c3e
00000130: 4ebd 133e 35d5 b9bd adb6 6c3e dee0 13bc
00000140: 5983 08be 6fa1 1fbe 1a23 aebd d218 803d
00000150: c651 cd3d ea95 eebb e35c 0abd 8949 0c3e
00000160: e2e1 07be f08e c93d 68f5 f5bd 3fa9 72be
00000170: d95f 75bd a0b8 f93d c4b6 523e 45b8 a7bc
00000180: a536 37bd 56b7 b63d 78e3 3dbd 2c07 bf3d
00000190: 62a1 403e 23ed fabd ffef 79bd 5aba 08bd
000001a0: 804f 033e d2e2 943d 82e3 e8bd dcfe 46bd
000001b0: 842e 683d 1f8a 58bd 3aa6 4abd dc75 383d
000001c0: 5423 16be 4353 613d f5d7 403e f380 8dbd
000001d0: 27d7 033d 820c 81bd 8ab1 9c3b 5927 77bd
000001e0: 583a 1f3e 0991 5cbd d528 cfbd 2a69 bfbd
000001f0: ea65 b43d 78ff efbc 7408 003c bf88 f0bc
00000200: f606 dbbc f770 c5bd 9913 eb3c 2c7c 76bd
00000210: f14f a33c be16 b53d 9fcb c2bd 4bfb bd3c
00000220: 1b81 f13d d8b4 023e b2d1 f6bd d40d 69bc
00000230: c45e 493d bd89 b13d 32b2 cc3d 7f2b e23c
00000240: 4d76 4a3e 5c9f dfbd 1220 e63d c19f 4abe
00000250: 75b2 15bd 5c34 553e cc29 c2bd 7125 16be
00000260: 7a90 44bd e370 f93d 3f83 abbc 875b 5ebe
00000270: 1018 c83d cc09 0dbd 17d3 0cbe 2c80 2dbb
00000280: 2a7d 3fbd 282a c1bd 4944 09be 4a27 8c3e
00000290: 6be5 1cbe 59a4 d7bd e236 9d3c 44b8 b6bc
000002a0: 57db 403b 1d93 e03d 8ead a13e e42d 023e
000002b0: e0e2 5bbd 2704 883d 6a24 ef3c 08ce dd3c
000002c0: 0882 cebd 42c0 bb3d a26f 2a3d a9b2 8e3d
000002d0: 9c4b f7bd ac03 8d3e eef4 b2bd 8645 113d
000002e0: 1ca8 e63c 7225 80bd b15c 403e 95ac 8abb
000002f0: 5b86 f03b 6590 313c c8c3 bf3d f2e9 963e
00000300: 3308 183d d208 d83d f360 493e 50ff a13c
00000310: f4b3 5b3e ee0d 4cbe b7ec b03d 7f1d 28bd
00000320: aa48 a23d 9ee0 0ebd 37fb 51bb 1e67 04bd
00000330: 2a0a 623d 3cb4 5bbd 53cf 0f3d 20f4 2c3d
00000340: d2db 36bd d3eb 093e 8f60 1dbd 7451 093e
00000350: 6b24 7dbd 8a3f bd3e 5e3b ba3d da46 be3c
00000360: cc95 183e ee4d 07be bd65 0b3e 54b5 103d
00000370: 20ca 443e ec14 273d aaca 6bba fb45 97bd
00000380: a503 3dbb acba 133e 0776 a33c a8ae 37bd
00000390: b8c0 51bd 32fd 1fbe 321a fd3d 47d4 e93d
000003a0: 16e8 823b e6f1 193e e120 9bbc 6358 eb3d
000003b0: 519b 603e 141f 01be 2ace c13d b0ce 083e
000003c0: f211 e33b 4548 2f3e 0ae3 ce3d 8ab9 aa3d
000003d0: f63a 3f3e a375 d4bc 8e3a 5a3d a472 abbc
000003e0: 5616 153e cc49 71be b531 cfbc affe c0bc
000003f0: 36d8 bd3d 24b5 bb3c d111 e83d 9be1 be3b
0.04419441 -0.13213149 -0.079781 -0.05647194 0.018026242 -0.052877963 -0.09848053 -0.034982845
-0.062592335 0.024299143 0.0679624 0.00804113 -0.1047729 -0.10415836 0.12422375 -0.06333407
0.011286488 -0.07876579 0.008690732 -0.020910924 -0.10161469 -0.08451959 -0.102588534 0.09381682
-0.08579394 0.13442805 -0.1375991 -0.06048311 -0.11861154 -0.11067308 0.1254515 0.10089106
0.03968686 -0.0023897095 -0.13076289 -0.11167712 0.028837955 -0.056455284 -0.13649498 0.037445758
0.02284759 -0.08548308 0.01780406 -0.07527175 -0.08135494 0.12933283 0.12018523 -0.0081764385
-0.07728257 -0.08967791 -0.120830804 -0.11777846 0.12051993 0.043423224 -0.09484517 0.19598387
0.02994643 -0.0139508955 0.2108807 0.017564405 0.15766545 0.068889976 0.11887887 0.078132324
-0.21701571 -0.16981824 0.20731963 0.0013604154 0.06491429 0.017538732 -0.21333815 0.1020341
-0.011643737 0.091290236 0.06972186 0.19988184 0.14427683 -0.09073869 0.2311656 -0.0090257805
-0.13331355 -0.15588926 -0.08502789 0.06254734 0.10025363 -0.0072810547 -0.03377999 0.13699926
-0.13269761 0.09841716 -0.12009698 -0.23697375 -0.05990586 0.121934175 0.20577532 -0.020473609
-0.044729847 0.08921687 -0.04635951 0.0932754 0.18811563 -0.122522615 -0.061019894 -0.033380844
0.12823296 0.07269825 -0.11371519 -0.048582897 0.056684986 -0.052866098 -0.049474932 0.045034274
-0.14661914 0.055011045 0.18832381 -0.06909361 0.032187607 -0.06301214 0.0047819065 -0.06034026
0.155496 -0.053849254 -0.1011521 -0.0934623 0.08808501 -0.029296622 0.007814515 -0.02936208
-0.026736718 -0.09640687 0.028695868 -0.060177013 0.01993558 0.08842228 -0.09511494 0.023191115
0.11792203 0.12764299 -0.12051715 -0.014224488 0.04916264 0.086688496 0.099949256 0.027608631
0.1977169 -0.10919067 0.11236586 -0.19787504 -0.036547143 0.20820755 -0.09480628 -0.1466272
-0.047989346 0.121797346 -0.020936606 -0.21714602 0.097702146 -0.03443317 -0.137524 -0.0026474101
-0.046750225 -0.09431869 -0.13404955 0.27373725 -0.15321891 -0.10529394 0.01919121 -0.022304662
0.0029427612 0.1096556 0.31577724 0.12712818 -0.05368316 0.06641417 0.029192168 0.027075782
-0.10083395 0.0916753 0.041610368 0.069676705 -0.12074968 0.27541864 -0.08738123 0.035466693
0.028156333 -0.06257142 0.18785359 -0.004231999 0.007340235 0.010837649 0.09363514 0.2947536
0.037117194 0.10548557 0.1966589 0.019775063 0.21455365 -0.19927189 0.086389 -0.041043755
0.07924016 -0.03488218 -0.0032040605 -0.032324903 0.055185474 -0.05363868 0.03510983 0.042225003
-0.04464323 0.13468866 -0.038422164 0.13409978 -0.06180231 0.3696254 0.09093355 0.023227144
0.14900893 -0.13213322 0.13613029 0.035329178 0.1921773 0.040791437 -0.0008994738 -0.073863946
-0.0028841284 0.14426678 0.01995374 -0.0448443 -0.05120918 -0.1562393 0.12358512 0.11417442
0.003994952 0.15033683 -0.018936576 0.11491468 0.21934249 -0.12609512 0.09463151 0.13360095
0.0069296295 0.17117412 0.10101898 0.0833617 0.18674836 -0.025935 0.0532785 -0.020928688
0.14559302 -0.23563308 -0.025292257 -0.023558943 0.092697546 0.022913523 0.11331523 0.005825234

decoder.4.bias f4 [50]
00000000: e930 00be 1816 213e 3c31 b63e efde 1dbe
00000010: e28e 873d 3d92 f8bd 6140 71be ca55 da3d
00000020: 1856 9fbd 771b 983d b02f f3bd 02d0 ddbd
00000030: ed35 0bbe a5e4 263d 697d 503d 0775 23be
00000040: 0db5 54bd a44b bbbb ee1b 1e3d e094 d4bd
00000050: 355b cdbd e628 1d3c 69fa 843e 1799 f9bc
00000060: 45b5 2a3e 3bf6 94bd ab96 37bd a5e8 7ebd
00000070: 31db 523c 54e7 703e 40fa 873d 7de9 c73d
00000080: 64fc 363c 5c35 f1bc 36bf 0bbc 9a17 3b3d
00000090: 9e95 4c3d cb42 bfbc 744a dc3d 2811 81bb
000000a0: 4633 f5bc 4c72 5a3c 9e17 2b3e 4c18 843d
000000b0: 3c81 05be 6248 7ebd 5eaf 153c a8a1 79bc
000000c0: 6f94 303e 6dcc e1bb
-0.12518658 0.15731084 0.35584438 -0.15417074 0.066190496 -0.12137268 -0.23559715 0.10660894
-0.07780093 0.074271135 -0.1187433 -0.1083069 -0.1359479 0.040745396 0.05090085 -0.15962611
-0.051930476 -0.005715804 0.038600855 -0.10379958 -0.10027162 0.0095922705 0.25972298 -0.030468507
0.16670711 -0.07273527 -0.044821423 -0.062233586 0.012869642 0.23525745 0.06639528 0.09761331
0.011168573 -0.029444389 -0.008529475 0.045676805 0.049947374 -0.023347279 0.10756388 -0.0039388128
-0.029931676 0.013332915 0.16708228 0.06449947 -0.1303758 -0.06208075 0.009136049 -0.015236296
0.17244123 -0.0068908245

decoder.6.weight f4 [6, 50]
00000000: 5a60 983d f64f a5be 6cf0 743e 568e 72be
00000010: 79b7 333d aab8 be3d 8861 f43d c14c 543e
00000020: acf7 cdbd c936 f4bd 6c20 9ebd 3a1f a4bd
00000030: c5da 0dbe eb09 dc3d f3f6 993e d4d3 d63b
00000040: be59 84bd 4ece 123d 3b9f 78bd bb87 b4bd
00000050: 3362 aebd 3090 82be c2d6 263e ba4f fbbd
00000060: 39d1 543e 20c2 f3bd 5a19 8c3e 471b cebd
00000070: 2f94 ee3d e71d 0d3e c6d5 8c3e 1bfd eebd
00000080: 3f1c cc3d aceb bf3d da55 63bf 3bcf 08be
00000090: b97b b03e 0832 453e 3321 e43d 5ccb 043e
000000a0: f753 e13d 0c3c 21bf 1751 f8bd 7109 9d3d
000000b0: 716a bcbd 507c d03d b40d 8a3e 4742 f4bd
000000c0: 6dea 6bbe e342 693a 2ed6 3bbd 5159 7dbe
000000d0: 0644 79bd 1f6d fcbd c8c2 edbd 06ed 0bbd
000000e0: f3e5 cc3c c794 97bc 7bb9 1a3e 38b2 fd3d
000000f0: e9bd 9fbd 3c07 07bd fcb1 93bd 11e8 1fbd
00000100: 0650 57be 1b07 7f3d ee15 d5bd bc7a f03c
00000110: 2f7a 2b3c 4d1e e43d 38a4 ed3b 4de3 02bd
00000120: b4e7 13be 312e 8c3d aa36 65bd 2a54 983d
00000130: 51a7 d83d 3cd9 d5bd 39db 1d3e 121a 77bd
00000140: 6d9e 10bd f533 a13d 4592 d33d fc74 b43d
00000150: 1f03 863d 8a5d 383d eeea e0bc 4773 093d
00000160: 541a 32be a481 79bd 687c c03d 17e0 223e
00000170: b3ef 34be 768a f73d 4b51 f63d 7aa7 97bd
00000180: c754 1c3e e624 0bbe b836 873c 51e2 59bd
00000190: 9b1a 633d 217c 013d 3876 e33d e23d 07bd
000001a0: a0ad b6bd 41b7 50bc efbf 8fbc 31d1 a03c
000001b0: 4ad7 94bd 42bf 3abc ab8c cfbd 3e9b 253d
000001c0: 056c ddbd 685b 48bc 2d73 19bd 6561 09be
000001d0: 3ea8 d83c 5cb5 febd eb32 8fbd 9f38 adbd
000001e0: 91c8 3fbd 4f94 b63d b20f 40bd f75a e9bd
000001f0: f03d 91bd b7a6 473c 3eb0 a9bd f9ef a53c
00000200: 9177 9a3d e47a ad3d 57b5 5abd 7974 a8bd
00000210: fa10 01be be97 943d d194 38bc 1f21 323e
00000220: c32a c03d d373 fe3b 0b4c 1cbe d9b9 3abd
00000230: 637c 54bd e3c0 89bc 5d98 9a3d fc97 7b3d
00000240: 04e8 f43c 8900 d6bd 5e00 b83d e212 863c
00000250: 9274 9b3d a7a1 f1bd 6c25 823d 2b10 ac3e
00000260: 1051 a23e d3eb 10bf a0e4 efbe 5326 b0bc
00000270: ffa6 88bf fb24 103e 0309 c4be c2fe dcbd
00000280: 843b 263d ee12 fb3d 2d78 bd3d 32e1 cbbe
00000290: a07b 2abf bc3d f43d dd56 d1be e2d5 e3bd
000002a0: ee49 02bf e683 05bd 69a8 91bd e347 57bd
000002b0: 6847 073e 662c d9bd a7e7 2bbd 0d49 483c
000002c0: e10c 493e 052a c4bc 5439 d8bd 6e53 803e
000002d0: bdf1 6a3c af5d 14bf b011 373d 7ae5 dbbd
000002e0: 52cb 3ebe 94fe 5abd 6dbc aebe 1969 7bbf
000002f0: a05d 1b3d 1800 04be a6fd 003e 9e8c 953e
00000300: 76d5 d3bc 1c14 053e e201 0c3d d9e3 f03d
00000310: 99a5 c53c e4d3 043e 1537 5cbf 10ff 8abd
00000320: 644d 9c3d 3923 bebe cc87 a93e f161 973e
00000330: 2840 3a3e c0f5 bebd e88a dfbe 6dcd d73d
00000340: 28e3 843d 8a3f 6c3b c00a c0bd 26eb da3d
00000350: b704 973d a29f 603e dd3c 5fbf 6b51 083e
00000360: 4f73 90be 56d0 883d ed5d 09bf efe7 8b3d
00000370: f813 22bd ce9e 15be c12d b33e 5955 933d
00000380: 12cc b33e 795f b93d 9daf 7ebd 263c d83d
00000390: 4028 923e 107a 7d3e de2f 18be 3fcb 31bf
000003a0: 3f5b f03d 4d7e db3d c449 ebbe c01f 4f3e
000003b0: 0e1f 2dbf 5255 863d 4bc4 723d 1f17 8ebc
000003c0: 2ef9 06be 2549 803e ee98 bf3c 8927 f2bd
000003d0: ed64 54bd e11d b4bd a4da 08bf 572c e3bc
000003e0: 43f1 31bf 9726 4fbd 0daf f23d 0f4e 6dbe
000003f0: 5b5d 0fbe e294 cfbe f6da 18bf 7cf1 0e3d
0.074402526 -0.32287568 0.23919839 -0.2368711 0.043876145 0.093125656 0.11932665 0.20732404
-0.10057005 -0.11924512 -0.07721028 -0.080137685 -0.13852985 0.10744079 0.3007122 0.0065560136
-0.064624295 0.03584128 -0.06069873 -0.08814951 -0.08514824 -0.2550063 0.16292861 -0.12271066
0.20782937 -0.11902261 0.27363092 -0.100637965 0.116493575 0.13780938 0.27506846 -0.1166937
0.09966325 0.09371123 -0.88802874 -0.13360302 0.34469393 0.19257367 0.11139145 0.129682
0.11002343 -0.6298225 -0.12124842 0.076678164 -0.091999896 0.10179961 0.2696358 -0.11926704
-0.23038645 0.00088982115 -0.045858555 -0.24741103 -0.060855888 -0.12325501 -0.11609417 -0.03416159
0.025011992 -0.01850356 0.15109818 0.12387508 -0.07799894 -0.032965884 -0.07211682 -0.039039675
-0.2102662 0.062262636 -0.104045734 0.0293554 0.010466143 0.11138592 0.0072522424 -0.031955052
-0.14443856 0.06844748 -0.055960335 0.07437928 0.10578788 -0.10441825 0.15415658 -0.060327597
-0.035307337 0.07871238 0.10330633 0.088113755 0.06543564 0.04501108 -0.027455773 0.033557203
-0.17392856 -0.06091465 0.093987286 0.15905796 -0.17669563 0.12086956 0.12027224 -0.074049905
0.15266715 -0.13588294 0.016505584 -0.053194348 0.055445295 0.03161252 0.11106533 -0.033018
-0.08919835 -0.012739004 -0.017547576 0.019631 -0.07267626 -0.0113981385 -0.10134252 0.040431254
-0.10811619 -0.012228824 -0.037463356 -0.1341606 0.026447412 -0.12436935 -0.06992134 -0.08458065
-0.046822134 0.08915006 -0.04688997 -0.11394303 -0.07091892 0.012185744 -0.08285569 0.02025603
0.07542337 0.08470705 -0.053395595 -0.082253404 -0.12604132 0.07255505 -0.011265949 0.17395447
0.09383156 0.007765272 -0.15263383 -0.045587394 -0.051876437 -0.016815608 0.07548592 0.06142424
0.02989579 -0.10449321 0.08984445 0.016366426 0.075905934 -0.11798411 0.06354794 0.33606085
0.3170247 -0.5660984 -0.46854115 -0.02150265 -1.0675963 0.14076607 -0.38288125 -0.10790779
0.040584102 0.1225947 0.09251437 -0.39820248 -0.66594887 0.119258374 -0.40886584 -0.11124779
-0.5089406 -0.03259649 -0.071122 -0.05255879 0.13210833 -0.106041715 -0.041968968 0.012224448
0.19633819 -0.023945818 -0.105578095 0.25063652 0.014339861 -0.5795545 0.044694602 -0.107371286
-0.18632248 -0.05346544 -0.34128132 -0.9820724 0.037931085 -0.12890661 0.12596759 0.29208845
-0.025858622 0.12995952 0.034181483 0.117622085 0.024126815 0.12971455 -0.8602155 -0.067869306
0.076319486 -0.37136248 0.33111417 0.2956691 0.18188536 -0.09324217 -0.43660665 0.10537229
0.06488639 0.0036048614 -0.093770504 0.10689382 0.07373946 0.21935895 -0.87202245 0.13312308
-0.28212973 0.06680362 -0.53658944 0.06831347 -0.039569825 -0.1461136 0.34995845 0.07194013
0.3511663 0.09051413 -0.062179197 0.105583474 0.28546333 0.24753594 -0.1486201 -0.69450754
0.11736154 0.10717449 -0.45954716 0.20226955 -0.6762551 0.06559242 0.05926923 -0.01734501
-0.13180992 0.25055805 0.023388352 -0.11823947 -0.051854063 -0.087947614 -0.5345862 -0.027731104
-0.6950876 -0.05057391 0.118497945 -0.23174308 -0.14000456 -0.40543276 -0.5970911 0.034898266

decoder.6.bias f4 [6]
00000000: 8093 e53c 383f d7be 4e11 2fbd 1a4b 193f
00000010: ae30 b23e 9176 673d
0.028024435 -0.4204042 -0.042741112 0.5988022 0.34802765 0.056509558

cluster_layer.weight f4 [4, 4]
00000000: bddf b6bd 8f50 d6bd 3232 d93d b209 cb3d
00000010: e8b6 d4bd 0f45 d2bd 1afd d13d d7f9 b83d
00000020: 5bdc c9bd 585b c03d 123a d13d 520d d7bd
00000030: 38d9 de3d 3353 d0bd 5517 d5bd cf2e ab3d
-0.089293934 -0.10464584 0.10605277 0.099139586 -0.10386449 -0.10267078 0.102533534 0.09032028
-0.098564826 0.093924224 0.10216154 -0.105005875 0.10881275 -0.10172119 -0.10404841 0.083585374
