RiskViz Folder/model/checkpoint_1650.tar (torch, 110796 bytes, 51 tensors)

encoder.1.weight f4 [50, 6]
00000000: 661f 0bbf 1c08 073c c576 423a f086 4e3e
00000010: d036 bdbe 3261 f03d 78d1 f3ba 2e6b 7abb
00000020: 9060 38ba ca13 3a40 ee64 c33b 170c e4bd
00000030: d8a0 12be 7f93 aabd 53e3 b63b 2cc1 06be
00000040: cff8 013f 5d9d 55be 3522 5a3e fdd5 073c
00000050: 7df3 c53a 148b 20be 6eab 8d3b 326f 9f3f
00000060: ff72 d9bc 1b3d 12be 6885 b2bb 6c38 653f
00000070: ab43 743e a3a4 0bbf a545 2a3f 8f5c ad3c
00000080: f53e 0c3b 9983 7d3c 664a 853d 7fb1 983f
00000090: f51d 99bd 68e9 66be 3a72 efbd 2849 7bbe
000000a0: c079 593e a806 51be 7e57 69bf 25bb 7e3e
000000b0: 7254 8ebb 1f35 46bd 09a8 f7bd fac4 1cbd
000000c0: 8eeb 393f 988c 7abb 654d 3abb cf4c 5c3f
000000d0: c7b8 293f 26a1 453d 0029 a5be 0442 313c
000000e0: b87b 42be 9437 22bb 05be 4b3e e108 383e
000000f0: ee49 03bf c8e3 8c3b fab3 363b 491d 7bbf
00000100: dcc6 aabe 6bcf 223e 828a 6ebe 3d93 36be
00000110: 9369 0c3e f298 703e 1971 bb3b 149d 22be
00000120: 37c6 3ebe 1313 12bc dad8 b8bc 669b 8f3f
00000130: 21ab c4bd d1a5 4b3f d12e 0ebf a344 f33b
00000140: 9c16 853a 36f3 49bf de42 a0be 2886 f73d
00000150: 9916 31c0 099f 2fbb 14ce 033a e61c 3e3d
00000160: 7cec f8be 154b c93e 23d3 27bf 342b 473b
00000170: b412 b43b f83c 8fbd 18c3 e1be 4324 25bd
00000180: a22d 88be 1cb6 8d3e 1a9f 213e 35b6 a43e
00000190: d089 9abe 5d6c cdbe 8e2f 83bf 3007 77bc
000001a0: e749 cc3a 2aa2 70bf 2caf 3b3f 140e 1e3f
000001b0: 1eff 15bb 45b3 ccbb ba51 cdba 174c 3340
000001c0: 9df3 e83a c66d b6bd db84 af3d 5110 9dbe
000001d0: 92ad 5fbe 9a7a 44be 848c 6cbe 6342 943d
000001e0: e2d5 94be 58a4 d037 4d83 8cba fc0b 37bf
000001f0: 6ec8 3b3f 8602 d23d 454f b5be 2fa1 87be
00000200: a67c 203e e001 1a3e 1140 81be 6cf8 03be
00000210: 0ec0 42c0 f4b6 8c3b 71ae f03b fb04 fabe
00000220: b240 adbe 895e 753e fa8f b03e 79e6 a4bd
00000230: 0a29 65bd 0cdd 1e3e 2ec9 963d 6382 08be
00000240: 2d03 98be 783b 72bd d817 3d3d a2eb 2bbe
00000250: a352 193f 7214 1f3e 016a dcbd 7c10 c8be
00000260: 5722 bfbe 05af 2d3e 3a01 9e3e 348e 1fbb
00000270: 1633 41c0 0cdb 5dba a773 aabb 11e3 40bf
00000280: 6e58 3abe bb9d 3f3e a309 32c0 955f 2a3c
00000290: 3993 523b f04b 29bf 3357 02be d4ea 11bf
000002a0: d43b 583f 79f9 2abb 1672 c53a 9fc4 a5bf
000002b0: c79d 253f f628 0a3d ebdc 67be 6f52 dabc
000002c0: 0200 94be 1078 9abc f7e9 683e ace6 3bbe
000002d0: 7a6e 603f 1e65 67bc cd22 6dbb 4174 103f
000002e0: 2033 bdbe 3eb3 62be 0616 493d e27d 113b
000002f0: cf9c 0c3b 92b9 02be 4c45 1f3e 31ee b63f
00000300: 5c41 a03e c43a ccbe 0017 2f3d e67c a0bc
00000310: c432 e13d 74fe ccbd 55a6 973d 1286 41be
00000320: 2480 ef3d b5ba 413f 1a4e 863c 9d80 51be
00000330: 5db1 44bf 61db 8dbc aa79 7c3b e1ae cdbc
00000340: d8cf 85bc 63d0 9e3f 3054 b8ba f0b4 36bb
00000350: 26fd f43a 0649 e83f 4202 963e c29e f23b
00000360: a498 663e 8c83 0a3e cd92 203d 2870 f2bd
00000370: 51eb 803d 1940 f03c dd69 203d 687d e03a
00000380: 9228 a1ba 8b96 4cbf d1e6 323d d1ef 483f
00000390: 337a 8d3c d564 9abc 16f3 90bc 457d 9abe
000003a0: c571 893e 3536 cd3f 9b28 9c3f 8c5e 3eba
000003b0: 3149 76ba a468 e3be e6d9 06be d827 2cbf
000003c0: ba0a 43c0 737a 903a 2e35 b23a 1e7f 74bf
000003d0: aeb4 abbe 1891 7f3e 898b cab9 96a8 c9bb
000003e0: 527c 363b bb08 2e40 d69d ccbe 001a 4bbe
000003f0: ce82 21bf 220e aa3c ec1f cabb edf1 453e
-0.54344785 0.0082416795 0.0007418211 0.20168662 -0.3695588 0.117372885 -0.0018601855 -0.0038210857
-0.0007033432 2.9074578 0.0059629595 -0.111351185 -0.1431917 -0.08328914 0.0055812984 -0.13159627
0.50770277 -0.2086081 0.21302111 0.008290765 0.0015102472 -0.15678054 0.0043234145 1.2455809
-0.026544092 -0.14281122 -0.005448032 0.8953922 0.23853938 -0.5454809 0.6651252 0.0211623
0.002139983 0.01547327 0.06508331 1.1929168 -0.07476417 -0.22549975 -0.11691709 -0.24539626
0.2123785 -0.20412695 -0.9114913 0.24876077 -0.0043435628 -0.048390504 -0.12092597 -0.03827379
0.7262505 -0.0038230773 -0.0028427478 0.860547 0.6629757 0.048249386 -0.32257843 0.010818962
-0.18992507 -0.0024752365 0.19896705 0.17972137 -0.5128468 0.0042996146 0.002787827 -0.9809156
-0.33354843 0.15899436 -0.23295024 -0.17829604 0.13712148 0.23495844 0.0057202694 -0.15880233
-0.186303 -0.00891568 -0.02256434 1.1219299 -0.09602953 0.7954989 -0.55540186 0.0074239536
0.0010153833 -0.78886735 -0.31301016 0.12086135 -2.7670043 -0.0026797673 0.00050279615 0.04641428
-0.48617923 0.39315096 -0.65556544 0.0030390741 0.0054953936 -0.06994051 -0.44094157 -0.040317785
-0.26597315 0.27678 0.15783349 0.32170263 -0.30183268 -0.40121737 -1.0248888 -0.015077397
0.001558599 -0.9399744 0.73314166 0.6174023 -0.0022887657 -0.0062469565 -0.0015664615 2.8015192
0.0017772798 -0.08907656 0.08570262 -0.3067651 -0.21843556 -0.19187394 -0.23100477 0.07239225
-0.2906943 2.487206e-05 -0.0010720283 -0.7150266 0.73352706 0.102543876 -0.3541204 -0.2649016
0.1567255 0.15039778 -0.2524419 -0.12887734 -3.042972 0.0042942706 0.007345014 -0.48831925
-0.3383842 0.23961844 0.34484845 -0.08051772 -0.05594734 0.1551401 0.07362591 -0.13330989
-0.29689923 -0.059138745 0.046165317 -0.16789106 0.5989172 0.15535143 -0.10762406 -0.39075077
-0.37330887 0.16961296 0.3086031 -0.0024346234 -3.018743 -0.00084631215 -0.005201775 -0.75346476
-0.18197796 0.18712513 -2.7818382 0.010398765 0.0032131209 -0.66131496 -0.12728576 -0.56998944
0.8446629 -0.0026088639 0.0015063907 -1.2950629 0.64693874 0.03373047 -0.22642867 -0.026650636
-0.28906256 -0.018856078 0.227455 -0.18349713 0.87668574 -0.014123229 -0.0036184073 0.5642739
-0.36953068 -0.22138688 0.04909327 0.0022200276 0.002145577 -0.12766102 0.15553778 1.429144
0.31299865 -0.39888585 0.042746544 -0.019590806 0.10996011 -0.100094706 0.07404772 -0.188988
0.11694363 0.7567552 0.016394664 -0.20459218 -0.76833135 -0.017316522 0.0038524666 -0.025107803
-0.01633446 1.2407345 -0.0014063176 -0.0027878843 0.0018691167 1.8147285 0.29298598 0.0074041793
0.22519165 0.13526744 0.0392025 -0.11837798 0.06294883 0.02932744 0.03916346 0.0017127218
-0.0012295416 -0.7991721 0.043677155 0.7849093 0.017270183 -0.018846909 -0.017694037 -0.30173698
0.26844612 1.6032168 1.2199892 -0.00072620134 -0.00093950616 -0.44415772 -0.13169059 -0.67248297
-3.0475297 0.0011022821 0.0013596171 -0.95506465 -0.33536285 0.24957693 -0.00038632404 -0.00615413
0.0027845097 2.7192829 -0.3996417 -0.19834137 -0.6309022 0.020758692 -0.006168356 0.19330569

encoder.1.bias f4 [50]
00000000: 0dc3 823e 7aa4 62bb 4bdc a1bb ce20 2bbe
00000010: 6804 cabd 87b3 0cbf 66c4 02be 01a7 b8bd
00000020: 64b7 bfbe 3b86 aabe 0ea7 513e 5950 c9be
00000030: 3d10 85bf e382 793e 7f7a 553c 8f22 aa3e
00000040: 4d6c b8be 54a2 8a3c aec2 28bb 761f 89be
00000050: 76e1 103e 8898 15be ef7a a83c 45e0 b4be
00000060: 2230 8ebd 7a50 9fbe fcdd 6b3c 2b97 653c
00000070: af9a ddbe e7ac 77be c8f6 eebe c02b 8bbe
00000080: 6eb4 d6be caf1 c8be d98f 1a3c 1819 efba
00000090: c5af b3be bac1 d7bc 3d47 ccbe 12bf 3ebf
000000a0: 335d 763c b3cd 41bb d65b 1b3b 9a95 0bbf
000000b0: f65d 46bf 47e7 e2ba 0d88 f8bb 7fd5 7d3c
000000c0: e7f3 9abe ebce 0bbb
0.25539437 -0.00345829 -0.004939591 -0.16711733 -0.09864122 -0.54961437 -0.12770233 -0.090162285
-0.37444603 -0.33305535 0.20473883 -0.39319113 -1.039558 0.24366336 0.013029694 0.3322949
-0.36020127 0.016923107 -0.0025750804 -0.26781815 0.14148507 -0.14608967 0.020566432 -0.35327354
-0.06942774 -0.31116086 0.014396187 0.014013092 -0.43282077 -0.24187051 -0.46672654 -0.27181816
-0.41934532 -0.3924697 0.00943371 -0.0018241731 -0.3509504 -0.026337493 -0.398981 -0.745103
0.015036869 -0.002957207 0.0023705862 -0.5452515 -0.77487123 -0.0017311358 -0.007584578 0.015492796
-0.30264208 -0.002133305

encoder.4.weight f4 [50, 50]
00000000: 4645 853c a612 c7be 3461 39be a36b 8dbc
00000010: 7973 82be aa2d 883d 70fd 93bc 2876 fc3c
00000020: 4597 8e3d 919b b53d 1a1e 143e 3c26 ae3b
00000030: 4b88 c4bd 00eb ab3c 4478 7c3e 0317 05bd
00000040: 842b 10be d613 1f3a 7e92 c6be af92 cabd
00000050: 3537 32bc c004 043d 2a25 883e ffaf cdbc
00000060: ee84 77bd 96f3 0dbd 68ba 183e 2f7a a53e
00000070: 2cce 5e3d 9466 ce3d 8848 023e 6eb5 14be
00000080: 19bb 193d ea89 873d 9a1a de3d 5a41 afbe
00000090: 6d03 68ba 2b77 36bd 2fc5 2fbd f5ca 803e
000000a0: 3d12 8c3e 1c7e b1be d1e9 8fbd 428e 92bd
000000b0: fb8c 053f fd31 7cbc 4bbb 9abe 023e e9bb
000000c0: 0d44 993d 8468 07be 12ee 5abc 0da7 e6bb
000000d0: 0110 dc3c e9a2 cebd ef63 f1bc e2d7 3d3e
000000e0: ce8e 93bd 000f 09bd 1d54 90bd ac15 993d
000000f0: c859 6ebd ba98 d9bd a6a7 e8bd 0e47 853e
00000100: 1eff 0e3e 054b d6bc e7d3 0abe 8eed ed3b
00000110: 5f57 af3b a1ed 853c 165c 87bc 45c7 fbbc
00000120: 952e 883e cf75 543d 793d c03a 57ac 9cbd
00000130: e300 cb3e 3516 ce3e 5f3e 05bd 0b3d 063e
00000140: 78e5 cdbd 473d 22be 888e dd3c 9075 093d
00000150: 9e0a 1d3e 2418 d6bd 3350 c33d 0ffe 673c
00000160: 54d6 27be 0df6 d03e cfa5 a23e 2ea3 f23a
00000170: 2f00 0ebe 606a c4bd bf31 923e f7c9 0c3e
00000180: 96c1 03be deb8 b8bd bb89 d9bc 8fae 423d
00000190: b641 913c 89fa fcbe 284c 223d 0983 503d
000001a0: 65c1 42bd b831 483d 04b9 29bd e085 a53c
000001b0: 493c 39be f2e3 0f3e 6660 143d d7a6 093e
000001c0: a140 023e f9c7 1f3d 789e 7abe 2a1d 923c
000001d0: 7f08 59bd f1f4 17bd 75f7 cbbe 854c a13d
000001e0: 61f7 633e 564a e1bd 593e 77be 3569 2c3d
000001f0: be17 a9bc 6c6d 853d 0c4b f43c f93f 82bd
00000200: 7ea0 35be c78f 27bd 0397 b2be 0a7a 1f3e
00000210: 14cd c83d c480 09be fac3 9e3d ebee 2cbd
00000220: d84e dd3d 3205 573d 77d9 743d 1183 84be
00000230: 719c 3abd af4f 5ebe cdbb 02be a2af c7bb
00000240: a859 31be 5541 d23d a8a4 2a3c 3a3a d9bd
00000250: e1f1 d1bd 0e58 47be 589b 98be edd9 71be
00000260: 51c2 71bd 447d d4bd a8c2 9dbd 4cd9 583e
00000270: 38b3 ff3d 75d1 673d 6523 873d 896a e9bd
00000280: 23cd e3bd b616 f6bd 0652 d23d b8ba 73be
00000290: 5b4d c03c c39f 57be 5c7f c8bd 1f24 91be
000002a0: 1730 6abe 0e69 84bd bbf3 bdbe c4df cc3d
000002b0: 4729 8bbd 195b 88bc 3ca6 a6bd ec8e 703d
000002c0: 4b45 80bd 6ade 8dbc 3727 e73c 13dd c73d
000002d0: 143c e23d c5c9 08be e6b3 11bd 5eb6 e5bd
000002e0: e5b1 673d 9e22 8ebe 950a ae3c 275a a9be
000002f0: a103 3dbc 7e10 a93e 72af bebd 6288 61be
00000300: 8c13 42be be19 053e 4370 013f 00f9 7abd
00000310: 23c2 a0be 5656 7a3d e925 e93d 0841 f7bd
00000320: 5d85 6b3c 2005 87be cb6d 533d b445 f63e
00000330: 9210 f1bd c8c9 d73e aa91 8ebd e09a 793e
00000340: 0862 85bc afe4 c0bd 9eb9 8bb9 da4e e43d
00000350: 393c 8ebc 2986 223c b059 f23c 98c0 36b9
00000360: cf78 edbd 1cb1 51bc c23e 98be 86e2 093d
00000370: dbda ffbb 85f8 2bbd 4e49 74bd 7a7d ab3d
00000380: 92fe 3b3d 07ca 873d b7d6 cb3d 5880 c73d
00000390: 8a17 37bc cae9 663d f17f 7cbd aa67 f43e
000003a0: 18a7 5ebd 634d 063e 0be7 c03e a09e 0f3d
000003b0: f234 0bbe 06c5 bdbd 4bf6 f33e 76df 3a3e
000003c0: 942d 3ebc 6040 82be 7836 0cbd 49f8 ed3d
000003d0: 72ac 96bd 23c4 523d 4719 693c 204f e2bd
000003e0: 1a89 a9bd 8c52 183e 3041 22bc f21e a2bd
000003f0: 62d8 8f3c 0978 553e c30c 5e3d 5077 a83e
0.016268384 -0.38881415 -0.18103486 -0.01726324 -0.25478724 0.06649335 -0.018065184 0.03081806
0.06962446 0.088675626 0.14464608 0.0053146165 -0.09596308 0.02098608 0.24655253 -0.03249265
-0.140791 0.00060683244 -0.3878364 -0.09891259 -0.01087742 0.032231092 0.26590854 -0.025108336
-0.060429506 -0.03465613 0.14914858 0.3231978 0.05439584 0.10078159 0.12722981 -0.14522335
0.037531946 0.06618102 0.108449176 -0.34229547 -0.0008850608 -0.04454724 -0.04291266 0.25154844
0.27357665 -0.34666526 -0.07027019 -0.0715604 0.52168244 -0.0153927775 -0.30221018 -0.0071179876
0.07483683 -0.13223463 -0.013362424 -0.007038957 0.0268631 -0.100896664 -0.029466597 0.18539384
-0.07204972 -0.03346157 -0.07047293 0.07474837 -0.05819109 -0.106248334 -0.113601014 0.26030773
0.13964507 -0.026158819 -0.13557397 0.0072609847 0.0053509916 0.016348662 -0.016523402 -0.030734668
0.2659804 0.051870164 0.0014666758 -0.07650059 0.39649114 0.40251318 -0.032530185 0.13109224
-0.10053533 -0.15843688 0.027045503 0.033559382 0.15336081 -0.10453823 0.09536781 0.014159693
-0.16390353 0.40812722 0.31767127 0.0018511766 -0.13867258 -0.09590602 0.28553578 0.13748918
-0.12866816 -0.090196356 -0.026554933 0.047529753 0.017731529 -0.49409893 0.03962341 0.050906215
-0.047547717 0.04887554 -0.04143621 0.020205438 -0.18089403 0.14051798 0.036224745 0.1344255
0.12719966 0.03900907 -0.24474514 0.017836172 -0.052986618 -0.03709883 -0.39837232 0.07875923
0.22262336 -0.110005066 -0.24144877 0.04209252 -0.020641204 0.06515011 0.029820941 -0.06359858
-0.17737004 -0.0409086 -0.34880838 0.15573898 0.098047405 -0.13428026 0.07752223 -0.042220037
0.10806054 0.05249519 0.059777703 -0.25881246 -0.04555935 -0.21710084 -0.12766953 -0.006093935
-0.17319357 0.10266367 0.010415234 -0.10606809 -0.10251213 -0.19467184 -0.29806018 -0.23618288
-0.059023205 -0.10375455 -0.07703143 0.21176642 0.12485355 0.05659624 0.06598548 -0.11397273
-0.11123111 -0.120160505 0.10269551 -0.23801696 0.023474386 -0.21057038 -0.09789917 -0.2834787
-0.22869907 -0.0646535 -0.37100014 0.100036174 -0.067949824 -0.016645001 -0.081371754 0.05873005
-0.062632166 -0.01731797 0.028216941 0.097589634 0.11046615 -0.13358219 -0.035571955 -0.112164244
0.056566138 -0.27760786 0.02124528 -0.33076593 -0.01153651 0.33020395 -0.09310807 -0.22024682
-0.18952769 0.12998101 0.5056192 -0.06127262 -0.31398115 0.061117493 0.11384184 -0.120729506
0.014375058 -0.26371098 0.05161838 0.48100054 -0.11770739 0.42146134 -0.06961377 0.24375486
-0.016282097 -0.09418618 -0.00026650442 0.11147852 -0.0173627 0.009919682 0.029583782 -0.0001742862
-0.11595308 -0.012798574 -0.2973538 0.033663295 -0.007808072 -0.041985054 -0.05964022 0.08373542
0.045897074 0.066303305 0.09953063 0.097412765 -0.011175046 0.056375302 -0.061645452 0.4773534
-0.05435857 0.13115458 0.37676272 0.035063386 -0.13594416 -0.09266095 0.47648844 0.18249306
-0.011607546 -0.2543974 -0.034231633 0.11619622 -0.0735711 0.05145658 0.014227218 -0.11050248
-0.08278103 0.14875239 -0.009903237 -0.079160586 0.017559234 0.20846571 0.05421139 0.32903528

encoder.4.bias f4 [50]
00000000: b6df b63a 5e8c 4fbc 3407 f53b e7b4 033c
00000010: 74be e5ba c41f 953a 68ed 3fbf 72c1 40bc
00000020: 2a6b d4be 0daf 3ebc e24e 21bc b8ae 923c
00000030: 3897 50b9 f9f1 4fbb 3dbf d1be 7e5c 49bd
00000040: beed c43b fcf9 02bc 56fc 88bc 48ee 3abf
00000050: ca42 31be e083 1bbc 7086 a2be 19be c5bb
00000060: c93d 30bb d854 5dbb af2c 5cbc d070 1fbc
00000070: 3805 eb3b 3ffc bfbb fe89 a3ba aad6 e0bc
00000080: 1d76 543c e04e 1fbe d2cb b2be 7fa6 3ebe
00000090: f21d d0be e0af 63bd 0462 2ebf b87f 91ba
000000a0: 99f1 da3b 9039 8bbe 425a 8abc 0e94 25be
000000b0: e0c6 38be 5dc3 2d3c 8ef2 07bf 857a a1bc
000000c0: 8d01 afbb 5ca0 3c3c
0.0013952169 -0.0126677435 0.0074776653 0.008038736 -0.0017528073 0.0011377265 -0.7497163 -0.011764871
-0.4148801 -0.011638415 -0.009845467 0.017905578 -0.00019892759 -0.003172992 -0.40966216 -0.049160473
0.0060097864 -0.007994171 -0.016721886 -0.7301984 -0.17310634 -0.009491891 -0.31743193 -0.0060346243
-0.0026892296 -0.0033772495 -0.013438388 -0.009731486 0.007172253 -0.0058589275 -0.0012477038 -0.02744611
0.0129676135 -0.15557432 -0.34921128 -0.186182 -0.40647846 -0.05558765 -0.6811831 -0.0011100685
0.0066816327 -0.27192354 -0.016888741 -0.1616976 -0.18044615 0.01060566 -0.53104484 -0.019711742
-0.005340761 0.011512842

encoder.7.weight f4 [20, 50]
00000000: 5fda 323e 4eb7 703e f721 983c fc5a a9be
00000010: 769b 273d cded 7f3c 90f2 b1bd 2352 743f
00000020: 9130 0ebd 59b0 083f a014 023d 43b6 a8be
00000030: 4216 e7be ada7 7bbe a367 08be 99c3 c13e
00000040: c7a5 dd3c ec10 253f 39f4 8fbe 4161 37bd
00000050: 81cf a6bd 6283 023f 9089 15be d374 473f
00000060: f8f3 9abd af3b 543f 4a4b 1d3f fde5 553f
00000070: 763e 98be 060b 1d3d 9043 a3be c52d 173f
00000080: 475f e8bd 74cb 1ebc e277 8fbd 26bd 63bd
00000090: 8371 70bd a41d 0abb 45c2 c13d 722e b1be
000000a0: f7af 6dbe 6b4e c4bd 4c8f 0f3e d856 6d3e
000000b0: 8d49 043e 1fd4 ccbe 6199 bbbd 391c 0f3e
000000c0: d1bd c9be 74a0 b4be b373 8a3b 7d02 1c3d
000000d0: 5d55 beba 661b 0e3d efea 8a3e 6e57 ac3e
000000e0: 8a8d f53c 969c 4d3e f5af a03e 935c a33e
000000f0: bf5e bb3e 745e d03b 3da4 15bc d240 8fbb
00000100: 8c52 af3e edd4 06bd 0299 0bbd 822c 843e
00000110: d1f9 acbb f975 213e 8e5b 033e 4975 4f3d
00000120: 5c63 c9bc ef2e 8f3e e2fc 103c 27b5 0c3d
00000130: 28de 483e 5eab d03d fbc1 7e3b 4425 f73e
00000140: e778 8f3b 914e e93b b91e 29bd 0acf 55bd
00000150: 905a d93e cedb 3cbd f5c6 a73e 74f3 ba3b
00000160: 622c 4a3e 1b4e 383b 0d78 ed3c fdd1 5c3e
00000170: 1955 1e3c 2a39 b13e 3dd0 08bd 7453 483a
00000180: 1c20 c13e c416 163d e020 f4b9 b207 273c
00000190: 6c9a 133f aeeb a53e 722f d8be 271e d53e
000001a0: b5b1 97bd 9eb9 6abe aafb 7bbe 0dc0 bbbd
000001b0: 03ac 4abe 5a77 a2be 8512 9cbe 3654 b3bb
000001c0: b142 703b 42d5 92bd ad7a 72ba dbad 7ebe
000001d0: 84b5 a2be 52b4 37be 97c9 4e3d 8a49 28be
000001e0: d66f 9fbe 380a 86bd 3169 19bf 6981 2abe
000001f0: 3bc7 8bbd 149a 64bd 4b7d 61bd 9d36 2fbe
00000200: 466a d13e 9f2f debd 2e9c 373c 1914 08be
00000210: be5c 493e 7626 e53d 12c7 80be 1ce9 a93c
00000220: c054 bcbe e0b5 c43d 3cdb 5abe 53ac 913c
00000230: 0259 f93e de80 b23c 944a 9abe 2ad5 08bf
00000240: dc35 023e b59d 1b3e 822b 45bc 07d2 183f
00000250: 5b00 883c 0365 a53e 913e d73c 74db 8d3d
00000260: da98 febd 51fa 773c b3e7 edba aa72 e93b
00000270: c230 9cbd 873f 113e c437 43be d386 043f
00000280: 7a5b c63b 2d0a 98bb 11bc 633e f032 763e
00000290: 71e9 2e3d b14d 8ebd bf71 b6bd caea 5c3e
000002a0: 7572 ac3e 1081 62be cf93 733c 52ce 5e3e
000002b0: ab61 b53e 38ec 583e da97 583e 4c84 903e
000002c0: 5712 bb3e b151 673e 3036 d33b 571e d8bb
000002d0: 763d b73e f379 3d3d 5bb2 513c 1f55 ed3c
000002e0: be5f 8e3e 9c4f 8cbd 6314 50bd a466 013f
000002f0: 2001 a0bd 3119 533e 0328 1f3b 23ab 2cbd
00000300: 2c08 b63c f489 c43e 89e3 063e 3f2c 8c3c
00000310: 4380 b4bd c2d3 e93c 902c 183e 0da4 493c
00000320: 55b2 a6be 27c6 1c3d 09a1 0abe 0ba5 9abe
00000330: 5863 7d3c 1ed4 8ebd f3b2 19be 5c9f 91bd
00000340: 974d 80be 2818 0f3d 3a0b 893c 475c 80bb
00000350: 6c9d 823e cb0e b03e 6659 723b 3b86 58be
00000360: c7cd 27be 7d28 10bd 4e3b 403e 383c 79be
00000370: 0754 fb3b 09d4 41be 1c68 e03e 1e75 d7bc
00000380: cc4b d13e c626 1bbd e23e 49bb 1293 533a
00000390: 91c4 f3bd d775 b13c eafc 513e 16fe f2bd
000003a0: 2fdb d5bd cb2c 66bd 1dcb c33d eed6 10bd
000003b0: d280 d7bd d872 ce3e a862 9bbd d24a 913e
000003c0: 6c03 55be 0986 0d3e 2ebb 773e 3014 863e
000003d0: 5748 673d 546e 02be 4787 513d 46f1 90be
000003e0: 3da8 9e3e a5cb 3bbe 286e 8ebe e79e 98be
000003f0: a88a fe3d 8cc6 bebe 5f6e f83e dd4c b63e
0.17466114 0.23507425 0.018570883 -0.33077228 0.040919743 0.015620661 -0.08688843 0.9543783
-0.034714285 0.53394085 0.03175795 -0.32951555 -0.4513417 -0.24575682 -0.13320784 0.37844542
0.027056588 0.64478946 -0.28116015 -0.044770483 -0.08145047 0.50981724 -0.14603257 0.77912635
-0.075660646 0.8290357 0.61443007 0.8355406 -0.29735154 0.03834059 -0.31887484 0.59054214
-0.11346298 -0.009692062 -0.07005288 -0.055600308 -0.058702003 -0.0021074796 0.09460882 -0.34605747
-0.23211657 -0.095852695 0.14019507 0.2317766 0.12918682 -0.40005586 -0.09160114 0.1397561
-0.3940263 -0.35278666 0.004225218 0.03808831 -0.001452129 0.034694098 0.27132365 0.33660454
0.029974718 0.20079264 0.31384245 0.31906566 0.36595723 0.006358916 -0.009133396 -0.004371741
0.34242666 -0.032917906 -0.034081466 0.25815207 -0.005278804 0.15767659 0.12827894 0.05064896
-0.024583511 0.27965495 0.008849354 0.034352448 0.19615996 0.10188936 0.0038872946 0.4827062
0.0043784264 0.0071199615 -0.041289065 -0.0521994 0.42451906 -0.04610806 0.3276898 0.0057052914
0.19743493 0.0028122726 0.028987909 0.21564479 0.009663844 0.34613925 -0.033401717 0.000764183
0.3771981 0.036642805 -0.000465638 0.010194706 0.57657504 0.32406372 -0.42223698 0.41624567
-0.07406942 -0.2292237 -0.24607721 -0.0916749 -0.1979218 -0.31731683 -0.3048288 -0.005472685
0.0036660845 -0.07169582 -0.00092498475 -0.24871008 -0.3177911 -0.1793988 0.05048522 -0.16434303
-0.31140012 -0.06544918 -0.59926134 -0.16650929 -0.068251096 -0.055811003 -0.05505113 -0.17110677
0.40901393 -0.10848927 0.01120667 -0.13288917 0.19664285 0.111889765 -0.2515188 0.020741038
-0.3678341 0.096050024 -0.21372694 0.017782366 0.4870072 0.021789964 -0.30135024 -0.5345026
0.12715858 0.15196879 -0.012034299 0.59695476 0.016601732 0.32303628 0.026274951 0.06926623
-0.12431498 0.015135364 -0.0018150717 0.0071242647 -0.07626487 0.1418439 -0.19064242 0.51768225
0.0060533853 -0.004639885 0.2223971 0.24042869 0.042703096 -0.06948412 -0.08908414 0.2157394
0.33681074 -0.22119546 0.014866783 0.21758392 0.35426077 0.2118386 0.21151677 0.28225935
0.3653743 0.22589757 0.0064456686 -0.0065954137 0.35789078 0.046258878 0.012798871 0.028971253
0.2780742 -0.06851122 -0.050800692 0.5054724 -0.078127146 0.20615079 0.0024285323 -0.042155396
0.022220694 0.383865 0.13172735 0.017110942 -0.088135265 0.028543357 0.14860749 0.012307179
-0.32557932 0.03827491 -0.13537993 -0.30204043 0.01546558 -0.06974052 -0.1500967 -0.071104735
-0.25059196 0.034935147 0.016728986 -0.0039172503 0.25510728 0.34386286 0.0036979555 -0.21144955
-0.16387092 -0.035194863 0.18772623 -0.24339378 0.007669929 -0.18928541 0.4382943 -0.026300963
0.4087814 -0.037878774 -0.0030707647 0.00080709264 -0.119027264 0.021662636 0.20506635 -0.11864869
-0.104421966 -0.05619506 0.09560225 -0.035361223 -0.105226174 0.40321994 -0.075871766 0.28377396
-0.20802087 0.13820662 0.24192497 0.26187277 0.056465473 -0.127374 0.0511544 -0.28309077
0.3098773 -0.18339403 -0.27818418 -0.29808733 0.1242879 -0.37260854 0.48521706 0.35605517

encoder.7.bias f4 [20]
00000000: 1a7b b93b 54d6 b8ba cbb6 f0bb 3d87 1abb
00000010: 4554 87bb f7e9 153c 4d05 21be 72c1 b2bf
00000020: 901b 103c 246c eebb 4259 58be 168f 92bb
00000030: 65db dbbe c361 3c3a e23d 73ba 1045 643b
00000040: 185f 8dbb d0ee 223a 1000 10bb 71bf 17bf
0.005660427 -0.0014101961 -0.0073460094 -0.0023579143 -0.0041299188 0.00915002 -0.15724678 -1.3965285
0.008795634 -0.007276075 -0.21127799 -0.0044726236 -0.42940822 0.00071861985 -0.00092789356 0.0034831204
-0.0043143146 0.00062153954 -0.0021972694 -0.5927649

encoder.10.weight f4 [4, 20]
00000000: c033 7a3f 68f7 313e d0bd 58bf 6864 96be
00000010: f9dd e7be af48 a13e 3c53 233f 7594 be3f
00000020: 086b 5a3f e999 20bf 4d76 30be f1b8 6c3e
00000030: 8d8d e93e 3b05 933f 27d3 e9be 7d51 933f
00000040: ab38 8fbe d0d6 93be 10c4 c0be 6b9f 843f
00000050: 056b 0dbf 3a8a 36bf 50a2 42bf 0869 d73d
00000060: 8ca8 533f 8961 10bf e84c 8fbe cff2 163f
00000070: 3d33 fcbe 21f4 0abf cc8a ddbd d205 28bf
00000080: 0111 21be 1050 1ebf 0bca 583f 0851 1ebf
00000090: 220e 56bd c5cb 9d3e dff3 163f 1319 78bd
000000a0: d79b 70bf 87ef 6e3e 6271 133f a21d 80bd
000000b0: 541f 113f dece 2c3f 69c8 a03e 3ccc 76bd
000000c0: dcba 5bbf 1d80 ef3e 15c2 44be 739d de3e
000000d0: cedc 003f 4c66 8abf e7a2 173f 9568 8bbf
000000e0: 5ba0 20be 384e 023e b8c9 ba3e 9a61 a6bb
000000f0: 6a3e 2b3f 4b81 5cbe b8a7 213f 3920 08bf
00000100: afed ecbe 61f1 353b fe7b 4cbe b95f 04bf
00000110: e811 0f3f 3248 dc3e a87d 15be feb1 03be
00000120: e344 e0be 52c1 503f d3b0 e9be 23dc 4f3f
00000130: 1cd8 11bf 2a2f d5be 5f3f e5be cfb6 acbe
0.97735214 0.17379534 -0.8466463 -0.2937348 -0.4528654 0.31500766 0.6379888 1.4889055
0.85319567 -0.6273485 -0.17232628 0.23117425 0.45615807 1.1485971 -0.4566891 1.1509243
-0.27972922 -0.28874826 -0.37649584 1.036115 -0.55241424 -0.71304667 -0.7602892 0.1051808
0.8267906 -0.56398827 -0.27988362 0.58964247 -0.49257842 -0.5427876 -0.10817489 -0.6563388
-0.15729143 -0.61840916 0.84683293 -0.61842394 -0.05225957 0.30819526 0.5896587 -0.060570788
-0.9398779 0.2333356 0.57594883 -0.06255652 0.5668843 0.67503154 0.314029 -0.060253367
-0.85832 0.4677743 -0.19214661 0.434795 0.5033692 -1.0812469 0.59232944 -1.0891291
-0.15686171 0.1272515 0.36482024 -0.005077553 0.6689211 -0.21533696 0.63146544 -0.5317417
-0.46275088 0.0027762281 -0.19969174 -0.5170856 0.558867 0.4302383 -0.14598715 -0.12860867
-0.43802556 0.81544983 -0.4564272 0.81195277 -0.5697038 -0.41637546 -0.4477491 -0.33733222

encoder.10.bias f4 [4]
00000000: 4067 bdbe 42aa bfbe 0b51 d03e f464 d83e
-0.36992836 -0.37434584 0.4068683 0.4226452

decoder.0.weight f4 [20, 4]
00000000: 238a 89be 9ab1 553f 9024 623f b468 ec3f
00000010: a7c1 353f d6e0 8abe ca2e 24bf 6ba8 243f
00000020: 2e30 a5be 2b81 ed3d 7c9d 763f e423 fa3e
00000030: bdf5 b3bc a138 8fbf e527 73bf fc23 3a3f
00000040: 7e1d e13d 005b dd3e da25 2c3f df3e 813f
00000050: f578 313f 780d 32bf 7019 033f 711a 85bf
00000060: 9729 bd3f 0dd8 e1bd 3e08 283f cbdb 6abf
00000070: 50e0 e23e 1752 0abf f8bb 04bf 84c1 07bf
00000080: 07ea 65bd 6677 3c3f 4cc9 0bbf 9f2e 21bf
00000090: 6cf3 623e 41ed 383f 0c0d 443e 78f0 fcbe
000000a0: 063b 2ebe 81ea 573e 24d8 d13e d64b 44be
000000b0: ea2a f9bf 5460 723f 0c07 84bf 582b 673f
000000c0: 6a6d 263d 0a71 93bf 5474 0ebf 5bb4 b63e
000000d0: 83ec 003f ee9d dd3e 0a20 e73d 310c 8c3c
000000e0: e394 043c e1e3 b8be b874 e0be df7c 38be
000000f0: fccc 093f 8dcb 1cbf 1e35 353f b9b2 36bf
00000100: 0383 9bbf ec02 99be f9d4 9c3e a775 2fbf
00000110: 0854 aabf bad9 acbe 5303 323f 00ce ffbc
00000120: 63fa 0ebf 7c6f 413f 315f 12be c8f5 22ba
00000130: c950 853e ac6b e0be 3c41 953b 23cc e2be
-0.26863202 0.83474123 0.8833704 1.8469453 0.70998615 -0.2712466 -0.64133894 0.64319485
-0.3226332 0.115969025 0.9633405 0.48855507 -0.021967763 -1.1189157 -0.9498275 0.7271116
0.10991953 0.4323349 0.67245257 1.0097312 0.6932519 -0.695518 0.5121069 -1.0398694
1.4778317 -0.110275365 0.65637577 -0.9174163 0.44311762 -0.5403151 -0.5184932 -0.53029656
-0.05613139 0.7361969 -0.5460403 -0.62961763 0.2216317 0.7223702 0.19145602 -0.49402213
-0.17014703 0.2108555 0.40985215 -0.19169554 -1.9466221 0.94678235 -1.031465 0.9030051
0.04063169 -1.1518872 -0.5564625 0.35684475 0.5036089 0.43284553 0.11285408 0.017095657
0.008092138 -0.36111358 -0.4383905 -0.18016385 0.53828406 -0.61248094 0.70784175 -0.7136646
-1.2149357 -0.29885042 0.30631235 -0.685389 -1.3306894 -0.33759862 0.6953632 -0.031226158
-0.5585081 0.75560737 -0.14294125 -0.0006216434 0.26038197 -0.43832147 0.0045548957 -0.4429637

decoder.0.bias f4 [20]
00000000: f920 32bf 1b9a 633e fa3a aabe d55a 4e3c
00000010: e456 84be ec36 243e 0323 b43d c2f6 813e
00000020: 7fc2 4fbd 8d4a 0a3f acf1 163e 4480 25be
00000030: 80fa d5bd 63e0 d3be 754a f3be 1635 a3bc
00000040: c681 b8be 0d54 e7be 0d78 443e a29d 0d3e
-0.6958156 0.22226755 -0.3324812 0.012594898 -0.25847542 0.16036576 0.087957405 0.25383574
-0.050722595 0.54020005 0.14740628 -0.1616221 -0.1044817 -0.4138213 -0.47517744 -0.019922774
-0.3603651 -0.45181313 0.1918642 0.13829663

decoder.2.weight f4 [50, 20]
00000000: 6295 c23e 25dc 00bf 02bc 32be 3c20 bdbe
00000010: d48a 15bd f63e 153e 27ff 923d b1e4 3d3e
00000020: ff12 543e e380 ff3d 1c9e 113d 6bbe 013d
00000030: dc7f 82be ce60 b03d d486 5c3e 7fd6 cf3e
00000040: 74a9 0e3e 1688 413e bda3 a63d 1677 c8bd
00000050: 3051 1ebe a10e 80bd d368 2fbb 3e1c b13d
00000060: e2e2 0ebe 0cd2 19be f330 813e 6ded f9bb
00000070: 90f0 56be 04fc 1ebe 9c21 be3d bd58 013d
00000080: b80d fb3d 34b3 1bbe 1859 b0bd 6cc4 be3d
00000090: b792 a63c c830 573e fb2a 71be 4af3 233e
000000a0: 0b71 fbbd d573 4d3e 8bf9 303e 7c0c d93b
000000b0: 45ee 173c 12ed 3c3e 5523 1b3e 7614 2fbd
000000c0: e750 04be c6a2 113e 483e 8dbd ce31 14bd
000000d0: 8b45 163e ac4c 4b3d 0a53 a0bd 8814 5c3e
000000e0: 4b9f 663b 221a 01be 2a91 bbbd de33 773d
000000f0: e11f d9bd a10b ce3d 3f50 84bd 19c2 adbd
00000100: b8c0 6bbe d2dd 66bd 2e6b 363e ec24 553e
00000110: 44ad 8bbc 90d2 3a3d da17 b5bc a2f0 2b3e
00000120: 84f4 f93c 57b3 a7bd 361c 61be 7a3c 7f3d
00000130: 57c7 043e 5e9a 283d 9d95 a23d 0fb1 c8bd
00000140: 4c83 f2be 4333 b5be fc25 513e f870 be3d
00000150: 0f67 58be 1637 85bc 8b1a c53e cd35 61be
00000160: f818 adbd 2014 64be 9ad4 dfbd 1129 433e
00000170: 72ef 8f3e 3689 0abe 432f cdbd 7844 b03e
00000180: 3d44 853e 1920 513e 7d71 1d3e ae94 213e
00000190: 0b25 253e 3552 a73e ab68 873e f1fd 3abe
000001a0: 1b67 9c3e bcfc ae3e 3230 673e bf34 0cbf
000001b0: 4655 353e 368a 393e b103 0fbe ffe2 9fbe
000001c0: 0cad 11be 7198 33be 563a 043e 4d99 563e
000001d0: 373f 75ba 9bca d5be 2648 ed3c af44 86ba
000001e0: e326 533e 5870 52be 3cd6 263d 71d4 19bd
000001f0: 0e79 f83d 3301 633e 3640 dd3c 5a0f bbbd
00000200: 31d4 fbbd b2a0 513e 5972 6fbd b63e 023e
00000210: 6f04 c4bd 505c 63be ca82 53be d1d9 1b3e
00000220: 3dd5 5dbe 0f26 3fbd c332 04bd c3a7 eabd
00000230: 575f 05be f06c 9cbd 0e13 f1bd 10a4 d5bc
00000240: 1719 16be 74bc a83a baa4 903e 7643 1f3d
00000250: 0ff1 033e bf7c 3a3e e2ca 83bd 1128 123e
00000260: 92cc 913d 1355 28be 3393 13be d26d 86bc
00000270: a793 f83d 04ee a53d 155f 8cbe dba2 c7bc
00000280: 69b3 f73e 7f8b 913e b387 863e c77e 8bbe
00000290: 5623 d13e 42f3 4b3e 4344 733e 398b b1be
000002a0: 74da 863d bd4a a33d bcb4 183e 8525 703d
000002b0: 4232 a8bd 7a5a a73c df1b 25be ae9e 8bbe
000002c0: b71c 46be da70 72bd a9e2 283c 47a2 523d
000002d0: 2dc2 813e 4b95 06bd b478 7a3e 0b76 bf3d
000002e0: 0a2a 423c 688f 93be 9577 e2bd 5372 e7bd
000002f0: 8766 ebbd bc29 e53d a14c 1d3e 4e7e 6d3e
00000300: 48cb 56bd ff09 eabd 94ea e23d 05b9 9dbe
00000310: 99cd 7ebe 4f4c 243e 9735 413e 0ca5 f83d
00000320: d2b3 1cbd 83e5 303e 5d05 fabd 927c a2bc
00000330: 5652 513e a410 433e 4541 8d3e 9348 e23d
00000340: 0909 023e 4ee6 0fbd a21f 8a3d aa26 163e
00000350: 9adc 1abe f8da 0ebd 3d65 943d 9f28 69be
00000360: 0c65 8c3e 8f23 14be 5f0d 7b3e 45bc 3cbd
00000370: 8007 443e 678a ec3d a3ab 653c 808d 523e
00000380: 843d efbd 0871 12be d92e 5cbe ae42 5d3e
00000390: dc02 a7bd 2f31 35be 9c32 83be ceb7 59be
000003a0: 6bae 903d 8e2d bdbd 3be6 7bbd 2c9f 61be
000003b0: 3108 13be 310d 4f3a 3f1c 3ebd 1a45 d93d
000003c0: 58e7 37bd dd0b 613e 01c9 93bb 0c33 c03e
000003d0: 3296 0e3c 8ee6 04bd 61c3 b1bd 1d8f 5e3c
000003e0: a1ce 1a3e 6998 923e f64d 0e3e 6d0d 8cbe
000003f0: 7b91 b13e 8d15 ddbd b913 fb3d a11c 7d3d
0.38004595 -0.50335914 -0.17454532 -0.36938655 -0.03650935 0.14574799 0.07177573 0.1854427
0.20710371 0.12475755 0.035551175 0.031675737 -0.25488174 0.08612214 0.21535808 0.40593335
0.13931829 0.18899569 0.08136699 -0.09788339 -0.15460658 -0.0625279 -0.002676536 0.08647965
-0.13953736 -0.15021533 0.25232658 -0.0076271803 -0.20990205 -0.15525824 0.09283754 0.031578768
0.12258476 -0.1520508 -0.08610743 0.09314808 0.020333631 0.21014702 -0.23551552 0.16010776
-0.122774206 0.20063718 0.17282693 0.0066238027 0.0092731165 0.1844981 0.15150197 -0.042744122
-0.12921487 0.1422225 -0.06896645 -0.03618031 0.14674966 0.049633667 -0.078283384 0.21492207
0.003519016 -0.12607625 -0.09158547 0.0603522 -0.106017835 0.10060812 -0.06460618 -0.08484287
-0.23022735 -0.056363888 0.17814323 0.20814866 -0.017050393 0.045610964 -0.0221061 0.16791013
0.030512102 -0.08188503 -0.21983418 0.062313534 0.12966667 0.04116284 0.07938693 -0.09799396
-0.47365797 -0.35390672 0.20424646 0.09298891 -0.21133064 -0.016261619 0.38496813 -0.2199318
-0.08452028 -0.22273302 -0.109292224 0.19058634 0.2811237 -0.13528904 -0.1001878 0.34427238
0.26028624 0.204224 0.15375324 0.15779373 0.16127412 0.32679906 0.26447043 -0.18260933
0.30547413 0.34177196 0.22576979 -0.54767984 0.1770831 0.1811913 -0.13966252 -0.31227872
-0.14226168 -0.1753862 0.12912878 0.20956917 -0.0009355428 -0.41756138 0.028965067 -0.0010243858
0.20620303 -0.20550668 0.040731654 -0.037556116 0.12132464 0.22168426 0.027008157 -0.091337875
-0.12296332 0.20471457 -0.05845866 0.12719235 -0.09571158 -0.22203183 -0.20655361 0.15219809
-0.21663375 -0.046667155 -0.032274973 -0.11457779 -0.1302465 -0.07637966 -0.117712125 -0.026079208
-0.14658009 0.0012873546 0.28250676 0.038882695 0.12884925 0.1821165 -0.06435181 0.14273097
0.07119097 -0.16438703 -0.14411621 -0.016409788 0.121375374 0.081020385 -0.27416292 -0.024369648
0.48379067 0.2842674 0.26275405 -0.2724516 0.40847272 0.19917014 0.23756509 -0.3467653
0.065846354 0.079732396 0.14912695 0.05862953 -0.08212711 0.020428885 -0.16123913 -0.272695
-0.19346891 -0.059189655 0.010307946 0.05142429 0.25343457 -0.03285722 0.24460107 0.09348687
0.011850843 -0.28820348 -0.11057965 -0.113011025 -0.11494165 0.11189601 0.15361263 0.23192713
-0.052439958 -0.11427688 0.110798985 -0.3080522 -0.24883117 0.16044734 0.18868099 0.12140855
-0.038257428 0.17275052 -0.12208054 -0.01983479 0.20441565 0.19049317 0.2758886 0.11048999
0.12698759 -0.035131745 0.06744315 0.14663187 -0.15123215 -0.034876794 0.07245872 -0.22769402
0.27420843 -0.1446669 0.2451682 -0.046077985 0.19143486 0.11549836 0.014017972 0.2056179
-0.11681655 -0.1430093 -0.21502246 0.21607468 -0.08154842 -0.17694543 -0.2562455 -0.21261522
0.070645176 -0.092372045 -0.06149886 -0.22033376 -0.14358594 0.0007898389 -0.046413656 0.10608883
-0.04489836 0.21977182 -0.0045100455 0.37538946 0.008702802 -0.032446437 -0.08679844 0.013583926
0.15117885 0.28631905 0.13896927 -0.27353993 0.34681305 -0.10795126 0.12259621 0.06179488

decoder.2.bias f4 [50]
00000000: 0048 7f3e 8332 a6bd 6272 f43c d637 ec3d
00000010: f7e2 d63d 00b2 583e b79d 07be 82c1 043e
00000020: 0d66 433e cffc 34be 2d60 653d fc68 f1bd
00000030: 0a84 26be 6533 89be 3828 59be a5b3 80bd
00000040: ca77 91be cb3f b73c 0241 c1bd de6d bcbd
00000050: 5d33 0d3e 6b44 283c 9c1e c6bd e0fd 233c
00000060: 6898 1f3e e606 823d c327 77be 81ef 92be
00000070: b62b 103e a9d5 19be 53b8 48be f803 b43d
00000080: 8fd9 e23d ecce 8eba 580f 68be a52c 8bbd
00000090: c053 a6be 759d be3b 2001 f23d b330 37be
000000a0: 97fe 18be 5fb5 8cbd 766e 04be 3fa0 48be
000000b0: 58a6 d33e c4ef d93d 5e99 353c 0350 d5bd
000000c0: 420f bbbd 8170 84be
0.2492981 -0.08115103 0.029839698 0.11534087 0.10492509 0.21161652 -0.13243757 0.12964442
0.19081898 -0.17674564 0.055999923 -0.11787602 -0.16261306 -0.26797023 -0.21206748 -0.062842645
-0.28411704 0.022369286 -0.094362274 -0.09200643 0.13789125 0.010270218 -0.09673807 0.010009259
0.15585482 0.06348972 -0.24136262 -0.28698352 0.14079174 -0.15022911 -0.19601564 0.087898195
0.11076652 -0.0010895408 -0.22662103 -0.06795625 -0.3248577 0.00581711 0.11816621 -0.17889671
-0.14940868 -0.06870531 -0.12932763 -0.19592379 0.41337848 0.10641435 0.011083929 -0.10415652
-0.091337696 -0.25867084

decoder.4.weight f4 [50, 50]
00000000: 3305 353d 7a4d 07be 3964 a3bd 1f4f 67bd
00000010: c5ab 933c 9096 58bd 29b0 c9bd 2c4a 0fbd
00000020: 6930 80bd ff0e c73c df2f 8b3d f2be 033c
00000030: 2d93 d6bd fa50 d5bd 0569 fe3d 4bb5 81bd
00000040: f6ea 383c f54f a1bd 9263 0e3c 634d abbc
00000050: 5d1b d0bd 9b18 adbd f019 d2bd 0823 c03d
00000060: bcb4 afbd 82a7 093e c7e6 0cbe 23bd 77bd
00000070: 9bea f2bd 91a8 e2bd 5c76 003e f99f ce3d
00000080: b08e 223d ac9c 1cbb b5e6 05be f9b6 e4bd
00000090: 933d ec3c a83d 67bd 57c5 0bbe b960 193d
000000a0: de2a bb3c c111 afbd d2d9 913c 1328 9abd
000000b0: 6b9d a6bd d36f 043e ad23 f63d 78f6 05bc
000000c0: 5346 9ebd 0da9 b7bd cbee 25be 7cea b9bd
000000d0: e0b1 82b9 bae5 2abc 3e36 8ebd adef 083e
000000e0: 7791 353c 48b1 74bd 6583 0e3e 7f96 2c3d
000000f0: 54eb 063e 1c63 033e 6af5 133e 1b27 093e
00000100: bde7 b0be b32a 83bd ad13 743e 7599 403d
00000110: 8069 b93d 75d5 803c 5a21 01be a44c d53d
00000120: d571 42bc e05e eb3d cb83 fb3d dd25 343e
00000130: 2371 3a3e 104e 0bbe f87b 803e cc72 a9bc
00000140: 5983 08be d7de 9ebd d129 0dbe 1a49 263e
00000150: 660f 3a3e 1155 40bc 746f 4c3d 7349 0c3e
00000160: c409 08be e998 243e 17f6 1bbe 1324 2fbe
00000170: 96be 75bd a0b8 f93d a113 213e a843 09bc
00000180: df46 f5bc 8c60 003e 4382 2cbd 3ad5 bc3e
00000190: 7ff0 903e 56b8 24be 39df d7bd 5ac5 bfbd
000001a0: 1d6b ed3d 4e7f 693d d086 01be 33b3 98bd
000001b0: c0bc 6e3d 704b 8fbd fd98 e2bd 921c 963c
000001c0: 9ebf 80be 0266 9c3d 3330 813e a202 0bbc
000001d0: 06e7 d93d 7d82 0ebe e0a4 d2bb ee6b 9bbd
000001e0: caab a63d 338d 9bbd c751 cfbd f062 55bd
000001f0: e0e0 5f3d 5c90 d4bc fa8c b43c a8b7 85bd
00000200: b85a 27bd af9a 06be 9913 eb3c f99e b5bd
00000210: 0ab1 ec3c d020 ec3d 8c82 cdbd c162 9b3c
00000220: f96f ed3d d8b4 023e 0208 edbd 2e68 0a3d
00000230: abcc 153d f3a9 ad3d ebbc cc3d 7f2b e23c
00000240: 7ce3 9b3e c1e5 06be 1f7c 7a3d 288d 71be
00000250: a24a 6d3c 35d7 cf3e 22bc 9abd e4ba afbd
00000260: 24cd fcbc e4fc 313e 0d60 0bbe 61a6 48be
00000270: 645c fb3d fdf3 fbbc 3bc5 133d 045d 8e3d
00000280: 9706 60bc f07e 7dbd 216a d0bd 9b27 d93e
00000290: 2a94 06bd 2f65 9cbe 79c2 53bd 8526 2ebd
000002a0: 1103 c6ba 1e4f 113e 456b 983e 0f23 a23d
000002b0: 3330 5bbd fd38 853d 447d 0b3e 2efc 22bd
000002c0: ea78 24be 07f8 cdbc 7b01 b13d 0185 253d
000002d0: 9c4b f7bd 4c40 723e 01fb 01be 1168 0fbd
000002e0: ef3a e7bb 9c0d 80bd d8c0 893e 95ac 8abb
000002f0: 52e6 be3b 4ae9 a43d bd62 c13d 030a 9d3e
00000300: 0c4e 183d d208 d83d c946 773e 0203 b23c
00000310: 5685 863e 0627 67be 3b80 ad3d c23e c4be
00000320: 5654 2e3e 6d3a 61bc b2bd 1a3d db30 46bb
00000330: ea9c 5f3c d7e6 903c 5a77 953c 39da 073d
00000340: c4b5 803d 727a 5f3e 249b 8abd f1c6 303e
00000350: 7fd9 1dbe 4219 073f 72e2 0c3e 7503 37be
00000360: 293a ad3e 1717 11be 5f9b 103e 630a a63d
00000370: 6dbd 603d 831e 15bc 82e3 9cba 947d 82bd
00000380: 9a82 06bd 4191 e93d a12c 4a3d ba54 65be
00000390: ebff 8fbd 3a21 8abe 321a fd3d 96ec 663b
000003a0: 1aad 1cbb 4ca9 223e 2a39 0d3d 1be7 dc3d
000003b0: 895f cc3e 141f 01be ed0e c83d 4d49 b63e
000003c0: 6b91 cdbc 5217 d93d b21a cf3d 8ab9 aa3d
000003d0: 255e 973e 3608 8a3d f3b9 653c 98e2 233d
000003e0: 362f 393e 1638 e7be b531 cfbc affe c0bc
000003f0: 36d8 bd3d 24b5 bb3c d111 e83d 9be1 be3b
0.04419441 -0.13213149 -0.079781 -0.05647194 0.018026242 -0.052877963 -0.09848053 -0.034982845
-0.062592335 0.024299143 0.0679624 0.00804113 -0.1047729 -0.10415836 0.12422375 -0.06333407
0.011286488 -0.07876579 0.008690732 -0.020910924 -0.10161469 -0.08451959 -0.102588534 0.09381682
-0.08579394 0.13442805 -0.1375991 -0.06048311 -0.11861154 -0.11067308 0.1254515 0.10089106
0.03968686 -0.0023897095 -0.13076289 -0.11167712 0.028837955 -0.056455284 -0.13649498 0.037445758
0.02284759 -0.08548308 0.01780406 -0.07527175 -0.08135494 0.12933283 0.12018523 -0.0081764385
-0.07728257 -0.08967791 -0.16204374 -0.090779275 -0.0002492806 -0.010430748 -0.069439396 0.13372679
0.011082045 -0.05973938 0.1391731 0.04213571 0.13175708 0.12830776 0.14449087 0.13393824
-0.34551802 -0.064046286 0.2383563 0.047021348 0.09053326 0.015726784 -0.12610379 0.10415009
-0.01186796 0.11492705 0.12280997 0.17592569 0.1820722 -0.13603997 0.2509458 -0.020684622
-0.13331355 -0.07757347 -0.13785483 0.16238824 0.18169937 -0.011739031 0.049910977 0.13699894
-0.13284975 0.16073956 -0.15230595 -0.17103605 -0.05999621 0.121934175 0.15730144 -0.008377947
-0.02994102 0.1253683 -0.042116415 0.3688143 0.28308484 -0.16085944 -0.10540623 -0.09363814
0.11592696 0.057006173 -0.12649083 -0.074560545 0.058285475 -0.069968104 -0.110643364 0.01832417
-0.25146192 0.07636644 0.25232086 -0.008484514 0.10639767 -0.13916965 -0.006428346 -0.07588945
0.08138235 -0.07595291 -0.1012302 -0.052096307 0.054657817 -0.025947742 0.02203988 -0.0652917
-0.040858 -0.13144945 0.028695868 -0.08868212 0.028893013 0.11529696 -0.100346655 0.018967988
0.11593623 0.12764299 -0.11573793 0.03379076 0.03657214 0.08479681 0.09996971 0.027608631
0.30446994 -0.13173582 0.061153527 -0.23589003 0.014483126 0.40593877 -0.07555415 -0.085805684
-0.030859537 0.17381626 -0.13610859 -0.19594719 0.122734815 -0.030755991 0.036076766 0.06951335
-0.013673446 -0.061888635 -0.101764925 0.4241303 -0.032856144 -0.30545947 -0.051699135 -0.042517204
-0.0015107115 0.14190337 0.2976934 0.07916843 -0.053512763 0.0650501 0.13622004 -0.03979128
-0.1606175 -0.025142683 0.086428605 0.040410046 -0.12074968 0.2365734 -0.12693407 -0.035011355
-0.007056586 -0.06252596 0.2690494 -0.004231999 0.005825796 0.08052309 0.09442661 0.306717
0.037183806 0.10548557 0.24148096 0.02172995 0.26273602 -0.2257348 0.08471724 -0.3832913
0.17024359 -0.01374684 0.037778564 -0.0030241522 0.013648251 0.017688198 0.018245388 0.033167098
0.06284669 0.21824053 -0.06767872 0.1726339 -0.15415 0.52772915 0.13758257 -0.17872413
0.33833435 -0.14168964 0.1412177 0.0810745 0.05486815 -0.009101513 -0.0011969658 -0.063716084
-0.032839395 0.11404658 0.049358968 -0.22395602 -0.07031234 -0.26978475 0.12358512 0.003523623
-0.0023906888 0.15884894 0.034478344 0.10786267 0.39916638 -0.12609512 0.09768472 0.356028
-0.025093755 0.10600151 0.101125136 0.0833617 0.29564014 0.06739847 0.0140213845 0.04001102
0.18084416 -0.45159978 -0.025292257 -0.023558943 0.092697546 0.022913523 0.11331523 0.005825234

decoder.4.bias f4 [50]
00000000: e930 00be 8ede 013e 6b8e 973e 9a6a 043d
00000010: 3d48 3e3e 3d92 f8bd 821e 90be d5ad 103d
00000020: 7b7c 18be 63ed 823d 7acc 0fbe 432d e9bd
00000030: 64a2 1abe f3d0 2b3c feeb 15bc a7db 2abe
00000040: ad26 04bd f2b3 87bc ec4c a33d e094 d4bd
00000050: 355b cdbd 16a5 bb3d 5177 513e ce63 a5bc
00000060: 5933 7e3d d32c b4bd 8b33 ccbd 88c5 7ebd
00000070: 19c5 3cbd 1eeb 263e 808b 983d 518e 1b3e
00000080: b304 1c3c d6f3 d1bc 8019 873d 325e 093d
00000090: de3a e43d 6cb0 343e 0f8b 273e a9e0 8dbb
000000a0: cc19 56bd 628d aebd a52b 703e 1154 893d
000000b0: 3c81 05be f503 9bbd cc70 69bc 15e5 bcbd
000000c0: 302f 753e 6dcc e1bb
-0.12518658 0.12682554 0.29600844 0.032328226 0.18582244 -0.12137268 -0.28148276 0.03532203
-0.14891236 0.06392934 -0.14042845 -0.11385586 -0.1510101 0.010486829 -0.009150503 -0.16685353
-0.032263447 -0.016565297 0.07973656 -0.10379958 -0.10027162 0.09162347 0.20455672 -0.020189192
0.062060688 -0.08797612 -0.099707685 -0.0622001 -0.046086404 0.16300628 0.074484825 0.15191008
0.009522605 -0.025628965 0.065966606 0.033537097 0.111440405 0.17645425 0.1636164 -0.00432976
-0.052270696 -0.085230604 0.23454149 0.067054875 -0.1303758 -0.07569114 -0.014248084 -0.092233814
0.23943782 -0.0068908245

decoder.6.weight f4 [6, 50]
00000000: 5a60 983d bf15 76be 1c64 b63e 93f3 77be
00000010: 0f9a 4b3d aab8 be3d 97da 973e 47a2 aa3e
00000020: 3b52 0abe cd94 61be 77dd 93bd 264b 93bd
00000030: 0994 10be 0133 bb3e ddf4 fe3e de59 26bd
00000040: fb2d a3bd 298f 103d a653 cbbd bb87 b4bd
00000050: 3362 aebd 47d7 9ebe 0cf3 3c3e 708c 16be
00000060: ac93 b83e ec2b f3bd 0f6b a33e 221f cebd
00000070: aa94 103d 4d14 483e 017c 803e 74f1 27be
00000080: 9052 883e a4ae 063e eedb 78bf d2f9 12bd
00000090: cc1a 8e3e 21a5 8d3e e680 cb3e a76b 073e
000000a0: 4a0b 3e3e 4a6d 87bf 84d6 07bf 1ab5 ba3d
000000b0: 716a bcbd 0d61 d73d 5c13 4f3e 1007 e0be
000000c0: d760 59be e342 693a 2ed6 3bbd 982a 93be
000000d0: 90c6 8d3d 45de 33be 0ca1 c9bd 06ed 0bbd
000000e0: 067d 68be 21f9 13be 3d5f fa3d c378 373e
000000f0: 8c23 9dbd 4a21 44bd 169f 82bd bc19 cebc
00000100: 3a07 c9be bf5a a93d cc04 0ebe 0882 f03c
00000110: 72f3 033e 4d1e e43d 38a4 ed3b 52be 463d
00000120: fc6b 88be 9339 783d 912f 9bbb 6571 953d
00000130: 34a6 163e 51da d5bd 6272 b63e 7b4f f5bc
00000140: f260 97bd b206 c53d aa02 7d3d 6e34 44bc
00000150: b389 ea3d 8537 e83e 06bd e23d 5b1f cebb
00000160: 14c0 08bf f611 6ebd 79c7 463e d7e1 0d3e
00000170: 3a58 0cbe 5406 f23d 4b51 f63d 0d4a 99bd
00000180: 5f04 653e de87 4abe 9959 82bd 51e2 59bd
00000190: 9b1a 633d ecb3 b93d a074 813d 1774 40bd
000001a0: c06a 363d 41b7 50bc e8d1 cc3b b959 8abd
000001b0: 239b bd3c ce26 a3bc 7bfc ccbd dacf 483d
000001c0: e073 bebd 910a de3c 0e1b f6bd 5d4c 26be
000001d0: aee5 183e f29d febd 8916 3c3d 9f38 adbd
000001e0: 91c8 3fbd 4d52 df3d 7930 453a 0b30 e2bd
000001f0: 56f4 bb3c e515 483c 2b82 88bd adef a53c
00000200: c920 d13d 16d8 b93d e7a5 34bd 519b e4bd
00000210: e3e7 1bbe 5621 de3d 8924 db3c 8fc8 013e
00000220: 3940 cb3d 4343 69bd 849d 84be 3186 33bd
00000230: 62ef a93c 02da 023d db81 4c3d 1dbe 783d
00000240: 04e8 f43c 436d d2bd 148c 1b3e a70e 6fbd
00000250: 51cf 19be a7a1 f1bd 6c25 823d 8d27 d63e
00000260: b370 093f 424f 32bf f7f9 47bf 5326 b0bc
00000270: a27b a2bf feda 7d3e 3aa3 11bf 14ff dcbd
00000280: 2c0a 2a3d d12d fb3d 72cd e63d f22c 1abf
00000290: 74da 24bf 6b50 f43d 6319 25bf d5d5 e3bd
000002a0: 56fa 2ebf e683 05bd 69a8 91bd c84e 8abe
000002b0: 5f38 4c3e 7c72 08be 8e2b e7bb 29c4 423c
000002c0: a8dd 003f f42d c4bc 21d7 36be e068 c23e
000002d0: ba75 783e ba3f 69bf 4cdb 063d 1429 32be
000002e0: e647 d6be 4365 7dbc a5f9 09bf 15c4 aabf
000002f0: 1887 a43d 08ca 03be ebb4 623e 77fb 483f
00000300: ad9b c0bd 75c2 173e e201 0c3d 7342 f13d
00000310: ac50 523c 0472 043e 7513 acbf 10ff 8abd
00000320: 644d 9c3d 3a2a a2be 6347 9a3e 4e0e a83e
00000330: 03cb ce3e c0f5 bebd 55ce b9be 5c9c 253d
00000340: 99e9 363e a394 6e3b 3362 c1bd 9162 db3d
00000350: be33 ad3d 7678 bc3e 2f53 a5bf 1d64 083e
00000360: 9c56 08bf e4d0 883d 6856 4bbf efe7 8b3d
00000370: f813 22bd 1a54 a0bd d8ba 913e a356 b73d
00000380: 42ec 973e c712 bd3d 097e 9cbe 803b d83d
00000390: 93ff 9a3e 7d0a 6d3e 152a 99be fb35 54bf
000003a0: bbdd 0b3e d5a8 323e 321b 24bf b66d 5f3e
000003b0: ed52 a4bf 92e7 5f3e 35ae 2b3e 3d46 abbc
000003c0: 6c19 87be 9c8e ab3e d61f cc3d 2c47 f9bd
000003d0: ed64 54bd 150b b2bd 93dc 78bf b0f9 d0bc
000003e0: 5f52 62bf 9726 4fbd 0daf f23d ef84 85be
000003f0: 2fe2 6bbe 64e0 d3be 9b95 7cbf 7cf1 0e3d
0.074402526 -0.24031733 0.35623252 -0.2421401 0.04970747 0.093125656 0.29658958 0.33326933
-0.13507931 -0.22029419 -0.072199754 -0.07192068 -0.14118971 0.3656235 0.4979619 -0.040613048
-0.079677545 0.03529278 -0.09928064 -0.08814951 -0.08514824 -0.3102362 0.1845209 -0.1470201
0.36050165 -0.11873612 0.31917617 -0.10064532 0.035298027 0.19538994 0.25094607 -0.16400701
0.2662549 0.13152558 -0.97210586 -0.03588278 0.2775482 0.27665046 0.3974678 0.1322466
0.18558994 -1.0580227 -0.530617 0.09116574 -0.091999896 0.10516558 0.20222229 -0.43755388
-0.21228348 0.00088982115 -0.045858555 -0.28743434 0.069226384 -0.17565258 -0.098451704 -0.03416159
-0.22703943 -0.14450504 0.122251965 0.1791716 -0.07672796 -0.04788331 -0.063779995 -0.025158755
-0.39263326 0.082692616 -0.13869017 0.029358879 0.12885836 0.11138592 0.0072522424 0.048521347
-0.26644886 0.060601782 -0.004735895 0.07297019 0.14711839 -0.10442031 0.35634142 -0.029945126
-0.07391538 0.09620418 0.06177012 -0.011975391 0.11452045 0.45354858 0.110712096 -0.006290359
-0.5341809 -0.058122598 0.1941203 0.13855682 -0.13705531 0.11817613 0.12027224 -0.07484827
0.22364949 -0.19778392 -0.06364746 -0.053194348 0.055445295 0.090675205 0.063210726 -0.046985712
0.0445354 -0.012739004 0.0062506087 -0.067553945 0.023145264 -0.019915964 -0.10009094 0.049026348
-0.09299445 0.027104648 -0.12016879 -0.16240068 0.14931366 -0.124324694 0.04591993 -0.08458065
-0.046822134 0.109043695 0.00075221766 -0.1104432 0.022943657 0.012212251 -0.066654526 0.020255888
0.102113314 0.09074418 -0.04410353 -0.11162437 -0.15225177 0.10846202 0.02675082 0.12674163
0.09924359 -0.05694891 -0.25901425 -0.043829147 0.02074403 0.03194619 0.049928527 0.06072818
0.02989579 -0.10274746 0.15190154 -0.058363583 -0.15020491 -0.11798411 0.06354794 0.4182705
0.5368759 -0.6965219 -0.7811579 -0.02150265 -1.269398 0.2479057 -0.5688969 -0.1079084
0.041513607 0.12264598 0.11269654 -0.6022483 -0.64395833 0.11929401 -0.6449186 -0.111247696
-0.6835073 -0.03259649 -0.071122 -0.2701323 0.19943379 -0.13324922 -0.0070547527 0.011887589
0.5033822 -0.023947693 -0.17855503 0.37970638 0.24263659 -0.91112864 0.03292398 -0.17398483
-0.4185173 -0.015466037 -0.5389655 -1.334109 0.080335796 -0.12870038 0.22139327 0.78508705
-0.09404693 0.14820273 0.034181483 0.11780252 0.0128366165 0.12934119 -1.3443438 -0.067869306
0.076319486 -0.3167284 0.3013259 0.32823414 0.4038926 -0.09324217 -0.3629023 0.04043232
0.17862548 0.0036404512 -0.09442558 0.107121594 0.08457135 0.36810654 -1.2916011 0.1331944
-0.53257155 0.06680468 -0.7942872 0.06831347 -0.039569825 -0.07828541 0.28462863 0.089520715
0.29672438 0.09232097 -0.30564907 0.10558224 0.30273113 0.23148532 -0.2991492 -0.8289487
0.13658802 0.17447217 -0.64103997 0.21819195 -1.2837807 0.21865681 0.16765673 -0.020907516
-0.26386583 0.3350724 0.0996701 -0.12171778 -0.051854063 -0.0869352 -0.9721157 -0.025509685
-0.8840694 -0.05057391 0.118497945 -0.26077983 -0.23035501 -0.41382134 -0.9866578 0.034898266

decoder.6.bias f4 [6]
00000000: e634 483d 9fe8 dbbe cc4d 923c 6267 053f
00000010: 99e2 553e 84ab b83e
0.048878573 -0.42950913 0.017859362 0.52110875 0.20887221 0.36068356

cluster_layer.weight f4 [4, 4]
00000000: 432a bebd aa7b e73d 0308 b43d df92 d5bd
00000010: 2424 cbbd 58e5 cdbd 8d9c cd3d 3e8a cc3d
00000020: af45 f1bd ff82 7b3d 13fb f43d 1ca8 b7bd
00000030: 0ff5 c83d 8f46 d3bd 4b56 c4bd 8f3e d23d
-0.092854045 0.11302884 0.087905906 -0.10428404 -0.09919003 -0.100535095 0.10039625 0.09987305
-0.11780869 0.061404224 0.11961951 -0.08967611 0.09812366 -0.10316192 -0.095867716 0.10265838
