RiskViz Folder/model/checkpoint_50.tar (torch, 110796 bytes, 51 tensors)

encoder.1.weight f4 [50, 6]
-0.16935533 -0.15104528 0.01574438 0.20006359 -0.24677373 -0.096011974 -0.01591164 -0.000589995
-0.0018913267 1.2054441 0.14407915 -0.0023103338 -0.17405394 -0.23978922 -0.043940816 -0.11505748
0.17889209 -0.34861174 0.26867405 -0.3616723 0.10824266 0.054165896 0.26866207 0.15062481
0.014812688 0.025464823 0.16719756 0.44529662 0.22523582 -0.24015927 0.44487837 -0.011808826
0.0122780455 0.2564963 0.20143579 0.2743859 -0.090946354 -0.22744009 -0.102717966 -0.24868889
0.19785699 -0.20181519 -0.20221929 0.36940497 0.36908838 -0.009779325 -0.0932585 -0.04975062
0.2564278 -0.037918385 -0.011502247 0.84624356 0.43598035 -0.007781128 -0.32257843 0.011138358
-0.18992507 -0.0007976933 0.19978462 0.18068251 -0.12254377 0.0062511815 0.007627481 -0.7061157
-0.18783791 0.110630125 -0.23295024 -0.17829604 0.13712148 0.23495844 0.0057202694 -0.15880233
0.21006349 -0.1942422 -0.054480508 0.54736745 0.09981444 0.07783529 -0.06506908 -0.025541041
0.13716435 -0.5630499 -0.19499633 0.07502468 -0.25232697 -0.03526157 0.028386831 0.41775778
-0.139801 0.37286943 -0.45223573 -0.095790155 -0.004600857 -0.19117446 -0.39143747 -0.22007526
-0.25838688 0.28380677 0.16466922 0.31945184 -0.304113 -0.39751682 -0.35995957 0.008343601
-0.0061991736 -0.4933298 0.47592053 -0.0053124498 -0.011138687 -0.0010652284 -0.0015906672 1.0803967
0.11926802 0.0060827667 0.08570262 -0.3067651 -0.21843556 -0.19187394 -0.23100477 0.07239225
-0.059645083 -0.13540429 0.04710215 -0.2813527 0.3466187 -0.08790471 -0.3541197 -0.26551455
0.16439065 0.16107456 -0.2524419 -0.12740459 -0.4393841 0.08845129 0.22975816 -0.022583816
-0.31813985 0.25044125 0.32805827 -0.08460746 -0.06689345 0.1466503 0.055311147 -0.13445364
-0.378818 -0.28631312 0.016027087 -0.021903224 0.3282401 0.016275786 -0.10801234 -0.3975364
-0.37510404 0.1735363 0.35807076 -0.004490401 -0.3865718 0.041432943 0.31289223 -0.35923278
-0.10636021 0.10313633 -0.2125488 -0.3886334 0.19676256 -0.34604472 -0.11568885 -0.2121757
0.41832095 -0.008126084 -0.005223016 -0.38199472 0.54308504 0.01470323 -0.22642867 -0.026719995
-0.28906256 -0.01886031 0.2279022 -0.18352595 0.3279191 -0.018152287 -0.041307207 0.31148654
-0.054291718 -0.07308224 -0.1046292 0.116978675 0.10877697 0.606248 0.29992825 0.2939681
0.34972826 -0.39303446 0.07033732 -0.036255706 0.14930752 -0.07849329 0.11347882 -0.37488234
0.18625487 0.39335972 -0.073160835 -0.32445198 -0.34008893 -0.078269266 -0.0043900586 0.05002807
0.033751786 0.3171182 0.010955214 -0.0032474864 -0.0071126367 0.64428514 0.19091721 -0.012202829
0.23135664 0.13550937 0.047022715 -0.11837798 0.072271235 0.030393682 -0.29252112 0.035033558
0.007956151 -0.3339277 0.036759015 -0.034568097 -0.33031973 -0.24400793 -0.30159426 0.1505661
0.25025222 0.3850234 0.56071913 0.03965143 0.009538813 -0.037082195 0.4114917 -0.14390235
-0.27332172 -0.09148462 -0.053303495 -0.49808455 -0.20010826 0.33510247 -0.051929526 0.0003245317
-0.0037249324 1.1095265 -0.15878284 -0.09570949 -0.26769513 0.2355103 -0.18582596 0.4547814
00000000: 7c6b 2dbe 9dab 1abe 5cfa 803c 78dd 4c3e
00000010: 41b2 7cbe eda1 c4bd 2159 82bc e5a9 1aba
00000020: 65e6 f7ba fe4b 9a3f 7c89 133e f868 17bb
00000030: 323b 32be 4e8b 75be 49fb 33bd 42a3 ebbd
00000040: 7d2f 373e 3d7d b2be a58f 893e 1d2d b9be
00000050: 54ae dd3d 0fdd 5d3d 138e 893e 643d 1a3e
00000060: ebb0 723c 9b9b d03c d635 2b3e ebfd e33e
00000070: 38a4 663e 50ec 75be 19c7 e33e ce79 41bc
00000080: db29 493c 7c53 833e 2f45 4e3e 4f7c 8c3e
00000090: 1542 babd 0ee6 68be cc5d d2bd 4da8 7ebe
000000a0: 069b 4a3e a4a8 4ebe 9312 4fbe a622 bd3e
000000b0: 27f9 bc3e 7639 20bc 50fe bebd 4ec7 4bbd
000000c0: 814a 833e 4f50 1bbd ec73 3cbc 6ba3 583f
000000d0: d138 df3e d5f8 febb 0029 a5be a97d 363c
000000e0: b87b 42be 4b1c 51ba 5794 4c3e d604 393e
000000f0: 3af8 fabd b6d6 cc3b f3ef f93b 00c4 34bf
00000100: 9558 40be 0c92 e23d 828a 6ebe 3d93 36be
00000110: 9369 0c3e f298 703e 1971 bb3b 149d 22be
00000120: e21a 573e 6de7 46be f426 5fbd 4620 0c3f
00000130: 836b cc3d 1c68 9f3d f042 85bd 723b d1bc
00000140: d074 0c3e 0a24 10bf 1ead 47be 8aa6 993d
00000150: 0031 81be 706e 10bd 808b e83c 59e4 d53e
00000160: fe27 0fbe bee8 be3e 718b e7be a12d c4bd
00000170: c9c2 96bb 3dc3 43be 7e6a c8be 695b 61be
00000180: 494b 84be 1f4f 913e 0c9f 283e 318f a33e
00000190: b3b4 9bbe 5387 cbbe 9f4c b8be 99b3 083c
000001a0: 7022 cbbb b995 fcbe dbab f33e 0f14 aebb
000001b0: 0a7f 36bc 229f 8bba ef7d d0ba 704a 8a3f
000001c0: cb42 f43d f251 c73b db84 af3d 5110 9dbe
000001d0: 92ad 5fbe 9a7a 44be 848c 6cbe 6342 943d
000001e0: 674e 74bd 6ca7 0abe 2fee 403d 760d 90be
000001f0: 0278 b13e 6207 b4bd 2d4f b5be 86f1 87be
00000200: 0656 283e bbf0 243e 1140 81be 5976 02be
00000210: f4f6 e0be f325 b53d b945 6b3e b201 b9bc
00000220: 3ae3 a2be d639 803e 41f7 a73e ad46 adbd
00000230: 6fff 88bd 7f2b 163e f18d 623d 37ae 09be
00000240: 6ff4 c1be a297 92be 3d4b 833c 646e b3bc
00000250: 160f a83e cc54 853c 9335 ddbd e489 cbbe
00000260: a30d c0be 80b3 313e 0d55 b73e 3724 93bb
00000270: bdec c5be 97b5 293d 6933 a03e 5ced b7be
00000280: 62d3 d9bd 2439 d33d 65a6 59be f5fa c6be
00000290: 207c 493e c62c b1be 47ee ecbd 9644 59be
000002a0: 2a2e d63e 4423 05bc d525 abbb d094 c3be
000002b0: 9f07 0b3f d1e5 703c ebdc 67be e4e3 dabc
000002c0: 0200 94be f080 9abc 325f 693e 3aee 3bbe
000002d0: 03e5 a73e 1bb4 94bc bf31 29bd 2a7b 9f3e
000002e0: fe60 5ebd 24ac 95bd d647 d6bd 8492 ef3d
000002f0: 76c6 de3d 1233 1b3f 3290 993e fd82 963e
00000300: 950f b33e d03b c9be 030d 903d dd80 14bd
00000310: 12e4 183e 17c1 a0bd 9567 e83d 94f0 bfbe
00000320: 99b9 3e3e 7266 c93e 59d5 95bd 921e a6be
00000330: 2320 aebe a34b a0bd 7bda 8fbb 3cea 4c3d
00000340: 503f 0a3d 515d a23e 7f7d 333c c8d3 54bb
00000350: 1f11 e9bb dfef 243f cd7f 433e 60ee 47bc
00000360: c1e8 6c3e f8c2 0a3e e49a 403d 2870 f2bd
00000370: f102 943d 2cfc f83c 54c5 95be 597f 0f3d
00000380: 845a 023c 92f8 aabe 9f90 163d 4797 0dbd
00000390: ab1f a9be 37dd 79be 906a 9abe 002e 1a3e
000003a0: 0f21 803e c921 c53e 4a8b 0f3f 8a69 223d
000003b0: ae48 1c3c 80e3 17bd 0aaf d23e 235b 13be
000003c0: d3f0 8bbe 4a5c bbbd c454 5abd f004 ffbe
000003d0: 2ee9 4cbe 8d92 ab3e 0eb4 54bd e825 aa39
000003e0: ff1d 74bb f704 8e3f f897 22be 5603 c4bd
000003f0: 560f 89be 9d29 713e 2949 3ebe 1cd9 e83e

encoder.1.bias f4 [50]
0.18250251 0.0074137156 -0.14148328 -0.05058834 -0.117452286 -0.27708775 -0.1405945 -0.2833956
-0.11762257 -0.33216515 0.0837584 -0.39319113 -0.2612793 -0.025462281 0.1501747 0.30189213
-0.35390434 0.20906365 0.0056701014 -0.26781815 0.043790095 -0.11883429 0.05923683 -0.36880764
-0.24517983 -0.2645544 0.0088374065 0.010664047 -0.24444455 -0.2412289 -0.16326709 -0.056872793
-0.38949764 -0.37876555 -0.07878011 -0.00037809787 -0.3407777 0.16140358 0.030896729 -0.34664088
0.215383 0.023916248 0.06983638 -0.13461848 -0.25858533 0.026932037 -0.05276474 0.21712892
-0.24011895 0.0014849359
00000000: f0e1 3a3e c1ee f23b fee0 10be b835 4fbd
00000010: d38a f0bd 72de 8dbe 01f8 0fbe 3a19 91be
00000020: 1ae4 f0bd 8d11 aabe 8689 ab3d 5950 c9be
00000030: 67c6 85be 4696 d0bc 66c7 193e 9b91 9a3e
00000040: f332 b5be c814 563e 42cc b93b 761f 89be
00000050: 3e5d 333d 645f f3bd 51a2 723d 5bd4 bcbe
00000060: 6c10 7bbe ad73 87be c5ca 103c 41b8 2e3c
00000070: ac4f 7abe b504 77be 7d2f 27be 72f3 68bd
00000080: 3c6c c7be 8fed c1be 7757 a1bd 703b c6b9
00000090: 6a7a aebe fb46 253e 231b fd3c ea7a b1be
000000a0: 5c8d 5c3e 02ec c33c 6006 8f3d 6dd9 09be
000000b0: 4c65 84be 93a0 dc3c d71f 58bd 0b57 5e3e
000000c0: bee1 75be 2ea2 c23a

encoder.4.weight f4 [50, 50]
0.018731019 -0.2302652 -0.039644945 0.0044036107 -0.14611758 -0.033167116 -0.017137036 0.10735888
-0.05486759 0.08869808 0.20481913 0.0053146165 -0.095709994 0.054292165 0.048502866 0.0072275223
-0.1360305 0.0034563544 -0.2192448 -0.09891259 0.039960727 0.033073943 0.095852554 -0.02595205
0.08468726 -0.03430533 -0.058209654 0.14426093 0.082268 0.100786485 0.025004309 -0.0731353
0.03663571 0.07067701 0.021001166 -0.027556688 -0.0002574109 0.07422733 0.052844867 0.03081103
0.05504917 -0.22074956 -0.024752473 -0.07061668 0.14960016 -0.011909583 -0.0904913 -0.036734253
0.003693018 0.046537638 -0.008882719 0.056338627 0.080985025 -0.14039442 0.03409558 0.12625413
-0.07166155 0.024001747 -0.009644817 0.07475206 0.030992828 -0.106248334 -0.10733447 0.11296073
-0.071532674 -0.12543604 -0.12720929 -0.12291173 0.026243832 0.016348662 -0.08871335 -0.03199164
0.018343344 0.051456504 0.05773005 -0.076161854 0.1323176 0.13131267 -0.11585166 0.13108408
-0.13093564 -0.10042895 0.027711082 0.041335545 0.12554781 -0.0051693423 0.09526896 -0.046081346
-0.10344956 -0.020848734 0.07187354 -0.057082433 -0.12634362 -0.086249925 0.025252521 0.13459642
-0.00043203254 -0.113981925 -0.06328249 0.0588925 -0.02341207 -0.18032879 0.10519884 -0.0015572918
-0.0069933957 0.049548324 -0.04656504 0.02077854 -0.14441006 0.14057018 -0.01666785 0.1344255
0.12740245 0.06097418 -0.13760905 0.017248692 -0.058196966 0.028894046 -0.055870395 0.07875923
0.044970013 -0.109454855 -0.13081652 0.042091515 -0.032068867 0.06560578 0.13638288 0.051364426
-0.066467576 -0.040837627 0.027481632 -0.053126942 0.09837056 -0.13614026 -0.0171676 -0.123696074
0.108124316 0.071846806 -0.023376504 -0.14804997 0.028011749 -0.017050425 -0.014499885 -0.0061322944
-0.12937105 0.10937518 0.028279426 -0.09824088 -0.10049111 -0.034903187 -0.061495356 -0.123943366
0.044381347 0.0199335 0.044057515 0.13377234 0.12591828 0.057003047 -0.08376843 -0.11397273
0.060771763 -0.120160505 0.09576608 -0.058662694 0.040246267 -0.0104461275 -0.0979195 -0.20337135
-0.10203818 -0.0646535 -0.066367544 0.10004006 -0.063697845 -0.01723076 -0.009490362 0.059036657
-0.05870676 -0.014422074 0.18949553 0.09758962 0.10814957 -0.003382093 -0.029148176 -0.10724567
0.08130996 0.07007115 0.022064744 -0.16998486 0.09954508 0.07893496 -0.09120283 -0.15174076
-0.1065056 0.13169225 0.07018187 -0.0611857 0.089347005 0.09072214 0.07105351 -0.048344173
0.12753189 -0.03336405 -0.059001148 0.060852394 -0.05996805 0.100905694 -0.07522202 0.05401483
-0.10568968 -0.09422199 0.005770158 0.11147852 -0.108529724 -0.036448188 0.062287364 -0.026862742
-0.1267087 -0.0033056003 -0.05028384 0.033663295 0.05631388 -0.04277135 -0.07552514 0.08361419
-0.121859714 0.0690131 0.057879787 0.055065643 -0.09984964 0.056869823 -0.0865374 0.060951278
-0.06592426 0.03105527 0.0021667676 -0.099338114 -0.13132344 -0.033901934 0.0855438 -0.03278653
-0.035361696 -0.0930941 -0.104399234 -0.011509436 -0.037721682 0.050502308 0.13215989 -0.09728153
-0.043427974 0.051196035 -0.09043921 -0.003020542 -0.07171794 0.04332389 0.00080541783 0.028123196
00000000: cb71 993c a4ca 6bbe bd62 22bd 2a4c 903b
00000010: d99f 15be 3eda 07bd f862 8cbc f9de db3d
00000020: d7bc 60bd 57a7 b53d 1bbc 513e 3c26 ae3b
00000030: 9a03 c4bd 7661 5e3d f1aa 463d dad4 ec3b
00000040: 944b 0bbe 0184 623b b581 60be af92 cabd
00000050: dcad 233d 8b78 073d 584e c43d 6599 d4bc
00000060: 8470 ad3d bf83 0cbd 3f6d 6ebd 23b9 133e
00000070: 207c a83d 2569 ce3d d6d5 cc3c f6c7 95bd
00000080: 540f 163d 1cbf 903d a30a ac3c 90be e1bc
00000090: 1bf5 86b9 8004 983d dc73 583d 6a67 fc3c
000000a0: 3d7b 613d 2c0c 62be b3c5 cabc 7a9f 90bd
000000b0: c930 193e 6920 43bc 8153 b9bd a876 16bd
000000c0: 9006 723b 409e 3e3d d388 11bc 55c3 663d
000000d0: 7adb a53d 8ec3 0fbe cfa7 0b3d c348 013e
000000e0: 4ac3 92bd 509f c43c 4b05 1ebc 9c17 993d
000000f0: ace4 fd3c ba98 d9bd 2dd2 dbbd f557 e73d
00000100: b97f 92bd 4e72 00be 2743 02be 25b9 fbbd
00000110: 4efd d63c a1ed 853c 58af b5bd aa09 03bd
00000120: c844 963c 0ec4 523d 5876 6c3d bffa 9bbd
00000130: 447e 073e d476 063e a343 edbd e83a 063e
00000140: fe13 06be b1ad cdbd 5a02 e33c 764f 293d
00000150: 9b8f 003e 9663 a9bb 5f1c c33d cbbf 3cbd
00000160: 5ddd d3bd f7ca aabc 6f32 933d 45cf 69bd
00000170: 3960 01be cda3 b0bd 60de ce3c a5d3 093e
00000180: 6d82 e2b9 5b6f e9bd 409a 81bd 4339 713d
00000190: abca bfbc 1ca8 38be 7d72 d73d 0b1e ccba
000001a0: db28 e5bb 2ff3 4a3d fcba 3ebd c237 aa3c
000001b0: 3be0 13be a1f1 0f3e 048b 88bc d7a6 093e
000001c0: ca75 023e 10c0 793d 63e9 0cbe 214d 8d3c
000001d0: f15f 6ebd 35b3 ec3c 5bd8 64bd 854c a13d
000001e0: 7a32 383d de29 e0bd c4f4 05be 2768 2c3d
000001f0: a55a 03bd 535c 863d f4a7 0b3e 8163 523d
00000200: 2720 88bd 5b45 27bd 2921 e13c a39b 59bd
00000210: 8176 c93d 5a68 0bbe 11a3 8cbc 5e54 fdbd
00000220: 4870 dd3d 6b24 933d 1580 bfbc 699a 17be
00000230: e578 e53c 55ad 8bbc ed90 6dbc 6af1 c8bb
00000240: d879 04be 1800 e03d 41aa e73c 8432 c9bd
00000250: 48ce cdbd a5f6 0ebd 8ee2 7bbd 05d6 fdbd
00000260: 37c9 353d 944b a33c a775 343d 9efb 083e
00000270: b9f0 003e 077c 693d c88e abbd 896a e9bd
00000280: d0eb 783d b616 f6bd 0221 c43d 4b48 70bd
00000290: 45d9 243d 3c26 2bbc 058a c8bd 9440 50be
000002a0: 65f9 d0bd 0e69 84bd b5eb 87bd cee1 cc3d
000002b0: 0474 82bd 8627 8dbc 777d 1bbc 6cd0 713d
000002c0: 8076 70bd 904a 6cbc 1e0b 423e 11dd c73d
000002d0: 867d dd3d 1ba6 5dbb 28c8 eebc 9ea3 dbbd
000002e0: d685 a63d 7781 8f3d 1fc1 b43c 8310 2ebe
000002f0: 4ade cb3d a7a8 a13d 8dc8 babd ee61 1bbe
00000300: 9c1f dabd 55da 063e 83bb 8f3d db9d 7abd
00000310: 90fb b63d 88cc b93d 8184 913d 8a04 46bd
00000320: b897 023e bea8 08bd 30ab 71bd 5c40 793d
00000330: 0fa1 75bd a5a7 ce3d 010e 9abd a83e 5d3d
00000340: d573 d8bd 75f7 c0bd 9813 bd3b da4e e43d
00000350: d544 debd b24a 15bd 0921 7f3d 410f dcbc
00000360: edbf 01be c5a2 58bb 6ef6 4dbd 86e2 093d
00000370: 62a9 663d 0331 2fbd edac 9abd eb3d ab3d
00000380: 9691 f9bd bd56 8d3d 5b13 6d3d 838c 613d
00000390: f87d ccbd 55f0 683d 853a b1bd 0ca8 793d
000003a0: 4c03 87bd 9f67 fe3c 5400 0e3b c871 cbbd
000003b0: a779 06be c1dc 0abd 9631 af3d 2b4b 06bd
000003c0: 6dd7 10bd 1fa8 bebd 44cf d5bd 1392 3cbc
000003d0: 0d82 1abd 82db 4e3d ec54 073e 8a3b c7bd
000003e0: 88e1 31bd efb2 513d 3138 b9bd 49f4 45bb
000003f0: dbe0 92bd 6474 313d ad22 533a 9e62 e63c

encoder.4.bias f4 [50]
0.010304412 0.0030134954 0.035808735 0.015499111 -0.07671693 -0.011605941 -0.29616445 0.008936573
-0.026858574 0.00049180735 -0.05915081 -0.011339801 -0.0047881077 0.012485588 -0.083268076 0.012971092
0.02005625 0.0022747354 -0.0017113569 -0.21742861 -0.031615794 0.013949614 -0.09198591 0.004066105
-0.009871273 0.008130972 -0.10034174 -0.0012644824 -0.0210511 -0.08057637 -0.0051542795 0.02018028
-0.0141588515 -0.12614302 -0.009088442 -0.14380711 -0.09720418 -0.0036004058 -0.19030903 -0.0026197266
-0.098729745 -0.10539406 0.02926218 -0.0054723346 -0.14352891 0.018885655 -0.11553064 0.013890907
-0.0033299082 0.014055934
00000000: d6d3 283c 107e 453b 2eac 123d fcef 7d3c
00000010: c41d 9dbd d826 3ebc dea2 97be b46a 123c
00000020: 8306 dcbc a2ec 003a 1f48 72bd 93ca 39bc
00000030: 8fe5 9cbb 5a90 4c3c 7488 aabd b484 543c
00000040: 014d a43c ba13 153b 9c4f e0ba 9ba5 5ebe
00000050: 907f 01bd ec8c 643c 1c63 bcbd f63c 853b
00000060: 1fbb 21bc c537 053c f87f cdbd fdbc a5ba
00000070: 5b73 acbc 3905 a5bd 3be5 a8bb 1d51 a53c
00000080: 87fa 67bc a32b 01be b0e7 14bc 2c42 13be
00000090: fc12 c7bd c9f4 6bbb 5fe0 42be b8af 2bbb
000000a0: d232 cabd d7d8 d7bd 3db7 ef3c 4551 b3bb
000000b0: 3ef9 12be 17b6 9a3c 549b ecbd b096 633c
000000c0: 973a 5abb dc4a 663c

encoder.7.weight f4 [20, 50]
0.04249413 -0.11057629 0.061213575 -0.1266622 0.008409827 0.15346421 -0.07578756 0.20094623
-0.115763 0.059767526 0.07047707 -0.12924224 -0.1828483 -0.13231201 -0.12873363 0.17607452
0.11246473 0.058535725 0.03971439 -0.04186292 -0.06875728 0.10795857 -0.12311935 0.045898043
-0.13792713 0.10426835 0.11154142 0.17153656 -0.00078342744 -0.084890634 -0.07225744 0.17105204
0.07538051 -0.009691978 -0.03946994 -0.055457402 -0.049622327 0.009527575 0.106257975 -0.12207532
0.022421334 -0.09451679 0.15423071 0.022820469 0.12918682 -0.045432497 -0.08979493 -0.011282022
-0.0885514 -0.118564755 0.03144725 -0.113356136 0.027734974 -0.08820646 0.020731272 0.13804896
-0.07258441 0.06627532 0.09399234 0.024876026 -0.010925537 0.0147797875 -0.043743428 -0.13884418
0.096984036 -0.029531926 0.12037463 0.11652578 -0.02192888 0.0923647 -0.04339325 -0.01743451
-0.12187992 0.13337134 0.062400285 -0.10713418 0.05120645 -0.025048833 0.08092782 0.011033893
-0.03709184 -0.011034915 -0.026583921 -0.05338387 -0.09247122 -0.046420343 0.019917129 -0.121440776
0.10899342 -0.020186426 0.10306168 -0.07938562 0.0647882 0.041211043 -0.03507758 -0.07336929
0.044870846 -0.07778289 -0.13982989 0.06966342 0.07541626 0.07392949 -0.11896887 0.07474709
0.00985412 0.06077065 -0.20359245 -0.07797153 -0.060010605 0.064582124 -0.17368291 0.033310015
0.0823766 0.060320225 0.098037064 -0.16772617 -0.15801165 -0.10707318 0.06344747 -0.10928268
-0.094480425 -0.13863216 -0.080005005 -0.160948 -0.14314401 -0.051672317 -0.004092031 -0.17188989
0.12128378 0.015438244 0.013366238 -0.07666904 0.15246347 0.11232474 -0.08747019 0.02532649
-0.11217161 0.026310768 -0.14829022 -0.02017213 0.13381287 0.13023752 -0.15947978 0.08271914
0.12871571 0.0025426769 0.086322814 0.084295146 0.08721359 0.07266063 0.0027599712 0.11188686
-0.06913397 -0.033263706 0.017420053 -0.10960165 0.016224414 -0.09469665 -0.10937079 0.17877872
0.11883691 0.08083806 0.19280209 0.09564162 0.041070335 -0.168529 -0.120477065 -0.16978063
0.10780235 -0.10959312 -0.045625962 0.03516485 0.13299619 -0.005120284 0.00928081 0.029234078
0.09237601 -0.03122465 0.06850057 0.016133426 0.16926397 -0.15225169 0.09470104 0.029377017
0.14208128 -0.0671614 -0.03438862 0.2148847 0.028795449 0.024471827 -0.12821093 -0.06630888
0.0047757253 0.17038646 0.13230535 -0.059759796 -0.096485525 0.02668585 0.064658806 0.0683748
-0.20282502 0.05216595 -0.0705626 -0.08060745 -0.08420221 -0.14645411 -0.047708936 0.023963735
-0.12220219 0.03593923 -0.045845296 0.05516228 0.20921084 0.11427217 0.01132028 -0.123460986
-0.014797248 -0.07214677 0.051879376 -0.114799835 -0.07286575 -0.14366126 0.14965142 0.048352677
0.24130467 -0.018941663 -0.054602668 0.04406636 -0.082899034 0.08605278 0.20396507 -0.11215014
0.113393396 -0.055847254 0.07650014 -0.03416934 -0.06458999 0.08578031 0.04164627 0.15060277
-0.028358892 0.12088073 0.035505757 0.042795632 0.057054676 -0.09487699 0.057822898 -0.18507697
0.19150525 -0.09387328 -0.012061795 -0.11544989 0.027242567 0.16202614 0.09241995 0.008142406
00000000: 530e 2e3d d275 e2bd 16bb 7a3d bcb3 01be
00000010: 5fc9 093c b925 1d3e 8236 9bbd d9c4 4d3e
00000020: 2715 edbd cbce 743d 4856 903d 1458 04be
00000030: 963c 3bbe cd7c 07be c0d2 03be e14c 343e
00000040: e953 e63d 28c3 6f3d 8eab 223d 7478 2bbd
00000050: 9ed0 8cbd 6219 dd3d ff25 fcbd 96ff 3b3d
00000060: c53c 0dbe a58a d53d d46f e43d 48a7 2f3e
00000070: ed5e 4dba 24db adbd b5fb 93bd 4428 2f3e
00000080: 1961 9a3d 1acb 1ebc 3bab 21bd 4d27 63bd
00000090: c840 4bbd 8c19 1c3c c89d d93d a002 fabd
000000a0: f2ac b73c 0592 c1bd a8ee 1d3e fef1 ba3c
000000b0: 8d49 043e 6d17 3abd 67e6 b7bd 3bd8 38bc
000000c0: 705a b5bd 14d2 f2bd d5ce 003d 4327 e8bd
000000d0: 7534 e33c 97a5 b4bd a1d4 a93c b55c 0d3e
000000e0: 23a7 94bd 5bbb 873d 0e7f c03d cfc8 cb3c
000000f0: 0601 33bc ec26 723c 4f2c 33bd 2b2d 0ebe
00000100: 919f c63d f0ec f1bc f986 f63d 11a5 ee3d
00000110: 32a4 b3bc b429 bd3d 1fbd 31bd d1d2 8ebc
00000120: 2e9c f9bd 7f92 083e 7197 7f3d 2a69 dbbd
00000130: dbbd 513d 3633 cdbc 7cbd a53d 80c7 343c
00000140: 9ded 17bd cacb 34bc 86c6 d9bc 0ba9 5abd
00000150: 8d61 bdbd 4223 3ebd 3f29 a33c f1b5 f8bd
00000160: f137 df3d 015e a5bc 0112 d33d ee94 a2bd
00000170: adaf 843d e9cc 283d 82ad 0fbd a342 96bd
00000180: 7eca 373d a34c 9fbd 912f 0fbe b2ab 8e3d
00000190: d773 9a3d 5868 973d f3a5 f3bd 0115 993d
000001a0: 2d73 213c a5ea 783d 8a7a 50be 8aaf 9fbd
000001b0: aecd 75bd a243 843d efd9 31be 1570 083d
000001c0: 10b5 a83d 5712 773d a8c7 c83d 69c0 2bbe
000001d0: cecd 21be 2f49 dbbd bff0 813d 99cf dfbd
000001e0: f47e c1bd 97f5 0dbe aad9 a3bd 8dcf 24be
000001f0: 5894 12be 5aa6 53bd 7216 86bb e703 30be
00000200: a163 f83d b0f0 7c3c 11fe 5a3c a804 9dbd
00000210: 621f 1c3e 830a e63d 9223 b3bd 8079 cf3c
00000220: 3bba e5bd ae89 d73c 64d9 17be 0640 a5bc
00000230: 3e06 093e fc5c 053e ab4e 23be a768 a93d
00000240: 0dce 033e 0aa3 263b 04ca b03d efa2 ac3d
00000250: 0a9d b23d 19cf 943d a2e0 343b f024 e53d
00000260: 1c96 8dbd 863f 08bd 80b4 8e3c d476 e0bd
00000270: 10e9 843c 51f0 c1bd cbfd dfbd c511 373e
00000280: c460 f33d 6d8e a53d e96d 453e c1df c33d
00000290: 5e39 283d de92 2cbe aebc f6bd f9da 2dbe
000002a0: 7ac7 dc3d 5c72 e0bd 4ae2 3abd 0509 103d
000002b0: 2730 083e 0ec8 a7bb 8a0e 183c 4e7c ef3c
000002c0: a22f bd3d d6ca ffbc 074a 8c3d 3f2a 843c
000002d0: 8953 2d3e dee7 1bbe 9ef2 c13d 12a8 f03c
000002e0: c17d 113e eb8b 89bd 15db 0cbd bc0a 5c3e
000002f0: 6fe4 eb3c 2479 c83c ba49 03be f3cc 87bd
00000300: b07d 9c3b ca79 2e3e 0e7b 073e b0c6 74bd
00000310: 349a c5bd 499c da3c d66b 843d 1608 8c3d
00000320: 5db1 4fbe f7ab 553d 2083 90bd 8515 a5bd
00000330: 3572 acbd 11f8 15be 726a 43bd 984f c43c
00000340: 2445 fabd 0435 133d 47c8 3bbd d8f1 613d
00000350: 5e3b 563e 8707 ea3d b278 393c 1dd9 fcbd
00000360: 2870 72bc b0c1 93bd 787f 543d 2d1c ebbd
00000370: a33a 95bd f01b 13be 393e 193e 750d 463d
00000380: 9218 773e 8c2b 9bbc 0ca7 5fbd ed7e 343d
00000390: f8c6 a9bd 713c b03d 38dc 503e f9ae e5bd
000003a0: cc3a e83d 17c0 64bd 1bac 9c3d 26f5 0bbd
000003b0: c247 84bd 96ad af3d 4795 2a3d 9d37 1a3e
000003c0: e850 e8bc 5190 f73d 7c6e 113d 794a 2f3d
000003d0: 2ab2 693d de4e c2bd b4d7 6c3d d184 3dbe
000003e0: f419 443e a240 c0bd d69e 45bc fe70 ecbd
000003f0: ce2b df3c 2eea 253e ac46 bd3d ba67 053c

encoder.7.bias f4 [20]
-0.0054805367 -0.08737266 0.00010391197 0.0029830635 0.012738818 -0.17003895 -0.12119132 -0.47487715
-0.008990587 -0.029723167 -0.16430542 -0.15181153 -0.11707238 0.008946489 -0.0036658808 0.002276583
0.0023753108 0.013872012 -0.0012896608 -0.4062352
00000000: 1396 b3bb 70f0 b2bd 50eb d938 807f 433b
00000010: 7ab6 503c b11e 2ebe 2833 f8bd 1923 f3be
00000020: 414d 13bc 007e f3bc ae3f 28be 7b74 1bbe
00000030: a5c3 efbd 4b94 123c 463f 70bb ba32 153b
00000040: 1aab 1b3b 6f47 633c d609 a9ba 0ffe cfbe

encoder.10.weight f4 [4, 20]
0.28689307 -0.07402575 -0.25543582 -0.13384746 -0.1703769 0.30767372 0.21189325 0.62849164
0.37452784 -0.06775199 -0.18993616 0.3565379 0.037633087 0.27428067 -0.19054413 0.3474874
-0.13936295 -0.13453978 -0.17323917 0.58666515 -0.1292149 -0.23951542 0.019465014 0.02149125
0.30119258 0.371247 -0.10028859 0.32754466 -0.12171001 -0.18076186 -0.12015324 -0.087648325
-0.13718686 -0.18240725 0.27322757 -0.18891713 0.12882824 0.1700864 0.27107558 0.14440927
-0.20904003 0.03326093 -0.10974223 0.124432504 0.23457888 -0.11416099 0.071283855 -0.039130203
-0.25896707 -0.19340211 -0.19314533 0.03280293 0.14563093 -0.21916926 0.2688616 -0.28269762
0.13476467 0.13673462 0.3039803 -0.11597046 0.12547272 -0.11323753 -0.19355342 -0.30930814
-0.08947212 0.04470162 0.12228014 -0.244984 0.1429101 -0.09556397 -0.13754874 -0.03641957
-0.041363835 0.16772333 -0.19415092 0.19215174 -0.2358495 -0.19553211 -0.21119034 -0.12820719
00000000: a6e3 923e d09a 97bd 7cc8 82be 4f0f 09be
00000010: 4877 2ebe 6987 9d3e 8bfa 583e d4e4 203f
00000020: 1dc2 bf3e 8ec1 8abd a07e 42be 238c b63e
00000030: 2725 1a3d 846e 8c3e 001e 43be dee9 b13e
00000040: 29b5 0ebe ccc4 09be 9c65 31be b02f 163f
00000050: e950 04be 8843 75be 1875 9f3c 6b0e b03c
00000060: ea35 9a3e 1614 be3e 1b64 cdbd efb3 a73e
00000070: 1943 f9bd a319 39be e712 f6bd f780 b3bd
00000080: b67a 0cbe f7c8 3abe 7ce4 8b3e 7e73 41be
00000090: 8deb 033e 212b 2e3e 6bca 8a3e 06e0 133e
000000a0: 970e 56be 9d3c 083d 89c0 e0bd 78d6 fe3d
000000b0: 7235 703e 3dcd e9bd 45fd 913d fe46 20bd
000000c0: 5597 84be 340b 46be e4c7 45be 5d5c 063d
000000d0: 4620 153e e86d 60be 3aa8 893e bebd 90be
000000e0: c0ff 093e 2904 0c3e 4ea3 9b3e ec81 edbd
000000f0: ec7b 003e 14e9 e7bd de32 46be a35d 9ebe
00000100: 293d b7bd 0c19 373d 036e fa3d 16dd 7abe
00000110: 0657 123e 0bb7 c3bd 94d9 0cbe b02c 15bd
00000120: 206d 29bd aabf 2b3e 80cf 46be 6dc3 443e
00000130: 8882 71be 9239 48be 4842 58be bf48 03be

encoder.10.bias f4 [4]
-0.012277676 -0.02600602 0.006047665 0.037630204
00000000: 4e28 49bc 940a d5bc 7e2b c63b 2122 1a3d

decoder.0.weight f4 [20, 4]
-0.07093002 -0.31671765 0.1662744 0.48596668 0.22042419 -0.48394963 -0.50250816 0.31777287
-0.22924177 -0.2962398 0.48892412 0.4144208 -0.18623553 -0.81605566 -0.60510164 0.58787847
0.119729035 -0.184663 -0.004378691 0.3190697 0.37590832 -0.21198212 0.1753234 -0.53854424
0.49929866 -0.31762117 0.3763638 -0.54575145 0.41696888 0.10390892 -0.32604855 -0.14960346
-0.3019449 0.37788165 -0.013363775 -0.2784335 0.040762912 0.37717965 0.17433189 -0.24216129
-0.21825281 0.2143992 0.3478629 -0.012813917 -0.89196765 -0.113920406 -0.092788585 0.15064505
-0.08762107 -0.45752442 -0.6055417 0.35925916 0.49531493 0.42848638 0.111817755 0.024696989
0.020062428 -0.36640826 -0.44921798 -0.18341464 0.2056384 -0.22981082 0.32339236 -0.39676327
-0.7614666 -0.614362 0.18551551 -0.30225214 -0.6821233 -0.5104969 0.36686733 0.013824106
-0.4990039 0.42919257 0.18872823 -0.2573231 0.0581562 0.04249471 -0.15706381 -0.15357503
00000000: c243 91bd d128 a2be d643 2a3e a0d0 f83e
00000010: e1b6 613e 3fc8 f7be 60a4 00bf 20b3 a23e
00000020: 5bbe 6abe beac 97be 4354 fa3e f72e d43e
00000030: 87b4 3ebe 06e9 50bf f1e7 1abf 347f 163f
00000040: 7f34 f53d 4c18 3dbe 1f7b 8fbb 1b5d a33e
00000050: 0e77 c03e d711 59be fa87 333e 09de 09bf
00000060: 13a4 ff3e 3e9f a2be c2b2 c03e 5eb6 0bbf
00000070: f27c d53e 33ce d43d d6ef a6be a631 19be
00000080: 8698 9abe b479 c13e bcf3 5abc d68e 8ebe
00000090: 03f7 263d b11d c13e 0f84 323e 21f9 77be
000000a0: aa7d 5fbe 778b 5b3e 161b b23e 77f1 51bc
000000b0: fe57 64bf 1a4f e9bd f107 bebd b242 1a3e
000000c0: ad72 b3bd a440 eabe c804 1bbf d1f0 b73e
000000d0: eb99 fd3e 9162 db3e b500 e53d 5751 ca3c
000000e0: f659 a43c dd99 bbbe e6ff e5be 0cd1 3bbe
000000f0: df92 523e 8753 6bbe af93 a53e 8e24 cbbe
00000100: 7aef 42bf d446 1dbf c7f7 3d3e cbc0 9abe
00000110: a29f 2ebf edaf 02bf 09d6 bb3e 817e 623c
00000120: 707d ffbe 21bf db3e f941 413e dabf 83be
00000130: 3235 6e3d ef0e 2e3d 56d5 20be c642 1dbe

decoder.0.bias f4 [20]
-0.18037885 -0.019816395 -0.299497 0.4443332 0.025186218 -0.018874181 -0.039305676 -0.107159466
-0.32997385 0.18215421 0.307584 0.23132029 0.42513812 -0.42692184 -0.4596788 -0.34880382
0.2315413 0.19115123 0.007733463 -0.053276706
00000000: 3cb5 38be fe55 a2bc ac57 99be a47f e33e
00000010: 5453 ce3c 079e 9abc fdfe 20bd 6c76 dbbd
00000020: 55f2 a8be a286 3a3e a67b 9d3e 3adf 6c3e
00000030: b4ab d93e 8095 dabe 055b ebbe 6a96 b2be
00000040: 2a19 6d3e 26bd 433e fd68 fd3b ad38 5abd

decoder.2.weight f4 [50, 20]
0.16165434 -0.24610636 -0.18441354 -0.054610915 -0.012437431 0.08887678 -0.041232552 0.093160786
0.19818702 0.20205566 -0.04027234 0.09235812 -0.013152396 0.08556302 0.2157149 0.20494369
0.12054146 0.21853867 0.048072036 -0.1934746 -0.013215013 0.0017730404 -0.011814709 0.05569525
-0.10423733 -0.1382008 0.18244117 0.02424142 -0.21024482 -0.13636667 0.10628742 0.12935239
0.081503384 -0.15201153 -0.08485506 -0.0064758942 -0.033943076 0.17858253 -0.20254147 0.1413962
-0.10277661 0.17287932 0.16360597 -0.05498402 0.00495021 0.13096304 0.08686565 -0.013997605
-0.10506291 0.13374174 0.0091183055 0.021903193 0.085259125 0.049775567 -0.077870764 0.17896688
0.016267622 -0.109999776 -0.00668326 0.058464363 0.027534733 0.15427105 -0.022897026 0.022283752
-0.18225187 0.009170489 0.14712636 0.19557679 0.05379683 -0.010049477 -0.06400231 0.18046917
0.09633651 -0.08202772 -0.21854213 0.11240946 0.10058158 -0.022474773 0.051221114 -0.07190722
-0.21616401 -0.03423261 0.12654443 0.15605946 -0.10489716 -0.026733732 0.09814884 -0.16127886
-0.09978684 -0.18545817 -0.17183734 0.21999826 0.27687696 -0.1351591 -0.099322565 0.14763612
0.12606755 0.021797758 0.15178367 0.17192586 -0.034931187 0.034241784 0.2141687 -0.114997916
0.12100437 0.18440221 0.21325335 -0.18898858 0.172297 0.20770253 0.0012252359 0.00081116846
-0.038097076 -0.17519131 0.12958014 0.048101928 0.10569637 -0.24927099 0.16187473 0.16025837
0.20763665 -0.18805876 0.038782652 -0.02899987 0.12305218 0.17236982 -0.015121127 -0.09232484
-0.105084054 0.197537 -0.07081683 0.13317616 -0.09475062 -0.22208425 -0.20655361 0.1091455
-0.21721362 -0.067994945 -0.019160312 -0.13030587 0.01515318 -0.025184246 -0.12689464 0.06146394
-0.117220886 -0.074477606 0.10014004 -0.00326847 0.16836832 0.10764563 -0.017012602 0.12266864
0.06372431 -0.16472617 -0.1437581 -0.0060370266 0.12622537 0.0803597 -0.235712 -0.032372985
0.20519656 0.107885756 0.16914754 -0.16465165 0.2231597 -0.07104387 0.22278573 -0.1240743
0.10381404 0.13967872 0.22626485 -0.0053493497 0.002949612 0.020205993 -0.16036798 -0.20007192
-0.12027383 -0.06806171 0.101594225 0.15917489 0.10096252 -0.044790182 0.19894366 0.17194484
-0.09216454 -0.19762793 -0.034608673 -0.07514088 -0.15703182 0.112152606 0.1562451 0.08051366
0.025991203 -0.114262976 0.11068709 -0.1615919 -0.07915522 0.21745859 0.1565484 0.18511046
-0.004721504 0.13394351 -0.019581119 0.023309512 0.22458062 0.16034602 0.20027559 0.16808479
0.18141884 -0.07703965 0.10436821 0.067109406 -0.10199425 -0.0352982 0.07261797 -0.15603565
0.23090194 -0.11513114 0.20112687 -0.018484648 0.17113754 0.010865281 0.07354267 0.059035566
-0.116206065 -0.14052945 -0.19743422 0.16277017 -0.081702925 -0.17559269 -0.22182415 -0.21402967
-0.013338373 -0.092372045 -0.061522253 -0.21027167 -0.12458346 0.111482434 -0.044224262 0.080456495
0.037039224 0.2821644 -0.004050346 0.29143134 0.056986187 -0.08070068 -0.035580732 0.14089088
0.11748365 0.11596288 0.13514805 -0.23769735 0.2518726 -0.106107056 0.122127354 -0.0113658635
00000000: b788 253e 4e03 7cbe e7d6 3cbe b2af 5fbd
00000010: 5ec6 4bbc 0705 b63d 77e3 28bd 15cb be3d
00000020: 8af1 4a3e aee7 4e3e 9cf4 24bd 4126 bd3d
00000030: 267d 57bc aa3b af3d 5ee4 5c3e c2dc 513e
00000040: 71de f63d 9ac8 5f3e 2fe7 443d 351e 46be
00000050: c883 58bc 5d65 e83a 7b92 41bc b420 643d
00000060: 627a d5bd 8384 0dbe dcd1 3a3e f195 c63c
00000070: 6b4a 57be b4a3 0bbe 38ad d93d f474 043e
00000080: 3feb a63d e9a8 1bbe 7dc8 adbd bd33 d4bb
00000090: e507 0bbd 57de 363e 0867 4fbe 2aca 103e
000000a0: 8b7c d2bd 4707 313e 5388 273e ec36 61bd
000000b0: 5f35 a23b 2d1b 063e 9ee6 b13d 3656 65bc
000000c0: 392b d7bd 98f3 083e f264 153c 536e b33c
000000d0: 569c ae3d 77e1 4b3d b57a 9fbd 1843 373e
000000e0: ad43 853c 9047 e1bd 40ff dabb 5478 6f3d
000000f0: 8590 e13c 3bf9 1d3e 8b92 bbbc 6a8c b63c
00000100: 3ca0 3abe d23f 163c 4ba8 163e 4845 483e
00000110: 115a 5c3d 90a6 24bc a513 83bd e9cc 383e
00000120: 134c c53d 26fe a7bd 82c9 5fbe ee36 e63d
00000130: b7fd cd3d 041d b8bc 3bcd 513d 1844 93bd
00000140: 195a 5dbe 7e37 0cbd dd94 013e 0dce 1f3e
00000150: 52d4 d6bd b300 dbbc 4202 c93d 4926 25be
00000160: 0b5d ccbd bfe8 3dbe 21f6 2fbe 3947 613e
00000170: d1c2 8d3e 2667 0abe a169 cbbd ec2d 173e
00000180: da17 013e 3691 b23c 2e6d 1b3e 550d 303e
00000190: 0114 0fbd 1d41 0c3d 0a4f 5b3e 0784 ebbd
000001a0: 24d1 f73d efd3 3c3e 165f 5a3e 3986 41be
000001b0: a06e 303e f9af 543e 1898 a03a 98a4 543a
000001c0: ae0b 1cbd 5a65 33be a8b0 043e 8706 453d
000001d0: 5777 d83d e540 7fbe 7dc2 253e c51a 243e
000001e0: b49e 543e 7a92 40be 8fda 1e3d 2391 edbc
000001f0: c802 fc3d b781 303e 9abe 77bc ce14 bdbd
00000200: 4f36 d7bd 2447 4a3e 6a08 91bd 555f 083e
00000210: 9d0c c2bd 0e6a 63be ca82 53be ad87 df3d
00000220: 3f6d 5ebe ef40 8bbd 16f6 9cbc e76e 05be
00000230: 0b45 783c 314f cebc abf0 01be 9dc1 7b3d
00000240: 8111 f0bd b787 98bd 3916 cd3d d433 56bb
00000250: bf68 2c3e 5075 dc3d 035e 8bbc b239 fb3d
00000260: e481 823d faad 28be 5335 13be 40d2 c5bb
00000270: 3941 013e a093 a43d 7d5e 71be 8999 04bd
00000280: 0c1f 523e 35f3 dc3d 0335 2d3e 719a 28be
00000290: fa83 643e 737f 91bd f121 643e ab1a febd
000002a0: 759c d43d f007 0f3e f9b1 673e 9949 afbb
000002b0: 474e 413b 0a87 a53c 8137 24be a7df 4cbe
000002c0: 2052 f6bd f063 8bbd a210 d03d befe 223e
000002d0: 70c5 ce3d e975 37bd e3b7 4b3e 4f12 303e
000002e0: c3c0 bcbd fa5e 4abe d3c1 0dbd 76e3 99bd
000002f0: f3cc 20be 44b0 e53d b7fe 1f3e 59e4 a43d
00000300: 81eb d43c b502 eabd eaaf e23d 5978 25be
00000310: 221c a2bd 77ad 5e3e 394e 203e 998d 3d3e
00000320: d9b6 9abb 7d28 093e 9568 a0bc 97f3 be3c
00000330: 76f8 653e bf31 243e 0b15 4d3e 6b1e 2c3e
00000340: dcc5 393e f7c6 9dbd 00bf d53d a870 893d
00000350: 5de2 d0bd d894 10bd bbb8 943d cfc7 1fbe
00000360: 8f71 6c3e e0c9 ebbd 34f4 4d3e 1e6d 97bc
00000370: ae3e 2f3e 4b04 323c 8a9d 963d 47cf 713d
00000380: 72fd edbd f4e6 0fbe 322c 4abe 39ad 263e
00000390: dd53 a7bd 92ce 33be df25 63be 982a 5bbe
000003a0: 3189 5abc 8e2d bdbd c2fe 7bbd 7551 57be
000003b0: 9d25 ffbd e750 e43d 8024 35bd 60c6 a43d
000003c0: 71b6 173d da77 903e c4b8 84bb 7d36 953e
000003d0: 596a 693d 6646 a5bd 1abd 11bd b345 103e
000003e0: 459b f03d f27d ed3d 4064 0a3e ef66 73be
000003f0: 72f5 803e a84e d9bd e81d fa3d e337 3abc

decoder.2.bias f4 [50]
0.23736082 -0.12682149 0.056619503 0.1965427 0.02715217 0.19414654 -0.16291311 0.15658316
0.23967873 -0.11087092 0.15576054 -0.112207875 -0.11581393 0.06797431 -0.05016638 -0.091726206
0.06790068 0.13465056 -0.03744893 -0.11777106 0.1266737 0.013102507 -0.07596883 0.010292118
0.2112815 0.09745988 0.05906452 -0.16868949 0.12432342 -0.13505244 -0.19601564 0.061988603
0.12452033 0.05769305 0.06916139 -0.05567807 0.038831096 0.005847315 0.10414807 0.118976675
-0.13888143 0.09967349 -0.12834398 -0.19592379 0.4132438 0.12603532 0.068907164 -0.13068192
-0.16574639 0.060499523
00000000: b70e 733e 7edd 01be dae9 673d 7d42 493e
00000010: 3a6e de3c 5ace 463e b2d2 26be 5657 203e
00000020: 576e 753e 4b10 e3bd b17f 1f3e 3ecd e5bd
00000030: db2f edbd 1d36 8b3d 437b 4dbd f3da bbbd
00000040: 830f 8b3d d6e1 093e 0d64 19bd f431 f1bd
00000050: c0b6 013e e6ab 563c 8c95 9bbd 46a0 283c
00000060: 2d5a 583e 0c99 c73d a3ed 713d f0bc 2cbe
00000070: 479d fe3d 304b 0abe 53b8 48be c3e7 7d3d
00000080: 8404 ff3d 8c4f 6c3d 7da4 8d3d b00e 64bd
00000090: 5b0d 1f3d d59a bf3b 954b d53d 0baa f33d
000000a0: ef36 0ebe 9d21 cc3d 9b6c 03be 3fa0 48be
000000b0: b194 d33e 670f 013e 331f 8d3d 7bd1 05be
000000c0: 6cb9 29be 59ce 773d

decoder.4.weight f4 [50, 50]
0.04419441 -0.13213149 -0.079781 -0.05647194 0.018026242 -0.052877963 -0.09848053 -0.034982845
-0.062592335 0.024299143 0.0679624 0.00804113 -0.1047729 -0.10415836 0.12422375 -0.06333407
0.011286488 -0.07876579 0.008690732 -0.020910924 -0.10161469 -0.08451959 -0.102588534 0.09381682
-0.08579394 0.13442805 -0.1375991 -0.06048311 -0.11861154 -0.11067308 0.1254515 0.10089106
0.03968686 -0.0023897095 -0.13076289 -0.11167712 0.028837955 -0.056455284 -0.13649498 0.037445758
0.02284759 -0.08548308 0.01780406 -0.07527175 -0.08135494 0.12933283 0.12018523 -0.0081764385
-0.07728257 -0.08967791 -0.11111364 -0.08000981 0.15295695 0.09554333 -0.0644311 0.16988032
0.029835064 0.03550961 0.20124483 0.030376457 0.17994918 0.05874868 0.13912192 0.09876397
-0.14058971 -0.144613 0.17763813 0.039082974 0.028921146 0.01779169 -0.16661479 0.09777674
-0.011784965 0.09117866 0.06555619 0.16124485 0.10331291 -0.094606675 0.21306324 0.02787463
-0.13331355 -0.16231896 -0.045145616 0.08960327 0.081679106 -0.0072888555 -0.025417374 0.13699926
-0.13269776 0.07220369 -0.11751006 -0.21129118 -0.059903268 0.121934175 0.17825426 0.0033952475
0.0068462123 0.059199683 -0.104188375 0.10004135 0.15749876 -0.11597837 -0.04019605 -0.0084902
0.11868435 0.11250829 -0.1138862 -0.027360447 0.06290413 -0.038719535 -0.04022122 0.047136195
-0.165438 -0.000177292 0.12330857 -0.09531915 -0.037231892 -0.06483184 0.012865045 -0.060386337
0.15764607 -0.05182659 -0.10115825 -0.09309076 0.04434457 -0.034148242 -0.018243546 -0.032544605
-0.061340287 -0.097340934 0.028695868 -0.063142836 0.026153952 0.06524979 -0.12872772 0.023190726
0.086532295 0.12764299 -0.12051682 -0.024620252 0.053613003 0.05977195 0.09994608 0.027608631
0.15334885 -0.09430731 0.13384546 -0.1991119 -0.03469713 0.16749689 -0.05372563 -0.13022326
-0.024752669 0.11319134 -0.051836606 -0.11212125 0.097702146 -0.02238007 -0.041315563 -0.011172301
-0.00082744233 -0.091036744 -0.07831552 0.20602846 -0.15226743 -0.088833116 0.05780698 0.054683
0.006842369 0.109285 0.24118748 0.12777752 -0.05372118 0.06656441 0.021686474 -0.020889878
-0.05848552 0.1047708 0.038904868 0.06574005 -0.12074968 0.216991 -0.09468207 0.0822968
0.04327928 -0.06257142 0.1560035 -0.004231999 0.007339861 0.03402782 0.09363455 0.21875909
0.03711691 0.10548557 0.18296266 0.081611715 0.16823252 -0.08818833 0.050770164 0.050553963
0.06707683 -0.0025992042 0.013937527 -0.018805867 0.038186967 -0.0053254515 0.035214704 0.063379765
0.0066958596 0.13910703 -0.022692919 0.1258625 -0.038468145 0.2820206 0.08770743 0.04405626
0.09701155 -0.09721323 0.12653217 0.034579687 0.15231979 0.036892697 -0.0007689866 -0.07256395
-0.030041333 0.0896663 0.020760678 -0.033251688 -0.074028075 -0.14272204 0.12358512 0.072870485
0.007151074 0.16051312 -0.037603047 0.11491971 0.16514398 -0.12609512 0.0946312 0.123590104
0.0069303922 0.11084506 0.10101612 0.0833617 0.114880934 0.014348004 0.06151612 0.023040274
0.10086918 -0.1830867 -0.025292257 -0.023558943 0.092697546 0.022913523 0.11331523 0.005825234
00000000: 3305 353d 7a4d 07be 3964 a3bd 1f4f 67bd
00000010: c5ab 933c 9096 58bd 29b0 c9bd 2c4a 0fbd
00000020: 6930 80bd ff0e c73c df2f 8b3d f2be 033c
00000030: 2d93 d6bd fa50 d5bd 0569 fe3d 4bb5 81bd
00000040: f6ea 383c f54f a1bd 9263 0e3c 634d abbc
00000050: 5d1b d0bd 9b18 adbd f019 d2bd 0823 c03d
00000060: bcb4 afbd 82a7 093e c7e6 0cbe 23bd 77bd
00000070: 9bea f2bd 91a8 e2bd 5c76 003e f99f ce3d
00000080: b08e 223d ac9c 1cbb b5e6 05be f9b6 e4bd
00000090: 933d ec3c a83d 67bd 57c5 0bbe b960 193d
000000a0: de2a bb3c c111 afbd d2d9 913c 1328 9abd
000000b0: 6b9d a6bd d36f 043e ad23 f63d 78f6 05bc
000000c0: 5346 9ebd 0da9 b7bd 8c8f e3bd 2fdc a3bd
000000d0: bfa0 1c3e 39ac c33d 74f4 83bd 1bf5 2d3e
000000e0: aa68 f43c 8672 113d 2013 4e3e 0cd8 f83c
000000f0: 9944 383e 75a2 703d fa75 0e3e c444 ca3d
00000100: c0f6 0fbe 6e15 14be c5e6 353e 7815 203d
00000110: 0aec ec3c e1bf 913c 119d 2abe 2c3f c83d
00000120: ba15 41bc e1bb ba3d 5342 863d 5f1d 253e
00000130: b895 d33d 25c1 c1bd 402d 5a3e 5659 e43c
00000140: 5983 08be f136 26be 9cea 38bd eb81 b73d
00000150: 6047 a73d 5ad7 eebb 1938 d0bc 8949 0c3e
00000160: ece1 07be 87df 933d 1da9 f0bd b75c 58be
00000170: 215d 75bd a0b8 f93d 4988 363e cd82 5e3b
00000180: 3156 e03b 5e7b 723d b760 d5bd 7be2 cc3d
00000190: 5b47 213e 1186 edbd 9da4 24bd 7b1a 0bbc
000001a0: c810 f33d bf6a e63d 2b3d e9bd 0423 e0bc
000001b0: e1d3 803d 6098 1ebd 02bf 24bd e211 413d
000001c0: 9468 29be 75e7 39b9 3489 fc3d b036 c3bd
000001d0: 7880 18bd 8ec6 84bd e9c7 523c aa57 77bd
000001e0: f96d 213e 1e48 54bd 0e2c cfbd 5ea6 bebd
000001f0: a7a2 353d 07df 0bbd 7d73 95bc 7e4d 05bd
00000200: f43f 7bbd af5a c7bd 9913 eb3c 0851 81bd
00000210: d040 d63c afa1 853d 33d1 03be 7afa bd3c
00000220: d837 b13d d8b4 023e 86d1 f6bd 69b0 c9bc
00000230: 4f99 5b3d 6fd3 743d 88b0 cc3d 7f2b e23c
00000240: 7b07 1d3e 3124 c1bd c90e 093e fde3 4bbe
00000250: 941e 0ebd 4e84 2b3e 680f 5cbd 3f59 05be
00000260: 1cc6 cabc dcd0 e73d 9f52 54bd d39f e5bd
00000270: 1018 c83d 6956 b7bc 823a 29bd 070c 37bc
00000280: b7e8 58ba 7971 babd e363 a0bd 20f9 523e
00000290: feeb 1bbe 23ee b5bd 03c7 6c3d 48fb 5f3d
000002a0: f435 e03b d0d0 df3d daf9 763e 1cd8 023e
000002b0: bd0a 5cbd ec52 883d d5a7 b13c 4021 abbc
000002c0: 838e 6fbd 1392 d63d b65a 1f3d b8a2 863d
000002d0: 9c4b f7bd e432 5e3e ace8 c1bd 3a8b a83d
000002e0: 9d45 313d 7225 80bd 62bf 1f3e 95ac 8abb
000002f0: 3783 f03b c160 0b3d 79c3 bf3d 6202 603e
00000300: e707 183d d208 d83d 905a 3b3e 0b24 a73d
00000310: 2545 2c3e 159c b4bd 60f4 4f3d ac11 4f3d
00000320: 945f 893d 6957 2abb 3a5a 643c c30e 9abc
00000330: f069 1c3d 2081 aebb 4b3d 103d 40cd 813d
00000340: f168 db3b 1372 0e3e 80e6 b9bc 19e2 003e
00000350: c690 1dbd 0165 903e f49f b33d 5674 343d
00000360: fead c63d bb17 c7bd a691 013e 6ea3 0d3d
00000370: b8f9 1b3e cc1c 173d d195 49ba 699c 94bd
00000380: 3e19 f6bc f7a2 b73d 4c12 aa3c ec32 08bd
00000390: 089c 97bd ba25 12be 321a fd3d 1f3d 953d
000003a0: 8e53 ea3b 8d5d 243e a705 1abd 065b eb3d
000003b0: 811b 293e 141f 01be 01ce c13d cf1c fd3d
000003c0: 5818 e33b bc02 e33d 8ae1 ce3d 8ab9 aa3d
000003d0: b246 eb3d e413 6b3c 54f8 7b3d f5be bc3c
000003e0: 8094 ce3d 147b 3bbe b531 cfbc affe c0bc
000003f0: 36d8 bd3d 24b5 bb3c d111 e83d 9be1 be3b

decoder.4.bias f4 [50]
-0.12518658 0.27186128 0.35192683 -0.046410944 0.12896937 -0.12137268 -0.22870177 0.14630164
-0.011391497 0.074241124 -0.11653658 -0.1083069 -0.12645869 0.07616547 -0.07612412 -0.14318171
-0.10295766 -0.005715804 0.0046506897 -0.10379958 -0.10027162 0.16113587 0.21829498 -0.03405482
0.16229564 -0.07261723 -0.08557397 -0.062233586 0.025491927 0.2937499 0.026981693 0.032788448
-0.029733071 -0.033502948 -0.058071423 0.05657028 0.042711023 0.029592037 0.09494786 -0.0035865284
-0.031555213 0.029706871 0.112215064 0.064755686 -0.1303758 -0.06520725 0.03481667 -0.003414274
0.13751628 -0.0068908245
00000000: e930 00be 6731 8b3e c12f b43e 6719 3ebd
00000010: 8c10 043e 3d92 f8bd cc30 6abe 19d0 153e
00000020: 67a3 3abc bb0b 983d bbaa eebd 02d0 ddbd
00000030: 637e 01be a4fc 9b3d f6e6 9bbd 3a9e 12be
00000040: 77db d2bd a44b bbbb d064 983b e094 d4bd
00000050: 355b cdbd cd00 253e b888 5f3e 117d 0bbd
00000060: d430 263e 58b8 94bd 6841 afbd a5e8 7ebd
00000070: 72d4 d03c 6366 963e b608 dd3c 2e4d 063d
00000080: c592 f3bc 633a 09bd 4ddc 6dbd 3db6 673d
00000090: c1f1 2e3d 006b f23c 0674 c23d f60b 6bbb
000000a0: 0a40 01bd d35b f33c 03d1 e53d a19e 843d
000000b0: 3c81 05be 618b 85bd ed9b 0e3d 03c2 5fbb
000000c0: 11d1 0c3e 6dcc e1bb

decoder.6.weight f4 [6, 50]
0.074402526 -0.24841158 0.15808386 -0.0793356 0.013924093 0.093125656 0.0872535 0.14554067
-0.059544083 -0.11924534 -0.077563606 -0.080137685 -0.1377198 0.02800443 0.23325858 0.010187662
-0.0724731 0.03584128 -0.010914956 -0.08814951 -0.08514824 -0.20667462 0.072137535 -0.12279779
0.11420504 -0.11902272 0.13113143 -0.100637965 0.07672808 0.050202504 0.14679076 -0.032818157
0.059442148 0.08763161 -0.516805 0.0018342588 0.20292085 0.07122282 0.06268513 0.12966874
0.10983931 -0.2634748 0.000247431 0.07669 -0.091999896 0.096993424 0.13205402 -0.025945978
-0.112447426 0.00088982115 -0.045858555 -0.2449724 0.010106338 -0.041121323 -0.14513505 -0.03416159
0.09190112 -0.0032171474 0.09319589 0.12387551 -0.077650726 -0.032965884 -0.065219805 -0.05321586
-0.0763701 0.062445935 -0.0765772 0.0293554 0.04298788 0.11138592 0.0072522424 -0.12019129
-0.07202008 0.068476796 -0.048555832 0.074379645 0.07446942 -0.10441825 0.1397387 -0.09130157
-0.047955696 0.06923131 0.090513304 0.09120391 0.016272992 -0.011962993 -0.07979855 -0.028829388
-0.13328232 -0.060915954 0.09430717 0.10629626 -0.099532895 0.12087133 0.12027224 -0.07328285
0.06967934 -0.11914279 0.00066866615 -0.053194348 0.055445295 0.04348816 0.12472506 -0.0043732733
-0.109635085 -0.012739004 0.025853584 0.02618398 -0.10167095 -0.0113979755 -0.10174562 0.040431254
-0.108477734 -0.02923381 0.001537998 -0.13422632 0.00058922067 -0.12436935 -0.09575607 -0.08458065
-0.046822134 0.07376909 -0.057810627 -0.11394913 -0.083726816 0.012185868 -0.0863723 0.02025603
0.050675325 0.07940928 -0.058294293 -0.088900544 -0.12701762 0.07272325 -0.026541661 0.15067142
0.08086489 -0.0043584625 -0.14425002 -0.04558934 -0.051872455 -0.06262595 0.09376697 0.06142498
0.02989579 -0.10677069 0.054265566 0.02204262 0.098183356 -0.11798411 0.06354794 0.26024255
0.276767 -0.45550287 -0.36179724 -0.02150265 -0.7934304 0.111192666 -0.3050308 -0.10790337
0.040577512 0.1225947 0.09058732 -0.3278908 -0.4677841 0.119256824 -0.30290216 -0.11124779
-0.36491925 -0.03259649 -0.071122 -0.04516711 0.1511625 -0.1057247 -0.03524963 0.012228437
0.08707164 -0.023945818 -0.051425718 0.17165782 -0.07692501 -0.38423866 0.015703855 -0.10857302
-0.09324181 -0.034646545 -0.29088527 -0.77905387 0.016905231 -0.12891492 0.12595719 0.21857199
-0.009177114 0.12995271 0.034181483 0.11755591 0.045328233 0.1300637 -0.61874896 -0.067869306
0.076319486 -0.25058544 0.29041195 0.20627485 0.16193716 -0.09324217 -0.38922387 0.100227654
0.04684494 0.0036064892 -0.093439296 0.10689382 0.07109019 0.19620661 -0.645874 0.13311838
-0.16586888 0.06680362 -0.3642311 0.06831347 -0.039569825 -0.064197935 0.34289277 0.07184687
0.30511484 0.09051801 0.004791484 0.105583474 0.2485699 0.22066733 -0.08845918 -0.5079695
0.13169548 0.10690284 -0.30036175 0.15641196 -0.3917869 0.05923024 0.040132742 -0.017331054
-0.13182397 0.1641985 0.024705684 -0.118251584 -0.051854063 -0.08674174 -0.31982878 -0.027998302
-0.4769978 -0.05057391 0.118497945 -0.37440908 -0.23735787 -0.25774318 -0.402459 0.034898266
00000000: 5a60 983d 9b5f 7ebe bce0 213e b47a a2bd
00000010: e121 643c aab8 be3d f7b1 b23d 9d08 153e
00000020: 7fe4 73bd e736 f4bd abd9 9ebd 3a1f a4bd
00000030: 6b06 0dbe 8c69 e53c 56db 6e3e 27ea 263c
00000040: c76c 94bd 4ece 123d a5d4 32bc bb87 b4bd
00000050: 3362 aebd 83a2 53be d8bc 933d 687d fbbd
00000060: 55e4 e93d 2fc2 f3bd 5147 063e 471b cebd
00000070: 9d23 9d3d 24a1 4d3d 5150 163e 556c 06bd
00000080: 9c79 733d 3478 b33d 554d 04bf 836b f03a
00000090: 7cca 4f3e 45dd 913d 1061 803d e2c7 043e
000000a0: 6ff3 e03d 2be6 86be a0b9 8139 a60f 9d3d
000000b0: 716a bcbd 7da4 c63d 2b39 073e a98c d4bc
000000c0: d64a e6bd e342 693a 2ed6 3bbd 0bda 7abe
000000d0: 0e95 253c d56e 28bd 489e 14be 06ed 0bbd
000000e0: a836 bc3d c7d6 52bb 7ddd be3d 72b2 fd3d
000000f0: 5807 9fbd 3c07 07bd f691 85bd e0f8 59bd
00000100: ed67 9cbd 4fc7 7f3d 82d4 9cbd bc7a f03c
00000110: 0f14 303d 4d1e e43d 38a4 ed3b da26 f6bd
00000120: 447f 93bd 903d 8c3d 7be2 46bd 5b54 983d
00000130: 6c83 983d 3cd9 d5bd a917 0f3e 51fc babd
00000140: 316d 44bd 25c9 8d3d 0a5f b93d 1ec9 ba3d
00000150: f04e 853c 6e00 44bc 6c6d a3bd 9c2b ecbc
00000160: 297b 08be 0283 79bd 1e24 c13d dbb1 d93d
00000170: e7d7 cbbd 638b f73d 4b51 f63d 5215 96bd
00000180: 0bb4 8e3d 2301 f4bd 6d49 2f3a 51e2 59bd
00000190: 9b1a 633d a420 323d da6f ff3d ad4d 8fbb
000001a0: 5c88 e0bd 41b7 50bc e5ca d33c c97f d63c
000001b0: dc38 d0bd 93be 3abc 0260 d0bd 3e9b 253d
000001c0: 9329 debd be7b efbc a696 c93a a072 09be
000001d0: ee75 1a3a 5cb5 febd c21b c4bd 9f38 adbd
000001e0: 91c8 3fbd 4014 973d d6ca 6cbd 295e e9bd
000001f0: f778 abbd 3ca7 473c f6e3 b0bd f9ef a53c
00000200: ee90 4f3d 55a1 a23d ffc5 6ebd 7d11 b6bd
00000210: e810 02be edef 943d e66d d9bc 9c49 1a3e
00000220: 7e9c a53d 6fd1 8ebb 47b6 13be e3bb 3abd
00000230: 3678 54bd 0942 80bd e608 c03d c398 7b3d
00000240: 04e8 f43c 97aa dabd 9245 5e3d ba92 b43c
00000250: 5b14 c93d a7a1 f1bd 6c25 823d 833e 853e
00000260: 67b4 8d3e ac37 e9be 7d3d b9be 5326 b0bc
00000270: 411e 4bbf fbb8 e33d ff2c 9cbe 71fc dcbd
00000280: 9b34 263d ee12 fb3d d885 b93d 4ee1 a7be
00000290: 6681 efbe ec3c f43d fe15 9bbe e2d5 e3bd
000002a0: b2d6 babe e683 05bd 69a8 91bd 2601 39bd
000002b0: 58ca 1a3e 3186 d8bd eb61 10bd c859 483c
000002c0: 9e52 b23d 052a c4bc c6a3 52bd 11c7 2f3e
000002d0: dc8a 9dbd eeba c4be 5fa5 803c 885b debd
000002e0: 90f5 bebd 89e9 0dbd eaee 94be 1370 47bf
000002f0: d77c 8a3c 4602 04be ecfa 003e 56d1 5f3e
00000300: 9b5b 16bc 5312 053e e201 0c3d 27c1 f03d
00000310: 19aa 393d 6b2f 053e 5566 1ebf 10ff 8abd
00000320: 644d 9c3d bc4c 80be e0b0 943e b739 533e
00000330: dbd2 253e c0f5 bebd 5a48 c7be 2844 cd3d
00000340: 7be0 3f3d d95a 6c3b 1a5d bfbd 26eb da3d
00000350: bc97 913d 63ea 483e 0058 25bf 2f50 083e
00000360: 88d9 29be 56d0 883d 807c babe efe7 8b3d
00000370: f813 22bd 357a 83bd a48f af3e 7424 933d
00000380: 0338 9c3e 8261 b93d e201 9d3b 263c d83d
00000390: 1c89 7e3e 9ef6 613e 162a b5bd 4a0a 02bf
000003a0: 2edb 063e e0ef da3d 04c9 99be 752a 203e
000003b0: 4b98 c8be 689b 723d 3b62 243d dbf9 8dbc
000003c0: ddfc 06be a723 283e 9363 ca3c e32d f2bd
000003d0: ed64 54bd a7a5 b1bd 99c0 a3be b25c e5bc
000003e0: 0e39 f4be 9726 4fbd 0daf f23d 8cb2 bfbe
000003f0: f10d 73be eaf6 83be 1b0f cebe 7cf1 0e3d

decoder.6.bias f4 [6]
-0.063908786 -0.2906207 -0.06621381 0.61291623 0.46163157 -0.3527839
00000000: 9ce2 82bd 3dcc 94be 1b9b 87bd 14e8 1c3f
00000010: f95a ec3e 17a0 b4be

cluster_layer.weight f4 [4, 4]
0.12469097 -0.08132284 -0.102722086 0.085363515 -0.094487555 -0.11335405 0.0444113 0.12747781
-0.09027546 0.10182164 0.1038757 -0.10340472 0.074494116 -0.11351378 -0.070524536 0.12880817
00000000: fb5d ff3d 978c a6bd f55f d2bd 11d3 ae3d
00000010: b182 c1bd 2b26 e8bd a0e8 353d 8b89 023e
00000020: 57e2 b8bd dd87 d03d c8bc d43d dbc5 d3bd
00000030: 5f90 983d ea79 e8bd 2b6f 90bd 4ae6 033e
