RiskViz Folder/model/checkpoint_1050.tar (torch, 110796 bytes, 51 tensors)

encoder.1.weight f4 [50, 6]
00000000: c510 06bf 2e97 2e3b 5f7f 2bba 9c40 673e
00000010: 2d8a abbe 5e23 f43d 32bf 1fbb 6d0d 5cbb
00000020: 5ba3 59bb b7c9 2240 5ca1 183c e51d 4cbe
00000030: f389 44be c8f3 5dbe 5555 903b 37b9 88bd
00000040: 4b1c bb3e a52c b4be 24c4 433e af2f 47bb
00000050: 293a 5abb 9dc8 f5bd 81fd 693c a354 903f
00000060: 73f6 0bbd b14b 2dbe f6fc 6cbb ab22 493f
00000070: 9dda 783e 48ba 0abf 7114 223f b58c 843c
00000080: 994e c33b b5df c13d 9499 e93c db0f 813f
00000090: 4424 a0bd 1c3a 67be 3fff eabd 180d 7bbe
000000a0: e037 533e 3104 51be 62fa 36bf 52de e03d
000000b0: 67d9 b6bb 65f3 03bd 09a8 f7bd 9519 5fbd
000000c0: 3335 2b3f 729a c3bb 57f7 f5b9 54dd 643f
000000d0: a5c8 253f b844 393d 0029 a5be d16e 313c
000000e0: b87b 42be 7450 06bb 7ecc 4b3e 3416 383e
000000f0: 2329 f0be 42b3 893c dc9a 913b 97a6 76bf
00000100: bed0 8ebe 7d17 0b3e 828a 6ebe 3d93 36be
00000110: 9369 0c3e f298 703e 1971 bb3b 149d 22be
00000120: 25ac 18be 2f14 94bc 2601 1dbd e600 8b3f
00000130: 4804 c1bd 5385 193f dc19 02bf 703c d03a
00000140: 2fa9 643b dbb8 46bf ec68 90be 5b50 ec3d
00000150: 29d0 0bc0 cb61 f0bb 752a 2cbb 42b8 4e3e
00000160: 315b edbe f86d 0d3f d21a 2bbf ebb6 023a
00000170: 28bb c2b9 170f d9bd bb7d d8be 530e d3bd
00000180: 775e 84be 80b4 8d3e 6b29 203e 86d8 a53e
00000190: 1823 9bbe c17c ccbe 3aa0 7abf 8357 97bc
000001a0: de76 f8bb fb32 58bf dd01 343f 10da 0e3f
000001b0: c192 cfba 200f 92bb 0727 88b9 9d8b 1c40
000001c0: ed0c 5c3c f55c 2bbe db84 af3d 5110 9dbe
000001d0: 92ad 5fbe 9a7a 44be 848c 6cbe 6342 943d
000001e0: d55d e8bd a9c2 bb3b b125 c4ba e353 33bf
000001f0: 3d6e 413f 4c2d 8d3d 663c b5be 259a 87be
00000200: ad8f 1e3e 78d6 1b3e 1140 81be 13e8 03be
00000210: 5798 23c0 f6fa 003c 206d e839 2f73 c1be
00000220: 87b2 a5be 1896 553e c960 a53e ec26 b3bd
00000230: bf73 8bbd a570 103e b628 6d3d 1db5 09be
00000240: dd55 a0be fa28 4bbe 9515 8d3d 8465 56bd
00000250: ed2f 013f 8d90 2abb 1a5d d6bd b3c6 c7be
00000260: 0c1d bfbe 8c01 343e 9fbc a13e c5cf e7ba
00000270: c6b0 21c0 a06a d037 8c08 c5ba 07e1 24bf
00000280: c666 16be bf8e 033e 5e4e 13c0 8d5d 48ba
00000290: 473b 8fbb 8f8c 11bf 3357 02be 814c 01bf
000002a0: 844c 4e3f 8f68 56bb 6c4d 3bba 302f 92bf
000002b0: a32a 283f 958e 423d ebdc 67be d71c d7bc
000002c0: 0200 94be c04e 9abc 2bf0 693e f1e5 3bbe
000002d0: e36d 4b3f 8dec 45bc 9867 05bb e32e 083f
000002e0: eee0 afbe 6660 99be a391 3f3d 7dcf 53bc
000002f0: 1f68 a6ba 65cd 9dbd 1be2 2a3e 8340 a83f
00000300: c954 a03e c43a ccbe 9cb0 2f3d 72c9 9fbc
00000310: f579 e13d 4b18 cdbd 61da bd3d 4a38 7fbe
00000320: fecd 323e ae82 263f c9b8 743a 9c2f 7cbe
00000330: 042d 2dbf a78c 2abd b88c 99bb 8099 263d
00000340: 2d5e a2bc 9cb6 8e3f 09e0 93ba 3374 e5ba
00000350: d45b e7ba 421d cb3f a5c3 c03e ad68 933b
00000360: 89b9 663e 365f 093e 6c63 243d 2870 f2bd
00000370: 043a 803d 4d6e ef3c a5d5 903b 1dac 173c
00000380: 8195 e93a 3822 3bbf 17ff 133d 5de3 3a3f
00000390: edf4 c43c ad20 80bc 8e6d 16bb 2cea 44be
000003a0: c955 653e 57a8 bb3f 8bbe 8e3f f41a 17bb
000003b0: 8f51 f9ba b35e b5be 5d1e e5bd 0427 1bbf
000003c0: aff6 23c0 a2b4 033b e0b1 d8b8 ebb4 55bf
000003d0: e3ab 9ebe 09f1 6c3e 3823 a339 686e 2a3a
000003e0: bc71 d7ba 1340 1a40 6b0f c7be 5e09 47be
000003f0: a812 19bf 4e27 ee3b 94fb 03ba 0552 3a3e
-0.5236934 0.0026640403 -0.0006542112 0.2258324 -0.33503857 0.11920808 -0.0024375436 -0.0033577338
-0.003320894 2.5435617 0.009315815 -0.19933279 -0.19193248 -0.21675026 0.0044047036 -0.06675952
0.36545023 -0.3519031 0.1911779 -0.0030393412 -0.0033298826 -0.120011546 0.014281631 1.1275829
-0.03417058 -0.16923405 -0.0036161519 0.78568524 0.24302144 -0.5419049 0.6331244 0.016180376
0.0059602973 0.09466497 0.028515615 1.0082964 -0.07819417 -0.2258076 -0.114744656 -0.24516714
0.20626783 -0.20411755 -0.71475804 0.10979904 -0.0055801156 -0.03221454 -0.12092597 -0.054467756
0.6687805 -0.005969339 -0.00046914324 0.8940022 0.64759284 0.04523155 -0.32257843 0.010829643
-0.18992507 -0.002049473 0.19902226 0.1797722 -0.46906385 0.01680911 0.0044435095 -0.96347946
-0.27893633 0.13583179 -0.23295024 -0.17829604 0.13712148 0.23495844 0.0057202694 -0.15880233
-0.14909418 -0.01807603 -0.038331173 1.0859649 -0.09424645 0.5996906 -0.5082071 0.0015887152
0.003489088 -0.7762582 -0.2820505 0.11538764 -2.18458 -0.0073358766 -0.0026270424 0.20187476
-0.46358636 0.55245924 -0.668378 0.00049863633 -0.00037142006 -0.10598581 -0.42283425 -0.103054665
-0.2585332 0.27676773 0.156408 0.32391757 -0.30300212 -0.3993893 -0.97900736 -0.018474346
-0.0075825294 -0.8445279 0.70315343 0.55801487 -0.0015836583 -0.0044573694 -0.0002596902 2.4460213
0.013430816 -0.16734679 0.08570262 -0.3067651 -0.21843556 -0.19187394 -0.23100477 0.07239225
-0.11346022 0.0057299924 -0.0014964846 -0.70049876 0.75558835 0.06893405 -0.35397643 -0.2648479
0.15484495 0.15218532 -0.2524419 -0.12881498 -2.556173 0.007872334 0.00044331793 -0.3778319
-0.32362768 0.20858037 0.32300404 -0.08747658 -0.06809186 0.1410547 0.057900153 -0.13447995
-0.31315508 -0.1983985 0.06888882 -0.052342907 0.50463754 -0.00260261 -0.104669765 -0.39018783
-0.37326849 0.17578715 0.3158922 -0.0017685822 -2.5264144 2.4845183e-05 -0.0015032454 -0.64405864
-0.14687642 0.12847422 -2.3016582 -0.00076433347 -0.00437108 -0.568551 -0.12728576 -0.5050736
0.80585504 -0.003271613 -0.00071450206 -1.142065 0.6569006 0.047499258 -0.22642867 -0.02625887
-0.28906256 -0.018836379 0.22845523 -0.18349434 0.7946455 -0.012080324 -0.0020355936 0.53196543
-0.34351295 -0.2995636 0.04676975 -0.012927887 -0.0012695825 -0.077051915 0.16687815 1.3144687
0.31314686 -0.39888585 0.042893037 -0.019505236 0.110095896 -0.10014399 0.09270168 -0.24923816
0.17461392 0.6504315 0.00093353965 -0.24627537 -0.67646813 -0.041638043 -0.0046859644 0.040673733
-0.019820297 1.1149478 -0.0011281978 -0.0017505944 -0.0017651268 1.5868304 0.37649265 0.0044985623
0.22531714 0.13415226 0.04013388 -0.11837798 0.062610656 0.0292274 0.0044199997 0.009257344
0.0017821045 -0.7309909 0.036131945 0.7300318 0.024042571 -0.015640581 -0.0022953483 -0.19229954
0.22396006 1.4660748 1.1151899 -0.0023056837 -0.0019021499 -0.35423812 -0.11187432 -0.6060641
-2.5619314 0.002009668 -0.000103328144 -0.83479184 -0.30990514 0.23138823 0.00031116023 0.0006501437
-0.0016437094 2.4101608 -0.3887895 -0.19437167 -0.5979409 0.007267869 -0.00050347415 0.1819535

encoder.1.bias f4 [50]
00000000: 14f9 7d3e b7d0 03bb 1f87 afbc 3ea0 15be
00000010: 17a5 aebd 8dca 01bf f3b4 0abe d160 0dbd
00000020: b857 adbe dd7d aabe 6305 3f3e 5950 c9be
00000030: 067f 66bf 371c 6c3e 6205 eb3b f47e ad3e
00000040: be9b b9be de28 993c 43e2 38bb 761f 89be
00000050: e982 633d 2624 11be fd7a 743c 2d4a bfbe
00000060: 03f0 48bd 658c 9bbe b42c 873c 5d98 753c
00000070: 795f d2be 6eca 76be 36bd d9be 80e5 63be
00000080: 1a8c d6be 593f afbe f1bb 303c fd6f 4dbb
00000090: 1d36 b3be 41f0 79bc cba0 adbe acf7 2ebf
000000a0: 1951 663c 9702 d9bb 55e7 f43b 6d9d e5be
000000b0: 99be 2bbf fc7a 853b 4710 e4bb 5704 423c
000000c0: 47c2 8ebe 0a2a 30bb
0.24802047 -0.0020113417 -0.021426735 -0.14611909 -0.08527582 -0.5069969 -0.13545589 -0.03451616
-0.33855987 -0.3329915 0.18654399 -0.39319113 -0.9003757 0.23057638 0.0071722725 0.3388592
-0.36251634 0.018696245 -0.0028211034 -0.26781815 0.055544768 -0.14173946 0.014921901 -0.3736128
-0.049057018 -0.3038055 0.016500808 0.0149899395 -0.41088465 -0.24100658 -0.4252717 -0.22255516
-0.41903764 -0.34228018 0.010786996 -0.0031347268 -0.35002223 -0.015255035 -0.33911738 -0.6834667
0.014057421 -0.006622623 0.007473866 -0.4484667 -0.67087704 0.004073499 -0.006959948 0.011841855
-0.27882597 -0.0026880526

encoder.4.weight f4 [50, 50]
00000000: b0c5 3c3d dab0 bebe aaa6 02be 5f95 c5bd
00000010: 9e34 72be 846d f03d d788 93bc f781 5d3d
00000020: 55c3 813d ff9c b53d ffdb 323e 3c26 ae3b
00000030: 5a6b c4bd 4fef 0c3b efed 673e d972 14bd
00000040: 5b3c 0fbe decf 8a3b 54f7 bfbe af92 cabd
00000050: c0e2 19bd 747b 053d b4ef 7b3e b171 cfbc
00000060: 75fb aa3c 96f3 0dbd f6fa 003e a725 973e
00000070: 745b 243d 9466 ce3d 10a5 0f3e 2fce d5bd
00000080: 1cd1 193d a2b7 893d 6fa2 b33d a9b3 94be
00000090: 7ae5 37ba 7c90 c5bd 7d92 b43b 1936 823e
000000a0: ddb0 7f3e 6eb8 aabe caf2 02bd f1fe 91bd
000000b0: b7d9 e53e 9935 82bc e1c9 95be 6e5b 10bc
000000c0: e547 7a3d a64e e2bd 2f0e 84bc 0948 73bc
000000d0: c5ba 4b3d b9d9 e2bd bcf8 a2bc f113 4f3e
000000e0: 3287 93bd ef9c 713b 67dd 65bd ac15 993d
000000f0: b951 59bd ba98 d9bd bf97 e8bd a8d4 7f3e
00000100: 624a e63d 27fd e3bc a907 08be fb9a 8b3c
00000110: 5ab0 9cbb a1ed 853c 2625 1d3b 8965 fdbc
00000120: 5e69 773e c94a 533d 966c 073d 49a5 9cbd
00000130: 4769 bd3e 48f5 bb3e 7366 a8bc 0b3d 063e
00000140: e80a c3bd 313a 15be 1fa1 dd3c 4c12 0e3d
00000150: dafd 203e 81dc acbd 8c28 c33d a42b b2bb
00000160: 9c1e 14be 55b9 ae3e 2daa 943e fa87 5fbc
00000170: 20e0 c1bd 46b0 c3bd cdeb 643e 65af 0c3e
00000180: 7122 f5bd 9847 b8bd 5b95 26bd e458 253d
00000190: 26e6 173d 98a8 d5be ec74 cf3d be97 c93d
000001a0: ce89 03bd b433 c1bb fbac 31bd f3c4 a63b
000001b0: 2e89 49be 18ef 0f3e 50f7 183d d7a6 093e
000001c0: c740 023e 04e4 8c3d 30ff 77be d69f e43c
000001d0: 3f70 5cbd 61f2 24bd 2b87 a2be 854c a13d
000001e0: 3612 6d3e 27c6 e0bd d73d 75be 8756 2c3d
000001f0: 4f4b 3cb9 3f4c 853d 0049 053d 651f 48bd
00000200: 040e 52be 1f80 27bd 72d3 92be 503b a93d
00000210: 47cc c83d b298 09be 0a30 223d 8a27 24bd
00000220: da6d dd3d 8b8f ca3d 6c39 3a3d c090 7abe
00000230: c8ca 3cbd 2a92 42be d72a e1bd aea3 c7bb
00000240: 03c6 27be 857d d33d e5b6 0e3c a7cb d2bd
00000250: a766 d1bd b9bc 31be 982c 80be 14e7 6cbe
00000260: 31e0 70bc 98e8 7fbd 56c4 7dbd 15ee 623e
00000270: 1ac2 ff3d 1bbb 683d f048 613d 896a e9bd
00000280: 0b14 aebd b616 f6bd 9e55 d23d eaf4 5abe
00000290: 48d0 c13c 259e 55be 3041 c8bd a4ac 90be
000002a0: 3174 64be 0e69 84bd b6c7 a9be 8ae0 cc3d
000002b0: 5da8 8abd 97d5 89bc 663f 15bd ec8e 703d
000002c0: f667 7fbd 6eef 8bbc c3dc 2b3d 13dd c73d
000002d0: 7cfd 153e e375 e2bd 49af 11bd 8a91 e4bd
000002e0: 309e 6f3d fc5f 71be fa61 b03c 2671 9dbe
000002f0: d676 2f3b d320 913e cc5f bebd aaa3 63be
00000300: 29f3 3dbe e533 063e 613d d13e f0f8 7abd
00000310: ec06 99be b384 7a3d 324b c83d 4c4c f6bd
00000320: 8bd0 8d3d f5b1 22be d0f3 a6bc 53e6 f53e
00000330: d000 03be cec6 af3e 9b93 94bd c973 0d3e
00000340: 92a5 7bbc 7fe5 c0bd e8fa 4ebd da4e e43d
00000350: a87a 05bd 1f40 15bd 4982 023d 2cf1 95bc
00000360: 96e4 f2bd 464c 8d3c febf 67be 86e2 093d
00000370: a175 3b3c ac93 2ebd 84f8 6ebd f009 ab3d
00000380: a478 ec3b 33b1 873d c98f be3d 77a2 bc3d
00000390: 398f efba 149f 673d 1e72 22bd 3d95 de3e
000003a0: d455 5dbd 0379 c33d 668c a53e a7f1 1d3d
000003b0: e630 09be aa12 5fbd a563 d73e 52f5 433e
000003c0: 8c46 27bc bd9e 81be c4a0 45bc 018f b33d
000003d0: 5c36 a6bd 3943 4e3d 5649 883c 51cc e0bd
000003e0: bbad 91bd 0b88 1d3e 1c9f 13bd 3973 4cbd
000003f0: 70cf a2bc b840 753e 7277 913c b8ef 873e
0.046086967 -0.37244302 -0.1275889 -0.09647631 -0.23652884 0.117396384 -0.018009586 0.054079022
0.06336085 0.08867835 0.17466734 0.0053146165 -0.09590788 0.0021504944 0.22649358 -0.03624234
-0.13987868 0.0042362055 -0.37493384 -0.09891259 -0.03756976 0.032588437 0.24603158 -0.025322767
0.020871857 -0.03465613 0.12595734 0.29520914 0.04012628 0.10078159 0.1402781 -0.10439717
0.037552938 0.06724478 0.08771216 -0.2904332 -0.00070150907 -0.09646699 0.005510627 0.25431898
0.24969812 -0.33343834 -0.031969823 -0.07128704 0.44892666 -0.015894698 -0.29255584 -0.008810861
0.06110372 -0.11050157 -0.016120045 -0.0148487175 0.049738664 -0.110766836 -0.019893996 0.20222451
-0.07203521 0.0036867221 -0.05611935 0.07474837 -0.053056452 -0.106248334 -0.11357068 0.24983466
0.11244656 -0.027830673 -0.13284172 0.017041674 -0.004781765 0.016348662 0.002397844 -0.030932205
0.24161288 0.051584993 0.03306254 -0.07648713 0.36994383 0.36710572 -0.020556664 0.13109224
-0.095235646 -0.1457298 0.027054368 0.034685418 0.15721837 -0.08440495 0.09529218 -0.0054373313
-0.14464802 0.34125772 0.29036084 -0.013643259 -0.094665766 -0.09555106 0.22355576 0.13738783
-0.1196946 -0.089980304 -0.04066978 0.040367976 0.03708472 -0.4173019 0.10129723 0.09843396
-0.032113843 -0.005896056 -0.043377858 0.005089396 -0.19681236 0.14056051 0.03734523 0.1344255
0.12720023 0.06879428 -0.2421844 0.027908247 -0.053817984 -0.040270213 -0.3174375 0.07875923
0.23151478 -0.109752946 -0.23949371 0.042074706 -0.00017957132 0.065086834 0.03254032 -0.048858065
-0.20513159 -0.04089367 -0.28676945 0.08263266 0.09804588 -0.13437155 0.039596595 -0.04007677
0.10811968 0.0989066 0.045464918 -0.2446928 -0.046091825 -0.1900107 -0.10994499 -0.00609251
-0.16384129 0.10326675 0.008710598 -0.1029275 -0.102246575 -0.17357148 -0.25034022 -0.23135024
-0.014701889 -0.062477678 -0.06195482 0.22161134 0.12488194 0.056819063 0.0550012 -0.11397273
-0.08499917 -0.120160505 0.102702364 -0.2138249 0.023658887 -0.20861109 -0.097780585 -0.28256714
-0.22309949 -0.0646535 -0.3316018 0.10003765 -0.06770394 -0.01682548 -0.036437415 0.05873005
-0.062355004 -0.017081942 0.04195858 0.097589634 0.14647478 -0.11057641 -0.035567556 -0.11160572
0.05850047 -0.23571771 0.021531094 -0.30750388 0.0026773713 0.28345355 -0.092956156 -0.22230402
-0.1854979 0.13105734 0.4086714 -0.06127256 -0.29888093 0.061161708 0.09779967 -0.12026271
0.06924542 -0.15888198 -0.02037993 0.48027286 -0.12793279 0.34331363 -0.07254716 0.138137
-0.015359299 -0.09418773 -0.05053225 0.11147852 -0.032587677 -0.036438104 0.03186253 -0.018303476
-0.118600056 0.017248284 -0.22631833 0.033663295 0.011441619 -0.0426213 -0.05834247 0.08351505
0.00721653 0.06625595 0.093047686 0.09210675 -0.0018276937 0.056548193 -0.039659612 0.43473235
-0.05403693 0.095445655 0.32333678 0.038560536 -0.1339756 -0.05446116 0.4206821 0.19136551
-0.010209691 -0.2531642 -0.012062255 0.0876751 -0.08115837 0.050357077 0.016636532 -0.1097647
-0.071132146 0.15383928 -0.03604041 -0.049914572 -0.019874305 0.2395047 0.017757151 0.26550078

encoder.4.bias f4 [50]
00000000: db96 75ba 7dba 6dbc 0250 a63b 484a 153c
00000010: 1ed7 a1bb 9b9e 863a be95 33bf 2d58 cdbb
00000020: 199a a8be 56a6 35bc 6446 2bbb 1248 4e3c
00000030: 32aa 42bb 3dde c3ba b9fc 9fbe 3730 09bd
00000040: de40 e93b 3c36 57bb 19fc 52bc b4df 24bf
00000050: 3c17 c6bd 5a04 71bc 569f 88be 5eac babb
00000060: efb2 ef38 2e67 1cbc 94e2 42bc 9a87 cfbb
00000070: 8638 183c 67fc f3bb 4182 91bb 7cc7 b1bc
00000080: cb21 543c 2080 1abe cf2c 8abe a29c 3cbe
00000090: 1859 b0be 76f8 5bbd 36c4 23bf 07fc 1cbb
000000a0: d196 773b de36 39be 5d0c 39bc 5bc4 0cbe
000000b0: 7126 37be 5d17 043c 8bbf bebe 513c a3bc
000000c0: 1f64 0bbc 0946 193c
-0.00093684875 -0.014509794 0.0050754556 0.009111948 -0.004938974 0.0010270657 -0.70150363 -0.006266615
-0.32930067 -0.011087021 -0.0026134485 0.012590425 -0.0029703495 -0.0014943552 -0.312475 -0.033493247
0.0071183285 -0.0032838723 -0.012877488 -0.64403844 -0.096724 -0.01471051 -0.26684064 -0.0056968173
0.00011429737 -0.009546084 -0.011894841 -0.0063333036 0.00929082 -0.00744586 -0.0044405763 -0.021701567
0.01294751 -0.15087938 -0.2698731 -0.18419126 -0.34442973 -0.053703748 -0.6397127 -0.002395393
0.0037779103 -0.18087336 -0.011294452 -0.13746779 -0.17885758 0.008062211 -0.3725551 -0.019926222
-0.008507757 0.009355077

encoder.7.weight f4 [20, 50]
00000000: 96e1 2c3e 83a1 463e 45fc a23c 039a 9cbe
00000010: 3dd1 1c3d 0828 6c3d 1988 9fbd 6c28 523f
00000020: 2e9a 78bd 111a e33e 9ff6 803d f475 a3be
00000030: 88ed cdbe 7354 61be 9e29 05be 8bbe b63e
00000040: 99c7 eb3c 5d81 0d3f 3478 6bbe fc45 40bd
00000050: b8df 97bd 563d e23e b0df 18be 9aba 233f
00000060: b11e 89bd aab0 343f 974a 083f 01d9 373f
00000070: 43d9 77be 619a 233c c0a0 89be 926a 083f
00000080: 2bf9 07be 74cb 1ebc 03af b0bd 6423 63bd
00000090: ce55 5abd 4cfe 893c d7f1 c83d 664c 97be
000000a0: 607c 44be 8219 c3bd 79b5 0a3e 5a01 3d3e
000000b0: 8d49 043e fcea abbe 57eb b9bd f619 0a3e
000000c0: 26a6 abbe d057 a5be 2e26 bf3b 533a db3c
000000d0: 871c 8dbc a319 523c ce12 9a3e 2c21 b93e
000000e0: 405a c5bb 5884 7f3e 3c12 703e d1d1 a83e
000000f0: d836 ac3e 0e6a 283c 137c d4bb 13b0 8fbc
00000100: d01a 7f3e 3502 593d f163 cdbc 23c1 963e
00000110: 3089 89bb 3e81 093e 7aa8 a23d 7466 f43d
00000120: 94c0 97bc 8725 9d3e de12 633d f3bd a43d
00000130: 9091 7a3e 04c9 143e 26ec 2c3c 66b8 c33e
00000140: 4f03 91bb 22fc e53c 3f46 173c 8b13 57bd
00000150: 4350 8a3e 42ae 3cbd 775a 5b3e 838d 8a3b
00000160: 2df5 263e 5d5b b6bb 0e45 823c a11d d23d
00000170: 5110 76bb 84de b23e b55a 0abd 2aec d03b
00000180: 8eac 833e 3d4e ff3c fa2f 44bc 286a f83b
00000190: a74f 043f a6d7 833e 6032 bfbe 87a8 b33e
000001a0: 012d 2cbe 7f01 98be 78e0 7abe ba49 b6bd
000001b0: 33b4 45be f487 83be 0367 cebe beba 3c39
000001c0: ecd0 4e3c c57e aebd 7078 bf3c 87f0 69be
000001d0: 255f 94be 42ed 2cbe 2acb 513d 4455 27be
000001e0: da51 92be 1769 bdbd ea7f 10bf 445d 29be
000001f0: beca b7bd 35e9 65bd c782 c7bc 03f7 2cbe
00000200: 9d0e b13e 1b72 27be be36 563c 3e6a fdbd
00000210: 4f9d 033e 0427 e53d 26eb 76be a73b aa3c
00000220: 16dd adbe cf98 a33d c47c 59be ec69 8b3c
00000230: 0ca9 d73e aacb 4c3d 42b5 9abe cd9f f2be
00000240: 5137 023e 284f ef3d 6ca5 af3b 5e7f 073f
00000250: 9b8e 053c e5b9 883e 071d a23c 5b00 ab3d
00000260: 9d39 fdbd cd4a 433c c0aa 1cba 7609 e2bc
00000270: 1da2 86bd 3882 263e ed7f 20be dfbc 053f
00000280: 0e2f 143d 8a21 853b 4f7d 593e 5c7a 933e
00000290: 56bc 1d3d 4237 58bd ee1f a2bd 1f79 493e
000002a0: edb8 9e3e 33f3 53be 1018 f238 74f6 5b3e
000002b0: 7372 9f3e 4c93 5f3e 1de6 493e e3d8 8e3e
000002c0: 9a25 ae3e 3663 663e 94a3 8f3b 6e44 943c
000002d0: 5868 a93e 0e32 1e3d 3614 413c a060 ed3c
000002e0: da7f a93e 9c5f 8cbd 71a1 41bd 91b5 e53e
000002f0: f834 83bd c3ee 0e3e 4085 dc3b e470 52bd
00000300: bb36 d13c 92a5 e43e cfe5 063e 95e2 0c3c
00000310: 7957 b8bd 9eac d03c 4001 fb3d d38c 0a3c
00000320: ab7e 9ebe 07a6 073d 7150 ffbd 720e 8cbe
00000330: af71 dbbc b4b7 dbbd c31e 08be e2b9 5bbd
00000340: 4662 75be 7146 6f3d 4bf7 d03c 0db3 7dbc
00000350: e1e1 883e 5dbc a83e 4635 7d3b b9eb 3fbe
00000360: 2da3 01be 16cc 8cbc 9331 4a3e a0d8 64be
00000370: d116 2bbc c64e 2fbe 4e6f cd3e d899 ffbb
00000380: 92e8 ca3e a37b 1cbd 4e8a dabc f17a 993b
00000390: 2b42 dabd 9753 f83c 0a31 4d3e 2ac4 f3bd
000003a0: ad55 89bd 302a 66bd cdfd 9f3d 0e8e 11bd
000003b0: 2722 c2bd a898 bc3e a290 65bd b667 833e
000003c0: d3b1 33be ec71 043e 4499 553e f4a3 6d3e
000003d0: d158 673d 9c0d 03be 5e18 573d 3929 8cbe
000003e0: 95be 973e 671d 30be 1d59 93be 2ef5 9bbe
000003f0: 78a1 193e d5e6 89be ef84 e93e 843b a33e
0.16882929 0.1939755 0.019895682 -0.30586252 0.038285483 0.057655364 -0.077896304 0.8209293
-0.060693912 0.44355825 0.06297039 -0.3192593 -0.40220284 -0.22004871 -0.13004157 0.35692248
0.028781699 0.5527552 -0.22995073 -0.046941742 -0.07415718 0.4418742 -0.1492908 0.63956606
-0.06695307 0.7058207 0.53238815 0.71815497 -0.24203973 0.009985537 -0.26880455 0.53287613
-0.13278644 -0.009692062 -0.08627131 -0.055453673 -0.053304486 0.016844891 0.09811752 -0.29550475
-0.1918807 -0.095263496 0.13545789 0.18457547 0.12918682 -0.33577716 -0.09078091 0.13486466
-0.335252 -0.32293558 0.005833409 0.02676121 -0.017225517 0.012823495 0.30092472 0.3615812
-0.0060227215 0.24952829 0.23444456 0.32972577 0.33635592 0.010279192 -0.0064845174 -0.017540013
0.24912572 0.05298062 -0.02507207 0.29444227 -0.004197262 0.13428208 0.079422906 0.11933604
-0.018524446 0.30692694 0.055437915 0.080440424 0.2446959 0.14529806 0.010554349 0.38226622
-0.0044254432 0.028074328 0.009233057 -0.052508872 0.2701436 -0.046064623 0.21421228 0.0042282953
0.16304465 -0.0055650906 0.015902068 0.102595575 -0.0037546346 0.3493539 -0.03377791 0.006375809
0.25717586 0.031165237 -0.011974329 0.007581014 0.5168404 0.25750464 -0.3734312 0.35089514
-0.16814043 -0.2968864 -0.2449969 -0.08900781 -0.19307022 -0.25689662 -0.40312967 0.00017998644
0.012623053 -0.08520273 0.023372859 -0.2284566 -0.2897884 -0.16887382 0.051219143 -0.1634112
-0.28578073 -0.0924856 -0.5644518 -0.16539484 -0.08974217 -0.056130607 -0.024354352 -0.16891102
0.34581462 -0.16352122 0.013074575 -0.1237378 0.12852977 0.11189082 -0.2411314 0.020780398
-0.33957738 0.0798813 -0.21239 0.01701828 0.4212116 0.049998917 -0.30216414 -0.47387543
0.12716414 0.1168502 0.005360296 0.5292872 0.008151676 0.26704326 0.019789232 0.08349677
-0.123645045 0.011919689 -0.00059763715 -0.027592402 -0.065738894 0.16260612 -0.156738 0.5224132
0.036177687 0.004062836 0.21239208 0.2880429 0.03850969 -0.052787073 -0.07916246 0.1967511
0.31000462 -0.20698242 0.00011543941 0.21480733 0.31142005 0.21833533 0.19716688 0.27899846
0.34013063 0.22498783 0.0043835137 0.018099036 0.3308742 0.038621955 0.011784604 0.028976738
0.33105356 -0.068541735 -0.047273103 0.44865087 -0.06406587 0.13958268 0.006729752 -0.051377192
0.025538793 0.4465757 0.13173603 0.008598943 -0.09001059 0.025472935 0.12256098 0.008456427
-0.30956015 0.03311732 -0.12466515 -0.2735477 -0.026787607 -0.10728398 -0.13292985 -0.05364407
-0.2396327 0.058416788 0.025508543 -0.015484584 0.26734832 0.3295621 0.003863649 -0.18742265
-0.12659903 -0.01718716 0.19745474 -0.22348261 -0.010442452 -0.17119893 0.4012398 -0.007800322
0.39630562 -0.038203847 -0.026677277 0.004683845 -0.10657152 0.030313296 0.20038238 -0.1190265
-0.067057945 -0.056192577 0.078120805 -0.035535865 -0.0947917 0.36835217 -0.056046136 0.25665063
-0.17548303 0.12934083 0.20859247 0.23207074 0.056481186 -0.1279816 0.052513473 -0.273752
0.2963759 -0.17198716 -0.28778926 -0.30460495 0.15003002 -0.26933923 0.45609233 0.31881344

encoder.7.bias f4 [20]
00000000: e890 8a3b 4bef bfbb deee d7bb fc00 fcba
00000010: e056 11bc 3237 a43b 84d6 b7be 838c 9abf
00000020: f4d7 043c c672 04bc 5d23 54be 8943 143b
00000030: aa3f d8be db66 e1ba c5f7 fbbb 3c48 2f3b
00000040: a4c1 81bb 78b8 4a3b 1e8d a339 9f7b 05bf
0.0042287 -0.0058573834 -0.0065897545 -0.0019226368 -0.00887081 0.0050114626 -0.3590585 -1.2074131
0.008108128 -0.008084005 -0.20716615 0.0022623262 -0.42236072 -0.0017196791 -0.0076894485 0.0026745936
-0.0039598513 0.0030932706 0.00031194923 -0.52141756

encoder.10.weight f4 [4, 20]
00000000: a3ad 5c3f 59f8 643e 2d1e 50bf b023 8dbe
00000010: a5c4 ecbe 3c7b c43e ca21 3e3f 6719 ae3f
00000020: f7ac 433f a622 14bf 38e9 36be 07ae ab3e
00000030: c28c c83e 2330 823f ec92 f5be 2190 843f
00000040: 60cf 7fbe c63c 98be 5b49 c7be 9e38 783f
00000050: 2084 e9be 044a 41bf e9fe 26bf 0186 2c3c
00000060: 876a 453f f71c 04bf 14d2 76bd f666 123f
00000070: 904a cabe 1074 fbbe 0fb7 e1bd 68b9 0fbf
00000080: c532 cebd 7222 f2be 716f 4b3f d5aa febe
00000090: 2e44 07be 8a7f 9b3e 0ad4 123f e4f4 853c
000000a0: 1aca 54bf 3618 083e adba 013f 1921 b1bd
000000b0: ed71 203f d29a 233f f8b0 763e b8ee ccbc
000000c0: 9d09 40bf 5b47 db3e 3bb6 42be b5fc 023f
000000d0: c21d ce3e 21e1 72bf d510 273f 0dc5 79bf
000000e0: 9add 1dbe 2f44 463e 3c2f e33e 8902 3ebd
000000f0: 6053 133f 9118 71be e74a 0a3f ff3d 03bf
00000100: e307 e0be 0107 1a3c 3d15 3fbe 5a6a f2be
00000110: 7e16 f33e 244a bb3e b651 14be 5eac 2bbd
00000120: 15f7 b8be c463 353f d1ec e4be 9906 373f
00000130: eeb9 ffbe ef66 cbbe 86e7 d2be 266f 93be
0.8620245 0.22360362 -0.81296045 -0.2756629 -0.46243778 0.3837527 0.7427031 1.3601502
0.764358 -0.5786537 -0.17862403 0.3353121 0.3916989 1.017094 -0.47963655 1.0356485
-0.24981451 -0.29733866 -0.38923153 0.9696139 -0.45608616 -0.75503564 -0.6523271 0.010529996
0.7711567 -0.51606697 -0.06025894 0.57188356 -0.39510012 -0.49111986 -0.11021244 -0.5614228
-0.10068277 -0.47291905 0.7946692 -0.4973971 -0.13209602 0.30370742 0.57354796 0.016352125
-0.8312088 0.13290486 0.5067547 -0.08648891 0.62673837 0.6390811 0.24090946 -0.025016174
-0.7501467 0.42827877 -0.19014828 0.5116685 0.40257078 -0.9487477 0.6526006 -0.975663
-0.15416566 0.19361947 0.44371974 -0.046389136 0.57549095 -0.23544528 0.5402054 -0.51266474
-0.43756017 0.009401084 -0.18660446 -0.47346765 0.47478098 0.36580002 -0.14484295 -0.04191243
-0.3612601 0.70855355 -0.44711927 0.7149444 -0.4994654 -0.3972697 -0.41192263 -0.28795737

encoder.10.bias f4 [4]
00000000: e0af 82be 8f18 89be f9e4 943e a227 9f3e
-0.25524807 -0.2677655 0.29080942 0.31084925

decoder.0.weight f4 [20, 4]
00000000: 4b79 6ebe 0e65 0d3f 002c 4c3f 1ea1 d33f
00000010: cc31 113f 3e0b afbe 8025 27bf e3c2 1e3f
00000020: fdb3 9ebe 89df efbc db1c 6a3f 326d ff3e
00000030: 0932 78bd ef45 83bf 1991 70bf cd2c 4c3f
00000040: 2340 363d 4cc5 a23e 5f32 093f d59b 623f
00000050: 2a5e 2a3f 8f84 14bf e329 b73e 55af 77bf
00000060: 1e43 af3f df91 fabd f299 173f 36b7 46bf
00000070: 0b5f ed3e 4978 d8be de1d 12bf eb3b f5be
00000080: 156d 45be c1ee 3f3f 02de c8be 8e47 1dbf
00000090: 58fa 813e 70a2 123f 8b16 723e 7d5b 01bf
000000a0: a944 25be bfb8 8a3e 91c1 c33e d300 4cbe
000000b0: c493 d9bf e114 473f cb43 45bf 3421 493f
000000c0: 8225 163d e1a5 84bf 2bcc 02bf ab88 ce3e
000000d0: a2f3 003f 779f dd3e 3339 e73d a894 8b3c
000000e0: 6b44 093c 032d b9be 899a e0be 6f7f 38be
000000f0: 06ca f23e e0e6 0abf c25b 1c3f 0180 0ebf
00000100: e0d2 8ebf 8ec1 78be e727 793e 1897 03bf
00000110: 0f3a 92bf d411 bdbe 76a8 233f eb04 5ebd
00000120: 8c3a 0cbf d370 2f3f 0c6b bb3c 2a58 efbd
00000130: c192 823e 6021 b1be 423c 5cbd 10ee b0be
-0.23288457 0.5523232 0.7975464 1.6533544 0.5671661 -0.34188265 -0.65291595 0.62016124
-0.30996695 -0.029281395 0.9145028 0.49887997 -0.060594592 -1.0255717 -0.939714 0.7975586
0.04449476 0.3179115 0.53592485 0.8851903 0.6654993 -0.5801477 0.35774145 -0.9675191
1.3692358 -0.12234854 0.59219277 -0.7762331 0.46361575 -0.4227927 -0.57076824 -0.47897276
-0.19279893 0.74973685 -0.3923188 -0.6143731 0.2538631 0.5727911 0.23641412 -0.50530225
-0.16139473 0.27094075 0.38233617 -0.1992219 -1.699822 0.77766234 -0.7705657 0.7856629
0.036656864 -1.0363122 -0.51092786 0.40338644 0.50371754 0.43285725 0.11290207 0.017038658
0.0083781285 -0.36167154 -0.438679 -0.18017362 0.47419757 -0.5425854 0.6107751 -0.5566407
-1.1158104 -0.24292585 0.24331628 -0.51402426 -1.1423968 -0.36927664 0.63928926 -0.05420391
-0.54776835 0.6853153 0.022878192 -0.11686738 0.2550259 -0.34595776 -0.053768404 -0.34556627

decoder.0.bias f4 [20]
00000000: 33bf 36bf 3de3 d13d 3a06 a7be f517 8e3d
00000010: 5d74 63be 93f4 433e 748a 003e 4ec4 9d3e
00000020: b300 08be 2db3 f53e 99e3 413e bce1 48be
00000030: 5f04 5ebd 13cd d3be 94ef f2be 2745 38bd
00000040: 93ba 6abe fbc9 91be 6e7f 8f3e dece 233e
-0.71385497 0.102484204 -0.32621938 0.06938163 -0.22212358 0.19136266 0.12552816 0.3081383
-0.13281517 0.47988263 0.18934478 -0.19617361 -0.054203387 -0.41367397 -0.4744841 -0.044987824
-0.22922735 -0.2847441 0.2802691 0.15996882

decoder.2.weight f4 [50, 20]
00000000: d0ff b03e cead debe d047 4cbe c319 9ebe
00000010: 4cd4 913c 8156 313e b4e8 433d 0538 213e
00000020: ea0c 473e e335 4e3e a42c d03c 7091 813d
00000030: bf11 65be 0464 b03d d585 5c3e edce c03e
00000040: ffe4 f13d 6dca 393e eadc ac3d 7376 02be
00000050: a02b 0ebe c5eb 6dbd 372f f4bb 5f6b 9c3d
00000060: 8247 11be cd1e 1fbe 4ffa 643e 2097 5a3c
00000070: a359 57be 9960 1bbe a032 ca3d 650e 943d
00000080: 51dc e93d 0fb5 1bbe d156 b0bd fab4 5b3d
00000090: 9adf 813c af6c 613e b533 5dbe be32 233e
000000a0: c3a9 0bbe da52 403e 2671 383e 68e3 c0bc
000000b0: 03bc dcbb 51ee 333e ceea 143e 1c2d 11bd
000000c0: 4ace d8bd 8755 0e3e 8f1d 30bd 362e 2bbd
000000d0: 40fd 053e 0144 4b3d 9143 a0bd f65e 423e
000000e0: ae28 4d3c 3c32 f1bd 5cd5 68bd 7827 623d
000000f0: 0160 cdbd 11f6 063e 195a 86bd c4fc a7bd
00000100: aaf8 70be 2e58 b4bc d60a 2b3e 22a8 843e
00000110: 9772 003d ab77 bd3c e6c9 fdbc 0846 263e
00000120: 926d 0e3d 80b6 a7bd 0e19 61be 213a 6f3d
00000130: 8329 e73d 5bdf 363c 2c0b b33d f88e 93bd
00000140: 6cad efbe eced 98be f81a 203e 99b3 b33d
00000150: 8999 6dbe a035 eabc 0289 923e 79de 57be
00000160: 4b95 98bd dcf9 61be 9228 ecbd 043b 663e
00000170: c1e3 8c3e 4c8a 0abe aa3a cdbd a55a a43e
00000180: 8a86 583e a127 293e 6d67 2e3e 33b6 143e
00000190: 29dd 1b3e e9e9 803e da16 863e 9964 04be
000001a0: c983 883e 375d 9c3e e41c 803e 0564 fcbe
000001b0: e9fc 203e 1554 623e 6e52 eabd 187a 87be
000001c0: 0856 b5bd 0a97 33be b93f 043e a6af 053e
000001d0: 5024 923a 5665 d8be 740d 9c3d 7328 c53c
000001e0: 22d9 543e 9993 4abe 30cd 373d 2ce9 09bd
000001f0: b2bc fb3d 60c7 503e ace5 2f3c 64e9 b4bd
00000200: fbd3 d6bd a202 663e 6e5a 58bd 0261 083e
00000210: 5f4f c7bd d65b 63be ca82 53be 7329 043e
00000220: 7be9 50be 5bfb 3ebd be5e 11bc 9d93 f8bd
00000230: be28 e8bd a8c0 acbd 18e7 dcbd 51aa 18bd
00000240: a6dc 24be 1a2e 3e3b c816 803e be32 5e3d
00000250: 2f39 1f3e c82a 1f3e 73e9 50bd 3cff 1a3e
00000260: 2602 823d 0c57 28be 618c 13be 8f50 59bc
00000270: fd01 e93d 8776 9e3d 12d9 85be 0586 b7bc
00000280: 2d01 df3e cd74 8a3e a0db 8a3e a197 75be
00000290: f827 b93e d277 d63d b87f 823e 50d6 a1be
000002a0: 7723 a13d 24b6 db3d e3b1 183e d675 723d
000002b0: 2e94 89bd 606a a73c da1e 25be 8efe 97be
000002c0: 66ae 14be 4ead 8bbd 79c7 173d e79c 853d
000002d0: 48a7 5e3e 5184 b5bc 1951 713e d0fd d73d
000002e0: 01d0 68bc b2ef 86be 989d e0bd f0dd e3bd
000002f0: 84c9 f6bd a438 e13d c5ba 193e 72a7 4a3e
00000300: 0cd1 33bd ff09 eabd 94ea e23d a383 85be
00000310: 05fe 4ebe 3bcd 163e 2642 3c3e 9b4f 103e
00000320: c126 67bd c711 343e 67a4 b4bd e9a1 0ebd
00000330: 0e99 4d3e 46d3 4f3e 95df 7c3e 6b96 073e
00000340: 73e1 1b3e bf50 63bd 5531 8d3d fe42 b73d
00000350: 0ac8 1ebe c0da 0ebd 9d6e 943d dcbd 46be
00000360: ad77 803e 9f77 24be 468e 693e 1b73 0dbd
00000370: 40bf 3c3e fb91 bc3d 0356 1a3d 9756 263e
00000380: b45b e1bd f513 1ebe 7061 65be 5f09 403e
00000390: dd53 a7bd 8b81 35be 1c15 7bbe 4db6 5ebe
000003a0: ef2a 183d 8e2d bdbd 36ff 7bbd ddcd 62be
000003b0: e30c 13be 09b0 143d eb16 40bd e5a5 b63d
000003c0: 54e6 f1bc cb33 793e ba7d 12bd 9f44 b83e
000003d0: 736a 8cbb b332 1dbd ca95 9ebc d4ca df3b
000003e0: 8c83 2e3e 2b58 823e 6fd2 233e 5c73 aabe
000003f0: adda a93e e11b ddbd 0033 fb3d 6846 7d3d
0.3457017 -0.43491977 -0.1994927 -0.3087903 0.017801426 0.17318155 0.047829345 0.15744026
0.1943852 0.20137744 0.025411911 0.06326568 -0.22370051 0.086128265 0.21535428 0.37657872
0.11811256 0.18143626 0.084405735 -0.12740497 -0.13883829 -0.058086175 -0.0074519175 0.07637667
-0.14187434 -0.15539093 0.2236111 0.013341695 -0.21030287 -0.15173568 0.09872937 0.07229308
0.11418975 -0.15205787 -0.08610309 0.05363939 0.015853692 0.22014116 -0.21601756 0.15937325
-0.13638978 0.18781605 0.18011913 -0.023545936 -0.00673628 0.17571379 0.14542696 -0.03544341
-0.105862215 0.13899814 -0.04299694 -0.041792117 0.13084888 0.0496254 -0.07825387 0.18981537
0.012521906 -0.117771596 -0.0568441 0.05521342 -0.10028077 0.13179804 -0.065601535 -0.08202508
-0.23532358 -0.022014704 0.16703352 0.25909525 0.03135928 0.023128351 -0.030980062 0.16237652
0.034772463 -0.08189106 -0.21982214 0.058405045 0.112872146 0.0111616505 0.08742365 -0.072050035
-0.46811998 -0.2986902 0.15635288 0.0877449 -0.232031 -0.028590024 0.28620154 -0.2108096
-0.074503504 -0.2206797 -0.11531176 0.2248345 0.27517512 -0.13529319 -0.10020955 0.32100406
0.21145073 0.16519023 0.17031641 0.14522628 0.15221085 0.2517846 0.2618931 -0.12929
0.26663044 0.30539867 0.25022042 -0.4929506 0.15721478 0.22102387 -0.114415035 -0.26460338
-0.088543 -0.17538086 0.12914933 0.13055286 0.0011149738 -0.42264813 0.076197535 0.02406714
0.20785955 -0.19782867 0.044873416 -0.033669636 0.1229185 0.20388556 0.01073591 -0.08833578
-0.10489651 0.22461942 -0.052820615 0.13318256 -0.09731936 -0.22203001 -0.20655361 0.12906437
-0.20401566 -0.04662643 -0.008872686 -0.1213753 -0.11335896 -0.08435184 -0.10786265 -0.0372718
-0.16099796 0.0029019178 0.2501738 0.05424761 0.15549158 0.15543664 -0.051003885 0.15136427
0.06348066 -0.16439456 -0.14409019 -0.013263836 0.11377332 0.07737451 -0.26142174 -0.022402773
0.43555585 0.27042237 0.27120686 -0.23983623 0.36163306 0.10472073 0.25488067 -0.3160882
0.078680925 0.107281 0.14911608 0.05919441 -0.06717716 0.020436466 -0.1612505 -0.29686397
-0.14519653 -0.068201646 0.037055466 0.06524067 0.217435 -0.02215782 0.23566093 0.10546458
-0.014209748 -0.26354748 -0.109675586 -0.111263156 -0.12050155 0.109971315 0.15012653 0.19790438
-0.043900535 -0.11427688 0.110798985 -0.26076993 -0.20214088 0.14726727 0.18384609 0.14092867
-0.056433443 0.17584907 -0.0882042 -0.03482238 0.20077917 0.20295438 0.24694665 0.13240974
0.15222721 -0.055496927 0.06894175 0.089483246 -0.15505996 -0.034876585 0.0724766 -0.19408363
0.25091305 -0.16061257 0.2280818 -0.0345336 0.18432331 0.09207531 0.037679683 0.16243969
-0.11003819 -0.154373 -0.2240045 0.18753575 -0.081702925 -0.17725198 -0.24519771 -0.2174923
0.03715032 -0.092372045 -0.061522685 -0.22148843 -0.14360385 0.036300693 -0.046896856 0.089183606
-0.029528774 0.24336164 -0.035764433 0.35989854 -0.0042851507 -0.03837843 -0.019358534 0.006829599
0.17042369 0.25457892 0.15998243 -0.33291137 0.3317465 -0.10796333 0.12265587 0.061834723

decoder.2.bias f4 [50]
00000000: d5f8 823e f584 b3bd 22cf 0a3d 77ed fe3d
00000010: 2463 ac3d c911 363e d8b0 fcbd 052a 233e
00000020: 73b7 343e b042 45be cefd 793d 8b1f fabd
00000030: bee1 1fbe f79c 88be 2d88 3bbe 61d2 b5bd
00000040: f9d9 a6be 743e f73c ad46 9bbd bdbb bfbd
00000050: 3c10 213e 23c4 523c fc41 bfbd 08ab 04bb
00000060: 7b3a 423e d046 d93d 51dd 58be e9d3 7cbe
00000070: 0985 1a3e bdf4 02be 53b8 48be ac01 4d3d
00000080: 6d49 af3d cfa4 873c 6617 4bbe 3abc 85bd
00000090: baa9 a5be 759d be3b 0b4c f03d 315b 1abe
000000a0: 9f7c 12be 1c49 aabd 3674 04be 3fa0 48be
000000b0: 6482 d23e 42c6 d73d 939d 523d 7b8d eebd
000000c0: 6254 c2bd 2420 36be
0.2558047 -0.08765594 0.033888943 0.124476366 0.08417347 0.17780222 -0.12338418 0.15933998
0.17648105 -0.1926372 0.061033063 -0.122130476 -0.15613458 -0.26682255 -0.18313666 -0.08878017
-0.32588175 0.030181147 -0.0758184 -0.0936198 0.15728849 0.012864145 -0.093387574 -0.0020243544
0.18967621 0.106092095 -0.21178176 -0.24690212 0.15089811 -0.12788673 -0.19601564 0.050050423
0.08558927 0.016558079 -0.19833145 -0.06530042 -0.32356054 0.00581711 0.11733254 -0.1507385
-0.14305352 -0.08314726 -0.12934956 -0.19592379 0.41115105 0.105358616 0.051419806 -0.11648079
-0.09488751 -0.17785698

decoder.4.weight f4 [50, 50]
00000000: 3305 353d 7a4d 07be 3964 a3bd 1f4f 67bd
00000010: c5ab 933c 9096 58bd 29b0 c9bd 2c4a 0fbd
00000020: 6930 80bd ff0e c73c df2f 8b3d f2be 033c
00000030: 2d93 d6bd fa50 d5bd 0569 fe3d 4bb5 81bd
00000040: f6ea 383c f54f a1bd 9263 0e3c 634d abbc
00000050: 5d1b d0bd 9b18 adbd f019 d2bd 0823 c03d
00000060: bcb4 afbd 82a7 093e c7e6 0cbe 23bd 77bd
00000070: 9bea f2bd 91a8 e2bd 5c76 003e f99f ce3d
00000080: b08e 223d ac9c 1cbb b5e6 05be f9b6 e4bd
00000090: 933d ec3c a83d 67bd 57c5 0bbe b960 193d
000000a0: de2a bb3c c111 afbd d2d9 913c 1328 9abd
000000b0: 6b9d a6bd d36f 043e ad23 f63d 78f6 05bc
000000c0: 5346 9ebd 0da9 b7bd 7a11 1fbe 8fcf d0bd
000000d0: 1feb 053d 64b3 efbb 9691 54bd 5ae5 2e3e
000000e0: 7d9b 0a3c 4101 6ebd b6ea 2f3e 998f 0f3d
000000f0: 202d 053e 3d4a d93d ea2a 153e 94c5 023e
00000100: d7b7 bcbe 595f 33bd bd1d 6d3e eb70 913c
00000110: f979 a33d 5c7c 923c 243e 0dbe cd7c f53d
00000120: 769b 3cbc b559 da3d d180 c73d 7a51 643e
00000130: 172b 2e3e ad2b 0cbe 22bc 823e ebe1 86bc
00000140: 5983 08be 90fc c9bd c0ee d4bd 3c93 033e
00000150: 4762 303e 0889 07bc 483c 233d 7349 0c3e
00000160: dd2e 08be 689d 143e c0aa 17be 870d 48be
00000170: a5af 75bd a0b8 f93d 6c41 553e f856 2cbd
00000180: 2c7a 15bd 83f5 da3d 7d08 29bd 38c7 983e
00000190: c499 903e 81cd 2cbe 4261 adbd f881 cdbd
000001a0: c2cc f63d d804 5e3d 9244 e7bd 9561 9bbd
000001b0: edca 523d 7cf4 83bd 7b7e b1bd e435 f43c
000001c0: 4fe8 4fbe 3dd5 243d 3793 773e 8556 08bd
000001d0: 13f3 b03d fd23 dfbd 6e45 debb 9069 86bd
000001e0: bfcf 903d f85d 7ebd 1f54 cfbd 1e50 8bbd
000001f0: da8d ff3c b049 cabc bf96 d83c 192e 66bd
00000200: d099 a3bc c33d fbbd 9913 eb3c 0c6b e0bd
00000210: 4969 bd3c ac97 fc3d a484 ddbd 12dd b53c
00000220: f9c3 b93d d8b4 023e e3f2 f1bd c439 9f3c
00000230: b0ab 1c3d df52 543d d3ba cc3d 7f2b e23c
00000240: ec29 963e d4c0 fcbd 1be4 383d 68c6 58be
00000250: 2f21 b4bb e8f8 a63e e6e2 95bd 2514 d9bd
00000260: ece5 4abd ad0f 3c3e 935d f7bd acbf 6abe
00000270: b32b e33d 2783 a0bc d0d4 9d3c 2f62 a63d
00000280: 2f6c 283c f76b b4bd 31a0 0abe 720f cd3e
00000290: 9a5d 03be 5762 89be da4b 3ebd 09e2 2abd
000002a0: 73c0 9fbb fbf2 033e db9a af3e 11af b23d
000002b0: 372f 5bbd 4cbb 863d 7a6a 193e de5b 1fbd
000002c0: 2a69 20be b495 b73c 3af0 ae3d 9ed1 5c3d
000002d0: 9c4b f7bd 0722 823e 315c c9bd 892b 98bc
000002e0: b748 943c 1431 80bd 447c 903e 95ac 8abb
000002f0: cf54 cc3b 5fed 933d e837 c13d bdc4 a13e
00000300: 1c48 183d d208 d83d bc91 693e 7c14 9b3c
00000310: 51d0 903e 174a 5ebe b7fc e93d 701d 9abe
00000320: f356 283e 8791 2dbd 5f9e 043d 7db6 f23a
00000330: e829 0e3d 9a8e 4cbd 74e1 e13c ccf3 363d
00000340: 4066 8d3c e58c 553e 4f84 74bd 1096 293e
00000350: 8d2f 06be cf50 053f 93f8 0e3e a281 0cbe
00000360: c262 9f3e c349 d4bd 459f 193e adc7 8d3d
00000370: 4e1b c23d 347e 543c d753 81ba 3841 98bd
00000380: aecb 50bd eb5a ec3d 6baf 3d3d 1f14 34be
00000390: 4c0c 91bd f21a 6dbe 321a fd3d b8ea 883c
000003a0: 4d12 3f3c b202 3c3e f463 3b3d 9381 e73d
000003b0: 243c c73e 141f 01be 26c7 c43d 5a08 9e3e
000003c0: e88f 9dbc 9b04 083e 4214 cf3d 8ab9 aa3d
000003d0: 3790 8a3e 792c 973d daad 003d 4392 853d
000003e0: cfcb 2e3e 0934 edbe b531 cfbc affe c0bc
000003f0: 36d8 bd3d 24b5 bb3c d111 e83d 9be1 be3b
0.04419441 -0.13213149 -0.079781 -0.05647194 0.018026242 -0.052877963 -0.09848053 -0.034982845
-0.062592335 0.024299143 0.0679624 0.00804113 -0.1047729 -0.10415836 0.12422375 -0.06333407
0.011286488 -0.07876579 0.008690732 -0.020910924 -0.10161469 -0.08451959 -0.102588534 0.09381682
-0.08579394 0.13442805 -0.1375991 -0.06048311 -0.11861154 -0.11067308 0.1254515 0.10089106
0.03968686 -0.0023897095 -0.13076289 -0.11167712 0.028837955 -0.056455284 -0.13649498 0.037445758
0.02284759 -0.08548308 0.01780406 -0.07527175 -0.08135494 0.12933283 0.12018523 -0.0081764385
-0.07728257 -0.08967791 -0.1553401 -0.10195839 0.032694932 -0.007315086 -0.051896654 0.17079678
0.008459923 -0.058106665 0.17179379 0.035049055 0.13005495 0.10609863 0.14567152 0.12770683
-0.3685901 -0.043792102 0.23155876 0.017754039 0.07982249 0.017881565 -0.13793236 0.119866945
-0.011511674 0.106616415 0.09741367 0.22296706 0.17008625 -0.13688536 0.2553416 -0.016465148
-0.13331355 -0.098626256 -0.103971004 0.12849134 0.1722499 -0.008272417 0.03985241 0.13699894
-0.13299127 0.1451317 -0.1481123 -0.1953641 -0.05998196 0.121934175 0.20825738 -0.042075127
-0.036493465 0.10691359 -0.04126786 0.29839492 0.28242314 -0.16875269 -0.08465816 -0.10034555
0.12050773 0.054203838 -0.112923756 -0.07586972 0.051463056 -0.06443116 -0.08666702 0.029810853
-0.20303462 0.040242422 0.24177252 -0.033285636 0.08640113 -0.10895536 -0.006783179 -0.06563103
0.070708744 -0.062101334 -0.10123467 -0.068023905 0.03119557 -0.02469334 0.026439069 -0.056196306
-0.019970804 -0.122676395 0.028695868 -0.109579176 0.023121493 0.123336166 -0.10816315 0.022200141
0.09070582 0.12764299 -0.11813905 0.019436724 0.03824967 0.051836845 0.099965714 0.027608631
0.2932886 -0.123414665 0.045139413 -0.21169436 -0.00549712 0.32611775 -0.07318668 -0.105995454
-0.049535677 0.18365355 -0.12078395 -0.2292468 0.11092319 -0.019593788 0.019266516 0.08124196
0.010279699 -0.08809655 -0.1353767 0.40050846 -0.12828675 -0.2683284 -0.046459056 -0.04171947
-0.0048752367 0.12885658 0.34297833 0.087247975 -0.053511824 0.06578693 0.14982024 -0.03890597
-0.15665117 0.022410251 0.08541913 0.053910844 -0.12074968 0.25416586 -0.09832037 -0.018575447
0.01810108 -0.06259361 0.28219807 -0.004231999 0.006235696 0.07223009 0.094344914 0.31595412
0.037178144 0.10548557 0.228095 0.018930666 0.28283933 -0.2170795 0.11425155 -0.30100584
0.16439418 -0.042375114 0.032377597 0.001851752 0.034707934 -0.049940683 0.027573325 0.044666097
0.01726067 0.20854528 -0.05969649 0.1656115 -0.13104077 0.5207643 0.13962011 -0.13721326
0.31130034 -0.103656314 0.15002163 0.06922851 0.09477864 0.012969542 -0.0009866905 -0.074343145
-0.050975494 0.11540779 0.04630987 -0.175858 -0.070824236 -0.2315481 0.12358512 0.016713485
0.011662078 0.18360403 0.04574962 0.11304011 0.3891307 -0.12609512 0.09608297 0.30865747
-0.019233659 0.13283007 0.10111286 0.0833617 0.27063152 0.07381529 0.031415798 0.06522038
0.17069934 -0.46328762 -0.025292257 -0.023558943 0.092697546 0.022913523 0.11331523 0.005825234

decoder.4.bias f4 [50]
00000000: e930 00be f894 d23d 7019 9d3e faeb aa3b
00000010: f792 133e 3d92 f8bd 8703 8bbe 0e51 753d
00000020: 786e 16be c884 973d 0519 0abe 6787 dcbd
00000030: e26f 17be 9c4b c439 03ec 6a3c 6ecc 2ebe
00000040: 0d8c f7bc 4a1d 2cbc a135 8f3d e094 d4bd
00000050: 355b cdbd cd8f 033d 7343 803e 6933 bbbc
00000060: ec88 9b3d ff37 a5bd b766 a3bd a5e8 7ebd
00000070: f6bb 10bd 2907 3f3e 4dd4 493d 5321 1a3e
00000080: f0a8 1d3c dbd7 eabc 227c 263d d841 2f3d
00000090: 888e 013e a574 0f3e 7f4c 103e 9016 96ba
000000a0: 7738 2fbd 5d14 0ebd 3903 393e 778e 833d
000000b0: 3c81 05be 1233 91bd 9858 d73c e660 bbbd
000000c0: a4bf 673e 6dcc e1bb
-0.12518658 0.1028232 0.3068347 0.005216119 0.14411531 -0.12137268 -0.2715113 0.059891753
-0.14690578 0.07398373 -0.13486107 -0.107680134 -0.14788774 0.00037440367 0.014338496 -0.17070171
-0.030218149 -0.01050503 0.06992651 -0.10379958 -0.10027162 0.03211956 0.2505146 -0.022851663
0.07594475 -0.08067321 -0.07978576 -0.062233586 -0.035335504 0.18655075 0.04927473 0.15051775
0.009622797 -0.028667381 0.040645726 0.042787403 0.12652028 0.1400934 0.14091681 -0.0011450816
-0.04277846 -0.03468739 0.18067636 0.064236574 -0.1303758 -0.07089819 0.026287362 -0.09149341
0.22631699 -0.0068908245

decoder.6.weight f4 [6, 50]
00000000: 5a60 983d 5f84 9dbe 4c0e 9c3e 703d 92be
00000010: 53a0 893d aab8 be3d 5041 843e c527 903e
00000020: 069f 35be 80fd 26be a3d7 98bd 70dd a1bd
00000030: 854f 10be c120 9a3e 867c e73e bd80 d6bc
00000040: a936 57bd 3912 113d bd89 c1bd bb87 b4bd
00000050: 3362 aebd 9da9 99be d24c 283e 7909 febd
00000060: 0206 a03e 4f37 f3bd a69b b23e 471b cebd
00000070: f158 8f3d 9c91 6e3e 4a6a 903e 2df1 2bbe
00000080: ed29 1a3e 6c1f 143e 1bcb 7ebf f54f c4bd
00000090: ad41 ac3e 4e18 a33e 8ac6 933e 4f50 043e
000000a0: 2eaa ca3d e303 74bf d8d0 c7be ce01 9d3d
000000b0: 716a bcbd 2078 d73d 8f46 8e3e 61dc a5be
000000c0: f9b7 84be e342 693a 2ed6 3bbd 068b 8abe
000000d0: 5266 c53c 5ca3 6fbe 9580 90bd 06ed 0bbd
000000e0: 1adf 34be 6e0a c7bd 3ff6 1f3e e488 163e
000000f0: fbf1 9cbd a27a 0fbd 02de 8cbd 26bc 0abd
00000100: b592 cdbe b391 953d 35f9 30be 33b9 f03c
00000110: df20 983d 4d1e e43d 38a4 ed3b 7153 b73c
00000120: 7a4f 62be 39f9 863d 4601 efba f333 973d
00000130: 7fe0 e23d 3cd9 d5bd cd81 973e b2c7 4cbd
00000140: 3266 88bd f63b d33d d036 b93d 56f8 55bb
00000150: b713 a43d f961 cb3e 49e9 a73d 57cf 313d
00000160: 5b83 dcbe f5dc 75bd 4315 163e f853 ec3d
00000170: 7a9f 38be b88c f73d 4b51 f63d 7f4b 99bd
00000180: 1b82 7d3e 2de8 3abe c5f6 ccbc 51e2 59bd
00000190: 9b1a 633d 1fe0 8f3d b7a9 5c3d 2190 72bd
000001a0: 5f94 bf3b 41b7 50bc 9ba1 fdbc 04d1 4bbd
000001b0: 3ad7 873c 1a9f 02bd 7721 cebd 7bad 2b3d
000001c0: 6ca8 cabd 5a8c f13c 92ea fabd ffdf 1dbe
000001d0: e46e cb3d 0eba febd c4d5 043c 9f38 adbd
000001e0: 91c8 3fbd c80d e63d 93dd 23bc 2e9a e6bd
000001f0: f78b 44bb 6c9c 473c 6b1f 75bd f9ef a53c
00000200: ea5f dd3d 5e5d b03d 3639 debc c869 cbbd
00000210: 21d9 27be 861e c63d 3b10 203d 7402 c73d
00000220: fd4c e13d 8425 d1bc 8671 64be caf7 38bd
00000230: cbd8 88bc 06c3 9a3c dbc6 ef3c 6198 7b3d
00000240: 04e8 f43c 6d6c d2bd dcf5 163e 333f 52bd
00000250: 973e ccbd a7a1 f1bd 6c25 823d 20ce d53e
00000260: 1f0e fb3e 5c5f 2fbf 385b 35bf 5326 b0bc
00000270: 7bf0 9bbf 892a 5d3e 46c9 09bf 6d00 ddbd
00000280: 646a 2a3d 0017 fb3d d61b d83d 9b78 0ebf
00000290: 0617 3cbf f749 f43d 0993 17bf e2d5 e3bd
000002a0: 347c 27bf e683 05bd 69a8 91bd 8344 5ebe
000002b0: f803 423e 986e e7bd 7e4b 9abc 3cc9 423c
000002c0: ed87 e23e 052a c4bc 9f06 2ebe fdbe b43e
000002d0: 4f71 553e 850b 5bbf 6aaa e83c bc13 0abe
000002e0: cfb8 babe 822d 14bd a50b f0be 897e a3bf
000002f0: 67a6 b23d bd08 05be 1e96 2e3e 45f7 283f
00000300: a34b a6bd 0f14 053e e201 0c3d 8542 f13d
00000310: fc2f 133d 30d4 043e f1e5 a1bf 10ff 8abd
00000320: 644d 9c3d c83c b4be f8aa 923e b9a8 a13e
00000330: 4f16 a63e c0f5 bebd ba66 d3be 6c35 073d
00000340: 8138 203e 7b26 6d3b e7c0 c0bd 7a02 db3d
00000350: dad8 973d a8a8 9e3e 9680 96bf 8a5c 083e
00000360: bbc1 f9be 56d0 883d 12fe 3bbf efe7 8b3d
00000370: f813 22bd ea10 f3bd ce95 9a3e aba5 973d
00000380: 2497 9d3e 86d8 bb3d e110 89be 263c d83d
00000390: b3f5 9d3e 6c8d 623e 0702 8bbe 780b 4dbf
000003a0: 01a4 083e 1fda 093e 9e25 12bf 3214 793e
000003b0: 4bec 8fbf 58d6 203e afc7 fb3d 7417 9cbc
000003c0: 14aa 3abe 9d0f 9b3e d84f 803d 9224 f2bd
000003d0: ed64 54bd 880d b2bd 8c3e 5abf 3919 d8bc
000003e0: 3a30 58bf 9726 4fbd 0daf f23d 4f65 62be
000003f0: 74e3 43be 4002 debe 2f95 77bf 7cf1 0e3d
0.074402526 -0.30765054 0.30479658 -0.28562498 0.067200325 0.093125656 0.2583108 0.28155342
-0.17736444 -0.1630764 -0.074630044 -0.07903564 -0.14092834 0.30103114 0.4521219 -0.026184434
-0.052542362 0.03541777 -0.094500996 -0.08814951 -0.08514824 -0.30012217 0.16435555 -0.124041505
0.31254584 -0.11875784 0.34884375 -0.100637965 0.06999386 0.23297733 0.28206092 -0.1679122
0.15055056 0.14465111 -0.99528664 -0.09585563 0.33643857 0.3185448 0.2886241 0.1292126
0.098957404 -0.9531843 -0.39026523 0.0766636 -0.091999896 0.10520959 0.27788207 -0.32394698
-0.2592161 0.00088982115 -0.045858555 -0.2705919 0.024096642 -0.2340216 -0.07055775 -0.03416159
-0.17663231 -0.09718786 0.15621279 0.14700657 -0.076633416 -0.03502906 -0.06878282 -0.03387084
-0.4015099 0.073031805 -0.17282565 0.029385185 0.07428145 0.11138592 0.0072522424 0.022378655
-0.2210063 0.06590504 -0.0018234632 0.073829554 0.110779755 -0.10441825 0.29591218 -0.04999513
-0.06660117 0.10314171 0.09043658 -0.003264924 0.08011573 0.39723185 0.081987925 0.043410625
-0.43068966 -0.060025174 0.14656548 0.11539453 -0.18029585 0.12087387 0.12027224 -0.07485103
0.24756663 -0.1825263 -0.025020013 -0.053194348 0.055445295 0.070251696 0.05387279 -0.059219483
0.0058465446 -0.012739004 -0.030960849 -0.04975988 0.01658212 -0.031890012 -0.10064977 0.04191349
-0.09895405 0.02948587 -0.12251772 -0.15417479 0.0993326 -0.12437831 0.008107606 -0.08458065
-0.046822134 0.11233097 -0.010001558 -0.11259876 -0.0029990652 0.01218329 -0.059844416 0.02025603
0.1080931 0.086115584 -0.02712689 -0.099322855 -0.16391422 0.09673791 0.03907798 0.09717265
0.110010125 -0.025530584 -0.22308931 -0.045158185 -0.016704937 0.018891823 0.029269626 0.061424617
0.02989579 -0.10274587 0.14742225 -0.051329803 -0.099728756 -0.11798411 0.06354794 0.41758823
0.4903421 -0.6850488 -0.70842314 -0.02150265 -1.2182764 0.21598257 -0.53822744 -0.10791097
0.04160537 0.12260246 0.10552184 -0.5565278 -0.7347263 0.1192817 -0.5920873 -0.11124779
-0.65423894 -0.03259649 -0.071122 -0.21705823 0.18946826 -0.11300391 -0.018834826 0.011888798
0.44244328 -0.023945818 -0.16994713 0.35301962 0.20844005 -0.8556445 0.028401572 -0.1348409
-0.36469123 -0.036176212 -0.46883884 -1.277299 0.08723145 -0.12991615 0.17049453 0.66002303
-0.08119895 0.12995933 0.034181483 0.11780266 0.035934433 0.12971568 -1.2648298 -0.067869306
0.076319486 -0.35202622 0.28646064 0.31574038 0.32438895 -0.09324217 -0.41289312 0.03300993
0.15646555 0.0036186266 -0.09411793 0.10693832 0.07414408 0.3098805 -1.1757991 0.13316551
-0.48780617 0.06680362 -0.73434556 0.06831347 -0.039569825 -0.118684605 0.30192417 0.074046455
0.30779374 0.09172158 -0.2677069 0.105583474 0.30851516 0.2212426 -0.27149984 -0.80095625
0.13343813 0.13462113 -0.5708865 0.2432411 -1.1243986 0.15706766 0.12293946 -0.019054152
-0.18228942 0.3028535 0.06265229 -0.118233815 -0.051854063 -0.08693987 -0.8525169 -0.026379215
-0.8444859 -0.05057391 0.118497945 -0.22108959 -0.19129735 -0.43361092 -0.9671201 0.034898266

decoder.6.bias f4 [6]
00000000: aeab 043e a47b c9be 9ece 86bb 53dc 0d3f
00000010: 064d 583e abce c53e
0.12956116 -0.39352143 -0.004113986 0.55414313 0.21123132 0.38634238

cluster_layer.weight f4 [4, 4]
00000000: 772e a1bd 3ba1 e6bd 23ac cb3d 5d12 d93d
00000010: 9706 c6bd 0013 cabd 63f1 ce3d 93e4 d33d
00000020: 2aef ccbd fd1f cb3d 6af0 cd3d f830 cdbd
00000030: de36 cb3d 5af4 d0bd 6cc7 c6bd c816 d03d
-0.078701906 -0.11261221 0.09944942 0.10599206 -0.09669226 -0.09866905 0.101046346 0.103463314
-0.100065544 0.09918211 0.10055621 -0.10019106 0.099225745 -0.10202856 -0.097060055 0.10160595
