RiskViz Folder/model/checkpoint_500.tar (torch, 110796 bytes, 51 tensors)

encoder.1.weight f4 [50, 6]
0	0xbef6ffd7	-0.48242065
1	0xba83dac9	-0.001005971
2	0x3afeb53b	0.0019432673
3	0x3e84dc4d	0.25949326
4	0xbe951d28	-0.29123807
5	0x3da71d33	0.08159866
6	0x3af196a5	0.0018431736
7	0xbbd1c074	-0.006401116
8	0xbb9f4d38	-0.0048615
9	0x40045888	2.0679035
10	0x3cd8f630	0.026484579
11	0xbe991557	-0.29899094
12	0xbe42424b	-0.18970601
13	0xbe55eae2	-0.20890382
14	0xb9b32a56	-0.00034173083
15	0xbd826888	-0.06367594
16	0x3ea3ec31	0.32016137
17	0xbec5eaf8	-0.3865583
18	0x3e48839e	0.19581458
19	0xbbe7a62b	-0.0070693693
20	0x3afe0d9f	0.0019382722
21	0xbe04fce6	-0.12987098
22	0x3b74cd79	0.0037353917
23	0x3f77dafd	0.96818525
24	0xbd6664c9	-0.05624846
25	0xbde9ad4a	-0.114100054
26	0xbbd96a7f	-0.00663501
27	0x3f3573ee	0.7088002
28	0x3e7cdeb1	0.24694325
29	0xbeff6a58	-0.4988582
30	0x3f352400	0.70758057
31	0x3cb0446c	0.021517001
32	0x3b3366bb	0.0027374465
33	0x3e6291f5	0.2212599
34	0xbbd2ef04	-0.0064371843
35	0x3f202286	0.6255268
36	0xbda4ecae	-0.080529556
37	0xbe66731c	-0.22504848
38	0xbde11d24	-0.10991886
39	0xbe7b78a4	-0.2455774
40	0x3e5da936	0.2164658
41	0xbe516426	-0.2044836
42	0xbf09c530	-0.5381651
43	0x3e06eebd	0.13177009
44	0x3e1fb7fd	0.1559753
45	0xbcb39f55	-0.021926561
46	0xbdf1b714	-0.118024975
47	0xbd3d2fc9	-0.04618815
48	0x3f0ba13c	0.545429
49	0xbbf061a1	-0.007335857
50	0xba3ce0e4	-0.0007205142
51	0x3f6c0af9	0.9220424
52	0x3f121a15	0.5707105
53	0x3d3eabf9	0.046550725
54	0xbea52900	-0.32257843
55	0x3c355dd9	0.011069738
56	0xbe427bb8	-0.18992507
57	0xbac261e6	-0.0014830201
58	0x3e4c55d0	0.1995461
59	0x3e38af43	0.18035607
60	0xbe93d78e	-0.28875393
61	0xbc420cd9	-0.011843883
62	0x3b44a074	0.0030002864
63	0xbf6d2930	-0.9264097
64	0xbe5b6759	-0.21426143
65	0x3de0d809	0.109787054
66	0xbe6e8a82	-0.23295024
67	0xbe36933d	-0.17829604
68	0x3e0c6993	0.13712148
69	0x3e7098f2	0.23495844
70	0x3bbb7119	0.0057202694
71	0xbe229d14	-0.15880233
72	0xbd050010	-0.032470763
73	0xbd915819	-0.070968814
74	0xbd376c63	-0.0447811
75	0x3f7aca19	0.97964627
76	0xbda7cd38	-0.08193439
77	0x3eb6f9c1	0.35737422
78	0xbeae21d3	-0.3401018
79	0x3c0d5100	0.008625269
80	0x38ba28f4	8.876799e-05
81	0xbf3f1695	-0.7464383
82	0xbe5ea9c9	-0.21744455
83	0x3deb4482	0.11487676
84	0xbfaa2b36	-1.3294437
85	0xb93e0552	-0.00018121794
86	0x3bb46528	0.005505223
87	0x3ede3708	0.4340136
88	0xbeb097b0	-0.34490728
89	0x3f5d0241	0.86331564
90	0xbf19f203	-0.60134906
91	0x3c0f6a33	0.008753347
92	0x3ba7ab9e	0.005116894
93	0xbe2909d2	-0.16507652
94	0xbec86a7e	-0.39143747
95	0xbe2a6ae5	-0.1664234
96	0xbe836229	-0.25660828
97	0x3e8a4892	0.27008492
98	0x3e1d597d	0.15366168
99	0x3ea6b33f	0.3255863
100	0xbe9b8817	-0.30377266
101	0xbecbbb59	-0.39791372
102	0xbf5f1aa1	-0.8715001
103	0xbc1a9f38	-0.009437375
104	0xbc41aa65	-0.01182041
105	0xbf31f299	-0.695108
106	0x3f1fcf7c	0.6242597
107	0x3f055719	0.52086025
108	0xbb5a32e1	-0.0033294486
109	0xbbaaf3e8	-0.005217064
110	0xbb8d7096	-0.0043164
111	0x4000a1f9	2.009886
112	0x3ca0b622	0.019618098
113	0xbe97130b	-0.29506716
114	0x3daf84db	0.08570262
115	0xbe9d1051	-0.3067651
116	0xbe5fad92	-0.21843556
117	0xbe447a9a	-0.19187394
118	0xbe6c8c84	-0.23100477
119	0x3d944263	0.07239225
120	0xbddaf678	-0.106915414
121	0xbbbe2e45	-0.0058038556
122	0xbbcb80f8	-0.0062104426
123	0xbf25a7e6	-0.6470932
124	0x3f374ff5	0.7160638
125	0x3cecf556	0.028925579
126	0xbeb53c3d	-0.3539752
127	0xbe879c03	-0.26486215
128	0x3e19edcb	0.15032117
129	0x3e204211	0.15650202
130	0xbe814011	-0.2524419
131	0xbe03474c	-0.12820166
132	0xbfe8feeb	-1.8202795
133	0xbc12d6e9	-0.008962371
134	0xb9abe590	-0.000327867
135	0xbe7280a5	-0.23681886
136	0xbea5b287	-0.32362768
137	0x3e550996	0.20804438
138	0x3ea5db42	0.32393843
139	0xbdb0a183	-0.08624556
140	0xbd89c364	-0.06726721
141	0x3e144579	0.14479627
142	0x3d76f5af	0.060292896
143	0xbe09b3d5	-0.13447507
144	0xbec10e4b	-0.37706217
145	0xbe713c68	-0.235582
146	0x3d13922f	0.036028083
147	0x3bf059d0	0.0073349252
148	0x3ed0e28d	0.40797845
149	0xbd65eb41	-0.05613256
150	0xbdcc2d88	-0.09969622
151	0xbec851c4	-0.39124882
152	0xbebf1ca0	-0.37326527
153	0x3e395f0b	0.18102662
154	0x3ead4986	0.33845156
155	0xba7e8f70	-0.0009710705
156	0xbfe314e8	-1.7740755
157	0xbb02de84	-0.0019969055
158	0x3c5aee3c	0.013362464
159	0xbf06c896	-0.5264982
160	0xbdfa03b4	-0.122077376
161	0x3d9ebcde	0.07750867
162	0xbfc58db6	-1.5433872
163	0xba6397e3	-0.00086819957
164	0x3ba40d40	0.0050064623
165	0xbeec4f16	-0.46154088
166	0xbe025733	-0.12728576
167	0xbea5a860	-0.32355022
168	0x3f3316b2	0.69956505
169	0xbb469fb3	-0.003030759
170	0xba8d99b1	-0.001080325
171	0xbf6de05c	-0.9292047
172	0x3f3a4578	0.7276225
173	0x3d9cd6fd	0.07658193
174	0xbe67dceb	-0.22642867
175	0xbcd4b3b7	-0.025964601
176	0xbe940002	-0.28906256
177	0xbc9a0100	-0.018799305
178	0x3e6a482e	0.22879097
179	0xbe3bea84	-0.1835118
180	0x3f2b2820	0.668581
181	0xbbb7b8b3	-0.0056067347
182	0xba8609da	-0.0010226325
183	0x3ef8f763	0.4862624
184	0xbe988529	-0.29789093
185	0xbeb4d738	-0.3532045
186	0xbc72404b	-0.014785836
187	0xbc8cd31e	-0.017190512
188	0x3bf6c1b6	0.0075304164
189	0x3e0712ab	0.13190715
190	0x3e394f07	0.18096553
191	0x3f94b55e	1.1617849
192	0x3ea025ab	0.31278738
193	0xbecc3ac4	-0.39888585
194	0x3d2efb75	0.042720277
195	0xbca28850	-0.01984039
196	0x3de06025	0.10955838
197	0xbdcd380d	-0.100204565
198	0x3e0826ae	0.13296005
199	0xbea1709f	-0.31531236
200	0x3e62708e	0.22113249
201	0x3f081969	0.5316377
202	0xbc34dd0b	-0.011039029
203	0xbe95c49c	-0.29251564
204	0xbefeeccd	-0.4979004
205	0xbc09e1f2	-0.008415686
206	0xbb44f6e2	-0.003005438
207	0x3d9e439b	0.077277385
208	0xbc4ee18b	-0.012627016
209	0x3f59b01f	0.85034364
210	0x3a58c40e	0.00082689605
211	0xbb9fdf4c	-0.004878914
212	0xbb61a692	-0.003443156
213	0x3fa3d3ee	1.2799051
214	0x3eebdbe9	0.46066216
215	0x3bb920d1	0.005649664
216	0x3e66f28d	0.22553463
217	0x3e07d6d6	0.13265547
218	0x3d28e8c1	0.041237596
219	0xbdf27028	-0.11837798
220	0x3d800fbf	0.06253003
221	0x3cf048dc	0.029331617
222	0xbe34b49a	-0.17647019
223	0x3b2320a8	0.002489129
224	0xbaa53258	-0.0012603505
225	0xbf22c085	-0.6357501
226	0x3d0d4d27	0.034497406
227	0x3f034b43	0.51286715
228	0x3badcb1e	0.0053037545
229	0xbcad5db5	-0.021162847
230	0x3af31b82	0.0018547627
231	0xbdf31106	-0.11868481
232	0x3e51cf73	0.20489292
233	0x3fa26c01	1.268921
234	0x3f77e9b9	0.9684101
235	0xbb9eacaa	-0.0048423605
236	0xb915dd93	-0.0001429229
237	0xbe71b29e	-0.23603293
238	0xbe088566	-0.13332137
239	0xbefd7d8f	-0.49509856
240	0xbfe6deef	-1.8036784
241	0xbc35afc7	-0.011089272
242	0x3b34625b	0.0027524445
243	0xbf33dbf0	-0.70257473
244	0xbe978e6f	-0.29600856
245	0x3e768605	0.24074562
246	0xbb62ee39	-0.0034626855
247	0xbb41930b	-0.0029537107
248	0xbb138964	-0.002251231
249	0x4000cd7a	2.0125413
250	0xbea6e541	-0.32596782
251	0xbe25d1c5	-0.16193302
252	0xbf012db8	-0.50460386
253	0xb923d641	-0.00015624707
254	0x3b41d35e	0.0029575448
255	0x3e711c64	0.23545986

encoder.1.bias f4 [50]
0	0x3e70e174	0.23523504
1	0xb9530e1a	-0.00020127781
2	0xbca0df37	-0.019637687
3	0xbe0a1c84	-0.1348744
4	0xbdc3c49e	-0.09558986
5	0xbf02a043	-0.5102579
6	0xbdfe29de	-0.12410329
7	0xbe10fa4a	-0.14157978
8	0xbe8942a5	-0.26808658
9	0xbeaa32eb	-0.33241972
10	0x3df612f4	0.12015334
11	0xbec95059	-0.39319113
12	0xbf3216c6	-0.69566
13	0x3e0f6891	0.14004733
14	0x3c408f5a	0.011752928
15	0x3e8e5429	0.27798584
16	0xbebb889e	-0.36627668
17	0x3cd95187	0.026528133
18	0xb94a77e5	-0.00019308885
19	0xbe891f76	-0.26781815
20	0x3d51b2f6	0.05119606
21	0xbe0f18c0	-0.13974285
22	0x3c9d43e0	0.019197404
23	0xbebe57a2	-0.37176234
24	0xbe0e5fb5	-0.13903697
25	0xbe8ff7e2	-0.28118807
26	0x3c24fae3	0.010069582
27	0x3c7f3bdf	0.015578239
28	0xbeb11a86	-0.34590548
29	0xbe76593c	-0.24057478
30	0xbeb69e3d	-0.356676
31	0xbe7255d1	-0.23665549
32	0xbed6afba	-0.41930944
33	0xbe9e68e7	-0.3093941
34	0xba589f78	-0.0008263509
35	0x39bcf10e	0.00036037754
36	0xbeb29a41	-0.3488331
37	0x3db2b282	0.08725454
38	0xbe8bbcd7	-0.2729251
39	0xbf12f48c	-0.574044
40	0x3c9c1a90	0.019055635
41	0x39ef9f2c	0.00045704225
42	0x3c00f472	0.00787078
43	0xbe8df15c	-0.27723205
44	0xbf06d95c	-0.52675414
45	0x3bd34bf8	0.006448265
46	0xbba8acbc	-0.0051475447
47	0x3d023a8d	0.03179412
48	0xbe8b3ce0	-0.2719488
49	0x3ac57403	0.0015064481

encoder.4.weight f4 [50, 50]
0	0x3d82ea10	0.063923
1	0xbeb175c5	-0.34660164
2	0xbda2b4d9	-0.0794465
3	0xbde1f399	-0.11032791
4	0xbe564e4b	-0.20928304
5	0x3df00e40	0.11721468
6	0xbc925f70	-0.017867774
7	0x3d845d99	0.06463165
8	0x3d3030a6	0.043015145
9	0x3db59cff	0.08867835
10	0x3e32e7b8	0.17471206
11	0x3bae263c	0.0053146165
12	0xbdc426ef	-0.095777385
13	0x3cc18b38	0.023625955
14	0x3e37a7cd	0.17935105
15	0xba9654d2	-0.001146937
16	0xbe0d8d00	-0.13823318
17	0xbb0d4a67	-0.002155924
18	0xbeb2aa61	-0.34895614
19	0xbdca92af	-0.09891259
20	0xbd9115b0	-0.07084215
21	0x3d070105	0.032959957
22	0x3e4860b4	0.1956814
23	0xbccfe608	-0.025378242
24	0x3d8c1995	0.06840817
25	0xbd0dfae4	-0.034663096
26	0x3d980144	0.074221164
27	0x3e76d4a7	0.24104558
28	0x3d10959e	0.035298936
29	0x3dce661a	0.10078068
30	0x3e26d851	0.16293456
31	0xbd377b63	-0.044795405
32	0x3d19eb07	0.037577655
33	0x3d8cd8cc	0.06877288
34	0x3d864486	0.065560386
35	0xbe71f013	-0.23626737
36	0xba08d94d	-0.00052203686
37	0xbd0cc274	-0.034365132
38	0x3d6f7b7e	0.05846738
39	0x3e590fa9	0.2119738
40	0x3e4766ac	0.1947276
41	0xbea18608	-0.3154757
42	0x3bc3ef65	0.005979466
43	0xbd914c66	-0.0709465
44	0x3eb38329	0.35061005
45	0xbc850dc9	-0.016241925
46	0xbe882ccf	-0.26596686
47	0xbc4fea30	-0.012690112
48	0x3d3336fa	0.0437536
49	0xbdad54c5	-0.08463434
50	0x3dc90150	0.098147035
51	0x3b2285e3	0.002479904
52	0x3d926edc	0.07150051
53	0xbdf3ee5e	-0.11910699
54	0xbb0b7a61	-0.002128266
55	0x3e5620f8	0.20911014
56	0xbd93218b	-0.07184132
57	0x3c8ca7eb	0.017169913
58	0xbbb3a2c1	-0.0054820483
59	0x3d99179c	0.07475206
60	0x3cb6cdae	0.022314873
61	0xbdd998ba	-0.106248334
62	0xbde86c42	-0.113487735
63	0x3e02d8da	0.12778035
64	0x3d3a1bb4	0.045436576
65	0xbd712c36	-0.058880053
66	0xbe04cd4f	-0.12968944
67	0x3babf02e	0.0052471375
68	0x3ad9510c	0.001657994
69	0x3c85eda1	0.016348662
70	0x3aacc42e	0.0013181025
71	0xbd00894d	-0.03138094
72	0x3e2e20a9	0.17004646
73	0x3d530242	0.051515825
74	0x3d5afe12	0.053464957
75	0xbd9c7879	-0.07640166
76	0x3e985735	0.29754034
77	0x3e926259	0.28590658
78	0xbc5bd511	-0.013417498
79	0x3e063ae8	0.13108408
80	0xbde37395	-0.1110603
81	0xbe0299f1	-0.12754036
82	0x3cdd6365	0.027024934
83	0x3d1734a1	0.036915425
84	0x3e1b580b	0.15170304
85	0xbd3bc7cd	-0.04584484
86	0x3dc3176b	0.09525951
87	0x3a692661	0.00088939635
88	0xbe052032	-0.13000563
89	0x3e73c9b5	0.23807414
90	0x3e5d8466	0.21632537
91	0xbcafd83a	-0.02146541
92	0xbdaf004f	-0.08544981
93	0xbdc0ab0e	-0.09407626
94	0x3e079ab4	0.13242608
95	0x3e0b5bbc	0.13609213
96	0xbdff264a	-0.12458475
97	0xbdc2ff05	-0.09521297
98	0xbd5e47d9	-0.054267738
99	0x3d29039f	0.04126322
100	0x3cfc868b	0.030825874
101	0xbe9ef19f	-0.31043717
102	0x3de63cbf	0.11242055
103	0x3c8429d5	0.016133228
104	0xbc5a6752	-0.013330298
105	0xbdab76a4	-0.08372238
106	0xbd39ccbc	-0.045361266
107	0xba18e8ed	-0.00058330485
108	0xbe44c4cf	-0.19215702
109	0x3e0ff1a1	0.14057018
110	0x3c6749d3	0.014116722
111	0x3e09a6d7	0.1344255
112	0x3e025ebc	0.12731451
113	0x3df47d78	0.11937994
114	0xbe5f06a8	-0.21779883
115	0x3c5ed576	0.013600698
116	0xbd675976	-0.0564818
117	0xbd42db24	-0.04757227
118	0xbe502b24	-0.20328957
119	0x3da14c85	0.07875923
120	0x3e456aac	0.19278973
121	0xbde02e5c	-0.10946342
122	0xbe61f322	-0.22065404
123	0x3d2c5687	0.042074706
124	0xbccac560	-0.024752319
125	0x3d8655e3	0.0655935
126	0x3d4dfabd	0.05028795
127	0xbc8baee4	-0.017051168
128	0xbe47d20c	-0.1951372
129	0xbd275bc2	-0.04085899
130	0xbe41efb4	-0.18939096
131	0xbd4b36ca	-0.049612798
132	0x3dc8c7ac	0.098037094
133	0xbe0a6d9e	-0.13518378
134	0xbc7ad18c	-0.015308749
135	0xbe0375a9	-0.12837853
136	0x3ddd6b14	0.10811439
137	0x3dfa3278	0.122166574
138	0xbd087634	-0.033315852
139	0xbe6c7972	-0.23093203
140	0xbd084ca7	-0.033276226
141	0xbe189a3b	-0.14902584
142	0xbddc0cca	-0.10744627
143	0xbbca8a62	-0.0061810473
144	0xbe18a887	-0.14908038
145	0x3dd566e2	0.10420014
146	0x3d85a9e7	0.06526547
147	0xbdc367f5	-0.095413126
148	0xbdd062f9	-0.101751275
149	0xbe0f9ee8	-0.14025462
150	0xbe4192b1	-0.18903615
151	0xbe5d2b69	-0.21598591
152	0x3ca91d23	0.020643776
153	0xbc5f0f32	-0.013614463
154	0xbd1a2b15	-0.037638742
155	0x3e51ec1c	0.20500225
156	0x3e00b511	0.12569071
157	0x3d69b0ba	0.057053305
158	0x3d37e173	0.04489274
159	0xbde96a89	-0.11397273
160	0xbcb07d44	-0.021544106
161	0xbdf616b6	-0.120160505
162	0x3dd332c7	0.103124194
163	0xbe31c467	-0.17360078
164	0x3cc3afe4	0.023887582
165	0xbe422f14	-0.18963271
166	0xbdc81e37	-0.09771388
167	0xbe8cd90d	-0.27509347
168	0xbe583c4e	-0.21116754
169	0xbd84690e	-0.0646535
170	0xbe985860	-0.29754925
171	0x3dcce04f	0.10003721
172	0xbd8a572c	-0.06754908
173	0xbc8a3584	-0.016871221
174	0xbc3673da	-0.01113602
175	0x3d708f2a	0.058730282
176	0xbd7f516d	-0.062333513
177	0xbc8b7ff4	-0.017028786
178	0x3d8aedd7	0.067836456
179	0x3dc7dd13	0.097589634
180	0x3e3eff03	0.18651967
181	0xbdbe2834	-0.09285012
182	0xbd1189db	-0.03553186
183	0xbddff7ed	-0.1093596
184	0x3d7db7f5	0.061943013
185	0xbe24ec1e	-0.16105697
186	0x3cb20d3c	0.021734826
187	0xbe8a7078	-0.27038932
188	0x3cadb170	0.021202773
189	0x3e58f68d	0.21187802
190	0xbdbe1970	-0.092821956
191	0xbe6054cf	-0.21907352
192	0xbe31600b	-0.17321794
193	0x3e071197	0.13190304
194	0x3e995747	0.299494
195	0xbd7af9c4	-0.06127335
196	0xbe702d9c	-0.23454899
197	0x3d7a4086	0.06109669
198	0x3da9183b	0.08256575
199	0xbded7867	-0.115952305
200	0x3e2f0f6d	0.17095728
201	0xbdcee118	-0.10101527
202	0xbd97dc02	-0.0741501
203	0x3ee2f65c	0.44328582
204	0xbe12952e	-0.1431472
205	0x3e87de6f	0.2653689
206	0xbd9e8d8b	-0.07741841
207	0x3dc0d770	0.094160914
208	0x3c0ef0f7	0.008724443
209	0xbdc0f032	-0.094208136
210	0xbd41a709	-0.047278438
211	0x3de44eda	0.11147852
212	0xbd879fc8	-0.06622273
213	0xbd7093c0	-0.058734655
214	0x3d71fe55	0.05908044
215	0xbd1b9b0a	-0.037989654
216	0xbdf9c194	-0.12195125
217	0x3d9f0686	0.07764916
218	0xbe51d079	-0.20489682
219	0x3d09e286	0.033663295
220	0x3a3e43b9	0.0007258016
221	0xbd302140	-0.04300046
222	0xbd792a80	-0.060831547
223	0x3daafc55	0.0834891
224	0xbda5f1c2	-0.08102752
225	0x3d876101	0.06610299
226	0x3dafa9e5	0.08577327
227	0x3da7a6c7	0.08186107
228	0xbbd00238	-0.0063479207
229	0x3d68c206	0.05682566
230	0xbdc4a813	-0.0960237
231	0x3ea1a5fc	0.3157195
232	0xbd5c61ac	-0.053804085
233	0x3d4a8e28	0.049451977
234	0x3e552305	0.2081414
235	0x3c9f14af	0.019419042
236	0xbe07883c	-0.13235563
237	0xbd87978c	-0.06620702
238	0x3ea85149	0.32874516
239	0x3dcef9af	0.10106217
240	0xbc24f584	-0.010068301
241	0xbe69f9d6	-0.22849211
242	0xbd26b1f7	-0.040697064
243	0x3d12627d	0.035738457
244	0xbd9f97f8	-0.077926576
245	0x3d4de84a	0.050270356
246	0x3caca731	0.021075817
247	0xbddf550c	-0.10904893
248	0xbd696c04	-0.056987777
249	0x3e1d155b	0.15340178
250	0xbde27c2f	-0.110588424
251	0xbc21a764	-0.009866569
252	0xbda782f7	-0.081792764
253	0x3e9ba8df	0.30402276
254	0xbcd72956	-0.026264828
255	0x3e80b9d8	0.25141788

encoder.4.bias f4 [50]
0	0xbb05eda7	-0.0020435841
1	0xbc52150f	-0.012822404
2	0x3bfe09a5	0.0077526146
3	0x3c2c7596	0.010526082
4	0xbbd0881d	-0.006363882
5	0xbac61634	-0.0015112818
6	0xbf21de92	-0.6323024
7	0xbbab14ed	-0.0052210004
8	0xbe2d7579	-0.16939344
9	0xbc899f96	-0.01679973
10	0xbc933f8a	-0.017974634
11	0x3c366e2a	0.011134664
12	0xb958911c	-0.00020653423
13	0xbb3e6510	-0.0029051937
14	0xbe2afe48	-0.16698563
15	0xbc5b5f89	-0.013389477
16	0x3bf5b26a	0.0074980753
17	0xbc11478d	-0.008867157
18	0xbc84f338	-0.016229257
19	0xbf0bf5ee	-0.54672134
20	0xbdc345c3	-0.0953479
21	0xbbdfd3e3	-0.006830679
22	0xbe7cb71b	-0.24679224
23	0xbbcff70a	-0.006346588
24	0x3a6bb6c4	0.0008991773
25	0xbc2e10ba	-0.010624105
26	0xbc06beca	-0.008224199
27	0xba455adb	-0.0007528492
28	0x3b909580	0.004412353
29	0xbba62dc9	-0.005071376
30	0xbb620b21	-0.0034491497
31	0xbc4c00df	-0.01245138
32	0x3c581adf	0.01319
33	0xbe10a456	-0.14125189
34	0xbe44cd6b	-0.19218986
35	0xbe375a62	-0.17905572
36	0xbe85a12b	-0.26099524
37	0xbd47d0de	-0.048783176
38	0xbf021957	-0.50819916
39	0x3a2adcdf	0.0006517898
40	0x3bd0d7b7	0.0063733715
41	0xbe022616	-0.12709841
42	0xbc08948b	-0.008336197
43	0xbd95abee	-0.073081836
44	0xbe3026bb	-0.17202275
45	0x3c379ea5	0.011207257
46	0xbe1e28a2	-0.15445188
47	0xbb4618ad	-0.003022711
48	0xbb91739d	-0.004438831
49	0x3c471e17	0.01215317

encoder.7.weight f4 [20, 50]
0	0x3ddd8a9c	0.10817453
1	0x3dcbda8f	0.09953796
2	0x3bdd625f	0.0067561115
3	0xbe8710b9	-0.26379946
4	0x3ad531a5	0.0016265406
5	0x3d117c52	0.03551895
6	0xbd9cab37	-0.07649844
7	0x3f1f9679	0.6233898
8	0xbdb6962d	-0.089153625
9	0x3ea20825	0.3164684
10	0x3e169bbf	0.1470785
11	0xbe876c08	-0.2644961
12	0xbeadab50	-0.33919764
13	0xbe47398d	-0.19455548
14	0xbe03e299	-0.12879409
15	0x3e990ff5	0.29894987
16	0x3c4da51a	0.01255157
17	0x3ed125eb	0.40849242
18	0xbe19364e	-0.14962122
19	0xbd364fbb	-0.04450963
20	0xbd915af0	-0.07097423
21	0x3ead908f	0.33899352
22	0xbe1a2e78	-0.15056789
23	0x3ee69dd7	0.45042297
24	0xbd97097a	-0.073748544
25	0x3f07e6b0	0.53086376
26	0x3ed12491	0.4084821
27	0x3f0bd53d	0.5462225
28	0xbe2ee194	-0.17078239
29	0xbd3d3c83	-0.046200287
30	0xbe50df78	-0.20397747
31	0x3ee5b747	0.44866392
32	0xbe2d271c	-0.1690945
33	0xbc1ecb74	-0.009692062
34	0xbdb52ba8	-0.088462174
35	0xbd6309ac	-0.055429146
36	0xbd4f194a	-0.050561227
37	0x3c7948fb	0.015215154
38	0x3dd3657e	0.103220925
39	0xbe727647	-0.23677932
40	0xbe153382	-0.1457043
41	0xbdc22d2b	-0.09481271
42	0x3e130363	0.1435676
43	0x3e02e373	0.12782077
44	0x3e04498d	0.12918682
45	0xbe66703d	-0.22503753
46	0xbdb832f6	-0.08994095
47	0x3dcf7f9e	0.10131763
48	0xbe84ec99	-0.2596176
49	0xbe88cac1	-0.2671719
50	0x3d5f193a	0.054467417
51	0xbc9c6f1c	-0.01909595
52	0xbdac393d	-0.08409355
53	0xbc40e47d	-0.011773226
54	0x3e7c81fc	0.2465896
55	0x3eb2473e	0.34819978
56	0xbd8c709b	-0.06857415
57	0x3e514003	0.20434575
58	0x3dfabdaf	0.122432105
59	0x3e894155	0.26807657
60	0x3e63aa39	0.22232904
61	0x3ce9fda6	0.028563332
62	0xbc05097c	-0.008119937
63	0xbd0a2c61	-0.03373373
64	0x3df25ef0	0.11834514
65	0x3d0d2a20	0.034464
66	0xbc71a21a	-0.014748121
67	0x3e97f1f1	0.29676774
68	0x3cbdef02	0.023185257
69	0x3dba4ca7	0.090966515
70	0x3b6101b0	0.0034333281
71	0x3dcd1190	0.100131154
72	0xbcfd2e4c	-0.030905865
73	0x3e7994b0	0.24373126
74	0x3e0ce08e	0.13757536
75	0x3d146b75	0.03623529
76	0x3e561377	0.20905863
77	0x3dcaac82	0.098961845
78	0x3ddf49c1	0.10902739
79	0x3e48c619	0.19606818
80	0xbabdabab	-0.0014470717
81	0x3d727726	0.05919566
82	0x3dab5950	0.083666444
83	0xbd59d10f	-0.05317789
84	0x3d5eb3aa	0.05437056
85	0xbd3dd72c	-0.046347782
86	0x3d776334	0.06039734
87	0x3a4581a0	0.0007534269
88	0x3de15125	0.11001805
89	0xbcb0855a	-0.021547962
90	0x3d91892c	0.071062416
91	0xbd6771eb	-0.056505125
92	0x3d214dab	0.03938071
93	0x3e83e455	0.2576014
94	0xbd0e7957	-0.034783687
95	0x3d0da270	0.03457874
96	0x3dafdc82	0.085869804
97	0x3c035f60	0.008018345
98	0xbd2ad8ba	-0.041710593
99	0x3d5ac50d	0.05341058
100	0x3ed4d8b6	0.41571587
101	0x3e22f05a	0.15912
102	0xbe96a99f	-0.29426286
103	0x3e872d68	0.2640183
104	0xbe7ad307	-0.24494563
105	0xbe9ae705	-0.3025438
106	0xbe78bcb8	-0.2429074
107	0xbdb222fe	-0.086980805
108	0xbe372a53	-0.17887239
109	0xbe17d2bf	-0.14826487
110	0xbeef2b2c	-0.46712625
111	0x3a18f920	0.00058354624
112	0x3cab76fb	0.020930758
113	0xbddccd80	-0.107813835
114	0x3d7b2ed9	0.061323974
115	0xbe51d53e	-0.20491502
116	0xbe812df8	-0.25230384
117	0xbe19187b	-0.14950745
118	0x3d0a9bab	0.033839863
119	0xbe25fb29	-0.16209091
120	0xbe742634	-0.23842698
121	0xbdfa780b	-0.12229928
122	0xbefc2be9	-0.4925225
123	0xbe28089b	-0.16409533
124	0xbe067dff	-0.13134001
125	0xbd671914	-0.0564204
126	0x3c3c0c18	0.011477493
127	0xbe28a95e	-0.16470858
128	0x3e8bb5b5	0.2728707
129	0xbe330b44	-0.17484766
130	0x3d075c8b	0.03304724
131	0xbde7636e	-0.112982616
132	0x3d297389	0.04136995
133	0x3de5419a	0.11194153
134	0xbe5f90a3	-0.21832518
135	0x3caa275d	0.020770723
136	0xbe8dd9eb	-0.2770532
137	0x3d4b0a6c	0.049570486
138	0xbe561faf	-0.20910524
139	0x3ca2dfae	0.01988205
140	0x3eb0a8db	0.34503826
141	0x3dc7fce6	0.097650334
142	0xbe9992b8	-0.2999475
143	0xbeb3ad23	-0.3509303
144	0x3e0246e2	0.12722352
145	0x3d9211d1	0.071323045
146	0x3d4ff4c2	0.05077053
147	0x3edebc24	0.43502915
148	0x3c27c4ee	0.010239823
149	0x3e5639a0	0.2092042
150	0x3cfd93f9	0.030954348
151	0x3e0c0b9f	0.13676308
152	0xbde5a2cb	-0.11212691
153	0x3980fc8d	0.00024602227
154	0xbd0d786a	-0.034538664
155	0xbd617dbe	-0.055051558
156	0xbd3291ce	-0.04359608
157	0x3e11b458	0.14228952
158	0xbe031b0b	-0.12803285
159	0x3efa8928	0.48932767
160	0x3e209609	0.15682234
161	0x3cacf072	0.021110747
162	0x3e353313	0.17695265
163	0x3e778102	0.24170306
164	0x3d1dc669	0.038519297
165	0xbcf237e4	-0.029567666
166	0xbd81415d	-0.06311295
167	0x3e0ab25a	0.13544598
168	0x3e883ffa	0.2661131
169	0xbe3a9abf	-0.18223093
170	0xbcdde971	-0.027088853
171	0x3e555bd8	0.20835817
172	0x3e7e44e5	0.24830969
173	0x3e3d375b	0.18478148
174	0x3e1ae437	0.1512612
175	0x3e7c380b	0.24630754
176	0x3e89c537	0.26908275
177	0x3e3be94a	0.18350711
178	0xbb8496e5	-0.0040463083
179	0x3dfc97d6	0.12333648
180	0x3e8251d1	0.25453046
181	0x3ca64c6c	0.020300113
182	0x3d0097b0	0.03139466
183	0x3cedab37	0.029012306
184	0x3eaf5f29	0.3425229
185	0xbd8c4c23	-0.068504594
186	0xbd307335	-0.04307862
187	0x3ed3edf1	0.41392472
188	0xbd0ce26f	-0.03439563
189	0x3d84f982	0.06492902
190	0xbc44fb7a	-0.012022847
191	0xbd7c4838	-0.06159231
192	0xbc0c7ce4	-0.008574698
193	0x3ee2da82	0.44307333
194	0x3e06f31c	0.13178676
195	0xbc93d279	-0.018044697
196	0xbdc2fb2e	-0.09520565
197	0x3d2e8f6a	0.04261724
198	0x3ddbc5dd	0.10731099
199	0xbbcbef98	-0.00622363
200	0xbe96dd5a	-0.29465753
201	0x3ceba777	0.028766377
202	0xbdea8641	-0.11451388
203	0xbe6f563e	-0.23372743
204	0xbd9cdc67	-0.07659226
205	0xbe05cc9c	-0.13066334
206	0xbdd71c23	-0.105034135
207	0xbc946c23	-0.01811797
208	0xbe37c330	-0.17945552
209	0x3dbfb616	0.09360902
210	0x3d422a35	0.047403533
211	0x3c4f6e41	0.012660564
212	0x3e86337b	0.2621115
213	0x3e963a7d	0.29341498
214	0x3c361c58	0.011115156
215	0xbe1a03d2	-0.1504052
216	0xbdcad3ee	-0.09903704
217	0x3be7165a	0.007052225
218	0x3e175115	0.14777024
219	0xbe439244	-0.19098765
220	0xbd18c00a	-0.037292518
221	0xbe0dc658	-0.13845193
222	0x3ea682b6	0.325216
223	0x3cc5b459	0.024133848
224	0x3ec2b85c	0.3803128
225	0xbcb81e8d	-0.022475505
226	0xbd1e3c86	-0.03863194
227	0x3cc35c92	0.023847852
228	0xbdd541b6	-0.10412924
229	0x3d796bdd	0.060893882
230	0x3e707e5c	0.23485702
231	0xbde70a83	-0.11281302
232	0xbc5d6953	-0.013513881
233	0xbd661cbc	-0.056179747
234	0x3d983ff2	0.074340716
235	0xbd117fd2	-0.03552229
236	0xbd9b5f1a	-0.075864986
237	0x3e887740	0.2665348
238	0xbcb5b816	-0.022182506
239	0x3e820472	0.25394017
240	0xbe0f3122	-0.13983586
241	0x3dfb9003	0.122833274
242	0x3e37719a	0.1791443
243	0x3e477ba4	0.19480759
244	0x3d67869b	0.056524854
245	0xbe13063d	-0.14357848
246	0x3d6ba23f	0.057527777
247	0xbe8c80f4	-0.27442133
248	0x3e84b39c	0.2591828
249	0xbe0dae06	-0.13835916
250	0xbe8759cf	-0.26435706
251	0xbe81ff9d	-0.2539033
252	0x3e003b19	0.12522544
253	0xbe4e27ff	-0.20132445
254	0x3edf6e62	0.43638903
255	0x3e980e67	0.29698488

encoder.7.bias f4 [20]
0	0x3b87341b	0.0041260845
1	0xbbe4c8af	-0.006981931
2	0xbac5a5d2	-0.0015079326
3	0xba3fe57b	-0.0007320267
4	0xbab9fae7	-0.0014189155
5	0x3bf26268	0.007396985
6	0xbeea82f4	-0.45803034
7	0xbf696dbb	-0.9118306
8	0x3ba8f235	0.0051558265
9	0xbbbf1e12	-0.005832442
10	0xbe509fe4	-0.20373493
11	0x3baab048	0.0052090026
12	0xbe9e8f10	-0.30968523
13	0x3a7d741e	0.0009668487
14	0xb9db7f9a	-0.00041866006
15	0xbab0a058	-0.001347552
16	0xbb928668	-0.004471589
17	0x3b554968	0.0032544974
18	0x3b3fd0b5	0.0029268686
19	0xbedcdd03	-0.4313737

encoder.10.weight f4 [4, 20]
0	0x3f2dfd58	0.67964697
1	0x3e2ac2f9	0.16675939
2	0xbf44f8f7	-0.7694239
3	0xbe645d3a	-0.22301188
4	0xbed79f22	-0.42113596
5	0x3f19090a	0.5977942
6	0x3f1dbca3	0.6161596
7	0x3f9452cc	1.1587768
8	0x3f1a761e	0.6033648
9	0xbeef28cf	-0.46710822
10	0xbe3bda0f	-0.18344902
11	0x3f18b38b	0.5964896
12	0x3e49bc0a	0.19700637
13	0x3f49c4bd	0.78815824
14	0xbee35d8d	-0.4440731
15	0x3f581f4c	0.84422755
16	0xbe682ec2	-0.22674087
17	0xbe84befe	-0.25926965
18	0xbeb84161	-0.3598738
19	0x3f6fb5fc	0.9363706
20	0xbea47daa	-0.32127124
21	0xbf1cd416	-0.6126112
22	0xbeef7aa1	-0.46773246
23	0xbe06e4e1	-0.13173248
24	0x3f239645	0.6390117
25	0xbeb8b011	-0.36071828
26	0x3dbedc87	0.09319406
27	0x3f07862f	0.5293912
28	0xbe524f9a	-0.20538178
29	0xbedb49ea	-0.4282983
30	0xbde6b2bd	-0.1126456
31	0xbebe6adb	-0.371909
32	0xbd81d759	-0.063399024
33	0xbeaf2eb7	-0.34215328
34	0x3f29502b	0.6613795
35	0xbeb27bfe	-0.34860224
36	0xbe231603	-0.15926366
37	0x3e8b2019	0.27172926
38	0x3f05bbe0	0.522398
39	0x3e71201f	0.2354741
40	0xbf278551	-0.654378
41	0x3e527109	0.20550932
42	0x3ec60c63	0.38681325
43	0xbe071b3a	-0.1319398
44	0x3f0e7b4a	0.55656874
45	0x3ef1eb4b	0.47249827
46	0x3e65af17	0.22430073
47	0x3c0b1a9c	0.008490231
48	0xbf19fd05	-0.601517
49	0x3eb968ba	0.36212713
50	0xbe4136d2	-0.18868569
51	0x3e92c4c6	0.2866575
52	0x3e79cc83	0.24394421
53	0xbf3ad3af	-0.72979254
54	0x3f1426a7	0.5787148
55	0xbf4a27cc	-0.78966975
56	0xbe457e4c	-0.1928646
57	0x3e7914f2	0.24324396
58	0x3efd71f1	0.49500993
59	0xbd2d5585	-0.042317886
60	0x3ee51598	0.44743037
61	0xbe3d0443	-0.18458657
62	0x3eee0819	0.46490553
63	0xbee31460	-0.44351482
64	0xbeb5351c	-0.35392082
65	0xbe2ddb94	-0.16978294
66	0xbe0605e8	-0.1308819
67	0xbecf0918	-0.40436625
68	0x3ea9a62f	0.331346
69	0x3e9311a7	0.28724405
70	0xbe130309	-0.14356627
71	0xbe1a42a7	-0.15064488
72	0xbe3d3ab8	-0.1847943
73	0x3f0d47f9	0.55187947
74	0xbebd1844	-0.36932576
75	0x3f1755eb	0.59115475
76	0xbef48340	-0.47756386
77	0xbe8cb54e	-0.27482074
78	0xbe963c14	-0.2934271
79	0xbe9487cc	-0.29009855

encoder.10.bias f4 [4]
0	0xbe24c508	-0.16090786
1	0xbe27aa6e	-0.16373608
2	0x3e35b48e	0.17744657
3	0x3e42e0e5	0.19031103

decoder.0.weight f4 [20, 4]
0	0xbe6a360d	-0.22872181
1	0x3e42d942	0.1902819
2	0x3f2912e2	0.6604444
3	0x3fae6ace	1.3626344
4	0x3eb8a8e0	0.3606634
5	0xbeb91a39	-0.3615282
6	0xbf1692a1	-0.5881749
7	0x3f18e3f7	0.59722847
8	0xbe5f4f29	-0.21807541
9	0xbe419705	-0.18905266
10	0x3f3b606b	0.73194
11	0x3f1d1dcf	0.6137361
12	0xbdb07953	-0.08616891
13	0xbf7ce826	-0.9879173
14	0xbf711fbb	-0.9418904
15	0x3f57277f	0.8404464
16	0xbb0829eb	-0.0020776938
17	0x3e16b66a	0.14718023
18	0x3eb07a94	0.3446852
19	0x3f45c79d	0.7725771
20	0x3f44b569	0.7683931
21	0xbea53bd4	-0.32272208
22	0x3dd7b60d	0.1053277
23	0xbf5dab6b	-0.8658969
24	0x3f96e4af	1.1788539
25	0xbe0ed29c	-0.13947529
26	0x3f005af7	0.501388
27	0xbf1ece49	-0.62033516
28	0x3f014b04	0.5050509
29	0xbe8533f9	-0.26016214
30	0xbf0cf9fe	-0.5506896
31	0xbecb8644	-0.39750874
32	0xbeb5b6d7	-0.35491058
33	0x3f2877b9	0.6580768
34	0xbdfa59dd	-0.12224171
35	0xbed1381b	-0.40863118
36	0x3e74cced	0.23906298
37	0x3ee92f81	0.45544055
38	0x3e68ad85	0.22722442
39	0xbee5fb90	-0.4491849
40	0xbe595e0e	-0.21227285
41	0x3eb32679	0.3499029
42	0x3ea156ab	0.31511435
43	0xbe1d5378	-0.15363872
44	0xbfaf175d	-1.3679005
45	0x3efd48b7	0.4946954
46	0xbebfc111	-0.37451985
47	0x3f1c5644	0.6106913
48	0x3de5a026	0.112121865
49	0xbf6f5b54	-0.9349873
50	0xbf07216e	-0.52785385
51	0x3ee44929	0.44587067
52	0x3f011e4c	0.50436854
53	0x3eddb28f	0.43300292
54	0x3de7c224	0.11316326
55	0x3c887049	0.016655104
56	0x3c14a88d	0.009073389
57	0xbeb9bdcd	-0.3627762
58	0xbee0c7fd	-0.4390258
59	0xbe38a589	-0.18031897
60	0x3ea32c34	0.31869662
61	0xbee5b67b	-0.44865784
62	0x3f09c258	0.5381217
63	0xbec59109	-0.38587216
64	0xbf814328	-1.009862
65	0xbe3ee39e	-0.18641517
66	0x3e2396cb	0.15975492
67	0xbee1ed42	-0.44126326
68	0xbf673350	-0.9031267
69	0xbea43a53	-0.32075748
70	0x3f05eb93	0.5231258
71	0xbe0bcc26	-0.13652095
72	0xbf12af0c	-0.5729835
73	0x3f0f3ff6	0.5595697
74	0x3df93062	0.121674314
75	0xbe9dbd36	-0.3080842
76	0x3e407956	0.18796286
77	0xbe86b67d	-0.26311103
78	0xbe4a0a5a	-0.19730511
79	0xbe4eb468	-0.20186007

decoder.0.bias f4 [20]
0	0xbf31cefe	-0.6945647
1	0xbc9373b2	-0.017999504
2	0xbea113a5	-0.314603
3	0x3d023b59	0.03179488
4	0xbe81c5e5	-0.25346294
5	0x3e4320e7	0.1905552
6	0x3e1f07b9	0.1553029
7	0x3eab5fd1	0.3347154
8	0xbe49a56a	-0.19692007
9	0x3ed56cdf	0.41684625
10	0x3e45a799	0.19302215
11	0xbe53f2a1	-0.20698024
12	0x3d9c6434	0.076363
13	0xbed3518e	-0.4127316
14	0xbef24f70	-0.4732623
15	0xbe04e977	-0.12979685
16	0xbe0618ac	-0.13095349
17	0xbe0b2b9c	-0.13590854
18	0x3e9313d0	0.28726053
19	0x3e1ff37b	0.15620224

decoder.2.weight f4 [50, 20]
0	0x3e6a5166	0.22882614
1	0xbeab8ca3	-0.33505735
2	0xbe489446	-0.19587812
3	0xbe57518b	-0.210272
4	0x3ce804ac	0.02832254
5	0x3e0de274	0.13855916
6	0x3c97731b	0.018487504
7	0x3dc81127	0.097688965
8	0x3e33a653	0.17543916
9	0x3e7d31c2	0.24726012
10	0x3c9854d8	0.018595144
11	0x3d9d545d	0.07682107
12	0xbe25b4cb	-0.16182248
13	0x3db0817c	0.08618447
14	0x3e5c7cff	0.21532057
15	0x3e92f596	0.28702992
16	0x3dc84418	0.09778613
17	0x3e40b756	0.18819937
18	0x3ddb7c07	0.10717016
19	0xbe3d8d0c	-0.18510836
20	0xbdf15b15	-0.11784951
21	0xbd39dccc	-0.045376584
22	0xbcbcc0ed	-0.023041213
23	0x3d8bb753	0.06822076
24	0xbe093ff0	-0.13403296
25	0xbe16d40b	-0.14729325
26	0x3e488de8	0.19585383
27	0x3d4f4db7	0.050611224
28	0xbe575cbd	-0.2103147
29	0xbe115904	-0.14194113
30	0x3defd871	0.11711205
31	0x3dd60477	0.1045007
32	0x3dc52da8	0.09627849
33	0xbe1bb6d1	-0.15206458
34	0xbdb00d67	-0.08596306
35	0x3bf305ea	0.0074164765
36	0x3ac2ce7b	0.0014862561
37	0x3e5b9706	0.2144433
38	0xbe4f0cee	-0.20219776
39	0x3e202e86	0.15642747
40	0xbe05b63f	-0.13057803
41	0x3e39f534	0.18159944
42	0x3e32ab47	0.1744815
43	0xbd403aaa	-0.046930946
44	0xbc0d63ad	-0.008629722
45	0x3e211940	0.15732288
46	0x3ddc6c6a	0.10762866
47	0xbbb0add5	-0.005391816
48	0xbdb52def	-0.08846652
49	0x3e0b1cc2	0.13585189
50	0xbcc7a6ca	-0.024371523
51	0xbd1e619c	-0.038667306
52	0x3dea10b9	0.11428971
53	0x3d4b22fd	0.049593914
54	0xbd9fc194	-0.07800594
55	0x3e1d8bea	0.15385404
56	0x3b98c330	0.00466194
57	0xbe05a16e	-0.13049862
58	0xbcdee525	-0.027208874
59	0x3d55e5d7	0.052221145
60	0xbdbab9ba	-0.09117456
61	0x3e0db8d0	0.13840032
62	0xbd604a4d	-0.05475836
63	0xbd3f0cb2	-0.046642967
64	0xbe701a34	-0.23447496
65	0xbbc04508	-0.005867604
66	0x3e0e77ca	0.13912883
67	0x3e89c21b	0.26905903
68	0x3d6e8362	0.058230765
69	0xbc2bce61	-0.010486216
70	0xbd4660be	-0.048432104
71	0x3e24a0f7	0.16077028
72	0x3d8819c0	0.066455364
73	0xbda7d156	-0.081942245
74	0xbe60e328	-0.21961653
75	0x3d919c74	0.07109919
76	0x3dd56500	0.10419655
77	0xbbde9eec	-0.0067938473
78	0x3d864f33	0.06558075
79	0xbd4f9699	-0.05068073
80	0xbede0538	-0.43363357
81	0xbe620301	-0.22071458
82	0x3de96f9e	0.113982424
83	0x3dc87c1e	0.097892985
84	0xbe3cba27	-0.18430386
85	0xbd172dc1	-0.03690887
86	0x3e2c8606	0.16848001
87	0xbe534b22	-0.2063413
88	0xbd97ce87	-0.07412439
89	0xbe5f00e8	-0.2177769
90	0xbe07befd	-0.1325645
91	0x3e6eb884	0.23312575
92	0x3e89aa48	0.26887727
93	0xbe0a8b0e	-0.13529608
94	0xbdcdb7a6	-0.10044794
95	0x3e8b79db	0.27241406
96	0x3e16fad5	0.14744122
97	0x3da9650e	0.08271228
98	0x3e20f8af	0.15719865
99	0x3e16e239	0.14734735
100	0x3df9e8f5	0.12202636
101	0x3e46563d	0.19368835
102	0x3e80c441	0.2514973
103	0xbded31b3	-0.11581745
104	0x3e6ac425	0.22926386
105	0x3e5041d8	0.20337617
106	0x3e638459	0.22218455
107	0xbec5c63c	-0.38627803
108	0x3e3b1084	0.18268019
109	0x3e8e27e0	0.27764797
110	0xbd95bc91	-0.07311357
111	0xbe17ff3c	-0.14843458
112	0xbd84c180	-0.0648222
113	0xbe339289	-0.17536367
114	0x3e0457c8	0.12924111
115	0x3c9df367	0.019281102
116	0xbcba5631	-0.022746177
117	0xbedf0ae6	-0.43563002
118	0x3e397597	0.18111263
119	0x3d3eed37	0.046612944
120	0x3e54a0cd	0.20764466
121	0xbe412be8	-0.18864405
122	0x3d1f1761	0.038840655
123	0xbcef0f08	-0.029181972
124	0x3dfc07ad	0.123061515
125	0x3e3fdb87	0.18736087
126	0xba551e5d	-0.00081298297
127	0xbda58650	-0.08082259
128	0xbddde367	-0.10834389
129	0x3e4cc88c	0.19998378
130	0xbd99b5cf	-0.0750538
131	0x3e085f55	0.13317616
132	0xbdc55dfb	-0.09637066
133	0xbe6357e3	-0.22201495
134	0xbe5382ca	-0.20655361
135	0x3de7b8e8	0.11314565
136	0xbe5d58ec	-0.21615952
137	0xbd896f6c	-0.06710705
138	0xbcdda7ae	-0.027057495
139	0xbdfd70eb	-0.12375053
140	0xbd9d2fd7	-0.0767514
141	0xbd634516	-0.055485807
142	0xbdef5df7	-0.11687844
143	0x3c5bdfb4	0.013420034
144	0xbe23dd83	-0.16002469
145	0x39942440	0.00028255768
146	0x3e3ddede	0.18542048
147	0x3d8ea8a0	0.069657564
148	0x3e3038c0	0.17209148
149	0x3e02d927	0.1277815
150	0xbd18ab1f	-0.03727257
151	0x3e0177ad	0.12643309
152	0x3dbb6595	0.091502346
153	0xbe286d00	-0.1644783
154	0xbe136d92	-0.14397267
155	0xbbc47810	-0.005995758
156	0x3df27d72	0.11840333
157	0x3dadb72b	0.08482202
158	0xbe88490b	-0.26618227
159	0xbc1a6f39	-0.009425932
160	0x3ecc9541	0.39957622
161	0x3e842121	0.25806525
162	0x3e6d260b	0.23159043
163	0xbe596bba	-0.212325
164	0x3e9e75b5	0.30949178
165	0xbca50ef9	-0.020148741
166	0x3e7b613a	0.24548808
167	0xbe5e01da	-0.21680394
168	0x3dceeb24	0.10103443
169	0x3e2539d6	0.16135344
170	0x3e255bcf	0.16148303
171	0x3d215cbb	0.039395075
172	0xbd5c657a	-0.053807713
173	0x3ca7dbaa	0.020490486
174	0xbe251f70	-0.16125274
175	0xbe94dcc0	-0.2907467
176	0xbe392946	-0.18082151
177	0xbe0ccfd3	-0.13751154
178	0x3ddb65ff	0.107128136
179	0x3db8cb97	0.09023207
180	0x3e1c75b5	0.15279277
181	0xbc781990	-0.015142813
182	0x3e4b9d0a	0.19884124
183	0x3e05283f	0.13003634
184	0xbd839bb1	-0.0642618
185	0xbe83ec5d	-0.25766268
186	0xbdd92f1c	-0.106046885
187	0xbde0f0a7	-0.10983401
188	0xbe142e36	-0.14470753
189	0x3dc2f69c	0.09519693
190	0x3e078d28	0.1323744
191	0x3e1a4054	0.15063602
192	0xbca322e7	-0.019914104
193	0xbdea09ff	-0.11427688
194	0x3de2ea94	0.110798985
195	0xbe44a663	-0.19204096
196	0xbe201f29	-0.15636887
197	0x3e1c98f3	0.1529272
198	0x3e2c5997	0.16831051
199	0x3e2af649	0.16695513
200	0xbd3544bb	-0.044255
201	0x3e20334b	0.15644567
202	0xbd3fd590	-0.04683453
203	0xbd2a0297	-0.041506376
204	0x3e513ba8	0.20432913
205	0x3e2c0d2a	0.16801897
206	0x3e4a2905	0.1974221
207	0x3e14c372	0.14527681
208	0x3e3905ea	0.18068662
209	0xbd7bf39c	-0.06151162
210	0x3d9ab12f	0.07553326
211	0x3d65a65d	0.05606686
212	0xbe188ab2	-0.14896658
213	0xbd0f0f7c	-0.034926876
214	0x3d94bd9d	0.07262728
215	0xbe3942aa	-0.18091837
216	0x3e604892	0.21902683
217	0xbe2ae62d	-0.16689368
218	0x3e673ca8	0.22581732
219	0xbd19a2d0	-0.037508786
220	0x3e41b154	0.18915302
221	0x3cffdc51	0.031232985
222	0x3da6b7a2	0.08140494
223	0x3de05fa6	0.109557435
224	0xbdc5cd4b	-0.09658297
225	0xbe29fb21	-0.16599704
226	0xbe6667df	-0.22500561
227	0x3e0718c4	0.13193041
228	0xbda753dd	-0.081702925
229	0xbe37c6e2	-0.17946962
230	0xbe6c917c	-0.23102373
231	0xbe623766	-0.22091445
232	0x3c1b263d	0.009469566
233	0xbdbd2d8e	-0.092372045
234	0xbd7c1533	-0.061543655
235	0xbe590278	-0.21192348
236	0xbe0d231b	-0.13782923
237	0x3db1f936	0.08690111
238	0xbd383eb3	-0.04498167
239	0x3d8ce160	0.06878924
240	0x3d8b58c6	0.068040416
241	0x3e8d3eff	0.27587125
242	0xbc3878c7	-0.011259264
243	0x3ebff8a5	0.37494388
244	0x3d6f899d	0.058480848
245	0xbd072b3f	-0.033000227
246	0x3c55fdab	0.013060967
247	0x3c11cb70	0.008898601
248	0x3e43a001	0.19104005
249	0x3e299e13	0.16564207
250	0x3e071d38	0.1319474
251	0xbe9df0e3	-0.30847844
252	0x3ea7c06e	0.32764
253	0xbddd43a9	-0.10803921
254	0x3dfb9d4e	0.12285863
255	0x3ccc7d25	0.024962017

decoder.2.bias f4 [50]
0	0x3e85801f	0.2607431
1	0xbdb761c6	-0.08954196
2	0x3d0dc00d	0.034606982
3	0x3e2649ac	0.16239041
4	0x3d8d16f0	0.068891406
5	0x3e1eaf62	0.1549659
6	0xbe1e9a64	-0.15488583
7	0x3e55fb8e	0.20896742
8	0x3dff3caa	0.124627426
9	0xbe664fe7	-0.22491418
10	0x3da9f5c2	0.08298828
11	0xbdeadb6b	-0.11467632
12	0xbdf895db	-0.12137958
13	0xbe78f999	-0.24313964
14	0xbdf1afc5	-0.118011035
15	0xbdb7fb26	-0.0898345
16	0xbe954c5e	-0.29159826
17	0x3ddcb18e	0.10776053
18	0xbd7f96a5	-0.062399525
19	0xbddbf8bd	-0.107408024
20	0x3e13d3eb	0.14436309
21	0x3b4043a0	0.0029337183
22	0xbda9e932	-0.082964316
23	0x3c05ec3e	0.008174
24	0x3e742161	0.23840858
25	0x3e148840	0.145051
26	0xbe1ce467	-0.15321504
27	0xbe3b7c63	-0.18309169
28	0x3e0b6868	0.13614047
29	0xbddc49a7	-0.107562356
30	0xbe48b853	-0.19601564
31	0x3d090ceb	0.033459585
32	0x3d98a76f	0.074538104
33	0x3cfce241	0.030869605
34	0xbe24c203	-0.16089635
35	0xbd740a45	-0.059580106
36	0xbe93fd1c	-0.28904045
37	0x3bbe9d75	0.00581711
38	0x3ddd8179	0.108157106
39	0xbdcbfaae	-0.09959923
40	0xbe15879b	-0.1460251
41	0xbdc3795b	-0.09544631
42	0xbe03572b	-0.1282622
43	0xbe48a03f	-0.19592379
44	0x3ed537ed	0.4164423
45	0x3e143137	0.14471899
46	0x3dc93d94	0.09826198
47	0xbda26903	-0.07930186
48	0xbdced927	-0.10100012
49	0xbd481230	-0.04884547

decoder.4.weight f4 [50, 50]
0	0x3d350533	0.04419441
1	0xbe074d7a	-0.13213149
2	0xbda36439	-0.079781
3	0xbd674f1f	-0.05647194
4	0x3c93abc5	0.018026242
5	0xbd589690	-0.052877963
6	0xbdc9b029	-0.09848053
7	0xbd0f4a2c	-0.034982845
8	0xbd803069	-0.062592335
9	0x3cc70eff	0.024299143
10	0x3d8b2fdf	0.0679624
11	0x3c03bef2	0.00804113
12	0xbdd6932d	-0.1047729
13	0xbdd550fa	-0.10415836
14	0x3dfe6905	0.12422375
15	0xbd81b54b	-0.06333407
16	0x3c38eaf6	0.011286488
17	0xbda14ff5	-0.07876579
18	0x3c0e6392	0.008690732
19	0xbcab4d63	-0.020910924
20	0xbdd01b5d	-0.10161469
21	0xbdad189b	-0.08451959
22	0xbdd219f0	-0.102588534
23	0x3dc02308	0.09381682
24	0xbdafb4bc	-0.08579394
25	0x3e09a782	0.13442805
26	0xbe0ce6c7	-0.1375991
27	0xbd77bd23	-0.06048311
28	0xbdf2ea9b	-0.11861154
29	0xbde2a891	-0.11067308
30	0x3e00765c	0.1254515
31	0x3dce9ff9	0.10089106
32	0x3d228eb0	0.03968686
33	0xbb1c9cac	-0.0023897095
34	0xbe05e6b5	-0.13076289
35	0xbde4b6f9	-0.11167712
36	0x3cec3d93	0.028837955
37	0xbd673da8	-0.056455284
38	0xbe0bc557	-0.13649498
39	0x3d1960b9	0.037445758
40	0x3cbb2ade	0.02284759
41	0xbdaf11c1	-0.08548308
42	0x3c91d9d2	0.01780406
43	0xbd9a2813	-0.07527175
44	0xbda69d6b	-0.08135494
45	0x3e046fd3	0.12933283
46	0x3df623ad	0.12018523
47	0xbc05f678	-0.0081764385
48	0xbd9e4653	-0.07728257
49	0xbdb7a90d	-0.08967791
50	0xbdf5d223	-0.12002971
51	0xbddec5f5	-0.10877601
52	0x3da04a7b	0.07826706
53	0x3c42ebf7	0.011897079
54	0xbd4f6c03	-0.050640117
55	0x3e630f26	0.22173747
56	0x3cbc1b29	0.02296217
57	0xbd22ed46	-0.039777063
58	0x3e67f730	0.22652888
59	0x3ce1b660	0.027552783
60	0x3e13c0c2	0.14429
61	0x3dc5183b	0.09623762
62	0x3df034ce	0.11728822
63	0x3e013b15	0.12620194
64	0xbeb6877c	-0.3565024
65	0xbde073ce	-0.10959588
66	0x3e72b5ac	0.23702115
67	0x3c68cfc9	0.014209696
68	0x3daf4797	0.085585766
69	0x3ca3761a	0.019953776
70	0xbe2706db	-0.16311209
71	0x3de4f9df	0.11180472
72	0xbc3ec55f	-0.011643737
73	0x3dc3a944	0.09553769
74	0x3dcc4b86	0.099753425
75	0x3e64b787	0.22335635
76	0x3e2bed6e	0.16789791
77	0xbdc97a0f	-0.09837734
78	0x3e830d25	0.25595966
79	0xbd16ad20	-0.0367862
80	0xbe088359	-0.13331355
81	0xbde12f37	-0.10995334
82	0xbd8c33c9	-0.06845815
83	0x3dec26e7	0.115308575
84	0x3e1e8cfe	0.15483472
85	0xbbee5090	-0.0072727874
86	0x3ce0c4f5	0.027437666
87	0x3e0c4973	0.13699894
88	0xbe083029	-0.13299622
89	0x3e02b9d1	0.12766196
90	0xbe082040	-0.13293552
91	0xbe4178f5	-0.18893798
92	0xbd756744	-0.059912935
93	0x3df9b8a0	0.121934175
94	0x3e77b335	0.24189456
95	0xbd2ab5bf	-0.041677233
96	0xbd127b42	-0.03576208
97	0x3de8000a	0.113281325
98	0xbc9bf085	-0.019035587
99	0x3e3691b4	0.17829019
100	0x3e743db5	0.23851664
101	0xbe17b9ef	-0.14817022
102	0xbd71f3e5	-0.059070487
103	0xbd7840e2	-0.060608752
104	0x3e031e4b	0.12804525
105	0x3d72dd5d	0.05929314
106	0xbde095ec	-0.10966095
107	0xbd7c6424	-0.06161894
108	0x3d2331ea	0.039842524
109	0xbd72382c	-0.0591356
110	0xbd51cb36	-0.051219188
111	0x3d1e26b0	0.038611114
112	0xbe17f2ce	-0.14838716
113	0x3d569a19	0.052393053
114	0x3e7b8797	0.24563442
115	0xbd83d9c2	-0.064380184
116	0x3d7218f7	0.05910584
117	0xbd929ead	-0.07159171
118	0xbb352d35	-0.0027645354
119	0xbd74bfb9	-0.059753153
120	0x3debc270	0.115116954
121	0xbd71a92a	-0.058999218
122	0xbdcf28d5	-0.1011521
123	0xbdaf3b60	-0.08556247
124	0x3d773c61	0.060360316
125	0xbc83aec4	-0.016074546
126	0x3c54eaf6	0.012995472
127	0xbd43c73b	-0.047797423
128	0xbc63ef45	-0.013912027
129	0xbdd1f2ac	-0.10251364
130	0x3ceb1399	0.028695868
131	0xbdabc76a	-0.083876446
132	0x3c617551	0.013760881
133	0x3df203ea	0.11817153
134	0xbdcef2aa	-0.10104878
135	0x3cbda61c	0.023150496
136	0x3dd0a0de	0.10186933
137	0x3e02b4d8	0.12764299
138	0xbdf71c1c	-0.12065908
139	0x39485232	0.00019104106
140	0x3d2e85e8	0.04260817
141	0x3d94a4cf	0.07257997
142	0x3dccb0e3	0.09994676
143	0x3ce22b7f	0.027608631
144	0x3e79522c	0.24347752
145	0xbddb7927	-0.10716467
146	0x3d88d9b3	0.06682148
147	0xbe3d1ea2	-0.18468717
148	0xbcc4a35e	-0.02400368
149	0x3e731f45	0.23742397
150	0xbdb661b7	-0.089053564
151	0xbdf99218	-0.12186068
152	0xbd951b1f	-0.072805636
153	0x3e1a52fb	0.15070717
154	0xbd4807b0	-0.048835456
155	0xbe86a1b3	-0.26295242
156	0x3dc88ca0	0.09792447
157	0xbcbf76d2	-0.023372088
158	0xbd65a741	-0.05606771
159	0x3da00309	0.07813079
160	0xbd068267	-0.032839205
161	0xbdd713eb	-0.10501846
162	0xbe35831d	-0.17725797
163	0x3ec4779d	0.38372508
164	0xbe486430	-0.19569468
165	0xbe09f5ec	-0.13472718
166	0xbcc97916	-0.024593871
167	0xbd01762d	-0.03160684
168	0xbbdf1a44	-0.006808551
169	0x3de387d9	0.11109895
170	0x3ebfa125	0.3742763
171	0x3ddc2ada	0.10750361
172	0xbd5be2e0	-0.05368316
173	0x3d88f345	0.06687025
174	0x3dd3876b	0.10328563
175	0xbc86b709	-0.0164447
176	0xbe09b773	-0.13448887
177	0x3d9d6514	0.07685295
178	0x3d7b1222	0.06129659
179	0x3d85e7d7	0.065383606
180	0xbdf74b9c	-0.12074968
181	0x3e99a2ae	0.30006927
182	0xbd6f2538	-0.058385104
183	0x3cebc788	0.028781667
184	0x3d295f36	0.041350566
185	0xbd802572	-0.06257142
186	0x3e8a811e	0.27051634
187	0xbb8aac95	-0.004231999
188	0x3bec5b78	0.0072130524
189	0x3d6f0aa3	0.058359753
190	0x3dc00a64	0.09376982
191	0x3eaf6247	0.34254667
192	0x3d180833	0.037117194
193	0x3dd808d2	0.10548557
194	0x3e5389f7	0.20658098
195	0x3c724728	0.014787473
196	0x3e90c574	0.28275645
197	0xbe51f924	-0.20505196
198	0x3deaa0a9	0.11456425
199	0xbde033b4	-0.109473616
200	0x3dedd613	0.11613097
201	0xbd58064b	-0.052740376
202	0x3d0a1d03	0.033719074
203	0xbc842f90	-0.01613596
204	0x3dbca532	0.09211196
205	0xbd3a204e	-0.045440964
206	0x3cf46227	0.029831959
207	0x3d526094	0.051361635
208	0xbd243b5e	-0.04009568
209	0x3e3914e7	0.1807438
210	0xbd6c7d7f	-0.05773687
211	0x3e1c894a	0.15286747
212	0xbdf0b040	-0.11752367
213	0x3efe290c	0.4964069
214	0x3da5d4ed	0.08097253
215	0xbd257e70	-0.040403783
216	0x3e7f601e	0.2493901
217	0xbda4a7bf	-0.080398075
218	0x3e14a9f1	0.14517953
219	0x3d2a4150	0.041566193
220	0x3e09080b	0.13381974
221	0x3d018927	0.03162494
222	0xba6bcaaa	-0.0008994738
223	0xbda751b4	-0.081698805
224	0xbd8e382f	-0.0694431
225	0x3e0c7881	0.13717844
226	0x3d0085b4	0.03137751
227	0xbdc40b20	-0.095724344
228	0xbd8c6bbd	-0.06856487
229	0xbe4d8080	-0.2006855
230	0x3dfd1a32	0.12358512
231	0x3d5ee45b	0.054416995
232	0x3d04e9ab	0.032449406
233	0x3e512c4c	0.20427054
234	0x3d0095d4	0.031392887
235	0x3deb3aa6	0.11485796
236	0x3eb09217	0.34486458
237	0xbe011f14	-0.12609512
238	0x3dc1931b	0.09451886
239	0x3e701d03	0.23448567
240	0xbb9fc655	-0.004875938
241	0x3e39de45	0.18151195
242	0x3dcee9d3	0.10103192
243	0x3daab98a	0.0833617
244	0x3e546079	0.20739926
245	0x3d0d63ef	0.034519132
246	0x3d24e0d1	0.040253464
247	0x3d57682e	0.052589588
248	0x3e1b88e9	0.15188946
249	0xbeb1972b	-0.34685645
250	0xbccf31b5	-0.025292257
251	0xbcc0feaf	-0.023558943
252	0x3dbdd836	0.092697546
253	0x3cbbb524	0.022913523
254	0x3de811d1	0.11331523
255	0x3bbee19b	0.005825234

decoder.4.bias f4 [50]
0	0xbe0030e9	-0.12518658
1	0x3e07f82a	0.13278261
2	0x3eb27391	0.34853795
3	0xbdc72bb9	-0.09725136
4	0x3da15e55	0.078793205
5	0xbdf8923d	-0.12137268
6	0xbe6e5da3	-0.23277907
7	0x3dc30c59	0.095238395
8	0xbe11707a	-0.14203063
9	0x3d9827fd	0.07429502
10	0xbdfd21ce	-0.12359963
11	0xbddcb462	-0.10776593
12	0xbe11596e	-0.14194271
13	0x3b00c29f	0.0019647253
14	0x3da235bf	0.079204075
15	0xbe25987c	-0.1617145
16	0xbae4a18c	-0.0017443164
17	0xbbbb4ba4	-0.005715804
18	0x3d91725b	0.0710189
19	0xbdd494e0	-0.10379958
20	0xbdcd5b35	-0.10027162
21	0x3b2d139b	0.002640939
22	0x3e92eafb	0.286949
23	0xbcf96f71	-0.030448647
24	0x3de5058e	0.111827
25	0xbd9c922a	-0.07645066
26	0xbd511493	-0.05104501
27	0xbd7ee8a5	-0.062233586
28	0xbcad9b3a	-0.021192182
29	0x3e4a304d	0.19744988
30	0x3d46024a	0.048342027
31	0x3dee1b1c	0.116262645
32	0x3c484fda	0.012226069
33	0xbd0ae38e	-0.03390842
34	0xb98bb882	-0.00026649615
35	0x3d5e8b48	0.054332048
36	0x3e20f79a	0.15719453
37	0x3d4e2988	0.050332576
38	0x3e051985	0.12998016
39	0xbb955c19	-0.004558098
40	0xbcbe33b6	-0.023218017
41	0x3d0f863f	0.035040136
42	0x3e1e046a	0.15431371
43	0x3d84184c	0.06449947
44	0xbe05813c	-0.1303758
45	0xbd7acf56	-0.061232887
46	0x3d81e26e	0.06342016
47	0xbd7d78d9	-0.061882827
48	0x3e4766ca	0.19472805
49	0xbbe1cc6d	-0.0068908245
