RiskViz Folder/model/checkpoint_850.tar (torch, 110796 bytes, 51 tensors)

encoder.1.weight f4 [50, 6]
0	0xbf01d8d4	-0.5072148
1	0x3bae38de	0.0053168377
2	0x3a180632	0.0005799263
3	0x3e7135c0	0.2355566
4	0xbea4cab5	-0.32185903
5	0x3df1bf68	0.11804086
6	0xbb8e2d28	-0.004338879
7	0xbc1ea304	-0.009682421
8	0xba787fb2	-0.00094794773
9	0x40195b15	2.3961842
10	0x3b8cca59	0.0042965827
11	0xbe6cb090	-0.23114228
12	0xbe3c0f24	-0.1836515
13	0xbe697d92	-0.22801808
14	0x3c07b5f1	0.008283124
15	0xbd80deb0	-0.06292474
16	0x3eab3d74	0.33445323
17	0xbebc64ed	-0.3679575
18	0x3e46ccc4	0.1941405
19	0xbba4039d	-0.0050053135
20	0x3ad6c2e8	0.0016384991
21	0xbdf32967	-0.11873131
22	0x3c80d027	0.015724255
23	0x3f8a6d89	1.0814677
24	0xbd13c0bb	-0.036072474
25	0xbe1f933d	-0.1558351
26	0x3ad8770a	0.0016514969
27	0x3f42a3d9	0.7603126
28	0x3e6fa753	0.23403673
29	0xbf08753a	-0.53303874
30	0x3f264cc2	0.64960873
31	0x3cb22768	0.021747306
32	0x3c570e54	0.013125975
33	0x3e08bb74	0.13352758
34	0x3d04d215	0.032426912
35	0x3f6a647e	0.9155959
36	0xbd9efc68	-0.077629864
37	0xbe66ee1e	-0.22551772
38	0xbde7b008	-0.11312872
39	0xbe7b1e23	-0.24523215
40	0x3e59d673	0.21273212
41	0xbe50d805	-0.20394905
42	0xbf25c4ef	-0.6475362
43	0x3dd9bc71	0.106316455
44	0x3d02f30c	0.03197007
45	0xbce3d793	-0.027812755
46	0xbdf7a809	-0.12092597
47	0xbd583884	-0.052788273
48	0x3f240566	0.6407074
49	0xbbb51e06	-0.0055272607
50	0xbaa6bf45	-0.0012721798
51	0x3f6731ed	0.90310556
52	0x3f1e6416	0.6187147
53	0x3d55c1a5	0.052186627
54	0xbea52900	-0.32257843
55	0x3c32beca	0.0109097455
56	0xbe427bb8	-0.18992507
57	0xbafc35cc	-0.0019242107
58	0x3e4bf149	0.19916262
59	0x3e383c55	0.17991765
60	0xbedda04b	-0.43286356
61	0x3c237bdc	0.009978261
62	0xbb7bb6d2	-0.003840853
63	0xbf74d9c7	-0.956448
64	0xbe83dc11	-0.25753835
65	0x3e068141	0.13135244
66	0xbe6e8a82	-0.23295024
67	0xbe36933d	-0.17829604
68	0x3e0c6993	0.13712148
69	0x3e7098f2	0.23495844
70	0x3bbb7119	0.0057202694
71	0xbe229d14	-0.15880233
72	0xbdf41dd5	-0.119197525
73	0xbd055d2c	-0.03255956
74	0xbd269ba5	-0.040675778
75	0x3f88b72a	1.0680897
76	0xbdae3558	-0.08506268
77	0x3f059fa7	0.52196735
78	0xbef51f6f	-0.47875544
79	0x3c2dabf0	0.010600075
80	0xbaf68928	-0.0018809186
81	0xbf453e20	-0.7704792
82	0xbe84cfdf	-0.25939843
83	0x3ded9d50	0.116022706
84	0xbff46983	-1.90947
85	0x3aec6c4d	0.0018037647
86	0xbb5eacda	-0.003397754
87	0x3e8af217	0.27137825
88	0xbee31c1a	-0.44357377
89	0x3f26b9c2	0.65127194
90	0xbf2b478d	-0.6690605
91	0x3b12442b	0.0022318463
92	0x3b9c09af	0.0047618966
93	0xbdfacd43	-0.12246182
94	0xbecb7146	-0.39734858
95	0xbdf36454	-0.118843704
96	0xbe82afa1	-0.2552462
97	0x3e8de5ee	0.27714485
98	0x3e20dee2	0.15710023
99	0x3ea65c04	0.32492077
100	0xbe9b5a78	-0.3034246
101	0xbecc3b90	-0.39889193
102	0xbf733475	-0.9500192
103	0xbc1b87f0	-0.009492859
104	0xbc0410c9	-0.0080606425
105	0xbf4d3225	-0.8015464
106	0x3f308f2c	0.6896846
107	0x3f07e778	0.5308757
108	0xbb8a8839	-0.004227665
109	0xbc15c5db	-0.009141411
110	0xbbfd2708	-0.0077256
111	0x401427de	2.3149333
112	0x3bab02f2	0.005218857
113	0xbe525acc	-0.20542449
114	0x3daf84db	0.08570262
115	0xbe9d1051	-0.3067651
116	0xbe5fad92	-0.21843556
117	0xbe447a9a	-0.19187394
118	0xbe6c8c84	-0.23100477
119	0x3d944263	0.07239225
120	0xbdbebebb	-0.09313723
121	0xbb9975af	-0.0046832184
122	0xbb752a29	-0.0037409163
123	0xbf30b0f9	-0.6902004
124	0x3f3a0317	0.72660965
125	0x3d6ed630	0.058309734
126	0xbeb53ab7	-0.35396358
127	0xbe879731	-0.26482537
128	0x3e1ca560	0.1529746
129	0x3e1d066c	0.15334481
130	0xbe814011	-0.2524419
131	0xbe03b2c8	-0.12861168
132	0xc0152d1b	-2.330878
133	0x3aff28a3	0.0019467067
134	0x3bb4c6cc	0.0055168625
135	0xbeac7d87	-0.3368952
136	0xbea5b287	-0.32362768
137	0x3e43d0a4	0.19122559
138	0x3ea4944b	0.3214439
139	0xbdb3246e	-0.08747183
140	0xbd8bf6d0	-0.06834185
141	0x3e0fcece	0.14043733
142	0x3d6b7da2	0.05749286
143	0xbe09c747	-0.13454925
144	0xbeaa3e31	-0.33250573
145	0xbe650aa0	-0.22367334
146	0x3d839cf7	0.06426423
147	0xbc5e6096	-0.013572833
148	0x3eec7079	0.4617956
149	0xbd1ae985	-0.037820358
150	0xbdd2f0b8	-0.1029982
151	0xbec7ad72	-0.38999516
152	0xbebf1c08	-0.37326074
153	0x3e36abad	0.17838927
154	0x3ea51fad	0.3225073
155	0xbaaabadb	-0.0013025658
156	0xc012c3cf	-2.2932012
157	0x3bad3c33	0.0052867173
158	0xba3e3759	-0.0007256172
159	0xbf1a3536	-0.60237443
160	0xbe0dc397	-0.13844143
161	0x3dd7f263	0.105442785
162	0xc004bb47	-2.0739305
163	0x3b877b24	0.0041345526
164	0xbb519a56	-0.003198286
165	0xbf08b018	-0.533937
166	0xbe025733	-0.12728576
167	0xbeeb5fa6	-0.4597141
168	0x3f4a6112	0.7905437
169	0xbb8f0173	-0.0043641864
170	0xba822517	-0.0009929267
171	0xbf897844	-1.0739827
172	0x3f2bede2	0.67159855
173	0x3d8982b8	0.06714386
174	0xbe67dceb	-0.22642867
175	0xbcd949e8	-0.026524499
176	0xbe940002	-0.28906256
177	0xbc9a4c53	-0.018835222
178	0x3e6965b6	0.22792706
179	0xbe3be5ff	-0.18349455
180	0x3f4236ac	0.7586467
181	0xbc333c91	-0.010939733
182	0xbb1a8652	-0.0023578596
183	0x3f03eb0f	0.51530546
184	0xbea7ea25	-0.32795826
185	0xbea2ec4c	-0.31820905
186	0x3cfed774	0.031108595
187	0xbc394ac7	-0.011309332
188	0x3b3caff5	0.0028791402
189	0xbd22fe64	-0.039793387
190	0x3e1db60e	0.1540148
191	0x3fa16d8a	1.2611554
192	0x3ea040c9	0.31299427
193	0xbecc3ac4	-0.39888585
194	0x3d2f83d7	0.04285034
195	0xbca00c97	-0.019537253
196	0x3de11765	0.1099079
197	0xbdcd2525	-0.100168504
198	0x3ddc0281	0.10742665
199	0xbe8a1641	-0.26970103
200	0x3e4e4f3e	0.20147416
201	0x3f1d1b11	0.61369425
202	0xbb86a556	-0.004109065
203	0xbe850157	-0.25977585
204	0xbf26ad10	-0.6510782
205	0x3bba4924	0.0056849886
206	0xbc24af53	-0.010051566
207	0x3d67a65a	0.05655513
208	0xbcb81835	-0.02247248
209	0x3f8323c8	1.0245295
210	0xba53c1f2	-0.00080779113
211	0xbb110079	-0.0022125526
212	0xbaaa4647	-0.0012990915
213	0x3fbec23f	1.4903029
214	0x3ed684ef	0.41898295
215	0x3babd2bb	0.005243627
216	0x3e673f39	0.22582711
217	0x3e09403e	0.13403413
218	0x3d26e524	0.04074587
219	0xbdf27028	-0.11837798
220	0x3d8126be	0.063062176
221	0x3ceeef62	0.029166881
222	0xbb8c944f	-0.0042901407
223	0x3c196322	0.009362014
224	0x3b9c9af9	0.0047792164
225	0xbf34390f	-0.70399565
226	0x3d2a15b3	0.0415246
227	0x3f34d568	0.7063813
228	0x3c5d1089	0.013492712
229	0xbcb619b6	-0.022229057
230	0xbac8c490	-0.0015317369
231	0xbe2001a4	-0.15625626
232	0x3e610c19	0.21977271
233	0x3fb2f465	1.3980833
234	0x3f887acc	1.0662475
235	0xbb33dad9	-0.0027443676
236	0xba3d2148	-0.0007214737
237	0xbea0c0af	-0.31397006
238	0xbe007c97	-0.12547527
239	0xbf15c2d2	-0.585004
240	0xc0151203	-2.3292243
241	0xbac04a7d	-0.0014670637
242	0xbaf931ee	-0.0019012073
243	0xbf4b3c16	-0.7938856
244	0xbe9d3daa	-0.30711108
245	0x3e62464b	0.22097127
246	0xbba26981	-0.0049564247
247	0xbc0512d4	-0.008122165
248	0x3a8bbf3d	0.0010661852
249	0x4012d0b4	2.2939882
250	0xbebfe6b2	-0.37480694
251	0xbe3fc409	-0.18727125
252	0xbf130ab2	-0.57438195
253	0x39817672	0.00024693046
254	0xbc37ed20	-0.011225969
255	0x3e415804	0.18881232

encoder.1.bias f4 [50]
0	0x3e7bb6a3	0.24581389
1	0x3a61b9f8	0.00086107804
2	0xbce46c5e	-0.027883705
3	0xbe1d0c3d	-0.153367
4	0xbdbdaf8c	-0.092619985
5	0xbefebe5f	-0.49754617
6	0xbe0392a7	-0.12848912
7	0xbd5f6db9	-0.054548
8	0xbea56d55	-0.32309976
9	0xbeaa69ec	-0.33283937
10	0x3e312481	0.17299081
11	0xbec95059	-0.39319113
12	0xbf56ddfc	-0.8393247
13	0x3e542957	0.20718895
14	0x3c0904ae	0.008362932
15	0x3eabc1b5	0.33546224
16	0xbeb95d47	-0.36203977
17	0x3ca65b0d	0.020307088
18	0x3b1632c0	0.0022918433
19	0xbe891f76	-0.26781815
20	0x3d401d69	0.046903048
21	0xbe11406e	-0.14184734
22	0x3cc1327c	0.023583643
23	0xbebffdb6	-0.37498254
24	0xbd8acd4b	-0.06777438
25	0xbe983a52	-0.29731995
26	0x3c907f70	0.017638892
27	0x3c8ed0ff	0.017433641
28	0xbecaceb4	-0.39610827
29	0xbe773339	-0.24140634
30	0xbecf80b3	-0.40527877
31	0xbe70537c	-0.23469347
32	0xbed69a76	-0.4191472
33	0xbea4a1e8	-0.32154775
34	0xba94cf34	-0.0011353255
35	0xba94fde3	-0.0011367168
36	0xbeb2befe	-0.3491134
37	0xbc053747	-0.008130855
38	0xbea3b585	-0.31974426
39	0xbf2566bd	-0.6460989
40	0x3c23b327	0.009991444
41	0xba6c2905	-0.0009008798
42	0x3c81fbee	0.0158672
43	0xbecbfec5	-0.3984281
44	0xbf1f54c1	-0.622387
45	0x3c19776a	0.009366849
46	0xbb5fd671	-0.0034154917
47	0x3cc610f7	0.024178011
48	0xbe8a50f0	-0.27014875
49	0xb9a5bafe	-0.00031610572

encoder.4.weight f4 [50, 50]
0	0x3d40a213	0.047029566
1	0xbebb9ae9	-0.36641625
2	0xbde7f55c	-0.113260955
3	0xbdebd275	-0.11514751
4	0xbe6963b0	-0.22791934
5	0x3df2d8e2	0.11857773
6	0xbc9363a2	-0.017991845
7	0x3d647777	0.055777993
8	0x3d6253fd	0.05525588
9	0x3db59cff	0.08867835
10	0x3e3f748b	0.18696801
11	0x3bae263c	0.0053146165
12	0xbdc46b5a	-0.09590788
13	0xbbaa2e2f	-0.005193494
14	0x3e5bba99	0.214579
15	0xbd1e84d1	-0.038700882
16	0xbe0eb770	-0.13937163
17	0x3c2db50b	0.010602246
18	0xbebc59c9	-0.3678725
19	0xbdca92af	-0.09891259
20	0xbd34b8d0	-0.044121563
21	0x3d067e77	0.03283545
22	0x3e6d4a3e	0.23172852
23	0xbccf8c0d	-0.025335336
24	0x3d5b6333	0.0535614
25	0xbd0df396	-0.03465613
26	0x3de55431	0.11197699
27	0x3e8fe1f7	0.28102085
28	0x3cf5c336	0.03000031
29	0x3dce667b	0.1007814
30	0x3e166733	0.14687805
31	0xbdb8d5f7	-0.090251856
32	0x3d19d350	0.03755504
33	0x3d8a81d7	0.06763046
34	0x3da6f3d9	0.08151979
35	0xbe8d0eef	-0.27550456
36	0xba2e004a	-0.00066376163
37	0xbdc614d3	-0.09671941
38	0x3cab3937	0.020901306
39	0x3e74b2d0	0.23896337
40	0x3e70d024	0.235169
41	0xbea830cd	-0.32849732
42	0xbc581f19	-0.013191008
43	0xbd91e0ba	-0.07122941
44	0x3ed487ae	0.41509765
45	0xbc83d381	-0.016092064
46	0xbe92e963	-0.28693685
47	0xbc1a2b46	-0.009409731
48	0x3d5aaf38	0.053389758
49	0xbdd473b6	-0.103736326
50	0x3ad72998	0.0016415594
51	0xbc876a31	-0.016530128
52	0x3d63f2d3	0.055651497
53	0xbdf13029	-0.11776764
54	0xbc80f0fa	-0.015739907
55	0x3e4f6948	0.20255005
56	0xbd93b7e9	-0.072128125
57	0x3c05920f	0.008152499
58	0xbd291736	-0.0412819
59	0x3d9915ac	0.07474837
60	0xbd126402	-0.035739906
61	0xbdd998ba	-0.106248334
62	0xbde8906b	-0.113556705
63	0x3e3d6cbc	0.1849851
64	0x3dc2ea40	0.09517336
65	0xbc860ef6	-0.016364556
66	0xbe06de1f	-0.1317067
67	0x3ca3c752	0.019992504
68	0xbbcf3cf1	-0.0063244035
69	0x3c85eda1	0.016348662
70	0x3bd5c447	0.006523642
71	0xbcfdfffe	-0.031005856
72	0x3e671c82	0.22569469
73	0x3d534162	0.051576026
74	0x3d23e93b	0.040017348
75	0xbd9cad37	-0.076502256
76	0x3eb4ca7e	0.3531074
77	0x3eb25daa	0.34837085
78	0xbc8f2720	-0.017474711
79	0x3e063b30	0.13108516
80	0xbdce88d1	-0.100846894
81	0xbe109c34	-0.14122087
82	0x3cdd8b49	0.027043955
83	0x3d0ea33a	0.034823634
84	0x3e1f8974	0.15579778
85	0xbd9031b2	-0.07040729
86	0x3dc315bd	0.095256306
87	0xbcd3e644	-0.025866635
88	0xbe0e3bce	-0.13890001
89	0x3e9f5cda	0.31125528
90	0x3e8bdc86	0.27316684
91	0xbc88fa22	-0.016720835
92	0xbdae3bb9	-0.08507485
93	0xbdc37f90	-0.09545815
94	0x3e42b493	0.19014196
95	0x3e0c676c	0.13711327
96	0xbdfa1020	-0.12210107
97	0xbdb919f1	-0.09038151
98	0xbd3d2853	-0.046181034
99	0x3d173147	0.03691223
100	0x3ce87e73	0.028380608
101	0xbec3556b	-0.38151106
102	0x3dde2260	0.108464
103	0x3ddfc928	0.109270394
104	0xbcc7b666	-0.024378967
105	0xbd126832	-0.0357439
106	0xbd35fe7b	-0.044432145
107	0x3b7999b6	0.0038086004
108	0xbe529239	-0.20563592
109	0x3e0ff0a4	0.14056641
110	0x3ce641f1	0.028107615
111	0x3e09a6d7	0.1344255
112	0x3e02415a	0.12720242
113	0x3dabee99	0.08395118
114	0xbe74e033	-0.2391365
115	0x3cda7bed	0.02667042
116	0xbd5fa4a9	-0.05460039
117	0xbd43ed09	-0.047833476
118	0xbe8fd21e	-0.28089994
119	0x3da14c85	0.07875923
120	0x3e5c6fe0	0.21527052
121	0xbde03a84	-0.10948661
122	0xbe72db2b	-0.23716418
123	0x3d2c5687	0.042074706
124	0x3ae96ca3	0.0017808866
125	0x3d859383	0.06522276
126	0x3d0f26f4	0.034949258
127	0xbd2c0c8c	-0.042004153
128	0xbe5aaa65	-0.21354063
129	0xbd276e81	-0.04087687
130	0xbe851c6e	-0.25998253
131	0x3d157630	0.036489666
132	0x3dc8ca8e	0.09804259
133	0xbe099ebd	-0.1343946
134	0x3cafa4b6	0.021440845
135	0xbd8b0170	-0.067873836
136	0x3ddd6b75	0.108115114
137	0x3e044a9a	0.12919083
138	0x3cc644a7	0.024202658
139	0xbe753dec	-0.23949403
140	0xbd3a772a	-0.0455238
141	0xbe36b8a3	-0.17843871
142	0xbdddbbc0	-0.10826826
143	0xbbc8a391	-0.0061230143
144	0xbe237dd6	-0.15965971
145	0x3dd3c1ce	0.103397
146	0x3d06027c	0.032717213
147	0xbdcf78ce	-0.101304635
148	0xbdd0fef8	-0.102048814
149	0xbe27da36	-0.16391835
150	0xbe6ae353	-0.2293828
151	0xbe6a853f	-0.22902392
152	0xbb8b64ee	-0.004253975
153	0xbd5082ca	-0.05090598
154	0xbd5c8509	-0.05383781
155	0x3e6148c7	0.22000419
156	0x3dffb5d2	0.12485851
157	0x3d690fa8	0.056899697
158	0x3d61b211	0.055101458
159	0xbde96a89	-0.11397273
160	0xbd95a200	-0.0730629
161	0xbdf616b6	-0.120160505
162	0x3dd2559e	0.102702364
163	0xbe4df052	-0.20111206
164	0x3cc2908b	0.023750564
165	0xbe52af9b	-0.205748
166	0xbdc834bd	-0.09775684
167	0xbe8faf17	-0.2806327
168	0xbe629939	-0.22128762
169	0xbd84690e	-0.0646535
170	0xbea33d99	-0.31882933
171	0x3dcce079	0.10003752
172	0xbd8aa893	-0.06770434
173	0xbc89f513	-0.016840493
174	0xbc8f2fdd	-0.017478878
175	0x3d708eec	0.05873005
176	0xbd7f48c6	-0.06232526
177	0xbc8c69ff	-0.017140387
178	0x3d27739e	0.040881746
179	0x3dc7dd13	0.097589634
180	0x3e275916	0.16342577
181	0xbdd6f700	-0.1049633
182	0xbd11a9e4	-0.03556241
183	0xbde3faa0	-0.11131787
184	0x3d74c17d	0.059754837
185	0xbe5c5b53	-0.21519212
186	0x3cb0bab0	0.021573395
187	0xbe99e0f3	-0.30054435
188	0x3c1489f6	0.009066096
189	0x3e8697f8	0.26287818
190	0xbdbe5822	-0.09294154
191	0xbe632ed5	-0.22185834
192	0xbe3a1276	-0.18171105
193	0x3e0646b5	0.1311291
194	0x3ebda004	0.37036145
195	0xbd7af863	-0.061272036
196	0xbe91a20a	-0.28443938
197	0x3d7a82a4	0.061159745
198	0x3db8feb2	0.09032954
199	0xbdf4c28e	-0.11951171
200	0x3db6858e	0.08912192
201	0xbe075e19	-0.13219489
202	0xbd183c67	-0.03716698
203	0x3ef68a4f	0.48152396
204	0xbe03b6d1	-0.12862708
205	0x3ea30e54	0.3184687
206	0xbd97b125	-0.074068345
207	0x3e02f21c	0.1278767
208	0xbc75fe35	-0.015014221
209	0xbdc0e823	-0.094192766
210	0xbd7c554a	-0.061604775
211	0x3de44eda	0.11147852
212	0xbd2a64a0	-0.04159987
213	0xbd803bc9	-0.06261403
214	0x3d218b0b	0.039439242
215	0xbcf41bed	-0.029798472
216	0xbdf47e99	-0.11938209
217	0x3d296499	0.041355703
218	0xbe5aa85e	-0.2135329
219	0x3d09e286	0.033663295
220	0x3bf31a0d	0.007418877
221	0xbd2f0fc0	-0.04273963
222	0xbd69df44	-0.05709769
223	0x3daaff76	0.083495066
224	0xbcf1b5ac	-0.029505573
225	0x3d87c91b	0.06630155
226	0x3dbd81c4	0.092532665
227	0x3db72d39	0.089441724
228	0x3c6bf2f2	0.014401184
229	0x3d684561	0.05670679
230	0xbd3b3259	-0.045702312
231	0x3ecf6ec0	0.40514183
232	0xbd5cdd38	-0.05392191
233	0x3da691d2	0.08133282
234	0x3e93e160	0.28882885
235	0x3d0c9282	0.03431941
236	0xbe087e74	-0.13329488
237	0xbd46e5c1	-0.048558954
238	0x3ec96688	0.39336038
239	0x3e31d508	0.17366421
240	0xbc080751	-0.008302526
241	0xbe7fe0a7	-0.24988042
242	0xbd2481ba	-0.04016278
243	0x3d9a2215	0.07526032
244	0xbdab8697	-0.0837528
245	0x3d4c4e85	0.04987957
246	0x3b9447ae	0.0045251464
247	0xbde0f6a6	-0.109845445
248	0xbd86b9e7	-0.06578427
249	0x3e26750b	0.16255586
250	0xbd294212	-0.041322775
251	0xbd3b0a93	-0.04566438
252	0xbcc15da5	-0.023604224
253	0x3e854dfb	0.26036057
254	0x3c3b46e4	0.011430476
255	0x3e82bf4d	0.25536576

encoder.4.bias f4 [50]
0	0xbb026eb4	-0.001990241
1	0xbbdd8965	-0.0067607635
2	0x3b919879	0.004443225
3	0x3c18829f	0.009308486
4	0xbad8f552	-0.0016552603
5	0xbb5084fd	-0.0031817548
6	0xbf2e9803	-0.682007
7	0xb99d05d1	-0.00029949707
8	0xbe94711a	-0.2899254
9	0xbc3206d1	-0.010865883
10	0xb8b6eee0	-8.72293e-05
11	0x3c6927c2	0.01423067
12	0xbb0209df	-0.001984231
13	0xbaf7b817	-0.0018899468
14	0xbe8a350d	-0.269936
15	0xbcb7b1a4	-0.022423573
16	0x3bbeb15c	0.0058194827
17	0xbb85c84f	-0.0040827165
18	0xbc7b0fe0	-0.015323609
19	0xbf1c6dd3	-0.6110508
20	0xbdd4b794	-0.10386577
21	0xbc2d3383	-0.010571363
22	0xbe7836cc	-0.24239653
23	0xbb5b65c2	-0.00334774
24	0xbb068c53	-0.0020530417
25	0xbbe88712	-0.0070961798
26	0xbbf4fcfc	-0.007476447
27	0xbabb48d8	-0.0014288677
28	0x3c1b27f9	0.009469979
29	0xba4e5384	-0.0007870721
30	0xbb10df5c	-0.0022105789
31	0xbc806b4f	-0.015676169
32	0x3c7c6250	0.015404299
33	0xbe17f501	-0.14839555
34	0xbe83a34a	-0.25710517
35	0xbe3b78a8	-0.18307745
36	0xbe9fdb9e	-0.31222242
37	0xbd4cfed3	-0.050047707
38	0xbf1b566b	-0.6067874
39	0xbb320e7f	-0.0027169285
40	0x3bbccd00	0.0057617426
41	0xbe2333ce	-0.1593773
42	0xbc624dce	-0.013812495
43	0xbddc95b5	-0.10770742
44	0xbe35b3f2	-0.17744425
45	0x3c2d298f	0.01056899
46	0xbe9cecc7	-0.30649397
47	0xbc8b20f1	-0.016983481
48	0xbb3aac3a	-0.0028484003
49	0x3c360da1	0.011111648

encoder.7.weight f4 [20, 50]
0	0x3e212ea1	0.15740444
1	0x3e237e07	0.15966044
2	0x3c97f640	0.018550038
3	0xbe9669e2	-0.29377657
4	0x3cf94cb6	0.030432086
5	0x3d6d55ce	0.057943158
6	0xbd9d29be	-0.07673977
7	0x3f42d49c	0.76105666
8	0xbd8d240c	-0.06891641
9	0x3ecc98bb	0.39960274
10	0x3dcf9392	0.10135569
11	0xbea03bd8	-0.31295657
12	0xbec52bca	-0.3850997
13	0xbe59acd3	-0.21257333
14	0xbe0501ef	-0.12989019
15	0x3eb0a2a9	0.344991
16	0x3cb1fe63	0.021727746
17	0x3f00d5ca	0.50326216
18	0xbe5498b5	-0.20761378
19	0xbd38c757	-0.04511198
20	0xbd96c511	-0.07361806
21	0x3ed17ab3	0.40913925
22	0xbe1cbe1b	-0.15306894
23	0x3f13f2e1	0.5779248
24	0xbd8a9f33	-0.06768646
25	0x3f2666d2	0.6500064
26	0x3efb9483	0.49136743
27	0x3f2a637e	0.66558063
28	0xbe5fd73e	-0.21859452
29	0xbc95e301	-0.01829672
30	0xbe8073ea	-0.25088435
31	0x3f0174cd	0.5056885
32	0xbe1a1d23	-0.15050177
33	0xbc1ecb74	-0.009692062
34	0xbdba4b9a	-0.09096451
35	0xbd63158b	-0.055440467
36	0xbd574307	-0.052554157
37	0x3c434c12	0.011919992
38	0x3dcf675e	0.101271376
39	0xbe90af10	-0.28258562
40	0xbe377911	-0.17917277
41	0xbdc27655	-0.09495226
42	0x3e06dd28	0.13170302
43	0x3e273f7d	0.16332813
44	0x3e04498d	0.12918682
45	0xbe9dc805	-0.30816665
46	0xbdb89c94	-0.0901424
47	0x3e0a9009	0.13531508
48	0xbea12f48	-0.31481385
49	0xbe9e0f2b	-0.30870947
50	0x3b71ea73	0.0036913424
51	0x3c8b57ca	0.017009635
52	0xbcc645f8	-0.024203286
53	0x3c4309f1	0.011904226
54	0x3e9f7179	0.3114126
55	0x3ec1e635	0.37870947
56	0xbce76b30	-0.028249353
57	0x3e7c70c7	0.24652396
58	0x3e49472c	0.19656056
59	0x3ea2d5f8	0.3180387
60	0x3ea488c1	0.32135585
61	0x3a42fb34	0.0007437945
62	0xbc0ecc7e	-0.008715747
63	0xbcbfb600	-0.023402214
64	0x3e538e9c	0.2065987
65	0x3d8aae5a	0.06771536
66	0xbcc1b479	-0.023645626
67	0x3e9b0b28	0.3028195
68	0x3ba26a0e	0.0049564904
69	0x3df42660	0.11921382
70	0x3d815d7d	0.063166596
71	0x3e02d40f	0.12776206
72	0xbb2c0523	-0.002624818
73	0x3e92f6db	0.2870396
74	0x3dc8931e	0.097936854
75	0x3da817d1	0.082076676
76	0x3e81138c	0.25210226
77	0x3e17bca6	0.14818057
78	0x3c7c638f	0.015404596
79	0x3eb0e45f	0.34549233
80	0xbb25e7cf	-0.002531517
81	0x3d1d198f	0.038354453
82	0x3c9e3695	0.019313136
83	0xbd57ef6d	-0.05271857
84	0x3e56f947	0.2099353
85	0xbd3cdb6f	-0.046107706
86	0x3e21a457	0.15785347
87	0x3cc3a5f7	0.02388285
88	0x3e151b47	0.14561187
89	0xbb7ca933	-0.0038553
90	0x3c7dc4be	0.0154888015
91	0x3d38f53c	0.04515575
92	0xbcb0f299	-0.021600055
93	0x3eae5f26	0.34056967
94	0xbd0b9947	-0.034081724
95	0x3bd251c6	0.0064184396
96	0x3e4edcdb	0.20201437
97	0x3d13cbfe	0.036083214
98	0xbc9fe8e6	-0.019520234
99	0x3bdd633a	0.0067562135
100	0x3efb0717	0.49028847
101	0x3e6b57e0	0.2298274
102	0xbeb11c3f	-0.34591863
103	0x3ea7d05d	0.32776156
104	0xbe4e662a	-0.2015616
105	0xbe9d5319	-0.3072746
106	0xbe7a2cd3	-0.24431162
107	0xbdb518d1	-0.08842624
108	0xbe42a570	-0.19008422
109	0xbe6b09c6	-0.22952947
110	0xbeddfca2	-0.43356806
111	0xbb9aa042	-0.0047188113
112	0x3c97af60	0.018516243
113	0xbdb69e44	-0.089169055
114	0x3d0cedfc	0.034406647
115	0xbe627659	-0.22115459
116	0xbe8da632	-0.2766586
117	0xbe2bdef1	-0.16784264
118	0x3d5c2f57	0.053756084
119	0xbe27005f	-0.16308735
120	0xbe8b8b60	-0.27254772
121	0xbdd33fae	-0.1031488
122	0xbf0c1519	-0.5471969
123	0xbe28e3d8	-0.16493165
124	0xbdc94bb7	-0.098288946
125	0xbd67dd24	-0.05660738
126	0xbc4901e8	-0.012268521
127	0xbe2c7e37	-0.16845022
128	0x3ea841cf	0.32862708
129	0xbe38096e	-0.17972347
130	0x3cc5436e	0.024080005
131	0xbdf644d6	-0.12024848
132	0x3de1b8a8	0.110215485
133	0x3de52a3b	0.111896954
134	0xbe74a282	-0.23890117
135	0x3caa2d40	0.02077353
136	0xbea4cf87	-0.3218958
137	0x3d848801	0.06471253
138	0xbe58a776	-0.21157631
139	0x3c6db297	0.014507911
140	0x3ecb717a	0.39735013
141	0x3d87143c	0.06595656
142	0xbe9accd5	-0.302344
143	0xbee3475f	-0.4439039
144	0x3e0242cf	0.12720798
145	0x3dcd6556	0.10029094
146	0x3c80d7b9	0.015727865
147	0x3effc746	0.4995672
148	0x3c81ffe9	0.015869098
149	0x3e7e043d	0.24806304
150	0x3ccc117c	0.024910681
151	0x3dc30ebd	0.095242955
152	0xbdfcd17b	-0.12344643
153	0x3c3c5911	0.011495844
154	0xbb0b17f8	-0.0021224003
155	0xbd20421e	-0.039125554
156	0xbd75a67c	-0.059973225
157	0x3e2c4a6d	0.16825266
158	0xbe12a72f	-0.14321588
159	0x3f04b0e2	0.518324
160	0x3d7d3037	0.06181356
161	0x3bde729e	0.006788566
162	0x3e4981c4	0.19678408
163	0x3e937bae	0.28805298
164	0x3d1c149d	0.038105596
165	0xbd28937f	-0.04115629
166	0xbda35b6c	-0.07976422
167	0x3e3db5e2	0.18526414
168	0x3e909bb3	0.2824379
169	0xbe4dc807	-0.20095836
170	0xbc0feef5	-0.008784999
171	0x3e59a59c	0.21254581
172	0x3e95a011	0.29223683
173	0x3e5d2eb8	0.21599853
174	0x3e3fb121	0.18719913
175	0x3e8d9d63	0.2765914
176	0x3ea59095	0.3233687
177	0x3e64c563	0.22340922
178	0x3bde7944	0.0067893583
179	0x3d12c65b	0.035833698
180	0x3e9a895d	0.30182925
181	0x3d0bd28d	0.034136344
182	0x3c289767	0.010290003
183	0x3ced632c	0.028977953
184	0x3eb37d15	0.35056368
185	0xbd8c5da8	-0.06853801
186	0xbd3a1500	-0.045430183
187	0x3edccd67	0.4312546
188	0xbd69bfc6	-0.057067655
189	0x3dd19bcd	0.10234795
190	0x3bc9f5b5	0.0061633238
191	0xbd61b527	-0.0551044
192	0x3cbee990	0.02330473
193	0x3ee8813c	0.45411098
194	0x3e06eaeb	0.13175552
195	0x3bcfaa03	0.0063374056
196	0xbdba175a	-0.09086485
197	0x3cd4746f	0.025934426
198	0x3de76dc1	0.11300231
199	0x3c5a842c	0.013337176
200	0xbe9c2c75	-0.30502668
201	0x3cfaf5ef	0.030634848
202	0xbdff753a	-0.12473531
203	0xbe83976a	-0.25701457
204	0xbd35ba46	-0.044367097
205	0xbe0c9c2b	-0.13731448
206	0xbdfe8768	-0.124281704
207	0xbd296883	-0.041359436
208	0xbe60e6c8	-0.21963036
209	0x3d917eee	0.07104288
210	0x3cf67054	0.03008286
211	0xbc42665e	-0.011865227
212	0x3e8d5ed2	0.27611405
213	0x3ea7bb52	0.32760102
214	0x3bb8ba15	0.005637417
215	0xbe32d8e9	-0.17465557
216	0xbdf13713	-0.11778083
217	0x3a50bb01	0.0007962436
218	0x3e315110	0.17316079
219	0xbe5b2db2	-0.2140415
220	0xbcaa722a	-0.02080639
221	0xbe23a785	-0.15981872
222	0x3ec26c1a	0.379731
223	0x3b4d9d91	0.0031374434
224	0x3ec928b5	0.3928887
225	0xbd180820	-0.037117124
226	0xbd09d6df	-0.033652183
227	0x3c1a88d1	0.009432034
228	0xbddfaa7d	-0.1092119
229	0x3ce062a4	0.027390786
230	0x3e5bcf3b	0.21465771
231	0xbdf31939	-0.11870045
232	0xbd5d16f2	-0.05397696
233	0xbd662727	-0.056189682
234	0x3da23ccb	0.079217516
235	0xbd119be5	-0.035549063
236	0xbdb26a4b	-0.0871168
237	0x3ead778d	0.33880273
238	0xbd40d853	-0.047081303
239	0x3e83106c	0.25598466
240	0xbe257e0f	-0.16161369
241	0x3e020c03	0.12699895
242	0x3e4e97da	0.20175114
243	0x3e5a7fce	0.21337816
244	0x3d6765cb	0.05649356
245	0xbe02cadb	-0.12772696
246	0x3d61baa5	0.05510964
247	0xbe8b38e4	-0.27191842
248	0x3e93fc38	0.28903365
249	0xbe25ac29	-0.16178955
250	0xbe8fab93	-0.28060588
251	0xbe96548c	-0.2936138
252	0x3e185ba7	0.14878713
253	0xbe7ae5aa	-0.24501672
254	0x3ee4c3ff	0.44680783
255	0x3e99ed01	0.30063632

encoder.7.bias f4 [20]
0	0x3bbf4207	0.0058367285
1	0xbb857917	-0.004073273
2	0xbbefb1da	-0.0073149027
3	0xbaddfbe3	-0.001693603
4	0x3ac73300	0.0015197694
5	0x3bc4b30e	0.0060027903
6	0xbed80231	-0.42189172
7	0xbf8f08c6	-1.1174552
8	0x3c190823	0.009340319
9	0xbbe92a49	-0.0071156365
10	0xbe520e3d	-0.20513244
11	0x3b020a14	0.0019842433
12	0xbec60466	-0.3867523
13	0x3ae88841	0.0017740802
14	0xbb4069d4	-0.0029359953
15	0xbab18767	-0.0013544381
16	0xbb0e028d	-0.0021669
17	0x3ab88bc4	0.0014079739
18	0xba811438	-0.0009847945
19	0xbef4727f	-0.47743604

encoder.10.weight f4 [4, 20]
0	0x3f4f4374	0.809623
1	0x3e73f539	0.23824014
2	0xbf48e9b9	-0.7848163
3	0xbe7e73a3	-0.248488
4	0xbee93430	-0.45547628
5	0x3ed614c6	0.41812724
6	0x3f39a126	0.7251152
7	0x3fa748f0	1.3069134
8	0x3f35716e	0.70876205
9	0xbf0bbe8e	-0.5458764
10	0xbe390d5f	-0.18071507
11	0x3ecb99a0	0.39765644
12	0x3eaaaef3	0.333366
13	0x3f740bc7	0.9533047
14	0xbef28692	-0.47368294
15	0x3f7b87ab	0.9825389
16	0xbe6f8a39	-0.23392572
17	0xbe92a51b	-0.2864159
18	0xbec35302	-0.38149267
19	0x3f74be96	0.9560331
20	0xbed1f77f	-0.41009137
21	0xbf42125d	-0.7580927
22	0xbf1f357f	-0.62191004
23	0xbd1042a1	-0.035219792
24	0x3f3c31bb	0.7351338
25	0xbef9680d	-0.48712197
26	0x3c857dc4	0.016295321
27	0x3f1039ea	0.5633837
28	0xbeabcb66	-0.33553618
29	0xbef4310a	-0.47693664
30	0xbde46e99	-0.11153907
31	0xbf000ac8	-0.5001645
32	0xbdba59b3	-0.0909914
33	0xbedae877	-0.42755482
34	0x3f41b1a3	0.7566168
35	0xbee123c2	-0.43972594
36	0xbe0093a3	-0.12556319
37	0x3e9a94d9	0.30191687
38	0x3f0dcb25	0.553881
39	0x3d9c52d3	0.07632985
40	0xbf457f6a	-0.77147543
41	0x3df56565	0.1198223
42	0x3ef95903	0.48700723
43	0xbdb7b81e	-0.089706644
44	0x3f1e6f40	0.61888504
45	0x3f1c6abe	0.61100376
46	0x3e73c7b4	0.2380665
47	0xbc58fb8b	-0.013243566
48	0xbf3412e6	-0.70341337
49	0x3ed38665	0.41313472
50	0xbe426f6d	-0.18987818
51	0x3efca6eb	0.49346098
52	0x3eb3d275	0.35121503
53	0xbf63310f	-0.8874673
54	0x3f2449df	0.6417522
55	0xbf6b30e9	-0.91871506
56	0xbe159c22	-0.14610341
57	0x3e5684ef	0.20949148
58	0x3ef0ed2c	0.47055948
59	0xbd6017f9	-0.054710362
60	0x3f0a764c	0.54086757
61	0xbe6a947c	-0.22908205
62	0x3f045548	0.5169263
63	0xbef6f2d1	-0.4823213
64	0xbeddbdfa	-0.43309003
65	0xbc282c6d	-0.010264498
66	0xbe3da20a	-0.18518844
67	0xbee79ad9	-0.45235327
68	0x3edf496d	0.43610707
69	0x3eb2f0fd	0.34949484
70	0xbe136da5	-0.14397295
71	0xbd5f96c4	-0.05458714
72	0xbe9d21d8	-0.30689883
73	0x3f283ac6	0.6571468
74	0xbede2fe0	-0.433959
75	0x3f2b90d6	0.6701788
76	0xbef5d56d	-0.48014393
77	0xbebafa52	-0.36519104
78	0xbec1a115	-0.37818208
79	0xbe9045fd	-0.28178397

encoder.10.bias f4 [4]
0	0xbe65d0cd	-0.22442932
1	0xbe704f4c	-0.2346775
2	0x3e80a968	0.25129247
3	0x3e8ac0c5	0.27100196

decoder.0.weight f4 [20, 4]
0	0xbe68064a	-0.22658649
1	0x3edb18cf	0.42792365
2	0x3f41c960	0.756979
3	0x3fc89768	1.5671206
4	0x3f0262d9	0.5093208
5	0xbeb4b276	-0.35292405
6	0xbf22f77e	-0.63658893
7	0x3f1bc085	0.60840636
8	0xbe9325ee	-0.28739876
9	0xbd7b9fb9	-0.06143162
10	0x3f6277be	0.8846396
11	0x3f038e08	0.513886
12	0xbda33c1c	-0.07970449
13	0xbf80557d	-1.0026089
14	0xbf71647e	-0.94293964
15	0x3f51c9e3	0.8194868
16	0x3cdbfee8	0.026854947
17	0x3e79244b	0.24330251
18	0x3ef7f636	0.48430032
19	0x3f592744	0.8482554
20	0x3f2cd261	0.6750851
21	0xbf07163a	-0.5276829
22	0x3e9b4e7a	0.3033331
23	0xbf6a7c67	-0.9159607
24	0x3fa97053	1.3237404
25	0xbdde0ca6	-0.10842256
26	0x3f0f6063	0.5600645
27	0xbf391103	-0.7229158
28	0x3ef2fc8c	0.47458303
29	0xbebfba7b	-0.3744696
30	0xbf140a19	-0.5782791
31	0xbeebb380	-0.46035385
32	0xbe7937bb	-0.24337666
33	0x3f3d1df1	0.7387381
34	0xbea64321	-0.3247309
35	0xbf11f9ca	-0.5702177
36	0x3e8019f1	0.25019792
37	0x3f0596ab	0.52183026
38	0x3e68a803	0.22720341
39	0xbf0150e1	-0.50514036
40	0xbe25dc1e	-0.1619725
41	0x3e96299a	0.29328614
42	0x3eba70c6	0.36414164
43	0xbe471c09	-0.19444288
44	0xbfccdab2	-1.600424
45	0x3f3a76e5	0.7283767
46	0xbf2811e0	-0.65652275
47	0x3f3c2598	0.73494864
48	0x3d907b7c	0.07054803
49	0xbf80559c	-1.0026126
50	0xbf02a34e	-0.51030433
51	0x3ed51bd7	0.41622803
52	0x3f00f7c9	0.5037809
53	0x3edda3af	0.43288943
54	0x3de75869	0.1129616
55	0x3c8b0c73	0.01697371
56	0x3c0b1b80	0.008490443
57	0xbeb93cc9	-0.36179188
58	0xbee09fda	-0.43871957
59	0xbe3872e8	-0.18012583
60	0x3edc938e	0.43081325
61	0xbf00f127	-0.5036797
62	0x3f161e04	0.5863955
63	0xbefda388	-0.49538827
64	0xbf8addd1	-1.0848943
65	0xbe65a2bd	-0.22425361
66	0x3e564c80	0.2092762
67	0xbeeddaf7	-0.4645612
68	0xbf8679e7	-1.0505952
69	0xbeb9855a	-0.36234552
70	0x3f1ebc54	0.62006116
71	0xbdc0791c	-0.093981
72	0xbf0f9501	-0.56086737
73	0x3f26f952	0.6522418
74	0x3d6981cc	0.05700855
75	0xbe33260f	-0.17494987
76	0x3e7e4480	0.24830818
77	0xbe9cff37	-0.30663463
78	0xbda70e85	-0.08157066
79	0xbe9d6d6a	-0.3074754

decoder.0.bias f4 [20]
0	0xbf39e0a0	-0.72608376
1	0x3d87159b	0.06595918
2	0xbe980fdb	-0.29699597
3	0x3d9e08a7	0.07716494
4	0xbe7270d6	-0.23675856
5	0x3e56e3e5	0.20985372
6	0x3e051c21	0.12999012
7	0x3ea7e941	0.32795146
8	0xbe2c3b5c	-0.16819519
9	0x3ee8a525	0.45438495
10	0x3e51575c	0.20443481
11	0xbe415775	-0.18881018
12	0xbcc17be3	-0.023618644
13	0xbed3be06	-0.41355914
14	0xbef2de53	-0.47435245
15	0xbd8c34e7	-0.06846028
16	0xbe44a6b0	-0.19204211
17	0xbe6a1d91	-0.22862841
18	0x3e947d20	0.29001713
19	0x3e285f27	0.16442548

decoder.2.weight f4 [50, 20]
0	0x3e9fb737	0.3119447
1	0xbecf1fc7	-0.40453932
2	0xbe5247af	-0.20535158
3	0xbe8ed5d2	-0.27897507
4	0x3ce47e21	0.027892174
5	0x3e2b1686	0.16707811
6	0x3d1e547d	0.038654793
7	0x3e0ac825	0.13552912
8	0x3e3d2967	0.18472825
9	0x3e66f93f	0.22556017
10	0x3ce39766	0.027782153
11	0x3d98dc39	0.07463879
12	0xbe53ccf4	-0.20683652
13	0x3db067dc	0.086135596
14	0x3e5c80d0	0.21533513
15	0x3eb5b89c	0.35492408
16	0x3dda1a18	0.10649508
17	0x3e3a2cbf	0.18181132
18	0x3dd10bfb	0.10207363
19	0xbe17affe	-0.1481323
20	0xbe09c086	-0.13452348
21	0xbd58a368	-0.05289021
22	0xbc463e61	-0.012099833
23	0x3d92252c	0.07135996
24	0xbe116f3a	-0.14202586
25	0xbe1e4c14	-0.15458709
26	0x3e5bdfd0	0.21472096
27	0x3cd55f95	0.026046554
28	0xbe575c3e	-0.21031281
29	0xbe1767e7	-0.1478573
30	0x3dd69f0d	0.10479555
31	0x3da65493	0.081216
32	0x3ddcd2f7	0.10782426
33	0xbe1bb532	-0.1520584
34	0xbdb04b4c	-0.08608112
35	0x3d27fd80	0.04101324
36	0x3c312447	0.010811872
37	0x3e5f4684	0.21804243
38	0xbe575149	-0.21027102
39	0x3e22b1a7	0.15888081
40	0xbe0d230d	-0.13782902
41	0x3e3a5a6c	0.18198556
42	0x3e3aaa12	0.18228939
43	0xbcfdb6a9	-0.030970888
44	0xbc0aed0b	-0.008479367
45	0x3e2cbf4a	0.16869846
46	0x3e0953c5	0.13410862
47	0xbcec5881	-0.028850796
48	0xbdc6b488	-0.09702402
49	0x3e0b2328	0.1358763
50	0xbd18917e	-0.037248127
51	0xbd3cc429	-0.04608551
52	0x3e01bd6a	0.12669912
53	0x3d4b3cab	0.049618404
54	0xbda0309a	-0.0782177
55	0x3e34fc58	0.17674387
56	0x3c1292d1	0.008946137
57	0xbdf91e06	-0.1216393
58	0xbd455646	-0.04817798
59	0x3d58f397	0.05296668
60	0xbdca1120	-0.098665476
61	0x3e0cf408	0.13764966
62	0xbd892b66	-0.06697731
63	0xbda234ec	-0.0792025
64	0xbe72a0cc	-0.23694152
65	0xbc51cb9d	-0.012804893
66	0x3e215fde	0.15759227
67	0x3e8a8bf2	0.27059895
68	0x3d3c3cf3	0.045956563
69	0x3c358ed2	0.011081414
70	0xbd20730e	-0.039172225
71	0x3e2335aa	0.1593844
72	0x3d1a9493	0.037739348
73	0xbda7b9d6	-0.08189742
74	0xbe610ffb	-0.21978752
75	0x3d6efb1d	0.05834495
76	0x3dd933b8	0.10605568
77	0xbb909098	-0.004411768
78	0x3da66de4	0.08126429
79	0xbd81d0d0	-0.06338656
80	0xbeeb50e9	-0.45960167
81	0xbe91df6c	-0.2849077
82	0x3e0f966b	0.14022224
83	0x3d9fdc3b	0.078056775
84	0xbe628ab4	-0.22123224
85	0xbd11362a	-0.035452046
86	0x3e730f30	0.23736262
87	0xbe62ab2b	-0.22135608
88	0xbd93be4e	-0.07214032
89	0xbe69d5a5	-0.22835405
90	0xbdf7c569	-0.120982
91	0x3e6e02a0	0.23243189
92	0x3e8a9f9c	0.27074897
93	0xbe0a8b22	-0.13529637
94	0xbdcd402e	-0.10022007
95	0x3e9e0205	0.30860916
96	0x3e44911f	0.19195984
97	0x3e11418c	0.1418516
98	0x3e2f25ed	0.17104311
99	0x3e10d037	0.14141928
100	0x3e14fe01	0.1455002
101	0x3e66ec69	0.22551121
102	0x3e86b70d	0.26311532
103	0xbdee07b2	-0.116225615
104	0x3e824aeb	0.25447783
105	0x3e8c3f9b	0.27392277
106	0x3e82ec59	0.25570944
107	0xbeed0c78	-0.46298575
108	0x3e2312cf	0.15925144
109	0x3e79976a	0.24374166
110	0xbdd71ab5	-0.10503141
111	0xbe74ae3b	-0.23894589
112	0xbd969de3	-0.07354333
113	0xbe339756	-0.17538199
114	0x3e04413f	0.12915514
115	0x3dbcd61a	0.09220524
116	0xbc38d080	-0.011280179
117	0xbedb07e1	-0.4277945
118	0x3dd08c74	0.10183039
119	0x3cf3ab25	0.029744694
120	0x3e54aed4	0.20769817
121	0xbe45c17e	-0.19312093
122	0x3d2f139a	0.042743303
123	0xbcf787b6	-0.03021608
124	0x3dfc05dc	0.12305805
125	0x3e4d8c90	0.20073152
126	0x3c092630	0.008370921
127	0xbda7ea68	-0.08199006
128	0xbddab48a	-0.10678966
129	0x3e5a1d98	0.21300352
130	0xbd81f376	-0.063452646
131	0x3e086208	0.13318646
132	0xbdc25d93	-0.09490504
133	0xbe635bf1	-0.22203042
134	0xbe5382ca	-0.20655361
135	0x3e0056dd	0.12533136
136	0xbe5508e0	-0.20804167
137	0xbd5c8c83	-0.05384494
138	0xbc9396ba	-0.018016208
139	0xbdf5deb4	-0.12005368
140	0xbdd3b38f	-0.103369825
141	0xbd9cb492	-0.076516286
142	0xbddc41f2	-0.107547656
143	0xbcce43d4	-0.025178827
144	0xbe2812c5	-0.1641341
145	0x3b845106	0.004037979
146	0x3e66a1d3	0.22522669
147	0x3d823797	0.06358259
148	0x3e2a6d68	0.16643298
149	0x3e144eb6	0.14483151
150	0xbd42a1e9	-0.04751769
151	0x3e15b159	0.14618434
152	0x3d8f1d87	0.06988054
153	0xbe2859b7	-0.16440473
154	0xbe13852e	-0.14406273
155	0xbc5ac83c	-0.013353404
156	0x3dedf681	0.116192825
157	0x3d9e804c	0.077393144
158	0xbe8707a4	-0.26373017
159	0xbc9379a8	-0.018002346
160	0x3ed9abd5	0.4251391
161	0x3e856c9a	0.2605942
162	0x3e8a641b	0.270295
163	0xbe691160	-0.22760534
164	0x3eaf8912	0.34284264
165	0x3d8d2628	0.06892043
166	0x3e858d59	0.26084402
167	0xbe97723e	-0.29579347
168	0x3dac7beb	0.08422073
169	0x3e042ff8	0.12908924
170	0x3e1cedb3	0.1532505
171	0x3d5ef1f7	0.054429974
172	0xbd6d7c3a	-0.0579798
173	0x3ca77755	0.020442644
174	0xbe251ed8	-0.16125047
175	0xbe96ca50	-0.29451227
176	0xbe134016	-0.14379916
177	0xbd9f65a1	-0.07783056
178	0x3d68a1c9	0.056794915
179	0x3d92f186	0.07174973
180	0x3e4af667	0.19820558
181	0xbc8e4f64	-0.01737184
182	0x3e65c0dc	0.22436851
183	0x3dde8df2	0.10866918
184	0xbd004954	-0.03131993
185	0xbe83bb9e	-0.25729078
186	0xbde817ee	-0.11332689
187	0xbde20482	-0.11036016
188	0xbe01a8de	-0.12662074
189	0x3ddc4109	0.10754592
190	0x3e1544cb	0.14577024
191	0x3e434594	0.1906951
192	0xbd2a0e6f	-0.04151767
193	0xbdea09ff	-0.11427688
194	0x3de2ea94	0.110798985
195	0xbe797ba4	-0.24363571
196	0xbe3dc440	-0.18531895
197	0x3e111a72	0.14170244
198	0x3e3bc102	0.18335345
199	0x3e17470a	0.14773193
200	0xbd761a26	-0.06008353
201	0x3e2d0573	0.1689661
202	0xbd9bae49	-0.07601602
203	0xbd2c5fc2	-0.04208351
204	0x3e49faad	0.19724531
205	0x3e4ee46d	0.20204325
206	0x3e6ffe54	0.23436862
207	0x3e125dc8	0.14293587
208	0x3e27c8ef	0.16385244
209	0xbd690336	-0.056887828
210	0x3d8efc77	0.069817476
211	0x3d96ac05	0.07357029
212	0xbe200e04	-0.15630347
213	0xbd0ee12b	-0.034882706
214	0x3d9478d6	0.0724961
215	0xbe3fb28c	-0.18720454
216	0x3e7968a8	0.2435633
217	0xbe287856	-0.16452155
218	0x3e66c5ba	0.22536364
219	0xbd0521dd	-0.032502998
220	0x3e43c624	0.19118553
221	0x3d67111f	0.056412812
222	0x3d73ae95	0.059492666
223	0x3e098e0f	0.13433097
224	0xbdccd359	-0.10001249
225	0xbe2a3038	-0.16619956
226	0xbe6fea93	-0.23429327
227	0x3e1c4f85	0.1526471
228	0xbda753dd	-0.081702925
229	0xbe37a234	-0.1793297
230	0xbe742866	-0.23843536
231	0xbe5fa531	-0.2184036
232	0x3ca3cd9a	0.0199955
233	0xbdbd2d8e	-0.092372045
234	0xbd7c024c	-0.061525628
235	0xbe60165e	-0.21883532
236	0xbe10552b	-0.14094989
237	0x3d7c62d6	0.061617695
238	0xbd3e5a1b	-0.04647265
239	0x3d9b59db	0.07585498
240	0xbb4c92de	-0.003121547
241	0x3e85611f	0.2605066
242	0xbd1a3800	-0.037651062
243	0x3eb9ebd3	0.36312732
244	0x3c58ea05	0.013239388
245	0xbd5f4ad8	-0.054514736
246	0xbc3dcc61	-0.011584372
247	0x3bc92482	0.0061383853
248	0x3e3b88db	0.18313925
249	0x3e631465	0.22175749
250	0x3e1aa2d3	0.15101175
251	0xbeaa96d4	-0.33318198
252	0x3ea86c8d	0.32895318
253	0xbddd2219	-0.10797519
254	0x3dfb5315	0.12271706
255	0x3d21af44	0.039473787

decoder.2.bias f4 [50]
0	0x3e8451c0	0.2584362
1	0xbdb8d709	-0.0902539
2	0x3d0a4570	0.033757627
3	0x3dff73ed	0.12473283
4	0x3d9a1069	0.07522661
5	0x3e2c903b	0.16851895
6	0xbe08b9d4	-0.13352138
7	0x3e33e659	0.1756834
8	0x3e2f6fe2	0.17132524
9	0xbe572f4f	-0.2101414
10	0x3d844287	0.064580016
11	0xbdfb9faf	-0.122863166
12	0xbe193cb9	-0.1496457
13	0xbe8d785b	-0.27630886
14	0xbe295e9a	-0.16539994
15	0xbdb407d2	-0.08790554
16	0xbea4a681	-0.32158282
17	0x3d53eca9	0.05173937
18	0xbda014de	-0.0781648
19	0xbdc58b06	-0.09645657
20	0x3e1b363e	0.1515741
21	0x3c3bca83	0.011461857
22	0xbdb70510	-0.089365125
23	0xba731243	-0.00092724356
24	0x3e558711	0.20852305
25	0x3dec042e	0.11524235
26	0xbe4808e4	-0.19534642
27	0xbe69ad7b	-0.22820084
28	0x3e16a509	0.14711393
29	0xbdf66b0e	-0.12032138
30	0xbe48b853	-0.19601564
31	0x3d0a2f98	0.033736795
32	0x3d962967	0.073321156
33	0x3c824f5e	0.015906986
34	0xbe45d90a	-0.19321075
35	0xbd8204f2	-0.063485995
36	0xbea502ad	-0.32228604
37	0x3bbe9d75	0.00581711
38	0x3df38e60	0.1189239
39	0xbe0ca632	-0.13735273
40	0xbe0f096b	-0.13968436
41	0xbdc441c3	-0.095828556
42	0xbe037ff9	-0.12841786
43	0xbe48a03f	-0.19592379
44	0x3eceeaad	0.40413418
45	0x3de501f5	0.11182014
46	0x3d932068	0.071839154
47	0xbde57406	-0.1120377
48	0xbdcbaf3f	-0.09945535
49	0xbe112835	-0.14175494

decoder.4.weight f4 [50, 50]
0	0x3d350533	0.04419441
1	0xbe074d7a	-0.13213149
2	0xbda36439	-0.079781
3	0xbd674f1f	-0.05647194
4	0x3c93abc5	0.018026242
5	0xbd589690	-0.052877963
6	0xbdc9b029	-0.09848053
7	0xbd0f4a2c	-0.034982845
8	0xbd803069	-0.062592335
9	0x3cc70eff	0.024299143
10	0x3d8b2fdf	0.0679624
11	0x3c03bef2	0.00804113
12	0xbdd6932d	-0.1047729
13	0xbdd550fa	-0.10415836
14	0x3dfe6905	0.12422375
15	0xbd81b54b	-0.06333407
16	0x3c38eaf6	0.011286488
17	0xbda14ff5	-0.07876579
18	0x3c0e6392	0.008690732
19	0xbcab4d63	-0.020910924
20	0xbdd01b5d	-0.10161469
21	0xbdad189b	-0.08451959
22	0xbdd219f0	-0.102588534
23	0x3dc02308	0.09381682
24	0xbdafb4bc	-0.08579394
25	0x3e09a782	0.13442805
26	0xbe0ce6c7	-0.1375991
27	0xbd77bd23	-0.06048311
28	0xbdf2ea9b	-0.11861154
29	0xbde2a891	-0.11067308
30	0x3e00765c	0.1254515
31	0x3dce9ff9	0.10089106
32	0x3d228eb0	0.03968686
33	0xbb1c9cac	-0.0023897095
34	0xbe05e6b5	-0.13076289
35	0xbde4b6f9	-0.11167712
36	0x3cec3d93	0.028837955
37	0xbd673da8	-0.056455284
38	0xbe0bc557	-0.13649498
39	0x3d1960b9	0.037445758
40	0x3cbb2ade	0.02284759
41	0xbdaf11c1	-0.08548308
42	0x3c91d9d2	0.01780406
43	0xbd9a2813	-0.07527175
44	0xbda69d6b	-0.08135494
45	0x3e046fd3	0.12933283
46	0x3df623ad	0.12018523
47	0xbc05f678	-0.0081764385
48	0xbd9e4653	-0.07728257
49	0xbdb7a90d	-0.08967791
50	0xbe166d2c	-0.14690083
51	0xbdd5f7e7	-0.10447674
52	0x3d546c4b	0.05186109
53	0xbb290d93	-0.0025795444
54	0xbd35d14d	-0.044389058
55	0x3e44dcc1	0.19224836
56	0x3c35d87a	0.011098975
57	0xbd581047	-0.0527499
58	0x3e3fbcfb	0.18724434
59	0x3ce47468	0.027887538
60	0x3e07ae5a	0.13250104
61	0x3dd24ac4	0.10268167
62	0x3e0d71c4	0.1381293
63	0x3df97d58	0.121821105
64	0xbebf4e8a	-0.37364608
65	0xbd6848d4	-0.05671008
66	0x3e6afb8e	0.22947523
67	0x3c4973bf	0.012295662
68	0x3da48bb0	0.08034456
69	0x3c9815b8	0.018565044
70	0xbe15e9c5	-0.14639957
71	0x3df4b7ce	0.119491205
72	0xbc3c73dd	-0.011502233
73	0x3dd25d08	0.102716506
74	0x3db87d05	0.090082206
75	0x3e6e774c	0.23287696
76	0x3e2abe37	0.16674124
77	0xbdffa159	-0.124819465
78	0x3e815f12	0.25267845
79	0xbcaf2aba	-0.021382678
80	0xbe088359	-0.13331355
81	0xbde03341	-0.10947276
82	0xbdba8fdb	-0.091094695
83	0x3df733bd	0.12070415
84	0x3e2a2f47	0.16619597
85	0xbc00176a	-0.007818082
86	0x3cfbfb5b	0.030759504
87	0x3e0c4973	0.13699894
88	0xbe085417	-0.13313328
89	0x3e0abdb0	0.13548923
90	0xbe139396	-0.14411768
91	0xbe4b0f4d	-0.19830056
92	0xbd7597d6	-0.059959255
93	0x3df9b8a0	0.121934175
94	0x3e69128e	0.22760984
95	0xbd47e67e	-0.0488038
96	0xbd208942	-0.0391934
97	0x3dd31ba1	0.10308004
98	0xbd0b36a0	-0.03398764
99	0x3e841ea0	0.25804615
100	0x3e8c9e64	0.27464592
101	0xbe299ca9	-0.16563667
102	0xbd9cbf6a	-0.07653697
103	0xbdc70b80	-0.0971899
104	0x3e00d0fb	0.1257972
105	0x3d5c8e5e	0.05384671
106	0xbde1b28a	-0.11020382
107	0xbd9ce726	-0.076612756
108	0x3d47d926	0.048791073
109	0xbd74fa5f	-0.059809085
110	0xbda07079	-0.078339525
111	0x3d08e3c1	0.033420328
112	0xbe3e6efd	-0.18597026
113	0x3d1a7962	0.037713416
114	0x3e74d61c	0.23909801
115	0xbd3bb00e	-0.045822196
116	0x3da5e070	0.08099449
117	0xbdc54a84	-0.09633353
118	0xbbe878a4	-0.0070944596
119	0xbd7820d5	-0.060578186
120	0x3d9a6cc7	0.07540279
121	0xbd775d47	-0.06039169
122	0xbdcf541f	-0.10123467
123	0xbd98fd5a	-0.07470198
124	0x3d1c78ff	0.03820133
125	0xbcaa22f3	-0.020768618
126	0x3cd21e6d	0.025649274
127	0xbd6c3614	-0.05766876
128	0xbc5a6b61	-0.013331265
129	0xbdf622c7	-0.12018352
130	0x3ceb1399	0.028695868
131	0xbddbe833	-0.10737648
132	0x3cb1fb3b	0.021726241
133	0x3e00fcea	0.12596479
134	0xbddd3685	-0.108014144
135	0x3cb93c26	0.022611689
136	0x3db81e71	0.08990181
137	0x3e02b4d8	0.12764299
138	0xbdf3d2fe	-0.11905478
139	0x3c708157	0.0146792745
140	0x3d209369	0.03920308
141	0x3d599dce	0.05312901
142	0x3dccb63e	0.099956974
143	0x3ce22b7f	0.027608631
144	0x3e90c3fc	0.28274524
145	0xbdf547dd	-0.119765975
146	0x3d37bb94	0.044856623
147	0xbe4e0df3	-0.20122509
148	0xbc5e9a45	-0.013586585
149	0x3e934152	0.28760773
150	0xbd9fe09e	-0.07806514
151	0xbde8da39	-0.11369748
152	0xbd7c3b3d	-0.06157993
153	0x3e33962c	0.17537755
154	0xbdd65ffd	-0.10467527
155	0xbe7c38a4	-0.24630982
156	0x3dd6c7fc	0.10487363
157	0xbcaa4799	-0.020786094
158	0x3b8af8b5	0.004241074
159	0x3db5c45f	0.088753454
160	0xbaa9fe04	-0.0012969379
161	0xbdc6fed1	-0.09716571
162	0xbe1e291e	-0.15445372
163	0x3ecfb097	0.40564415
164	0xbe21f51b	-0.15816157
165	0xbe6c1c72	-0.23057726
166	0xbd0f6eb1	-0.035017673
167	0xbd1b61be	-0.03793501
168	0xbbcdac77	-0.006276663
169	0x3df59b15	0.1199247
170	0x3eb78354	0.35842383
171	0x3dc2ce60	0.09512019
172	0xbd5b2b28	-0.053507954
173	0x3d878981	0.06618024
174	0x3e0df2fa	0.1386222
175	0xbd113b9b	-0.035457235
176	0xbe18b505	-0.14912803
177	0x3d27f647	0.041006353
178	0x3d9a904c	0.07547054
179	0x3d6ff535	0.058583457
180	0xbdf74b9c	-0.12074968
181	0x3e89e650	0.26933527
182	0xbdaa7ff1	-0.08325184
183	0xba12a428	-0.0005593919
184	0x3d0555b9	0.032552455
185	0xbd802918	-0.06257838
186	0x3e946872	0.28985935
187	0xbb8aac95	-0.004231999
188	0x3bcdb101	0.006277204
189	0x3d96b682	0.07359029
190	0x3dc032ef	0.09384715
191	0x3ea63983	0.32465753
192	0x3d183104	0.03715612
193	0x3dd808d2	0.10548557
194	0x3e652d39	0.22380532
195	0x3c746d1b	0.014918591
196	0x3e9441dc	0.28956497
197	0xbe594727	-0.21218549
198	0x3df92747	0.12165695
199	0xbe73baa5	-0.23801668
200	0x3e1a8054	0.15088016
201	0xbd49e0f3	-0.049286794
202	0x3cfa6da1	0.030569853
203	0xbbbecb33	-0.005822563
204	0x3d6dc89d	0.058052648
205	0xbd701b55	-0.058619816
206	0x3cf3412d	0.029694164
207	0x3d3a1b20	0.045436025
208	0xbb467ab2	-0.0030285534
209	0x3e50eaff	0.20402144
210	0xbd854442	-0.0650716
211	0x3e222daa	0.15837732
212	0xbe02764c	-0.12740439
213	0x3f0551be	0.52077854
214	0x3dfc6e7d	0.123257615
215	0xbddfa3b1	-0.109198935
216	0x3e998025	0.2998058
217	0xbdb90ed2	-0.0903603
218	0x3e1783d7	0.14796387
219	0x3d75758f	0.059926566
220	0x3de0bba0	0.10973287
221	0x3cb4afa5	0.02205641
222	0xba7d268a	-0.0009656927
223	0xbda0918a	-0.078402594
224	0xbd7128b6	-0.058876716
225	0x3df5e826	0.120071694
226	0x3d2edd10	0.04269129
227	0xbe20c626	-0.15700588
228	0xbd92d69c	-0.0716984
229	0xbe61d654	-0.22054416
230	0x3dfd1a32	0.12358512
231	0x3cd8f307	0.026483072
232	0x3ca85185	0.020546684
233	0x3e4b12a2	0.19831327
234	0x3d424f56	0.047438942
235	0x3de8dffc	0.11370847
236	0x3ec43f14	0.38329375
237	0xbe011f14	-0.12609512
238	0x3dc365e1	0.09540916
239	0x3e94d4a6	0.29068488
240	0xbc7f6177	-0.015587202
241	0x3e17249b	0.14760058
242	0x3dcf06c7	0.101087146
243	0x3daab98a	0.0833617
244	0x3e833e42	0.25633436
245	0x3d845d10	0.06463063
246	0x3d180c3c	0.037121043
247	0x3d8b7c83	0.06810858
248	0x3e27cffc	0.16387933
249	0xbee127ac	-0.4397558
250	0xbccf31b5	-0.025292257
251	0xbcc0feaf	-0.023558943
252	0x3dbdd836	0.092697546
253	0x3cbbb524	0.022913523
254	0x3de811d1	0.11331523
255	0x3bbee19b	0.005825234

decoder.4.bias f4 [50]
0	0xbe0030e9	-0.12518658
1	0x3dd6d79b	0.10490342
2	0x3ea1c6e6	0.3159706
3	0xbcc48eab	-0.02399381
4	0x3df52424	0.11969784
5	0xbdf8923d	-0.12137268
6	0xbe880ede	-0.26573843
7	0x3da1f61d	0.079082705
8	0xbe17c416	-0.14820895
9	0x3d9d82cd	0.07690964
10	0xbe072100	-0.13196182
11	0xbddbfcdd	-0.10741589
12	0xbe14d0d3	-0.14532785
13	0xbb4634d2	-0.0030243886
14	0x3ce24bec	0.027624093
15	0xbe2de9ca	-0.16983715
16	0xbcaffe47	-0.021483554
17	0xbc0e7e49	-0.008697101
18	0x3d8740e1	0.066041715
19	0xbdd494e0	-0.10379958
20	0xbdcd5b35	-0.10027162
21	0x3cb7f6cc	0.02245655
22	0x3e8b0954	0.27155554
23	0xbce44e1e	-0.02786928
24	0x3dac1c4e	0.08403836
25	0xbda248a3	-0.079240106
26	0xbd8699ed	-0.06572328
27	0xbd7ee8a5	-0.062233586
28	0xbcf95fc5	-0.030441174
29	0x3e44782f	0.19186471
30	0x3d3a10a7	0.045426037
31	0x3e12fd0f	0.14354347
32	0x3bdef8dd	0.006804569
33	0xbd06511f	-0.032792207
34	0x3ca5723e	0.020196076
35	0x3d4cc7bf	0.04999518
36	0x3e0e2380	0.1388073
37	0x3de4dc91	0.11174882
38	0x3e1010e1	0.14068939
39	0xbad88749	-0.001651981
40	0xbd1fa61d	-0.038976777
41	0xbbb4e41d	-0.0055203573
42	0x3e2b4109	0.16724028
43	0x3d84184c	0.06449947
44	0xbe05813c	-0.1303758
45	0xbd87c6f1	-0.06629742
46	0x3d4895da	0.048971035
47	0xbdbc462a	-0.0919307
48	0x3e5dee11	0.21672846
49	0xbbe1cc6d	-0.0068908245
