RiskViz Folder/model/checkpoint_1000.tar (torch, 110796 bytes, 51 tensors)

encoder.1.weight f4 [50, 6]
0	0xbf0542e3	-0.52055186
1	0x3b48e862	0.003065609
2	0xbb804944	-0.003914984
3	0x3e695ce0	0.22789335
4	0xbea9dfec	-0.3317865
5	0x3df4889e	0.1194012
6	0xb9dc1c78	-0.0004198288
7	0xbbc8ade8	-0.006124247
8	0xba7e834b	-0.0009708895
9	0x40209120	2.5088577
10	0x3c5f3fda	0.013626063
11	0xbe550d6e	-0.20805904
12	0xbe425828	-0.18978941
13	0xbe64884b	-0.22317617
14	0x3b7b8336	0.0038377768
15	0xbd839cd1	-0.06426395
16	0x3eb47713	0.35247096
17	0xbeb889f8	-0.36042762
18	0x3e4160f4	0.18884641
19	0xba47eac2	-0.0007626229
20	0x3b6fee04	0.0036610374
21	0xbdeffaef	-0.11717784
22	0x3c81ece9	0.015860038
23	0x3f8ed1c9	1.1157771
24	0xbd129b74	-0.035792783
25	0xbe2eacda	-0.17058125
26	0xbb2435af	-0.0025056412
27	0x3f4764c7	0.7788815
28	0x3e7944a9	0.24342598
29	0xbf0a153f	-0.5393867
30	0x3f222158	0.6333213
31	0x3c92428b	0.017853996
32	0x3bbc1aa4	0.0057404805
33	0x3dcd3e7a	0.10021682
34	0x3d241b64	0.040065184
35	0x3f7db77b	0.99108094
36	0xbd9f5ae8	-0.07781011
37	0xbe6739bd	-0.22580619
38	0xbdeae1de	-0.11468862
39	0xbe7b1018	-0.24517858
40	0x3e552860	0.20816183
41	0xbe50f8fd	-0.20407481
42	0xbf32b633	-0.69809264
43	0x3dd60e00	0.10451889
44	0xbb40e173	-0.0029431253
45	0xbd00f7a9	-0.031486187
46	0xbdf7a809	-0.12092597
47	0xbd602de3	-0.05473126
48	0x3f2a75ae	0.66585815
49	0xbbb8b197	-0.0056364047
50	0xbb564e79	-0.0032700582
51	0x3f65a001	0.8969727
52	0x3f2292e5	0.63505393
53	0x3d3e29e8	0.046426684
54	0xbea52900	-0.32257843
55	0x3c31a116	0.010841629
56	0xbe427bb8	-0.18992507
57	0xbb03770c	-0.002005997
58	0x3e4bd5f9	0.19905843
59	0x3e382171	0.17981507
60	0xbeeae51d	-0.45877925
61	0x3ca808a8	0.02051194
62	0x3b747901	0.003730357
63	0xbf765941	-0.9622994
64	0xbe8c011a	-0.2734459
65	0x3e0d0523	0.13771491
66	0xbe6e8a82	-0.23295024
67	0xbe36933d	-0.17829604
68	0x3e0c6993	0.13712148
69	0x3e7098f2	0.23495844
70	0x3bbb7119	0.0057202694
71	0xbe229d14	-0.15880233
72	0xbe17eb7f	-0.14835928
73	0xbcb3ea93	-0.02196244
74	0xbd1d101a	-0.038345434
75	0x3f89d724	1.0768781
76	0xbdcc66f3	-0.099805735
77	0x3f14f93c	0.581928
78	0xbf000248	-0.5000348
79	0x3bd1a3b0	0.006397687
80	0x3aaf0e8a	0.0013355773
81	0xbf4670c9	-0.77515846
82	0xbe8d69e6	-0.27619857
83	0x3dee7901	0.116441734
84	0xc007e18c	-2.1231413
85	0xbadce353	-0.0016852416
86	0x3b805f81	0.003917635
87	0x3e5e3aa8	0.21702063
88	0xbeec4611	-0.46147206
89	0x3f12ab60	0.5729275
90	0xbf2c5619	-0.67318875
91	0xbafb1250	-0.0019155238
92	0xbb5e92cc	-0.003396201
93	0xbde27f0f	-0.11059391
94	0xbed53971	-0.41645387
95	0xbdd9a801	-0.10627747
96	0xbe83c9fa	-0.25740033
97	0x3e8e7e07	0.27830526
98	0x3e217745	0.15768154
99	0x3ea5f5bd	0.32414046
100	0xbe9b36c5	-0.30315223
101	0xbecc6a54	-0.39924872
102	0xbf795df2	-0.97408974
103	0x3b222bef	0.0024745425
104	0xbc279ab8	-0.010229759
105	0xbf55e315	-0.83549625
106	0x3f34710d	0.70485
107	0x3f0c13a8	0.54717493
108	0xba5ea24e	-0.0008492813
109	0xbb96320e	-0.0045836037
110	0xbc0066bd	-0.007836995
111	0x401aaa7e	2.416656
112	0x3b980d2d	0.0046402426
113	0xbe35374e	-0.17696878
114	0x3daf84db	0.08570262
115	0xbe9d1051	-0.3067651
116	0xbe5fad92	-0.21843556
117	0xbe447a9a	-0.19187394
118	0xbe6c8c84	-0.23100477
119	0x3d944263	0.07239225
120	0xbddd62c8	-0.10809857
121	0x3ae9e58b	0.0017844898
122	0x3abe82ea	0.0014534865
123	0xbf329eee	-0.6977376
124	0x3f3d822d	0.7402676
125	0x3d848de7	0.06472378
126	0xbeb53bba	-0.3539713
127	0xbe879cec	-0.2648691
128	0x3e1e66a8	0.15468848
129	0x3e1bf833	0.15231399
130	0xbe814011	-0.2524419
131	0xbe03e065	-0.12878568
132	0xc02060b5	-2.5059025
133	0xbac71375	-0.0015188294
134	0x3a73f0bc	0.00093055866
135	0xbebbbb38	-0.36666274
136	0xbea5b287	-0.32362768
137	0x3e4f28fe	0.20230481
138	0x3ea4e7e0	0.32208157
139	0xbdb34c35	-0.0875477
140	0xbd8b7d33	-0.06810989
141	0x3e107b49	0.1410953
142	0x3d6c7f70	0.05773872
143	0xbe09b8e4	-0.13449436
144	0xbea42f1d	-0.32067195
145	0xbe54b02e	-0.20770332
146	0x3d9401a7	0.07226878
147	0xbd2e201b	-0.042511087
148	0x3efbc868	0.49176335
149	0xbc3aed70	-0.011409149
150	0xbdd59597	-0.104289226
151	0xbec7c5b2	-0.39018017
152	0xbebf1c65	-0.3732635
153	0x3e34a8bc	0.17642492
154	0x3ea27498	0.3172958
155	0xbad9369a	-0.0016572059
156	0xc01e67de	-2.4750896
157	0x3b530309	0.0032197854
158	0x3c4725eb	0.012155036
159	0xbf22f53f	-0.63655466
160	0xbe112335	-0.14173587
161	0x3e010b27	0.1260191
162	0xc01021b5	-2.2520573
163	0x3b95a6ca	0.004567002
164	0xb9c15ce9	-0.00036881052
165	0xbf0f72cb	-0.56034535
166	0xbe025733	-0.12728576
167	0xbefd664b	-0.49492106
168	0x3f4e8299	0.80668026
169	0xbba8b93b	-0.0051490343
170	0xbab10ebd	-0.0013508421
171	0xbf9029b1	-1.1262723
172	0x3f28d969	0.6595674
173	0x3d6a2f8b	0.057174247
174	0xbe67dceb	-0.22642867
175	0xbcd49446	-0.025949609
176	0xbe940002	-0.28906256
177	0xbc9a3dab	-0.018828234
178	0x3e6a88b6	0.22903714
179	0xbe3be519	-0.18349113
180	0x3f4962b0	0.7866621
181	0xbc545a4a	-0.01296098
182	0xbb09088a	-0.002090963
183	0x3f074e6d	0.52854043
184	0xbeaee5aa	-0.34159595
185	0xbe9c5c54	-0.3053919
186	0x3d223939	0.039605353
187	0xbc1de2e7	-0.009636617
188	0xbbeb4852	-0.007180252
189	0xbd83ebb4	-0.06441441
190	0x3e1baae4	0.15201908
191	0x3fa6c966	1.3030212
192	0x3ea02e1e	0.31285185
193	0xbecc3ac4	-0.39888585
194	0x3d2ef4f9	0.042714093
195	0xbc9fe0c7	-0.019516362
196	0x3de0df1d	0.109800555
197	0xbdcd1f0e	-0.10015689
198	0x3dc1b41a	0.0945818
199	0xbe824299	-0.25441435
200	0x3e3a9596	0.18221125
201	0x3f23f03e	0.64038455
202	0xbab46d27	-0.001376544
203	0xbe7f146a	-0.24910131
204	0xbf2db65f	-0.678564
205	0xbd1542ed	-0.03644078
206	0x3a5e9334	0.0008490563
207	0x3d4d5a5b	0.050134998
208	0xbc370766	-0.0111711975
209	0x3f8bb590	1.0914783
210	0x389ee08a	7.575851e-05
211	0x39c038b0	0.0003666333
212	0xbbbbb4fa	-0.005728361
213	0x3fc81a55	1.5633036
214	0x3ec13dcd	0.37742463
215	0xba2a42e8	-0.0006494955
216	0x3e66acc9	0.2252685
217	0x3e0949c1	0.13407041
218	0x3d2507ba	0.04029057
219	0xbdf27028	-0.11837798
220	0x3d803250	0.06259596
221	0x3cef4fa9	0.02921279
222	0x3bbd9e2b	0.0057866774
223	0x3bc73a5c	0.006079955
224	0xbaab6aba	-0.0013078072
225	0xbf399ad2	-0.7250186
226	0x3ce69e04	0.02815152
227	0x3f3a57c4	0.7279017
228	0x3ca6cb44	0.020360596
229	0xbc99f690	-0.018794328
230	0xbc2ee895	-0.010675569
231	0xbe3fbdda	-0.18724766
232	0x3e67d248	0.2263881
233	0x3fb8b7d8	1.4431105
234	0x3f8d9c23	1.1063274
235	0xbab084a0	-0.001346726
236	0xb9e40f62	-0.0004349901
237	0xbeb0238e	-0.34402126
238	0xbddb4dd7	-0.10708206
239	0xbf19ae63	-0.6003172
240	0xc02095c9	-2.5091422
241	0x3bcb6dbd	0.00620815
242	0xbb84f449	-0.0040574414
243	0xbf531028	-0.8244653
244	0xbe9ea3da	-0.30984384
245	0x3e6beac5	0.23038776
246	0xbb87f987	-0.004149619
247	0xba9e37d7	-0.0012071085
248	0xbb3bf53f	-0.0028680114
249	0x40187fe5	2.382806
250	0xbec5990c	-0.38593328
251	0xbe47d760	-0.19515753
252	0xbf18ad2a	-0.5963923
253	0x3c7949de	0.015215365
254	0xbc7e9114	-0.015537519
255	0x3e3b425c	0.18287033

encoder.1.bias f4 [50]
0	0x3e7f34cd	0.24922486
1	0xba3fffc9	-0.0007324187
2	0xbce8374f	-0.028346686
3	0xbe1850ef	-0.14874624
4	0xbdab3e32	-0.08361472
5	0xbeffe87d	-0.49982062
6	0xbe08902f	-0.13336252
7	0xbcf7c9a1	-0.030247511
8	0xbeadc44b	-0.33938822
9	0xbeaa7890	-0.33295107
10	0x3e3d6490	0.18495393
11	0xbec95059	-0.39319113
12	0xbf64502c	-0.8918483
13	0x3e5f5d2b	0.21812885
14	0x3cab48d2	0.020908747
15	0x3ead602c	0.33862436
16	0xbeb8ed06	-0.36118335
17	0x3c1d3ac1	0.009596528
18	0xba31e7a7	-0.0006786533
19	0xbe891f76	-0.26781815
20	0x3d60cc63	0.05488242
21	0xbe110a47	-0.14164077
22	0x3c94960a	0.01813795
23	0xbebfac41	-0.37436107
24	0xbd4bf456	-0.049793564
25	0xbe9acda7	-0.30235025
26	0x3cb66fa2	0.022270028
27	0x3cb3c578	0.021944746
28	0xbed34022	-0.41259867
29	0xbe764c27	-0.24052487
30	0xbed784ea	-0.42093593
31	0xbe6e007e	-0.23242375
32	0xbed6b2de	-0.4193334
33	0xbeaca429	-0.33718994
34	0x3b775b39	0.0037743582
35	0xbb14ba2b	-0.0022693973
36	0xbeb32e4f	-0.34996268
37	0xbc896319	-0.016770886
38	0xbeaf38aa	-0.3422292
39	0xbf2ccdaa	-0.6750132
40	0x3c232897	0.009958408
41	0xba2316c5	-0.00062213495
42	0xbb9e94a2	-0.0048394958
43	0xbee16017	-0.44018623
44	0xbf28657a	-0.6577984
45	0x3acd8043	0.0015678484
46	0xbb9c771b	-0.0047749407
47	0x3ca6102c	0.020271383
48	0xbe8f2a6f	-0.27962062
49	0xbae645bf	-0.0017568393

encoder.4.weight f4 [50, 50]
0	0x3d46874e	0.04846888
1	0xbebebf49	-0.37255314
2	0xbdfe80d8	-0.12426919
3	0xbdd6c5a1	-0.104869135
4	0xbe703569	-0.23457874
5	0x3df1194f	0.11772405
6	0xbc938926	-0.018009733
7	0x3d5bc0b4	0.053650573
8	0x3d765afb	0.06014536
9	0x3db59cff	0.08867835
10	0x3e32dce6	0.17467079
11	0x3bae263c	0.0053146165
12	0xbdc46b5a	-0.09590788
13	0xbb85b483	-0.0040803566
14	0x3e645976	0.22299752
15	0xbd278db1	-0.04090661
16	0xbe0f2563	-0.13979106
17	0x3b7c832b	0.003853033
18	0xbebeee85	-0.3729135
19	0xbdca92af	-0.09891259
20	0xbd2146f8	-0.03937432
21	0x3d057de5	0.032590766
22	0x3e782685	0.24233444
23	0xbccf5f35	-0.025313953
24	0x3ce55831	0.027996155
25	0xbd0df396	-0.03465613
26	0x3dfaae04	0.12240222
27	0x3e95503b	0.29162773
28	0x3d1c0631	0.038091842
29	0x3dce6694	0.10078159
30	0x3e10679c	0.14102024
31	0xbdd2f633	-0.10300865
32	0x3d19cfa7	0.03755155
33	0x3d8a12ff	0.067419045
34	0x3daea265	0.08527068
35	0xbe937026	-0.287965
36	0xba39a5ed	-0.0007081915
37	0xbdd123ab	-0.10211881
38	0x3bf67dc1	0.0075223153
39	0x3e81b0c1	0.25330165
40	0x3e7bd597	0.24593197
41	0xbeaaa07d	-0.33325568
42	0xbcf62203	-0.030045515
43	0xbd91fdca	-0.071284845
44	0x3ee22f2f	0.44176623
45	0xbc829ab8	-0.015942916
46	0xbe95b33b	-0.29238304
47	0xbc128dca	-0.008944938
48	0x3d7381f6	0.059450112
49	0xbddfc0f8	-0.10925478
50	0xbc8833d9	-0.016626285
51	0xbc7499e9	-0.014929273
52	0x3d528d8b	0.051404517
53	0xbde3e622	-0.11127879
54	0xbc9b1563	-0.018931096
55	0x3e4f92de	0.20270869
56	0xbd938fd6	-0.07205169
57	0x3b8a8a78	0.0042279325
58	0xbd6105c2	-0.05493713
59	0x3d9915ac	0.07474837
60	0xbd4b942d	-0.04970186
61	0xbdd998ba	-0.106248334
62	0xbde89787	-0.113570265
63	0x3e746432	0.23866346
64	0x3ddeef9e	0.10885547
65	0xbcff235c	-0.03114479
66	0xbe07bbb2	-0.13255194
67	0x3c9a5e54	0.018843807
68	0xbbbe5afc	-0.005809186
69	0x3c85eda1	0.016348662
70	0x3b9f8b62	0.0048689106
71	0xbcfd40ba	-0.030914653
72	0x3e7420fe	0.2384071
73	0x3d5345a3	0.051580083
74	0x3d0fc159	0.0350965
75	0xbd9cadfc	-0.076503724
76	0x3ebbb326	0.36660117
77	0x3eba07c7	0.3633406
78	0xbca177cc	-0.019710444
79	0x3e063b30	0.13108516
80	0xbdc64cc8	-0.096826136
81	0xbe141e1b	-0.1446461
82	0x3cdd9a60	0.02705115
83	0x3d0e62f9	0.034762356
84	0x3e218cde	0.15776393
85	0xbda6347a	-0.08115478
86	0x3dc32134	0.09527817
87	0xbc11f1a2	-0.008907707
88	0xbe12d2b3	-0.14338188
89	0x3eaa3df6	0.33250397
90	0x3e92e679	0.28691462
91	0xbc64a62b	-0.013955633
92	0xbdba75ba	-0.09104486
93	0xbdc3b1ce	-0.09555398
94	0x3e5cd524	0.21565682
95	0x3e0c95f3	0.13729076
96	0xbdf7e32c	-0.121038765
97	0xbdb855cb	-0.09000739
98	0xbd2b5def	-0.04183763
99	0x3d215c2c	0.039394543
100	0x3d0ac73d	0.033881415
101	0xbed14d35	-0.40879217
102	0x3dccbca5	0.099969186
103	0x3ddb6fd5	0.1071469
104	0xbce529a7	-0.027973963
105	0xbc357fcb	-0.0110778315
106	0xbd31f64a	-0.04344777
107	0x3b9eefdf	0.004850372
108	0xbe4e19a4	-0.20126969
109	0x3e0feefb	0.14056008
110	0x3d18626b	0.037203234
111	0x3e09a6d7	0.1344255
112	0x3e0240c7	0.12720023
113	0x3d8f39fc	0.069934815
114	0xbe76d121	-0.24103214
115	0x3d01874a	0.031623162
116	0xbd5cfee9	-0.05395404
117	0xbd39491c	-0.04523574
118	0xbe9e484a	-0.30914527
119	0x3da14c85	0.07875923
120	0x3e6469bf	0.22305964
121	0xbde0c10c	-0.10974321
122	0xbe747c2c	-0.23875493
123	0x3d2c5687	0.042074706
124	0x3acd3a49	0.0015657629
125	0x3d856707	0.065137915
126	0x3d071800	0.032981873
127	0xbd418687	-0.047247436
128	0xbe543627	-0.20723782
129	0xbd278c09	-0.040905032
130	0xbe8fe478	-0.28103995
131	0x3d945446	0.072426364
132	0x3dc8cc96	0.09804647
133	0xbe09991a	-0.1343731
134	0x3d1e3395	0.03862341
135	0xbd4de484	-0.050266758
136	0x3ddd6c34	0.10811654
137	0x3de1f7ed	0.11033616
138	0x3d320453	0.043461155
139	0xbe7980e5	-0.24365576
140	0xbd3b3384	-0.045703426
141	0xbe40337d	-0.18769641
142	0xbdda95ee	-0.10673128
143	0xbbc7a3ae	-0.00609251
144	0xbe26e8f2	-0.16299799
145	0x3dd38990	0.10328972
146	0x3ba50594	0.0050360654
147	0xbdd24832	-0.102676764
148	0xbdd13f4a	-0.102171496
149	0xbe2f94bb	-0.1714658
150	0xbe7b3022	-0.2453008
151	0xbe6acd5a	-0.22929898
152	0xbc544059	-0.012954795
153	0xbd777a9b	-0.06041966
154	0xbd7853f8	-0.060626954
155	0x3e60c6e7	0.21950875
156	0x3dffc1aa	0.1248811
157	0x3d68bd39	0.05682108
158	0x3d7ceae8	0.06174746
159	0xbde96a89	-0.11397273
160	0xbda9bf31	-0.0828842
161	0xbdf616b6	-0.120160505
162	0x3dd2559e	0.102702364
163	0xbe57f825	-0.21090753
164	0x3cc1cc1e	0.023656901
165	0xbe55538b	-0.2083265
166	0xbdc83a8f	-0.09776794
167	0xbe909f67	-0.28246614
168	0xbe62bea2	-0.22143033
169	0xbd84690e	-0.0646535
170	0xbea8171c	-0.3283013
171	0x3dcce079	0.10003752
172	0xbd8aaa9b	-0.06770822
173	0xbc89d447	-0.016824855
174	0xbd07a566	-0.03311672
175	0x3d708eec	0.05873005
176	0xbd7f83bf	-0.062381502
177	0xbc8c2d1a	-0.01711135
178	0x3d0b5e3a	0.03402541
179	0x3dc7dd13	0.097589634
180	0x3e1dd2c9	0.1541244
181	0xbde0afbc	-0.10971019
182	0xbd11b234	-0.03557034
183	0xbde45a4f	-0.111500375
184	0x3d703985	0.058648605
185	0xbe6d45d3	-0.23171167
186	0x3cb06a32	0.021535013
187	0xbe9d0b23	-0.3067256
188	0x3b656226	0.0035001128
189	0x3e8f6103	0.28003702
190	0xbdbe635b	-0.09296294
191	0xbe63011d	-0.22168393
192	0xbe3da5d8	-0.18520296
193	0x3e0633e5	0.13105734
194	0x3ecc4751	0.3989816
195	0xbd7af96d	-0.061273027
196	0xbe962279	-0.29323176
197	0x3d7a809c	0.061157808
198	0x3dc46e3c	0.09591338
199	0xbdf26623	-0.11835887
200	0x3d90549c	0.07047388
201	0xbe1a53a9	-0.15070976
202	0xbcceaafe	-0.02522802
203	0x3ef6d0b5	0.48206106
204	0xbe057dcd	-0.1303627
205	0x3ead7b42	0.338831
206	0xbd94fb80	-0.07274532
207	0x3e0aaeaf	0.13543199
208	0xbc19a662	-0.009378048
209	0xbdc0e66b	-0.09418949
210	0xbd68c638	-0.05682966
211	0x3de44eda	0.11147852
212	0xbd0d76fa	-0.034537293
213	0xbd2713ce	-0.04079037
214	0x3d093124	0.03349413
215	0xbcd28721	-0.0256992
216	0xbdf3433b	-0.118780576
217	0x3c8b1160	0.016976058
218	0xbe651797	-0.2237228
219	0x3d09e286	0.033663295
220	0xbbb89f7a	-0.0056342455
221	0xbd2ea5f6	-0.04263874
222	0xbd6d55e5	-0.057943244
223	0x3dab0110	0.08349812
224	0x3b9c2d7a	0.0047661634
225	0x3d87bb2b	0.06627496
226	0x3dbe5dec	0.09295258
227	0x3dbad988	0.09123522
228	0xbc39a642	-0.011331143
229	0x3d67b3db	0.056568008
230	0xbd24e95d	-0.040261615
231	0x3edb7874	0.42865336
232	0xbd5d2eff	-0.053999897
233	0x3dbc9213	0.09207549
234	0x3ea14668	0.31499028
235	0x3d0c8fa4	0.034316674
236	0xbe090245	-0.13379772
237	0xbd53f2b7	-0.051745143
238	0x3ed4542b	0.41470465
239	0x3e41eb12	0.18937328
240	0xbc1e161e	-0.009648828
241	0xbe81734a	-0.2528327
242	0xbc9d7f2f	-0.019225685
243	0x3dade42a	0.084907845
244	0xbda91ea6	-0.08257799
245	0x3d4ea1f7	0.05044743
246	0x3c5da979	0.013529175
247	0xbde0ba3c	-0.109730214
248	0xbd8fed9a	-0.07027741
249	0x3e22b945	0.15890987
250	0xbd0f209b	-0.034943204
251	0xbd2c9e62	-0.042143233
252	0xbce4651d	-0.027880246
253	0x3e78bb17	0.24290119
254	0x3c759969	0.014990189
255	0x3e868395	0.26272264

encoder.4.bias f4 [50]
0	0xbb6439f3	-0.003482458
1	0xbc45958e	-0.012059582
2	0x3bc73a69	0.006079961
3	0x3c065a0c	0.00820018
4	0xbc084adc	-0.008318629
5	0xbacfd11a	-0.0015855164
6	0xbf32ce7a	-0.6984631
7	0xbbbdd900	-0.0057936907
8	0xbea567b6	-0.32305688
9	0xbc659eb1	-0.014014886
10	0xbaddd2dd	-0.0016923804
11	0x3c3da6af	0.011575385
12	0xbb364b5a	-0.002781591
13	0x397ac1f8	0.00023914117
14	0xbe9c3028	-0.3050549
15	0xbcdf14d4	-0.027231611
16	0x3c0325fe	0.0080046635
17	0xbbd02572	-0.00635212
18	0xbc757c80	-0.014983296
19	0xbf22cf8a	-0.6359793
20	0xbdcfc450	-0.101448655
21	0xbc82cc44	-0.015966542
22	0xbe89efb6	-0.26940697
23	0xbb9dd960	-0.004817173
24	0xbaa0afe4	-0.0012259451
25	0xbb9b1842	-0.0047331164
26	0xbc22ce82	-0.009936931
27	0xbab09fa6	-0.0013475313
28	0x3bf47303	0.0074599995
29	0xbc02fd24	-0.007994924
30	0xbae62292	-0.001755791
31	0xbcc1339c	-0.02358418
32	0x3c4b8875	0.012422671
33	0xbe19ed69	-0.15031971
34	0xbe8a397b	-0.2699698
35	0xbe3c1e1d	-0.18370862
36	0xbead1c5f	-0.33810708
37	0xbd52c8bc	-0.051460966
38	0xbf22f53b	-0.6365544
39	0xba08816c	-0.00052072736
40	0x3b73da69	0.003720904
41	0xbe32db4a	-0.17466465
42	0xbc439321	-0.011936934
43	0xbe071fc2	-0.13195708
44	0xbe36ab44	-0.1783877
45	0x3c2bd4f1	0.010487781
46	0xbeb848d2	-0.35993057
47	0xbcb81bd6	-0.02247421
48	0xbb5294f5	-0.0032132242
49	0x3c224e54	0.00990637

encoder.7.weight f4 [20, 50]
0	0x3e2a5a15	0.16635926
1	0x3e3e3535	0.18574984
2	0x3cad1023	0.021125859
3	0xbe9af26e	-0.30263084
4	0x3d19fd1e	0.037594907
5	0x3d644674	0.05573125
6	0xbd9ed13c	-0.07754752
7	0x3f4e6e5a	0.80637133
8	0xbd816151	-0.0631739
9	0x3eddaee4	0.43297493
10	0x3d8eb5c4	0.06968263
11	0xbea2a13c	-0.31763637
12	0xbecb3d89	-0.39695385
13	0xbe5fd231	-0.21857525
14	0xbe0503e8	-0.12989771
15	0x3eb4dccb	0.35324702
16	0x3ce151be	0.027504798
17	0x3f0aa195	0.54152805
18	0xbe648c2c	-0.22319096
19	0xbd40a456	-0.047031723
20	0xbd9761a2	-0.07391669
21	0x3ede5264	0.43422234
22	0xbe192bdb	-0.14958136
23	0x3f2008b5	0.62513286
24	0xbd86a9f9	-0.065753885
25	0x3f31b752	0.6942035
26	0x3f05ac47	0.52216
27	0x3f34c503	0.70613116
28	0xbe72b254	-0.2370084
29	0x3baff871	0.0053701927
30	0xbe876464	-0.2644378
31	0x3f06975e	0.5257472
32	0xbe0a18e8	-0.13486063
33	0xbc1ecb74	-0.009692062
34	0xbdb49b7d	-0.088187195
35	0xbd6321af	-0.055452045
36	0xbd599b36	-0.053126536
37	0x3c99cda1	0.01877481
38	0x3dc90e52	0.098171845
39	0xbe9547bf	-0.291563
40	0xbe417860	-0.18893576
41	0xbdc31982	-0.095263496
42	0x3e0bc261	0.13648368
43	0x3e37e355	0.17957814
44	0x3e04498d	0.12918682
45	0xbea8c4f2	-0.32962757
46	0xbdb99d68	-0.09063226
47	0x3e0be0e8	0.13660014
48	0xbea87469	-0.32901314
49	0xbea41080	-0.32043839
50	0x3b05d9c5	0.002042399
51	0x3cbf10ba	0.023323406
52	0xbc96a657	-0.018389864
53	0x3c6e4ffa	0.014545435
54	0x3e9e9332	0.30971676
55	0x3ebadbbc	0.3649577
56	0xbc36575e	-0.011129228
57	0x3e7ec0cd	0.24878235
58	0x3e665c96	0.22496256
59	0x3ea7efb2	0.3280006
60	0x3ea83fdd	0.32861224
61	0x3c31a6bf	0.010842978
62	0xbbdbdcf7	-0.0067096907
63	0xbcbdff77	-0.023193104
64	0x3e7430b7	0.23846708
65	0x3d6eaa49	0.058267865
66	0xbcb69a09	-0.022290247
67	0x3e986c18	0.2976997
68	0xbb03e84e	-0.0020127478
69	0x3e061031	0.13092114
70	0x3d9e2c8a	0.07723339
71	0x3dfa78a9	0.12230045
72	0xbc8280a6	-0.015930485
73	0x3e9a5909	0.30146053
74	0x3d83f083	0.06442358
75	0x3da941af	0.08264481
76	0x3e79eb42	0.2440615
77	0x3e142428	0.14466918
78	0x3c13c8f9	0.009020084
79	0x3ebf5204	0.3736726
80	0xbbd522d6	-0.006504397
81	0x3cf9e24b	0.030503413
82	0x3c6d1239	0.014469677
83	0xbd574083	-0.052551758
84	0x3e82dec3	0.2556058
85	0xbd3cba84	-0.046076313
86	0x3e4c3dd1	0.19945456
87	0x3c398fdc	0.011325803
88	0x3e228da0	0.15874338
89	0xbbb62445	-0.005558523
90	0x3c6a9b32	0.014319228
91	0x3db73d43	0.089472316
92	0xbc2ff91a	-0.010740543
93	0x3eb26a85	0.34846893
94	0xbd0ad500	-0.03389454
95	0x3c1cfc71	0.009581671
96	0x3e791e96	0.24328074
97	0x3cfc618a	0.030808229
98	0xbbe25087	-0.0069065723
99	0x3bd2677a	0.006421027
100	0x3f02bbfc	0.5106809
101	0x3e805ae3	0.2506934
102	0xbebb739c	-0.3661164
103	0x3eb07e56	0.34471387
104	0xbe34cb4a	-0.17655674
105	0xbe99e9b2	-0.30061108
106	0xbe7a93dd	-0.24470468
107	0xbdb5029d	-0.08838389
108	0xbe455ec4	-0.19274431
109	0xbe813a8e	-0.25239986
110	0xbed274ec	-0.4110483
111	0xbb69a921	-0.0035653787
112	0x3c35a035	0.01108556
113	0xbdb49d52	-0.08819069
114	0x3cd2019a	0.02563553
115	0xbe684df2	-0.22685984
116	0xbe929c7a	-0.28635007
117	0xbe2e1240	-0.1699915
118	0x3d5445a6	0.051824234
119	0xbe273965	-0.16330488
120	0xbe90de93	-0.2829481
121	0xbdc2c593	-0.095103405
122	0xbf0f5525	-0.55989295
123	0xbe291646	-0.16512403
124	0xbdb364fd	-0.08759496
125	0xbd683658	-0.05669245
126	0xbcb37b8b	-0.021909496
127	0xbe2c7aad	-0.16843672
128	0x3eae4dcd	0.34043732
129	0xbe2bae94	-0.16765815
130	0x3c9330d9	0.017967628
131	0xbdfb8a38	-0.122822225
132	0x3df7ea82	0.12105276
133	0x3de5271d	0.11189101
134	0xbe76c7e8	-0.24099696
135	0x3caa3dab	0.020781359
136	0xbeac0b7b	-0.3360251
137	0x3d9f532c	0.07779536
138	0xbe594881	-0.21219064
139	0x3c99b2fd	0.018762106
140	0x3ed4f101	0.4159012
141	0x3d5ae476	0.053440534
142	0xbe9aa693	-0.3020521
143	0xbeeedf1b	-0.4665459
144	0x3e024209	0.12720503
145	0x3de3ae44	0.11117223
146	0x3bfcd889	0.0077162427
147	0x3f05c13d	0.52247983
148	0x3c2a4f18	0.010394834
149	0x3e86514b	0.26233897
150	0x3caac17e	0.020844217
151	0x3dae6ac8	0.08516461
152	0xbdfe600b	-0.124206625
153	0x3c4fe94c	0.0126899
154	0xbb7cd8bd	-0.0038581335
155	0xbce06b47	-0.027394904
156	0xbd846b27	-0.0646575
157	0x3e2ad14e	0.16681406
158	0xbe1d23f7	-0.15345751
159	0x3f05e1c3	0.5229761
160	0x3d24178a	0.04006151
161	0x3c35b148	0.01108963
162	0x3e4ee2d3	0.20203714
163	0x3e930dbb	0.28721413
164	0x3d1c505c	0.038162574
165	0xbd47de96	-0.04879626
166	0xbd9c99f2	-0.0764655
167	0x3e47a03b	0.19494717
168	0x3e9b9dac	0.30393732
169	0xbe52cbb4	-0.20585519
170	0xbb0df9ce	-0.0021663788
171	0x3e5b5697	0.2141975
172	0x3e9d03fe	0.30667108
173	0x3e603527	0.21895276
174	0x3e44c5d2	0.19216087
175	0x3e8f3a47	0.2797415
176	0x3eabdb28	0.3356564
177	0x3e67a135	0.2262009
178	0x3c262570	0.010140762
179	0x3cabac09	0.020956056
180	0x3ea32ed5	0.31871668
181	0x3d1c9fdd	0.038238395
182	0x3c231990	0.009954825
183	0x3ced5fec	0.028976403
184	0x3eabae63	0.33531484
185	0xbd8c6094	-0.06854358
186	0xbd40cbc5	-0.04706933
187	0x3ee37e57	0.44432327
188	0xbd809cf6	-0.06279938
189	0x3dfd5104	0.12368968
190	0x3bf06a91	0.0073369225
191	0xbd55cc2c	-0.052196667
192	0x3cda796f	0.026669232
193	0x3ee6b09e	0.45056623
194	0x3e06e799	0.13174285
195	0x3c1230f4	0.008922804
196	0xbdb8b4f6	-0.090188906
197	0x3cd1ab3a	0.025594342
198	0x3debf36f	0.11521041
199	0x3be7cf34	0.007074261
200	0xbe9c9aba	-0.30586797
201	0x3d064c88	0.03278783
202	0xbe020911	-0.12698771
203	0xbe8b46a9	-0.27202347
204	0xbcf44da7	-0.029822184
205	0xbde51165	-0.11184958
206	0xbe06159c	-0.13094181
207	0xbd51eb44	-0.051249757
208	0xbe6f6b80	-0.23380852
209	0x3d839ab7	0.06425994
210	0x3d05d742	0.03267599
211	0xbca5ab3a	-0.020223249
212	0x3e88a7f7	0.26690647
213	0x3ea532e9	0.32265404
214	0x3b88fd5f	0.004180595
215	0xbe3ecbba	-0.18632403
216	0xbe00050f	-0.1250193
217	0xbc659427	-0.014012373
218	0x3e467b0c	0.19382876
219	0xbe62a247	-0.22132216
220	0xbc44d71e	-0.012014179
221	0xbe2e5b39	-0.17026986
222	0x3ecafbeb	0.39645323
223	0xbb8ddcd9	-0.0043293056
224	0x3ec93529	0.3929837
225	0xbd1d617e	-0.038423054
226	0xbd0069cd	-0.0313509
227	0x3bc7120a	0.0060751485
228	0xbdd94bf0	-0.10610187
229	0x3d10089b	0.035164457
230	0x3e4e47e4	0.20144612
231	0xbdf26d48	-0.1183725
232	0xbd8227ce	-0.063552484
233	0xbd6628ad	-0.056191135
234	0x3da4e5a8	0.08051616
235	0xbd119324	-0.035540715
236	0xbdbe0621	-0.09278513
237	0x3eb95c94	0.36203444
238	0xbd5bdcc3	-0.05367733
239	0x3e802d16	0.25034398
240	0xbe2fce12	-0.17168453
241	0x3e03f014	0.12884551
242	0x3e55a55c	0.20863861
243	0x3e6dc4c0	0.23219585
244	0x3d676118	0.05648908
245	0xbe070569	-0.13185658
246	0x3d58b574	0.052907422
247	0xbe8c308b	-0.27380785
248	0x3e934bbe	0.28768724
249	0xbe2cd85c	-0.1687941
250	0xbe9376bd	-0.28801528
251	0xbe9b03e6	-0.30276412
252	0x3e108113	0.14111738
253	0xbe86ace2	-0.26303774
254	0x3ee9277b	0.45537934
255	0x3ea18ebd	0.31554213

encoder.7.bias f4 [20]
0	0x3b97f8cd	0.0046378137
1	0xbbc5a63c	-0.0060317796
2	0xbb4d9e64	-0.0031374926
3	0xbaaf4b99	-0.001337397
4	0xba128914	-0.0005589884
5	0x3afcfcb8	0.001930139
6	0xbec63451	-0.3871179
7	0xbf97c5b6	-1.1857212
8	0x3bdc4240	0.006721765
9	0xbc2d5111	-0.01057841
10	0xbe5363ae	-0.20643494
11	0x3a58f4a5	0.0008276201
12	0xbed4d5ee	-0.41569465
13	0x3890f540	6.9121365e-05
14	0xb9730efd	-0.0002317987
15	0x3a82f886	0.0009992279
16	0xbb47417a	-0.0030404017
17	0x3a83c61d	0.0010053549
18	0xbab21bd2	-0.0013588613
19	0xbf004ad5	-0.50114185

encoder.10.weight f4 [4, 20]
0	0x3f5bfccd	0.8593262
1	0x3e68cdb4	0.2273472
2	0xbf4dcbbf	-0.80389017
3	0xbe89dd3f	-0.2692661
4	0xbeebcd44	-0.46055043
5	0x3ec73568	0.38907933
6	0x3f3d0980	0.7384262
7	0x3facb4c0	1.349266
8	0x3f4045db	0.7510659
9	0xbf119bd5	-0.56878406
10	0xbe37ae76	-0.17937645
11	0x3eb42190	0.35181856
12	0x3ec31388	0.3810084
13	0x3f806082	1.0029452
14	0xbef35dac	-0.47532403
15	0x3f832c6b	1.024793
16	0xbe715abf	-0.23569773
17	0xbe976533	-0.29569396
18	0xbec58153	-0.3857523
19	0x3f77d0cc	0.96802974
20	0xbedd0b51	-0.43172696
21	0xbf40b480	-0.7527542
22	0xbf251969	-0.644919
23	0x3b1e1bf2	0.0024125543
24	0x3f42c22a	0.7607752
25	0xbf04b97b	-0.5184552
26	0xbd34ba31	-0.04412288
27	0x3f122d12	0.5710002
28	0xbec43fea	-0.38330013
29	0xbef8632a	-0.48513156
30	0xbde398d6	-0.111131355
31	0xbf0b745e	-0.5447444
32	0xbdc52955	-0.09627024
33	0xbeecc5cf	-0.46244666
34	0x3f4932c0	0.78593063
35	0xbef85210	-0.4850011
36	0xbe0d8ae7	-0.13822518
37	0x3e9ba4a8	0.3039906
38	0x3f0f51f1	0.5598441
39	0x3ce72c9b	0.028219512
40	0xbf4fe21a	-0.8120438
41	0x3e077a83	0.13230328
42	0x3f001898	0.5003753
43	0xbdaeb1bf	-0.08529996
44	0x3f202709	0.6255956
45	0x3f21a40e	0.6314095
46	0x3e72e968	0.2372185
47	0xbcb2a17a	-0.021805514
48	0xbf3f7a38	-0.74795866
49	0x3eda1dd8	0.42600894
50	0xbe430b4c	-0.19047278
51	0x3f023e05	0.50875884
52	0x3ec8a02a	0.39184695
53	0xbf71af02	-0.94407666
54	0x3f259f7a	0.64696467
55	0xbf784935	-0.96986705
56	0xbe294cb7	-0.1653317
57	0x3e46f192	0.1942809
58	0x3ee50ed4	0.44737875
59	0xbd498a89	-0.049204383
60	0x3f115919	0.5677658
61	0xbe745da2	-0.23863843
62	0x3f09b0e2	0.53785527
63	0xbeff9d85	-0.49924865
64	0xbedc5917	-0.4303672
65	0x3c2c21fc	0.010506149
66	0xbe3bcbc8	-0.18339455
67	0xbef016cf	-0.46892402
68	0x3eee3425	0.46524158
69	0x3eba8f2d	0.3643736
70	0xbe1393d8	-0.14411867
71	0xbd4a3e3d	-0.04937576
72	0xbeb38cc0	-0.3506832
73	0x3f309602	0.68978894
74	0xbee25fcc	-0.44213712
75	0x3f33bf98	0.70214224
76	0xbef83493	-0.4847761
77	0xbec91118	-0.39270854
78	0xbeccdb97	-0.40011284
79	0xbe921f6b	-0.28539595

encoder.10.bias f4 [4]
0	0xbe7cffe0	-0.24706984
1	0xbe82eabf	-0.25569722
2	0x3e90f6f9	0.28313425
3	0x3e997a0b	0.29975924

decoder.0.weight f4 [20, 4]
0	0xbe6a23b2	-0.22865179
1	0x3f06aef5	0.52610713
2	0x3f486c54	0.78290296
3	0x3fd102ce	1.6328981
4	0x3f0e03f2	0.5547477
5	0xbeb1216f	-0.3459582
6	0xbf265ac7	-0.64982265
7	0x3f1e1d6f	0.6176366
8	0xbe9e4fed	-0.30920354
9	0xbd1b10c6	-0.037857793
10	0x3f69ff08	0.9140477
11	0x3efdadec	0.49546754
12	0xbd7fbfd3	-0.062438797
13	0xbf82f9fe	-1.0232542
14	0xbf704125	-0.938494
15	0x3f4d4ec5	0.8019832
16	0x3d19bae7	0.03753176
17	0x3e9a0909	0.30085018
18	0x3f067024	0.52514863
19	0x3f5f8fef	0.87329
20	0x3f2a2d35	0.6647523
21	0xbf1141f2	-0.5674125
22	0x3eb29749	0.34881046
23	0xbf74ed95	-0.9567502
24	0x3fad8645	1.3556601
25	0xbde5d11f	-0.11221527
26	0x3f16c3ce	0.58892524
27	0xbf43ff25	-0.76561195
28	0x3eee5e75	0.4655644
29	0xbed1eda1	-0.4100161
30	0xbf1289d1	-0.5724154
31	0xbef3e87a	-0.47638303
32	0xbe52902b	-0.20562808
33	0x3f3fc506	0.7491001
34	0xbec21f16	-0.37914342
35	0xbf1b151e	-0.605791
36	0x3e80c576	0.2515065
37	0x3f0fa320	0.56108284
38	0x3e71a3db	0.23597662
39	0xbf01b793	-0.5067074
40	0xbe2412f6	-0.16022858
41	0x3e8e7660	0.27824688
42	0x3ec0d3c1	0.37661555
43	0xbe4be88a	-0.19912925
44	0xbfd6d098	-1.6782408
45	0x3f43ce56	0.7648672
46	0xbf3ef490	-0.7459192
47	0x3f46ef16	0.77708566
48	0x3d28a652	0.04117424
49	0xbf83be9c	-1.0292544
50	0xbf02bbe6	-0.5106796
51	0x3ed01c7b	0.4064673
52	0x3f00f4fc	0.50373816
53	0x3edda0af	0.43286654
54	0x3de74291	0.112919934
55	0x3c8b6153	0.017014181
56	0x3c09cc41	0.008410514
57	0xbeb93504	-0.3617326
58	0xbee09f7b	-0.43871674
59	0xbe387ff9	-0.18017568
60	0x3eec054d	0.46097794
61	0xbf07e385	-0.5308154
62	0x3f1ad077	0.6047434
63	0xbf0b7e08	-0.54489183
64	0xbf8dad98	-1.1068602
65	0xbe72c05f	-0.23706196
66	0x3e70aedb	0.23504202
67	0xbeff809c	-0.4990281
68	0xbf8f6125	-1.1201521
69	0xbebdb15b	-0.37049374
70	0x3f22f832	0.63659966
71	0xbd7a3f99	-0.061095808
72	0xbf0c4a1e	-0.54800594
73	0x3f2d8308	0.6777806
74	0x3cea23bd	0.028581494
75	0xbe07b720	-0.1325345
76	0x3e828748	0.25493836
77	0xbead596f	-0.33857295
78	0xbd7600c6	-0.06005933
79	0xbea9bf75	-0.33153883

decoder.0.bias f4 [20]
0	0xbf37d981	-0.7181626
1	0x3dc582f1	0.09644116
2	0xbea1f8b6	-0.31635064
3	0x3d911b19	0.070852466
4	0xbe68d493	-0.2273734
5	0x3e49b7c3	0.19699006
6	0x3e0061e0	0.12537336
7	0x3ea05759	0.3131664
8	0xbe12c9ad	-0.14334746
9	0x3ef1fa40	0.47261238
10	0x3e423882	0.18966869
11	0xbe492a06	-0.19644937
12	0xbd65d8ef	-0.056115087
13	0xbed3c816	-0.4136359
14	0xbef2e4c7	-0.47440168
15	0xbd557f39	-0.052123282
16	0xbe62941d	-0.22126813
17	0xbe8994e1	-0.26871398
18	0x3e8ed4b0	0.27896643
19	0x3e22d7e6	0.15902671

decoder.2.weight f4 [50, 20]
0	0x3ead31bf	0.33827016
1	0xbedb976c	-0.42888963
2	0xbe4f1175	-0.20221503
3	0xbe9b2b24	-0.3030635
4	0x3cab4991	0.020909103
5	0x3e303664	0.17208248
6	0x3d35ba7e	0.044367306
7	0x3e1b8952	0.15189102
8	0x3e448418	0.19191015
9	0x3e53d082	0.20685008
10	0x3ccee0c4	0.025253661
11	0x3d8779ca	0.06615026
12	0xbe626ebe	-0.22112557
13	0x3db0644f	0.08612882
14	0x3e5c85d5	0.21535428
15	0x3ebe19d8	0.37129092
16	0x3dec9e9b	0.11553689
17	0x3e38e02f	0.18054269
18	0x3db4111e	0.08792327
19	0xbe07d60e	-0.13265249
20	0xbe0ca2f0	-0.1373403
21	0xbd699814	-0.0570298
22	0xbc0bcd7f	-0.008532881
23	0x3d9ab50d	0.07554064
24	0xbe111c7f	-0.14171027
25	0xbe1e75cf	-0.15474628
26	0x3e63624a	0.22205463
27	0x3c8560f4	0.016281582
28	0xbe575a53	-0.2103055
29	0xbe1a0f3a	-0.15044871
30	0x3dccee30	0.10006368
31	0x3d986d55	0.074427284
32	0x3de7ac12	0.11312117
33	0xbe1bb523	-0.15205817
34	0xbdb05641	-0.086102016
35	0x3d504eb9	0.050856326
36	0x3c6ddcdd	0.01451799
37	0x3e6104c9	0.21974482
38	0xbe5bcebc	-0.21465582
39	0x3e234cfd	0.15947337
40	0xbe0c8c5f	-0.13725422
41	0x3e3eccb1	0.18632771
42	0x3e3900bf	0.18066691
43	0xbcd3ca75	-0.025853375
44	0xbbf384fe	-0.0074316254
45	0x3e325d59	0.17418422
46	0x3e12a4ed	0.14320727
47	0xbd0ae3c4	-0.03390862
48	0xbdd43145	-0.1036096
49	0x3e0de50f	0.1385691
50	0xbd296224	-0.04135336
51	0xbd30e2b6	-0.04318496
52	0x3e04c6db	0.12966482
53	0x3d4b4374	0.049624875
54	0xbda04118	-0.07824916
55	0x3e3efb63	0.18650584
56	0x3c50d003	0.012744906
57	0xbdf10962	-0.11769368
58	0xbd5eaca6	-0.05436387
59	0x3d5fe7a8	0.054664284
60	0xbdcb899c	-0.09938356
61	0x3e07df6c	0.13268822
62	0xbd86e87a	-0.0658731
63	0xbda87e96	-0.08227269
64	0xbe710500	-0.23537064
65	0xbc99748f	-0.018732337
66	0x3e29b0e3	0.16571383
67	0x3e862b8a	0.26205093
68	0x3d11efc4	0.03562905
69	0x3cab378d	0.020900512
70	0xbd0596bc	-0.032614455
71	0x3e25ecf1	0.16203667
72	0x3d0f1b1e	0.03493797
73	0xbda7b6bb	-0.0818915
74	0xbe611817	-0.21981846
75	0x3d7031c6	0.058641218
76	0x3de39515	0.111124195
77	0x3bfc7fe9	0.0077056778
78	0x3db163c0	0.08661604
79	0xbd8efced	-0.069818355
80	0xbeed5d90	-0.46360445
81	0xbe99ac72	-0.30014378
82	0x3e1e08bd	0.15433021
83	0x3da979a5	0.08275155
84	0xbe693a5c	-0.22776169
85	0xbd050d68	-0.03248349
86	0x3e8bc10b	0.27295718
87	0xbe5d8f36	-0.21636662
88	0xbd971faf	-0.0737909
89	0xbe656a35	-0.22403796
90	0xbdefa64f	-0.11701643
91	0x3e69b30d	0.22822209
92	0x3e8ba184	0.27271664
93	0xbe0a8a63	-0.13529353
94	0xbdcd3c1d	-0.10021231
95	0x3ea24a55	0.31697336
96	0x3e5404ca	0.20704952
97	0x3e2548ad	0.16141005
98	0x3e2ef455	0.17085393
99	0x3e12883c	0.14309782
100	0x3e19a69c	0.15004963
101	0x3e7bb82f	0.24581979
102	0x3e8681c6	0.26270884
103	0xbdfd513d	-0.123690106
104	0x3e86f9f7	0.26362583
105	0x3e970969	0.29499367
106	0x3e7eadaa	0.24870935
107	0xbef9a96a	-0.48762065
108	0x3e2098b0	0.15683246
109	0x3e676183	0.22595792
110	0xbde56b44	-0.112021
111	0xbe84d887	-0.25946447
112	0xbda9d3bd	-0.08292339
113	0xbe339707	-0.17538081
114	0x3e043fe1	0.12914993
115	0x3df5f9ab	0.12010511
116	0xbb6e1928	-0.0036330912
117	0xbed9ea73	-0.42561683
118	0x3da87215	0.082248844
119	0x3cc5b9a1	0.024136366
120	0x3e54ba52	0.207742
121	0xbe497d20	-0.19676638
122	0x3d3790be	0.04481577
123	0xbd065649	-0.03279713
124	0x3dfbbbc9	0.122916766
125	0x3e4ff9b9	0.20310105
126	0x3c1f362c	0.009717505
127	0xbdb30ed7	-0.08743065
128	0xbdd63ba5	-0.10460595
129	0x3e64dacf	0.22349094
130	0xbd5d36cb	-0.054007333
131	0x3e08694a	0.13321415
132	0xbdc672e5	-0.09689883
133	0xbe635bd5	-0.22203
134	0xbe5382ca	-0.20655361
135	0x3e030d95	0.1279815
136	0xbe509d21	-0.2037244
137	0xbd412187	-0.047151115
138	0xbc173f36	-0.009231379
139	0xbdf8753a	-0.12131734
140	0xbde24e20	-0.110500574
141	0xbdacf077	-0.084443025
142	0xbddaa5c7	-0.10676151
143	0xbd14772b	-0.03624646
144	0xbe2566c9	-0.1615249
145	0x3b3a9f56	0.002847632
146	0x3e7a66d1	0.24453284
147	0x3d6286e0	0.055304408
148	0x3e2219c4	0.15830141
149	0x3e1c1ddc	0.15245765
150	0xbd4d9442	-0.050190218
151	0x3e1a28e1	0.15054657
152	0x3d8306d4	0.06397787
153	0xbe285747	-0.16439544
154	0xbe138bfb	-0.14408867
155	0xbc55a803	-0.013040545
156	0x3de92dee	0.113857135
157	0x3d9fd7da	0.07804842
158	0xbe8623c5	-0.26199165
159	0xbcb284e9	-0.021791892
160	0x3edcb12d	0.43103924
161	0x3e897ab0	0.26851416
162	0x3e8af5e5	0.27140728
163	0xbe72ac95	-0.23698647
164	0x3eb5f5af	0.35539004
165	0x3dc28d2f	0.09499585
166	0x3e831134	0.25599062
167	0xbe9fdf2b	-0.3122495
168	0x3da3bea9	0.0799535
169	0x3de7ffd5	0.11328093
170	0x3e1a4be1	0.15068008
171	0x3d6cd7d1	0.057823006
172	0xbd85eb32	-0.065390006
173	0x3ca76b81	0.020437004
174	0xbe251edb	-0.16125052
175	0xbe9809d9	-0.29695013
176	0xbe157540	-0.14595509
177	0xbd934e1b	-0.07192632
178	0x3d2a8c26	0.041637562
179	0x3d874177	0.06604283
180	0x3e5a4665	0.21315916
181	0xbca8e1d2	-0.020615492
182	0x3e6dfe10	0.23241448
183	0x3dda5a07	0.106617026
184	0xbc93ff44	-0.018066056
185	0xbe868106	-0.26270312
186	0xbde3712c	-0.1110557
187	0xbde35319	-0.11099834
188	0xbdf854ca	-0.12125547
189	0x3dde1f66	0.108458325
190	0x3e17b275	0.1481417
191	0x3e49e022	0.19714406
192	0xbd30f49d	-0.04320203
193	0xbdea09ff	-0.11427688
194	0x3de2ea94	0.110798985
195	0xbe83df0f	-0.25756118
196	0xbe4c123b	-0.1992883
197	0x3e137811	0.1440127
198	0x3e3b83b5	0.18311961
199	0x3e11ed73	0.14250736
200	0xbd6d2022	-0.057891972
201	0x3e31c7dd	0.17361398
202	0xbdad7577	-0.0846967
203	0xbd1a75f0	-0.03771013
204	0x3e4c7d13	0.19969587
205	0x3e4eef6f	0.20208524
206	0x3e7962d5	0.24354108
207	0x3e09bd7a	0.13451186
208	0x3e1edcab	0.15513866
209	0xbd660437	-0.056156363
210	0x3d8dc6ba	0.0692267
211	0x3dafaaaf	0.08577477
212	0xbe1fea7d	-0.15616794
213	0xbd0edb18	-0.034876913
214	0x3d947079	0.07248015
215	0xbe457d60	-0.19286108
216	0x3e7eef45	0.24895962
217	0xbe252904	-0.16128927
218	0x3e691590	0.22762132
219	0xbd0d81ac	-0.034547493
220	0x3e3e2c8f	0.18571685
221	0x3daaa3b6	0.08332007
222	0x3d2ec14e	0.04266482
223	0x3e1ed465	0.1551071
224	0xbddc92ff	-0.10770225
225	0xbe210304	-0.15723807
226	0xbe67f3b0	-0.22651553
227	0x3e378c8b	0.17924707
228	0xbda753dd	-0.081702925
229	0xbe35f4e2	-0.17769197
230	0xbe796c21	-0.24357654
231	0xbe5ee134	-0.21765596
232	0x3d0578de	0.03258597
233	0xbdbd2d8e	-0.092372045
234	0xbd7c00ce	-0.061524205
235	0xbe626995	-0.22110589
236	0xbe12964f	-0.1431515
237	0x3d2d7351	0.042346302
238	0xbd40307b	-0.046921235
239	0x3dafd618	0.08585757
240	0xbcbe018d	-0.023194099
241	0x3e7c29d9	0.24625339
242	0xbd155085	-0.036453743
243	0x3eb82973	0.35969123
244	0xb919dcfa	-0.00014673537
245	0xbd2e9f59	-0.042632435
246	0xbc8f0629	-0.017458992
247	0x3bdb4d38	0.006692555
248	0x3e322008	0.17395031
249	0x3e7ab78f	0.24484085
250	0x3e20d389	0.15705694
251	0xbeaa7a8d	-0.33296624
252	0x3ea9471d	0.33062068
253	0xbddd1c67	-0.10796433
254	0x3dfb362c	0.12266192
255	0x3d663a93	0.056208204

decoder.2.bias f4 [50]
0	0x3e822f0a	0.25426513
1	0xbdb366d1	-0.08759845
2	0x3d098182	0.033570774
3	0x3dffa1d5	0.12482039
4	0x3da95b67	0.08269387
5	0x3e32b8da	0.17453328
6	0xbdfe9bd9	-0.12432069
7	0x3e26ea8c	0.1630041
8	0x3e321e5e	0.17394397
9	0xbe4a60f0	-0.19763541
10	0x3d77d336	0.06050416
11	0xbdfbd973	-0.122973345
12	0xbe202613	-0.15639524
13	0xbe8ab252	-0.27089173
14	0xbe395618	-0.18099248
15	0xbdb1d93f	-0.086840145
16	0xbea71141	-0.3263035
17	0x3d0e9f48	0.03481987
18	0xbd9a17ab	-0.075240456
19	0xbdc2dc2c	-0.09514651
20	0x3e1f9e67	0.1558777
21	0x3c477533	0.012173939
22	0xbdbe634b	-0.092962824
23	0xbaaa4a3e	-0.0012992097
24	0x3e472805	0.1944886
25	0x3ddc427b	0.10754868
26	0xbe54b2db	-0.20771353
27	0xbe7c27d1	-0.24624564
28	0x3e1ab4b7	0.15108
29	0xbe032093	-0.12805395
30	0xbe48b853	-0.19601564
31	0x3d3d8842	0.046272524
32	0x3daad8f4	0.08342162
33	0x3c99801f	0.01873785
34	0xbe4603e2	-0.19337419
35	0xbd8402db	-0.06445857
36	0xbea5c200	-0.32374573
37	0x3bbe9d75	0.00581711
38	0x3df0626a	0.11737521
39	0xbe193a0b	-0.14963548
40	0xbe11b3fa	-0.14228812
41	0xbda7965c	-0.08182976
42	0xbe046fa3	-0.12933211
43	0xbe48a03f	-0.19592379
44	0x3ed148c1	0.4087582
45	0x3de00334	0.10938111
46	0x3d609f92	0.054839678
47	0xbdec0814	-0.11524978
48	0xbdc4ab10	-0.0960294
49	0xbe2d4edd	-0.16924615

decoder.4.weight f4 [50, 50]
0	0x3d350533	0.04419441
1	0xbe074d7a	-0.13213149
2	0xbda36439	-0.079781
3	0xbd674f1f	-0.05647194
4	0x3c93abc5	0.018026242
5	0xbd589690	-0.052877963
6	0xbdc9b029	-0.09848053
7	0xbd0f4a2c	-0.034982845
8	0xbd803069	-0.062592335
9	0x3cc70eff	0.024299143
10	0x3d8b2fdf	0.0679624
11	0x3c03bef2	0.00804113
12	0xbdd6932d	-0.1047729
13	0xbdd550fa	-0.10415836
14	0x3dfe6905	0.12422375
15	0xbd81b54b	-0.06333407
16	0x3c38eaf6	0.011286488
17	0xbda14ff5	-0.07876579
18	0x3c0e6392	0.008690732
19	0xbcab4d63	-0.020910924
20	0xbdd01b5d	-0.10161469
21	0xbdad189b	-0.08451959
22	0xbdd219f0	-0.102588534
23	0x3dc02308	0.09381682
24	0xbdafb4bc	-0.08579394
25	0x3e09a782	0.13442805
26	0xbe0ce6c7	-0.1375991
27	0xbd77bd23	-0.06048311
28	0xbdf2ea9b	-0.11861154
29	0xbde2a891	-0.11067308
30	0x3e00765c	0.1254515
31	0x3dce9ff9	0.10089106
32	0x3d228eb0	0.03968686
33	0xbb1c9cac	-0.0023897095
34	0xbe05e6b5	-0.13076289
35	0xbde4b6f9	-0.11167712
36	0x3cec3d93	0.028837955
37	0xbd673da8	-0.056455284
38	0xbe0bc557	-0.13649498
39	0x3d1960b9	0.037445758
40	0x3cbb2ade	0.02284759
41	0xbdaf11c1	-0.08548308
42	0x3c91d9d2	0.01780406
43	0xbd9a2813	-0.07527175
44	0xbda69d6b	-0.08135494
45	0x3e046fd3	0.12933283
46	0x3df623ad	0.12018523
47	0xbc05f678	-0.0081764385
48	0xbd9e4653	-0.07728257
49	0xbdb7a90d	-0.08967791
50	0xbe1f7307	-0.15571223
51	0xbdd1ccd0	-0.10244143
52	0x3d138f58	0.036025375
53	0xbbe5732f	-0.0070022563
54	0xbd4d7bbd	-0.050166834
55	0x3e330e20	0.17485857
56	0x3c048960	0.008089393
57	0xbd6d7be9	-0.057979498
58	0x3e338f2f	0.17535089
59	0x3d0b392a	0.033990063
60	0x3e04a817	0.12954746
61	0x3dd5acdc	0.10433361
62	0x3e134b3c	0.14384168
63	0x3e00a90c	0.12564486
64	0xbebdfa8e	-0.3710522
65	0xbd3926a5	-0.04520287
66	0x3e6c0add	0.23051019
67	0x3c83733c	0.016046159
68	0x3da2bd4f	0.07946264
69	0x3c969777	0.018382771
70	0xbe0eb184	-0.13934904
71	0x3df58f0a	0.11990173
72	0xbc3c905d	-0.011509028
73	0x3dd7c825	0.105362214
74	0x3dc45868	0.09587175
75	0x3e676971	0.22598816
76	0x3e2c91f9	0.16852559
77	0xbe0b8027	-0.13623105
78	0x3e826c78	0.2547338
79	0xbc904146	-0.01760925
80	0xbe088359	-0.13331355
81	0xbdcf67ab	-0.10127195
82	0xbdce05f7	-0.100597315
83	0x3e01c55a	0.1267294
84	0x3e2ed2d6	0.17072615
85	0xbc05d006	-0.008167272
86	0x3d19edd7	0.037580337
87	0x3e0c4973	0.13699894
88	0xbe083627	-0.13301907
89	0x3e1236b8	0.14278686
90	0xbe16df72	-0.14733675
91	0xbe48c832	-0.19607618
92	0xbd759d46	-0.05996444
93	0x3df9b8a0	0.121934175
94	0x3e59e276	0.21277794
95	0xbd369768	-0.044577986
96	0xbd18c491	-0.037296835
97	0x3dd84a6d	0.105610706
98	0xbd210d8a	-0.039319552
99	0x3e942fc0	0.2894268
100	0x3e9012ee	0.28139442
101	0xbe2ca563	-0.16859965
102	0xbda9ea2d	-0.082966186
103	0xbdccb473	-0.099953555
104	0x3df999fe	0.12187575
105	0x3d5a8b3b	0.053355437
106	0xbde514b8	-0.111855924
107	0xbd9c2288	-0.07623774
108	0x3d4e14fb	0.050312977
109	0xbd83199a	-0.064013675
110	0xbdad5be7	-0.084647946
111	0x3cfdde64	0.030989833
112	0xbe4b748e	-0.19868681
113	0x3d1febdf	0.039043304
114	0x3e77e840	0.2420969
115	0xbd147ecb	-0.03625373
116	0x3dad06b5	0.08448545
117	0xbdd9d84a	-0.10636957
118	0xbbe27fa0	-0.0069121867
119	0xbd8414e7	-0.06449299
120	0x3d933177	0.07187169
121	0xbd7b8c38	-0.06141302
122	0xbdcf541f	-0.10123467
123	0xbd8e9eeb	-0.06963905
124	0x3d049ada	0.03237424
125	0xbcbf0d3c	-0.02332174
126	0x3cd756ed	0.026286567
127	0xbd696f0a	-0.05699066
128	0xbc9475fb	-0.018122664
129	0xbdf97bad	-0.121817924
130	0x3ceb1399	0.028695868
131	0xbddf7188	-0.10910326
132	0x3cba1b30	0.022718042
133	0x3dfcc377	0.123419695
134	0xbdde3308	-0.10849577
135	0x3cb715cc	0.02234926
136	0x3db7a757	0.089674644
137	0x3e02b4d8	0.12764299
138	0xbdf27662	-0.11838986
139	0x3c90ab04	0.017659672
140	0x3d1d586f	0.038414415
141	0x3d54e512	0.05197627
142	0x3dccb302	0.099950805
143	0x3ce22b7f	0.027608631
144	0x3e955668	0.29167485
145	0xbdfbd44c	-0.12296352
146	0x3d36ad87	0.044599082
147	0xbe57152d	-0.21004172
148	0xbbf37243	-0.0074293925
149	0x3ea1d82a	0.31610233
150	0xbd93a7b8	-0.07209724
151	0xbddd3744	-0.10801557
152	0xbd52d40b	-0.05147175
153	0x3e3af121	0.18256046
154	0xbdef5336	-0.11685793
155	0xbe6c97a7	-0.23104726
156	0x3de17800	0.11009216
157	0xbc990697	-0.0186799
158	0x3c848b08	0.016179577
159	0x3daa4b54	0.08315149
160	0x3c10d577	0.0088399565
161	0xbdbaa44d	-0.09113369
162	0xbe104a45	-0.14090832
163	0x3ecdd6da	0.4020298
164	0xbe0d375b	-0.13790648
165	0xbe853dab	-0.2602361
166	0xbd318b92	-0.043345995
167	0xbd2cdb23	-0.042201173
168	0xbba5acf2	-0.005056017
169	0x3e018c95	0.12651284
170	0x3eb132eb	0.3460916
171	0x3db642ad	0.08899436
172	0xbd5b2f2f	-0.053511795
173	0x3d87cc71	0.06630791
174	0x3e17559c	0.14778751
175	0xbd1d8d9d	-0.03846513
176	0xbe1e1804	-0.15438849
177	0x3ce7a81c	0.028278403
178	0x3dad03d5	0.084479965
179	0x3d615216	0.055009924
180	0xbdf74b9c	-0.12074968
181	0x3e8372fb	0.2567366
182	0xbdc268d9	-0.09492654
183	0xbc757e37	-0.014983705
184	0x3cb47f28	0.02203329
185	0xbd8030b2	-0.06259288
186	0x3e9222c4	0.2854215
187	0xbb8aac95	-0.004231999
188	0x3bcda24d	0.0062754513
189	0x3d9450d4	0.07241979
190	0x3dc115f4	0.09428015
191	0x3ea2e8aa	0.31818134
192	0x3d18422b	0.037172478
193	0x3dd808d2	0.10548557
194	0x3e68dbdc	0.2274012
195	0x3c8679ca	0.016415495
196	0x3e914c4c	0.28378522
197	0xbe5ece99	-0.21758498
198	0x3dedea95	0.116170086
199	0xbe92c9f1	-0.28669694
200	0x3e273bac	0.16331357
201	0xbd358f7e	-0.044326298
202	0x3d06450f	0.032780703
203	0x3a16f08b	0.00057578896
204	0x3d29178a	0.041282214
205	0xbd54fa29	-0.051996384
206	0x3cebc9ee	0.028782811
207	0x3d3add21	0.04562104
208	0x3c34fe52	0.011046963
209	0x3e540a78	0.20707119
210	0xbd7a6947	-0.061135557
211	0x3e2752a5	0.1634012
212	0xbe057b22	-0.13035253
213	0x3f05767a	0.52133906
214	0x3e0c433b	0.13697521
215	0xbe05b824	-0.13058525
216	0x3e9e21e6	0.30885237
217	0xbdccc88d	-0.099991895
218	0x3e197e8a	0.14989677
219	0x3d88be10	0.066768765
220	0x3dc9ffa5	0.098632134
221	0x3c77ae14	0.015117187
222	0xba812364	-0.0009852466
223	0xbd99ac71	-0.07503594
224	0xbd5a6ff0	-0.05332941
225	0x3dee6f57	0.1164233
226	0x3d3c579d	0.045981992
227	0xbe302fbc	-0.17205709
228	0xbd913e5c	-0.07091972
229	0xbe6a28cd	-0.22867127
230	0x3dfd1a32	0.12358512
231	0x3c98612a	0.018601019
232	0x3c5e7ab2	0.0135790575
233	0x3e3ff96e	0.18747494
234	0x3d3f2964	0.046670333
235	0x3de7ec7f	0.11324405
236	0x3ec6ec8c	0.38852346
237	0xbe011f14	-0.12609512
238	0x3dc46eb3	0.09591427
239	0x3e9bb3e5	0.30410686
240	0xbc97b3a4	-0.018518277
241	0x3e0c05d8	0.13674104
242	0x3dcf0d81	0.101099975
243	0x3daab98a	0.0833617
244	0x3e8918c9	0.26776722
245	0x3d945870	0.072434306
246	0x3d04cc9e	0.0324217
247	0x3d867ce4	0.0656679
248	0x3e2cb041	0.1686411
249	0xbeeb9eac	-0.46019495
250	0xbccf31b5	-0.025292257
251	0xbcc0feaf	-0.023558943
252	0x3dbdd836	0.092697546
253	0x3cbbb524	0.022913523
254	0x3de811d1	0.11331523
255	0x3bbee19b	0.005825234

decoder.4.bias f4 [50]
0	0xbe0030e9	-0.12518658
1	0x3dd01fd4	0.10162321
2	0x3e9dace7	0.30795977
3	0xbae77d7f	-0.0017661302
4	0x3e0e3acf	0.13889621
5	0xbdf8923d	-0.12137268
6	0xbe89a31d	-0.26882258
7	0x3d7d4c2e	0.06184023
8	0xbe15a1e2	-0.14612535
9	0x3d9816ff	0.07426261
10	0xbe095054	-0.13409549
11	0xbddc3af5	-0.10753433
12	0xbe17201b	-0.14758341
13	0xbb3c550d	-0.0028737218
14	0x3c7d9bee	0.015479071
15	0xbe2f5c20	-0.17124987
16	0xbce51f28	-0.027968958
17	0xbc260e81	-0.010135294
18	0x3d8b379d	0.06797717
19	0xbdd494e0	-0.10379958
20	0xbdcd5b35	-0.10027162
21	0x3cf57396	0.029962342
22	0x3e832b61	0.25619033
23	0xbcc1a3bd	-0.023637647
24	0x3d9ef259	0.07761068
25	0xbda4b383	-0.08042052
26	0xbd9cc04d	-0.07653866
27	0xbd7ee8a5	-0.062233586
28	0xbd1139cd	-0.035455514
29	0x3e40e247	0.18836318
30	0x3d414e78	0.047193974
31	0x3e1783e5	0.14796408
32	0x3c13343c	0.008984622
33	0xbcf56d83	-0.029959446
34	0x3d147864	0.036247626
35	0x3d37a276	0.04483267
36	0x3e049398	0.12946928
37	0x3e0b691d	0.13614316
38	0x3e0f671d	0.14004178
39	0xba9ea73f	-0.0012104287
40	0xbd307474	-0.04307981
41	0xbd004f75	-0.031325776
42	0x3e36d9ef	0.17856573
43	0x3d83ef78	0.064421594
44	0xbe05813c	-0.1303758
45	0xbd8f12e7	-0.06986027
46	0x3d0eb37d	0.034839142
47	0xbdbc5354	-0.09195581
48	0x3e666a8f	0.22501586
49	0xbbe1cc6d	-0.0068908245
