RiskViz Folder/model/checkpoint_600.tar (torch, 110796 bytes, 51 tensors)

encoder.1.weight f4 [50, 6]
000000 42 5c fb be 90 4c 5f bb 72 80 32 bb 0c 2b 7d 3e
       -0.49093825 -0.0034072734 -0.0027237204 0.24723452
000010 9a 08 9c be 01 da b8 3d 7a 7f 3e 3b df f9 4a bb
       -0.30475312 0.09025956 0.0029067681 -0.0030971689
000020 cc 25 6c bb 53 31 0a 40 65 e3 5d 3b 3f 8f 94 be
       -0.003603327 2.1592605 0.0033857462 -0.29015538
000030 4c 58 44 be 83 38 5a be 12 e9 de 3b 2a 70 85 bd
       -0.19174308 -0.2131062 0.0068026865 -0.06515534
000040 88 ba a4 3e 1f fd c4 be b3 3a 47 3e 94 fd 17 bb
       0.32173562 -0.38474366 0.19455986 -0.0023191916
000050 5f 44 3f 3a 67 30 05 be 1a 7a 61 3c 69 8b 81 3f
       0.000729626 -0.13006745 0.013762021 1.012067
000060 18 85 27 bd 1a 05 f3 bd b0 44 c0 3a be ca 39 3f
       -0.040898412 -0.118662074 0.0014668908 0.72574985
000070 dc c7 72 3e cb 1c 04 bf ad 4f 2e 3f 9e 61 ee 3c
       0.23709053 -0.51606435 0.68090326 0.029099282
000080 07 08 e8 3a 2e 78 3a 3e 31 a1 69 3b 38 ee 3b 3f
       0.0017702588 0.18209907 0.0035649056 0.7341037
000090 c6 c0 9d bd 35 1f 67 be b0 4f e0 bd cb 5a 7b be
       -0.07702784 -0.22570498 -0.10952699 -0.24546354
0000a0 f8 69 60 3e bb 17 51 be 3d c6 12 bf b3 47 01 3e
       0.21915424 -0.20419209 -0.5733374 0.12625007
0000b0 70 d5 02 3e c7 4f be bc e0 2b f7 bd f9 d3 41 bd
       0.12776732 -0.0232314 -0.12068915 -0.047321294
0000c0 1a 90 14 3f 14 50 02 bc 38 51 04 3b 8b 46 6a 3f
       0.5803238 -0.007953662 0.0020190012 0.9151389
0000d0 cf 2d 19 3f 04 02 5c 3d 00 29 a5 be 6a 97 34 3c
       0.59835523 0.05371286 -0.32257843 0.011022428
0000e0 b8 7b 42 be 50 ce d5 ba 14 38 4c 3e 28 8d 38 3e
       -0.18992507 -0.0016312096 0.19943267 0.18022597
0000f0 de f7 b0 be b4 69 e4 3a fd 4e f0 bb 7a 16 70 bf
       -0.34564108 0.0017426522 -0.007333635 -0.93784297
000100 5d 79 66 be 8a fb df 3d 82 8a 6e be 3d 93 36 be
       -0.22507234 0.10936649 -0.23295024 -0.17829604
000110 93 69 0c 3e f2 98 70 3e 19 71 bb 3b 14 9d 22 be
       0.13712148 0.23495844 0.0057202694 -0.15880233
000120 14 ea 7f bd 4d 00 7b bd 6e 33 61 bd c0 29 81 3f
       -0.062479094 -0.061279584 -0.054980688 1.0090866
000130 3b 0e b8 bd ff af cf 3e 3f 7c c7 be bb c5 ff 3b
       -0.08987089 0.40563962 -0.3896198 0.0078055537
000140 96 8a 8e 39 ca 76 41 bf 7b e0 6b be 39 2d e4 3d
       0.00027187605 -0.7557188 -0.23034851 0.11141438
000150 36 3d c0 bf ba 3a 63 bc 20 f0 2f 3a 62 1d d0 3e
       -1.501868 -0.013868982 0.00067115016 0.40647417
000160 ee 35 c1 be 64 32 53 3f 53 79 20 bf fe 9a 5c 3b
       -0.37736458 0.82498765 -0.62685126 0.0033661718
000170 9d 58 b3 bb 6e ae 19 be 71 5e c8 be 66 67 1f be
       -0.00547321 -0.15007946 -0.39134553 -0.15566787
000180 6b 28 83 be ec 21 8b 3e 58 ec 1d 3e d8 1f a6 3e
       -0.25616774 0.27174318 0.15422189 0.3244617
000190 e1 82 9b be 87 e2 cb be 0f 06 68 bf 9d 91 22 bc
       -0.3037329 -0.39821264 -0.90634245 -0.009922412
0001a0 69 8d 2d 3b af c6 39 bf a1 5f 24 3f 3d 0d 07 3f
       0.0026481992 -0.7256879 0.6420842 0.52754575
0001b0 ce f2 07 bb f1 a3 5b ba f2 cf a4 ba b1 92 06 40
       -0.0020744088 -0.0008378616 -0.001257418 2.1027033
0001c0 ca 00 2e 3c 2c 0e 8e be db 84 af 3d 51 10 9d be
       0.010620305 -0.27745187 0.08570262 -0.3067651
0001d0 92 ad 5f be 9a 7a 44 be 84 8c 6c be 63 42 94 3d
       -0.21843556 -0.19187394 -0.23100477 0.07239225
0001e0 8f 70 dc bd fe 8c 91 3a 29 e4 5e 3b 8c 2d 2a bf
       -0.10763656 0.0011104641 0.0034010506 -0.6647575
0001f0 45 e8 39 3f 90 3c 06 3d 95 3b b5 be d7 97 87 be
       0.7262004 0.0327726 -0.3539702 -0.26483032
000200 6d 68 18 3e 1e 08 1f 3e 11 40 81 be 77 7a 03 be
       0.14883585 0.1553044 -0.2524419 -0.12839685
000210 2f 94 fd bf 96 3d 12 bb fc c2 96 ba 23 d0 82 be
       -1.9810847 -0.002231454 -0.0011502202 -0.2554942
000220 87 b2 a5 be b6 3e 59 3e 77 f9 a5 3e 3f 75 b1 bd
       -0.32362768 0.21215329 0.3241689 -0.08664941
000230 b1 c0 89 bd a8 13 13 3e a3 b6 76 3d c6 b2 09 be
       -0.06726206 0.14362967 0.06023277 -0.13447103
000240 a6 a0 bc be 18 92 6b be 24 30 29 3d fd 2f 7d 3b
       -0.36841315 -0.23004949 0.041305676 0.003863334
000250 b4 ab d0 3e 56 25 70 bd d6 ef cc bd 41 dd c7 be
       0.40756 -0.058629356 -0.100066826 -0.3903599
000260 34 17 bf be 2b 1d 3a 3e 98 c8 ab 3e 22 f1 17 ba
       -0.3732239 0.18175189 0.33551478 -0.00057961245
000270 64 ad f7 bf 82 e8 63 bc 76 e1 05 39 b3 15 0a bf
       -1.934979 -0.013910415 0.00012767859 -0.5393936
000280 55 e2 fd bd b5 05 bf 3d 90 5a db bf cd b9 d2 bb
       -0.12396685 0.093272604 -1.7137012 -0.0064308406
000290 50 78 4d bb a8 6e f1 be 33 57 02 be c5 f0 b9 be
       -0.003135223 -0.47154737 -0.12728576 -0.36316505
0002a0 7c ec 3a 3f 52 bf 7b bb bd ae 4a bb 14 bb 78 bf
       0.73017097 -0.0038413596 -0.0030926906 -0.9716046
0002b0 d4 f7 37 3f 74 f2 99 3d eb dc 67 be 31 52 d2 bc
       0.7186253 0.075169474 -0.22642867 -0.025673958
0002c0 02 00 94 be cb 19 9a bc 67 d9 6a 3e 42 e7 3b be
       -0.28906256 -0.018811127 0.22934495 -0.18349937
0002d0 37 66 34 3f 99 d5 09 bc d0 e9 55 b8 f3 1a fd 3e
       0.7046847 -0.008412742 -5.1000912e-05 0.49434623
0002e0 2d c9 9d be a2 58 b1 be 46 cf d0 ba b1 82 7f bb
       -0.30817547 -0.34637934 -0.0015930913 -0.003898781
0002f0 b9 a3 40 3c da 91 c9 3d 68 d4 2d 3e b0 e0 98 3f
       0.0117577845 0.09842272 0.16975558 1.1943569
000300 4f 50 a0 3e c4 3a cc be 95 df 2f 3d 3a c0 a1 bc
       0.3131127 -0.39888585 0.042937834 -0.019744981
000310 f8 17 e1 3d 52 36 cd bd 80 d9 03 3e d2 62 9a be
       0.109909 -0.100201264 0.12875938 -0.3015352
000320 72 a8 5d 3e 1c b7 0e 3f f2 9f 9c bb 32 87 90 be
       0.21646288 0.5574815 -0.004779809 -0.28228146
000330 c2 98 11 bf 17 44 2c bc 84 c4 55 3b 50 cf 9b 3d
       -0.56873715 -0.010514281 0.0032618353 0.07607901
000340 c2 28 be bc 23 c9 67 3f 1b 67 cb ba bf d1 a7 39
       -0.023212794 0.90541285 -0.0015518399 0.00032008995
000350 aa 63 bd ba 37 cb ab 3f f9 ba e2 3e 59 82 78 3b
       -0.0014449258 1.3421391 0.44283274 0.003791949
000360 b2 2c 67 3e 9f 1b 08 3e 61 86 27 3d 28 70 f2 bd
       0.22575644 0.13291787 0.040899638 -0.11837798
000370 09 b2 80 3d ae b2 ef 3c 57 63 9f bd c5 72 7b 3a
       0.062839575 0.029260006 -0.077826194 0.0009591992
000380 5c e0 c8 bb 0f d8 29 bf 84 e1 c3 3c 4d d7 1f 3f
       -0.0061302613 -0.66345304 0.023911245 0.624379
000390 5d ec 61 3c b6 40 9a bc 31 96 85 bc 4d fa 06 be
       0.013789264 -0.018829685 -0.016306968 -0.1318142
0003a0 74 9c 50 3e 9b 93 a7 3f 5a 07 80 3f 07 3c d1 bb
       0.20372182 1.3091921 1.0002244 -0.0063853296
0003b0 05 c0 03 bb b8 23 85 be e9 f1 e7 bd a6 56 08 bf
       -0.0020103466 -0.26003814 -0.113254376 -0.53257215
0003c0 29 19 fc bf dc 2a ab bb 1e 7e 03 bb c3 78 36 bf
       -1.9695178 -0.005223615 -0.0020064185 -0.7127802
0003d0 9d d0 98 be 97 83 77 3e b8 66 b0 ba e8 98 8b bb
       -0.2984666 0.24171291 -0.0013458347 -0.004260171
0003e0 0e e3 9e 37 23 93 06 40 7b 18 a9 be ba f4 35 be
       1.8940798e-05 2.1027305 -0.3302649 -0.17769137
0003f0 b8 fb 0c bf 01 7e c4 3b 57 57 25 39 5d db 62 3e
       -0.5507159 0.005996466 0.00015768163 0.22153993

encoder.1.bias f4 [50]
000000 75 bb 7b 3e 2e cc b7 39 1a b8 ab bc 31 72 1d be
       0.24583228 0.00035056606 -0.02096181 -0.15375592
000010 9c f2 b5 bd e0 6c 01 bf 75 c9 f8 bd 86 91 ea bd
       -0.08884165 -0.50556755 -0.121478 -0.11453538
000020 44 16 95 be 3d 43 aa be 2e 68 15 3e 59 50 c9 be
       -0.2911855 -0.33254424 0.14590523 -0.39319113
000030 08 c1 40 bf b0 9a 30 3e ad da 69 3b a9 5e 9f 3e
       -0.7529454 0.17246509 0.003568332 0.31126907
000040 94 60 bb be 1d e3 fd 3c ac 5d 1e 3a 76 1f 89 be
       -0.3659712 0.030992085 0.000604118 -0.26781815
000050 dc 7d 5f 3d 97 4a 11 be 65 d3 c0 3c cf 57 be be
       0.05456339 -0.1418861 0.0235383 -0.37176368
000060 13 7d 04 be 18 7f 91 be 24 47 e5 3c ba 29 db 3c
       -0.12938337 -0.28417277 0.027988024 0.026753295
000070 ca b6 be be ef e3 75 be 8c 5a c0 be 6c 82 65 be
       -0.37248832 -0.24012731 -0.37569082 -0.22413033
000080 88 83 d6 be 7e df 9e be d0 52 64 3c 47 07 33 bb
       -0.41897225 -0.31029886 0.01393576 -0.002731757
000090 e6 85 b2 be 82 b5 f5 3c 8f db 90 be 7a ad 18 bf
       -0.3486778 0.029993776 -0.2829251 -0.59639704
0000a0 a3 b2 b3 3c aa 20 cc 3a eb 8b e0 3c de 7f a2 be
       0.021935767 0.00155737 0.027410468 -0.3173818
0000b0 59 45 0f bf 1c 6a 2b 3c ba 5f ae bb 64 fd d2 3c
       -0.5596519 0.01046231 -0.00532147 0.025755592
0000c0 b0 2b 8b be ce e5 03 3b
       -0.27181768 0.0020125988

encoder.4.weight f4 [50, 50]
000000 b0 d7 7f 3d 7f d3 b3 be 9d 4d b6 bd e6 a5 00 be
       0.062461555 -0.35122296 -0.08901522 -0.12563285
000010 ce ce 5a be 71 47 f3 3d a6 73 92 bc f9 5e 7c 3d
       -0.21367952 0.11878861 -0.017877411 0.06161401
000020 f6 23 4e 3d ff 9c b5 3d ae d2 39 3e 3c 26 ae 3b
       0.050327264 0.08867835 0.18146774 0.0053146165
000030 db 40 c4 bd ec b6 1d 3c d1 a2 43 3e 7e 8c e3 bc
       -0.09582683 0.0096261315 0.19105078 -0.027776953
000040 88 df 0d be 03 7e 03 3b 71 98 b5 be af 92 ca bd
       -0.13854802 0.0020064123 -0.35467866 -0.09891259
000050 78 f5 71 bd 3a b6 06 3d 54 fd 55 3e e5 ce cf bc
       -0.059071988 0.03288863 0.20897418 -0.02536721
000060 50 9e 87 3d 9e f4 0d bd 86 51 b1 3d a1 81 82 3e
       0.066219926 -0.034657113 0.086581275 0.25489524
000070 58 68 09 3d 1a 66 ce 3d 53 dd 31 3e 0d d2 75 bd
       0.033546776 0.10078068 0.17369585 -0.060014773
000080 11 eb 19 3d 28 80 8c 3d 0d e4 87 3d dd bb 7b be
       0.037577692 0.06860381 0.06635294 -0.24583383
000090 49 04 15 ba 48 f3 64 bd 27 6a 38 3d 20 45 5f 3e
       -0.00056845375 -0.055896074 0.04502311 0.21803713
0000a0 1a 45 56 3e a0 33 a3 be 0b 56 a1 bb f6 58 91 bd
       0.20924798 -0.31875324 -0.004923587 -0.07097046
0000b0 f4 96 bd 3e 14 76 84 bc e7 58 8d be 49 e4 3c bc
       0.3702923 -0.016169585 -0.2760689 -0.011529037
0000c0 5e 6d 3f 3d a8 f2 b6 bd a8 85 ac 3d e0 bb 4c 39
       0.04673516 -0.08933002 0.084239304 0.00019524945
0000d0 97 4e 88 3d 22 73 ff bd b2 65 d2 bb 09 d1 4f 3e
       0.06655615 -0.12473132 -0.0064208144 0.20294584
0000e0 94 3b 93 bd ac 91 80 3c 35 23 b0 bc 9c 17 99 3d
       -0.07189098 0.015694462 -0.021501163 0.07475206
0000f0 0c 66 05 bc ba 98 d9 bd 3f 7f e8 bd a1 c6 04 3e
       -0.008142006 -0.106248334 -0.11352395 0.12966396
000100 20 3b 86 3d 16 38 19 bd 03 5a 05 be fa b7 7a 3c
       0.06554246 -0.037407003 -0.13022618 0.0153026525
000110 f4 be 84 3b a1 ed 85 3c 07 dc c1 bb aa 87 00 bd
       0.0040510837 0.016348662 -0.005916122 -0.03137938
000120 13 11 44 3e 00 36 53 3d 78 30 4c 3d ef ad 9c bd
       0.19147138 0.05156517 0.04985091 -0.07650363
000130 41 66 a2 3e 72 97 9d 3e 59 be 5a bc e8 3a 06 3e
       0.3171864 0.30779606 -0.0133510465 0.13108408
000140 ce 73 d7 bd 94 81 07 be 4f 6a dd 3c 4c b5 14 3d
       -0.10520135 -0.13233024 0.027028231 0.03630571
000150 42 8c 1f 3e ab 69 4a bd 6a 15 c3 3d 56 87 5e bc
       0.15580848 -0.04941718 0.09525569 -0.013582071
000160 0d d6 07 be 18 9a 85 3e 43 0e 73 3e 2f b6 72 bc
       -0.13265248 0.26094127 0.23735909 -0.014813944
000170 92 e2 a5 bd b9 c1 c1 bd 6e 92 14 3e 21 ce 0b 3e
       -0.080998555 -0.09460778 0.14508983 0.1365285
000180 3f 3c fc bd 9c 41 bf bd e7 01 54 bd 2c f0 37 3d
       -0.123161785 -0.09338686 -0.051759627 0.04490678
000190 2a 56 ef 3c e8 2f a8 be c7 03 eb 3d b8 7d 90 3d
       0.02921589 -0.3284905 0.1147533 0.07055229
0001a0 32 2b 6e bc 53 ab 90 bd 61 e9 38 bd ac 50 07 3a
       -0.014536666 -0.070639275 -0.045144442 0.00051618624
0001b0 82 58 50 be a1 f1 0f 3e 60 cf c2 3c d7 a6 09 3e
       -0.20346263 0.14057018 0.023780525 0.1344255
0001c0 f2 65 02 3e 6c 19 ef 3d d8 49 68 be 45 47 a8 3c
       0.12734202 0.11674771 -0.22684419 0.020541796
0001d0 4f 7d 65 bd c3 95 66 bd 53 77 64 be 85 4c a1 3d
       -0.056027707 -0.056295168 -0.22311144 0.07875923
0001e0 60 0a 5e 3e 2d 2d e0 bd 8a b2 68 be 87 56 2c 3d
       0.21683645 -0.109461166 -0.22724357 0.042074706
0001f0 3e 6d 85 bc 98 d3 85 3d 17 e7 30 3d 27 41 da bc
       -0.016287442 0.06534499 0.043189134 -0.026642395
000200 ef 11 4e be 8c 68 27 bd 4a ea 5b be 95 61 d9 bc
       -0.20124029 -0.040871188 -0.21476093 -0.026535789
000210 84 c9 c8 3d 6d 1b 0a be d1 c1 11 bb 43 a6 ea bd
       0.09804061 -0.13487025 -0.0022240768 -0.11457493
000220 a3 6d dd 3d ba dd 13 3e 4a f4 78 bc 8d 87 6e be
       0.10811927 0.1444005 -0.015194962 -0.23293896
000230 87 0b 1e bd c5 ab 22 be 27 fc e5 bd 91 33 c7 bb
       -0.038585212 -0.15885837 -0.11229735 -0.0060791452
000240 df da 1b be 72 be d4 3d ef 19 a7 3d e0 54 c7 bd
       -0.15220211 0.10387887 0.08159243 -0.097329855
000250 e1 e5 d0 bd b9 0e 17 be 1e 55 4c be 03 0a 62 be
       -0.10200096 -0.1475171 -0.19954345 -0.22074132
000260 fd 3d 67 3c 42 83 dc bc a1 7a 2e bd de 44 5b 3e
       0.0141139 -0.026918057 -0.042597417 0.2141299
000270 f0 9f 00 3e 39 6f 69 3d 18 53 47 3d 89 6a e9 bd
       0.12561011 0.056990836 0.04866323 -0.11397273
000280 1a 44 0a bd b6 16 f6 bd c7 32 d3 3d 49 77 39 be
       -0.033756353 -0.120160505 0.103124194 -0.1811191
000290 46 74 c3 3c 68 f8 4a be 37 1e c8 bd f2 31 8e be
       0.023859154 -0.19821322 -0.09771388 -0.2777248
0002a0 eb 00 5a be 0e 69 84 bd 44 75 9b be 4f e0 cc 3d
       -0.21289413 -0.0646535 -0.30362904 0.10003721
0002b0 94 7e 8a bd d8 1b 8a bc 88 d8 44 bc 2a 8f 70 3d
       -0.06762424 -0.01685898 -0.012014516 0.058730282
0002c0 12 44 7f bd 9a 04 8c bc 24 33 66 3d 13 dd c7 3d
       -0.062320776 -0.017092038 0.056201115 0.097589634
0002d0 c8 5d 3f 3e 2e 12 c3 bd aa 90 11 bd e1 f6 e1 bd
       0.18688118 -0.09524952 -0.035538353 -0.110334165
0002e0 7e be 7d 3d b8 83 30 be fd 9d b1 3c 98 9c 8f be
       0.061949246 -0.17237747 0.02168178 -0.2804916
0002f0 d9 57 92 3c ae 27 69 3e 6f 1a be bd f7 bb 61 be
       0.017864155 0.22769043 -0.092823856 -0.22044359
000300 b7 03 34 be 7d d3 06 3e 27 dd a3 3e db e4 7a bd
       -0.17579542 0.13166614 0.32004663 -0.06125341
000310 43 9a 82 be 1b 84 7a 3d 4b e9 ad 3d 29 6c ee bd
       -0.25508317 0.06116114 0.08491763 -0.11641724
000320 0f 56 0a 3e e5 9a d4 bd 8e 24 87 bd 55 09 ee 3e
       0.13509391 -0.10381106 -0.06598769 0.46491495
000330 da 68 05 be 2d 00 91 3e c2 54 9d bd 08 fa dc 3d
       -0.13028279 0.28320447 -0.07682182 0.10789877
000340 b4 4a b6 bb c1 ec c0 bd 58 6d 3f bd da 4e e4 3d
       -0.0055631045 -0.09420157 -0.046735138 0.11147852
000350 46 22 6a bd f2 f5 6f bd 44 e1 5b 3d e3 64 fe bc
       -0.057161592 -0.05858416 0.053681627 -0.031053966
000360 f8 b5 f7 bd 30 df 89 3d 2f 63 4f be 86 e2 09 3d
       -0.12095255 0.06732023 -0.2025268 0.033663295
000370 d5 7f 04 bc 9a a4 2f bd dd 21 71 bd dd f2 aa 3d
       -0.008087118 -0.042881586 -0.058870185 0.08347104
000380 a2 69 59 bd 68 26 88 3d ed 0d b2 3d 84 1d aa 3d
       -0.053079255 0.066479504 0.086940624 0.08306411
000390 b8 f7 d8 ba 05 c4 68 3d 55 dc 8f bd ae 71 b1 3e
       -0.0016553318 0.056827564 -0.07024447 0.34657043
0003a0 28 68 5c bd 7f 64 76 3d 9a 8a 74 3e d9 15 ef 3c
       -0.05381027 0.060154434 0.23880997 0.029185222
0003b0 a1 c2 07 be b5 32 68 bd 7f b1 b3 3e d5 8b 12 3e
       -0.13257839 -0.056688983 0.35096356 0.14311154
0003c0 80 00 0d bc e2 f3 78 be 0d e4 2d bd 8c 42 51 3d
       -0.008606076 -0.24311784 -0.042453814 0.051088855
0003d0 2e b7 a9 bd dd 40 4d 3d bb 6a 71 3c a2 ef e0 bd
       -0.08286892 0.050110687 0.014734919 -0.10983206
0003e0 63 91 76 bd 62 14 25 3e 44 3a 94 bd 6b 74 c3 bc
       -0.060197245 0.16121057 -0.07237676 -0.023859223
0003f0 52 d1 66 bd b7 f1 96 3e 10 2f 22 bc 70 03 80 3e
       -0.056351967 0.2948129 -0.009898916 0.25002623

encoder.4.bias f4 [50]
000000 10 cc 39 bb c3 6b 03 bc 83 69 fd 3b 08 30 5e 3c
       -0.002835039 -0.008021298 0.0077335252 0.013561256
000010 ea a7 ae ba b0 8e 09 3a 2d ee 26 bf 82 6b 61 bb
       -0.0013325189 0.00052473973 -0.6520718 -0.0034396355
000020 d8 eb 50 be e3 70 dc bb 58 3f 9d bb d3 7c 76 3c
       -0.20402467 -0.0067273243 -0.004798811 0.015044409
000030 f2 c6 46 bb c9 3b e3 b9 33 7b 4e be de 18 84 bc
       -0.0030330983 -0.00043341357 -0.20164184 -0.016125139
000040 75 af 0f 3c 57 d8 2d bb 99 31 9e bc c5 d4 12 bf
       0.00876986 -0.0026526654 -0.01931076 -0.5735591
000050 45 54 cb bd a1 34 1f bc 76 a4 79 be 1c 81 0a bb
       -0.099281825 -0.009717138 -0.24379143 -0.0021134084
000060 12 ea 98 ba e4 07 1e b8 ed 8b 90 bb fc 19 f0 ba
       -0.0011666438 -3.7677484e-05 -0.0044112117 -0.0018318291
000070 e8 80 cb 3b c0 bb a1 ba 0f bd 03 bc 00 54 9c bc
       0.006210435 -0.0012339279 -0.008040681 -0.019083023
000080 73 21 87 3c 2b 5a 13 be c8 44 5d be 77 a2 38 be
       0.016495442 -0.14389865 -0.21608269 -0.18030725
000090 ed 22 8c be e5 4e 3a bd c8 46 0c bf 80 f2 e4 ba
       -0.27370396 -0.045485396 -0.54795504 -0.001746729
0000a0 ca a7 a2 3b 6b 01 09 be 4e 4d 12 bc 5c 3d b3 bd
       0.0049638497 -0.13379447 -0.008929564 -0.08751938
0000b0 85 88 32 be 88 11 42 3c 1d 0e 50 be f9 ed 37 bc
       -0.1743489 0.011845 -0.20317884 -0.011226171
0000c0 83 e7 3d bb 1f f7 40 3c
       -0.0028977103 0.011777668

encoder.7.weight f4 [20, 50]
000000 eb 39 02 3e ae 29 f6 3d 70 d6 8a 3c 99 e6 8c be
       0.12717406 0.120196685 0.016947955 -0.27519682
000010 b2 23 b1 3c bd 45 1b 3d 85 d7 9c bd 11 02 2b 3f
       0.021623466 0.037908304 -0.076582946 0.6680003
000020 ae 70 a9 bd 8f 93 af 3e 3d 80 08 3e 03 bb 8c be
       -0.08273445 0.34292266 0.13330169 -0.2748643
000030 b7 bf b4 be 15 93 48 be 67 e8 03 be 77 0b a1 3e
       -0.35302517 -0.19587357 -0.12881623 0.3145406
000040 c9 4c 5c 3c c9 1f e0 3e a9 c2 2e be 86 2a 37 bd
       0.013446041 0.4377425 -0.17066444 -0.044718288
000050 2f f6 91 bd ea c6 b8 3e 26 e9 1a be 29 2a fb 3e
       -0.07127034 0.3608926 -0.15128002 0.49055603
000060 96 b9 8d bd 5d 26 12 3f 04 c7 dd 3e 16 d5 15 3f
       -0.06920163 0.5708979 0.433159 0.5852827
000070 56 e8 3e be f9 0c 6a bd d6 dc 61 be 70 d7 ef 3e
       -0.18643317 -0.057141278 -0.22056898 0.46844053
000080 39 3c 2d be 74 cb 1e bc f2 dd b6 bd a9 0c 63 bd
       -0.16917504 -0.009692062 -0.089290515 -0.055431996
000090 70 10 50 bd ef 4b 85 3c ee 70 d2 3d 56 fd 7e be
       -0.050796926 0.01627156 0.10275446 -0.24901327
0000a0 b6 0d 21 be dc 2e c2 bd dc d8 0e 3e 8b 0b 09 3e
       -0.15727887 -0.09481594 0.13949913 0.1338331
0000b0 8d 49 04 3e 4a ba 82 be 7a 50 b8 bd 3f cf ee 3d
       0.12918682 -0.25532752 -0.08999725 0.11660623
0000c0 e5 43 8c be 2f de 8f be 02 fb f6 3c b2 95 ac bb
       -0.2739555 -0.280992 0.030148987 -0.0052668685
0000d0 80 5a 8f bd 16 0e 64 bb ac 5b 97 3e 2a 61 c7 3e
       -0.069996834 -0.0034798435 0.29562128 0.38941318
0000e0 80 fd 6d bd 96 c9 63 3e 0d e4 16 3e 9a 5f 97 3e
       -0.058103085 0.22244868 0.14735432 0.29565126
0000f0 da a8 8f 3e 5e 60 08 bc 20 8a 0a bc cb 22 17 bd
       0.2805851 -0.008323757 -0.008455783 -0.036898416
000100 a3 95 0e 3e c9 a4 5f 3d e3 f4 9f bc a6 d8 9f 3e
       0.1392427 0.05460051 -0.01952595 0.31219977
000110 6e 8c b1 3c de f9 c8 3d 72 df 13 3d e1 2a f7 3d
       0.021673407 0.098132834 0.036101766 0.120687254
000120 b4 6b a8 bb d5 18 85 3e fc 2b 17 3e e0 75 70 3d
       -0.0051397923 0.25995508 0.14762872 0.058706164
000130 0b 3f 6c 3e 77 86 ef 3d e1 a3 3b 3d ef 1c 8d 3e
       0.23070924 0.11695569 0.045810584 0.27561137
000140 66 ed ea bb 39 b4 69 3d 8d 03 4c 3d c5 20 59 bd
       -0.0071694134 0.05705664 0.049808074 -0.053009767
000150 bf e4 ee 3d 9e 9d 3d bd 31 80 be 3d 9c fb 2e 3c
       0.116647236 -0.046292894 0.09301794 0.010680106
000160 39 00 f6 3d e9 90 4e bc 44 24 ce 3c a1 b3 f7 bc
       0.12011761 -0.012607791 0.025163777 -0.03023702
000170 d6 c6 b9 bc e8 16 9c 3e 82 a2 0d bd 17 7e 93 3c
       -0.02267782 0.30486226 -0.034578808 0.01800446
000180 95 96 fb 3d 46 0d c7 3c fe f2 af bc fc 97 82 3c
       0.122845806 0.024298321 -0.021478172 0.015941612
000190 d2 e4 e2 3e 72 6e 3a 3e 08 86 9e be 66 ee 90 3e
       0.443152 0.18206194 -0.30961633 0.28306884
0001a0 42 5e 7a be 09 8b 9f be b4 94 79 be c6 c5 b2 bd
       -0.24450019 -0.31160763 -0.24373132 -0.087291285
0001b0 4c 9f 3c be 2e ba 35 be b5 0f f0 be fa 4c 48 bb
       -0.18420142 -0.17746803 -0.46886984 -0.003056346
0001c0 2b 13 66 3c e2 ba cd bd 9d 1b 59 3d b3 bf 56 be
       0.014042656 -0.10045411 0.05300485 -0.20971565
0001d0 fe ab 84 be 8d 9a 21 be 71 e9 34 3d ff 86 26 be
       -0.2591247 -0.15781613 0.04416794 -0.16262434
0001e0 f2 be 7f be 4f a9 f0 bd ca 36 03 bf d8 f0 27 be
       -0.24975184 -0.11751043 -0.51255476 -0.16400468
0001f0 d7 7c fa bd 8d 17 62 bd 34 03 47 3b f9 73 28 be
       -0.122308426 -0.05519824 0.00303669 -0.1645049
000200 c2 01 94 3e 91 6e 3f be 5f 36 b9 3c d5 ed ea bd
       0.2890759 -0.18694521 0.022608934 -0.11471144
000210 41 e2 68 3d 3b 2a e5 3d 95 35 6e be f1 32 aa 3c
       0.056856398 0.111896954 -0.23262627 0.020776244
000220 ad cb 95 be 0b d4 4a 3d 1e 55 57 be 44 fb 7b 3c
       -0.29256955 0.049518626 -0.21028563 0.015379731
000230 3e 13 b9 3e 1f 93 b6 3d 85 7f 99 be 62 27 c6 be
       0.36147493 0.0891478 -0.29980102 -0.38701922
000240 2b 46 02 3e 84 f2 92 3d 81 31 14 3d 40 48 eb 3e
       0.1272208 0.071751624 0.036180023 0.4595356
000250 df f6 51 3c e6 5a 5e 3e 6d b3 d4 3c 54 34 f4 3d
       0.012815206 0.21714363 0.025964463 0.11924043
000260 1b e7 eb bd 83 2d 04 3c 05 68 d9 bc 62 8a 6f bd
       -0.11518689 0.008067491 -0.026538858 -0.05848158
000270 b6 5b 4a bd 08 77 1e 3e 5d 7c 07 be 4a 25 00 3f
       -0.04940387 0.15475094 -0.13231035 0.500569
000280 2c ea e8 3d 5e 6f b7 3c 7a 1b 40 3e 36 90 84 3e
       0.1137279 0.022391971 0.18760481 0.25891274
000290 b1 a2 1b 3d bd 7f dc bc ae dc 8e bd f3 94 21 3e
       0.03799695 -0.02691638 -0.06975685 0.15779476
0002a0 a6 ba 88 3e 97 7e 41 be 92 00 ab bc 5e 81 58 3e
       0.267049 -0.18895946 -0.020874295 0.211431
0002b0 36 4c 85 3e 0c f6 4b 3e aa f2 2a 3e 54 62 86 3e
       0.26034707 0.19918078 0.16694131 0.26246893
0002c0 61 52 92 3e 2a a8 4d 3e 00 b7 e6 3a 4d 1c ac 3d
       0.28578475 0.20083681 0.0017602146 0.084038354
0002d0 5d a0 8c 3e cc b7 ea 3c 29 63 4e 3c 1e 8d ed 3c
       0.27466097 0.028652094 0.012596884 0.028997954
0002e0 03 42 b6 3e 42 53 8c bd 5e bf 30 bd 54 e0 d5 3e
       0.35597238 -0.06851818 -0.043151252 0.4177271
0002f0 7a 50 2f bd ad cd 94 3d 78 56 c0 b9 4e b6 74 bd
       -0.042801358 0.07265792 -0.00036685518 -0.05974417
000300 c8 9d 53 3b 58 58 e4 3e 30 f2 06 3e a8 5d 84 bb
       0.003229009 0.4459865 0.13178325 -0.004039485
000310 8d 1b be bd 50 03 16 3d 37 ac e2 3d 4c 04 71 3b
       -0.09282599 0.036624253 0.110680036 0.0036776243
000320 4b 6e 98 be 7e c0 01 3d aa 11 ec bd 6b 4a 7b be
       -0.29771647 0.031677715 -0.11526807 -0.24540107
000330 a8 c3 8a bd b0 da 0e be ce cf e3 bd 65 3f e8 bc
       -0.067756 -0.1395061 -0.1112362 -0.028350541
000340 18 c2 48 be a8 b1 b2 3d 6a 0c 53 3d f6 77 3c 3a
       -0.19605291 0.087252915 0.05152551 0.00071895064
000350 b8 ca 88 3e ca 77 97 3e bb 6d 1a 3c f0 42 23 be
       0.26717162 0.2958358 0.009425576 -0.15943503
000360 d0 90 d3 bd f0 19 02 3c cf 59 1e 3e ad 27 4b be
       -0.10330355 0.007940754 0.15463947 -0.19839354
000370 6d 17 03 bd 3a 64 14 be 34 7f aa 3e 01 f2 85 3c
       -0.032004762 -0.14491358 0.33300173 0.016350748
000380 03 3f c3 3e 3d 4a e6 bc 18 f3 22 bd b0 d7 a7 3c
       0.38134012 -0.028111571 -0.039782614 0.02048859
000390 a4 b3 e0 bd 46 7c 51 3d cf 10 61 3e 78 1f e9 bd
       -0.10971764 0.051143907 0.21979068 -0.11382955
0003a0 68 af e9 bc d4 22 66 bd 65 21 9c 3d 3c 7e 11 bd
       -0.028526023 -0.05618556 0.07623557 -0.035520777
0003b0 02 f3 a0 bd 14 c9 93 3e b4 c7 fa bc a2 d4 7b 3e
       -0.0785885 0.28864348 -0.030612804 0.24592832
0003c0 3d 54 19 be 8d 69 fe 3d 18 1c 3e 3e f7 d5 4f 3e
       -0.1497354 0.12422476 0.18565404 0.20296465
0003d0 2a 79 67 3d 82 37 12 be 2e 54 6d 3d f1 a3 8c be
       0.056512035 -0.14278987 0.057941608 -0.27468827
0003e0 49 5c 89 3e ac f6 19 be e3 7d 89 be 1e 0e 89 be
       0.2682822 -0.15035504 -0.26853856 -0.26768583
0003f0 35 18 1e 3e 05 eb 54 be e0 42 db 3e 12 77 96 3e
       0.15438922 -0.20792778 0.4282446 0.29387718

encoder.7.bias f4 [20]
000000 7c a1 ed 3a 6c ed 2f bb d5 bb 16 bc a3 cf 01 bb
       0.0018129791 -0.0026844395 -0.009200056 -0.00198076
000010 e3 6b 1b bb b5 c1 b7 3b f9 fd ef be ea 32 7c bf
       -0.0023715429 0.0056078085 -0.46873453 -0.9851519
000020 94 f8 eb 3b f8 a3 d5 bb f5 c9 50 be d4 bc bb 3b
       0.0072012637 -0.0065197907 -0.2038954 0.005729297
000030 be 23 af be 47 e5 79 3b 72 2e 1b ba 58 fb 22 3a
       -0.34206957 0.0038131045 -0.00059197017 0.00062172627
000040 81 de 30 bb 9a f6 8b 3b 65 75 40 3b db b1 e1 be
       -0.0026988091 0.0042713406 0.0029366848 -0.44081005

encoder.10.weight f4 [4, 20]
000000 d3 92 38 3f 94 00 7d 3e ba 7c 47 bf 89 e0 67 be
       0.72099036 0.24707252 -0.7792469 -0.22644247
000010 8e 64 e2 be 02 ab 0a 3f cd 79 28 3f fb 65 9b 3f
       -0.44217342 0.5416719 0.65810853 1.2140497
000020 ce 26 1f 3f 51 ed fb be 24 fb 3a be 49 d9 08 3f
       0.62168586 -0.49204496 -0.18259865 0.5345655
000030 82 5b 74 3e e2 80 55 3f b6 4c eb be 5a 33 63 3f
       0.23863032 0.83399785 -0.45956963 0.8875023
000040 e2 0d 64 be f7 db 89 be 55 f1 bf be 17 45 71 3f
       -0.22270921 -0.26925632 -0.3748881 0.9424605
000050 f7 46 b2 be 5a 3e 36 bf 6e e7 08 bf eb 90 c0 bd
       -0.34819767 -0.7118889 -0.53478134 -0.09402641
000060 25 36 28 3f 72 fe c8 be e6 2d 99 3d 1b 67 0b 3f
       0.6570762 -0.39256626 0.074794576 0.544542
000070 e7 54 86 be 84 e0 e6 be ff d4 e5 bd 95 5c d8 be
       -0.2623665 -0.45093167 -0.112222664 -0.42258134
000080 54 95 8b bd f9 8d bd be 8b 14 2f 3f 09 e4 bd be
       -0.068155915 -0.3702238 0.6839072 -0.3708804
000090 2d 86 25 be 37 f2 8f 3e 4b ff 05 3f a0 8f 3c 3e
       -0.16164465 0.28114483 0.5234267 0.18414164
0000a0 3f ba 2e bf 4b 59 18 3e e3 48 da 3e e3 e0 ec bd
       -0.6825294 0.14877813 0.42633733 -0.11566331
0000b0 17 ea 15 3f 3d 0e 0c 3f 5c 91 68 3e 04 ed 2a 3b
       0.5856032 0.54709226 0.227117 0.0026081214
0000c0 ab da 24 bf 64 f8 c2 3e 06 7d 41 be e4 d2 bc 3e
       -0.6439616 0.38080132 -0.18895349 0.36879647
0000d0 98 15 8c 3e 25 a9 48 bf 25 ad 1b 3f b2 ad 54 bf
       0.27360225 -0.78383094 0.6081107 -0.8307754
0000e0 77 99 2e be b2 6a 6c 3e 37 69 00 3f c7 80 60 bd
       -0.1705073 0.23087576 0.50160545 -0.05481031
0000f0 f0 6b f7 3e af 36 63 be 59 dc f1 3e d8 14 e3 be
       0.48324537 -0.22188829 0.47238424 -0.4435184
000100 87 d8 c2 be 43 53 e9 bd 31 62 17 be 01 e3 d6 be
       -0.38055822 -0.11392834 -0.14783551 -0.41970065
000110 7b 9b bb 3e f6 f3 9c 3e f5 28 13 be 85 25 e0 bd
       0.3664206 0.30654877 -0.14371093 -0.10944656
000120 12 41 63 be 95 5b 17 3f e2 78 c8 be 87 91 20 3f
       -0.22192791 0.5912412 -0.39154726 0.6272206
000130 3d 82 e4 be 36 b0 9c be b8 31 a3 be 35 c9 90 be
       -0.44630614 -0.30603188 -0.3187387 -0.2827851

encoder.10.bias f4 [4]
000000 3c 10 3e be 55 1b 41 be f4 48 4f 3e 92 19 5a 3e
       -0.1856088 -0.18858083 0.20242673 0.21298817

decoder.0.weight f4 [20, 4]
000000 ba cf 6b be 68 fb 7e 3e 1e 30 32 3f 9c b4 b7 3f
       -0.2302846 0.24900591 0.6960467 1.4351993
000010 d2 e4 d7 3e ee 88 bb be 0d c2 1c bf 38 2e 18 3f
       0.42166764 -0.36627907 -0.612336 0.59445524
000020 2b 31 70 be a9 af f9 bd 85 60 4b 3f a4 40 14 3f
       -0.23456256 -0.12191708 0.7944415 0.57911134
000030 5d 33 aa bd 55 8f 7c bf f3 ec 74 bf 5c 7b 54 3f
       -0.08310578 -0.9865621 -0.95674056 0.8300073
000040 83 83 bf 3b 25 fe 35 3e 7e 2d c5 3e c4 e4 4a 3f
       0.005844535 0.1777273 0.3851127 0.7925532
000050 32 c3 3e 3f 05 c8 cf be 81 53 29 3e 19 a8 5f bf
       0.74516594 -0.4058229 0.1653576 -0.8736587
000060 29 d7 9c 3f 72 41 0a be 2c 55 09 3f 5b b3 24 bf
       1.2253162 -0.13501528 0.53645587 -0.64336175
000070 9f f1 00 3f 9d 5e 95 be 83 5e 13 bf 12 2f da be
       0.50368685 -0.29173747 -0.5756609 -0.42614037
000080 4b b2 a1 be 35 bb 30 3f eb 78 40 be 00 16 e9 be
       -0.3158134 0.69035655 -0.18796127 -0.45524597
000090 b4 86 7c 3e c1 b9 ec 3e 98 a8 68 3e b3 d8 f7 be
       0.2466076 0.4623547 0.22720563 -0.48407516
0000a0 bb 24 3b be c4 80 ae 3e 1f f0 a7 3e 0d 92 34 be
       -0.1827573 0.34082615 0.32800385 -0.17633839
0000b0 a9 b4 b8 bf ae 45 16 3f 83 72 f6 be 45 8d 2a 3f
       -1.4430133 0.5870007 -0.4813424 0.6662181
0000c0 8b f5 e5 3d 55 ab 76 bf f5 11 05 bf 04 a4 dc 3e
       0.11228474 -0.9635518 -0.51980525 0.43093884
0000d0 fa 12 01 3f 62 ac dd 3e 02 7f e7 3d a8 8d 89 3c
       0.5041958 0.4329558 0.11303522 0.01679118
0000e0 41 1c 11 3c c5 9c b9 be dd b2 e0 be 07 78 38 be
       0.008856834 -0.36252418 -0.43886462 -0.18014537
0000f0 89 7b b6 3e c4 c2 eb be 6a fe 0f 3f 6d 19 d6 be
       0.35641125 -0.46047032 0.5624758 -0.41816273
000100 74 a7 84 bf 68 74 40 be 4f bf 2a 3e b3 1e da be
       -1.0363603 -0.18794405 0.16674541 -0.42601547
000110 df 1d 70 bf 3c 46 ad be 1f ad 0c 3f c5 57 00 be
       -0.9379558 -0.33842647 0.5495166 -0.12533481
000120 70 34 11 bf 2d 72 17 3f 52 25 cb 3d 5c 89 86 be
       -0.5672064 0.59158593 0.09919228 -0.26276672
000130 b8 b3 5e 3e 17 33 8a be ef 06 19 be eb 95 75 be
       0.21748245 -0.26992103 -0.14944051 -0.2398297

decoder.0.bias f4 [20]
000000 01 90 34 bf a0 6e 88 3c 89 62 9c be 56 5a 4e 3d
       -0.7053223 0.016654313 -0.30543926 0.05037912
000010 6e 8c 82 be 70 82 36 3e 08 ae 1d 3e 21 2d ad 3e
       -0.25497764 0.17823195 0.15398419 0.33823493
000020 18 56 48 be 18 f5 db 3e 93 84 4c 3e 80 a7 48 be
       -0.19564092 0.4296043 0.19972448 -0.19595146
000030 af 14 3e 3d f8 73 d3 be 49 82 f2 be 90 fa e5 bd
       0.046406444 -0.41299415 -0.47365025 -0.11229432
000040 4f 66 1a be c2 55 22 be 94 a9 94 3e 82 a2 2d 3e
       -0.1507809 -0.15853027 0.29035628 0.16956523

decoder.2.weight f4 [50, 20]
000000 92 85 82 3e 33 bf b5 be e0 fe 52 be b2 f5 6c be
       0.2549253 -0.35497436 -0.2060504 -0.231406
000010 70 c2 06 3d e9 ab 1f 3e 9d ec 09 3d 39 83 d9 3d
       0.032900274 0.15592922 0.033672918 0.10620732
000020 02 95 33 3e b7 8c 7a 3e d2 73 b0 3c e1 04 a0 3d
       0.1753731 0.24467741 0.021539602 0.078134306
000030 6b bd 35 be f3 76 b0 3d 8c 79 5c 3e 5d 32 a3 3e
       -0.17748038 0.08616438 0.21530741 0.31874362
000040 79 1e c5 3d 2c 87 39 3e 4f c4 db 3d 78 fa 31 be
       0.09624953 0.1811797 0.10730802 -0.17380702
000050 59 4f ff bd 82 44 43 bd 06 3b 9e bc 61 96 90 3d
       -0.12466306 -0.047672756 -0.019315254 0.070599325
000060 95 67 0c be 99 66 1a be 3d 83 4c 3e 60 4d 2e 3d
       -0.13711388 -0.150782 0.19971938 0.04255426
000070 c4 5c 57 be 72 e7 13 be f2 16 e9 3d a3 19 c6 3d
       -0.21031481 -0.14443758 0.113813296 0.096728586
000080 a5 77 cf 3d 5d b6 1b be 29 27 b0 bd 97 39 a5 3c
       0.10130242 -0.15206285 -0.08601219 0.020169063
000090 b9 83 a0 3b 1f 78 5d 3e 18 be 50 be cd dc 20 3e
       0.004898515 0.21627854 -0.20385015 0.15709229
0000a0 d1 f6 08 be 5e 2e 39 3e f3 1a 39 3e b9 4d 24 bd
       -0.13375403 0.18084094 0.18076687 -0.040113185
0000b0 29 05 12 bc 05 83 22 3e 1c ee e6 3d ec 08 54 bc
       -0.008912363 0.15870292 0.112758845 -0.01294158
0000c0 0d 27 b5 bd bf a5 0a 3e 86 71 e3 bc 08 44 34 bd
       -0.08845339 0.1353979 -0.027764093 -0.044010192
0000d0 7c d0 f6 3d 13 2d 4b 3d 2a eb 9f bd 1f cd 21 3e
       0.12051484 0.049603533 -0.07808526 0.15800904
0000e0 a7 14 94 3b a4 e8 03 be aa ed 02 bd 33 cd 4d 3d
       0.0045190635 -0.12881714 -0.031964935 0.05024452
0000f0 af 35 bc bd ad ac 0f 3e b0 77 63 bd 5b 3d 61 bd
       -0.09189927 0.14030714 -0.055534065 -0.054990154
000100 78 54 70 be d4 04 a8 bb 2a f9 12 3e c8 49 8d 3e
       -0.23469722 -0.0051275287 0.14352861 0.27595353
000110 bc 7a 6d 3d c7 a6 a1 bb 48 b6 3a bd ea 85 23 3e
       0.057978377 -0.0049332115 -0.045583993 0.15969053
000120 34 38 6f 3d 1a c3 a7 bd 76 f3 60 be a6 24 7c 3d
       0.05840321 -0.081915095 -0.21967873 0.06155839
000130 a2 19 d5 3d 1f dd f8 bb 9c af 91 3d d2 c2 5a bd
       0.1040528 -0.007594719 0.07113573 -0.05340845
000140 8d 66 e1 be f6 62 82 be e5 b1 00 3e a1 bd 98 3d
       -0.44023553 -0.25466126 0.12567861 0.07458044
000150 7b 41 45 be 4e 33 21 bd a8 11 3d 3e ea 17 67 be
       -0.1926326 -0.03935557 0.18463767 -0.22567716
000160 52 ac 98 bd cf 28 6b be 97 8e 04 be e1 d7 73 3e
       -0.074547425 -0.22964786 -0.12945019 0.2381282
000170 05 5d 85 3e 08 8b 0a be c8 82 cd bd e4 89 94 3e
       0.2604753 -0.13529599 -0.1003471 0.29011452
000180 a9 c1 1f 3e ff f4 cb 3d 15 66 23 3e ca 3d 10 3e
       0.15601219 0.09958839 0.1595691 0.1408607
000190 43 5e 05 3e 4e 64 50 3e b0 da 82 3e e6 c5 e9 bd
       0.13024239 0.20350763 0.2555747 -0.11414699
0001a0 83 32 71 3e 0b 54 60 3e af 77 74 3e bd fd d1 be
       0.23554425 0.2190706 0.2387378 -0.410139
0001b0 b2 af 2e 3e 95 90 8b 3e 49 29 ab bd 1f 86 37 be
       0.1705921 0.27258745 -0.08357484 -0.17922257
0001c0 eb cc 86 bd 6f 97 33 be 69 52 04 3e c1 79 1e 3d
       -0.06582054 -0.17538236 0.12922062 0.038690332
0001d0 cb 47 ae bc a1 13 de be f6 09 22 3e 64 78 19 3d
       -0.021274468 -0.4337435 0.15824112 0.03746833
0001e0 cd a0 54 3e df f3 41 be 98 c7 20 3d 13 f3 ef bc
       0.20764466 -0.18940686 0.039252847 -0.029290712
0001f0 74 07 fc 3d 46 82 43 3e 71 c6 1f 3b bd 44 a3 bd
       0.12306109 0.19092664 0.0024379755 -0.07972095
000200 99 c1 dd bd 75 da 4e 3e 0d 4d 97 bd 55 5f 08 3e
       -0.108279414 0.20200522 -0.07387743 0.13317616
000210 5f 65 c4 bd 1f 5b 63 be ca 82 53 be 5e 09 ee 3d
       -0.095896475 -0.22202729 -0.20655361 0.116228804
000220 b5 17 5c be f4 4a 85 bd 8e 9c d9 bc b5 c8 fa bd
       -0.21493419 -0.06508437 -0.026563909 -0.12245313
000230 c2 96 ae bd 66 3c 7b bd 47 8e dd bd 02 05 1e 3b
       -0.085248485 -0.061336897 -0.10818153 0.0024111872
000240 80 70 26 be 57 1b 0b 3a 28 41 43 3e 7b d5 93 3d
       -0.16253853 0.0005306503 0.19067824 0.072184525
000250 91 03 32 3e 7d 62 04 3e d1 b0 2a bd e6 92 09 3e
       0.17384173 0.12928195 -0.04167253 0.13434944
000260 1e 29 b2 3d af 61 28 be 27 74 13 be 56 d4 61 bc
       0.08699249 -0.16443513 -0.14399777 -0.013783535
000270 1c 60 ee 3d 23 a5 a5 3d cd b3 88 be 4f eb 3b bc
       0.11639425 0.08088138 -0.26699677 -0.011469676
000280 a8 d4 d0 3e 9d 79 89 3e a4 7c 70 3e 6a 34 5f be
       0.40787244 0.26850596 0.23485047 -0.21797338
000290 e9 16 a2 3e 40 68 6a 3b 15 0a 84 3e 4a 97 72 be
       0.31658104 0.0035767704 0.25788942 -0.23690525
0002a0 fc 17 bf 3d f1 42 21 3e c1 93 1c 3e 51 97 25 3d
       0.093307465 0.15748192 0.15290739 0.04042751
0002b0 d6 69 6b bd 56 9f a7 3c 06 20 25 be 78 69 9b be
       -0.05747398 0.02046172 -0.16125497 -0.30353904
0002c0 2c 5f 30 be 04 d3 08 be 5b 5c b9 3d b1 86 a7 3d
       -0.17223805 -0.13361746 0.090508185 0.08179987
0002d0 5e 06 2d 3e 08 40 57 bc 85 fd 58 3e b5 d2 ff 3d
       0.1689696 -0.013137825 0.2119046 0.12491361
0002e0 3a b8 59 bd b0 83 84 be be 87 e4 bd 37 9b e0 bd
       -0.053154208 -0.2588172 -0.11158703 -0.10967105
0002f0 36 84 11 be 15 0c bc 3d 47 67 06 3e 0f 1c 2b 3e
       -0.1421059 0.09181992 0.13125335 0.16709922
000300 7d ce d5 bc ff 09 ea bd 94 ea e2 3d 49 b2 5a be
       -0.026099438 -0.11427688 0.110798985 -0.21357073
000310 f2 9e 2d be ec 71 12 3e 70 f9 29 3e d0 ff 24 3e
       -0.16955164 0.1430127 0.16599059 0.1611321
000320 d4 83 52 bd 6c 26 25 3e 5e a1 6a bd 5e cf 3e bd
       -0.051395252 0.16127938 -0.057282798 -0.04658448
000330 81 f7 4c 3e 01 b9 39 3e a3 51 56 3e 5f b9 18 3e
       0.2001629 0.1813698 0.2092958 0.14914463
000340 8d 61 33 3e 56 49 73 bd 40 fe 92 3d af 39 64 3d
       0.17517681 -0.05939611 0.071774006 0.055719074
000350 f3 c2 1e be 78 f4 0e bd 96 a5 94 3d 17 b6 3d be
       -0.15504055 -0.034901112 0.072581455 -0.18526493
000360 bb b8 63 3e 77 ce 31 be 6e ca 64 3e fb 56 16 bd
       0.22238438 -0.17363916 0.22342846 -0.036704045
000370 95 7d 43 3e 1c 2a 04 3d 6f 09 9d 3d 9b 48 e3 3d
       0.19090874 0.03226672 0.07667815 0.11097833
000380 ab 0d c5 bd 33 a7 2e be f5 52 6e be 02 1a 04 3e
       -0.096217476 -0.17055969 -0.23273833 0.12900546
000390 dd 53 a7 bd c1 b3 38 be 13 a7 6e be ce 52 62 be
       -0.081702925 -0.1803732 -0.23305921 -0.221019
0003a0 73 2e 01 3c 8e 2d bd bd cc 0a 7c bd 87 e7 5a be
       0.0078846095 -0.092372045 -0.061533734 -0.21377383
0003b0 20 3e 0e be 9a 6c a5 3d 27 28 3b bd 19 be 8a 3d
       -0.13890886 0.08077355 -0.04569259 0.067745395
0003c0 67 ef 3b 3d c4 30 8d 3e 7f 74 d0 bc 4a b2 bf 3e
       0.04588261 0.27576268 -0.025446175 0.3744071
0003d0 b4 5e 35 3d 6e 26 32 bd 87 89 14 3c 80 97 1f 3c
       0.04427977 -0.04349368 0.009065992 0.00974071
0003e0 18 9e 44 3e 34 83 3b 3e 66 7e 0e 3e 55 33 a4 be
       0.19200933 0.18311769 0.13915405 -0.32070413
0003f0 7f a9 a9 3e 25 34 dd bd 88 8a fb 3d 89 bd bf 3c
       0.33137128 -0.108009614 0.12282282 0.023405807

decoder.2.bias f4 [50]
000000 eb cc 84 3e 38 55 b7 bd 22 92 10 3d e6 39 1b 3e
       0.2593759 -0.08951801 0.035295613 0.15158805
000010 7d 99 78 3d 45 64 1f 3e b9 0e 1a be a2 d8 4b 3e
       0.060693253 0.15565594 -0.15044679 0.19906858
000020 2a d9 00 3e b2 27 6a be c9 d8 8c 3d 43 d9 f9 bd
       0.12582842 -0.22866705 0.06877286 -0.121996425
000030 42 11 03 be 99 9f 89 be ee 56 08 be 67 90 b7 bd
       -0.12799552 -0.26879576 -0.13314411 -0.089630894
000040 39 f0 9e be 10 2a a9 3d 54 9a 93 bd aa b4 d6 bd
       -0.3104265 0.08259976 -0.0720717 -0.10483678
000050 4e 39 19 3e 27 f5 07 3c a1 ca a9 bd 62 7c 0e 3c
       0.14963266 0.008298195 -0.082906015 0.008696647
000060 11 d3 66 3e e2 3b 0b 3e 83 53 28 be de 0c 4c be
       0.22541453 0.13597062 -0.16438107 -0.19926783
000070 ca 70 10 3e e3 4f e4 bd 53 b8 48 be 4c 84 26 3c
       0.14105526 -0.1114805 -0.19601564 0.010163378
000080 c8 8a 8f 3d af a5 a4 3c d5 34 32 be 69 61 7a bd
       0.07008892 0.020098535 -0.17402966 -0.061128054
000090 bb dc a1 be 75 9d be 3b bb 6e eb 3d 57 da f9 bd
       -0.31613716 0.00581711 0.114957295 -0.12199848
0000a0 1f c3 12 be 67 9a c9 bd 16 63 03 be 3f a0 48 be
       -0.14332245 -0.09843903 -0.12830767 -0.19592379
0000b0 d3 98 ce 3e 89 6c 05 3e fb 09 c1 3d ea 4a be bd
       0.4035097 0.13029684 0.09425732 -0.092916325
0000c0 2a 8b ce bd 10 0e 96 bd
       -0.10085137 -0.07326901

decoder.4.weight f4 [50, 50]
000000 33 05 35 3d 7a 4d 07 be 39 64 a3 bd 1f 4f 67 bd
       0.04419441 -0.13213149 -0.079781 -0.05647194
000010 c5 ab 93 3c 90 96 58 bd 29 b0 c9 bd 2c 4a 0f bd
       0.018026242 -0.052877963 -0.09848053 -0.034982845
000020 69 30 80 bd ff 0e c7 3c df 2f 8b 3d f2 be 03 3c
       -0.062592335 0.024299143 0.0679624 0.00804113
000030 2d 93 d6 bd fa 50 d5 bd 05 69 fe 3d 4b b5 81 bd
       -0.1047729 -0.10415836 0.12422375 -0.06333407
000040 f6 ea 38 3c f5 4f a1 bd 92 63 0e 3c 63 4d ab bc
       0.011286488 -0.07876579 0.008690732 -0.020910924
000050 5d 1b d0 bd 9b 18 ad bd f0 19 d2 bd 08 23 c0 3d
       -0.10161469 -0.08451959 -0.102588534 0.09381682
000060 bc b4 af bd 82 a7 09 3e c7 e6 0c be 23 bd 77 bd
       -0.08579394 0.13442805 -0.1375991 -0.06048311
000070 9b ea f2 bd 91 a8 e2 bd 5c 76 00 3e f9 9f ce 3d
       -0.11861154 -0.11067308 0.1254515 0.10089106
000080 b0 8e 22 3d ac 9c 1c bb b5 e6 05 be f9 b6 e4 bd
       0.03968686 -0.0023897095 -0.13076289 -0.11167712
000090 93 3d ec 3c a8 3d 67 bd 57 c5 0b be b9 60 19 3d
       0.028837955 -0.056455284 -0.13649498 0.037445758
0000a0 de 2a bb 3c c1 11 af bd d2 d9 91 3c 13 28 9a bd
       0.02284759 -0.08548308 0.01780406 -0.07527175
0000b0 6b 9d a6 bd d3 6f 04 3e ad 23 f6 3d 78 f6 05 bc
       -0.08135494 0.12933283 0.12018523 -0.0081764385
0000c0 53 46 9e bd 0d a9 b7 bd 01 65 02 be dd d0 da bd
       -0.07728257 -0.08967791 -0.12733842 -0.10684369
0000d0 9f 46 94 3d 7e 51 04 3c e9 3b 2e bd aa 90 5a 3e
       0.072400324 0.00807607 -0.042537604 0.21344247
0000e0 a1 c1 a4 3c ea 3f 2e bd b9 bb 5f 3e 83 2d fe 3c
       0.02011186 -0.042541422 0.21848954 0.031027561
0000f0 b3 b0 0c 3e fb 5f cd 3d ce e4 f8 3d 43 4d 02 3e
       0.1373928 0.100280724 0.12153016 0.12724786
000100 53 91 bb be 7a a9 b5 bd ba 54 70 3e 48 39 4c 3c
       -0.3663431 -0.08870216 0.2346982 0.012464829
000110 1b 09 aa 3d c0 ed a8 3c bb 65 1e be 91 21 e9 3d
       0.08302518 0.02062118 -0.15468495 0.113833554
000120 83 c5 3e bc fd 58 c8 3d 7b b2 c2 3d c1 84 6e 3e
       -0.01164377 0.09782598 0.09506699 0.23292829
000130 1c 64 2d 3e 6a ae cd bd 32 b8 81 3e 6a ad 04 bd
       0.1693272 -0.100430325 0.25335842 -0.032391943
000140 59 83 08 be c3 fb d3 bd 5f d9 8c bd b9 93 f6 3d
       -0.13331355 -0.10350754 -0.06877398 0.120398946
000150 ae 20 25 3e 70 03 f1 bb f4 24 ee 3c 73 49 0c 3e
       0.16125748 -0.007355146 0.029070355 0.13699894
000160 74 87 08 be 81 2c 04 3e 7c 0c 0b be 0c bb 42 be
       -0.13332921 0.12907602 -0.13578981 -0.19016665
000170 3e 67 75 bd a0 b8 f9 3d 75 c7 7b 3e 60 03 42 bd
       -0.059912913 0.121934175 0.24587806 -0.0473665
000180 5c e0 07 bd 80 02 e1 3d 56 8f ad bc 68 a8 50 3e
       -0.03317295 0.10986805 -0.021186512 0.20376742
000190 cd 70 82 3e ec 27 1d be 4d 27 74 bd ef 5a 8e bd
       0.25476685 -0.1534726 -0.059607793 -0.06950938
0001a0 a1 38 04 3e db 04 6a 3d be 20 e0 bd 6c d3 84 bd
       0.12912227 0.057133537 -0.10943745 -0.06485638
0001b0 20 e7 24 3d 3e f7 77 bd ed 49 65 bd e1 19 16 3d
       0.04025948 -0.060538523 -0.055978704 0.036645774
0001c0 ad 4e 1e be 8f 78 45 3d 51 81 80 3e d5 10 78 bd
       -0.154597 0.048210677 0.2509866 -0.060562927
0001d0 0e 36 86 3d d0 34 9b bd 9d 42 82 bb d5 31 73 bd
       0.06553279 -0.075784326 -0.003975226 -0.059373695
0001e0 20 be d1 3d a5 a4 75 bd d4 28 cf bd 94 de a8 bd
       0.102413416 -0.05997147 -0.10115209 -0.082455784
0001f0 73 52 60 3d b0 69 88 bc 82 a4 89 3c d6 33 57 bd
       0.05476613 -0.016651958 0.016802076 -0.05253967
000200 2a 7a 3f bc 72 fc da bd 99 13 eb 3c e7 90 bc bd
       -0.011686841 -0.10692681 0.028695868 -0.092073254
000210 97 46 81 3c 63 86 f6 3d b7 27 d8 bd 32 ef bc 3c
       0.01578073 0.12037351 -0.1055445 0.023063276
000220 d7 b9 c8 3d d8 b4 02 3e 96 78 f6 bd 68 fa 9c 3b
       0.09801071 0.12764299 -0.12034719 0.004790593
000230 a8 37 29 3d 16 39 8c 3d c2 b0 cc 3d 7f 2b e2 3c
       0.041312844 0.06846826 0.099946514 0.027608631
000240 ba f5 83 3e 74 9f d9 bd 23 8c 73 3d dc d7 3c be
       0.25773412 -0.106261164 0.059459817 -0.18441719
000250 7f 02 c1 bc c3 4a 7c 3e c1 7b ae bd 49 a8 f6 bd
       -0.02356076 0.24637894 -0.08519698 -0.120438166
000260 77 c4 94 bd e5 64 22 3e 6b 97 88 bd 1a f4 84 be
       -0.07264035 0.158588 -0.06669506 -0.25967485
000270 26 25 cb 3d 51 c4 ad bc 84 6e f0 bc d0 6d b5 3d
       0.09919195 -0.021211775 -0.029349573 0.08858836
000280 41 ce c2 bc dc e1 d4 bd 84 3f 37 be d4 c7 ca 3e
       -0.02377999 -0.10394642 -0.17895323 0.39605582
000290 fa dc 43 be b0 4c 26 be cd 7c ec bc 3a 3f 12 bd
       -0.19127265 -0.16240191 -0.028868103 -0.03570483
0002a0 89 d9 e2 bb 07 1f e5 3d be 36 bf 3e 19 4d d6 3d
       -0.006922905 0.111875586 0.37346452 0.10463924
0002b0 e5 e2 5b bd 60 d3 89 3d f9 cb ea 3d ec 80 cc bc
       -0.05368318 0.0672977 0.11464686 -0.024963818
0002c0 81 4d 0f be ac 75 8f 3d 11 e4 81 3d 3b f1 81 3d
       -0.13994409 0.07004866 0.06342328 0.06344839
0002d0 9c 4b f7 bd 2f c4 94 3e 9a aa 7e bd ee ce ba 3c
       -0.12074968 0.29055926 -0.062174417 0.02280375
0002e0 0c cd 30 3d 4f 25 80 bd 7e b3 8e 3e 95 ac 8a bb
       0.043164298 -0.06257116 0.27871317 -0.004231999
0002f0 39 17 e1 3b b4 48 87 3d 17 2e c0 3d b6 7a ac 3e
       0.0068692234 0.06605664 0.09383791 0.3368737
000300 98 08 18 3d d2 08 d8 3d bb 2f 5b 3e fe 9a 2c 3c
       0.03711757 0.10548557 0.21404926 0.010535
000310 aa ff 93 3e 35 9e 55 be 14 38 fa 3d 82 c0 0f be
       0.28905994 -0.20861132 0.12217727 -0.1403828
000320 e5 fb 04 3e 62 ba 59 bd e2 35 10 3d d5 fc 3f bc
       0.12986715 -0.053156264 0.035207637 -0.011717995
000330 ee 2a b4 3d 40 dc 49 bd 24 f0 f3 3c 62 6c 58 3d
       0.08797251 -0.049282312 0.029777594 0.052837737
000340 73 0f ed bc 15 c3 42 3e 84 6a 77 bd f6 0a 1e 3e
       -0.02893803 0.1901973 -0.060404316 0.15433869
000350 92 a1 fd bd a5 bf 02 3f a2 86 bd 3d de 18 82 bd
       -0.12384333 0.51073676 0.09254195 -0.06352399
000360 57 48 8a 3e ef 78 9f bd c9 dc 15 3e ee f3 39 3d
       0.27008316 -0.07786738 0.14635004 0.045398645
000370 ae 3e 00 3e 83 59 eb 3c 39 cc 6b ba 72 eb a5 bd
       0.1252391 0.028729206 -0.000899497 -0.08101548
000380 ad 7c 91 bd de d9 05 3e 0e f7 13 3d e0 6b e4 bd
       -0.07103858 0.13071391 0.03612428 -0.11153388
000390 8b 5d 94 bd b7 8d 52 be 32 1a fd 3d 98 29 2d 3d
       -0.072444044 -0.20561872 0.12358512 0.042275995
0003a0 ba 08 fb 3c 75 3a 54 3e 8a 8c 26 3d 83 bd ea 3d
       0.03064381 0.20725425 0.040661372 0.11461928
0003b0 19 a3 b8 3e 14 1f 01 be 12 db c1 3d 29 f0 82 3e
       0.36061934 -0.12609512 0.094656125 0.25573853
0003c0 75 e8 fc bb 3d b4 2f 3e ea e9 ce 3d 8a b9 aa 3d
       -0.0077181407 0.17158599 0.10103209 0.0833617
0003d0 9b 5a 65 3e b6 d8 42 3d ab 3a 2c 3d b4 02 87 3d
       0.22397844 0.047569953 0.042048138 0.065923125
0003e0 05 a4 1e 3e 1f 59 c2 be b5 31 cf bc af fe c0 bc
       0.15492256 -0.3795862 -0.025292257 -0.023558943
0003f0 36 d8 bd 3d 24 b5 bb 3c d1 11 e8 3d 9b e1 be 3b
       0.092697546 0.022913523 0.11331523 0.005825234

decoder.4.bias f4 [50]
000000 e9 30 00 be f8 0c 03 3e 73 a0 af 3e e5 5a 93 bd
       -0.12518658 0.12797916 0.343021 -0.07195071
000010 59 ac ba 3d 3d 92 f8 bd 4e d3 7b be 16 ca bf 3d
       0.09114904 -0.12137268 -0.24592325 0.09364717
000020 40 f1 1e be 2c 0c a7 3d 99 ed 00 be 8c 17 dc bd
       -0.15521717 0.081566185 -0.12590636 -0.10746679
000030 4a 72 13 be da 48 96 b9 c0 8d 7a 3d 25 d8 28 be
       -0.14399067 -0.00028664508 0.06117034 -0.16488703
000040 5d 8a bb bb a4 4b bb bb cf 17 93 3d e0 94 d4 bd
       -0.0057232813 -0.005715804 0.071822755 -0.10379958
000050 35 5b cd bd 31 cf ae 3b 4c 22 91 3e ed 84 f9 bc
       -0.10027162 0.0053347577 0.2834648 -0.030458892
000060 53 64 ce 3d f3 ad 9f bd 0f 32 4b bd a5 e8 7e bd
       0.10077729 -0.0779685 -0.049608286 -0.062233586
000070 80 2b eb bc 57 89 48 3e a8 dc 39 3d 12 79 02 3e
       -0.028707266 0.19583641 0.04537645 0.12741497
000080 25 90 23 3c a8 aa 06 bd 51 cd 65 3b 7d ab 5f 3d
       0.009983097 -0.032877594 0.0035065005 0.054606903
000090 8c fb 20 3e 6f d3 97 3d 64 9c 0a 3e 10 7c 4c bb
       0.15720958 0.07413375 0.13536221 -0.0031201877
0000a0 ea 6c f8 bc b4 bb e5 3c cd 0b 1d 3e 4c 18 84 3d
       -0.030325372 0.028043605 0.15336533 0.06449947
0000b0 3c 81 05 be eb ae 7c bd b8 76 86 3d 50 a8 9a bd
       -0.1303758 -0.061690252 0.065656126 -0.07551634
0000c0 ad e5 47 3e 6d cc e1 bb
       0.19521208 -0.0068908245
