RiskViz Folder/model/checkpoint_1150.tar (torch, 110796 bytes, 51 tensors)

encoder.1.weight f4 [50, 6]
000000 52 88 08 bf 73 ee 29 3c aa 13 d3 ba fc c7 61 3e
       -0.5333301 0.010371792 -0.0016103883 0.22048944
000010 87 ae ae be 15 64 fb 3d 54 72 c0 3b 61 0e 98 ba
       -0.3411753 0.122749485 0.005873004 -0.0011600965
000020 58 d9 42 bb e2 d2 26 40 eb b9 cf 3a b6 06 3a be
       -0.0029731598 2.6066213 0.0015848255 -0.18166623
000030 5a c6 4e be 34 cf 58 be 7f 0f 0e 3c d5 8c 94 bd
       -0.20192853 -0.21172792 0.008670687 -0.07253424
000040 4a 70 c1 3e 95 67 ad be e4 85 43 3e c1 f2 9d 3a
       0.37780982 -0.3386809 0.19094044 0.0012050496
000050 0e ea f2 ba 0a 9e f8 bd e6 79 0d 3c 83 f8 92 3f
       -0.0018532888 -0.121395186 0.00863502 1.148209
000060 3b 6b 40 bd 93 ef 35 be b5 73 c8 bb 5f 46 4d 3f
       -0.046977263 -0.17767172 -0.006117309 0.801855
000070 19 8b 77 3e a1 62 0b bf 71 fe 22 3f df 61 cd 3c
       0.24174155 -0.5444737 0.63669497 0.025071083
000080 6a a7 7a 37 3e 34 a6 3d 19 72 3e 3d 7e e4 85 3f
       1.494014e-05 0.08115433 0.04649553 1.0460355
000090 59 6f 9f bd 8c 44 67 be 49 b5 eb bd 30 0c 7b be
       -0.0778491 -0.22584742 -0.11509187 -0.24516368
0000a0 ce 54 54 3e 82 e8 50 be 30 c8 3f bf 1a 3f e7 3d
       0.20735475 -0.20401195 -0.74914837 0.112913325
0000b0 12 41 94 bc 3e 14 0f bd 09 a8 f7 bd 4d d5 62 bd
       -0.018097434 -0.034931414 -0.12092597 -0.0553792
0000c0 17 4c 2d 3f a3 0e d2 bb cc 26 71 bb 5a a8 63 3f
       0.6769423 -0.0064104362 -0.0036796806 0.8892876
0000d0 0c 73 26 3f 4e 22 3c 3d 00 29 a5 be 25 04 30 3c
       0.650193 0.045931153 -0.32257843 0.010743176
0000e0 b8 7b 42 be f4 cd 0e bb a4 99 4b 3e de db 37 3e
       -0.18992507 -0.0021790238 0.19882828 0.17954966
0000f0 5c 68 f4 be d8 a2 04 3c 7d 5a 85 3b 0d 80 77 bf
       -0.4773587 0.008095466 0.004069625 -0.96679765
000100 8b 9e 94 be 43 33 15 3e 82 8a 6e be 3d 93 36 be
       -0.2902721 0.14570336 -0.23295024 -0.17829604
000110 93 69 0c 3e f2 98 70 3e 19 71 bb 3b 14 9d 22 be
       0.13712148 0.23495844 0.0057202694 -0.15880233
000120 42 19 2a be e1 33 85 bc a5 99 24 bd 44 58 8b 3f
       -0.16611198 -0.01626009 -0.04018559 1.0886312
000130 06 1b cc bd cf 3c 22 3f f0 8c 04 bf 3a e5 3b ba
       -0.09966092 0.63374037 -0.51777554 -0.00071676413
000140 f6 2d 41 3b 28 6f 47 bf 4c 34 92 be ec 0a fc 3d
       0.0029476858 -0.77903986 -0.28555524 0.12306771
000150 d5 78 13 c0 cc 65 28 3b 4f e3 13 3c 4e 86 30 3e
       -2.30425 0.0025695441 0.009026363 0.17238733
000160 48 db ee be e4 be 03 3f d6 4d 2c bf 88 bb ec ba
       -0.46651673 0.5146315 -0.6730627 -0.001806126
000170 ad 30 19 ba 6f f2 ca bd 4e d9 dc be 07 8a c2 bd
       -0.000584374 -0.09909522 -0.4313454 -0.09498983
000180 8d 89 84 be 2d 44 8f 3e 91 0a 22 3e f1 50 a5 3e
       -0.25886193 0.27981701 0.15824343 0.32288316
000190 70 11 9b be ea a6 cc be 82 fc 7c bf e4 51 bb bb
       -0.3028674 -0.39971095 -0.98822796 -0.005716549
0001a0 00 bf 18 3b d9 ee 5c bf 70 e0 35 3f 1b 2c 11 3f
       0.0023307204 -0.8630195 0.7104559 0.56707925
0001b0 17 3e 0c bb 56 4d cc bb 1c 7c fb bb 73 90 20 40
       -0.0021399313 -0.006234805 -0.007674707 2.5088165
0001c0 bb 25 98 3b 8b e1 16 be db 84 af 3d 51 10 9d be
       0.0046431697 -0.14734475 0.08570262 -0.3067651
0001d0 92 ad 5f be 9a 7a 44 be 84 8c 6c be 63 42 94 3d
       -0.21843556 -0.19187394 -0.23100477 0.07239225
0001e0 0d 07 05 be 1a 8b 32 bb 9b e7 d0 3a 8c af 33 bf
       -0.12990971 -0.0027243556 0.0015938164 -0.7018974
0001f0 95 8d 41 3f ce a6 9a 3d 90 3c b5 be 00 96 87 be
       0.7560666 0.07551347 -0.35397768 -0.26481628
000200 41 3d 1d 3e 06 7d 1b 3e 11 40 81 be d4 f8 03 be
       0.15355398 0.15184411 -0.2524419 -0.12887889
000210 22 c4 29 c0 d4 fc c2 bb fe 73 82 3a 59 b9 ca be
       -2.652596 -0.0059505496 0.0009952781 -0.39594534
000220 87 b2 a5 be 53 63 5f 3e 97 0f a7 3e 60 eb b1 bd
       -0.32362768 0.21815233 0.32629082 -0.08687472
000230 ca 81 89 bd b1 33 12 3e b0 e0 73 3d 7f a7 09 be
       -0.067142084 0.14277531 0.05954045 -0.13442801
000240 7a cb 9b be b9 b3 35 be 23 29 90 3d bc 38 8f bd
       -0.30428678 -0.1774434 0.07039096 -0.06993243
000250 b1 54 09 3f cd 54 88 3c 19 b8 d7 bd f2 d4 c7 be
       0.53644854 0.016641999 -0.10533161 -0.39029652
000260 0b 21 bf be 5a ab 32 3e 7c bf a0 3e 1e bf f4 ba
       -0.37329897 0.17448178 0.3139609 -0.001867268
000270 29 25 28 c0 01 38 bc 3b b7 53 85 3b 6c c0 29 bf
       -2.627268 0.005743981 0.0040688175 -0.6630924
000280 df 8d 1a be 9a 35 0e 3e db 9f 19 c0 80 2e 02 3c
       -0.15093182 0.13887635 -2.4003818 0.007945657
000290 74 29 a7 3b c9 03 14 bf 33 57 02 be be 26 04 bf
       0.005101377 -0.57818276 -0.12728576 -0.51621616
0002a0 b0 40 50 3f 3a b8 b3 bb 7c 92 68 ba 12 bf 95 bf
       0.81348705 -0.005484608 -0.00088719255 -1.1698935
0002b0 3a 91 24 3f dc 86 63 3d eb dc 67 be f7 db d9 bc
       0.642841 0.055548534 -0.22642867 -0.026594145
0002c0 02 00 94 be bc 5b 9a bc fb cc 68 3e c4 e3 3b be
       -0.28906256 -0.01884257 0.22734444 -0.18348604
0002d0 06 e9 4e 3f ab ac 4a bc 76 39 1a ba 87 11 0a 3f
       0.80824316 -0.012370269 -0.0005883196 0.53932995
0002e0 1b 4a b5 be 20 32 92 be b5 0e 5b 3d f6 55 0e bc
       -0.354081 -0.28553867 0.053480823 -0.008687487
0002f0 d4 32 0b bb 00 b5 bd bd 17 47 16 3e 1f 03 ab 3f
       -0.0021240013 -0.09263039 0.14675556 1.3360327
000300 a6 41 a0 3e c4 3a cc be d2 40 2f 3d f8 09 a0 bc
       0.31300086 -0.39888585 0.042786427 -0.019536003
000310 23 36 e1 3d 35 10 cd bd 41 0a b6 3d f9 bf 74 be
       0.10996654 -0.10012857 0.088886745 -0.23901357
000320 64 f5 28 3e 9e b0 2b 3f 58 a2 f7 3a 0f 8c 74 be
       0.16499859 0.6706637 0.0018892987 -0.23881553
000330 0d 94 30 bf e8 da db bc ba 25 e2 ba c0 70 ee 3c
       -0.6897591 -0.026837781 -0.0017253675 0.029106498
000340 17 7c 8e bc 99 a7 92 3f fc 3d 3f 3b c9 8e 28 3b
       -0.017393155 1.1457397 0.0029181233 0.0025719872
000350 b3 1f 25 3a 2a 10 d0 3f 38 2d be 3e bf c5 f6 3b
       0.0006298974 1.6254933 0.37143874 0.0075308974
000360 25 c5 66 3e 3a 98 09 3e da 45 23 3d 28 70 f2 bd
       0.22536142 0.13436976 0.039861538 -0.11837798
000370 3a 5d 80 3d 69 a3 ef 3c b4 7a aa 3c 5b 20 b3 b9
       0.062677816 0.029252725 0.020810463 -0.00034165647
000380 2f ec da 3a 46 c2 3e bf e3 46 0f 3d d0 2c 3e 3f
       0.0016702468 -0.7451519 0.034979712 0.7428713
000390 7e 0e b5 3c 33 72 f9 bb 4b 8e 28 bb 60 39 5a be
       0.022101637 -0.0076124906 -0.002571958 -0.2131095
0003a0 8a aa 77 3e 2a 55 bf 3f 6e ce 90 3f b3 ff c2 ba
       0.24186149 1.4947865 1.1312997 -0.001487723
0003b0 86 3a 15 bb c0 82 be be 65 e9 f8 bd ac ca 1d bf
       -0.0022770478 -0.3720913 -0.121538915 -0.6163738
0003c0 f7 2e 2a c0 41 10 89 3b 11 9b 07 ba 11 2c 5a bf
       -2.6591165 0.004182846 -0.0005172948 -0.8522349
0003d0 1e a7 9f be 2f a9 72 3e b7 dc c8 ba 24 1e 80 bb
       -0.31182188 0.23697351 -0.0015324567 -0.003909843
0003e0 06 14 e8 bb 47 b5 1d 40 0d d1 c8 be c4 f0 4a be
       -0.007082465 2.4641893 -0.39221993 -0.19818407
0003f0 84 c2 1b bf ef eb 8b 3a 85 7b 80 3b f7 5b 38 3e
       -0.6084368 0.0010675172 0.0039209747 0.18003832

encoder.1.bias f4 [50]
000000 15 67 80 3e 1c 7d 35 bb 0f 0f be bc 48 48 1d be
       0.25078645 -0.002769298 -0.02320054 -0.15359604
000010 a8 73 b6 bd de ec 02 bf d5 73 09 be 59 91 0c bd
       -0.089087784 -0.5114268 -0.13423093 -0.0343183
000020 d6 47 b0 be 56 9a aa be 14 1f 44 3e 59 50 c9 be
       -0.34429806 -0.33320874 0.1915248 -0.39319113
000030 87 62 6e bf 8a aa 69 3e 6c 26 96 3c dc a0 ad 3e
       -0.9311909 0.22818962 0.018328868 0.33911788
000040 2c 8f b8 be 6d f4 ad 3c 4b 2a fb 3a 76 1f 89 be
       -0.3604673 0.021234715 0.0019162385 -0.26781815
000050 2e f6 84 3d a8 c7 12 be 02 2f 96 3c 09 ad bd be
       0.064922675 -0.14333975 0.018332962 -0.37046078
000060 70 53 3f bd 01 8b 9c be 7c 38 9f 3c 49 3e ce 3c
       -0.04671043 -0.30574802 0.019436114 0.025176184
000070 cf 19 d3 be 34 ca 77 be 3b e7 de be 66 3a 6f be
       -0.41230628 -0.24198228 -0.4353579 -0.23362121
000080 ea a3 d6 be b9 4b b2 be 32 3a e7 b9 7b 42 95 bb
       -0.41921932 -0.34823397 -0.00044103112 -0.004555044
000090 21 46 b3 be c0 e4 b8 bc cd ff b6 be a8 7f 33 bf
       -0.35014442 -0.022570014 -0.35742036 -0.7011666
0000a0 b1 f9 95 3c af ac 1f 3a d6 1b 13 3c 62 e0 ee be
       0.018307539 0.00060911005 0.008978805 -0.46655566
0000b0 13 62 31 bf ba 99 7b 3b 2a 2e ef bb 23 bd 55 3c
       -0.69290274 0.0038391189 -0.0072992044 0.013045582
0000c0 0d 9f 8f be 02 77 3e 3a
       -0.28051034 0.00072656584

encoder.4.weight f4 [50, 50]
000000 fd 24 4b 3d d2 83 c0 be 75 f1 0a be f8 0c b4 bd
       0.04959582 -0.3760057 -0.13568671 -0.08791536
000010 63 76 76 be a8 67 e4 3d 9e 8b 93 bc 20 2b 59 3d
       -0.24068598 0.11152583 -0.01801091 0.053019643
000020 21 37 8d 3d ff 9c b5 3d e6 61 28 3e 3c 26 ae 3b
       0.06895281 0.08867835 0.16443595 0.0053146165
000030 5a 6b c4 bd 4d ba 66 bb 84 aa 6c 3e 43 30 1f bd
       -0.09590788 -0.0035206259 0.23111922 -0.038864385
000040 ff 72 0f be d7 29 c3 3b 8d 9b c1 be af 92 ca bd
       -0.14008711 0.0059559154 -0.37813988 -0.09891259
000050 16 40 e7 bc 79 f3 04 3d 20 80 80 3e f8 5d cf bc
       -0.0282288 0.032458756 0.25097752 -0.025313362
000060 38 4e bd 3b 96 f3 0d bd 6e 56 06 3e 3a 4d 9a 3e
       0.0057771467 -0.03465613 0.13118908 0.30137044
000070 f2 57 29 3d 94 66 ce 3d a2 67 05 3e 18 fe e6 bd
       0.041343637 0.10078159 0.13027814 -0.11278933
000080 1e d3 19 3d 41 0e 89 3d ae 6a bd 3d d7 57 98 be
       0.037554853 0.06692172 0.09248863 -0.29754516
000090 dc 56 3e ba 8a ca c0 bd 06 b7 7c b9 20 2f 82 3e
       -0.0007260868 -0.09413631 -0.00024100774 0.2542658
0000a0 be 80 82 3e 2e c0 ab be 33 14 1c bd f1 fe 91 bd
       0.25488847 -0.3354506 -0.0381052 -0.07128704
0000b0 a7 de ec 3e ff 5b 81 bc 48 e9 96 be 11 cd 09 bc
       0.4626362 -0.015790937 -0.29474854 -0.008410708
0000c0 81 8c 82 3d 57 d4 ea bd be 0c 90 bc 27 a8 5b bc
       0.06374455 -0.11466282 -0.017584201 -0.01340679
0000d0 39 87 45 3d 1f af e3 bd 22 d9 b1 bc 30 ef 4b 3e
       0.04822466 -0.11117386 -0.021709982 0.19915462
0000e0 77 8e 93 bd ce 91 0a 3a 0a ee 6f bd ac 15 99 3d
       -0.072049074 0.0005286009 -0.05857662 0.07474837
0000f0 ab aa 79 bd ba 98 d9 bd af 97 e8 bd 22 4e 83 3e
       -0.060953777 -0.106248334 -0.11357056 0.25645548
000100 45 c5 f1 3d 2f 6e 00 bd 7a 99 08 be e1 cc 96 3c
       0.11805204 -0.03135508 -0.13339797 0.01840824
000110 94 f9 5b bb a1 ed 85 3c e4 56 17 bc fc cd fd bc
       -0.0033565508 0.016348662 -0.009237025 -0.03098201
000120 f6 2d 7d 3e e5 56 53 3d f2 5d f0 3c a2 a5 9c bd
       0.24724564 0.05159654 0.029341672 -0.076487795
000130 c1 9d c0 3e 94 c7 bf 3e 3f bd ce bc 0b 3d 06 3e
       0.37620357 0.37456954 -0.025236724 0.13109224
000140 d6 13 bc bd 47 e5 17 be e2 a7 dd 3c 90 8d 0d 3d
       -0.09183471 -0.14833556 0.027057592 0.034558833
000150 58 7d 1f 3e a6 f9 b8 bd 43 32 c3 3d 79 43 c4 bb
       0.15575159 -0.09031992 0.09531071 -0.0059894887
000160 ae 64 17 be 95 0b b5 3e 7e d5 97 3e 72 5e 38 bc
       -0.147845 0.353604 0.2965507 -0.011252986
000170 bb 92 d2 bd 87 c5 c3 bd 7b e8 73 3e 29 d7 0c 3e
       -0.10281893 -0.0955916 0.23819153 0.13753952
000180 ee de fa bd c7 53 b8 bd dd 21 1a bd a5 77 29 3d
       -0.12249552 -0.09000354 -0.03762995 0.041373868
000190 b9 63 f8 3c e9 ca dc be 7c 73 b5 3d f8 9e b0 3d
       0.030320989 -0.43123558 0.088599175 0.08624071
0001a0 b2 4d 13 bd 7d 24 e8 3b e2 41 30 bd 50 46 b7 3b
       -0.035962768 0.007084428 -0.04303158 0.0055930987
0001b0 05 f2 44 be 72 ed 0f 3e f4 3b 33 3d d7 a6 09 3e
       -0.19232948 0.14055422 0.043758348 0.1344255
0001c0 c7 40 02 3e ab ca 84 3d 6b db 78 be da ba d4 3c
       0.12720023 0.06483968 -0.24302451 0.025968004
0001d0 2c 0b 5b bd 11 28 2c bd 4b 28 aa be 85 4c a1 3d
       -0.05347745 -0.042030398 -0.33233866 0.07875923
0001e0 19 3c 70 3e 9c f3 e0 bd 45 33 75 be 87 56 2c 3d
       0.23460425 -0.10983965 -0.23945339 0.042074706
0001f0 e0 67 44 bc 09 4d 85 3d 76 26 04 3d 89 78 52 bd
       -0.011987656 0.06508834 0.03226324 -0.051384483
000200 0a fd 58 be c6 7a 27 bd c8 9e 98 be 64 57 d0 3d
       -0.21190277 -0.04088857 -0.2980864 0.101729184
000210 a3 cb c8 3d 7d 8c 09 be c7 78 48 3d a6 5b 69 bd
       0.098044656 -0.13432498 0.048943307 -0.05697217
000220 ca 6a dd 3d 79 11 aa 3d 3d d7 45 3d 36 ea 7c be
       0.10811384 0.08304114 0.04830097 -0.2469872
000230 c8 d6 3a bd 39 66 46 be 2f 18 ed bd 12 a7 c7 bb
       -0.045614988 -0.19374932 -0.11576878 -0.0060929144
000240 96 4e 29 be ee 54 d3 3d 46 7b 09 3b 0b c8 d3 bd
       -0.16533884 0.103189334 0.0020978018 -0.103408895
000250 bb 81 d1 bd bb b8 35 be 27 f6 84 be 53 62 6e be
       -0.10229822 -0.1774625 -0.2596905 -0.23279695
000260 73 cd a2 bc cb e2 93 bd 23 42 83 bd 73 da 61 3e
       -0.019873356 -0.07220992 -0.06409099 0.22055988
000270 1a c3 ff 3d 28 3f 68 3d 3a 3d 81 3d 89 6a e9 bd
       0.124883845 0.056700855 0.06310506 -0.11397273
000280 a5 ad ba bd b6 16 f6 bd f3 50 d2 3d c3 37 60 be
       -0.09115151 -0.120160505 0.10269346 -0.21896271
000290 8a d6 c0 3c 1a e0 55 be c9 48 c8 bd 39 b7 90 be
       0.0235398 -0.20886269 -0.09779508 -0.28264788
0002a0 e3 03 67 be 0e 69 84 bd 84 59 ad be 8a e0 cc 3d
       -0.22560076 -0.0646535 -0.33857358 0.10003765
0002b0 eb df 8a bd 04 ad 89 bc 8a af 2d bd ec 8e 70 3d
       -0.0678099 -0.016806133 -0.042403735 0.05873005
0002c0 77 96 7f bd db eb 8c bc 10 25 27 3d 13 dd c7 3d
       -0.062399354 -0.017202308 0.04080683 0.097589634
0002d0 00 79 0c 3e 79 46 ea bd 3c ae 11 bd 2e 43 e5 bd
       0.13718033 -0.11439223 -0.035566553 -0.11194454
0002e0 8a 88 6d 3d 47 88 78 be 06 1a b0 3c f8 50 9f be
       0.057991542 -0.24270736 0.021496784 -0.31116462
0002f0 c4 47 3e ba b8 e2 97 3e 1f 63 be bd 77 62 62 be
       -0.0007258619 0.2966516 -0.092962496 -0.22107874
000300 6f c1 3e be 31 2b 06 3e 86 6a da 3e f0 f8 7a bd
       -0.18628477 0.13102414 0.42659396 -0.06127256
000310 d1 4c 9b be 61 6f 7a 3d e5 50 ce 3d ca 4f f6 bd
       -0.30332044 0.061141375 0.10074023 -0.12026937
000320 a0 e6 68 3d c6 f7 36 be 20 26 ce bb 2b 05 f3 3e
       0.056860566 -0.17867956 -0.006291166 0.4746488
000330 7d 1d fe bd c1 9f b4 3e ae 32 94 bd 27 66 14 3e
       -0.12407968 0.35278133 -0.07236229 0.14492093
000340 5f 5c 55 bc 6d e5 c0 bd 79 4b 31 bd da 4e e4 3d
       -0.013022511 -0.094187595 -0.043284867 0.11147852
000350 1a 90 ef bc 6d 70 cc bc e1 da f3 3c 00 65 6b bc
       -0.029243518 -0.024955953 0.029767456 -0.014367342
000360 e7 d8 f1 bd 9d 11 7b 3c 56 fc 6f be 86 e2 09 3d
       -0.11808949 0.015324024 -0.23436102 0.033663295
000370 0a 20 69 ba 21 77 2e bd b5 1e 71 bd 98 e6 aa 3d
       -0.0008893019 -0.04259408 -0.058867175 0.083447635
000380 cb c8 1c 3d a1 54 87 3d 89 0a c0 3d b4 e8 bf 3d
       0.03827743 0.066079386 0.093770094 0.093705565
000390 d1 97 04 bc 83 ac 67 3d ae af 26 bd b0 fc e1 3e
       -0.0080928365 0.056561004 -0.040694885 0.44138098
0003a0 da 9c 5d bd 54 8b d0 3d c2 b7 aa 3e ee 88 37 3d
       -0.054104663 0.10182825 0.3334332 0.04480832
0003b0 1c 8d 09 be 15 2b 7b bd 58 c0 dc 3e 65 35 49 3e
       -0.13432735 -0.061320383 0.43115497 0.19649275
0003c0 99 0d 2d bc e6 3f 82 be e2 51 30 bb 9d 1e c0 3d
       -0.010562324 -0.25439376 -0.0026904275 0.09380839
0003d0 81 b3 a4 bd 4c 5c 4e 3d 4c 48 d7 3b b0 df e0 bd
       -0.0804205 0.05038099 0.0065698978 -0.10980165
0003e0 0b 08 98 bd f7 fb 17 3e 44 3b f0 bc 49 5b 4b bd
       -0.07423409 0.1484221 -0.029325135 -0.049647603
0003f0 d0 58 37 3b 05 68 71 3e 2d a9 c6 3c c6 e6 8b 3e
       0.002797652 0.23574837 0.024250591 0.27324504

encoder.4.bias f4 [50]
000000 8e 78 e6 ba d2 3f 4b bc 6b 3c af 3b 99 27 f3 3b
       -0.0017583536 -0.012405353 0.0053477786 0.007420492
000010 d0 05 93 ba 5c f9 0b 3a f9 69 35 bf 6e 30 1c bb
       -0.0011216942 0.00053395866 -0.70864826 -0.0023832577
000020 b6 99 b5 be a5 ed 8d bc 9e 52 ae bb 9c 56 52 3c
       -0.35468835 -0.017325232 -0.0053199073 0.012838032
000030 93 f0 07 bb f5 41 b6 39 26 ed a6 be a9 c7 fc bc
       -0.0020742759 0.00034762887 -0.32602805 -0.030856924
000040 88 7f 90 3b 28 b4 5f bb c6 8a 94 bc 81 40 29 bf
       0.004409734 -0.003413448 -0.018132579 -0.6611405
000050 5f 26 f6 bd ae 3f c6 bb 3d 4f 8c be 1e 92 9d b9
       -0.120190375 -0.0060500717 -0.27404204 -0.0003005424
000060 77 92 94 ba f5 33 3d bb 7c 3b 34 bb ea cd a9 bb
       -0.0011335154 -0.002887008 -0.0027501276 -0.0051820176
000070 80 14 00 3c 8e d0 b4 bb 5a 2d 1b bb 4c d6 c3 bc
       0.007817388 -0.0055180257 -0.0023678155 -0.023905896
000080 b4 5d 09 3c 50 8f 1b be 73 d5 93 be 47 0d 3d be
       0.008384157 -0.15191388 -0.28873786 -0.18462096
000090 34 1f b6 be 12 15 43 bd 7b 36 27 bf 9a 29 77 bb
       -0.3557068 -0.047627516 -0.65317506 -0.0037714005
0000a0 dd c3 b6 3b 3b b1 45 be ea 30 6e bc 36 28 11 be
       0.005577548 -0.1930589 -0.014538029 -0.14175496
0000b0 37 3b 37 be 39 69 f0 3b 07 6c d0 be 43 37 ab bc
       -0.17893682 0.0073367623 -0.40707418 -0.020900374
0000c0 c9 cd 93 ba 0e 08 32 3c
       -0.0011276539 0.010866178

encoder.7.weight f4 [20, 50]
000000 57 c0 2f 3e 68 fe 50 3e 31 f8 9f 3c d2 47 9f be
       0.17163216 0.20409548 0.019527527 -0.31109482
000010 2c c6 14 3d 95 f0 30 3d 3a ca a1 bd cf 63 58 3f
       0.036321804 0.043198187 -0.078999 0.84527296
000020 10 20 6c bd 19 51 ec 3e fa f8 43 3d b9 6b a5 be
       -0.057647765 0.46155623 0.047844864 -0.32308748
000030 54 31 d3 be f8 21 65 be 4d 47 05 be f3 ee b8 3e
       -0.41248572 -0.2237624 -0.1301548 0.36119804
000040 85 db ba 3c 2e 6c 12 3f 8c 36 75 be 25 0f 3e bd
       0.022809753 0.5719632 -0.23946589 -0.04640116
000050 49 c7 98 bd fa e3 e8 3e 8c d9 1b be 85 75 2a 3f
       -0.074598856 0.45486432 -0.15219706 0.6658557
000060 2b 5c 8d bd 42 20 3a 3f 6c aa 0c 3f 02 39 3d 3f
       -0.06902345 0.7270547 0.54947543 0.7391511
000070 11 09 82 be 7a 4c 49 3c bc 39 8f be 6c 4f 0b 3f
       -0.25397542 0.0122863 -0.27973735 0.54418063
000080 cc 8b 07 be 74 cb 1e bc 3e 8c b6 bd f0 44 63 bd
       -0.13236922 -0.009692062 -0.08913468 -0.055485666
000090 1c 6f 5d bd 0f c3 7a 3c 4a 64 c7 3d e9 52 9b be
       -0.05406104 0.015305295 0.097359255 -0.30336693
0000a0 34 a6 4b be ee 41 c3 bd a3 bf 0d 3e 51 f1 48 3e
       -0.1988762 -0.095340595 0.13842635 0.19623305
0000b0 8d 49 04 3e f8 d0 b1 be 0d 8a ba bd 89 4f 0a 3e
       0.12918682 -0.34729743 -0.09108362 0.13506903
0000c0 53 d6 b1 be 04 da a8 be 33 a3 5f 3b a7 39 cb 3c
       -0.3473383 -0.32978833 0.0034124374 0.024807764
0000d0 53 37 8a bc 9f d7 71 3c d7 76 90 3e dc 16 b2 3e
       -0.016872084 0.014760881 0.28215668 0.34783065
0000e0 1d 91 3a 3b 60 f3 80 3e 65 94 80 3e 40 e9 b0 3e
       0.0028467842 0.2518568 0.25113216 0.34552956
0000f0 c3 d4 af 3e 06 20 aa 3b 75 d3 ac bb 48 79 94 bc
       0.34342012 0.005191806 -0.005274231 -0.018124238
000100 6e ad 89 3e 77 b7 2f 3d 46 d8 e8 bc c1 4f 94 3e
       0.2689013 0.042899575 -0.02842344 0.28967097
000110 43 e3 12 bb 97 15 0f 3e 19 38 bc 3d ee 99 e8 3d
       -0.002241329 0.1397308 0.09190387 0.11357485
000120 ba d6 1e bc 64 cd a0 3e c6 c4 19 3d 94 43 a8 3d
       -0.0096947495 0.314067 0.037541173 0.082160145
000130 b2 3d 78 3e a4 d3 1a 3e 60 c8 11 3c 2f 32 cc 3e
       0.24242285 0.15119797 0.008897871 0.39882037
000140 9d 49 eb ba 70 2c ed 3c a1 1d 18 3c 4f d5 56 bd
       -0.0017951016 0.028951854 0.009284408 -0.05244952
000150 31 f6 98 3e 23 83 3c bd b5 2a 75 3e 8c 60 e4 3b
       0.2987533 -0.0460235 0.23942073 0.006969517
000160 f7 37 2d 3e 1e 75 83 3b e6 3f 81 3c 07 c1 00 3e
       0.1691588 0.004011764 0.01577754 0.12573634
000170 a9 66 a0 3b 45 af b3 3e 83 ed 09 bd 6c ec ca 3b
       0.0048950505 0.35094658 -0.033673774 0.0061927345
000180 ac ef 8f 3e 52 96 e2 3c e9 20 77 bb 90 fe e4 3b
       0.28112543 0.027659569 -0.0037708825 0.006988354
000190 32 36 07 3f 2e 38 89 3e aa 75 c5 be be b4 b8 3e
       0.5281707 0.26800674 -0.38566333 0.36075395
0001a0 0f 97 1c be f5 24 95 be 3e 08 7b be 5c 0c b8 bd
       -0.15292 -0.29129758 -0.24514863 -0.08986732
0001b0 39 07 47 be 70 5d 89 be 2e fa c6 be 62 a7 98 3a
       -0.19436349 -0.268291 -0.38862747 0.0011646564
0001c0 f1 8d 98 3b 00 f5 b3 bd 95 a1 91 3c df bc 6d be
       0.0046555926 -0.087869644 0.017777244 -0.2321658
0001d0 fc 10 97 be 9f d8 2d be f7 64 59 3d 28 94 27 be
       -0.29505146 -0.16977166 0.053074803 -0.16365111
0001e0 99 25 95 be ab d3 b3 bd 3b b9 11 bf 5f 9b 29 be
       -0.29130247 -0.08780607 -0.56923264 -0.16563176
0001f0 43 2b bd bd ec 3a 68 bd ef 37 08 bd 03 7d 2d be
       -0.09236767 -0.056696817 -0.033256467 -0.1694222
000200 12 1d b4 3e a7 09 1e be 36 e8 40 3c 4d 9c 00 be
       0.3517843 -0.1543337 0.011774113 -0.12559624
000210 08 e9 11 3e 04 27 e5 3d b5 e1 77 be 2b e5 a9 3c
       0.1424905 0.11189082 -0.24207194 0.020739159
000220 17 0c b1 be 1b 7f b8 3d 18 be 59 be a5 3a 64 3c
       -0.34579536 0.090086184 -0.21263921 0.013929998
000230 83 00 dd 3e 38 d0 31 3d 65 3f 9b be 4e f6 f8 be
       0.43164453 0.043411463 -0.30321804 -0.48625416
000240 51 37 02 3e 52 32 fb 3d d0 f4 cd 3a c4 9e 0a 3f
       0.12716414 0.12265457 0.0015713219 0.5414851
000250 ea b4 c5 3b 82 b2 8c 3e b5 75 9f 3c 06 77 aa 3d
       0.0060335295 0.2747994 0.019465307 0.08323483
000260 a8 c6 fa bd 3c 8d 0f 3c d2 e0 f6 3a 8b f9 90 bc
       -0.12244922 0.0087617 0.0018835312 -0.017697116
000270 2e 7d 8a bd 5c 39 22 3e 4b b2 27 be d0 45 05 3f
       -0.067621574 0.15842193 -0.16376607 0.5205965
000280 c3 a7 d9 3c d8 f3 df b9 e2 36 67 3e ec 31 91 3e
       0.026569253 -0.00042715552 0.2257953 0.283584
000290 8c c3 1f 3d 5e da 66 bd de 9a a1 bd 24 73 4c 3e
       0.039004847 -0.056360595 -0.07890867 0.19965798
0002a0 09 97 a3 3e 9d d9 56 be 0f 2a 89 3b 88 29 5b 3e
       0.31951168 -0.2098145 0.004185922 0.21402562
0002b0 e8 cd a3 3e a0 4d 5e 3e f8 6a 51 3e fa 02 8e 3e
       0.31993032 0.21709299 0.20450962 0.27736646
0002c0 21 5d b1 3e 7d 69 69 3e cf 68 95 3b fa a1 0e 3c
       0.34641364 0.22794147 0.0045596133 0.00870561
0002d0 6c 8c af 3e 2c fb 2b 3d 9f 01 31 3c 93 5a ed 3c
       0.3428682 0.041987583 0.010803609 0.028973853
0002e0 bb 1f a7 3e 04 5b 8c bd 20 6b 44 bd 42 d7 e9 3e
       0.32641396 -0.06853297 -0.047953725 0.4567204
0002f0 6a 61 88 bd 02 a7 1c 3e fe 3d 00 3c de 00 4b bd
       -0.06659205 0.15298083 0.00782728 -0.049561374
000300 b2 44 dd 3c 4f 83 e2 3e 2b e4 06 3e e6 ec 4d 3c
       0.027010296 0.44240806 0.13172977 0.012568688
000310 7a 9c b7 bd 94 ea d6 3c 51 9e 0a 3e 0e 62 0c 3c
       -0.089653924 0.026234902 0.13536955 0.0085683
000320 fd 41 9f be f3 53 04 3d bc f8 fa bd c6 9f 8f be
       -0.31105033 0.032306623 -0.122544736 -0.28051585
000330 b7 34 0e bc e3 99 d0 bd b6 d4 0b be 0c 58 69 bd
       -0.00867956 -0.101856016 -0.13655362 -0.056968734
000340 07 ae 7f be ed 53 5b 3d a2 74 ca 3c 4a 9c 3e bc
       -0.2496873 0.053546835 0.024713818 -0.011633942
000350 1e c1 85 3e 36 62 a9 3e e1 6d 6b 3b 90 b7 44 be
       0.261239 0.33082741 0.0035923647 -0.19210649
000360 58 22 08 be 36 68 cf bc 0f 39 4e 3e 94 88 69 be
       -0.13294351 -0.025318246 0.20138954 -0.22806007
000370 ed e0 d9 bb 1b 60 34 be 1f 22 d2 3e 14 25 80 bc
       -0.0066491277 -0.17614786 0.41041657 -0.01564268
000380 f7 e0 cb 3e 2a b0 22 bd e6 c2 c7 bc 47 87 45 3b
       0.39820072 -0.039718784 -0.024384927 0.0030140446
000390 ba db e2 bd 30 eb d9 3c 1d f9 4d 3e b0 98 f6 bd
       -0.11077066 0.026601404 0.2011456 -0.120408416
0003a0 f2 45 a7 bd 22 2a 66 bd 2d a3 9d 3d 78 63 11 bd
       -0.08167638 -0.056192525 0.07697139 -0.03549525
0003b0 f7 86 c8 bd 05 72 be 3e 8c b0 76 bd 90 d2 83 3e
       -0.097913675 0.37196365 -0.060226962 0.25746584
0003c0 fe 0c 3d be 78 0f 06 3e e6 ad 5c 3e 55 da 74 3e
       -0.18461987 0.13091838 0.21550712 0.23911412
0003d0 5b 52 67 3d 84 01 03 be c0 b8 52 3d f5 61 8d be
       0.056475025 -0.12793547 0.051445723 -0.27613798
0003e0 cf 30 97 3e af 05 36 be fc ae 94 be 81 73 9c be
       0.29529426 -0.17775606 -0.29039752 -0.30556872
0003f0 60 78 13 3e 34 98 92 be 5f fd e8 3e 9b 80 a6 3e
       0.14401388 -0.28631747 0.45505807 0.32519993

encoder.7.bias f4 [20]
000000 1e 6f 88 3b 4c b9 3b bb 68 72 fd bb 49 f7 6e ba
       0.004163637 -0.002864438 -0.0077345856 -0.0009115828
000010 c0 7c 5b ba 44 c1 0d 3c 4b 56 aa be dd 39 9f bf
       -0.0008372776 0.008652035 -0.3326896 -1.2439533
000020 ca a3 e4 3b ba ca 0d bc db 6f 54 be 94 03 6a 3a
       0.006977533 -0.008654291 -0.20745794 0.0008926925
000030 12 97 db be ae 0f 33 3a 77 1e ae ba e2 9a 30 3b
       -0.42888695 0.00068306446 -0.0013284226 0.0026947786
000040 35 46 d2 ba de a9 fe 3a 66 52 4b bb 1c 9b 09 bf
       -0.0016042652 0.0019429286 -0.0031024455 -0.53752303

encoder.10.weight f4 [4, 20]
000000 3f 97 62 3f 48 2c 52 3e ac ae 4f bf 34 af 93 be
       0.88512033 0.20524704 -0.81125903 -0.28844607
000010 87 6e f2 be ca 45 bc 3e d5 08 3d 3f c4 52 b1 3f
       -0.4734995 0.36771995 0.738416 1.3853383
000020 19 ce 47 3f 0f 95 14 bf 02 25 36 be 5d c0 a3 3e
       0.78048855 -0.58039945 -0.17787555 0.319827
000030 3c 80 d1 3e 36 79 85 3f 1b 1d f7 be c9 88 87 3f
       0.40918148 1.0427616 -0.48264393 1.0588619
000040 c6 96 80 be 00 cd 9b be d6 49 ca be 28 ad 7b 3f
       -0.2511503 -0.3042984 -0.39509457 0.9831109
000050 f3 f0 f3 be ea f2 41 bf 9e 77 2c bf ef 76 4b 3d
       -0.47644767 -0.7576128 -0.6737002 0.04967397
000060 d7 db 48 3f 75 e1 07 bf ec f2 cf bd 62 ff 12 3f
       0.7846045 -0.53078395 -0.101537555 0.57420933
000070 2e 43 d4 be a7 4a 00 bf f3 f6 e1 bd 2f 5f 14 bf
       -0.41457504 -0.5011391 -0.1103343 -0.5795774
000080 dc db e0 bd 0e b4 00 bf 1b 6f 4d 3f 4b 94 05 bf
       -0.10979435 -0.5027474 0.8024766 -0.521794
000090 ae 19 f8 bd 33 69 9e 3e ab 82 13 3f 91 08 6c bb
       -0.12114273 0.30939636 0.5762126 -0.0036015848
0000a0 01 eb 58 bf 26 6f 14 3e c7 28 05 3f 4d 42 99 bd
       -0.8473359 0.14495525 0.52015346 -0.07483349
0000b0 c6 ce 1f 3f 92 e1 22 3f 64 d0 7b 3e 7a 83 09 bd
       0.62424886 0.63625443 0.24591213 -0.03357265
0000c0 17 cb 45 bf 41 05 de 3e b2 5d 43 be 9e 0d 04 3f
       -0.77263016 0.43363383 -0.1907871 0.5158328
0000d0 95 50 d9 3e a1 4d 7a bf 4e 03 27 3f 56 e7 7d bf
       0.42444292 -0.977747 0.6523942 -0.99181116
0000e0 39 f8 1b be 0a 2c 43 3e cb 1a df 3e b3 8d 27 bd
       -0.15231408 0.19059768 0.4357513 -0.04090662
0000f0 39 52 19 3f 3a 93 74 be 07 c5 0e 3f 7c 99 06 bf
       0.59891087 -0.23884287 0.5576939 -0.5257795
000100 ea 80 df be cc 28 c0 3c 81 73 3d be e4 7b f6 be
       -0.4365304 0.023456953 -0.18501092 -0.48141396
000110 af 29 00 3f e5 7d c2 3e 38 18 14 be fd 93 41 bd
       0.50063604 0.37986675 -0.14462364 -0.047260273
000120 d6 f7 c2 be 19 2a 3b 3f b0 db e5 be 79 51 3d 3f
       -0.3807971 0.7311111 -0.4489417 0.7395244
000130 2b 67 03 bf cb 14 ce be 8e 83 d8 be ae c4 97 be
       -0.51329297 -0.4025024 -0.42287868 -0.29642242

encoder.10.bias f4 [4]
000000 a6 3e 8c be db f0 92 be 13 e1 9c 3e 0e c8 a6 3e
       -0.27391547 -0.28699383 0.30640468 0.32574505

decoder.0.weight f4 [20, 4]
000000 6c ce 67 be c0 03 1c 3f 0f 98 4f 3f 43 66 d8 3f
       -0.22637337 0.6094322 0.810914 1.6906208
000010 a7 65 17 3f 40 a2 ab be f0 2a 28 bf ca 89 1f 3f
       0.59139484 -0.33522224 -0.6569052 0.62319624
000020 8e 22 a6 be 27 5d ba 3a aa 91 6d 3f 45 1d f9 3e
       -0.32448238 0.0014218435 0.9280039 0.48655143
000030 13 a7 48 bd dc 02 85 bf e7 fd 6f bf db 88 4b 3f
       -0.04898746 -1.0391498 -0.937468 0.795057
000040 ba 2a 4e 3d 17 21 b2 3e 3f 78 0f 3f d5 88 67 3f
       0.050333716 0.3479087 0.56042856 0.90443164
000050 2c b7 2b 3f 08 30 1b bf 46 33 bf 3e 3a ee 7a bf
       0.67076373 -0.60620165 0.37343806 -0.98019755
000060 5a 02 b2 3f 8d d6 f4 bd a0 3b 1b 3f 1f 84 4d bf
       1.3906968 -0.11954985 0.60637856 -0.80279726
000070 74 d8 e8 3e 7a da e2 be 25 e4 0e bf 24 44 00 bf
       0.4547764 -0.4430731 -0.5581687 -0.50103974
000080 00 a0 2e be d9 c1 40 3f 5c 35 d5 be d1 fe 20 bf
       -0.17053223 0.7529579 -0.41642272 -0.6288882
000090 98 79 82 3e 04 58 1a 3f a0 d8 68 3e 20 8b 00 bf
       0.25483394 0.6029055 0.22738886 -0.5021229
0000a0 3e c9 25 be d9 d5 84 3e e8 bf c4 3e eb b9 47 be
       -0.16190049 0.25944403 0.38427663 -0.19504516
0000b0 e8 e9 de bf ce d7 4d 3f 51 f6 51 bf 34 4d 50 3f
       -1.7415133 0.80407417 -0.82016474 0.813678
0000c0 76 91 23 3d 94 f2 85 bf 58 96 04 bf e0 c0 d0 3e
       0.039933644 -1.0464654 -0.51791906 0.40772152
0000d0 da ed 00 3f 3c 9f dd 3e 91 2f e7 3d 61 dd 8b 3c
       0.5036293 0.4328555 0.112883694 0.017073335
0000e0 6a fd 06 3c ee 02 b9 be 01 86 e0 be 5b 83 38 be
       0.00823913 -0.36135048 -0.43852237 -0.18018858
0000f0 f1 4a fa 3e 3c 1b 0f bf eb f4 20 3f 83 f9 15 bf
       0.488853 -0.5590093 0.62873715 -0.5858385
000100 9c 73 90 bf f7 55 83 be 13 20 84 3e f4 64 0a bf
       -1.1285281 -0.25651523 0.2580572 -0.5406029
000110 ae ee 96 bf 58 74 bc be 2a ee 25 3f a5 8d 30 bd
       -1.1791589 -0.36807513 0.64816535 -0.043103833
000120 73 bc 0a bf 3d 77 33 3f 0a d0 5d b9 d4 51 b8 bd
       -0.541938 0.7010382 -0.00021153703 -0.089999825
000130 3b e8 85 3e ba 18 b8 be d8 44 32 bd a3 f5 b8 be
       0.2615374 -0.35956365 -0.043522686 -0.36124906

decoder.0.bias f4 [20]
000000 e4 1a 36 bf 6c 36 f3 3d c1 ae a7 be 16 53 79 3d
       -0.7113478 0.118756145 -0.32750514 0.060870253
000010 3d 02 68 be ac dc 41 3e c8 44 f6 3d 57 41 9f 3e
       -0.22657104 0.18931836 0.12024838 0.31104538
000020 f1 6a dc bd 62 94 fa 3e 26 2b 33 3e aa 5f 47 be
       -0.10762585 0.48941332 0.17496929 -0.19470087
000030 6d 92 9a bd dd da d3 be f6 21 f3 be 2c 6a 39 bd
       -0.0754746 -0.41377917 -0.47486848 -0.04526727
000040 c2 c8 80 be 6b 16 a7 be e4 19 87 3e 8a 0f 23 3e
       -0.25153166 -0.3263429 0.2638694 0.15923896

decoder.2.weight f4 [50, 20]
000000 e8 3f b7 3e 77 6d e5 be df 2f 47 be ad 1b a5 be
       0.35790944 -0.44810078 -0.19451855 -0.32247677
000010 7e 42 2e 3c 90 25 31 3e a1 0a 5f 3d 00 08 2b 3e
       0.01063597 0.17299485 0.054453496 0.1670227
000020 dd c6 48 3e e3 32 41 3e 17 e2 d3 3c 91 55 6d 3d
       0.1960711 0.18867068 0.025864644 0.05794293
000030 58 d0 6c be 75 61 b0 3d d5 85 5c 3e 57 eb c5 3e
       -0.23126352 0.086123385 0.21535428 0.38656113
000040 a5 d4 fc 3d de 61 3b 3e 4c 05 9d 3d bd 62 f3 bd
       0.12345246 0.18299052 0.07667026 -0.11884067
000050 1e a7 10 be ac ac 70 bd 69 92 ba bb 4e 70 a1 3d
       -0.1412625 -0.058758423 -0.005693723 0.078827485
000060 3c 86 11 be bc 01 1f be 28 7a 6a 3e 55 97 07 3c
       -0.14211363 -0.15528005 0.22898161 0.008275826
000070 63 54 57 be a9 af 1c be 6d d2 c5 3d 9f 21 8a 3d
       -0.21028285 -0.15301384 0.09659276 0.06744694
000080 ac 72 ef 3d 7b b3 1b be 4c 56 b0 bd a5 99 79 3d
       0.11691794 -0.15205185 -0.0861021 0.060937542
000090 8f e6 86 3c e3 d7 60 3e d6 9c 60 be 00 58 23 3e
       0.01646736 0.21957354 -0.21934828 0.15951538
0000a0 b4 aa 09 be 8a bf 43 3e a4 8b 36 3e 24 66 98 bc
       -0.13444024 0.19116035 0.17826706 -0.018603392
0000b0 55 c9 a6 bb 8c 96 36 3e 13 29 18 3e 96 35 19 bd
       -0.0050899186 0.17830867 0.14859419 -0.03740462
0000c0 62 c5 df bd bc d8 0f 3e 23 1a 40 bd b4 da 22 bd
       -0.1092632 0.14047521 -0.046899926 -0.039759353
0000d0 b0 d7 08 3e 57 47 4b 3d d7 4a a0 bd 4f c2 46 3e
       0.13363528 0.04962858 -0.078267746 0.1941006
0000e0 98 62 40 3c 64 ab f3 bd 8e 70 7c bd 71 8c 65 3d
       0.011742257 -0.118979245 -0.061630778 0.05604214
0000f0 ab 80 d0 bd 2f 58 01 3e d8 99 84 bd 0b e5 ac bd
       -0.101807915 0.12631296 -0.06474656 -0.08442124
000100 bf e0 70 be 15 5d e9 bc 9e ef 2c 3e db 19 80 3e
       -0.23523234 -0.028486768 0.16888282 0.25019726
000110 85 f6 b8 3c 21 72 e1 3c a0 50 e9 bc 3d c2 26 3e
       0.022578487 0.027520241 -0.028480828 0.16285034
000120 2e 54 06 3d f4 b4 a7 bd 66 19 61 be 2f b1 6f 3d
       0.032795124 -0.08188811 -0.21982345 0.058518585
000130 90 0f eb 3d a8 7a 8f 3c 3c a7 b1 3d 31 28 9d bd
       0.11477578 0.017514542 0.086744756 -0.076736815
000140 56 7f f3 be e5 89 9b be cd 23 26 3e 0f e2 b2 3d
       -0.47558087 -0.30378643 0.16224594 0.087345235
000150 24 be 74 be de a0 d4 bc 9c ad 9c 3e 98 00 56 be
       -0.23900658 -0.025955614 0.30601203 -0.20898664
000160 e4 73 9e bd 89 41 62 be 34 2d eb bd 1a 65 60 3e
       -0.07736948 -0.22095312 -0.11483231 0.21913567
000170 b1 2a 8c 3e c2 89 0a be bd 2e cd bd d9 50 a8 3e
       0.2737632 -0.13529113 -0.1001868 0.32874182
000180 8d 1e 5e 3e a8 4b 31 3e e2 8c 28 3e 4a b9 15 3e
       0.21691342 0.17314017 0.16459993 0.14621463
000190 ef 7a 1d 3e f0 4a 8a 3e 61 e9 82 3e fe 27 0b be
       0.15378927 0.27010298 0.2556868 -0.13589475
0001a0 42 d0 8b 3e 7b f0 a0 3e b2 0f 79 3e be 3c 01 bf
       0.27307326 0.31433472 0.24322394 -0.5048331
0001b0 37 29 24 3e 38 89 5c 3e a7 b4 f0 bd c9 db 8b be
       0.16031347 0.2153672 -0.11753207 -0.2731612
0001c0 1b 20 c9 bd d7 97 33 be 1a 3d 04 3e b0 5e 12 3e
       -0.09820577 -0.17538391 0.12913933 0.14293933
0001d0 c7 1c 18 3c ba cf d8 be 46 54 93 3d 49 d3 99 3c
       0.009284205 -0.42345983 0.07193808 0.018777506
0001e0 ff d0 54 3e cc 6c 4d be 21 16 3a 3d 63 37 10 bd
       0.2078285 -0.20061034 0.04543126 -0.03520907
0001f0 0e 7d fb 3d 5f e6 50 3e 33 23 23 3c a7 0f bb bd
       0.12279712 0.2040038 0.009957123 -0.09133845
000200 4e 79 dc bd 02 72 64 3e 43 2e 55 bd d9 d7 07 3e
       -0.107653245 0.22309116 -0.05204607 0.13265933
000210 d2 20 c9 bd 68 5c 63 be ca 82 53 be d3 0d 06 3e
       -0.09820713 -0.22203219 -0.20655361 0.13091211
000220 66 75 51 be 0c 66 37 bd 97 5d 34 bc 22 9f f9 bd
       -0.2045494 -0.044775054 -0.011008642 -0.12188555
000230 bf 73 f3 bd 60 3f aa bd 57 01 e1 bd 18 2a 18 bd
       -0.11887311 -0.08312869 -0.10986584 -0.03714952
000240 5e 0a 24 be 20 71 f7 3a 27 6b 84 3e f3 d2 4f 3d
       -0.1601958 0.0018878318 0.25863 0.050738286
000250 6a ae 19 3e ee 80 23 3e e5 8e 5c bd 6e 3f 1a 3e
       0.1500794 0.15967152 -0.053847212 0.15063259
000260 97 d4 82 3d 85 55 28 be 88 8e 13 be 91 5e 61 bc
       0.063882045 -0.16438873 -0.1440984 -0.013755457
000270 3c a6 e4 3d c5 a7 9a 3d 70 da 86 be 53 ce bd bc
       0.11164519 0.07551531 -0.2633853 -0.023169672
000280 6b 1f e3 3e 65 25 8e 3e f9 ad 89 3e b5 61 79 be
       0.44359908 0.27762905 0.26890543 -0.24353679
000290 d1 0c bf 3e 62 dc f4 3d a6 c7 80 3e 3e 1d a5 be
       0.37314466 0.11956097 0.2515232 -0.32248873
0002a0 4f 61 9b 3d 56 b3 c9 3d f6 6e 16 3e 2a 50 77 3d
       0.075869195 0.09848659 0.14690766 0.060379185
0002b0 8f ec 8f bd b1 64 a7 3c da 1e 25 be 22 7e 98 be
       -0.07027542 0.020433756 -0.1612505 -0.29783732
0002c0 ea 0f 1a be 1b 74 8b bd 87 9b fb 3c 45 de 7d 3d
       -0.15045133 -0.06809255 0.03071381 0.06197955
0002d0 a4 c5 66 3e 7d e2 cc bc 36 c9 77 3e 66 27 d4 3d
       0.22536331 -0.025010342 0.2419785 0.10359077
0002e0 f7 66 e9 bb a1 95 89 be 11 71 e0 bd 1f de e4 bd
       -0.00712287 -0.2687197 -0.10959066 -0.11175179
0002f0 c0 c7 f8 bd 6b f5 de 3d d8 39 1b 3e af 25 4e 3e
       -0.12147474 0.108866535 0.15158784 0.20131563
000300 06 09 38 bd ff 09 ea bd 94 ea e2 3d 70 79 89 be
       -0.04493048 -0.11427688 0.110798985 -0.26850462
000310 3c 6b 57 be 1e 88 1c 3e a1 e3 3a 3e c3 f7 0c 3e
       -0.21037 0.152863 0.18250896 0.13766389
000320 c8 31 58 bd 5d 71 35 3e 24 a4 c1 bd 0c 9f f8 bc
       -0.05278185 0.17719026 -0.094551355 -0.030349277
000330 b3 18 50 3e d0 71 4e 3e 3c 7a 80 3e 80 25 01 3e
       0.20321922 0.20160604 0.25093257 0.12611961
000340 02 ea 15 3e c9 dc 5a bd c6 21 8c 3d 49 61 c4 3d
       0.14640048 -0.053433213 0.06842379 0.09588868
000350 65 f8 1c be 85 da 0e bd 40 6a 94 3d e2 d2 4b be
       -0.1532913 -0.034876365 0.07246828 -0.19904664
000360 07 5f 81 3e cf 76 23 be 03 81 6a 3e bf 80 14 bd
       0.25267813 -0.1596329 0.22900777 -0.036255594
000370 28 63 3b 3e ed 6f cd 3d 21 c3 f8 3c 0a f9 2d 3e
       0.18299544 0.10031114 0.030366482 0.16989532
000380 b0 9b e7 bd a3 7c 1a be 78 55 63 be 01 95 48 3e
       -0.11308992 -0.15086608 -0.22200572 0.1958809
000390 dd 53 a7 bd f4 f9 34 be b0 c6 7d be e6 3a 5e be
       -0.081702925 -0.17673475 -0.24782825 -0.21702155
0003a0 fb 9a 2c 3d 8e 2d bd bd a4 fb 7b bd 1d 6b 63 be
       0.04213999 -0.092372045 -0.06151928 -0.22208829
0003b0 f9 74 13 be 1b 19 db 3c 9b 59 3f bd 25 68 be 3d
       -0.1440009 0.02674537 -0.046716314 0.09297208
0003c0 43 75 1d bd 94 28 72 3e fd b0 06 bd 0b ff b7 3e
       -0.038441908 0.23648292 -0.032883633 0.3593677
0003d0 9b 18 0a bc 85 2a 10 bd d3 9f f0 bc 6d d9 b8 3b
       -0.008428718 -0.0351968 -0.029373085 0.0056411535
0003e0 22 e9 2a 3e 98 eb 88 3e 7f f9 23 3e 6d a0 a8 be
       0.16690496 0.26742244 0.16013144 -0.32934895
0003f0 04 f8 a9 3e d3 17 dd bd ed 24 fb 3d eb ab 82 3d
       0.33197033 -0.1079556 0.122629024 0.06380447

decoder.2.bias f4 [50]
000000 63 2d 82 3e f8 fc af bd 41 ca 07 3d 6f 03 f8 3d
       0.25425252 -0.08593172 0.03315187 0.1211003
000010 f9 29 a3 3d 6e 03 3c 3e 1e eb ff bd 54 b3 1b 3e
       0.0796699 0.18360683 -0.12496017 0.15205127
000020 ef 62 37 3e 9c 13 3f be 96 47 72 3d 09 10 ff bd
       0.17908834 -0.18659824 0.0591503 -0.1245423
000030 ce 48 24 be 77 b0 88 be c0 ec 46 be 5f b1 a6 bd
       -0.16043398 -0.26697132 -0.1942625 -0.081392996
000040 97 ad a3 be 2d 9e dc 3c d0 ce a0 bd b0 d1 bc bd
       -0.31968376 0.026930893 -0.07851946 -0.09219682
000050 89 06 1e 3e ad df 4c 3c 12 a1 c0 bd 43 8f d6 b8
       0.1543218 0.0125045 -0.09405722 -0.00010231
000060 1c b2 32 3e ab 93 cd 3d 6b ca 5f be 1a 37 82 be
       0.17450756 0.10037931 -0.2185456 -0.25432664
000070 59 4c 1b 3e e6 f8 05 be 53 b8 48 be f3 cc 70 3d
       0.15165843 -0.13083228 -0.19601564 0.058789205
000080 b0 1a ba 3d 6b d4 9b 3c 03 58 47 be 05 4f 86 bd
       0.090871215 0.019022187 -0.19467168 -0.065580405
000090 45 6c a5 be 75 9d be 3b f2 cb ed 3d 0c 4e 1e be
       -0.32309166 0.00581711 0.11611165 -0.1545946
0000a0 ab 84 14 be aa 68 a5 bd 63 8d 04 be 3f a0 48 be
       -0.14503734 -0.08076604 -0.1294456 -0.19592379
0000b0 17 91 d3 3e bf 06 cf 3d c2 99 3b 3d f3 9f ec bd
       0.41321632 0.101087086 0.04580093 -0.115539454
0000c0 07 f5 c1 bd c6 4f 4a be
       -0.094705634 -0.19756994

decoder.4.weight f4 [50, 50]
000000 33 05 35 3d 7a 4d 07 be 39 64 a3 bd 1f 4f 67 bd
       0.04419441 -0.13213149 -0.079781 -0.05647194
000010 c5 ab 93 3c 90 96 58 bd 29 b0 c9 bd 2c 4a 0f bd
       0.018026242 -0.052877963 -0.09848053 -0.034982845
000020 69 30 80 bd ff 0e c7 3c df 2f 8b 3d f2 be 03 3c
       -0.062592335 0.024299143 0.0679624 0.00804113
000030 2d 93 d6 bd fa 50 d5 bd 05 69 fe 3d 4b b5 81 bd
       -0.1047729 -0.10415836 0.12422375 -0.06333407
000040 f6 ea 38 3c f5 4f a1 bd 92 63 0e 3c 63 4d ab bc
       0.011286488 -0.07876579 0.008690732 -0.020910924
000050 5d 1b d0 bd 9b 18 ad bd f0 19 d2 bd 08 23 c0 3d
       -0.10161469 -0.08451959 -0.102588534 0.09381682
000060 bc b4 af bd 82 a7 09 3e c7 e6 0c be 23 bd 77 bd
       -0.08579394 0.13442805 -0.1375991 -0.06048311
000070 9b ea f2 bd 91 a8 e2 bd 5c 76 00 3e f9 9f ce 3d
       -0.11861154 -0.11067308 0.1254515 0.10089106
000080 b0 8e 22 3d ac 9c 1c bb b5 e6 05 be f9 b6 e4 bd
       0.03968686 -0.0023897095 -0.13076289 -0.11167712
000090 93 3d ec 3c a8 3d 67 bd 57 c5 0b be b9 60 19 3d
       0.028837955 -0.056455284 -0.13649498 0.037445758
0000a0 de 2a bb 3c c1 11 af bd d2 d9 91 3c 13 28 9a bd
       0.02284759 -0.08548308 0.01780406 -0.07527175
0000b0 6b 9d a6 bd d3 6f 04 3e ad 23 f6 3d 78 f6 05 bc
       -0.08135494 0.12933283 0.12018523 -0.0081764385
0000c0 53 46 9e bd 0d a9 b7 bd 4c f6 1f be ff 8a cf bd
       -0.07728257 -0.08967791 -0.15621299 -0.10133933
0000d0 8a cd c6 3c b8 65 16 bc 56 42 6c bd e1 eb 26 3e
       0.02426793 -0.009179525 -0.05768045 0.16300918
0000e0 4d fc 16 3c 38 e0 71 bd 2e 8f 29 3e 93 67 15 3d
       0.009215427 -0.059051722 0.16558525 0.03647573
0000f0 5f fe 05 3e 75 67 de 3d 20 cf 17 3e eb fa 03 3e
       0.13085316 0.108595766 0.14825106 0.12888686
000100 4c b2 ba be fb 9d 39 bd fc 5f 6e 3e a6 04 b5 3c
       -0.36464155 -0.045316678 0.23278803 0.022096943
000110 5d b5 a4 3d eb 1a 88 3c d1 f3 0b be f9 77 f2 3d
       0.08042405 0.016614398 -0.13667227 0.11839289
000120 f9 aa 3c bc 59 82 de 3d 6c d0 cc 3d f2 7c 5c 3e
       -0.011515372 0.108647056 0.10000691 0.21532038
000130 82 69 31 3e 2b d7 0c be bf 97 83 3e 6b e0 7d bc
       0.17325404 -0.13753955 0.2570171 -0.0154954
000140 59 83 08 be 2e a6 c0 bd 1e f3 e4 bd 6f 96 08 3e
       -0.13331355 -0.09406696 -0.111791834 0.13338636
000150 f7 f4 33 3e ad ad 0c bc fb b7 32 3d 73 49 0c 3e
       0.17573915 -0.008586329 0.04363249 0.13699894
000160 3b 24 08 be 54 19 18 3e 87 d2 18 be fd cf 45 be
       -0.13295071 0.14853412 -0.1492406 -0.19317622
000170 0a b3 75 bd a0 b8 f9 3d 51 6d 4a 3e b2 7f 19 bd
       -0.059985198 0.121934175 0.19768263 -0.037475295
000180 71 6e 14 bd c4 48 e2 3d c1 63 35 bd 73 22 a1 3e
       -0.036238138 0.11049035 -0.044284586 0.31471595
000190 75 98 91 3e 2e 9d 2c be ee 54 b5 bd d5 3d cd bd
       0.28436628 -0.16856834 -0.0885409 -0.10021559
0001a0 63 ce f1 3d 28 73 58 3d 01 66 eb bd 27 7d 9a bd
       0.11806943 0.052844197 -0.11494065 -0.07543402
0001b0 1d dd 56 3d 8c e5 86 bd 88 92 b9 bd 33 21 e9 3c
       0.052456964 -0.06586751 -0.09061152 0.028458213
0001c0 73 57 57 be 82 97 3d 3d 66 fd 79 3e 8c d3 e2 bc
       -0.21029453 0.046287067 0.2441307 -0.027688764
0001d0 fd 52 b9 3d 71 0f e6 bd 5f a6 db bb 75 e7 8a bd
       0.09049032 -0.11233414 -0.0067031826 -0.06782428
0001e0 a7 00 91 3d 30 e4 83 bd 1f 54 cf bd 35 8b 86 bd
       0.070802025 -0.06440008 -0.10123467 -0.065695204
0001f0 80 37 f8 3c fe 44 d3 bc a3 8b dd 3c 73 3f 69 bd
       0.030299902 -0.025789734 0.027044123 -0.056945276
000200 7c 4e c5 bc 9b 4c fc bd 99 13 eb 3c d6 0e dd bd
       -0.024085276 -0.12319299 0.028695868 -0.10793845
000210 d9 33 c5 3c c4 4f fb 3d d1 aa da bd 15 40 b3 3c
       0.024072574 0.122710735 -0.10677112 0.021881143
000220 d3 5c c1 3d d8 b4 02 3e e5 15 f1 bd 02 0f bd 3c
       0.09441533 0.12764299 -0.11771754 0.023078445
000230 08 c6 1a 3d 7f cc 5e 3d 0f bb cc 3d 7f 2b e2 3c
       0.037786514 0.05439424 0.09996616 0.027608631
000240 c8 eb 97 3e 8a 64 fb bd b2 e1 42 3d 0f a9 5a be
       0.29672074 -0.12275036 0.04757852 -0.21353553
000250 24 e9 89 ba 82 6d af 3e 12 57 98 bd 4a 9c d1 bd
       -0.0010521752 0.34263235 -0.07438482 -0.10234888
000260 af d7 40 bd 93 75 3a 3e d2 88 fd bd c4 27 66 be
       -0.047080692 0.18208914 -0.12379612 -0.22476107
000270 8c 5f e7 3d 11 9f b5 bc 65 70 cf 3c 84 02 a4 3d
       0.11297521 -0.022170575 0.025322149 0.08008292
000280 46 76 00 3c ec a5 ab bd ec 7f 03 be 83 df cc 3e
       0.007840699 -0.083812565 -0.12841767 0.40014276
000290 5d 9f e6 bd 2d e3 8e be ef 54 4f bd 94 88 2c bd
       -0.11260865 -0.27907696 -0.05061811 -0.04212244
0002a0 c2 26 92 bb c6 d8 08 3e e5 9a ac 3e cc fe ae 3d
       -0.0044601867 0.13363943 0.33711925 0.085446924
0002b0 2a 2f 5b bd d3 ad 86 3d 79 98 1a 3e 36 fd 1e bd
       -0.053511776 0.06576123 0.15097226 -0.0388157
0002c0 2b 75 22 be be e7 39 3c 17 a9 b4 3d 53 3c 4e 3d
       -0.15865009 0.011346756 0.08821314 0.0503505
0002d0 9c 4b f7 bd 95 c5 80 3e 03 9c d1 bd 77 98 ae bc
       -0.12074968 0.25150743 -0.10234835 -0.021312935
0002e0 76 cf 46 3c 1a 33 80 bd 23 3c 8f 3e 95 ac 8a bb
       0.0121344235 -0.06259747 0.27975568 -0.004231999
0002f0 52 14 cb 3b 45 b6 91 3d 66 34 c1 3d 72 43 a0 3e
       0.0061974907 0.07114843 0.09433822 0.31301457
000300 f1 48 18 3d d2 08 d8 3d e8 72 6c 3e 7b a9 a4 3c
       0.037178937 0.10548557 0.23090708 0.020100346
000310 ff 3b 8f 3e ef bb 60 be ab 1c e1 3d fa 6a a7 be
       0.2797546 -0.21946691 0.10991796 -0.32698804
000320 c4 29 2c 3e 57 4f 1b bd cf 10 00 3d a2 d0 cc 3a
       0.16812807 -0.03791746 0.03126603 0.0015626142
000330 eb 13 e4 3c 04 88 34 bd 30 17 d8 3c ae 54 2d 3d
       0.027841529 -0.044075027 0.026378244 0.042317085
000340 ce 52 e3 3c 0f e5 59 3e d1 6d 78 bd 2d 9d 2c 3e
       0.027749445 0.21278785 -0.060651604 0.16856833
000350 b6 33 0c be 26 71 05 3f ad 56 12 3e 68 c8 16 be
       -0.13691601 0.52125776 0.14290877 -0.14724886
000360 63 c6 a1 3e ed b8 e3 bd ab 42 1a 3e 6c b6 97 3d
       0.3159667 -0.11119256 0.15064494 0.07407841
000370 2d 32 b5 3d 13 30 15 3c 43 57 80 ba ef f8 92 bd
       0.08847461 0.0091057 -0.0009791631 -0.071763866
000380 b5 34 49 bd e4 f5 ec 3d cb 31 43 3d 52 ec 3d be
       -0.04912253 0.115703374 0.04765491 -0.1854718
000390 76 c2 8f bd c8 bb 74 be 32 1a fd 3d e7 1c 7f 3c
       -0.07019512 -0.23899758 0.12358512 0.015570856
0003a0 9f 00 22 3c 20 dc 37 3e f6 a8 34 3d da 57 e6 3d
       0.009887843 0.17955065 0.044106446 0.11247225
0003b0 bf ff c8 3e 14 1f 01 be 16 6a c5 3d 1a 6d a2 3e
       0.3925762 -0.12609512 0.09639375 0.31723863
0003c0 dc b2 a9 bc 94 01 02 3e dd 15 cf 3d 8a b9 aa 3d
       -0.02071517 0.12695915 0.10111592 0.0833617
0003d0 6a c9 8e 3e 30 76 99 3d 98 a2 ea 3c 31 8c 7c 3d
       0.27888042 0.074932456 0.028641984 0.061657134
0003e0 a2 13 33 3e e8 85 f0 be b5 31 cf bc af fe c0 bc
       0.17487958 -0.46977162 -0.025292257 -0.023558943
0003f0 36 d8 bd 3d 24 b5 bb 3c d1 11 e8 3d 9b e1 be 3b
       0.092697546 0.022913523 0.11331523 0.005825234

decoder.4.bias f4 [50]
000000 e9 30 00 be e8 e7 d4 3d 5d f4 9b 3e 06 fe 75 3c
       -0.12518658 0.10395795 0.30459872 0.015014177
000010 fb c7 1b 3e 3d 92 f8 bd 70 8d 8b be 78 cb 61 3d
       0.15213005 -0.12137268 -0.27256346 0.055125684
000020 b4 28 17 be 1d 21 93 3d 39 4e 0b be 92 c8 de bd
       -0.14761621 0.0718405 -0.13604058 -0.108780995
000030 ce 90 18 be 8a 37 0a 3b c9 de 1e 3c cd c4 2f be
       -0.14898989 0.0021090233 0.009696671 -0.17164917
000040 6a 80 18 bd 4e 0f 3b bc cc a0 90 3d e0 94 d4 bd
       -0.03723184 -0.011417223 0.070619196 -0.10379958
000050 35 5b cd bd 7f 8f 1e 3d 99 97 78 3e 3d df b1 bc
       -0.10027162 0.038711067 0.2427658 -0.021712894
000060 8f 3f 94 3d cf e7 a6 bd 85 e0 ad bd 56 ec 7e bd
       0.07238685 -0.08149683 -0.08490089 -0.062237106
000070 ce 1b 11 bd b5 eb 3d 3e d7 96 4b 3d 0a 42 1a 3e
       -0.035426907 0.18546946 0.0497044 0.15064254
000080 fb 64 e8 3b ed 7c ed bc 20 72 49 3d bf 17 26 3d
       0.007092116 -0.028990233 0.049181104 0.04054999
000090 45 15 f6 3d 2d b8 17 3e 59 64 11 3e 68 01 9c ba
       0.120157756 0.14816351 0.14198436 -0.0011902275
0000a0 fd 24 37 bd f2 35 47 bd 2f f7 3f 3e 51 4c 82 3d
       -0.04471301 -0.04863543 0.18746637 0.063622124
0000b0 3c 81 05 be 5f 52 93 bd be c7 a3 3c 30 94 bd bd
       -0.1303758 -0.071934454 0.019992705 -0.0925678
0000c0 ff a0 6a 3e 6d cc e1 bb
       0.22912978 -0.0068908245
