RiskViz Folder/model/checkpoint_950.tar (torch, 110796 bytes, 51 tensors)

encoder.1.weight f4 [50, 6]
000000 1a 55 04 bf b4 de ff 3a fc ff 88 ba 46 68 6c 3e
       -0.51692355 0.0019521327 -0.0010452266 0.23086652
000010 9b ca a8 be 01 8a f0 3d 60 83 ea 37 2d 37 f2 39
       -0.32967076 0.11745072 2.795615e-05 0.00046198946
000020 84 4e c1 bb fb d5 1d 40 af 4c 54 3c 70 26 5e be
       -0.0058992524 2.4661853 0.012957736 -0.2169435
000030 16 cc 3f be 42 ee 63 be df 81 15 3c fb 18 85 bd
       -0.18730196 -0.22258857 0.009125202 -0.06498905
000040 ba ea b2 3e fc 9c b9 be db d5 44 3e 00 ba 28 bb
       0.34944707 -0.36252582 0.19222204 -0.002574563
000050 38 c1 f8 b8 ee 2a eb bd 82 a5 22 3c ff 67 8d 3f
       -0.00011861551 -0.114827976 0.009927155 1.1047362
000060 15 e3 d6 bc 98 c0 2b be 21 69 26 3a d0 6a 45 3f
       -0.026231328 -0.16772687 0.0006348063 0.7711611
000070 93 f6 74 3e 8d a2 09 bf 58 a9 22 3f d2 68 b3 3c
       0.23922186 -0.5376366 0.6353965 0.021900568
000080 64 8c d9 3b a6 0a ed 3d 3a e9 19 3d 61 84 78 3f
       0.0066390503 0.11574297 0.037575938 0.97076994
000090 0b 1f 9c bd f1 ed 66 be a9 86 e8 bd c3 0e 7b be
       -0.076231085 -0.22551705 -0.113538094 -0.2451735
0000a0 60 bd 5a 3e a6 e8 50 be 29 63 2e bf 9d 48 d5 3d
       0.21361303 -0.20401248 -0.68120056 0.104142405
0000b0 a7 53 9c ba 0f e9 f2 bc 09 a8 f7 bd f2 e3 5d bd
       -0.0011926786 -0.029652147 -0.12092597 -0.054172464
0000c0 7e fd 26 3f d3 c5 bf bb c0 25 64 b9 69 42 66 3f
       0.6523055 -0.00585244 -0.00021757837 0.89945084
0000d0 29 72 24 3f 25 f3 51 3d 00 29 a5 be 0e 5f 32 3c
       0.64236695 0.05125727 -0.32257843 0.010886921
0000e0 b8 7b 42 be e1 a3 02 bb 1d e3 4b 3e 3e 2c 38 3e
       -0.18992507 -0.0019934105 0.19910856 0.17985627
0000f0 d7 6a e9 be f8 d9 fb 3b 9b 4f 14 3a eb c4 75 bf
       -0.45589325 0.007685896 0.0005657614 -0.960036
000100 72 20 8a be 46 c4 0a 3e 82 8a 6e be 3d 93 36 be
       -0.2697788 0.13551435 -0.23295024 -0.17829604
000110 93 69 0c 3e f2 98 70 3e 19 71 bb 3b 14 9d 22 be
       0.13712148 0.23495844 0.0057202694 -0.15880233
000120 5e 95 0b be 0b 97 e1 bc a1 bd 29 bd 07 5f 89 3f
       -0.13631198 -0.027537843 -0.04144061 1.0732125
000130 dc 46 c4 bd 55 be 0f 3f ca d8 fe be 42 f6 80 3b
       -0.09583828 0.561498 -0.49774772 0.003935606
000140 9c c1 89 ba 15 04 46 bf ac b4 8b be 25 ce e7 3d
       -0.0010509971 -0.7734998 -0.2728628 0.11318616
000150 dc ab 03 c0 14 02 57 3b 62 64 0c bb b5 d0 71 3e
       -2.0573645 0.0032807635 -0.0021422138 0.23614772
000160 88 2e ec be d6 4a 18 3f 8a e1 2c bf 3b e0 80 39
       -0.4612925 0.5948919 -0.67531645 0.00024581127
000170 58 e7 f3 3a 7f d6 ea bd 86 38 d2 be 1e 6b e0 bd
       0.0018608375 -0.11466693 -0.4105875 -0.10957931
000180 57 53 83 be ba 7e 8e 3e a2 90 21 3e 6d 1c a6 3e
       -0.2564952 0.2783106 0.1577783 0.32443562
000190 46 46 9b be 2c 54 cc be b9 74 76 bf e1 ea fd bb
       -0.30327052 -0.39907968 -0.96271855 -0.007748947
0001a0 fd 27 53 3b 15 ff 52 bf 2b bb 33 3f e2 e1 09 3f
       0.003221988 -0.82420474 0.7020747 0.53860295
0001b0 87 9f 74 bb 62 e6 c1 bb 8e db d1 b9 ff 51 18 40
       -0.003732653 -0.0059173563 -0.00040027167 2.3800046
0001c0 5f dc f0 3b db e4 3e be db 84 af 3d 51 10 9d be
       0.007350489 -0.18641989 0.08570262 -0.3067651
0001d0 92 ad 5f be 9a 7a 44 be 84 8c 6c be 63 42 94 3d
       -0.21843556 -0.19187394 -0.23100477 0.07239225
0001e0 bc 39 db bd ae f1 93 ba 93 8a 04 bb b3 b3 31 bf
       -0.10704371 -0.0011287236 -0.0020224198 -0.69414824
0001f0 7d 06 3e 3f f5 8e 87 3d 5e 3b b5 be e6 9e 87 be
       0.7422865 0.06619064 -0.35396856 -0.26488417
000200 24 11 1d 3e cd 07 1c 3e 11 40 81 be 6e da 03 be
       0.1533857 0.15237351 -0.2524419 -0.12876293
000210 e7 e0 1c c0 18 0e 73 3b 8f c9 1b ba a6 a0 b5 be
       -2.451227 0.0037087258 -0.00059428153 -0.35474128
000220 87 b2 a5 be 3f ce 46 3e 33 99 a4 3e ba fc b2 bd
       -0.32362768 0.19414614 0.32148132 -0.0873961
000230 3e a6 8b bd 3e 5f 10 3e b3 8f 6c 3d cf b4 09 be
       -0.068188176 0.14098832 0.05775423 -0.13447879
000240 e6 64 a2 be ae ae 58 be 18 93 95 3d e6 1c 0b bd
       -0.31717604 -0.21160385 0.073034465 -0.033963107
000250 fd 94 fa 3e aa 13 9b bc 9b da d4 bd 57 bc c7 be
       0.48941794 -0.018930275 -0.10393258 -0.3901088
000260 9f 1d bf be ae 65 35 3e 3e 54 a3 3e 31 c9 ce ba
       -0.37327287 0.17714569 0.3190021 -0.0015776512
000270 3c c9 1a c0 af 1b 94 3b 2a 55 d4 ba 90 11 1f bf
       -2.4185324 0.0045199017 -0.0016199697 -0.62136173
000280 9a 68 10 be db 1f f3 3d 42 58 0c c0 bf 7f 27 3a
       -0.14102402 0.1187131 -2.1928868 0.000638958
000290 0b a4 96 bb 20 be 0c bf 33 57 02 be 2d e7 f6 be
       -0.004597192 -0.5497761 -0.12728576 -0.48223248
0002a0 0b 5c 4b 3f 79 67 22 bb 43 a3 b2 3a b1 03 8e bf
       0.7943732 -0.0024780913 0.0013628978 -1.1094877
0002b0 42 1c 2d 3f 85 40 5f 3d eb dc 67 be c8 27 d7 bc
       0.67621243 0.05450489 -0.22642867 -0.026264086
0002c0 02 00 94 be 3f 4c 9a bc 92 37 6a 3e a6 e3 3b be
       -0.28906256 -0.018835185 0.22872761 -0.1834856
0002d0 bf 8e 46 3f e6 5b 56 bc a4 fe 0e ba 24 15 06 3f
       0.77561563 -0.013083434 -0.00054548145 0.5237601
0002e0 11 11 ac be ec 88 9e be 0f eb 06 3d 77 95 c0 ba
       -0.3360677 -0.30963838 0.032939013 -0.0014692981
0002f0 02 46 63 3b 7a 69 66 bd 0c 3b 20 3e 99 25 a5 3f
       0.003467918 -0.056252934 0.15647525 1.2902099
000300 a0 54 a0 3e c4 3a cc be 6a dd 2f 3d 2c db 9f bc
       0.31314564 -0.39888585 0.042935766 -0.019513689
000310 db 6b e1 3d a6 1d cd bd 7d 68 c9 3d 04 56 85 be
       0.110069 -0.100154206 0.09834383 -0.26042187
000320 a1 a4 3f 3e ae 9a 21 3f 83 9a f0 ba ec 68 81 be
       0.18715145 0.6312665 -0.0018356595 -0.25275362
000330 5c ee 28 bf fd 94 98 bc 16 75 de bb d3 b3 63 3d
       -0.6598871 -0.01862573 -0.00678886 0.055591416
000340 92 82 8b bc 05 38 89 3f d8 ee 29 3b 8e 55 0c 3b
       -0.017030034 1.0720221 0.0025929715 0.00214133
000350 5c d3 61 bb 46 d7 c4 3f 6f 1f ca 3e 99 46 03 bb
       -0.0034458255 1.5378196 0.39477107 -0.0020031093
000360 2e 09 67 3e da 58 09 3e 1c 0c 26 3d 28 70 f2 bd
       0.22562096 0.134128 0.040538892 -0.11837798
000370 46 e1 80 3d f6 74 ef 3c 3e 48 2f 3b 36 b2 30 3b
       0.062929675 0.029230576 0.002674594 0.002696169
000380 20 61 8b bb 11 ec 37 bf 99 24 03 3d 3b 68 38 3f
       -0.0042535216 -0.71844584 0.032017324 0.72034043
000390 5d 15 af 3c b2 6f ec bc a3 28 4d bc 6a 15 30 be
       0.021372491 -0.028861854 -0.012521896 -0.17195669
0003a0 b8 01 68 3e 17 e8 b6 3f 13 f3 8b 3f e2 b8 4a ba
       0.22656906 1.4289578 1.0933555 -0.0007733238
0003b0 77 e8 0c 39 4c 1d ab be b2 7c e9 bd ad 9b 18 bf
       0.0001343804 -0.3342079 -0.11400737 -0.5961254
0003c0 f3 e5 1c c0 05 bb 01 3b b8 7a 4a 3b 2c 28 50 bf
       -2.451535 0.001979531 0.00308959 -0.813113
0003d0 f7 57 9e be 38 b1 68 3e 1b 64 e0 3a 85 93 90 b8
       -0.30926487 0.22723854 0.0017119678 -6.893933e-05
0003e0 6b 44 2a ba 9b 8d 16 40 97 92 c4 be 95 91 43 be
       -0.00064951804 2.352393 -0.3839309 -0.19098504
0003f0 eb 99 16 bf 71 9b c1 bb 24 e3 05 bc 54 18 3c 3e
       -0.5882861 -0.0059084226 -0.00817183 0.18368655

encoder.1.bias f4 [50]
000000 db d0 77 3e 4e 50 ca bb 26 a2 d5 bc 1b f9 14 be
       0.24200766 -0.006174124 -0.026078295 -0.14548151
000010 68 54 b2 bd c6 4a fc be ac d2 02 be 05 f6 b2 bc
       -0.087075055 -0.49275798 -0.12775677 -0.021845827
000020 e8 5c a8 be 9e 71 aa be c9 cf 39 3e 59 50 c9 be
       -0.32883382 -0.33289808 0.1814567 -0.39319113
000030 74 b6 60 bf 6f e3 5f 3e e6 5b 36 3c 46 c1 ac 3e
       -0.877784 0.21864103 0.011130309 0.33741206
000040 2f ea b8 be ee 28 ad 3c 5d 3b d0 ba 76 1f 89 be
       -0.36116168 0.02113768 -0.0015886832 -0.26781815
000050 04 8d 52 3d 4b eb 11 be 6f 55 7a 3c 10 ed bf be
       0.051404014 -0.14249913 0.015279158 -0.37485552
000060 a9 0f 3f bd f6 fa 99 be b3 67 89 3c 97 55 74 3c
       -0.046645794 -0.3007428 0.01677308 0.014912984
000070 b6 7e ce be cd 81 76 be 62 f2 d4 be 4d 30 63 be
       -0.40331048 -0.24072953 -0.41591173 -0.22186394
000080 b7 88 d6 be 7d 58 aa be c0 5a 76 3b c2 10 6f ba
       -0.4190118 -0.33270636 0.0037590712 -0.00091196236
000090 90 f2 b2 be ed 5f 67 bc dc dc a7 be 13 4b 2a bf
       -0.34950686 -0.014121992 -0.3278569 -0.66520804
0000a0 ef ae 50 3c b6 d5 a8 ba 4d 49 25 3b c5 d2 d8 be
       0.01273702 -0.0012881074 0.0025220693 -0.42348304
0000b0 ea d1 26 bf 38 62 ef 3b 17 f2 e6 ba 2a 6d 76 3c
       -0.65164053 0.0073054098 -0.0017619756 0.015040675
0000c0 14 8b 8c be 3b b9 97 b9
       -0.27449858 -0.00028938972

encoder.4.weight f4 [50, 50]
000000 07 c8 3e 3d 85 a2 bd be 04 4d f9 bd 92 d2 dc bd
       0.04657748 -0.37038055 -0.12172893 -0.107823506
000010 27 4f 6e be 48 67 e4 3d 51 61 93 bc 01 15 5d 3d
       -0.23272382 0.11152512 -0.01799074 0.05397511
000020 a8 94 6e 3d ff 9c b5 3d 4e 83 30 3e 3c 26 ae 3b
       0.05824724 0.08867835 0.17237589 0.0053146165
000030 5a 6b c4 bd e6 44 18 bc 1b 30 62 3e 0e d1 11 bd
       -0.09590788 -0.00929377 0.22088663 -0.03559976
000040 e8 fc 0e be 8e 86 fd 3b 46 44 be be af 92 ca bd
       -0.13963664 0.0077369874 -0.37161463 -0.09891259
000050 db c5 25 bd e3 53 05 3d ea 4e 75 3e df 64 cf bc
       -0.040471893 0.032550704 0.23955885 -0.025316654
000060 c3 2c 18 3d 96 f3 0d bd a3 f9 f3 3d e0 8f 93 3e
       0.037152063 -0.03465613 0.11912849 0.28820705
000070 85 fa 0d 3d 94 66 ce 3d a8 3b 10 3e 80 8b c8 bd
       0.034662742 0.10078159 0.14085257 -0.097922325
000080 b8 d6 19 3d 19 11 8a 3d ef 96 aa 3d 01 44 90 be
       0.037558287 0.06741542 0.083295695 -0.28176883
000090 53 83 38 ba dc 21 ca bd 74 7c 37 3c 98 ff 7f 3e
       -0.0007038612 -0.098697394 0.0111991055 0.24999845
0000a0 c5 da 78 3e 30 e6 a9 be a0 80 cb bc ca fd 91 bd
       0.24302204 -0.33183432 -0.024841607 -0.071284845
0000b0 22 f5 dc 3e 9a 34 83 bc f0 08 95 be d0 e2 14 bc
       0.43155771 -0.016016293 -0.2910838 -0.009087279
0000c0 61 33 68 3d e7 7f db bd 30 cd 21 bc 9f b7 81 bc
       0.056689624 -0.10717755 -0.009875581 -0.015834628
0000d0 44 63 55 3d d2 b2 eb bd 20 6d 94 bc ef bc 4d 3e
       0.05209662 -0.11508717 -0.018118441 0.20091604
0000e0 53 94 93 bd 40 1d ac 3b 05 cb 4f bd ac 15 99 3d
       -0.07206025 0.0052525103 -0.050730724 0.07474837
0000f0 23 9b 3c bd ba 98 d9 bd 42 94 e8 bd 17 3e 6c 3e
       -0.046046387 -0.106248334 -0.11356403 0.2307056
000100 1a e0 d6 3d 78 42 ce bc 7b 7f 07 be c5 e3 8d 3c
       0.10491963 -0.02517818 -0.13232224 0.017320523
000110 be 22 c4 bb a1 ed 85 3c 78 21 b7 3b 14 90 fd bc
       -0.005985587 0.016348662 0.0055887066 -0.03095249
000120 1e 33 70 3e a9 3d 53 3d 06 48 14 3d 25 ad 9c bd
       0.23457 0.051572476 0.0362015 -0.07650212
000130 35 9d b9 3e 76 d0 b7 3e c1 36 b0 bc 30 3b 06 3e
       0.36252752 0.3590123 -0.021510484 0.13108516
000140 9c ec ca bd 9f 0d 13 be b0 99 dd 3c dc 59 0e 3d
       -0.09908411 -0.14360665 0.027050823 0.034753665
000150 ca e4 20 3e 0b 5e 9d bd de 19 c3 3d 6c 05 8a bc
       0.15712276 -0.07683953 0.09526418 -0.016848288
000160 91 8c 11 be b2 a4 a6 3e cc a2 90 3e 21 5b 6f bc
       -0.14213778 0.32547528 0.28249204 -0.014609129
000170 6c bb b7 bd 1b a4 c3 bd f7 30 54 3e 27 85 0c 3e
       -0.08971295 -0.09552785 0.20721804 0.13722669
000180 c9 bb fa bd 13 fc b7 bd 22 33 30 bd 7b 79 1b 3d
       -0.122428484 -0.08983626 -0.043017514 0.03795765
000190 65 03 12 3d 85 53 cc be a8 2f d2 3d cd 6b e5 3d
       0.03564777 -0.3990747 0.10262996 0.11202202
0001a0 c5 d6 dc bc e6 65 89 bc 79 86 32 bd f8 9e a7 3b
       -0.026957879 -0.016772222 -0.043585274 0.005115386
0001b0 d1 73 4d be a4 f0 0f 3e d2 28 20 3d d7 a6 09 3e
       -0.20063712 0.14056641 0.03910143 0.1344255
0001c0 c7 40 02 3e 4f 10 9f 3d 30 bb 74 be 87 3f 02 3d
       0.12720023 0.077667825 -0.23899531 0.031798866
0001d0 cb 93 5d bd 67 22 1d bd a0 86 99 be 85 4c a1 3d
       -0.054096024 -0.038362887 -0.29985523 0.07875923
0001e0 de 76 6b 3e f8 b7 e0 bd 17 a1 73 be 87 56 2c 3d
       0.22994563 -0.10972589 -0.2379192 0.042074706
0001f0 f7 09 19 3b ea 7d 85 3d ab d1 0a 3d fa e8 3a bd
       0.0023351887 0.06518157 0.03389136 -0.04563234
000200 af 0c 56 be 4f 81 27 bd 66 96 8c be a3 31 83 3d
       -0.20903276 -0.040894803 -0.27458495 0.06405952
000210 a8 cb c8 3d f6 98 09 be 58 91 04 3d f6 d2 50 bd
       0.09804469 -0.13437256 0.032365173 -0.050982438
000220 7a 6b dd 3d 90 7d f4 3d e1 08 23 3d 8a af 77 be
       0.10811515 0.11938012 0.03980339 -0.24188057
000230 c8 9f 3a bd 74 61 3c be 1a b0 d6 bd aa 9c c7 bb
       -0.045562536 -0.1839655 -0.104828075 -0.006091674
000240 b0 c5 25 be f5 ad d3 3d a0 db 82 3c e5 3e d1 bd
       -0.16188693 0.10335914 0.015973866 -0.10217074
000250 62 1c d1 bd b1 e3 2c be 40 0c 76 be 87 3c 6b be
       -0.10210492 -0.16883732 -0.2402811 -0.22972308
000260 20 1d 33 bc a9 48 66 bd 5f b8 70 bd 00 94 5e 3e
       -0.010932237 -0.056221638 -0.05876958 0.21736145
000270 ab c1 ff 3d fa a9 68 3d e7 12 93 3d 89 6a e9 bd
       0.12488111 0.056802727 0.0718134 -0.11397273
000280 a8 e2 a4 bd b6 16 f6 bd 9e 55 d2 3d e4 ba 54 be
       -0.08051044 -0.120160505 0.102702364 -0.20774418
000290 4f bc c1 3c e9 14 54 be 8f 3a c8 bd 3c 52 90 be
       0.023649363 -0.20711102 -0.09776794 -0.2818774
0002a0 a5 75 63 be 0e 69 84 bd 10 67 a6 be 79 e0 cc 3d
       -0.22212847 -0.0646535 -0.32500505 0.10003752
0002b0 a7 ab 8a bd a8 d7 89 bc f2 03 e2 bc ec 8e 70 3d
       -0.06771021 -0.016826466 -0.027589772 0.05873005
0002c0 88 85 7f bd 63 73 8c bc d2 1d 31 3d 13 dd c7 3d
       -0.062383205 -0.017144864 0.04324133 0.097589634
0002d0 d6 d0 20 3e 6d f4 dc bd 75 aa 11 bd 5a 3c e4 bd
       0.15704665 -0.10788808 -0.03556295 -0.11144324
0002e0 1e f6 71 3d 00 19 66 be 1a 73 b0 3c 7f 36 9b be
       0.059072606 -0.22470474 0.02153926 -0.30315015
0002f0 1b cd a8 3b 31 ca 8b 3e ad 5b be bd d1 a0 63 be
       0.0051514036 0.27302697 -0.092948295 -0.22229315
000300 bb 6c 3c be 3f 3a 06 3e 76 e8 c6 3e 63 f8 7a bd
       -0.18400852 0.13108157 0.3884923 -0.061272036
000310 39 c1 94 be c3 7f 7a 3d fb 86 c0 3d 17 4e f3 bd
       -0.29053667 0.061157 0.094007455 -0.11880129
000320 09 5f 91 3d 6d c1 13 be 09 bd fd bc 30 bb f4 3e
       0.07098205 -0.14429255 -0.030973928 0.47799063
000330 e4 c9 fc bd c0 10 a9 3e 41 c0 95 bd cc 7f 08 3e
       -0.12343195 0.33020592 -0.0731206 0.1333
000340 f5 2d 41 bc ad e6 c0 bd 73 12 6b bd da 4e e4 3d
       -0.011790742 -0.09418998 -0.05739064 0.11147852
000350 38 1c 16 bd 27 7c 42 bd a2 51 12 3d 3e cf 00 bd
       -0.036648005 -0.047481682 0.035722382 -0.03144764
000360 26 7b f3 bd 64 81 01 3d 30 62 61 be 86 e2 09 3d
       -0.11888723 0.031617537 -0.22010112 0.033663295
000370 a9 78 a0 3c e4 d5 2e bd ab 9a 6c bd 1f fe aa 3d
       0.019588785 -0.04268445 -0.05776469 0.08349251
000380 ed 07 32 3b e4 9b 87 3d 90 f5 be 3d f2 66 b9 3d
       0.0027165369 0.06621531 0.09324181 0.090528384
000390 ff 2f e4 3a 76 d5 67 3d 40 ad 28 bd 42 1d d7 3e
       0.0017409323 0.056600057 -0.04118085 0.4201451
0003a0 0f 1f 5d bd 18 f2 b5 3d f7 29 9d 3e f3 a8 05 3d
       -0.053984698 0.08884066 0.3069608 0.032631826
0003b0 dd d6 08 be cd 67 56 bd 3f 41 d0 3e 2a 47 40 3e
       -0.13363214 -0.052345086 0.4067478 0.18777147
0003c0 ce 17 17 bc 47 29 80 be ea 6c 0c bd f9 ad a8 3d
       -0.009221984 -0.25031492 -0.034283556 0.08236308
0003d0 2a eb a5 bd 2c 4c 4e 3d 94 e2 db 3c 22 0c e1 bd
       -0.081014946 0.050365612 0.02684144 -0.10988642
0003e0 a4 d5 8c bd 5a c1 28 3e b1 90 1c bd a4 0c 18 bd
       -0.06876686 0.16480008 -0.038223926 -0.03712143
0003f0 67 a6 e5 bc 8a fe 7d 3e 07 a8 86 3c 61 61 84 3e
       -0.028033448 0.2480413 0.016437544 0.25855544

encoder.4.bias f4 [50]
000000 e0 c1 24 b7 b6 e2 14 bc 4e 31 dc 3b 76 d4 10 3c
       -9.820302e-06 -0.009087255 0.0067197448 0.008839717
000010 34 a6 cf b9 e8 5d 24 bb 82 c6 31 bf e2 55 4d bb
       -0.00039605948 -0.0025080387 -0.69443524 -0.0031331708
000020 f6 9b 9e be b9 3b 82 bc 32 07 8c bb d9 8b 74 3c
       -0.30978364 -0.015897619 -0.0042733187 0.01492592
000030 97 44 eb ba 28 d4 e9 3a c3 10 97 be 9e 49 ed bc
       -0.0017949519 0.0017839717 -0.29504976 -0.028965767
000040 b6 d5 c9 3b f2 2f 56 bb 6b 19 80 bc 42 2e 20 bf
       0.0061595095 -0.0032682386 -0.01563712 -0.62570584
000050 64 a8 d3 bd 72 bf 2a bc 27 3d 87 be e4 17 50 bb
       -0.10334852 -0.010421621 -0.26413843 -0.0031752521
000060 cd 33 ad b9 ec b0 43 bb 07 a2 29 bc 8b 57 3c bc
       -0.00033035726 -0.0029860092 -0.010353572 -0.011495481
000070 95 24 29 3c 2c 68 49 bb c4 f4 06 bb 31 be 93 bc
       0.010323663 -0.0030732257 -0.002059267 -0.018035026
000080 13 60 36 3c 83 44 19 be 2e 2f 8d be 1e 84 3b be
       0.011131304 -0.14967541 -0.27575058 -0.18312117
000090 67 36 a9 be ed bc 44 bd 7a 43 20 bf 24 a6 d4 3a
       -0.33049318 -0.048031736 -0.6260296 0.001622383
0000a0 f9 7c b4 3b c4 21 2f be 88 8c 73 bc 1f 64 f7 bd
       0.005508062 -0.17102724 -0.014865048 -0.120796435
0000b0 83 68 36 be ec 0f f5 3b ab 7d af be 66 e3 aa bc
       -0.17813306 0.0074787047 -0.34275565 -0.020860385
0000c0 d0 7d 56 3a 0d 6c 06 3c
       0.00081821997 0.008204472

encoder.7.weight f4 [20, 50]
000000 72 6b 24 3e 4a 43 38 3e ff 4b a6 3c 97 7a 99 be
       0.16056612 0.17994419 0.02029991 -0.2997634
000010 05 48 15 3d 0b 30 66 3d 26 1b 9e bd 8b bd 4a 3f
       0.036445636 0.05619816 -0.07720022 0.7919547
000020 15 03 85 bd ff f1 d7 3e 6d 9d aa 3d 63 b3 a2 be
       -0.064947285 0.42176816 0.08330808 -0.31777486
000030 ab d4 c7 be f1 87 5c be cc 01 05 be 9c a3 b2 3e
       -0.3902944 -0.21536233 -0.12988967 0.3489045
000040 ec b1 d4 3c 01 12 07 3f 48 e3 5e be 5a cb 3e bd
       0.025963746 0.52761847 -0.21766388 -0.04658065
000050 1a fd 96 bd e0 0f da 3e 9d ae 1a be 57 9d 1c 3f
       -0.07372494 0.42590237 -0.15105672 0.6117758
000060 a6 e3 85 bd 13 9b 2e 3f ee 43 03 3f 1e 4c 31 3f
       -0.06537561 0.68205374 0.5127553 0.6925677
000070 76 ab 6c be 36 0b a1 ba e1 09 84 be 5d 1c 05 3f
       -0.23112282 -0.0012286666 -0.25788787 0.51996404
000080 48 77 0f be 74 cb 1e bc 28 ea b6 bd 63 21 63 bd
       -0.14010346 -0.009692062 -0.089313805 -0.055451762
000090 6b 7a 58 bd 75 7f 6d 3c 3a ac ca 3d 8e 8b 93 be
       -0.052851122 0.01449572 0.09896131 -0.2881741
0000a0 9c ee 3d be 82 19 c3 bd c5 cf 0b 3e 0b d4 30 3e
       -0.18548054 -0.095263496 0.13653477 0.17268388
0000b0 8d 49 04 3e 39 18 a5 be 77 9c b9 bd 52 69 09 3e
       0.12918682 -0.32245043 -0.090630464 0.13419083
0000c0 b4 f0 a5 be 98 f9 a1 be 44 e2 50 3b 7e 37 b7 3c
       -0.32410204 -0.31635737 0.0031873146 0.022365328
0000d0 2e 2c 85 bc 5b 82 5c 3c 1d f8 9f 3e 20 00 bd 3e
       -0.016256418 0.013458814 0.31243983 0.36914158
0000e0 97 9c 89 bc cd a0 7d 3e 87 7c 5c 3e 6f 16 a5 3e
       -0.0167983 0.24768372 0.21531878 0.32243678
0000f0 b2 f5 a8 3e 9a b5 7e 3a cc aa f5 bb d5 ea ab bc
       0.3299995 0.0009716392 -0.007497167 -0.020986
000100 74 ff 69 3e 05 17 74 3d bd 0c ca bc 8b 00 98 3e
       0.22851354 0.059592266 -0.024664277 0.29687914
000110 24 23 3b 3c 31 9f 02 3e d1 2c 92 3d b4 9f fc 3d
       0.011421952 0.12756039 0.07137454 0.123351485
000120 5f 5c 91 bc c0 e4 97 3e 0d 32 a9 3d da 5b aa 3d
       -0.017744241 0.2966671 0.082614996 0.083183005
000130 bc e3 7c 3e e0 02 15 3e ca bd 0e 3c 16 ba b9 3e
       0.24696249 0.14551878 0.008712241 0.36274785
000140 37 3b d4 bb b0 3c 04 3d 67 bf 60 3c ae 72 57 bd
       -0.0064767855 0.03228444 0.013717509 -0.0525996
000150 a5 df 75 3e 1b cb 3c bd 70 07 3e 3e 74 bb be 3c
       0.24011095 -0.046092134 0.18557525 0.023282744
000160 63 9d 1e 3e 7f b5 26 bc ce eb 6a 3c ab 0c 9b 3d
       0.15489726 -0.010175108 0.014338447 0.075707756
000170 41 ac 46 bc 7f 8b b1 3e 57 25 0b bd 34 58 ba 3b
       -0.0121260295 0.3467674 -0.033971157 0.005686784
000180 da 33 6c 3e 24 a6 ea 3c b1 d0 33 bc 31 c3 0e 3c
       0.23066655 0.028643675 -0.010975049 0.008713529
000190 0f 9c 00 3f 1f 26 79 3e ac 4f b8 be a9 df ac 3e
       0.50238127 0.24330948 -0.35998285 0.3376439
0001a0 2e d7 3d be 80 da 9a be 48 73 7a be 77 1c b5 bd
       -0.18539116 -0.30244827 -0.24458039 -0.0884332
0001b0 de 9a 44 be 66 46 7d be 3e a4 d6 be d1 0a 1d 3a
       -0.19199702 -0.24733886 -0.41922182 0.00059906865
0001c0 fd 5f b6 3b 5e c5 b3 bd 9c af e8 3c d8 66 66 be
       0.005565642 -0.08777879 0.02840405 -0.2250017
0001d0 65 d2 90 be fa f8 2d be 7b 55 51 3d ca 28 27 be
       -0.28285518 -0.16989508 0.05110691 -0.16324154
0001e0 85 57 8f be 35 0f c9 bd 5a 52 0e bf d7 21 29 be
       -0.2799646 -0.09817354 -0.5559441 -0.16516815
0001f0 cb e3 b0 bd 84 fa 65 bd d0 cc 9a bc 21 1b 2c be
       -0.08637198 -0.056147113 -0.01889649 -0.16807224
000200 6d 8c ab 3e 52 9b 30 be 42 51 84 3c 1a 92 f9 bd
       0.33505574 -0.1724675 0.016152028 -0.1218607
000210 5f 73 e8 3d 1d 27 e5 3d 49 dc 75 be ba 49 aa 3c
       0.1135013 0.11189101 -0.24009813 0.020787109
000220 2b 04 aa be 48 4b 94 3d 24 23 59 be 9e b7 5e 3c
       -0.33206305 0.07240921 -0.21204811 0.013593582
000230 67 23 d1 3e 4a a7 69 3d dc fd 99 be d7 99 ec be
       0.40847322 0.057044305 -0.30076492 -0.4621112
000240 a1 41 02 3e 39 40 d4 3d c2 39 26 3c bd 85 03 3f
       0.12720348 0.10363812 0.0101456065 0.51375943
000250 70 e4 4f 3c 11 9c 83 3e 10 03 bd 3c 7c 5e b8 3d
       0.012688741 0.25705007 0.02307275 0.090023965
000260 bf 2a fc bd 28 45 30 3c 73 21 ff ba 5b e1 07 bd
       -0.12312841 0.010758676 -0.0019464925 -0.0331739
000270 cf 4f 81 bd ed 8b 2a 3e 16 26 1a be 86 8c 05 3f
       -0.063140504 0.1665494 -0.15053591 0.52167547
000280 9d f8 49 3d b7 2b d6 3b ab 9a 51 3e fc f8 93 3e
       0.04930936 0.006535973 0.20469157 0.28900898
000290 a5 74 1c 3d 2b 67 42 bd d8 72 a5 bd 50 6d 45 3e
       0.03819718 -0.04746167 -0.08078545 0.1927998
0002a0 d0 b0 99 3e 61 6f 51 be d6 62 6e bb 33 60 5a 3e
       0.3001771 -0.20452644 -0.0036374829 0.2132576
0002b0 9e b0 9a 3e be e2 5f 3e 4f 25 40 3e cb a1 8e 3e
       0.30212873 0.21863839 0.18764232 0.27857813
0002c0 fc ac a9 3e 11 64 66 3e 06 e9 a6 3b e0 f8 df 3c
       0.3313979 0.2249911 0.0050936965 0.027340353
0002d0 6d 70 a1 3e f0 3b 1a 3d 35 df fc 3b b4 56 ed 3c
       0.31531087 0.037654817 0.007717038 0.028972007
0002e0 57 6d ae 3e 27 5f 8c bd ec 73 3e bd 0f d4 e0 3e
       0.34067795 -0.06854086 -0.04649727 0.43911788
0002f0 58 d0 79 bd 80 db f1 3d 56 75 c9 3b cb aa 59 bd
       -0.060989708 0.118094444 0.0061480207 -0.053141396
000300 f5 49 c4 3c c6 43 e8 3e a2 e7 06 3e 41 4e d3 3b
       0.023961047 0.45364207 0.13174298 0.0064485376
000310 bd 76 b9 bd 8e 30 df 3c 36 bd ef 3d 7e 05 2c 3c
       -0.09055851 0.027244832 0.11706011 0.010499356
000320 2b 26 9c be f7 cb 03 3d 8e 63 01 be 8b 73 89 be
       -0.3049787 0.032176938 -0.12635633 -0.26845965
000330 e1 0e ea bc 0a ee ff bd cd ca 03 be 0e 42 54 bd
       -0.028571548 -0.12496574 -0.12870331 -0.051820807
000340 66 81 6b be 5b 11 7c 3d 40 fc 08 3d 2a 53 68 bc
       -0.2299858 0.06153999 0.03344369 -0.014179984
000350 68 8f 87 3e 57 78 a5 3e 9c ed 99 3b fe 01 3a be
       0.26476598 0.32318375 0.0046975147 -0.18164822
000360 7d 0e 01 be 0b e8 18 bc 30 cc 3b 3e 71 32 60 be
       -0.12603183 -0.009332667 0.1833961 -0.21894242
000370 f6 56 7c bc 8c d4 29 be 06 fc c7 3e e3 88 27 bb
       -0.0154015925 -0.16584986 0.39059466 -0.0025563769
000380 03 4f c9 3e 15 3d 25 bd 1b 2f 03 bd e9 b5 ce 3b
       0.39318094 -0.040341455 -0.032027345 0.0063083065
000390 2d 12 d9 bd 7c 3a 18 3d f3 a4 51 3e bf e6 f4 bd
       -0.1059917 0.03716515 0.2047308 -0.11958074
0003a0 82 00 86 bd 75 28 66 bd 54 c3 a3 3d dd 9d 11 bd
       -0.065430656 -0.056190927 0.0799624 -0.03555094
0003b0 55 5e ba bd 1c 9a b4 3e f1 22 52 bd 3f d9 80 3e
       -0.09100024 0.35273826 -0.051302854 0.25165746
0003c0 f0 46 2d be 17 37 03 3e b6 96 4c 3e 7d 35 67 3e
       -0.16921592 0.12813984 0.19979367 0.22578998
0003d0 58 5b 67 3d fc 47 05 be ef 4c 5b 3d 96 b4 8b be
       0.056483597 -0.13015741 0.053540166 -0.27286214
0003e0 e9 f9 91 3e ca 72 2a be 21 8f 92 be 20 c7 99 be
       0.2851098 -0.16645351 -0.28624824 -0.30034733
0003f0 f2 75 17 3e 76 dd 83 be eb 0c e7 3e ea 6e a0 3e
       0.14791086 -0.257549 0.45127043 0.3133462

encoder.7.bias f4 [20]
000000 9a 07 ec 3a 2e 08 30 bb 20 7f ab bb 74 94 75 ba
       0.0018007637 -0.0026860344 -0.0052336603 -0.00093681295
000010 6c 6f c5 3a 5a 3f 10 3c d8 54 d2 be 0e 6c 94 bf
       0.0015063114 0.008804167 -0.41080356 -1.1595476
000020 5d a7 ef 3b 98 c6 ca bb 0d 2e 53 be f0 9e 84 3b
       0.0073136524 -0.006188225 -0.20623036 0.004047267
000030 4d 00 cf be 9c 30 e6 3a d3 9a 5f ba b6 ea ef ba
       -0.40429917 0.0017562094 -0.00085298455 -0.0018304202
000040 5c b2 22 bb ba c4 d1 3a 3e 20 90 39 67 4f fb be
       -0.0024825549 0.0016004064 0.00027489843 -0.49084017

encoder.10.weight f4 [4, 20]
000000 7a 6c 57 3f ef b7 72 3e 96 79 4a bf 43 06 8a be
       0.841499 0.23702978 -0.79091775 -0.26957902
000010 2f 47 ee be f2 8b cd 3e ae 3b 3d 3f 84 1d ab 3f
       -0.46538684 0.40145832 0.7391919 1.3368382
000020 7b c9 3c 3f 45 19 0e bf be 27 38 be fa 4f b7 3e
       0.73744935 -0.5550731 -0.1798391 0.35803205
000030 8c e0 bb 3e fd 01 7d 3f 54 b7 f2 be 2b b2 81 3f
       0.36694753 0.9883116 -0.47405493 1.0132498
000040 34 d8 72 be 83 fd 98 be 7e 62 c1 be d1 81 76 3f
       -0.23715287 -0.29880914 -0.37770456 0.96291834
000050 29 ed d8 be 96 db 40 bf 9b 39 23 bf e7 d2 24 bc
       -0.4236844 -0.7533506 -0.63759774 -0.010060049
000060 dc 8f 3f 3f 83 36 ff be 7d cd b9 bc 4d 8c 11 3f
       0.74828887 -0.49846277 -0.022680992 0.56854707
000070 ce ce bd be 06 f8 f8 be d1 e9 e3 bd ea 21 09 bf
       -0.37071842 -0.48626727 -0.11128581 -0.53567374
000080 5e eb c3 bd 66 ad e7 be 8a 30 45 3f 40 74 ee be
       -0.09566377 -0.4524948 0.7702719 -0.46573067
000090 b4 91 0d be 39 bc 9a 3e 32 63 0f 3f c7 d3 38 3d
       -0.13825113 0.30221727 0.56010735 0.04512384
0000a0 87 4e 4c bf 46 93 00 3e 86 7f 00 3f 33 8c aa bd
       -0.79807323 0.1255618 0.50194585 -0.08327522
0000b0 06 0a 1f 3f ee c9 21 3f e0 79 6e 3e 4c e7 99 bc
       0.6212467 0.63198745 0.23288679 -0.018787049
0000c0 81 34 3d bf 40 a2 d8 3e fd df 42 be c8 0b 02 3f
       -0.7390824 0.42311287 -0.19030757 0.50799227
0000d0 92 08 c2 3e b4 55 6d bf df 71 25 3f 65 92 72 bf
       0.37897164 -0.927089 0.6462688 -0.9475463
0000e0 fc 5a 25 be 10 51 48 3e 5c ff e6 3e f1 10 45 bd
       -0.16147989 0.19562173 0.451167 -0.04811186
0000f0 78 6c 0f 3f 62 93 6e be 60 34 07 3f e5 2c fe be
       0.56024885 -0.2329841 0.5281429 -0.49643627
000100 88 83 da be e0 9f c6 3a b6 fd 3a be 46 70 ed be
       -0.42678475 0.0015153848 -0.18260846 -0.4637472
000110 0b c5 e9 3e 26 df b9 3e 40 77 13 be 0b e5 3f bd
       0.45658144 0.3630306 -0.14400959 -0.04684929
000120 57 65 ac be f2 92 2e 3f de 61 de be ec e6 31 3f
       -0.33671066 0.6819297 -0.43434042 0.69492984
000130 bc 35 f7 be 8c 17 c3 be 5e 6d c9 be d9 68 92 be
       -0.48283184 -0.38103902 -0.39341253 -0.28595617

encoder.10.bias f4 [4]
000000 83 fb 7b be 1d 07 81 be 94 b0 90 3e 83 bf 96 3e
       -0.24607663 -0.2520074 0.28259718 0.29442987

decoder.0.weight f4 [20, 4]
000000 8b ce 66 be 4e 49 fb 3e 2a b8 45 3f 70 11 cf 3f
       -0.22539727 0.49079365 0.7723414 1.6177197
000010 9d 4f 0a 3f 7c 5d b1 be 29 49 25 bf 94 de 1c 3f
       0.5402773 -0.34641635 -0.6456476 0.6127713
000020 f0 6e 9a be dc b3 2b bd 87 de 67 3f b7 44 fe 3e
       -0.30162764 -0.041919574 0.90573925 0.496618
000030 79 95 93 bd c0 e6 81 bf 0e 9d 6f bf 19 29 4f 3f
       -0.07206244 -1.0148544 -0.9359902 0.80922085
000040 88 db 1e 3d 59 b5 92 3e 84 70 02 3f 60 e3 5c 3f
       0.03878358 0.28653982 0.50952935 0.86284447
000050 a4 91 2a 3f 2d 9a 0d bf 45 f4 ac 3e cd 53 71 bf
       0.6662848 -0.5531338 0.33780113 -0.94268495
000060 1e eb ab 3f 5d 83 dd bd 2c e3 14 3f 27 55 41 bf
       1.3431127 -0.10816071 0.58159137 -0.7552056
000070 84 56 ee 3e 9e 77 cb be 53 a2 13 bf d3 96 f0 be
       0.4655038 -0.39739698 -0.5766956 -0.4699007
000080 b2 6b 5e be 76 5d 3f 3f 22 7e b9 be 9e dd 18 bf
       -0.2172077 0.74751985 -0.36229044 -0.5971316
000090 08 bc 82 3e ee 48 0c 3f db 76 6b 3e 92 c8 01 bf
       0.2553408 0.5479878 0.22994559 -0.5069667
0000a0 6a 96 24 be 7f 4f 92 3e ee da bd 3e 9b 8f 4c be
       -0.16073003 0.28576276 0.37081093 -0.19976656
0000b0 53 45 d3 bf b5 6b 3f 3f ed 41 38 bf 50 29 45 3f
       -1.6505531 0.7477372 -0.71975595 0.7701616
0000c0 1c 14 38 3d df 4f 82 bf 1d 3e 02 bf b2 3b d2 3e
       0.044941053 -1.0180625 -0.5087603 0.4106117
0000d0 fc f5 00 3f a6 a1 dd 3e b4 47 e7 3d 09 46 8b 3c
       0.5037534 0.4328739 0.11292973 0.017001169
0000e0 26 c0 09 3c 02 29 b9 be 84 94 e0 be 1f 69 38 be
       0.008407628 -0.361641 -0.43863308 -0.1800885
0000f0 8d 0e e7 3e 34 cb 05 bf f0 c5 18 3f cb ec 06 bf
       0.4512829 -0.5226319 0.5967703 -0.5270507
000100 a9 f1 8c bf 46 28 70 be f9 b1 67 3e 49 ad f7 be
       -1.1011249 -0.23452863 0.22626485 -0.48374394
000110 f0 a5 8c bf 93 4d bc be d2 54 21 3f 5b 27 8f bd
       -1.098814 -0.36777934 0.6302005 -0.06989928
000120 e7 1d 0d bf 8b aa 2b 3f 7d 25 12 3d e7 db 18 be
       -0.5512375 0.670571 0.035680283 -0.14927636
000130 f6 03 81 3e 81 24 a9 be 60 56 87 bd ec d7 a5 be
       0.25198334 -0.33035663 -0.066082716 -0.32391298

decoder.0.bias f4 [20]
000000 af a5 37 bf b6 70 ac 3d 0e c3 9f be ed b4 98 3d
       -0.7173719 0.084199354 -0.31203502 0.07456384
000010 e6 93 70 be 19 fa 52 3e 7d a8 08 3e 4b 78 a4 3e
       -0.23493919 0.20603217 0.13345523 0.32123026
000020 03 82 1a be 8d d4 f2 3e f7 aa 44 3e 3c ac 4c be
       -0.15088658 0.47427788 0.19205843 -0.19987577
000030 4d 24 49 bd 03 c5 d3 be d4 f8 f2 be 8c fd 76 bd
       -0.049106885 -0.41361246 -0.47455466 -0.060300395
000040 cd c0 59 be 59 6d 86 be 53 13 90 3e c2 57 26 3e
       -0.21264954 -0.262553 0.28139743 0.16244414

decoder.2.weight f4 [50, 20]
000000 b4 39 a9 3e 1a 40 d7 be b3 8c 51 be 1e 3f 96 be
       0.33051836 -0.42041093 -0.20463829 -0.2934503
000010 d6 34 c1 3c 29 de 2d 3e f5 0f 28 3d 44 6a 15 3e
       0.023584764 0.16979279 0.041030843 0.14591318
000020 fc 48 43 3e 47 b5 5a 3e b7 bd d3 3c 31 fd 8c 3d
       0.1907081 0.21358214 0.025847299 0.0688423
000030 29 60 5c be 31 65 b0 3d b0 80 5c 3e 86 e8 ba 3e
       -0.21521057 0.08613051 0.21533465 0.36505526
000040 59 67 e6 3d af fc 37 3e 40 55 bf 3d d1 38 0d be
       0.11250181 0.17967485 0.09342432 -0.13791205
000050 b8 87 0b be 9e e1 64 bd fb 68 0f bc 13 15 99 3d
       -0.13625991 -0.055879228 -0.008753057 0.07474723
000060 10 08 11 be 99 8e 20 be c7 32 5f 3e f8 d1 98 3c
       -0.14163232 -0.15679397 0.21796714 0.018654808
000070 47 5b 57 be 59 da 19 be 94 26 d0 3d 7c 52 9e 3d
       -0.21030913 -0.150247 0.10163608 0.077305764
000080 ae aa e4 3d 0a b5 1b be 1b 4e b0 bd 39 86 3e 3d
       0.11165367 -0.1520578 -0.086086474 0.046514723
000090 9d 3c 63 3c 2f 7a 61 3e 81 d1 59 be a0 4a 22 3e
       0.013869432 0.22019266 -0.21271326 0.1584878
0000a0 4d 16 0d be 8f ea 3b 3e 96 06 3a 3e b7 07 ea bc
       -0.13778038 0.18351196 0.18166575 -0.028568132
0000b0 5c 91 fa bb 3f d5 2f 3e 9b a4 0f 3e cd fc 08 bd
       -0.0076467227 0.1717119 0.14027636 -0.033444215
0000c0 01 4f cf bd 65 f1 0c 3e d1 21 23 bd 09 59 34 bd
       -0.10122491 0.1376396 -0.03982717 -0.044030223
0000d0 b9 fd 02 3e 75 3f 4b 3d 8a 3d a0 bd 79 a9 3b 3e
       0.127921 0.049621064 -0.07824238 0.18326367
0000e0 12 37 4c 3c b6 f2 f0 bd 49 fb 55 bd 8e 4f 5c 3d
       0.012464302 -0.117650434 -0.052241597 0.053786807
0000f0 dc 90 ca bd ea 5c 09 3e 97 b8 85 bd e5 4e a6 bd
       -0.09890911 0.1341435 -0.06529348 -0.08120517
000100 78 36 71 be 88 e8 8f bc 23 71 26 3e a0 6d 87 3e
       -0.23555934 -0.017566934 0.16254096 0.26450825
000110 3a a9 1e 3d c1 26 8f 3c 8e 09 0d bd 56 8a 25 3e
       0.038735606 0.017474534 -0.03443294 0.16166052
000120 d0 94 12 3d 6f b8 a7 bd c4 14 61 be d1 cd 6e 3d
       0.03578645 -0.08189475 -0.21980578 0.05830175
000130 af 51 e0 3d 0d fa 98 3b 4a b3 ae 3d 38 01 8c bd
       0.1095308 0.0046684803 0.085302904 -0.0683617
000140 04 65 ec be bc 10 97 be e2 0a 1a 3e 3f 35 ac 3d
       -0.4617082 -0.29504955 0.15043214 0.084085934
000150 bf 33 67 be 80 ba 0c bd b4 ed 84 3e e7 a9 5e be
       -0.22578333 -0.034357548 0.25962603 -0.217445
000160 2f 44 95 bd bb 6a 68 be 74 20 f2 bd 7d f1 6b 3e
       -0.072883956 -0.22696964 -0.11822596 0.23041339
000170 4b 8d 8c 3e 11 8b 0a be 3f 30 cd bd a8 d1 a0 3e
       0.27451548 -0.13529612 -0.10018968 0.31409955
000180 fd 4b 4f 3e 46 5f 1f 3e db c6 2f 3e 68 95 11 3e
       0.20243831 0.15563688 0.17165701 0.1421715
000190 a2 fd 17 3e ef 3b 73 3e b7 c1 86 3e ff 0d f7 bd
       0.14842847 0.23753332 0.26319668 -0.120632164
0001a0 d2 95 85 3e 26 e4 94 3e ce 31 81 3e 32 ed f5 be
       0.26090866 0.29080313 0.2523331 -0.48032528
0001b0 ac 49 21 3e 91 01 6e 3e 86 e9 df bd 55 9a 81 be
       0.1575076 0.23242785 -0.10933213 -0.25313058
0001c0 e0 a8 a1 bd f1 96 33 be 3a 3c 04 3e ce dd e7 3d
       -0.078935385 -0.17538048 0.129136 0.11321603
0001d0 dc 78 94 bb a8 67 d9 be 8e 97 b3 3d 18 f2 df 3c
       -0.004531009 -0.42461896 0.08769141 0.027337119
0001e0 8d ba 54 3e 1b c5 47 be 57 87 36 3d 7d f2 00 bd
       0.20774288 -0.19508784 0.044562664 -0.031481255
0001f0 19 00 fc 3d 61 da 51 3e ad 06 3d 3c bf a5 ac bd
       0.12304706 0.20493461 0.011537236 -0.08430051
000200 ce 43 d7 bd 71 99 62 3e d5 6e 67 bd a6 67 08 3e
       -0.105109796 0.22128846 -0.056502182 0.13320789
000210 67 ef c3 bd e5 5b 63 be ca 82 53 be e0 ec 03 3e
       -0.09567147 -0.22203024 -0.20655361 0.1288333
000220 21 71 51 be cc 0e 47 bd 27 df 3f bc 7a 48 f5 bd
       -0.20453312 -0.048598096 -0.0117109185 -0.119767144
000230 1a bc db bd af a0 aa bd e3 0f d7 bd d2 5d 0a bd
       -0.10729237 -0.08331429 -0.10501077 -0.03378088
000240 d0 98 25 be e3 3f 1c 3b cf 7b 73 3e d3 8a 6a 3d
       -0.16171575 0.002384179 0.23777698 0.0572613
000250 65 aa 23 3e d4 26 18 3e ce bf 4a bd 1d b9 19 3e
       0.15982969 0.14858562 -0.049499325 0.15012021
000260 71 44 85 3d b4 58 28 be 69 87 13 be 2c 21 53 bc
       0.06507195 -0.16440088 -0.14407124 -0.012886327
000270 3f 52 ea 3d 62 ec a1 3d 24 e2 86 be 10 64 ae bc
       0.114414684 0.079064146 -0.26344407 -0.021287948
000280 1c 3b db 3e 89 a3 87 3e 2c 5e 8a 3e 19 65 71 be
       0.42818534 0.26491955 0.27024972 -0.23573722
000290 07 a5 b3 3e 02 7e b8 3d 8f ba 84 3e 57 27 9d be
       0.35086843 0.09008409 0.25923583 -0.30694076
0002a0 7c 9f a5 3d 35 b4 f2 3d 49 b9 1a 3e 54 77 66 3d
       0.0808706 0.11850778 0.15109743 0.056266144
0002b0 f2 8e 82 bd 6e 73 a7 3c e2 1e 25 be 5e 6a 96 be
       -0.06374921 0.020440783 -0.16125062 -0.29378027
0002c0 72 19 15 be 0b 66 99 bd 97 8a 37 3d 1d 9c 8d 3d
       -0.14560488 -0.07490166 0.044809904 0.06914542
0002d0 ff ad 55 3e c2 39 9e bc 7d b5 6a 3e c9 88 da 3d
       0.20867155 -0.01931465 0.22920795 0.10670621
0002e0 2e 25 b7 bc a7 36 85 be a9 bf e5 bd d9 de e2 bd
       -0.022356596 -0.2601826 -0.11218197 -0.11077661
0002f0 6b 73 fa bd 9b 56 df 3d 00 6c 17 3e 65 12 48 3e
       -0.122290455 0.109051906 0.14787292 0.19538267
000300 27 15 31 bd ff 09 ea bd 94 ea e2 3d b2 97 81 be
       -0.043233063 -0.11427688 0.110798985 -0.25311047
000310 2a a5 46 be 88 6c 12 3e ab 92 3c 3e 0a 87 13 3e
       -0.19398943 0.14299214 0.18415324 0.14406982
000320 de da 6e bd 56 b9 2f 3e 93 8b a5 bd 16 fa 1f bd
       -0.058314197 0.17160544 -0.08083262 -0.03905686
000330 83 30 4c 3e 24 cc 4f 3e 4b f4 76 3e 3f 55 0c 3e
       0.19940381 0.20292717 0.24116628 0.13704394
000340 9a e4 21 3e b0 7f 67 bd ee b0 8e 3d c0 f0 a8 3d
       0.15809861 -0.056518257 0.069673404 0.082490444
000350 3e f7 1f be 7b dd 0e bd 36 6f 94 3d c2 c9 42 be
       -0.15621659 -0.03487919 0.07247774 -0.19022277
000360 b4 c5 7d 3e d4 fb 24 be 92 36 68 3e 36 b9 09 bd
       0.24782449 -0.1611169 0.22677067 -0.033623897
000370 96 c6 40 3e a3 26 9a 3d 5b d7 48 3d fb 5d 19 3e
       0.18825755 0.075269006 0.049033504 0.14977257
000380 80 12 d6 bd 7e fe 23 be 58 66 6a be 0e 26 2f 3e
       -0.10452747 -0.1601505 -0.22890604 0.1710436
000390 dd 53 a7 bd 95 59 36 be b8 76 77 be 9e e8 5e be
       -0.081702925 -0.1780761 -0.24166381 -0.21768424
0003a0 4e b6 f0 3c 8e 2d bd bd 3c 02 7c bd 31 07 62 be
       0.029383805 -0.092372045 -0.06152557 -0.22073056
0003b0 d3 c3 11 be 51 a2 4b 3d f5 9f 3f bd e8 65 a9 3d
       -0.14234857 0.049715344 -0.046783406 0.0827139
0003c0 9a c4 83 bc c9 b9 7e 3e a7 6e 15 bd 38 18 b7 3e
       -0.016084958 0.24875559 -0.03648248 0.35760665
0003d0 69 bf 98 3b d6 d1 48 bd e0 e7 8a bc 66 0f 9f 3b
       0.0046614897 -0.04902824 -0.01695627 0.0048541306
0003e0 17 51 36 3e 1e 89 74 3e 87 26 20 3e d3 bf aa be
       0.17804371 0.23880431 0.15639697 -0.33349475
0003f0 40 93 a7 3e 4c 1f dd bd af 48 fb 3d e4 b0 48 3d
       0.3272953 -0.10796985 0.12269723 0.04899682

decoder.2.bias f4 [50]
000000 db ac 82 3e 32 d1 b4 bd 5f 60 09 3d f1 2a 00 3e
       0.25522503 -0.08828963 0.033539172 0.12516381
000010 aa fe a7 3d fd 9d 33 3e 3a 74 ff bd a2 04 2b 3e
       0.0820287 0.17540736 -0.1247334 0.16700986
000020 84 87 30 3e 9c 70 4e be 10 6d 81 3d 64 c5 f7 bd
       0.17239195 -0.20160145 0.0631963 -0.12098196
000030 5d 2e 1f be ab 3d 88 be d5 22 30 be 67 6a b4 bd
       -0.1554503 -0.2660955 -0.17200787 -0.08809357
000040 9c cd a7 be 51 27 22 3d 30 4c 9e bd af fc c3 bd
       -0.32774055 0.039588276 -0.07729375 -0.0956968
000050 ed a6 21 3e 60 a7 52 3c c6 dc bb bd 7b e5 67 bb
       0.15786333 0.012857288 -0.091729686 -0.0035384584
000060 81 b5 4d 3e a0 46 e5 3d c4 0f 4f be ed 2c 75 be
       0.2008877 0.11195111 -0.20220858 -0.23942919
000070 1c 5d 19 3e ef 6e 02 be 53 b8 48 be 24 ab 31 3d
       0.14976925 -0.1273763 -0.19601564 0.043376103
000080 6e 31 a7 3d ed 79 8d 3c 10 da 46 be bf 6b 83 bd
       0.08163725 0.017270053 -0.19419122 -0.06417035
000090 74 db a9 be 75 9d be 3b f8 b6 f1 3d 1b 9e 12 be
       -0.33175242 0.00581711 0.11802477 -0.14318125
0000a0 8d 81 10 be 55 ba aa bd 35 7f 04 be 3f a0 48 be
       -0.1411192 -0.08336321 -0.1293915 -0.19592379
0000b0 a4 b0 cf 3e 29 d7 db 3d c3 f6 73 3d 0f dc f3 bd
       0.40564454 0.10734398 0.059561502 -0.11907207
0000c0 40 aa c9 bd dd 53 1f be
       -0.09846926 -0.15559335

decoder.4.weight f4 [50, 50]
000000 33 05 35 3d 7a 4d 07 be 39 64 a3 bd 1f 4f 67 bd
       0.04419441 -0.13213149 -0.079781 -0.05647194
000010 c5 ab 93 3c 90 96 58 bd 29 b0 c9 bd 2c 4a 0f bd
       0.018026242 -0.052877963 -0.09848053 -0.034982845
000020 69 30 80 bd ff 0e c7 3c df 2f 8b 3d f2 be 03 3c
       -0.062592335 0.024299143 0.0679624 0.00804113
000030 2d 93 d6 bd fa 50 d5 bd 05 69 fe 3d 4b b5 81 bd
       -0.1047729 -0.10415836 0.12422375 -0.06333407
000040 f6 ea 38 3c f5 4f a1 bd 92 63 0e 3c 63 4d ab bc
       0.011286488 -0.07876579 0.008690732 -0.020910924
000050 5d 1b d0 bd 9b 18 ad bd f0 19 d2 bd 08 23 c0 3d
       -0.10161469 -0.08451959 -0.102588534 0.09381682
000060 bc b4 af bd 82 a7 09 3e c7 e6 0c be 23 bd 77 bd
       -0.08579394 0.13442805 -0.1375991 -0.06048311
000070 9b ea f2 bd 91 a8 e2 bd 5c 76 00 3e f9 9f ce 3d
       -0.11861154 -0.11067308 0.1254515 0.10089106
000080 b0 8e 22 3d ac 9c 1c bb b5 e6 05 be f9 b6 e4 bd
       0.03968686 -0.0023897095 -0.13076289 -0.11167712
000090 93 3d ec 3c a8 3d 67 bd 57 c5 0b be b9 60 19 3d
       0.028837955 -0.056455284 -0.13649498 0.037445758
0000a0 de 2a bb 3c c1 11 af bd d2 d9 91 3c 13 28 9a bd
       0.02284759 -0.08548308 0.01780406 -0.07527175
0000b0 6b 9d a6 bd d3 6f 04 3e ad 23 f6 3d 78 f6 05 bc
       -0.08135494 0.12933283 0.12018523 -0.0081764385
0000c0 53 46 9e bd 0d a9 b7 bd 81 17 1b be c4 46 d3 bd
       -0.07728257 -0.08967791 -0.15145685 -0.10316232
0000d0 e5 e6 29 3d af 6d bc bb 20 3b 41 bd 27 de 39 3e
       0.041479964 -0.00575038 -0.047175527 0.1815115
0000e0 25 1a 10 3c 9b bd 65 bd 01 70 37 3e 59 f0 00 3d
       0.008795296 -0.056089025 0.1791382 0.031479213
0000f0 55 a1 05 3e 44 d8 d3 3d c1 f9 10 3e 43 46 fc 3d
       0.13049825 0.10343984 0.14157774 0.12318089
000100 c8 3d bf be 07 dc 43 bd f4 da 6b 3e 1b 17 64 3c
       -0.37351823 -0.047817256 0.23032743 0.013921524
000110 cf 3c a3 3d 25 1e 97 3c 21 49 10 be aa df f5 3d
       0.07970583 0.018446991 -0.14090396 0.12005551
000120 8a 84 3c bc cf cd d5 3d 61 9e c0 3d f8 8b 6a 3e
       -0.011506209 0.104396455 0.094052084 0.22904956
000130 e8 d2 2b 3e 8e 1d 08 be d6 44 82 3e 6e 6b 99 bc
       0.16779673 -0.13292524 0.25443143 -0.018727984
000140 59 83 08 be 5d 85 d5 bd 26 11 c7 bd c5 fe fe 3d
       -0.13331355 -0.10425828 -0.09720068 0.12450937
000150 cb 16 2d 3e 93 a6 03 bc 1f c3 0e 3d 73 49 0c 3e
       0.16903226 -0.00803532 0.03485405 0.13699894
000160 ae 3d 08 be cc b5 0f 3e 3c f9 15 be 6b 53 4a be
       -0.13304779 0.14034194 -0.14645857 -0.19758384
000170 c8 9a 75 bd a0 b8 f9 3d d2 9d 60 3e 83 a7 40 bd
       -0.059962064 0.121934175 0.21935204 -0.04703475
000180 86 c7 1c bd af 12 d4 3d d1 f9 16 bd 35 ca 8e 3e
       -0.038276218 0.10355126 -0.036859337 0.27888647
000190 27 dc 8e 3e 43 a9 2b be 02 a6 a4 bd 93 52 ca bd
       0.27902338 -0.16763787 -0.08039476 -0.09879031
0001a0 68 a7 fb 3d 2e 65 5c 3d ce 89 e4 bd c2 ef 9b bd
       0.122877896 0.05380743 -0.11159097 -0.076140895
0001b0 92 b3 49 3d 07 fd 80 bd dc cd a7 bd bf 0f 04 3d
       0.049243517 -0.06298261 -0.081935614 0.03224158
0001c0 72 e2 44 be 3e 63 20 3d d4 72 78 3e fe 36 24 bd
       -0.19227007 0.039157145 0.24262553 -0.040091507
0001d0 06 e6 aa 3d 82 3d cf bd 72 e5 e4 bb c7 4e 81 bd
       0.08344655 -0.101191536 -0.00698536 -0.06313854
0001e0 cc f3 94 3d 19 f0 79 bd 1f 54 cf bd 61 37 92 bd
       0.07273063 -0.06101999 -0.10123467 -0.07139469
0001f0 1c 9f 0d 3d 51 ec ba bc 2e 1d d8 3c c6 b6 6a bd
       0.034575567 -0.022817763 0.026381101 -0.057303213
000200 4c ea 84 bc b5 14 f8 bd 99 13 eb 3c 75 ee e0 bd
       -0.016225003 -0.121133246 0.028695868 -0.10982982
000210 bc 37 b1 3c 01 8e ff 3d 12 eb dd bd b0 e6 b7 3c
       0.021633022 0.12478257 -0.10835852 0.022448868
000220 6a b6 b7 3d d8 b4 02 3e 26 e9 f2 bd 11 e0 84 3c
       0.089703396 0.12764299 -0.11860876 0.016220124
000230 91 bc 1e 3d 3d 5c 56 3d 6c b3 cc 3d 7f 2b e2 3c
       0.03875405 0.05233406 0.099951595 0.027608631
000240 5a 46 93 3e 9f 83 f5 bd 51 bf 34 3d e6 a2 52 be
       0.2876461 -0.11987995 0.044127766 -0.20569953
000250 33 16 23 bc de e9 9c 3e 1c 16 98 bd b3 c8 e0 bd
       -0.009954023 0.30647177 -0.07426092 -0.1097578
000260 a7 e5 5b bd db 22 3a 3e a9 4b e8 bd ff d7 71 be
       -0.05368581 0.18177359 -0.11342556 -0.23617552
000270 78 48 de 3d 0b 38 9c bc e5 d5 3e 3c c7 0e ad 3d
       0.10853666 -0.019069692 0.011647676 0.08450084
000280 07 bd d7 3b d5 fa bd bd 51 7b 13 be c2 c3 ce 3e
       0.006583813 -0.09276358 -0.1440251 0.40383726
000290 2d 93 12 be 3b 89 80 be aa a9 28 bd fa 23 2a bd
       -0.14313956 -0.251047 -0.04117743 -0.041538216
0002a0 e1 8a b3 bb b4 89 fe 3d 21 50 b3 3e 44 c2 ba 3d
       -0.005479202 0.124286085 0.3502207 0.091190845
0002b0 0a 2e 5b bd 1a b8 87 3d 14 10 15 3e c8 79 18 bd
       -0.053510703 0.066269115 0.14556915 -0.037225515
0002c0 c1 ac 1c be 30 e3 04 3d ca 0d a7 3d fe ec 69 3d
       -0.15300275 0.032443225 0.08156927 0.05711078
0002d0 9c 4b f7 bd 3d 76 85 3e fa d0 ba bd 1f bc 4a bc
       -0.12074968 0.2606677 -0.0912189 -0.012373953
0002e0 ef a3 ce 3c 90 2d 80 bd d5 de 92 3e 95 ac 8a bb
       0.025224654 -0.0625869 0.28685632 -0.004231999
0002f0 ce 3e cd 3b 06 32 94 3d 73 dc c0 3d 57 1e a4 3e
       0.0062635904 0.07236104 0.09417047 0.32054397
000300 ca 3d 18 3d d2 08 d8 3d 73 32 68 3e da 90 83 3c
       0.0371683 0.10548557 0.22675495 0.016060282
000310 36 63 92 3e 4b 58 5d be 87 93 f1 3d 0a fc 8a be
       0.28591317 -0.21615712 0.11795717 -0.27145416
000320 5f 37 23 3e 59 f1 3c bd 7a 0a 07 3d 1c f7 88 ba
       0.15939091 -0.046128605 0.032968976 -0.0010449621
000330 ff ba 44 3d 51 ff 5c bd 35 7a ef 3c ab bf 3a 3d
       0.048029896 -0.053954426 0.029233078 0.045592945
000340 5b 7c b5 3b 59 a1 52 3e 95 a4 80 bd 9e 69 25 3e
       0.005538506 0.20569362 -0.062813915 0.16153571
000350 a0 72 03 be 54 6c 05 3f b0 ab 08 3e 56 7e fd bd
       -0.12836695 0.5211842 0.13346744 -0.12377612
000360 ad b7 9c 3e 8c 57 c5 bd 05 45 19 3e f2 60 84 3d
       0.30608884 -0.09635839 0.14967735 0.06463803
000370 e0 7f d1 3d b3 fe 91 3c 10 8f 80 ba 01 d2 9b bd
       0.10229468 0.017821645 -0.0009808261 -0.076084144
000380 ec 86 62 bd 12 a5 f1 3d 1a 1a 39 3d 1c c2 2c be
       -0.055304453 0.11799063 0.045190908 -0.16870922
000390 36 a4 90 bd 38 4d 67 be 32 1a fd 3d 58 bf a7 3c
       -0.07062571 -0.2258805 0.12358512 0.020476982
0003a0 28 c8 81 3c 4f a6 43 3e d2 27 40 3d f2 4d e8 3d
       0.015842512 0.1910641 0.046912976 0.11342992
0003b0 18 3a c6 3e 14 1f 01 be a6 13 c4 3d 9a 53 99 3e
       0.38716197 -0.12609512 0.0957406 0.29946595
0003c0 9e f3 91 bc e4 66 0f 3e 57 0b cf 3d 8a b9 aa 3d
       -0.017816361 0.14004093 0.10109585 0.0833617
0003d0 26 65 87 3e 67 1e 91 3d f0 1a 08 3d 97 da 87 3d
       0.26444358 0.07085877 0.033228815 0.066334896
0003e0 99 a9 2a 3e 88 03 e9 be b5 31 cf bc af fe c0 bc
       0.16666259 -0.45510507 -0.025292257 -0.023558943
0003f0 36 d8 bd 3d 24 b5 bb 3c d1 11 e8 3d 9b e1 be 3b
       0.092697546 0.022913523 0.11331523 0.005825234

decoder.4.bias f4 [50]
000000 e9 30 00 be bb 45 d2 3d 99 a1 9f 3e 99 52 11 bc
       -0.12518658 0.10267206 0.31177977 -0.0088697905
000010 b8 34 08 3e 3d 92 f8 bd 26 a1 8a be 13 d9 87 3d
       0.1330136 -0.12137268 -0.27076072 0.066332005
000020 bb f6 15 be bf 12 9a 3d 28 ae 08 be e7 d3 dc bd
       -0.14644901 0.07523107 -0.13347685 -0.10782605
000030 9b 69 17 be 6f 78 c4 ba cb 74 a8 3c d5 0e 2f be
       -0.14786379 -0.0014989505 0.020563504 -0.17095502
000040 b5 c0 d4 bc 6b c7 1c bc c5 d1 8d 3d e0 94 d4 bd
       -0.025970796 -0.009569029 0.06924776 -0.10379958
000050 35 5b cd bd e3 67 f4 3c 4a 8d 86 3e ea 7c c4 bc
       -0.10027162 0.029834693 0.2627967 -0.023985345
000060 58 ca a4 3d 5e a1 a3 bd 5f 62 98 bd a5 e8 7e bd
       0.080464065 -0.07989763 -0.07440638 -0.062233586
000070 f9 78 06 bd bb 3f 41 3e 94 96 3a 3d 20 12 17 3e
       -0.032830212 0.18871967 0.04555376 0.14753008
000080 14 7f 05 3c 6d 08 fc bc 8b 59 eb 3c 36 34 38 3d
       0.008147974 -0.030765736 0.02872922 0.044971667
000090 e9 af 06 3e 61 4e 02 3e 3c ce 0e 3e ad 37 8f ba
       0.13153042 0.12725212 0.1394586 -0.0010926627
0000a0 2b a6 28 bd b7 d2 a3 bc 11 74 31 3e d4 08 84 3d
       -0.041174095 -0.019997938 0.17329432 0.06446996
0000b0 3c 81 05 be d0 c8 8c bd fd 3f 25 3d fc 42 bd bd
       -0.1303758 -0.068742394 0.040344227 -0.09241292
0000c0 29 1c 63 3e 6d cc e1 bb
       0.22178711 -0.0068908245
