RiskViz Folder/model/checkpoint_800.tar (torch, 110796 bytes, 51 tensors)

encoder.1.weight f4 [50, 6]
000000 00 22 01 bf ff 21 dc bb b4 1a 81 3b 07 d0 72 3e
       -0.50442505 -0.00671792 0.003939951 0.23712169
000010 a1 6b a4 be 77 b5 e6 3d 86 8d 47 3b 30 38 47 b9
       -0.32113364 0.112650804 0.0030449345 -0.0001899905
000020 02 c2 fc 3a 4c 4c 16 40 48 da 00 3b b6 71 78 be
       0.0019283893 2.3484068 0.0019661356 -0.24262127
000030 f2 6f 3d be fa 57 6d be 7d 3f db 3b f7 ae 80 bd
       -0.18499735 -0.23178092 0.006690918 -0.06283372
000040 d4 83 a7 3e 36 41 bf be 37 69 46 3e 5c 22 67 bb
       0.32717764 -0.3735444 0.19376074 -0.0035268283
000050 ed d1 46 3b d9 22 f0 bd 54 61 78 3c a1 07 89 3f
       0.0030337528 -0.11725397 0.015159924 1.0705453
000060 ce ce f6 bc 35 59 19 be 91 f6 2e bc 90 dc 40 3f
       -0.030127909 -0.14975436 -0.010678903 0.7533655
000070 a6 26 6f 3e d0 c1 07 bf f6 0a 28 3f 96 8e ab 3c
       0.23354587 -0.5303011 0.65641725 0.020942014
000080 a6 77 1c bb fd 11 0e 3e c3 81 e5 3c 46 17 63 3f
       -0.0023875027 0.1387405 0.028015977 0.8870739
000090 23 a1 9c bd d2 c6 66 be cc 0d e7 bd 3a 18 7b be
       -0.07647922 -0.22536781 -0.112819284 -0.2452096
0000a0 98 f5 5b 3e ad e5 50 be ce 2f 22 bf 6d e2 d7 3d
       0.21480405 -0.20400114 -0.63354194 0.10541234
0000b0 7e a8 7a 3d 93 f1 d9 bc 09 a8 f7 bd 4a 5b 54 bd
       0.061195843 -0.02660445 -0.12092597 -0.051844873
0000c0 c8 ba 1f 3f cc 51 c8 bb ac c6 6a bb a3 b6 67 3f
       0.6239438 -0.0061132666 -0.0035823984 0.90513057
0000d0 3c e3 1f 3f 8c 1e 42 3d 00 29 a5 be 27 32 33 3c
       0.6245611 0.047392413 -0.32257843 0.01093725
0000e0 b8 7b 42 be ab 80 f8 ba 34 03 4c 3e cb 4e 38 3e
       -0.18992507 -0.0018959244 0.19923097 0.17998807
0000f0 0e 66 d9 be 79 55 6c 3b bc 88 64 bb 37 f9 73 bf
       -0.42460674 0.0036061688 -0.003487154 -0.95302147
000100 3f 5b 81 be c4 af fd 3d 82 8a 6e be 3d 93 36 be
       -0.25264928 0.1238704 -0.23295024 -0.17829604
000110 93 69 0c 3e f2 98 70 3e 19 71 bb 3b 14 9d 22 be
       0.13712148 0.23495844 0.0057202694 -0.15880233
000120 69 87 e5 bd b0 0d 23 bd f1 65 53 bd 0d ba 86 3f
       -0.11207468 -0.039807975 -0.05161089 1.0525528
000130 df 4b b5 bd 4c c1 ff 3e 78 d7 ed be 93 94 32 3c
       -0.08852362 0.4995216 -0.46453452 0.010899681
000140 d8 18 a2 ba 3a 75 44 bf 23 f3 81 be c4 14 f5 3d
       -0.0012367023 -0.76741374 -0.2538081 0.11966851
000150 b3 b6 ea bf fe 77 b1 bb 67 8a 0d 3b 77 02 9b 3e
       -1.8337005 -0.0054159155 0.0021597387 0.30275318
000160 1e 16 df be 61 96 2e 3f 6b 15 2d bf 64 dd 98 3b
       -0.43571562 0.6819821 -0.67610806 0.0046650637
000170 51 ba c0 3a f9 3e 01 be 25 f3 cb be 09 f4 fe bd
       0.0014703964 -0.12621678 -0.39833942 -0.1244889
000180 b2 31 82 be f4 63 8e 3e d0 0d 22 3e 6f 69 a6 3e
       -0.2542854 0.27810633 0.15825582 0.32502314
000190 07 67 9b be 38 25 cc be d6 86 70 bf 4f f2 98 bb
       -0.3035204 -0.39872146 -0.93955743 -0.0046675573
0001a0 b9 2b 1f bc 1c ba 49 bf 18 5d 2d 3f a6 49 07 3f
       -0.009715014 -0.78799605 0.67720175 0.52846754
0001b0 bc cd 1e 3b 2e d4 d3 bb 24 c2 3c 3a 31 7a 11 40
       0.0024231514 -0.006464503 0.000720056 2.273083
0001c0 41 95 4d 3c 4d d1 60 be db 84 af 3d 51 10 9d be
       0.012547792 -0.21954842 0.08570262 -0.3067651
0001d0 92 ad 5f be 9a 7a 44 be 84 8c 6c be 63 42 94 3d
       -0.21843556 -0.19187394 -0.23100477 0.07239225
0001e0 5d 5a bc bd 51 fd 6e 3a c5 78 a0 bb 66 63 2f bf
       -0.09196923 0.00091167266 -0.0048972094 -0.68511045
0001f0 d0 c5 3c 3f 8a 41 58 3d a7 39 b5 be db 95 87 be
       0.7373934 0.052796878 -0.35395548 -0.26481518
000200 3f 66 1d 3e 95 92 1d 3e 11 40 81 be 66 9d 03 be
       0.15371035 0.15387948 -0.2524419 -0.12853011
000210 a0 ec 10 c0 a1 fb 5b ba 55 dd aa 3b 20 b4 a2 be
       -2.2644424 -0.00083916826 0.005214373 -0.3177805
000220 87 b2 a5 be fe 17 44 3e 5d 6e a4 3e 30 5a b3 bd
       -0.32362768 0.19149777 0.3211545 -0.08757436
000230 4e 78 8b bd 82 fc 0f 3e 8a 99 6c 3d b6 c8 09 be
       -0.06810056 0.14061168 0.057763614 -0.13455471
000240 d5 a2 ae be 17 b7 6b be 35 14 78 3d 21 c0 43 bb
       -0.34108606 -0.23019062 0.060566146 -0.0029869156
000250 d0 fe e4 3e 7a 7a 35 bd 57 6a d2 bd b6 a2 c7 be
       0.44725657 -0.044306256 -0.10274189 -0.38991326
000260 19 18 bf be a5 9c 37 3e 62 a7 a5 3e 54 70 98 ba
       -0.37323073 0.17930849 0.32354265 -0.0011630156
000270 92 a0 0e c0 21 12 1f 3a 76 1d ef 39 a9 68 15 bf
       -2.2285504 0.000606807 0.00045607582 -0.58362824
000280 bb 88 0b be 13 17 ce 3d bd a8 00 c0 ef ff 0d b9
       -0.13626377 0.10062995 -2.010299 -0.0001354215
000290 9e 81 e3 38 9a dd 03 bf 33 57 02 be fe db e1 be
       0.000108483466 -0.5151001 -0.12728576 -0.44113153
0002a0 ac 05 49 3f 83 f0 8b bb 48 ff 1b bb 0f 2e 87 bf
       0.7852428 -0.0042706146 -0.0023803283 -1.0560931
0002b0 ab e5 2b 3f b4 44 85 3d eb dc 67 be e8 f8 d8 bc
       0.6714732 0.06507245 -0.22642867 -0.026485875
0002c0 02 00 94 be f1 40 9a bc c4 e5 68 3e 69 e8 3b be
       -0.28906256 -0.018829795 0.22743899 -0.18350376
0002d0 65 f0 3f 3f 72 3d 20 bc 41 81 90 3a 4f ef 02 3f
       0.7497619 -0.009780275 0.0011024849 0.51146406
0002e0 f8 bb a6 be 11 59 a5 be 05 cc 05 3d cc 94 7e bb
       -0.32565284 -0.32294515 0.03266527 -0.0038846014
0002f0 2f 03 48 bb 9e 91 bb bc c7 84 1e 3e 28 21 a0 3f
       -0.0030519476 -0.022896584 0.15480338 1.2510118
000300 5a 5f a0 3e c4 3a cc be a2 34 30 3d 61 29 a0 bc
       0.31322747 -0.39888585 0.043018945 -0.019550981
000310 29 7a e1 3d 30 27 cd bd 32 0d e5 3d a3 55 8d be
       0.11009628 -0.1001724 0.111841574 -0.27604398
000320 16 d6 53 3e 23 ec 19 3f 78 f5 82 bb 96 1d 87 be
       0.20687136 0.6012594 -0.0039965473 -0.2638976
000330 a9 67 24 bf 3e fa a9 ba a8 6f 0a 3a 8c 3b 75 3d
       -0.6422067 -0.0012968255 0.00052809203 0.05987124
000340 b5 c7 eb bc 0d 56 80 3f 5d f3 00 3c fa df 0e bc
       -0.028781751 1.0026261 0.007870522 -0.008720392
000350 8c 7a 08 3b 5f a8 ba 3f 2d 0e d9 3e 3e db 91 38
       0.0020824997 1.4582633 0.42393628 6.954976e-05
000360 0f fe 66 3e 9f 10 09 3e 10 ae 26 3d 28 70 f2 bd
       0.22557853 0.13385247 0.040693343 -0.11837798
000370 c1 ac 80 3d 24 36 ef 3c 24 4f b0 bb 54 45 6d 3b
       0.0628295 0.029200621 -0.005380528 0.0036204653
000380 1d 4c d8 b9 54 6d 32 bf e9 79 19 3d 70 e4 31 3f
       -0.0004125544 -0.6969807 0.03746978 0.6948919
000390 a7 e4 7b 3c 73 c1 65 bc a0 fa 14 bc 1c 45 21 be
       0.015374339 -0.014023173 -0.009092957 -0.1574902
0003a0 ba 4a 67 3e 7b a9 b0 3f a8 f8 86 3f e6 5e e5 bb
       0.225871 1.3801721 1.0544634 -0.006999838
0003b0 8a 4f b3 bb 10 d7 9b be 75 4f f7 bd 40 98 13 bf
       -0.0054721283 -0.30437517 -0.12075702 -0.5765419
0003c0 9d 0f 11 c0 4a 7e 2f bb 6b c3 66 bb 91 4d 45 bf
       -2.266578 -0.0026778155 -0.0035211693 -0.7707148
0003d0 88 1d 9c be b8 53 63 3e 05 af a3 3b 96 c9 e4 bb
       -0.3049128 0.22199905 0.004995229 -0.0069820387
0003e0 3a bd 9c bb b2 1a 10 40 dc db bc be 8a ac 40 be
       -0.0047832998 2.2516294 -0.3688649 -0.18815818
0003f0 21 25 11 bf e3 c4 5b 3a 02 ee 1b bc f3 d5 46 3e
       -0.5669728 0.00083835254 -0.009517195 0.19417553

encoder.1.bias f4 [50]
000000 77 38 79 3e 08 b3 5c 3b e7 79 01 bd 97 d2 1d be
       0.24337946 0.0033676047 -0.031610396 -0.15412365
000010 31 2b c1 bd ca 63 fe be 6c 61 01 be 10 cb 93 bd
       -0.09432066 -0.49685508 -0.1263482 -0.072164655
000020 2c 31 a3 be 34 60 aa be a7 68 32 3e 59 50 c9 be
       -0.31873453 -0.33276522 0.17422734 -0.39319113
000030 d1 de 54 bf a2 93 48 3e 85 e0 45 3c c6 05 ab 3e
       -0.8315249 0.19587567 0.012077455 0.33402842
000040 7a c3 b8 be 9a 3d 9f 3c 43 3d 9e 3a 76 1f 89 be
       -0.36086637 0.019438554 0.0012072701 -0.26781815
000050 f4 1e 2d 3d b5 ed 0f be 34 27 99 3c 70 0f c0 be
       0.042265847 -0.14055522 0.018695451 -0.37511778
000060 89 95 a3 bd a9 b1 97 be fd 71 a2 3c 52 06 c0 3c
       -0.07987506 -0.2962773 0.019829744 0.023440514
000070 02 30 c9 be ab a3 77 be 7a 96 ce be 57 79 65 be
       -0.3929444 -0.24183528 -0.4034918 -0.22409569
000080 a0 78 d6 be 8d aa a2 be 3a 08 73 3c b0 88 da b8
       -0.41888905 -0.31770745 0.014833504 -0.0001042051
000090 8e d7 b2 be 28 4b 3a bc 2a 0a a3 be 82 8d 23 bf
       -0.3493008 -0.011370458 -0.31843692 -0.638878
0000a0 6f a4 a7 3c be 52 57 39 72 53 64 3c 47 6c c5 be
       0.02046415 0.00020534822 0.013935911 -0.38559172
0000b0 1c 1a 1d bf a3 73 0f 3c 54 8c 2a bb 03 88 a5 3c
       -0.61367965 0.008755597 -0.0026023583 0.020206457
0000c0 71 33 8c be 77 09 22 bb
       -0.27382997 -0.002472488

encoder.4.weight f4 [50, 50]
000000 32 ad 44 3d ed ab b9 be 7f 93 dd bd 32 9a ff bd
       0.048016734 -0.3626398 -0.10819148 -0.12480582
000010 db e3 65 be 1a 60 f2 3d 89 32 93 bc f7 54 6c 3d
       -0.22450201 0.11834736 -0.017968433 0.057698216
000020 5a 24 5c 3d ff 9c b5 3d ef 45 42 3e 3c 26 ae 3b
       0.053745605 0.08867835 0.1897199 0.0053146165
000030 5a 6b c4 bd 4b 6d ea b9 81 5a 57 3e 9b f8 0b bd
       -0.09590788 -0.00044713388 0.21030618 -0.034172636
000040 a8 82 0e be 13 1a f5 3b d4 d4 ba be af 92 ca bd
       -0.13917029 0.007479915 -0.364905 -0.09891259
000050 12 46 2c bd 30 53 06 3d 3e 61 69 3e cc 91 cf bc
       -0.04205901 0.032794178 0.22791001 -0.025338076
000060 1f 9c 72 3d 1f f3 0d bd e7 16 dc 3d 30 d6 8d 3e
       0.05923092 -0.034655686 0.10746556 0.27702475
000070 17 9b 2e 3d 7b 66 ce 3d 78 de 19 3e 58 2c b1 bd
       0.042628374 0.1007814 0.15026271 -0.08651036
000080 33 cd 19 3d 68 7c 8a 3d 0a 08 9f 3d cc 6f 8a be
       0.03754921 0.0676201 0.07765205 -0.2703842
000090 f0 5c 27 ba 4c c7 c8 bd 3a 29 bf 3c bc e3 6f 3e
       -0.0006384393 -0.09803638 0.023335088 0.23426718
0000a0 39 f7 6b 3e b1 76 a6 be d6 36 5b bc ba e0 91 bd
       0.23043527 -0.3251243 -0.013379773 -0.07122941
0000b0 3a f0 cf 3e 6c 29 84 bc 5b 36 92 be 53 02 1c bc
       0.40612966 -0.016133033 -0.28557095 -0.0095220385
0000c0 d2 e0 52 3d cb 91 cc bd 46 a0 11 3d d3 33 40 bc
       0.051483937 -0.09988745 0.03555324 -0.011731106
0000d0 5e 91 6e 3d b6 6c f4 bd 2f d4 69 bc e7 15 50 3e
       0.0582441 -0.119347975 -0.01427178 0.20320855
0000e0 50 96 93 bd ac 08 2d 3c 13 3f 19 bd ac 15 99 3d
       -0.07206404 0.01056115 -0.037413668 0.07474837
0000f0 32 f1 03 bd ba 98 d9 bd 25 8e e8 bd fd f2 26 3e
       -0.032212444 -0.106248334 -0.11355237 0.1630363
000100 28 5b bb 3d 3a 3b a3 bc f7 89 06 be c8 c1 b3 3c
       0.09148246 -0.019925702 -0.13138567 0.021942988
000110 57 c7 6e bb a1 ed 85 3c c1 12 45 3c 61 87 fe bc
       -0.0036434734 0.016348662 0.012028397 -0.031070413
000120 ba d0 61 3e 86 3e 53 3d d7 a2 2e 3d 18 b2 9c bd
       0.22052279 0.0515733 0.042635765 -0.07651156
000130 7e 0e b2 3e 43 f8 ae 3e b2 9f 90 bc dc 3a 06 3e
       0.34776682 0.34173784 -0.017654274 0.1310839
000140 c4 5c cd bd 74 0e 0f be 1b 80 dd 3c a1 58 0f 3d
       -0.10027459 -0.13970357 0.027038625 0.034996632
000150 56 42 20 3e 68 d4 81 bd 66 14 c3 3d 87 55 e8 bc
       0.15650305 -0.063393414 0.09525375 -0.028361095
000160 07 e7 0c be 2d 2a 9c 3e 5f d6 88 3e 8d 5e 46 bc
       -0.13760005 0.30500928 0.26726052 -0.012107504
000170 8a fc aa bd 92 5c c3 bd 24 7b 39 3e 69 4d 0c 3e
       -0.08348949 -0.09539141 0.1811338 0.13701405
000180 58 c5 f6 bd 29 8f b9 bd 95 73 42 bd cb fe 1d 3d
       -0.12049359 -0.09060509 -0.04747351 0.038573068
000190 a7 c4 03 3d 58 7c bd be 1f e7 e0 3d 1a e3 dd 3d
       0.032169964 -0.3700893 0.10981583 0.10834332
0001a0 60 cc b3 bc cc ca 2c bd a7 4f 36 bd 72 6d 7f 3b
       -0.02194804 -0.04218559 -0.044509556 0.0038975147
0001b0 4e 60 51 be 8d f0 0f 3e 99 f0 03 3d d7 a6 09 3e
       -0.20446894 0.14056607 0.032211874 0.1344255
0001c0 5a 41 02 3e 2f e8 c4 3d f5 2d 72 be 4c bb e5 3c
       0.12720242 0.09614598 -0.23650344 0.028043412
0001d0 8a f6 60 bd 4c 72 4b bd af c3 89 be 85 4c a1 3d
       -0.054922618 -0.04966955 -0.26907107 0.07875923
0001e0 8f 01 63 3e 78 3a e0 bd 29 55 70 be 87 56 2c 3d
       0.22168563 -0.10948652 -0.23469986 0.042074706
0001f0 f4 14 5a ba 79 ac 85 3d a5 bb 13 3d 14 0c 20 bd
       -0.00083191623 0.06527037 0.036067624 -0.03907402
000200 f3 95 49 be 37 65 27 bd ab ee 80 be 76 36 c7 3c
       -0.19686107 -0.04086801 -0.2518209 0.024317961
000210 66 c9 c8 3d cf a0 09 be 45 e1 91 3c 4a 2d 98 bd
       0.09804039 -0.1344025 0.017807612 -0.07430513
000220 57 6b dd 3d c2 d8 0e 3e 3e ce 96 3c c0 8e 74 be
       0.10811489 0.13949874 0.01840889 -0.2388258
000230 a9 5c 35 bd 8b 92 30 be 0c 0c db bd 30 bc c8 bb
       -0.04427782 -0.17243402 -0.10695657 -0.0061259493
000240 79 1a 22 be 5c c6 d3 3d a5 e7 4d 3d 1a 08 ce bd
       -0.15830411 0.103405684 0.05026974 -0.10060139
000250 c3 f2 d0 bd bf d0 23 be d9 69 64 be d7 95 69 be
       -0.10202553 -0.15997599 -0.22306003 -0.22811066
000260 5a 22 05 bb a2 c1 3e bd 8b 05 55 bd 8c fb 60 3e
       -0.0020314665 -0.04657138 -0.05200724 0.21970958
000270 ee c3 ff 3d 7e 60 69 3d aa c3 27 3d 89 6a e9 bd
       0.124885425 0.056976788 0.040958084 -0.11397273
000280 e7 ce 8b bd b6 16 f6 bd e7 9d d2 3d c0 b0 49 be
       -0.06826573 -0.120160505 0.10284024 -0.19696331
000290 cd fe c2 3c 39 a9 52 be 91 2b c8 bd fb 67 8f be
       0.02380314 -0.20572366 -0.09773935 -0.28009018
0002a0 e8 1d 61 be 0e 69 84 bd 5f c9 a1 be 79 e0 cc 3d
       -0.21984065 -0.0646535 -0.31598946 0.10003752
0002b0 cf aa 8a bd 55 fa 89 bc b1 25 76 bc ec 8e 70 3d
       -0.067708604 -0.016843 -0.015023635 0.05873005
0002c0 fc 49 7f bd 71 6e 8c bc 26 10 1e 3d 13 dd c7 3d
       -0.062326416 -0.017142506 0.03858962 0.097589634
0002d0 8e cf 2d 3e 34 c5 d0 bd 74 a9 11 bd d4 8f e3 bd
       0.16973707 -0.101938635 -0.035561994 -0.111114174
0002e0 9c 43 76 3d 96 ce 56 be 40 e3 b0 3c 90 8d 97 be
       0.06012307 -0.20977244 0.021592736 -0.2960019
0002f0 ef 55 30 3c a3 98 82 3e 50 22 be bd 5c b1 63 be
       0.010762676 0.25507078 -0.09283888 -0.22235626
000300 32 ee 38 be b8 7a 06 3e 37 a4 b8 3e db e4 7a bd
       -0.18059614 0.13132751 0.36062786 -0.06125341
000310 75 2f 8f be 6c 82 7a 3d 6c 86 b4 3d ac b3 f3 bd
       -0.27965894 0.061159536 0.088147014 -0.11899504
000320 c2 a4 ca 3d e7 a5 01 be 2c 7c 4e bd e8 b3 f4 3e
       0.09894706 -0.12660943 -0.05041139 0.47793508
000330 65 9c 04 be 6d b0 9f 3e 4c 87 9b bd 81 13 00 3e
       -0.12950285 0.3118929 -0.07594165 0.1250744
000340 3d 8e 6e bc 18 e9 c0 bd 69 6f 82 bd da 4e e4 3d
       -0.014560279 -0.09419459 -0.06368906 0.11147852
000350 f0 22 35 bd 59 eb 82 bd 80 b9 2b 3d 7e 96 d1 bc
       -0.044222772 -0.06392545 0.041924953 -0.025584456
000360 a0 fe f4 bd 6c 12 38 3d f2 80 56 be 86 e2 09 3d
       -0.11962628 0.044939443 -0.20947626 0.033663295
000370 56 3e 6b 3c 69 18 2f bd 24 87 6b bd 0d 02 ab 3d
       0.014358124 -0.04274789 -0.057501927 0.083500005
000380 61 be 1e bd dc d4 87 3d 5c 93 bc 3d 66 1f b5 3d
       -0.03875578 0.066323966 0.09207794 0.088438794
000390 34 c7 e7 bb da 52 68 3d 22 ac 3f bd 9c e8 ca 3e
       -0.0070733074 0.05671964 -0.046795018 0.39630592
0003a0 cd bd 5c bd 49 56 9e 3d d0 a8 8e 3e ff 02 af 3c
       -0.053891946 0.07731301 0.2786317 0.021363733
0003b0 ec 59 08 be 9b 02 51 bd 6e 49 c6 3e 7a 31 33 3e
       -0.13315552 -0.051027875 0.38727897 0.17499343
0003c0 1c d4 07 bc fc 25 7f be 25 83 2f bd 57 69 92 3d
       -0.008290317 -0.24916834 -0.04284968 0.07148998
0003d0 d3 98 a9 bd dd 90 4c 3d c6 8b 98 3c 32 d0 e0 bd
       -0.08281102 0.04994284 0.018621337 -0.1097721
0003e0 25 bf 84 bd 57 9e 25 3e 58 eb 2d bd 18 3a 2f bd
       -0.064817704 0.16173683 -0.04246077 -0.042780012
0003f0 c3 00 1b bd a3 23 87 3e d2 21 e7 3b b9 1e 81 3e
       -0.037842523 0.26394376 0.0070535922 0.25218752

encoder.4.bias f4 [50]
000000 3f 49 36 bb f2 31 4c bc 57 7a ab 3b 15 ab 23 3c
       -0.0027814654 -0.01246308 0.00523309 0.00998952
000010 4e 10 3a bb 08 24 ad bb e1 95 2d bf 32 2d 6c bb
       -0.0028391066 -0.0052838363 -0.6780682 -0.003603768
000020 29 e3 8b be c6 31 20 bc 58 88 ba bb 1c 4e 45 3c
       -0.27321747 -0.009777492 -0.005692523 0.0120425485
000030 81 5f e4 b9 04 cd d0 3a 3d e7 83 be a4 6d c9 bc
       -0.00043558705 0.001593024 -0.25762358 -0.024588414
000040 25 db c5 3b cd ed af bb a8 a7 56 bc 2c 68 1b bf
       0.006038087 -0.0053689242 -0.013101496 -0.6070583
000050 eb 81 c7 bd 8d 35 8d bc 1b 1c 78 be dc 02 61 ba
       -0.09741577 -0.017237449 -0.24229471 -0.0008583495
000060 a3 e5 9a b9 e0 a9 39 bb dd 1c 5b bc 64 ce b2 ba
       -0.00029544262 -0.0028330013 -0.013373581 -0.0013641831
000070 3b 1c 52 3b e8 07 05 bc 32 30 a7 bb 08 51 85 bc
       0.0032060284 -0.008119561 -0.005102181 -0.01627399
000080 da 54 70 3c 71 58 17 be c3 f6 7c be 86 3f 3b be
       0.014668668 -0.14779831 -0.24703507 -0.18285951
000090 d5 51 9c be ca 68 43 bd 85 04 18 bf 89 d8 aa ba
       -0.30531183 -0.047707357 -0.59381896 -0.0013034503
0000a0 17 ed 9c 3b 8d e3 18 be ab 0e 58 bc 24 4d d2 bd
       0.0047890055 -0.14930554 -0.013187091 -0.1026862
0000b0 ca 68 35 be 67 4e 2a 3c d8 f9 91 be e9 bf a2 bc
       -0.17715755 0.010394669 -0.28510928 -0.0198669
0000c0 22 9d 02 bb 44 41 4d 3c
       -0.0019930084 0.012527768

encoder.7.weight f4 [20, 50]
000000 2e 52 1e 3e f8 51 1d 3e 15 97 8d 3c 2d ae 94 be
       0.15461037 0.153633 0.017283956 -0.29039136
000010 8a 6d f1 3c 12 3d 68 3d fc 0e 9d bd 31 51 3e 3f
       0.029471178 0.056698866 -0.07668874 0.7434264
000020 5f f2 93 bd 6e 92 c7 3e cf 81 d3 3d 75 ce 9e be
       -0.07223963 0.38978904 0.103274934 -0.3101689
000030 a9 03 c1 be 39 a7 53 be 26 0e 04 be 62 39 ae 3e
       -0.37698105 -0.20669259 -0.12896022 0.34028155
000040 cf 6e e3 3c eb 41 fc 3e b9 c0 4f be 0f 0d 38 bd
       0.027762799 0.4926904 -0.20288362 -0.04493433
000050 f8 10 96 bd 15 1d cd 3e e1 69 1c be 63 c3 0f 3f
       -0.07327455 0.4006125 -0.15274765 0.5615751
000060 ef b5 81 bd 77 5d 22 3f 8f d5 f6 3e ee 9d 26 3f
       -0.06333529 0.63423866 0.48209807 0.6508473
000070 4c 3c 59 be 8e fc d6 bc b6 1d 7b be 03 31 ff 3e
       -0.21214408 -0.026243474 -0.24523053 0.4984208
000080 ba 01 20 be 74 cb 1e bc 68 25 bc bd 9c 15 63 bd
       -0.15625659 -0.009692062 -0.09186822 -0.05544053
000090 50 b3 53 bd 25 53 70 3c e6 56 cf 3d 5a ee 8d be
       -0.051684678 0.014668261 0.101239964 -0.2772091
0000a0 1f 89 33 be 46 51 c2 bd 74 5d 13 3e 34 8f 21 3e
       -0.17532776 -0.09488158 0.14391118 0.15777284
0000b0 8d 49 04 3e 69 41 98 be dd 89 b8 bd 6a 8c 0a 3e
       0.12918682 -0.29737404 -0.0901067 0.13530126
0000c0 64 16 9e be 65 3b 9b be b2 67 ea 3b 81 1f 54 3c
       -0.30876458 -0.30318752 0.0071534747 0.012946964
0000d0 d3 bd 05 bd 76 3d 05 3c ac f0 a1 3e 9f b3 c5 3e
       -0.032651734 0.008132329 0.3162893 0.38613603
0000e0 fd 54 0d bd a2 3e 78 3e 93 f6 3e 3e 2a d3 9d 3e
       -0.03450488 0.24242643 0.18648748 0.30825168
0000f0 9b 24 a1 3e 51 22 30 3a 07 1b 60 bc 6e cf 05 bd
       0.3147324 0.0006718981 -0.013678319 -0.032668523
000100 78 01 46 3e 2b 3b 8e 3d d9 5b 8b bc 60 4c 9b 3e
       0.19336498 0.06944879 -0.01701157 0.30331707
000110 03 bd 82 3c 47 83 eb 3d fb 2b 6f 3d 0d 28 03 3e
       0.015959268 0.114996485 0.058391552 0.12808247
000120 1e ee 2e 3a 5f 93 8f 3e 6b 88 d8 3d 8d 85 9c 3d
       0.00066730555 0.28042123 0.10572895 0.0764266
000130 2d 92 7f 3e c9 be 12 3e d7 33 a0 3c 23 59 ad 3e
       0.24958105 0.14330591 0.01955597 0.33857068
000140 8d d9 4c bb d2 ea 20 3d 76 4c 9c 3c 25 34 58 bd
       -0.00312576 0.039286442 0.019079428 -0.052784104
000150 0c 58 46 3e 13 f4 3c bd d3 34 13 3e 28 9e 3b 3c
       0.19369525 -0.046131205 0.1437562 0.011451282
000160 d8 f5 0f 3e 18 dd 08 bc d3 c4 82 3c e7 32 f6 3c
       0.14058626 -0.008353494 0.015962994 0.030053569
000170 1d 28 c9 bc 0d 51 ac 3e 3d f2 0b bd a0 98 1b 3c
       -0.02455526 0.33655587 -0.034166563 0.009496838
000180 19 f8 3d 3e bd e2 1d 3d 44 71 86 bc 60 f0 3f 3c
       0.18551673 0.038546313 -0.016411431 0.011715025
000190 b7 8b f7 3e cd 9c 63 3e 77 aa ac be 4f 47 a4 3e
       0.4834878 0.22227784 -0.33723804 0.32085654
0001a0 98 26 59 be ce a7 9e be 82 ff 79 be ff 5e b4 bd
       -0.21206129 -0.309874 -0.24413875 -0.088071816
0001b0 6e 00 42 be 5f 63 62 be d2 1b e2 be d1 5f 67 3b
       -0.18945476 -0.2210822 -0.4416185 0.0035304914
0001c0 fa b1 8c 3c cc 43 b8 bd fb ba 1a 3d f6 f1 5f be
       0.01717471 -0.08997306 0.037775975 -0.21869645
0001d0 16 ba 8b be b4 48 2b be 9e fb 46 3d 9b f8 26 be
       -0.2729041 -0.16726953 0.048579805 -0.16305773
0001e0 36 a8 89 be e7 4b d7 bd e8 9b 0a bf 46 a6 28 be
       -0.26886147 -0.10512524 -0.54144144 -0.16469678
0001f0 f5 cb cf bd 1f 28 65 bd 3c 1a 0c bc 75 a0 2b be
       -0.101463236 -0.055946466 -0.008551177 -0.16760428
000200 ae 08 a4 3e 4d f7 3c be dc e2 33 3c 91 69 f4 bd
       0.32037872 -0.18453713 0.01097938 -0.11934198
000210 5f 7f d0 3d 3b 2a e5 3d a1 aa 74 be 29 34 aa 3c
       0.10180544 0.111896954 -0.23893215 0.020776825
000220 1b 34 a2 be 55 ae 9e 3d 9f 82 58 be 68 9b 1c 3c
       -0.31680378 0.07748095 -0.21143578 0.009558536
000230 81 3e c8 3e 49 23 90 3d f6 2b 9a be 83 69 de be
       0.39110187 0.0703798 -0.30111665 -0.43439874
000240 cf 42 02 3e ae 9b c8 3d 2a 68 98 3c 84 02 fc 3e
       0.12720798 0.097953185 0.018604357 0.4922067
000250 66 83 96 3c a6 be 77 3e 5a 76 c1 3c a6 05 c8 3d
       0.018373203 0.2419382 0.023616005 0.09766702
000260 90 09 f7 bd e8 f6 68 3c 93 46 c8 bb 0f 35 37 bd
       -0.12062371 0.014219023 -0.0061119287 -0.044728335
000270 c9 6a 6e bd 1d 85 2b 3e c8 74 0f be 2c 44 04 3f
       -0.058207307 0.16749997 -0.14009392 0.5166652
000280 42 f8 95 3d 1f 44 2d 3c 1a 54 50 3e 58 1f 93 3e
       0.07322742 0.010575323 0.20344582 0.2873485
000290 18 b5 1b 3d f9 49 12 bd c3 d9 97 bd 19 23 37 3e
       0.0380145 -0.035715077 -0.074145816 0.17884482
0002a0 1f 0a 90 3e 5e 64 4b be 90 d2 27 bc 0f a0 58 3e
       0.28132722 -0.19862506 -0.010243073 0.21154808
0002b0 31 e0 91 3e 8c 63 5a 3e 96 7e 3d 3e 89 9f 8c 3e
       0.28491357 0.21327037 0.1850532 0.27465466
0002c0 83 ef a1 3e f9 28 62 3e 8d 4b a0 3b 8b e6 2a 3d
       0.31628045 0.22085942 0.004891819 0.04172377
0002d0 17 9f 9a 3e 76 6c 06 3d 42 40 13 3c 34 73 ed 3c
       0.301995 0.03281828 0.008987488 0.028985597
0002e0 68 14 b6 3e b5 5c 8c bd 5e db 36 bd a2 1e dc 3e
       0.35562444 -0.0685362 -0.0446428 0.4299212
0002f0 97 66 5f bd 10 80 db 3d f3 b2 7d 3b 50 92 64 bd
       -0.054541197 0.10717785 0.0038711398 -0.055803597
000300 6b 63 b3 3c 2e 5a e8 3e e2 ec 06 3e 8a b8 85 3b
       0.021897992 0.45381302 0.13176301 0.0040808367
000310 c6 38 ba bd d7 81 e0 3c be c1 e4 3d f7 ad 1d 3c
       -0.0909286 0.027405662 0.11169766 0.009623996
000320 43 a4 9b be f1 bc ed 3c aa 98 f9 bd 5a f0 80 be
       -0.3039876 0.029020758 -0.121873215 -0.25183374
000330 cd 24 1f bd 97 65 09 be 2c 0a fa bd 12 b8 14 bd
       -0.038853455 -0.1341766 -0.122089714 -0.036308356
000340 fb 24 59 be c3 66 92 3d f8 d9 3b 3d 95 b1 14 bc
       -0.21205513 0.071485065 0.045862168 -0.009075542
000350 c7 6d 8d 3e 08 64 a5 3e e3 61 d2 3b fa 9f 2d be
       0.27622816 0.3230288 0.0064203604 -0.16955557
000360 c8 80 ed bd 8d 5a 41 ba ae 98 2b 3e c7 c4 57 be
       -0.11596829 -0.0007375859 0.16757461 -0.21071158
000370 4a 39 b3 bc f6 34 21 be ad 30 bd 3e 12 e0 a7 3b
       -0.021877903 -0.15742859 0.369512 0.005123147
000380 26 e5 c6 3e 97 67 0d bd 52 d3 15 bd 9a 1f 3a 3c
       0.388467 -0.03452262 -0.036578484 0.011360073
000390 7e 5a de bd e7 ce 16 3d 1a 24 5c 3e cd 03 ee bd
       -0.10857104 0.03681841 0.21498147 -0.11621819
0003a0 f8 7c 3c bd da 25 66 bd e0 31 aa 3d c9 8c 11 bd
       -0.046017617 -0.05618844 0.08310294 -0.035534654
0003b0 00 2e ae bd b1 e0 a9 3e 4a e4 33 bd b1 db 83 3e
       -0.085048676 0.33179238 -0.043918885 0.2575355
0003c0 54 d4 23 be 19 7f 01 3e 86 81 49 3e 2a d6 59 3e
       -0.15998966 0.1264614 0.19678316 0.21273103
0003d0 8b 68 67 3d bb ae 08 be dc 51 64 3d a9 9d 8b be
       0.056496184 -0.13347904 0.05574213 -0.27268723
0003e0 62 ab 93 3e f8 07 24 be 24 a3 8e be e3 ea 94 be
       0.28841692 -0.16018665 -0.2785884 -0.29085454
0003f0 ff 4d 17 3e 82 e1 74 be c0 3b e2 3e 3b f7 98 3e
       0.14775847 -0.2391415 0.4418621 0.29876122

encoder.7.bias f4 [20]
000000 a0 c2 29 3b ff 4c f8 bb 99 4f 70 bb 70 1b a9 b9
       0.002590336 -0.007577538 -0.0036668538 -0.00032254634
000010 71 fa 07 b9 a0 8c 5c 3b 77 30 e1 be a5 c4 8b bf
       -0.000129679 0.0033653155 -0.43982288 -1.0919386
000020 f5 99 a1 3b b3 96 13 bc d5 11 52 be 88 7c d8 ba
       0.004931683 -0.009008097 -0.20514615 -0.0016516605
000030 73 d2 c0 be d0 92 87 ba 4e 65 26 ba a0 a5 aa ba
       -0.3766056 -0.0010343436 -0.0006347493 -0.0013019331
000040 89 2e b7 ba 36 9e 53 3b 80 16 d3 38 37 d8 f0 be
       -0.001397566 0.0032290346 0.00010065455 -0.4703996

encoder.10.weight f4 [4, 20]
000000 7e b2 4b 3f d4 85 7a 3e 10 f0 49 bf ca f0 82 be
       0.7956923 0.24465114 -0.7888193 -0.25574332
000010 7b a9 eb be 33 f3 de 3e a4 86 37 3f be 65 a5 3f
       -0.4602774 0.4354492 0.7168982 1.2921674
000020 ee ea 30 3f 83 28 0a bf 72 74 39 be 4d 99 d6 3e
       0.69108474 -0.53968066 -0.18110827 0.41913834
000030 a6 fc a0 3e 90 37 6e 3f 1d 87 ed be e6 df 76 3f
       0.31442755 0.9305353 -0.46392146 0.9643539
000040 ed 9d 6d be 9c 01 95 be f0 2f c1 be ea ac 74 3f
       -0.23204775 -0.2910279 -0.37731886 0.95576346
000050 47 4f cb be 54 68 41 bf 44 3a 1c bf 0c 47 14 bd
       -0.3970892 -0.7554982 -0.61026406 -0.036200568
000060 9c d9 36 3f 7a 8e f5 be 6c c8 02 3d ee 44 10 3f
       0.71425796 -0.47960263 0.03192942 0.5635518
000070 ac f2 a4 be e8 97 f3 be 17 f5 e3 bd 18 36 f9 be
       -0.32216394 -0.47576833 -0.111307316 -0.48674083
000080 46 ef b2 bd 4b 64 d5 be 85 6b 3c 3f 60 a4 d6 be
       -0.08737044 -0.4167808 0.7360156 -0.41922283
000090 e4 14 0e be 4b 0e 9d 3e e6 2e 0d 3f 78 ec c2 3d
       -0.13875157 0.30674967 0.55149686 0.09517759
0000a0 30 e3 42 bf 54 1d e2 3d 6f 3b f3 3e 86 ee b6 bd
       -0.7612791 0.1104075 0.47506282 -0.089322135
0000b0 7b 7b 1d 3f 2c a8 18 3f 5d 81 71 3e 86 6f 13 bc
       0.6151654 0.5963161 0.23584504 -0.008998757
0000c0 e1 8a 32 bf 93 50 cf 3e 2f f1 41 be 1c a3 f4 3e
       -0.6974316 0.4049116 -0.1893966 0.47780693
0000d0 cf 5b ac 3e 9d 41 5f bf 59 0b 22 3f 2e 11 67 bf
       0.33663794 -0.8720949 0.63298565 -0.9026059
0000e0 f8 00 27 be 22 5b 57 3e ce 0c ef 3e 0f e9 6d bd
       -0.16308963 0.21030858 0.46689457 -0.05808359
0000f0 3e a9 06 3f cc 13 65 be df 8c 00 3f 02 42 f5 be
       0.52601993 -0.22370833 0.5021495 -0.47901922
000100 16 5d d9 be 6a b9 cf bc c3 00 39 be 8c bc e5 be
       -0.4245383 -0.025356967 -0.18066697 -0.44870412
000110 bb 1d d8 3e 6c 61 ae 3e c6 b2 13 be 52 6e 83 bd
       0.42210183 0.34058702 -0.14423665 -0.06417526
000120 12 1c 95 be 10 8b 25 3f 6b 25 db be 3d 1d 2a 3f
       -0.29122978 0.6466532 -0.42801985 0.66450864
000130 c1 7c ee be 1b 03 b5 be a3 a9 ba be fa bc 8f be
       -0.46579555 -0.35353932 -0.36457548 -0.28073865

encoder.10.bias f4 [4]
000000 b6 ae 63 be 9c 6c 62 be 54 dd 78 3e 4a dc 84 3e
       -0.22234616 -0.22111744 0.2430318 0.25949317

decoder.0.weight f4 [20, 4]
000000 1a 68 67 be 6b 94 c7 3e a1 f8 3d 3f d3 48 c6 3f
       -0.22598305 0.3898042 0.742075 1.5490974
000010 c6 54 fc 3e b2 6b b7 be 83 48 21 bf ca 8f 1b 3f
       0.49283427 -0.35824353 -0.6300127 0.6076628
000020 e8 27 8f be cd c6 8e bd 33 15 5f 3f 35 2a 06 3f
       -0.27960134 -0.06971512 0.8714172 0.5240815
000030 37 5b 9e bd d5 4e 80 bf bb 3d 71 bf ca fd 52 3f
       -0.077322416 -1.0024058 -0.9423482 0.824185
000040 da b2 9e 3c b2 4a 6c 3e 34 fc ee 3e 3c d4 55 3f
       0.019372392 0.23075369 0.4667679 0.8352697
000050 c5 a6 2e 3f 55 b5 01 bf 7f c5 91 3e 1c 03 67 bf
       0.6822322 -0.50667316 0.2847099 -0.9023912
000060 a2 0a a7 3f 7f 16 dd bd 1f 0f 0f 3f 74 06 35 bf
       1.305012 -0.107953064 0.5588245 -0.7071297
000070 cd e3 f4 3e 89 b8 b6 be 67 5f 14 bf db 01 ea be
       0.47830048 -0.35687664 -0.5795807 -0.4570454
000080 3f ab 83 be 77 ad 3b 3f be f5 99 be 59 19 0e bf
       -0.25716588 0.7331156 -0.300703 -0.5550743
000090 00 6b 82 3e ae 96 02 3f f9 bb 63 3e c2 b0 00 bf
       0.2547226 0.5101117 0.22239675 -0.5026971
0000a0 4c c2 25 be 1d 70 9a 3e 3c 46 b6 3e 44 83 47 be
       -0.161874 0.3016366 0.3560046 -0.19483668
0000b0 80 05 c9 bf 6a 92 35 3f c0 62 20 bf 08 4c 39 3f
       -1.5704803 0.70926535 -0.6265068 0.7238164
0000c0 12 5f a6 3d 5a 1c 7f bf 5b 89 03 bf e4 6e d7 3e
       0.08123602 -0.99652636 -0.5138146 0.4207679
0000d0 b2 f7 00 3f ab a3 dd 3e db 57 e7 3d d3 0e 8b 3c
       0.50377953 0.4328893 0.11296054 0.016974842
0000e0 fd 35 0d 3c d1 63 b9 be ec b2 e0 be ed 7d 38 be
       0.008618829 -0.36208966 -0.43886507 -0.18016787
0000f0 2b 6d d5 3e c9 81 fc be c4 ee 15 3f 92 2a f5 be
       0.4168485 -0.49317768 0.5856745 -0.4788404
000100 0a dc 89 bf b1 cd 5c be 8d 96 4b 3e 88 5c e9 be
       -1.0770276 -0.2156284 0.1988165 -0.45578408
000110 99 53 83 bf dd ce ba be 54 69 1c 3f 1d ed c2 bd
       -1.0259887 -0.3648595 0.6109822 -0.09517882
000120 85 3a 10 bf c2 24 24 3f 74 23 81 3d 11 bc 42 be
       -0.56339294 0.6411859 0.0630559 -0.19017054
000130 4d 48 79 3e a2 25 9a be fc f6 b9 bd 5d f3 96 be
       0.24343987 -0.30106837 -0.09080312 -0.29482546

decoder.0.bias f4 [20]
000000 d2 f7 37 bf dd 1b 66 3d aa 13 95 be fe 54 a6 3d
       -0.7186252 0.056178916 -0.29116565 0.0812168
000010 09 5c 7d be 72 44 50 3e dc 59 0a 3e 18 8a ab 3e
       -0.2474214 0.2033861 0.13510841 0.33503795
000020 a6 3d 32 be 95 6b e6 3e 9f 2a 54 3e 6b f2 47 be
       -0.1740633 0.45003954 0.20719384 -0.19526069
000030 a8 78 4a bc 4b be d3 be 36 af f2 be 62 bd 95 bd
       -0.012357868 -0.4135612 -0.473993 -0.073115125
000040 ac c1 3e be 72 99 56 be 42 7c 94 3e cb 8e 2b 3e
       -0.18628567 -0.20956972 0.2900105 0.1675369

decoder.2.weight f4 [50, 20]
000000 8e 84 99 3e 64 33 cb be 8a 3a 53 be 31 98 8b be
       0.29983944 -0.39687645 -0.206278 -0.2726455
000010 09 12 ed 3c 75 37 28 3e ad 85 1f 3d bc 7b 04 3e
       0.028939264 0.16427405 0.038945843 0.12937826
000020 70 fa 3a 3e ea 76 6d 3e 93 35 e7 3c 2b dd 9d 3d
       0.18259597 0.23189893 0.028223788 0.077082
000030 ca f0 4f be 60 69 b0 3d d0 80 5c 3e ab 7f b2 3e
       -0.20306697 0.08613849 0.21533513 0.34863028
000040 e6 97 ce 3d 48 77 37 3e 2e 8e d8 3d da 02 1e be
       0.10087566 0.17916596 0.105739936 -0.15430775
000050 da 05 08 be 43 21 51 bd 9b 66 52 bc 40 2b 94 3d
       -0.13283482 -0.05105711 -0.012841846 0.07234812
000060 22 a7 10 be b6 75 1d be 5f 14 59 3e 2f 6b f6 3c
       -0.14126256 -0.15376934 0.21199177 0.030080406
000070 42 5c 57 be e3 46 17 be 8f ae d9 3d 73 50 ab 3d
       -0.21031287 -0.14773135 0.106289975 0.08364954
000080 45 35 dc 3d 6e b5 1b be ac 49 b0 bd 61 88 19 3d
       0.10752348 -0.15205929 -0.08607802 0.037483577
000090 20 da 11 3c 62 5b 5e 3e 8c 3e 56 be 6b da 22 3e
       0.008902103 0.21714547 -0.20922297 0.15903632
0000a0 c9 d2 0c be 25 d6 3a 3e 25 6b 3b 3e dd 5a fd bc
       -0.13752283 0.18245752 0.18302591 -0.030927116
0000b0 fb 44 0c bc 05 12 2b 3e 9b 4d 05 3e da d9 cd bc
       -0.008561368 0.16706093 0.13017885 -0.025128294
0000c0 fd 01 c2 bd 72 3b 0b 3e 17 03 0f bd 28 7c 3c bd
       -0.094730355 0.13596895 -0.034915056 -0.046016842
0000d0 66 e6 01 3e 34 3b 4b 3d 2a 24 a0 bd 2b 1e 31 3e
       0.12685546 0.049617007 -0.07819398 0.17296664
0000e0 24 df 0c 3c 51 cd fa bd c5 f1 35 bd f2 31 58 3d
       0.008598123 -0.12246192 -0.044420023 0.052782007
0000f0 28 27 c9 bd 10 72 0e 3e e8 60 89 bd 32 2c 9d bd
       -0.098219216 0.13910699 -0.067079365 -0.07674445
000100 ec 08 73 be 10 e4 22 bc 7d 40 1e 3e 74 d1 8b 3e
       -0.23733872 -0.00994207 0.15454288 0.27308238
000110 2a 09 49 3d 30 a4 eb 3b 53 f4 2a bd a4 6e 21 3e
       0.049081005 0.0071912035 -0.041736912 0.15764862
000120 de c9 23 3d 19 ba a7 bd 39 0c 61 be da 75 71 3d
       0.039987437 -0.08189792 -0.21977319 0.058950283
000130 40 49 d6 3d ad d7 06 bc a6 79 a0 3d f4 1f 78 bd
       0.1046319 -0.008230132 0.078357026 -0.060577348
000140 e8 63 e9 be 1d 5d 8f be ff ce 0e 3e 33 e7 9e 3d
       -0.45584035 -0.28000727 0.1394615 0.077589415
000150 26 0a 5d be 02 84 0a bd 7a 1c 69 3e 06 7b 63 be
       -0.21585903 -0.0338173 0.22764769 -0.22214898
000160 44 e4 93 bd 88 91 6b be a8 42 f9 bd 7f a9 6f 3e
       -0.072212726 -0.23004735 -0.12170917 0.23404501
000170 80 1f 8a 3e eb 8a 0a be e5 55 cd bd f9 f7 9c 3e
       0.26977158 -0.13529555 -0.10026149 0.30657938
000180 c1 02 3e 3e 5f 0a 0b 3e cc 57 2e 3e 41 36 11 3e
       0.18555738 0.13578175 0.1702568 0.14180852
000190 fb 73 13 3e ea f6 63 3e d1 c6 85 3e 53 56 e4 bd
       0.14399712 0.22262159 0.26128247 -0.111492775
0001a0 45 ce 80 3e a6 00 87 3e ca ee 81 3e 5c 55 e7 be
       0.2515737 0.26367682 0.25377494 -0.45182312
0001b0 05 b0 23 3e 8c 90 7f 3e 2f 83 d1 bd d7 2d 69 be
       0.15985115 0.24957484 -0.102300994 -0.22771393
0001c0 f3 63 8e bd ac 97 33 be 5c 44 04 3e 36 ac a5 3d
       -0.069526576 -0.17538327 0.12916702 0.08089487
0001d0 8d 35 3d bc b8 4c db be ae 50 e3 3d dd 89 00 3d
       -0.011548412 -0.4283197 0.11099373 0.031381477
0001e0 e4 a8 54 3e a8 c2 44 be ce 2a 2a 3d c1 42 f7 bc
       0.20767552 -0.1921488 0.041544728 -0.030183198
0001f0 32 fe fb 3d e5 8c 4b 3e c5 b7 f6 3b 62 1b a6 bd
       0.12304343 0.19877966 0.0075292313 -0.081106916
000200 01 fe da bd 29 cf 57 3e b6 e4 86 bd 08 62 08 3e
       -0.10692979 0.21075119 -0.06586592 0.13318646
000210 7f ab c2 bd 0a 5c 63 be ca 82 53 be 1d a1 fc 3d
       -0.095053665 -0.22203079 -0.20655361 0.123354174
000220 76 79 56 be 6e de 67 bd 7d ca a1 bc 7f ab f6 bd
       -0.20944771 -0.05660861 -0.019749874 -0.12044429
000230 30 10 cc bd d9 db 95 bd 19 9d da bd 03 55 9e bc
       -0.09964025 -0.07317323 -0.10674495 -0.019327646
000240 87 ee 27 be a9 46 c6 3b 3b ed 5e 3e dc e6 88 3d
       -0.16399585 0.006050904 0.21770184 0.06684658
000250 d4 69 2c 3e 8f 0f 10 3e a2 e5 3f bd 9f 23 13 3e
       0.16837245 0.14068435 -0.046849854 0.14369057
000260 d2 7d 96 3d f6 59 28 be 25 83 13 be 19 84 4e bc
       0.07348217 -0.16440567 -0.14405496 -0.012604737
000270 45 c6 f2 3d 28 5c a3 3d 1b bf 87 be e8 4c 7d bc
       0.11854223 0.07976562 -0.2651299 -0.01546023
000280 bf c8 d7 3e 63 2e 85 3e 01 2f 88 3e b9 ff 63 be
       0.42145345 0.26011953 0.2659836 -0.22265519
000290 33 6f ac 3e 3f 5b 72 3d a6 df 85 3e 95 dd 92 be
       0.33678588 0.05916905 0.26147193 -0.2868468
0002a0 2b 46 ae 3d 2b 26 0a 3e e6 0b 1d 3e 67 cd 59 3d
       0.08509477 0.13491122 0.1533657 0.053174403
0002b0 2f 02 5d bd b1 77 a7 3c d8 1e 25 be 7f 3f 96 be
       -0.05395716 0.020442815 -0.16125047 -0.2934532
0002c0 f1 b5 11 be 99 e0 a4 bd 11 0f 80 3d 15 61 99 3d
       -0.14229561 -0.08050651 0.06252874 0.0748922
0002d0 aa 6f 45 3e 53 6e 85 bc cd fc 61 3e 8a 28 e1 3d
       0.19280878 -0.016287958 0.22069092 0.1099406
0002e0 20 34 13 bd 9c 92 83 be 21 39 e9 bd 48 95 e1 bd
       -0.035938382 -0.25697792 -0.113878496 -0.11014801
0002f0 77 cb 04 be 88 31 d4 3d 8c 69 11 3e 45 31 40 3e
       -0.1296824 0.1036101 0.14200419 0.18768795
000300 0f 8a 25 bd ff 09 ea bd 94 ea e2 3d c5 1b 75 be
       -0.040414866 -0.11427688 0.110798985 -0.23936374
000310 17 e1 3a be 34 cd 0e 3e fd fd 37 3e b3 57 19 3e
       -0.18249927 0.13945466 0.17967983 0.14974861
000320 3a 17 74 bd 93 ee 2b 3e 10 3d 96 bd 47 6d 31 bd
       -0.059592463 0.16790228 -0.073358655 -0.043317106
000330 20 94 49 3e 1e 37 4e 3e 06 eb 6b 3e 05 d9 15 3e
       0.19685411 0.20138213 0.23038873 0.14633568
000340 fd 98 29 3e 5c df 6c bd 98 fc 8d 3d 40 f1 8d 3d
       0.16562267 -0.0578302 0.06932944 0.069307804
000350 17 fc 1f be f2 e1 0e bd fd 81 94 3d e9 14 3e be
       -0.15623508 -0.034883447 0.07251356 -0.18562664
000360 99 c6 76 3e e5 61 2a be 46 0b 65 3e f5 8c 02 bd
       0.24099196 -0.16638906 0.22367582 -0.03187271
000370 4d bf 44 3e 4d c0 48 3d c1 1d 83 3d ff 28 03 3e
       0.192136 0.049011517 0.064021595 0.12808608
000380 0f 58 c9 bd 53 89 2c be ae 8d 71 be fe 6e 14 3e
       -0.09831249 -0.1684926 -0.23589203 0.14495465
000390 dd 53 a7 bd d2 07 38 be b9 a3 72 be b4 d2 5f be
       -0.081702925 -0.17971733 -0.23695268 -0.2185772
0003a0 15 e2 85 3c 8e 2d bd bd 14 ff 7b bd 51 0f 5f be
       0.016343156 -0.092372045 -0.06152256 -0.21783186
0003b0 24 ac 0f be a7 c0 88 3d 64 98 3d bd 33 95 95 3d
       -0.1403051 0.066773705 -0.04628791 0.07303848
0003c0 91 a1 e0 3b dc 2d 88 3e d3 e8 10 bd 84 17 bc 3e
       0.0068551977 0.26597488 -0.03537829 0.3673669
0003d0 ce 53 a5 3c a9 ef 5f bd 41 5a da bb bc 51 e7 3b
       0.020181563 -0.054671917 -0.006663591 0.007059304
0003e0 4d 72 3f 3e 9c f4 5c 3e 05 05 1a 3e e5 c5 a9 be
       0.18695946 0.21577686 0.15040977 -0.33158794
0003f0 1c 43 a9 3e 96 23 dd bd 2c 5f fb 3d bc 4e 0f 3d
       0.33059013 -0.10797803 0.12274012 0.034987196

decoder.2.bias f4 [50]
000000 29 19 84 3e e3 a0 b8 bd 86 ae 13 3d 16 69 00 3e
       0.25800446 -0.09015062 0.03605511 0.12540087
000010 3c 48 98 3d d2 ea 2a 3e 4c 81 0c be e7 a5 39 3e
       0.074356526 0.1669114 -0.13721198 0.18129693
000020 cf 8e 2e 3e 8d ec 5e be 7e 2d 84 3d e7 4d fc bd
       0.17046665 -0.21769924 0.064539894 -0.12319546
000030 26 e0 11 be ca 26 8b be b5 5f 20 be 53 f4 ad bd
       -0.14245662 -0.2717803 -0.1566151 -0.08493867
000040 32 49 a5 be 79 3a 70 3d 54 c9 a2 bd 51 30 cb bd
       -0.32282406 0.058649514 -0.079485565 -0.09921325
000050 87 1c 1d 3e 46 d6 3c 3c 66 d7 b4 bd 22 a7 ff 39
       0.15342914 0.011525696 -0.088301465 0.00048761914
000060 c5 a5 58 3e b1 2e f2 3d 55 12 42 be 1a d6 60 be
       0.21156986 0.11825312 -0.18952306 -0.21956673
000070 da fb 17 3e 18 e3 f2 bd 53 b8 48 be 02 44 c4 3c
       0.14842167 -0.11859721 -0.19601564 0.02395821
000080 fe 5a 92 3d 54 9e 7c 3c 9e ce 42 be 75 20 81 bd
       0.07146262 0.015418608 -0.1902413 -0.06305019
000090 ee 9e a5 be 75 9d be 3b f9 12 f4 3d e0 a5 0a be
       -0.32347816 0.00581711 0.11917681 -0.13539839
0000a0 c9 e0 0e be f4 e2 bf bd ec 4e 03 be 3f a0 48 be
       -0.13952936 -0.0936946 -0.12823075 -0.19592379
0000b0 50 4b cf 3e 47 ce ed 3d ec 60 a4 3d e7 c3 e0 bd
       0.40487146 0.1161161 0.08026299 -0.109748654
0000c0 ca 09 cd bd 8f a7 03 be
       -0.10011633 -0.12856887

decoder.4.weight f4 [50, 50]
000000 33 05 35 3d 7a 4d 07 be 39 64 a3 bd 1f 4f 67 bd
       0.04419441 -0.13213149 -0.079781 -0.05647194
000010 c5 ab 93 3c 90 96 58 bd 29 b0 c9 bd 2c 4a 0f bd
       0.018026242 -0.052877963 -0.09848053 -0.034982845
000020 69 30 80 bd ff 0e c7 3c df 2f 8b 3d f2 be 03 3c
       -0.062592335 0.024299143 0.0679624 0.00804113
000030 2d 93 d6 bd fa 50 d5 bd 05 69 fe 3d 4b b5 81 bd
       -0.1047729 -0.10415836 0.12422375 -0.06333407
000040 f6 ea 38 3c f5 4f a1 bd 92 63 0e 3c 63 4d ab bc
       0.011286488 -0.07876579 0.008690732 -0.020910924
000050 5d 1b d0 bd 9b 18 ad bd f0 19 d2 bd 08 23 c0 3d
       -0.10161469 -0.08451959 -0.102588534 0.09381682
000060 bc b4 af bd 82 a7 09 3e c7 e6 0c be 23 bd 77 bd
       -0.08579394 0.13442805 -0.1375991 -0.06048311
000070 9b ea f2 bd 91 a8 e2 bd 5c 76 00 3e f9 9f ce 3d
       -0.11861154 -0.11067308 0.1254515 0.10089106
000080 b0 8e 22 3d ac 9c 1c bb b5 e6 05 be f9 b6 e4 bd
       0.03968686 -0.0023897095 -0.13076289 -0.11167712
000090 93 3d ec 3c a8 3d 67 bd 57 c5 0b be b9 60 19 3d
       0.028837955 -0.056455284 -0.13649498 0.037445758
0000a0 de 2a bb 3c c1 11 af bd d2 d9 91 3c 13 28 9a bd
       0.02284759 -0.08548308 0.01780406 -0.07527175
0000b0 6b 9d a6 bd d3 6f 04 3e ad 23 f6 3d 78 f6 05 bc
       -0.08135494 0.12933283 0.12018523 -0.0081764385
0000c0 53 46 9e bd 0d a9 b7 bd 4e ef 12 be c8 ed d7 bd
       -0.07728257 -0.08967791 -0.143491 -0.105434
0000d0 b0 29 6a 3d 3e 23 05 39 bd 10 35 bd c8 e0 48 3e
       0.057168663 0.00012696997 -0.044205416 0.19616997
0000e0 a3 71 53 3c 72 75 4f bd f7 7c 43 3e ae e0 db 3c
       0.012905511 -0.050649114 0.19090639 0.026840534
0000f0 4d 67 09 3e 05 e2 d1 3d 80 c8 09 3e dd 3c f7 3d
       0.13418312 0.10248188 0.13455391 0.120721556
000100 57 e9 be be 47 e7 7e bd 6e 62 6b 3e 72 e7 26 3c
       -0.372874 -0.062232282 0.22986767 0.010187017
000110 f7 68 a5 3d 0d fa 9b 3c 89 ac 18 be 20 5f f3 3d
       0.08076661 0.019040132 -0.14909567 0.11883378
000120 01 71 3c bc c3 bc d0 3d 98 54 b5 3d 57 be 70 3e
       -0.011501552 0.101922534 0.088540256 0.23510109
000130 5b 35 2b 3e 75 93 f4 bd 4c 0f 81 3e 87 4e b7 bc
       0.16719572 -0.11942188 0.25206983 -0.022376312
000140 59 83 08 be 0a b8 e2 bd 52 48 b3 bd ef 96 f1 3d
       -0.13331355 -0.11070259 -0.087540284 0.117963664
000150 80 4b 29 3e 67 4f fd bb 3c a9 ea 3c 73 49 0c 3e
       0.16532707 -0.0077304128 0.02864515 0.13699894
000160 b4 5b 08 be e0 1c 09 3e 58 0d 12 be c2 88 4a be
       -0.13316232 0.13389921 -0.14262903 -0.19778731
000170 1f 93 75 bd a0 b8 f9 3d be f6 6d 3e 2e 5c 4f bd
       -0.05995476 0.121934175 0.23238656 -0.05062502
000180 cb 17 1f bd cd ce d1 3d 63 69 fd bc c4 6f 7c 3e
       -0.03884105 0.10244522 -0.030934041 0.2465201
000190 4c b2 8a 3e 31 9e 27 be b8 89 97 bd b7 80 c1 bd
       0.27089155 -0.16368939 -0.07399315 -0.094483785
0001a0 16 9c 01 3e 58 a6 5e 3d 95 74 e0 bd 83 86 9b bd
       0.12657198 0.054357857 -0.10959736 -0.075940154
0001b0 a4 76 46 3d 5d a2 6e bd 12 e6 9a bd d9 9e 0d 3d
       0.04845299 -0.05826031 -0.07563414 0.034575317
0001c0 b5 5f 38 be f8 f4 26 3d ea a7 76 3e b9 28 4b bd
       -0.1800526 0.040760964 0.24087492 -0.049599383
0001d0 5e ad a5 3d 09 bc bb bd 7f 2f df bb e3 31 73 bd
       0.08089708 -0.09166724 -0.006811082 -0.059373748
0001e0 c5 e8 9d 3d 07 50 79 bd 1f 54 cf bd 42 28 9c bd
       0.07710413 -0.060867336 -0.10123467 -0.07624866
0001f0 c9 b0 2a 3d 8c 9a aa bc d5 03 d0 3c d7 53 69 bd
       0.0416725 -0.020825647 0.025392452 -0.05696472
000200 6f 09 44 bc 04 7d f4 bd 99 13 eb 3c ed 91 d6 bd
       -0.01196514 -0.11937907 0.028695868 -0.10477052
000210 63 20 ad 3c fa f1 01 3e 01 fb da bd bd e4 b9 3c
       0.021133607 0.12689963 -0.106924064 0.022692079
000220 60 c2 bc 3d d8 b4 02 3e cb 62 f4 bd fb a3 60 3c
       0.092167616 0.12764299 -0.11932906 0.013710971
000230 31 12 22 3d ef cd 65 3d b6 b6 cc 3d 7f 2b e2 3c
       0.03956813 0.056104597 0.09995787 0.027608631
000240 6f 8f 8e 3e 6f 96 ef bd 73 94 3c 3d 71 77 49 be
       0.27843806 -0.11698615 0.04604001 -0.1967447
000250 f8 be 84 bc 6f a5 8e 3e 72 47 a0 bd 5e 46 ed bd
       -0.016204342 0.2786059 -0.07826127 -0.11585687
000260 15 c7 83 bd 0f 95 30 3e 20 10 c8 bd 7b de 7f be
       -0.06434456 0.17244361 -0.097687006 -0.24987213
000270 be 35 d3 3d 9b 6d a8 bc 9a 3f 4c ba 7d e4 b7 3d
       0.10312985 -0.020560076 -0.000779146 0.089791276
000280 62 50 a7 bb 3e 08 cb bd 20 73 23 be 86 a3 cf 3e
       -0.005106018 -0.099136814 -0.15961885 0.40554446
000290 3e 44 2a be 40 b8 5e be 16 cc 02 bd 07 61 17 bd
       -0.16627595 -0.21749973 -0.031932913 -0.036957767
0002a0 55 83 d5 bb 50 15 f0 3d ce fc b9 3e 96 6e c8 3d
       -0.0065159 0.11722815 0.36325687 0.097867176
0002b0 57 2a 5b bd b2 05 88 3d 66 4c 09 3e 12 34 09 bd
       -0.053507175 0.06641711 0.1340805 -0.033496924
0002c0 21 18 16 be b0 bf 3f 3d ee f2 94 3d 8e 89 74 3d
       -0.14657642 0.046813667 0.07272898 0.059701495
0002d0 9c 4b f7 bd 7e 2b 8c 3e 97 fc a0 bd 04 4c ab 3b
       -0.12074968 0.27376932 -0.07860678 0.0052275676
0002e0 80 c3 13 3d 6e 26 80 bd 6d a5 94 3e 95 ac 8a bb
       0.036075115 -0.0625733 0.2903246 -0.004231999
0002f0 f2 19 d0 3b 3d 39 97 3d e0 1e c0 3d 4a 9d a7 3e
       0.006350749 0.07383964 0.09380889 0.3273719
000300 f2 27 18 3d d2 08 d8 3d 8c 9b 64 3e 5d 67 62 3c
       0.03714747 0.10548557 0.22324961 0.013818589
000310 d7 0f 95 3e 64 fb 57 be 4f 7d fc 3d ed 4c 60 be
       0.29113647 -0.21091992 0.12328588 -0.21904345
000320 ac f1 17 3e e5 da 4d bd 6c fe 00 3d 74 46 d6 bb
       0.14838284 -0.050257582 0.031492636 -0.0065391604
000330 eb 0f 85 3d 62 08 6c bd 39 20 f2 3c 76 46 42 3d
       0.06497177 -0.057625182 0.02955638 0.047430478
000340 ab 19 f5 bb 00 1f 4f 3e 6e cb 83 bd 02 2e 21 3e
       -0.0074798665 0.2022667 -0.064352855 0.15740207
000350 27 f0 01 be 43 55 05 3f 03 44 f0 3d 1c f8 cf bd
       -0.12689267 0.52083224 0.11731722 -0.10154745
000360 33 4e 97 3e 32 5e b5 bd 8e 6c 17 3e 1d ba 68 3d
       0.2955185 -0.08855857 0.14787504 0.056818116
000370 23 de e8 3d 2f 06 c5 3c 4b c1 79 ba b0 25 a2 bd
       0.11370494 0.0240508 -0.0009527399 -0.079173446
000380 83 dd 77 bd 2c a9 f8 3d 39 89 27 3d 93 24 18 be
       -0.060513984 0.12141642 0.04090235 -0.14857702
000390 1f 0d 93 bd 16 bb 5e be 32 1a fd 3d 3b 61 e9 3c
       -0.07180237 -0.21751055 0.12358512 0.028488746
0003a0 3b bb ba 3c 4b 78 4d 3e 16 ab 40 3d 02 21 e9 3d
       0.022794357 0.2006542 0.04703816 0.11383249
0003b0 5c eb c2 3e 14 1f 01 be 29 07 c3 3d 08 06 92 3e
       0.3807019 -0.12609512 0.0952285 0.28520226
0003c0 bf cc 65 bc 04 48 1b 3e f7 02 cf 3d 8a b9 aa 3d
       -0.014025866 0.1516419 0.101079874 0.0833617
0003d0 24 e8 80 3e 3b e5 79 3d 2b d2 1d 3d c2 90 8a 3d
       0.2517711 0.061009627 0.03853051 0.067658916
0003e0 96 26 26 3e b0 14 dc be b5 31 cf bc af fe c0 bc
       0.16225657 -0.42984533 -0.025292257 -0.023558943
0003f0 36 d8 bd 3d 24 b5 bb 3c d1 11 e8 3d 9b e1 be 3b
       0.092697546 0.022913523 0.11331523 0.005825234

decoder.4.bias f4 [50]
000000 e9 30 00 be 3c 6d d7 3d 78 0d a4 3e b0 32 02 bd
       -0.12518658 0.10518882 0.32041526 -0.03178662
000010 f7 cc ea 3d 3d 92 f8 bd ef 98 85 be 74 1a ad 3d
       0.11464875 -0.12137268 -0.26093242 0.08452311
000020 ae 41 1e be 90 f7 9e 3d 44 d5 05 be 2b 7f db bd
       -0.15454742 0.077620625 -0.13069636 -0.10717615
000030 1c 7c 14 be 34 86 f4 ba 2d ca 09 3d 1d cf 2d be
       -0.14500469 -0.0018655718 0.033640075 -0.16973539
000040 61 e8 8d bc c6 43 02 bc 12 a7 88 3d e0 94 d4 bd
       -0.017322721 -0.007950729 0.06672491 -0.10379958
000050 35 5b cd bd ed 7d 99 3c a6 64 8c 3e 9f 5f f7 bc
       -0.10027162 0.018736804 0.2742054 -0.030196963
000060 c6 3b b2 3d 92 45 a2 bd 44 ee 75 bd a5 e8 7e bd
       0.08702807 -0.07923426 -0.06004168 -0.062233586
000070 49 84 ef bc a7 72 45 3e 5c ce 34 3d f4 fe 10 3e
       -0.029237883 0.19282018 0.044142112 0.14159757
000080 79 94 ec 3b 96 1a 04 bd 19 37 75 3c 26 18 48 3d
       0.0072198478 -0.032251917 0.01496675 0.048851155
000090 2a a8 12 3e ea 97 d7 3d 3d 15 0f 3e 65 60 1d bb
       0.14321962 0.10527022 0.13972946 -0.0024013754
0000a0 71 f9 1d bd 1a 80 94 ba 95 e4 27 3e 4c 18 84 3d
       -0.038567964 -0.0011329681 0.16395791 0.06449947
0000b0 3c 81 05 be 3a b7 85 bd ab 50 5e 3d 9b f7 ba bd
       -0.1303758 -0.06529088 0.05427615 -0.09129258
0000c0 1a c9 59 3e 6d cc e1 bb
       0.2126812 -0.0068908245
