RiskViz Folder/model/checkpoint_1300.tar (torch, 110796 bytes, 51 tensors)

encoder.1.weight f4 [50, 6]
00000000: f542 08bf b606 2f3c c2c3 cdba 9bf2 5a3e
00000010: 4a4b b4be 9fa7 033e c6d9 18bb d5ae 13bb
00000020: 04b9 d9bb 1e0c 2d40 b8b2 7c3c e1f2 1fbe
00000030: 6358 41be 1659 41be 3edf 333c f6c5 a9bd
00000040: a85a d43e 5da6 9fbe da51 4f3e dbca c43b
00000050: 7326 713b 98c8 01be 540f 173c 329d 963f
00000060: c215 ebbc f7bb 30be 2389 39bc 74f4 533f
00000070: 4f19 7e3e 1bd9 0bbf 2466 263f 21ce 5a3c
00000080: bdc5 3b3c 5751 733d 6b9d 6d3d cb03 8b3f
00000090: 04fd a0bd 4d27 67be 2646 ecbd 2519 7bbe
000000a0: a143 543e 02ec 50be 1b89 4cbf 5e40 0d3e
000000b0: 8f9d f63b f2fc 20bd 09a8 f7bd c5b6 4fbd
000000c0: d2a6 313f 9dd1 a4bb 7a51 d9b9 276d 613f
000000d0: f2cd 2a3f 687d 393d 0029 a5be 7704 313c
000000e0: b87b 42be d3f7 12bb 3fb4 4b3e d302 383e
000000f0: edc3 febe aa8f b33a 937d 383a 7b9c 78bf
00000100: 7285 9abe a31b 243e 828a 6ebe 3d93 36be
00000110: 9369 0c3e f298 703e 1971 bb3b 149d 22be
00000120: 6a0f 39be 1d7c 30bc 08b2 06bd 6fcb 8c3f
00000130: a01e c4bd dc87 303f 47ac 08bf 00b4 1c3b
00000140: fade 273b 5f55 48bf 5445 97be ca1e 013e
00000150: c497 1dc0 027c 983b 6833 0c3c 56e5 033e
00000160: 257a f1be e10d ed3e 42d9 2bbf fb5b cc3b
00000170: 146c d33a f018 b6bd e635 e0be 2bfe a6bd
00000180: 2fd3 85be 8fdc 8f3e da36 233e a8fa a43e
00000190: 8ad9 9abe 79da ccbe 6194 80bf 60c7 1fbc
000001a0: 9d1d a33b a3e9 63bf ebb0 393f 2a31 163f
000001b0: 341b d6bb 3117 2cba 685e 03bc 89e0 2640
000001c0: 294a 1c3c 1cd8 f8bd db84 af3d 5110 9dbe
000001d0: 92ad 5fbe 9a7a 44be 848c 6cbe 6342 943d
000001e0: a47f 28be 6791 40ba debf bcba bbfd 34bf
000001f0: 45ca 403f 54ba b13d 603f b5be a69e 87be
00000200: 4bd9 1f3e aacf 1a3e 1140 81be fb09 04be
00000210: 8a39 32c0 8a3a 54b8 9349 ad3a 60fd dabe
00000220: 914c a7be 00a2 623e 7d47 a83e 9d77 b1bd
00000230: ace6 86bd 0936 133e 5cc0 7c3d 9f72 09be
00000240: 2255 91be e83a 05be 8a3d 893d 4a85 d3bd
00000250: fc9e 143f edf8 7f3d bcb0 d8bd 6ee3 c7be
00000260: c323 bfbe 45da 303e f3f3 9f3e c9db 05bb
00000270: e99d 30c0 44f3 c43b 6b97 deb8 c634 32bf
00000280: bd1b 28be 8df9 193e ee0f 22c0 7fa7 88bb
00000290: 52c5 543b 65a3 1bbf 3357 02be c8ef 08bf
000002a0: 152c 533f 3a8b bfbb 6e8e 3bb9 681d 9bbf
000002b0: 6c00 253f a9dc 6d3d ebdc 67be c943 d9bc
000002c0: 0200 94be dc53 9abc a014 693e 6ae5 3bbe
000002d0: 4bad 533f 7f3f 59bc 9146 7fba c3c0 0b3f
000002e0: a20e b9be 84a4 84be 90b2 8d3d da71 19bc
000002f0: d1d5 abbb 4cc1 dcbd 563e 213e 9b1c ae3f
00000300: b63d a03e c43a ccbe 350e 2f3d 5890 9fbc
00000310: 051a e13d 5407 cdbd 48ee a93d d9fa 63be
00000320: 05cc 183e 6f09 323f 23e0 873b 4513 6abe
00000330: d824 37bf 0671 d4bc e5b4 123b b9dc 2c3b
00000340: ba60 3ebc 6ea8 963f 9339 3ebb 024a 613b
00000350: a737 eabb 76cd d73f 6229 b23e 524c c23b
00000360: 7cfe 663e 6b0a 0a3e 200e 243d 2870 f2bd
00000370: 323b 813d 8897 ef3c e69c 493c dead afb9
00000380: 066b af3b b129 43bf 1d30 143d b6c3 3e3f
00000390: dcbd 633b 41a4 98bb 9627 323b 1c43 6fbe
000003a0: dc16 803e fe82 c33f 2403 953f 17c9 35bb
000003b0: db4c 06bb f08d cabe 324e 05be d169 20bf
000003c0: 26ac 32c0 cbcd 083c e69d b93b c415 64bf
000003d0: 698a a3be 6694 733e 2e8f 36ba 5ffd ac3a
000003e0: bdc8 80ba 9da6 2340 8ba1 c6be 7d56 4bbe
000003f0: cf35 1fbf b7f6 e53a c876 71bb 665a 393e
-0.5322717 0.010682752 -0.0015698599 0.21381609 -0.3521369 0.12856911 -0.0023323162 -0.0022534628
-0.00664437 2.7038646 0.015423469 -0.15619995 -0.18881373 -0.1888164 0.010978518 -0.08289711
0.41475415 -0.31181613 0.20246068 0.0060056276 0.00367966 -0.12674177 0.009219963 1.1766722
-0.028696898 -0.17259203 -0.0113242 0.8279488 0.24814342 -0.5462815 0.64999604 0.013354809
0.011460719 0.059403744 0.058011454 1.0860533 -0.07860759 -0.22573586 -0.11536817 -0.2452131
0.20728923 -0.2040253 -0.79896706 0.13794085 0.0075261067 -0.039303727 -0.12092597 -0.050711412
0.6939517 -0.0050298707 -0.0004145017 0.8805718 0.667205 0.045285612 -0.32257843 0.010804287
-0.18992507 -0.0022425547 0.19892977 0.17969827 -0.49758855 0.0013699431 0.0007037755 -0.9711377
-0.30179936 0.16026168 -0.23295024 -0.17829604 0.13712148 0.23495844 0.0057202694 -0.15880233
-0.18072286 -0.010771778 -0.032884628 1.0999583 -0.09576154 0.68957305 -0.53387874 0.0023911
0.0025615082 -0.78255266 -0.2954508 0.12609401 -2.462388 0.0046534548 0.008557178 0.12880453
-0.471635 0.4629965 -0.67128384 0.006236551 0.0016130232 -0.08891475 -0.4379112 -0.081539474
-0.26137683 0.2809796 0.15938893 0.32222486 -0.30244094 -0.4001043 -1.0045282 -0.009752125
0.0049778954 -0.89028376 0.7253558 0.5866877 -0.0065340046 -0.0006564735 -0.008018114 2.6074545
0.0095391655 -0.121505946 0.08570262 -0.3067651 -0.21843556 -0.19187394 -0.23100477 0.07239225
-0.16454941 -0.00073458854 -0.0014400443 -0.7069966 0.7530864 0.086781174 -0.35399914 -0.26488227
0.15610234 0.1511828 -0.2524419 -0.12894432 -2.784762 -5.0599258e-05 0.0013220779 -0.42771435
-0.32675603 0.2213211 0.3286704 -0.086653925 -0.06586966 0.14376082 0.061706886 -0.1342263
-0.28385264 -0.13010752 0.06701191 -0.10328157 0.5805509 0.062493253 -0.105805844 -0.39040703
-0.37331972 0.17270763 0.31240806 -0.0020425192 -2.759638 0.006010445 -0.00010613989 -0.69611776
-0.16416831 0.15036602 -2.5322223 -0.0041703577 0.0032466245 -0.60796195 -0.12728576 -0.5349088
0.8248914 -0.0058454545 -0.00017886769 -1.2118349 0.6445377 0.058071766 -0.22642867 -0.02652158
-0.28906256 -0.018838815 0.22761774 -0.18349233 0.826863 -0.013259768 -0.0009737993 0.54591006
-0.36143976 -0.25906765 0.06918824 -0.009365523 -0.0052439948 -0.10779056 0.15746436 1.360248
0.31297082 -0.39888585 0.04273816 -0.019478008 0.10991291 -0.10011163 0.08297402 -0.2226366
0.14921577 0.69545645 0.004146592 -0.22858913 -0.71540594 -0.0259328 0.0022385654 0.0026376678
-0.011619741 1.1770151 -0.0029026016 0.0034376387 -0.0071477476 1.6859577 0.34797198 0.0059295082
0.22558016 0.13480537 0.040052533 -0.11837798 0.06310119 0.02924706 0.012305474 -0.00033508142
0.0053533344 -0.7623549 0.036178697 0.7451738 0.0034750616 -0.0046582525 0.002718424 -0.23365444
0.2501744 1.5274351 1.1641583 -0.0027738267 -0.0020492587 -0.39561415 -0.1301811 -0.62661463
-2.791757 0.008349846 0.005664575 -0.8909571 -0.31941536 0.23787078 -0.00069640845 0.0013198069
-0.000982545 2.5570443 -0.38795123 -0.19857211 -0.6219148 0.001754484 -0.003684448 0.1810089

encoder.1.bias f4 [50]
00000000: 69aa 803e 80e9 e9ba 3727 28bc 5ee1 1fbe
00000010: 45ef acbd c0d0 04bf 4959 09be 93c6 4bbd
00000020: 372e b6be 888b aabe 81f2 483e 5950 c9be
00000030: 049f 76bf 03ac 733e 5d7b 813c 03ad ae3e
00000040: ddc1 b7be be97 163c b186 9aba 761f 89be
00000050: 9fd9 a43d d71f 12be a2c3 583c 0986 bcbe
00000060: b25f 4bbd b463 9dbe 00fa 8f3c feca 923c
00000070: 8003 d6be 8a85 77be c1c5 e4be c584 72be
00000080: 4eb2 d6be da8e b9be 0bfe 2dbb 5da0 c3ba
00000090: d333 b3be feaa 97bc 581b bbbe daa5 36bf
000000a0: faf9 713c a54d 8eba d7a4 6d3a 66ba fbbe
000000b0: 4691 39bf 5b72 833b 4973 e1bb 39cb 4e3c
000000c0: 602e 91be ac1a 67ba
0.25130013 -0.0017846078 -0.010263256 -0.15613315 -0.084440745 -0.5188103 -0.13412966 -0.049749922
-0.35582134 -0.3330958 0.19623758 -0.39319113 -0.9633639 0.23796086 0.015805895 0.34116372
-0.35890093 0.009191452 -0.0011789409 -0.26781815 0.080493204 -0.14269958 0.013230236 -0.3682101
-0.04965181 -0.3074013 0.017575264 0.01791906 -0.41799545 -0.24172035 -0.44682124 -0.2368346
-0.4193291 -0.362418 -0.0026549126 -0.0014925111 -0.35000476 -0.018514153 -0.365443 -0.7134682
0.014769072 -0.001085688 0.00090653956 -0.49165648 -0.72487295 0.004011435 -0.006880198 0.012621694
-0.28355694 -0.0008815925

encoder.4.weight f4 [50, 50]
00000000: a274 4c3d 1386 c2be 80ab 1abe 58b8 83bd
00000010: 9f22 7dbe e4ed d83d 7d9d 93bc b16b 4e3d
00000020: fc1f 8f3d 919b b53d dc7e 1d3e 3c26 ae3b
00000030: 4b88 c4bd 2785 02ba eb49 723e 2f9b 21bd
00000040: 20b3 0fbe 261f 513b 525f c3be af92 cabd
00000050: 5529 8bbc 783e 053d 2417 833e 97f5 cfbc
00000060: cde0 b0bc 96f3 0dbd cecd 0c3e 22d6 9d3e
00000070: 8adf 303d 9466 ce3d ff90 0c3e 5605 fdbd
00000080: 4bb2 193d 1708 883d 662b c23d a18e 9fbe
00000090: c35f 4dba bed0 aebd 7379 7fbc 9f5a 803e
000000a0: c213 863e 8217 aebe 1706 4cbd 428e 92bd
000000b0: 69be f63e 69fd 7ebc c57e 99be 90aa fbbb
000000c0: a537 8c3d 34f3 f7bd 7f32 d4bc e80a 4ebc
000000d0: 67da 353d dca5 e1bd 67fc c5bc ffcd 483e
000000e0: 778e 93bd a59e b9bb f95a 74bd ac15 993d
000000f0: 2e50 84bd ba98 d9bd 589f e8bd 7799 843e
00000100: 0ab3 003e 4ad3 ffbc 3f65 09be 6a80 843c
00000110: 6c1f 40bb a1ed 853c 17cd 82bc c852 fcbc
00000120: 1807 823e 2471 533d 56ea ad3c e0a6 9cbd
00000130: b9a2 c43e d052 c43e 9628 c4bc 0b3d 063e
00000140: 2f33 b1bd 065d 1bbe 2b9d dd3c aaa2 0c3d
00000150: ca51 203e 7bf8 c5bd 5334 c33d de88 7839
00000160: 70d0 1cbe d6a8 be3e fc1d 9c3e 2b2e 1abc
00000170: f620 e5bd 4de4 c3bd 1d38 853e fafd 0c3e
00000180: 5ca7 02be 98ea b8bd e343 0abd 1145 2b3d
00000190: f7b7 c23c fbf7 e6be 7454 a13d dfd3 af3d
000001a0: c22b 25bd 51d5 e63c 7579 2fbd 9563 f53b
000001b0: 9d24 3fbe 0be8 0f3e e47d 473d d7a6 093e
000001c0: b740 023e 72d8 633d ae6c 7abe a5ac a93c
000001d0: 0588 59bd d366 37bd 306c b5be 854c a13d
000001e0: e456 723e 300e e1bd e1f8 75be 8756 2c3d
000001f0: c25c 77bc d855 853d a978 ff3c 2671 62bd
00000200: b4b9 4ebe f683 27bd bdcf a0be 0dec 003e
00000210: 37cd c83d a586 09be 0c88 6c3d d886 59bd
00000220: ef69 dd3d 83a1 943d 5846 543d be9f 80be
00000230: d00a 3abd 00a7 4cbe 6f98 00be 96b1 c7bb
00000240: b522 2cbe af38 d33d 1ae9 44bc 7838 d5bd
00000250: 528c d1bd 8f36 3bbe 8007 8cbe 4c98 6fbe
00000260: 6e21 efbc 2259 a0bd 2950 8dbd b787 643e
00000270: 9dc3 ff3d e277 683d 6711 543d 896a e9bd
00000280: ded6 c9bd b616 f6bd e050 d23d 6a4d 67be
00000290: 9133 c13c 425b 58be be5d c8bd 9cb7 90be
000002a0: 0e13 68be 0e69 84bd 97d2 b2be 7de0 cc3d
000002b0: 99f9 8abd 13e5 89bc bbab 5fbd ec8e 703d
000002c0: 6b04 80bd d52a 8dbc 64b3 0f3d 13dd c73d
000002d0: b07d 033e 6437 f9bd 86b0 11bd 6dd1 e5bd
000002e0: 0590 6a3d 97f2 82be afab af3c fff5 a1be
000002f0: cf77 bdbb 1d3c 9f3e 7874 bebd c934 61be
00000300: 7095 3fbe 5f08 063e bfbf e93e f7f8 7abd
00000310: 2c58 9ebe 536f 7a3d 3808 d83d a74d fabd
00000320: 7e5d 313d 5d81 4cbe ca96 333c 838e f43e
00000330: a812 f4bd 25e6 bd3e 5d3b 92bd b716 243e
00000340: 4a17 9fbc 48e6 c0bd 341d d3bc da4e e43d
00000350: 79a4 c9bc 0b64 7abc 6864 e93c 4f1a 57bc
00000360: 02dc eebd 780a 7539 2c35 7bbe 86e2 093d
00000370: 98e4 ebba 3eec 2dbd c1bc 71bd 490e ab3d
00000380: 8f2e 0a3d 9964 873d 070e c23d 75be c43d
00000390: e41f 61bc 566d 673d aea2 31bd 7dda e93e
000003a0: 6c05 5ebd a426 e33d 74fa b23e 0754 013d
000003b0: d8fa 09be ac02 97bd 68a2 e53e 4d53 503e
000003c0: 7270 39bc dedd 81be aa54 91bc aa6c d03d
000003d0: af3a a6bd 51a0 4f3d b774 1a3c 5439 e1bd
000003e0: b381 9ebd c252 183e 0c57 c3bc c865 65bd
000003f0: 3365 b33c bb5a 633e 2eea 2f3d 9cf5 8f3e
0.049915917 -0.37992916 -0.15104485 -0.06431645 -0.24720238 0.10592249 -0.018019432 0.05039567
0.069885224 0.088675626 0.15380424 0.0053146165 -0.09596308 -0.00049789477 0.2366101 -0.039454635
-0.14033175 0.0031909435 -0.3815866 -0.09891259 -0.016987482 0.032530278 0.25603592 -0.025385661
-0.021591568 -0.03465613 0.13750383 0.30827433 0.043181933 0.10078159 0.13727187 -0.123545334
0.03752355 0.06642168 0.09480934 -0.31163505 -0.0007834399 -0.08535908 -0.015592921 0.25069138
0.2618695 -0.3400231 -0.049810495 -0.0715604 0.48192146 -0.015563347 -0.2997953 -0.0076802447
0.06846551 -0.12106934 -0.025902985 -0.012575842 0.044397738 -0.11017963 -0.024168206 0.19609831
-0.072049074 -0.005664664 -0.05965707 0.07474837 -0.064606056 -0.106248334 -0.113585174 0.25898334
0.12568298 -0.03122868 -0.13417529 0.016174514 -0.0029315604 0.016348662 -0.015966935 -0.030801192
0.25396037 0.05162157 0.021229904 -0.076490164 0.38405398 0.3834443 -0.023945134 0.13109224
-0.086523406 -0.15172204 0.027052483 0.034334816 0.156562 -0.096665345 0.095314644 0.0002370211
-0.15313888 0.37238187 0.30491626 -0.009410421 -0.111879274 -0.09565029 0.26019374 0.1376876
-0.12759155 -0.0902912 -0.033756148 0.041813914 0.023769362 -0.4511107 0.07877436 0.08585333
-0.040324934 0.028177889 -0.04284044 0.0074886777 -0.1866631 0.14053361 0.048704043 0.1344255
0.12719999 0.05562634 -0.2445552 0.020712206 -0.053108234 -0.044775795 -0.35434103 0.07875923
0.23665959 -0.10989034 -0.24020721 0.042074706 -0.015097799 0.06510514 0.031185465 -0.055283688
-0.20188028 -0.040897332 -0.31408492 0.12590046 0.098047666 -0.13430269 0.057746932 -0.053107113
0.10811221 0.072573684 0.051824898 -0.25121874 -0.045420468 -0.1998558 -0.12558149 -0.006094168
-0.16810115 0.10313546 -0.012018466 -0.10411161 -0.10231842 -0.18282531 -0.27349472 -0.2339794
-0.029190745 -0.07829501 -0.06900055 0.22317396 0.12488482 0.056754954 0.05177441 -0.11397273
-0.09855436 -0.120160505 0.10269332 -0.22588125 0.02358416 -0.21128562 -0.09783505 -0.28265083
-0.22663519 -0.0646535 -0.34926292 0.10003755 -0.06785888 -0.016832864 -0.054607134 0.05873005
-0.06250843 -0.017232338 0.03508319 0.097589634 0.12840915 -0.12168768 -0.035568736 -0.112215854
0.057266254 -0.25575706 0.02144417 -0.31632993 -0.0057821046 0.3110055 -0.092995584 -0.21992792
-0.1870935 0.13089131 0.45654103 -0.061272588 -0.30926645 0.061141323 0.105484426 -0.12221842
0.04330205 -0.19971223 0.010961244 0.47764978 -0.11917621 0.3708965 -0.07140229 0.1602429
-0.019420285 -0.09418923 -0.025770761 0.11147852 -0.02461456 -0.015282641 0.02849026 -0.013128831
-0.11663057 0.0002336892 -0.24532002 0.033663295 -0.0017997203 -0.042461626 -0.0590179 0.08352334
0.033735808 0.06610984 0.09475332 0.09606639 -0.0137405135 0.056500755 -0.043368034 0.45674506
-0.05420439 0.110913545 0.34956706 0.031574275 -0.13474596 -0.073735565 0.4485047 0.20344277
-0.011318313 -0.25364584 -0.017740566 0.10176976 -0.08116662 0.05069 0.009427241 -0.109972626
-0.07739582 0.1487532 -0.023845218 -0.05600527 0.021898841 0.2220258 0.04294794 0.28117073

encoder.4.bias f4 [50]
00000000: da2c fb39 3b4b 8dbc f297 ae3b 13c1 e73b
00000010: beb5 82bb c6fc 29bb 7518 38bf a981 edbb
00000020: b6fe c2be 0ae9 80bc 409f c5bb e91d 913c
00000030: 5187 daba 95ac 2ab9 d617 b3be 1f74 14bd
00000040: 8aa8 fb3b 0064 9837 661d 80bc c93c 2fbf
00000050: cff2 01be fe76 28bc 01da 90be ac14 afbb
00000060: e29a 30bb 6625 c4bb 3781 c7bb 74c1 48ba
00000070: bd21 113c fff6 92bb 2c56 91bb e702 c4bc
00000080: f593 983c 957b 1cbe d2eb 9bbe 56fc 3dbe
00000090: 5bdb c1be 0b5b 48bd a4d2 2abf b74f c6b9
000000a0: 841b c93b 73e2 5fbe 29d9 8dbc 3c92 11be
000000b0: 2e1b 38be fdf6 343c b647 e4be 815a aabc
000000c0: 6589 05bb 5eaf 253c
0.00047907868 -0.017247787 0.005328172 0.007072577 -0.0039889505 -0.0025938018 -0.7191232 -0.0072481227
-0.38084954 -0.015736122 -0.006030947 0.017714458 -0.0016672408 -0.00016276755 -0.34979123 -0.036243554
0.0076800035 1.8166378e-05 -0.015639018 -0.68452126 -0.1269028 -0.010282276 -0.28291324 -0.0053430405
-0.0026947786 -0.0059859036 -0.0060884017 -0.00076582213 0.0088581415 -0.0044850106 -0.0044353213 -0.023927165
0.018625239 -0.15281518 -0.30453354 -0.1855329 -0.37862667 -0.04891495 -0.6672766 -0.00037824895
0.0061373133 -0.21863727 -0.017315464 -0.1421594 -0.17979118 0.011045215 -0.4458596 -0.020795109
-0.0020376083 0.010112612

encoder.7.weight f4 [20, 50]
00000000: 0104 343e 8f4a 603e b4a1 b73c 7b12 a3be
00000010: 29ec 143d 347d 0c3d 8e89 a5bd d770 613f
00000020: bfff 50bd 0322 f83e 85b1 063d d763 a7be
00000030: ffc9 d8be a256 6fbe bed2 05be fcae bc3e
00000040: 1866 c83c babb 183f 66d1 82be 9f54 3cbd
00000050: e35a 9cbd d0a6 f23e 2e8d 18be d6fb 333f
00000060: 2b91 97bd 7640 433f d32d 123f a582 453f
00000070: 4ac3 8abe 4287 763c 9d09 94be 8001 0f3f
00000080: 1a21 04be 74cb 1ebc f584 abbd 4b52 63bd
00000090: 8719 64bd 4b43 553c ecd2 c43d 19c2 a0be
000000a0: 3ffb 55be 04b4 c3bd 5c9f 0e3e 3b61 553e
000000b0: 8d49 043e b7b0 bbbe d9a1 babd edba 0d3e
000000c0: b8b9 b9be 6c40 adbe 0023 c83b fdd6 c73c
000000d0: 476b 29bc aab9 843c e680 8b3e cd61 ae3e
000000e0: e0fe 583c 70c5 7a3e a19b 8a3e 3e8e b03e
000000f0: 9973 b03e 6671 ae3b be80 8cbb 97a0 61bc
00000100: 9ed2 953e 5957 ca3c fe0f 03bd 1d96 8f3e
00000110: ab25 7e3b 90d8 153e 7632 dc3d 9f55 cc3d
00000120: e992 38bc 9e2d a13e 9fbe 7d3c 3ce1 9c3d
00000130: 8d7f 6e3e 43a1 133e 5d67 3d3c 2cb5 d63e
00000140: 5b58 733b aa0c ad3c a40e b33b 838e 56bd
00000150: c68b b13e a299 3cbd 8236 8b3e 2850 8fba
00000160: c932 363e 74cb 7739 c637 803c 68ca 203e
00000170: 8b24 803c 1b25 b63e ce55 09bd cc1f 193b
00000180: bf45 a13e 1231 b33c 7e9b 5c3b 1c2f db3b
00000190: 9e66 0b3f a6f2 923e 7a0d cebe 351c c23e
000001a0: 170d 04be f82a 8dbe ac5a 7bbe ca49 b9bd
000001b0: 9eff 47be 5c05 91be f465 b9be ad45 9a39
000001c0: 1ecb 0b3c 397b acbd 9a29 423c 7e9b 72be
000001d0: b001 9bbe da64 2fbe 49ad 5d3d c3cd 27be
000001e0: 3d7e 98be c267 a3bd 59b7 13bf e3cd 29be
000001f0: ab59 b6bd 0ea1 65bd 5690 2abd f891 2dbe
00000200: d26a be3e c5f8 0cbe a676 8f3c 9cd7 02be
00000210: 4f96 283e ab26 e53d 3e54 7bbe bee9 a93c
00000220: e180 b5be 0d49 b23d ba17 5abe 8351 873c
00000230: 3917 e53e 4412 113d c53a 9abe 976f 01bf
00000240: b136 023e 6d33 063e 7a94 5fbb e091 0f3f
00000250: 711e 173c 115a 963e e6fe d93c f982 923d
00000260: fc48 02be 08a5 113c e8c3 58ba 4d83 48bb
00000270: 5b00 90bd d21d 1d3e 6b15 2fbe b5e7 043f
00000280: 2a79 793c 636e f1bb fb26 643e f5d5 8d3e
00000290: 53cc 233d 02d8 7bbd 082e b3bd da16 503e
000002a0: 0ade a53e fd72 5abe a4da f23b 34c1 5a3e
000002b0: db30 a93e c02c 5b3e 9039 5b3e fc0d 8e3e
000002c0: bab7 b43e 1c3b 693e feec ec3b a45f ee3a
000002d0: b336 b53e c752 2c3d 7323 513c df55 ed3c
000002e0: d529 a23e 9e5a 8cbd e924 48bd c594 f23e
000002f0: 951f 90bd 5db9 273e 6211 8e3b da3f 41bd
00000300: 26b5 df3c 3b51 dd3e 47e3 063e 04da 4f3c
00000310: 74cf b5bd 9744 ea3c cef8 0e3e 9d02 393c
00000320: 109a a1be 08f8 0b3d 939f 04be 64eb 91be
00000330: 6883 c9bb 4ff3 bbbd 8a76 10be d333 6fbd
00000340: c8a1 81be eaf6 373d 398e 8c3c f1d2 3dbc
00000350: 2e84 843e 8028 ac3e e7ba 3e3b 432a 4cbe
00000360: 664b 11be 83d5 fabc c23f 473e 9cf7 6ebe
00000370: 46ec eaba 31fe 37be 584e d43e dafb 93bc
00000380: cc3d d03e 2067 1fbd ad23 89bc 5763 5b3b
00000390: 3d23 f1bd b7ef d73c 1e7d 453e 1ed4 f5bd
000003a0: c8ea b8bd 7f2e 66bd 67d7 983d e353 11bd
000003b0: 38cb cfbd 1ca0 c13e 0ca0 88bd 1f39 883e
000003c0: 1c10 44be 6f51 083e 15a6 663e 4910 743e
000003d0: 8a4e 673d 4629 f3bd 67ed 503d 06b2 8ebe
000003e0: 4f98 9a3e c980 3dbe 7668 96be 810c 9ebe
000003f0: f45d 0a3e 7230 a0be ad3c eb3e 34a1 a83e
0.17579652 0.21903442 0.022415973 -0.31850037 0.036358032 0.03429909 -0.08082877 0.88062805
-0.05102515 0.4846345 0.03288414 -0.3269336 -0.4234161 -0.23372892 -0.13068673 0.36852252
0.024462745 0.5966145 -0.25550383 -0.04597914 -0.07634523 0.47392893 -0.14897606 0.70306146
-0.074007355 0.76270235 0.5710117 0.7715247 -0.2710212 0.015046896 -0.28913584 0.55861664
-0.12903252 -0.009692062 -0.08374969 -0.055498403 -0.055688407 0.013016532 0.09610543 -0.31398085
-0.20896624 -0.0955582 0.13927978 0.20837872 0.12918682 -0.3665826 -0.09112901 0.13840838
-0.36274505 -0.33838212 0.006107688 0.024394507 -0.010340518 0.016201813 0.2724678 0.3405899
0.013244361 0.24489379 0.2707186 0.34483522 0.34463194 0.0053235767 -0.004287808 -0.013771198
0.2926225 0.024699854 -0.031997673 0.28044215 0.0038779776 0.14633393 0.10751812 0.099772684
-0.011265495 0.31480116 0.015487342 0.076601475 0.23290844 0.14416985 0.011560288 0.41935098
0.0037131521 0.021124203 0.005464392 -0.052382004 0.3467695 -0.046044953 0.27190024 -0.0010933923
0.1779281 0.00023631548 0.015651595 0.15702212 0.015642425 0.35575184 -0.033529095 0.00233649
0.31498525 0.021873984 0.0033662017 0.0066889655 0.54453456 0.2870075 -0.40244657 0.37912145
-0.12895618 -0.27571845 -0.24546307 -0.09047277 -0.19531104 -0.283244 -0.36210597 0.0002942508
0.008532314 -0.0842194 0.011850739 -0.23692128 -0.30274725 -0.17128316 0.054120336 -0.16387086
-0.29783812 -0.079787746 -0.5770164 -0.16582446 -0.089038216 -0.056061797 -0.041641556 -0.16950214
0.37190872 -0.13766773 0.01751263 -0.12777561 0.16463588 0.11189016 -0.24543855 0.02074134
-0.3544989 0.087053396 -0.21298113 0.01651836 0.4474428 0.03541781 -0.30122963 -0.505609
0.12716176 0.13105555 -0.0034115599 0.5608196 0.009223566 0.2936559 0.026610803 0.07153887
-0.12723154 0.008889444 -0.00082689384 -0.003059584 -0.07031318 0.15343407 -0.17098014 0.51916057
0.015226642 -0.0073678955 0.22280495 0.277023 0.03998978 -0.061485298 -0.08749014 0.20321217
0.32395965 -0.21332927 0.007411318 0.21362764 0.33045086 0.2140379 0.21408677 0.27745044
0.35296422 0.22776455 0.0072304 0.0018186462 0.35393295 0.04207113 0.012764799 0.02897161
0.3167254 -0.06853221 -0.048863325 0.47379127 -0.07037274 0.16379304 0.0043355683 -0.047180034
0.027308058 0.43226036 0.13172637 0.012686256 -0.08877459 0.02859716 0.13962099 0.011292127
-0.31562853 0.034172088 -0.12951498 -0.284999 -0.006149698 -0.09177267 -0.14107719 -0.058399033
-0.25318742 0.04491321 0.01715766 -0.011585937 0.25882095 0.3362465 0.0029103102 -0.19937997
-0.14188918 -0.030619388 0.19457915 -0.23336643 -0.0017923198 -0.1796806 0.41466022 -0.018064428
0.40672147 -0.038916707 -0.016740644 0.003347596 -0.11774299 0.026359422 0.1928601 -0.12003349
-0.09029156 -0.056196686 0.0746296 -0.03548039 -0.10146183 0.37817466 -0.066711515 0.2660608
-0.1914677 0.13312314 0.22524293 0.23834337 0.056471385 -0.11873107 0.051007655 -0.27870196
0.30194327 -0.18506159 -0.29376572 -0.30868915 0.13512403 -0.3128696 0.4594473 0.32935488

encoder.7.bias f4 [20]
00000000: b11f 153c 0046 79bb 63f8 cbbb 5c5f 0abb
00000010: c5b9 07bb c5f2 1d3c 4139 8fbe c917 a6bf
00000020: f4c7 1c3c cf5e 0fbc 382e 55be 739c 9fba
00000030: a87b dabe 2203 293a 9262 133a daf9 563a
00000040: 6bce 8dbb 3878 c03a 54db 3fbb 026c 11bf
0.009101794 -0.0038036108 -0.0062246784 -0.0021113968 -0.0020710093 0.0096404 -0.2797337 -1.2976009
0.009569157 -0.0087506315 -0.20818412 -0.0012177363 -0.42672467 0.0006447305 0.0005622293 0.0008200683
-0.0043275855 0.0014684265 -0.0029275017 -0.5680543

encoder.10.weight f4 [4, 20]
00000000: 0d7f 6b3f 26f0 3d3e 32e5 50bf b7a4 90be
00000010: 7356 e8be b37d b23e 323d 3a3f 3ed2 b53f
00000020: 22af 4e3f 306e 18bf fe78 34be 1c3a 923e
00000030: dba0 dc3e 4c8d 8a3f d302 ebbe 806c 8b3f
00000040: 1102 82be 6995 92be e861 c2be 157c 7f3f
00000050: c70b fabe 51aa 40bf d855 34bf f7b8 733d
00000060: 996d 4e3f 7db3 0bbf d22b 21be 6051 143f
00000070: 945d e1be c603 05bf de9a dfbd ea10 1bbf
00000080: 21a4 f5bd 1704 08bf bdcd 523f d90d 0ebf
00000090: d82d c9bd 7152 a13e b050 173f a895 95bc
000000a0: aadc 60bf 6bea 273e 10bd 0a3f d090 90bd
000000b0: 06f1 193f 33cc 243f bb58 853e c71e 34bd
000000c0: 3996 4dbf e680 e73e c366 43be d943 023f
000000d0: 3c50 e73e a5b3 80bf 8d9e 1e3f 77d7 83bf
000000e0: d2d2 14be b6de 2e3e 4936 d13e c6c1 c6bc
000000f0: 4ebd 203f f378 72be ecae 153f a863 08bf
00000100: 102d e6be a7cd 793c 460d 3ebe f05f fcbe
00000110: 4d9f 033f 4391 cb3e 98fa 14be eebe 6abd
00000120: 008b cfbe cf53 443f e9b0 e4be 5bcc 433f
00000130: 1583 08bf 99c6 cebe feb6 e0be 0fc6 a0be
0.9199074 0.1854864 -0.81599724 -0.28250667 -0.45378456 0.34861526 0.72749627 1.4204786
0.8073598 -0.5954313 -0.1762428 0.2855996 0.43091473 1.082437 -0.45900592 1.0892487
-0.25392202 -0.28629616 -0.37965322 0.9979871 -0.4883711 -0.7525988 -0.7044349 0.059502568
0.8063598 -0.5457075 -0.15739372 0.5793667 -0.44016707 -0.5195888 -0.109182104 -0.60572684
-0.11994196 -0.5313124 0.8234518 -0.5548988 -0.09823197 0.3150821 0.59107494 -0.018259838
-0.87836707 0.16398017 0.54194736 -0.07058871 0.601334 0.64374083 0.26044258 -0.043974664
-0.80307347 0.4521553 -0.19082169 0.5088478 0.451784 -1.0054823 0.6196068 -1.030013
-0.14533547 0.17077145 0.4086173 -0.02426232 0.62788856 -0.23678951 0.58470035 -0.53277063
-0.44956255 0.015246785 -0.18559751 -0.49291945 0.5141495 0.39759263 -0.14548719 -0.05731099
-0.40535736 0.7669038 -0.44666222 0.76483697 -0.53325015 -0.40385893 -0.43889612 -0.31401107

encoder.10.bias f4 [4]
00000000: ffc8 9dbe f79e a1be 3dfc ae3e 3f92 b43e
-0.3081741 -0.31566593 0.34176818 0.35267827

decoder.0.weight f4 [20, 4]
00000000: e36b 6ebe b8a6 2f3f c2a1 593f e013 df3f
00000010: ad44 203f e189 a6be 7b78 26bf 9b1e 213f
00000020: 629a a5be 3d4b 133d 21df 713f 83dd f73e
00000030: cce3 b8bc 6111 88bf a831 70bf 5d1a 4b3f
00000040: 8ee8 983d 83e2 c43e 04d3 163f 742c 723f
00000050: 8025 2d3f ed4b 23bf e919 d53e 6b34 80bf
00000060: f12d b63f 0742 0cbe 96fa 203f 8839 52bf
00000070: 50ad e63e 3c4e f2be b0ca 0abf 91db 02bf
00000080: 26ed 04be e237 403f c062 ebbe cc0f 22bf
00000090: 3fdd 803e b2b1 243f dd72 5b3e 7c2f ffbe
000000a0: 5c80 2bbe ef2b 7a3e 27a5 c73e d558 46be
000000b0: 1641 e7bf 331a 583f 96f9 65bf d118 583f
000000c0: eb4f 3e3d 61a0 88bf be58 08bf 9cde d13e
000000d0: 82ed 003f 1c9f dd3e b627 e73d f5e4 8b3c
000000e0: 043e 063c 8af9 b8be 2d81 e0be 1082 38be
000000f0: b12d 053f 25bc 13bf 9b3f 273f 1cc5 1ebf
00000100: b5a2 94bf 005f 81be bba2 893e 79fd 19bf
00000110: 617b 9ebf 41b4 afbe 0302 283f 95d7 4bbd
00000120: a25c 09bf 13a7 393f 64c6 57bd 19a2 96bd
00000130: a360 863e 70a2 c3be d2f8 f7bc 4b75 c4be
-0.23283343 0.6861377 0.8501245 1.742794 0.6260479 -0.32527068 -0.6502759 0.62937325
-0.32344347 0.035960425 0.9448109 0.48411188 -0.02256956 -1.0630304 -0.9382577 0.793371
0.07466231 0.38454065 0.58915734 0.9459908 0.67635345 -0.6378773 0.4162133 -1.0015997
1.423277 -0.13697062 0.62882364 -0.82119036 0.45054102 -0.47325313 -0.54215527 -0.5111628
-0.1298109 0.7508527 -0.45973778 -0.63305354 0.25168797 0.6433364 0.21430536 -0.49840915
-0.16748184 0.24430822 0.3899319 -0.19369824 -1.8066738 0.84414977 -0.8983396 0.84412867
0.046462934 -1.0673944 -0.5326041 0.4099015 0.5036241 0.43285453 0.11286871 0.017076949
0.008193497 -0.36127883 -0.43848553 -0.18018365 0.52022845 -0.5770896 0.6533143 -0.62019515
-1.1612154 -0.25267792 0.26881966 -0.60152394 -1.2381402 -0.3431721 0.6562807 -0.049766142
-0.5365697 0.7252056 -0.052679434 -0.073551364 0.26245603 -0.38209867 -0.030270014 -0.38370737

decoder.0.bias f4 [20]
00000000: c658 34bf c9ac 1a3e 9c96 aabe e8e7 563d
00000010: 1778 6bbe 545c 413e 7c12 023e 6191 933e
00000020: 9c75 b4bd 22e1 ff3e e4e3 273e 1a72 47be
00000030: 770d b7bd 57dc d3be c82d f3be a794 11bd
00000040: 58bd 94be 3c9c bebe 1c36 6a3e 4c93 193e
-0.7044796 0.15104975 -0.3331803 0.052467257 -0.2299503 0.18882877 0.12702364 0.28821853
-0.08811495 0.4997645 0.16395527 -0.1947712 -0.08938115 -0.41379043 -0.47495866 -0.035542157
-0.29050708 -0.37228572 0.22872204 0.14997596

decoder.2.weight f4 [50, 20]
00000000: 4168 bb3e 3ff6 edbe 8ffb 40be b292 acbe
00000010: 44a8 8ebb ff8b 273e 69ad 893d a488 343e
00000020: 3cc7 4b3e 2a01 2f3e 0f93 e63c cf8a 503d
00000030: 67f6 74be 5e61 b03d d585 5c3e 059b ca3e
00000040: 1baf 0a3e 7960 423e 3482 8e3d e14b e0bd
00000050: 9afa 14be d95b 79bd e05e 8fbb dcfe a73d
00000060: 315f 11be 59da 1fbe a86a 703e d52d 223b
00000070: e650 57be 3a4d 1fbe b06d c03d 0423 753d
00000080: 1ed9 f33d 82b3 1bbe 1759 b0bd d495 8d3d
00000090: b0e8 983c e525 5f3e 15f5 64be 5df3 223e
000000a0: 06b9 05be 6b0f 483e 1af8 343e ee05 38bc
000000b0: d2c2 abba 46b7 3b3e 957d 1b3e 4364 1dbd
000000c0: b602 efbd e9e7 0f3e ce8a 5cbd 6678 19bd
000000d0: 4b53 0d3e 9248 4b3d 2f51 a0bd 8862 4f3e
000000e0: cb94 0a3c 9581 f9bd 2b61 90bd 02b2 6e3d
000000f0: c69d d3bd a1fa f03d bf27 83bd 7d05 b0bd
00000100: 2cfb 6fbe 1ae5 0cbd 6fa0 313e 8411 733e
00000110: 452f 333c 9bb5 0b3d c46e d0bc c784 293e
00000120: a220 023d 93b4 a7bd ce1b 61be 1404 783d
00000130: c303 f53d 62a6 d13c 8e5c af3d 698b a9bd
00000140: 2c89 f7be 0431 9fbe 7303 303e 3a8c c53d
00000150: bcfc 77be df99 e6bc 40f4 a63e 05af 56be
00000160: 00c1 a1bd ad40 60be 34de e5bd 59d2 573e
00000170: bd0b 8d3e d389 0abe 8033 cdbd 7aa1 aa3e
00000180: 353d 6e3e 70fa 3c3e 10a9 243e 414f 153e
00000190: 917e 1e3e 57ae 923e 4769 843e 3acf 18be
000001a0: 231a 913e 735c a73e 4738 6c3e 09a7 05bf
000001b0: bec5 253e 60f2 493e 5875 01be 3e29 93be
000001c0: e765 e0bd f997 33be bd3b 043e c172 2b3e
000001d0: 7cc3 353c c2b6 d4be 5364 663d 7cb3 523c
000001e0: 3ba4 543e b90c 4fbe 77fe 3c3d 9795 13bd
000001f0: 6f20 fb3d 826f 553e 1790 723c 3dad bcbd
00000200: c0d0 e5bd 3e33 603e 3af9 58bd fdc0 063e
00000210: 1e83 c7bd 555c 63be ca82 53be a071 0c3e
00000220: 2e16 55be d7c1 31bd e194 87bc 8e4f f6bd
00000230: c895 00be cdbb a3bd 999a e7bd 30a3 07bd
00000240: 5b7c 21be 6377 743b 85c1 893e cdac 443d
00000250: 0039 133e 3d58 2c3e 7313 66bd 6f91 183e
00000260: 970c 8a3d bc55 28be 4a92 13be 769a 5abc
00000270: dae3 e83d cd08 993d 85d5 86be a6cf bbbc
00000280: 7a4f ea3e a716 903e d5bf 883e aeb5 82be
00000290: 02f0 c53e af48 133e a189 7c3e 1ab5 a9be
000002a0: d72a 913d 8e57 b03d 4b15 133e e43b 7c3d
000002b0: a392 9bbd d162 a73c ac1c 25be 7320 97be
000002c0: 73e8 2bbe ec9c 8cbd 338c ae3c 0d0a 6b3d
000002d0: 1251 713e 62e1 e5bc 5b06 7c3e 439f d03d
000002e0: 23d9 c73a 0181 8cbe 54b5 e0bd 34ee e5bd
000002f0: ac6d f3bd 16fe db3d f723 1c3e a325 573e
00000300: 2bc3 3bbd ff09 eabd 94ea e23d dcb7 8fbe
00000310: d78d 60be df3f 243e 4c19 3a3e 38b5 083e
00000320: 0236 4cbd b69b 353e 144b d3bd 5900 c0bc
00000330: d369 513e 7224 4a3e 90f4 823e f057 f33d
00000340: a114 0f3e d660 47bd f8c4 8c3d c056 de3d
00000350: 655f 18be e7da 0ebd 2a66 943d 90bf 54be
00000360: e8d6 843e d606 1ebe 20ea 6f3e d3cb 20bd
00000370: a2de 3b3e 4815 e13d 1bce bf3c 146f 3a3e
00000380: 6f79 ecbd dfa4 16be c875 60be 62c3 523e
00000390: 7147 a7bd 2e82 34be 2b42 80be efff 5cbe
000003a0: 79d5 503d 8e2d bdbd faec 7bbd 9058 63be
000003b0: e045 13be d6b7 8b3c 0932 3ebd 67cd c83d
000003c0: edb4 33bd e506 6e3e 5349 bebc 3db7 ba3e
000003d0: 5c0f c4bb 9e34 f2bc 5ad2 3ebd a775 1c3c
000003e0: 4dcd 243e d3eb 8e3e 06e2 203e b2b2 a2be
000003f0: 0e0b ac3e f716 ddbd b317 fb3d eabe 893d
0.36602977 -0.46476933 -0.18845962 -0.3370567 -0.004353555 0.16361998 0.067225285 0.1763025
0.1990022 0.17090288 0.028146295 0.05091363 -0.2392212 0.08612321 0.21535428 0.39571396
0.1354336 0.18982114 0.06958428 -0.10951973 -0.14548722 -0.06087861 -0.0043753237 0.082029074
-0.14196469 -0.15610637 0.23478186 0.0024746556 -0.21026954 -0.15556803 0.09395921 0.059847847
0.11906646 -0.15205196 -0.086107425 0.06913343 0.018665642 0.217918 -0.22359116 0.15913148
-0.13058862 0.19537131 0.17672768 -0.0112318825 -0.0013104326 0.18331632 0.15184624 -0.038425695
-0.11670439 0.1405331 -0.053843312 -0.037468337 0.13801305 0.049629755 -0.078279845 0.2025243
0.008458327 -0.12182919 -0.07049783 0.05827523 -0.10332827 0.11766554 -0.06404065 -0.08594797
-0.23435658 -0.034398176 0.17346357 0.2373715 0.010936563 0.03410874 -0.025443442 0.16554557
0.031769402 -0.08188739 -0.21983263 0.060550764 0.11963608 0.025592033 0.08562575 -0.082785435
-0.4834684 -0.31092083 0.17188816 0.09645887 -0.24217504 -0.028149543 0.32608223 -0.20965202
-0.0789814 -0.21899672 -0.112240225 0.21076335 0.27548018 -0.13529138 -0.100195885 0.33326322
0.23265536 0.1845491 0.16080117 0.14581014 0.15477969 0.28648636 0.2586157 -0.149228
0.28340253 0.3268772 0.23068343 -0.52208 0.16188714 0.19721365 -0.1264242 -0.28742403
-0.10956936 -0.17538442 0.12913413 0.16742994 0.01109397 -0.41545683 0.05624802 0.012860175
0.20765774 -0.20219697 0.046141114 -0.036031332 0.122620456 0.20843318 0.0148048615 -0.0921273
-0.112214565 0.21894547 -0.052972056 0.13159557 -0.097418055 -0.2220319 -0.20655361 0.1371522
-0.20809242 -0.04339775 -0.016550483 -0.120268926 -0.12557137 -0.079948045 -0.11308784 -0.033114612
-0.15770094 0.0037302605 0.26905456 0.04801636 0.14377213 0.16830535 -0.056170892 0.14899229
0.067406826 -0.16438955 -0.14411274 -0.01334249 0.11371584 0.07472382 -0.26334777 -0.022926163
0.4576376 0.28142282 0.26708856 -0.25529236 0.38659674 0.14383195 0.24661876 -0.33145982
0.07088249 0.0861045 0.14363591 0.061580554 -0.07596328 0.020432862 -0.16124219 -0.29516944
-0.16787891 -0.06865868 0.021307087 0.057382632 0.23566082 -0.028061572 0.246118 0.10186627
0.0015247207 -0.27442172 -0.109720856 -0.11227074 -0.118861526 0.107418224 0.15248094 0.21010451
-0.045840424 -0.11427688 0.110798985 -0.2806996 -0.21929108 0.1603999 0.18173712 0.1335038
-0.049856193 0.1773518 -0.103170544 -0.023437666 0.20450525 0.19740465 0.2557721 0.11882007
0.13972713 -0.048676334 0.06873506 0.1085639 -0.1488014 -0.03487673 0.07246049 -0.207762
0.2594521 -0.15432295 0.23429155 -0.039256882 0.18346646 0.10990387 0.023413708 0.18206435
-0.11546599 -0.14711331 -0.2191993 0.20582345 -0.08167923 -0.17627785 -0.25050482 -0.21582006
0.050984833 -0.092372045 -0.061505295 -0.22201753 -0.14382124 0.017055433 -0.046434436 0.098048024
-0.043873716 0.23244818 -0.023228323 0.36467925 -0.0059832763 -0.029566105 -0.046587326 0.009549535
0.16093941 0.27914295 0.15711221 -0.3177696 0.33602184 -0.10795396 0.1226038 0.06725867

decoder.2.bias f4 [50]
00000000: 4c6b 823e 92aa afbd 77ab 023d 445e f43d
00000010: f1f1 a23d 63b6 453e cc00 00be 1896 153e
00000020: edf1 363e 5d8d 36be d129 7c3d ac72 fcbd
00000030: c4a5 23be 19ae 84be dc58 4ebe fbaf 92bd
00000040: 4945 a0be c4f1 c33c 9466 9ebd cb99 b9bd
00000050: 6ddb 193e e8d8 5b3c 12b1 c3bd 5deb bf3a
00000060: b6ac 253e 24d7 b83d 684e 65be 169b 8bbe
00000070: c5ad 1a3e f443 0abe 53b8 48be cbf8 8d3d
00000080: 7ece c93d 8b22 813c ccac 43be edd7 88bd
00000090: 09d1 a2be 759d be3b da52 ea3d 2511 20be
000000a0: 849c 16be 1902 a1bd 1087 04be 3fa0 48be
000000b0: 967c d33e 2acf cf3d a7b6 183d 6552 e3bd
000000c0: d03c c1bd ad59 5cbe
0.25472486 -0.085774556 0.031901803 0.11932042 0.07956303 0.19307856 -0.12500304 0.14608037
0.17865725 -0.17827363 0.061563317 -0.123265594 -0.15981203 -0.25914076 -0.20151085 -0.07162472
-0.3130286 0.023918994 -0.07734409 -0.09062537 0.1502511 0.013418414 -0.09555258 0.0014642287
0.16179165 0.0902541 -0.22393191 -0.2726676 0.1510535 -0.13502485 -0.19601564 0.06932219
0.098538384 0.015763542 -0.19108886 -0.066818096 -0.31800106 0.00581711 0.11441584 -0.1563154
-0.14708143 -0.07861728 -0.12942147 -0.19592379 0.4130599 0.10146935 0.037283566 -0.110997
-0.09435427 -0.21518584

decoder.4.weight f4 [50, 50]
00000000: 3305 353d 7a4d 07be 3964 a3bd 1f4f 67bd
00000010: c5ab 933c 9096 58bd 29b0 c9bd 2c4a 0fbd
00000020: 6930 80bd ff0e c73c df2f 8b3d f2be 033c
00000030: 2d93 d6bd fa50 d5bd 0569 fe3d 4bb5 81bd
00000040: f6ea 383c f54f a1bd 9263 0e3c 634d abbc
00000050: 5d1b d0bd 9b18 adbd f019 d2bd 0823 c03d
00000060: bcb4 afbd 82a7 093e c7e6 0cbe 23bd 77bd
00000070: 9bea f2bd 91a8 e2bd 5c76 003e f99f ce3d
00000080: b08e 223d ac9c 1cbb b5e6 05be f9b6 e4bd
00000090: 933d ec3c a83d 67bd 57c5 0bbe b960 193d
000000a0: de2a bb3c c111 afbd d2d9 913c 1328 9abd
000000b0: 6b9d a6bd d36f 043e ad23 f63d 78f6 05bc
000000c0: 5346 9ebd 0da9 b7bd c19e 26be 4ff5 ccbd
000000d0: 9fef 203c ad5a 64bc 26c1 85bd 40a9 163e
000000e0: f7b9 153c 452a 80bd 91e0 203e 1d5c 293d
000000f0: 7af8 023e 627e e73d 4073 153e 1bdf 083e
00000100: a208 b9be 173c 3fbd 4786 703e c32a fb3c
00000110: de47 a73d 3c00 833c 98e7 07be 525c eb3d
00000120: 4b30 3dbc 3913 e33d 30be d53d d1aa 4f3e
00000130: 65c5 353e 38e3 10be 379e 823e 3581 84bc
00000140: 5983 08be fc9f aabd e43f f7bd 5f48 143e
00000150: 4598 393e 1d00 16bc 2762 453d 7349 0c3e
00000160: ef1c 08be fa58 1d3e 15f3 19be 6bbc 3ebe
00000170: 3ab9 75bd a0b8 f93d 53e3 373e c9d8 f8bc
00000180: f890 06bd af72 ee3d 9d74 41bd 2450 ac3e
00000190: e533 913e be70 2abe 475e c4bd a499 ccbd
000001a0: a601 ef3d 76f3 513d 0792 f2bd 9247 99bd
000001b0: bec0 593d 58cd 8bbd 51b9 c7bd d936 cd3c
000001c0: 9732 64be 806f 623d e613 7c3e f3d6 8abc
000001d0: b1d8 c33d fd3f f5bd fa53 e1bb 6b2f 90bd
000001e0: f73c 953d 6752 8cbd 1f54 cfbd 91bf 7cbd
000001f0: 0d86 0a3d 5ec9 ddbc d98a d33c a2cd 74bd
00000200: 65b8 f3bc 5839 00be 9913 eb3c 5b07 d1bd
00000210: 492a db3c 00f6 f83d 22a3 d9bd b83f ae3c
00000220: 1803 cd3d d8b4 023e d8be efbd d317 d33c
00000230: e654 193d 4f71 823d 29bb cc3d 7f2b e23c
00000240: 3408 9a3e d5d3 00be 526e 533d 9a21 60be
00000250: a554 943b 3fcc ba3e 392f 97bd abb5 c8bd
00000260: 20a9 24bd 191f 3b3e fbd7 05be 27f2 58be
00000270: 9739 ef3d ada9 bbbc 091c 0f3d aaea 9e3d
00000280: f708 083c b94b 9cbd 7147 f0bd eb48 cf3e
00000290: b432 b2bd 46fa 97be cd66 5fbd 41fa 2fbd
000002a0: 3eb2 64bb 19fd 0c3e 6460 a53e 01fc a73d
000002b0: c62f 5bbd a8bc 863d 6795 1a3e e27e 25bd
000002c0: 6af7 23be c8ef 3d3b ab12 bc3d 64d9 3f3d
000002d0: 9c4b f7bd 1562 783e e9a0 e5bd 3bf9 debc
000002e0: 6ca8 c23b 4230 80bd 81c1 8d3e 95ac 8abb
000002f0: 9411 ca3b e0c9 963d c85e c13d 6345 9e3e
00000300: 0a4d 183d d208 d83d 5b64 6e3e ad55 b83c
00000310: 5263 8c3e 69ee 60be 1c54 d53d ea8c b3be
00000320: 786b 323e d4ce 00bd f2ab fa3c d1d8 f039
00000330: d6b4 a83c 930a d6bc de45 d43c f44b 273d
00000340: c513 3b3d fb5c 5d3e 4134 77bd 3d4d 2f3e
00000350: aff1 12be d299 053f d6b2 103e 70ae 21be
00000360: a491 a43e e20c fbbd cb49 183e d95f 9f3d
00000370: 5848 a13d f3e6 373b 3ea9 81ba ba6b 8cbd
00000380: 90df 34bd de28 e93d 2f65 453d d1d6 47be
00000390: fec3 8abd c012 80be 321a fd3d 99b0 583c
000003a0: 583b 023c f4c2 323e 573d 263d 935e e43d
000003b0: 13c0 ca3e 141f 01be 796c c63d 9a4f a83e
000003c0: 7046 b8bc 64ae f83d f718 cf3d 8ab9 aa3d
000003d0: 59d2 933e aa44 923d a6f9 c73c cbd8 613d
000003e0: 72b0 373e 3c1e f0be b531 cfbc affe c0bc
000003f0: 36d8 bd3d 24b5 bb3c d111 e83d 9be1 be3b
0.04419441 -0.13213149 -0.079781 -0.05647194 0.018026242 -0.052877963 -0.09848053 -0.034982845
-0.062592335 0.024299143 0.0679624 0.00804113 -0.1047729 -0.10415836 0.12422375 -0.06333407
0.011286488 -0.07876579 0.008690732 -0.020910924 -0.10161469 -0.08451959 -0.102588534 0.09381682
-0.08579394 0.13442805 -0.1375991 -0.06048311 -0.11861154 -0.11067308 0.1254515 0.10089106
0.03968686 -0.0023897095 -0.13076289 -0.11167712 0.028837955 -0.056455284 -0.13649498 0.037445758
0.02284759 -0.08548308 0.01780406 -0.07527175 -0.08135494 0.12933283 0.12018523 -0.0081764385
-0.07728257 -0.08967791 -0.16271497 -0.100077264 0.009822755 -0.013937634 -0.06530981 0.14713001
0.009138576 -0.06258062 0.15710665 0.04134761 0.12790099 0.113034025 0.14594746 0.13366358
-0.361394 -0.046688166 0.23488723 0.030660039 0.081680045 0.015991323 -0.1327194 0.11492218
-0.0115471585 0.11087651 0.10436666 0.20280005 0.17751081 -0.14149177 0.25511333 -0.016174892
-0.13331355 -0.08331296 -0.12072733 0.14480732 0.18124492 -0.0091553 0.04818931 0.13699894
-0.13292287 0.15365973 -0.15034135 -0.18626563 -0.0599911 0.121934175 0.17957811 -0.030376809
-0.032853097 0.11642968 -0.04723035 0.33654892 0.28359905 -0.1664457 -0.095882945 -0.09990242
0.11670236 0.051257573 -0.11844259 -0.07484354 0.05316233 -0.068262756 -0.09752143 0.025050567
-0.22284923 0.055282116 0.24616966 -0.016948199 0.09562815 -0.119750954 -0.006876466 -0.07040294
0.07287019 -0.068516545 -0.10123467 -0.06170613 0.033819247 -0.027073558 0.025823044 -0.05976642
-0.029751012 -0.12521875 0.028695868 -0.10206481 0.026753562 0.12156296 -0.10626818 0.021270618
0.10010356 0.12764299 -0.117063224 0.025768196 0.03743448 0.06369268 0.099966355 0.027608631
0.30084383 -0.12580808 0.05161888 -0.21887818 0.004526692 0.36483952 -0.07382054 -0.098002754
-0.040200353 0.18273582 -0.13070671 -0.21186124 0.11680906 -0.022908056 0.034938846 0.07759602
0.008302919 -0.076316305 -0.11732376 0.4048532 -0.08701077 -0.2968313 -0.054541398 -0.04296327
-0.003489628 0.13768424 0.32300103 0.08202363 -0.053512357 0.06578952 0.15096055 -0.040404208
-0.1601235 0.0028982032 0.09183248 0.04683818 -0.12074968 0.24256165 -0.11212332 -0.027218452
0.0059404876 -0.062592044 0.27686694 -0.004231999 0.0061666463 0.07362723 0.09441906 0.30912313
0.037182845 0.10548557 0.2328047 0.02250179 0.27419525 -0.21965946 0.10416433 -0.35068446
0.17423809 -0.031447247 0.030599568 0.00045937908 0.020594042 -0.026128089 0.025912222 0.04084392
0.04567315 0.216175 -0.060352568 0.17119308 -0.14350007 0.52187836 0.1413072 -0.15789199
0.32142365 -0.122583166 0.148719 0.07781953 0.078751266 0.002806124 -0.0009892357 -0.06856485
-0.04415852 0.11384748 0.0481922 -0.1951554 -0.06775664 -0.25014305 0.12358512 0.013225698
0.007948719 0.17457181 0.040585842 0.11150851 0.39599666 -0.12609512 0.09688658 0.3287323
-0.022494525 0.12142637 0.101121835 0.0833617 0.2887142 0.07142003 0.024411034 0.05513839
0.17938402 -0.46898067 -0.025292257 -0.023558943 0.092697546 0.022913523 0.11331523 0.005825234

decoder.4.bias f4 [50]
00000000: e930 00be a8f1 d83d b2a0 993e a996 d43c
00000010: 9dbf 283e 3d92 f8bd 0469 8cbe 9a06 413d
00000020: f47e 14be 5812 8b3d ff6e 0cbe 7375 e3bd
00000030: b7d3 17be 5cf6 6c3b b038 b03b 32a6 2ebe
00000040: 01b1 19bd e0c7 55bc 248c 973d e094 d4bd
00000050: 355b cdbd 1963 663d 53f4 643e d033 9fbc
00000060: 32ff 8c3d 12f1 aabd 2011 bdbd b9f2 7ebd
00000070: 7e54 28bd 61c4 363e 909b 593d 2e32 1a3e
00000080: dd92 ec3b ef4d eabc 757f 713d eb77 253d
00000090: e050 ea3d 0c51 203e 5ca6 153e 7f75 71b9
000000a0: 7739 3bbd 8189 82bd 71a6 4f3e afad 903d
000000b0: 3c81 05be 76ac 96bd f720 063c 171b bcbd
000000c0: 6748 743e 6dcc e1bb
-0.12518658 0.10592967 0.30005413 0.025950747 0.16479345 -0.12137268 -0.2742387 0.047125436
-0.14501554 0.06790608 -0.13714217 -0.11106386 -0.14826857 0.0036157584 0.0053778514 -0.17055586
-0.03752232 -0.013048142 0.073997766 -0.10379958 -0.10027162 0.05624685 0.22358827 -0.019433886
0.06884612 -0.08346762 -0.09231782 -0.062243197 -0.041096203 0.1784835 0.05312687 0.15058205
0.007219656 -0.028601615 0.058959443 0.040397566 0.11441207 0.15655917 0.14614242 -0.00023027322
-0.0457091 -0.06373883 0.20278336 0.070643775 -0.1303758 -0.07357113 0.00818657 -0.091848545
0.23855744 -0.0068908245

decoder.6.weight f4 [6, 50]
00000000: 5a60 983d c0a7 90be a2bb a63e 9021 86be
00000010: 2197 703d aab8 be3d 754d 8f3e f7ee 9c3e
00000020: 1e0d 20be 9d4c 3fbe b3aa 96bd 6e28 9cbd
00000030: 1803 11be efbb af3e 0b93 f43e 95e1 06bd
00000040: 99b4 74bd d6e4 103d 89c6 d4bd bb87 b4bd
00000050: 3362 aebd 513b a0be a19c 173e 7b1f 05be
00000060: 57fc ae3e 4648 f3bd f67e ae3e 991a cebd
00000070: 5a9d 7e3d 7ed1 633e b51d 8b3e eec2 31be
00000080: 4323 403e 4631 113e cef4 7ebf 6212 9bbd
00000090: c7cc a13e fb6c 933e 358a b13e 995a 043e
000000a0: 18f6 f83d b70f 80bf b402 e6be 1706 a33d
000000b0: 716a bcbd e56f d73d 7fdb 7f3e d9e3 bcbe
000000c0: 9935 82be e342 693a 2ed6 3bbd 23a8 8dbe
000000d0: e2ed 293d 747c 56be 9f40 a5bd 06ed 0bbd
000000e0: 0293 4ebe bdec e6bd 67ee 103e 1caa 233e
000000f0: ce28 9dbd 5c33 26bd 98d9 86bd c3be cfbc
00000100: 3c09 cbbe 0766 9f3d 214f 28be 56b4 f03c
00000110: c450 cb3d 4d1e e43d 38a4 ed3b bbc2 083d
00000120: 34dc 75be 219a 803d 02fd 203c 553b 963d
00000130: 6505 003e bbd9 d5bd 11db a13e 2047 0ebd
00000140: c10c 92bd 9018 c83d e0d7 a03d a26c 1fbc
00000150: 3d5d cc3d 0a2e d83e 98ec c03d 68ed 973c
00000160: 3e93 f1be daca 75bd 8ef8 2f3e d0e2 f03d
00000170: 0468 23be e728 f63d 4b51 f63d 8a4a 99bd
00000180: 6a3b 6c3e 4993 43be ed1e 37bd 51e2 59bd
00000190: 9b1a 633d 7bc0 a33d 9209 563d 71af 60bd
000001a0: 4a1a b03c 41b7 50bc aced 90bc c237 76bd
000001b0: fa72 b03c 13c5 07bd 8dc3 cdbd f431 373d
000001c0: 7b29 c6bd 2412 f43c e646 f1bd 5c6a 22be
000001d0: 0d93 003e d7b2 febd c68c ee3c 9f38 adbd
000001e0: 91c8 3fbd acc2 e73d 2b51 19bc abc2 e5bd
000001f0: 16d4 213c 129c 473c d9f9 75bd 75ef a53c
00000200: 462c db3d df48 be3d 16a4 0cbd 6e5d d8bd
00000210: 1243 29be e2f0 d23d 39ac 143d 8c78 d53d
00000220: c7ad e03d a491 27bd dcf6 72be 60e9 38bd
00000230: 6d69 90ba 4f02 bb3c 7e9f 1a3d 9db6 7b3d
00000240: 04e8 f43c 026c d2bd b1b0 173e 7cf7 79bd
00000250: 7f2a fabd a7a1 f1bd 6c25 823d a65d d63e
00000260: e6e6 023f dc91 31bf f6d1 3fbf 5326 b0bc
00000270: 0d0a 9ebf ed52 6e3e 591f 0dbf feff dcbd
00000280: a16b 2a3d 8b20 fb3d 1e21 dc3d 403d 14bf
00000290: 919e 30bf 4a4c f43d bebb 1ebf e2d5 e3bd
000002a0: 596b 2abf e683 05bd 69a8 91bd d649 79be
000002b0: 83a6 403e de00 fabd d2bb 4dbc 2d6d 403c
000002c0: 5e46 f23e b82a c4bc fc7b 34be c943 bb3e
000002d0: 3801 673e 2f51 62bf 7eb9 d63c ca47 1cbe
000002e0: 5eb0 c8be 4bdd ecbc 0385 febe adbe a7bf
000002f0: 83ae 9d3d 330c 05be d3f9 403e b2bc 373f
00000300: 8570 b3bd 388f 083e e201 0c3d 7242 f13d
00000310: 0116 f93c 59b9 043e b512 a7bf 10ff 8abd
00000320: 644d 9c3d 4191 afbe 75bf 953e c720 a43e
00000330: 656a bb3e c0f5 bebd 9015 cbbe e21a 0f3d
00000340: 9607 2a3e e169 6d3b b23c c1bd c632 db3d
00000350: 0601 a13d 19c6 ab3e 04c4 9dbf 9c5f 083e
00000360: 9d74 01bf 57d0 883d 8401 43bf efe7 8b3d
00000370: f813 22bd 669f d1bd a11b 983e f867 a23d
00000380: 7e6a 9a3e a9d2 bc3d f320 95be 063c d83d
00000390: 4d91 9d3e c958 653e a62b 93be 0ba3 4fbf
000003a0: 7889 0f3e 4dc7 1a3e 8b61 1abf 1b11 703e
000003b0: 255b 99bf 0bdf 443e 3004 143e 6ef9 9cbc
000003c0: 2a13 5abe 5628 a33e 118a 9e3d 952e f4bd
000003d0: ed64 54bd 8a0d b2bd 384e 68bf 56e3 d4bc
000003e0: 1466 5cbf 9726 4fbd 0daf f23d c5d8 6fbe
000003f0: cf78 56be ab2c ddbe 455d 7abf 7cf1 0e3d
0.074402526 -0.28252983 0.32565027 -0.2619748 0.058737878 0.093125656 0.27988783 0.30651066
-0.15630004 -0.1868157 -0.07356777 -0.07624899 -0.14161336 0.3432307 0.47768435 -0.032929976
-0.059742544 0.035374485 -0.1038943 -0.08814951 -0.08514824 -0.31295255 0.14805843 -0.1300029
0.34176895 -0.118790194 0.34081239 -0.10063667 0.06216178 0.22247884 0.27171102 -0.17359516
0.18763451 0.14178953 -0.9959229 -0.075718656 0.31601545 0.28794083 0.34675756 0.12925185
0.12156314 -1.0004796 -0.44923937 0.07960146 -0.091999896 0.10519389 0.24986075 -0.36892584
-0.25431517 0.00088982115 -0.045858555 -0.2766734 0.04148663 -0.20945913 -0.08068966 -0.03416159
-0.20173267 -0.11275623 0.14153443 0.1598286 -0.076737985 -0.040576324 -0.065844715 -0.025359517
-0.39655483 0.07783132 -0.16436435 0.029382866 0.09927514 0.11138592 0.0072522424 0.033388834
-0.24009782 0.06279398 0.009825947 0.073355354 0.12502058 -0.104419194 0.31612447 -0.0347358
-0.07131339 0.0977031 0.07853675 -0.00973049 0.09978721 0.42222625 0.09420127 0.018545821
-0.4718265 -0.060007907 0.1718466 0.11762011 -0.15957648 0.1201952 0.12027224 -0.0748492
0.2306954 -0.19099154 -0.044707227 -0.053194348 0.055445295 0.07995697 0.05225522 -0.054854814
0.02149691 -0.012739004 -0.017691456 -0.06011177 0.0215392 -0.03314693 -0.10047064 0.044725373
-0.096758805 0.029793806 -0.11781101 -0.15860885 0.12556095 -0.12436455 0.02911986 -0.08458065
-0.046822134 0.113164276 -0.009357731 -0.112187706 0.009877225 0.012183206 -0.060052726 0.020255784
0.10701804 0.09291243 -0.034336172 -0.10564695 -0.16529492 0.10299851 0.036297057 0.10423383
0.109706454 -0.040910378 -0.23726982 -0.04514444 -0.0011017747 0.02282825 0.03774976 0.06145345
0.02989579 -0.10274507 0.14813496 -0.061027035 -0.12215137 -0.11798411 0.06354794 0.41868323
0.51133573 -0.6936319 -0.7492975 -0.02150265 -1.2346817 0.23273821 -0.5512596 -0.10791014
0.04160655 0.122620665 0.10748504 -0.5790596 -0.68991953 0.119286135 -0.6200522 -0.11124779
-0.6657005 -0.03259649 -0.071122 -0.24344572 0.18813519 -0.12207197 -0.012556987 0.01174478
0.4731931 -0.023946151 -0.17625421 0.36575153 0.22559059 -0.88405126 0.026211496 -0.1526176
-0.39197057 -0.028914114 -0.49710855 -1.3105065 0.07699301 -0.12992935 0.188453 0.717723
-0.08761696 0.13335884 0.034181483 0.117802516 0.030406 0.1296133 -1.3052584 -0.067869306
0.076319486 -0.34290507 0.29247633 0.32056257 0.3660461 -0.09324217 -0.39664888 0.034937747
0.16604456 0.0036226439 -0.09435405 0.10703044 0.07861523 0.33549574 -1.2325444 0.13317722
-0.5056856 0.06680363 -0.7617419 0.06831347 -0.039569825 -0.10235481 0.2970858 0.07929987
0.30159372 0.09219868 -0.291267 0.105583236 0.30774918 0.2239715 -0.2874424 -0.8110816
0.14017284 0.1511509 -0.6030509 0.23444025 -1.198094 0.19225709 0.14454722 -0.019161906
-0.21296373 0.3186671 0.07741178 -0.11922947 -0.051854063 -0.086939886 -0.9074435 -0.025987308
-0.8609326 -0.05057391 0.118497945 -0.23422535 -0.20944522 -0.4319814 -0.9779857 0.034898266

decoder.6.bias f4 [6]
00000000: de77 ca3d 4745 d1be eb32 063c 0560 083f
00000010: c63b 593e a391 c23e
0.09886144 -0.40873167 0.008190851 0.53271514 0.21214208 0.38001737

cluster_layer.weight f4 [4, 4]
00000000: 170d eebd 1e72 9f3d 4d3b de3d 8082 bebd
00000010: ccf3 c9bd 28ca cdbd e55e ce3d 1a0f cd3d
00000020: 2bea bdbd cfea e23d 35ce bb3d f0fe d3bd
00000030: d5d3 d13d b57f cabd 9835 ccbd a793 ca3d
-0.116235904 0.07785438 0.108511545 -0.09302235 -0.09860954 -0.10048324 0.100766934 0.10012646
-0.092731796 0.110799424 0.0917019 -0.1035136 0.10245482 -0.098876394 -0.0997116 0.09891444
