RiskViz Folder/model/checkpoint_650.tar (torch, 110796 bytes, 51 tensors)

encoder.1.weight f4 [50, 6]
000000 af ed fd be 7b f8 cd b9 f1 cc 0a ba 87 93 79 3e
       -0.495954 -0.0003928578 -0.0005294821 0.24372683
000010 94 22 9e be 14 ff c7 3d cd 61 c4 3a eb 41 f8 bb
       -0.30885756 0.09765449 0.001498276 -0.0075762174
000020 42 cf bb ba 14 ce 0d 40 be df a1 3a 9e 89 8e be
       -0.0014328735 2.215703 0.0012350006 -0.2783937
000030 1a 02 42 be ae 90 63 be 61 80 6c 3b 69 23 87 bd
       -0.18946114 -0.2222316 0.0036087262 -0.06598551
000040 55 bc a3 3e e2 c4 c4 be d9 a4 4a 3e a5 24 2c bc
       0.31979623 -0.3843146 0.19789447 -0.010506784
000050 ab b8 38 bb 25 b7 01 be 12 3a 75 3c 93 bd 83 3f
       -0.0028186243 -0.1266752 0.014967458 1.0292228
000060 ab 2d 17 bd 2a 79 05 be bd 54 2d bb 49 d1 3b 3f
       -0.036908787 -0.13034502 -0.0026448213 0.7336622
000070 af 9d 6d 3e 71 42 05 bf 3f de 2b 3f 68 bc d1 3c
       0.23204683 -0.52054507 0.67135996 0.025602534
000080 4e ba 1b 3b 90 6b 2f 3e 6b 54 23 3c ae 3c 48 3f
       0.002376217 0.17130876 0.009968857 0.7821759
000090 80 b8 a0 bd aa f0 66 be 0b 44 e3 bd 99 3e 7b be
       -0.078476906 -0.22552744 -0.110969625 -0.24535598
0000a0 f6 71 5c 3e d7 1f 51 be 98 01 17 bf dd 73 eb 3d
       0.21527848 -0.20422302 -0.58986807 0.114967085
0000b0 a5 c9 dd 3d c8 f3 cb bc 09 a8 f7 bd 49 a3 49 bd
       0.10829476 -0.024896517 -0.12092597 -0.049227986
0000c0 9a c6 17 3f 50 f5 c7 bb e0 3d c6 bb 82 5d 69 3f
       0.59287417 -0.0061022416 -0.0060498565 0.91158307
0000d0 8d a0 1b 3f 18 5d 52 3d 00 29 a5 be 5c 2d 34 3c
       0.60791856 0.051358312 -0.32257843 0.010997143
0000e0 b8 7b 42 be d9 b2 e0 ba 29 27 4c 3e d1 78 38 3e
       -0.18992507 -0.0017143145 0.19936813 0.18014838
0000f0 d9 e4 bc be ac 9b 08 3c 98 d2 8b b9 af a5 71 bf
       -0.36893347 0.008337896 -0.0002666905 -0.9439344
000100 70 d3 6d be f9 c4 e8 3d 82 8a 6e be 3d 93 36 be
       -0.23225188 0.113656946 -0.23295024 -0.17829604
000110 93 69 0c 3e f2 98 70 3e 19 71 bb 3b 14 9d 22 be
       0.13712148 0.23495844 0.0057202694 -0.15880233
000120 ef b6 97 bd dc 5a 5d bd 20 df 5a bd 2a 55 83 3f
       -0.07407939 -0.05404173 -0.053435445 1.0260365
000130 8b 8d b4 bd 46 28 dc 3e f3 f9 d3 be 56 54 e9 3b
       -0.0881606 0.42999476 -0.41401634 0.0071206493
000140 33 66 9e 39 61 6a 42 bf c0 38 72 be f0 26 ed 3d
       0.00030212253 -0.7594357 -0.23654461 0.11579692
000150 e0 39 ca bf 13 00 2a 3b d4 6e 9c 3a f0 22 c2 3e
       -1.5798912 0.0025939986 0.0011934885 0.3791728
000160 66 d9 c6 be 78 35 4b 3f ff 67 25 bf 69 61 0e 3c
       -0.38837737 0.7937846 -0.6461181 0.008690217
000170 e6 09 53 3b c0 73 12 be 1c 74 c9 be cf a3 17 be
       0.0032201945 -0.14301968 -0.39346397 -0.14808582
000180 e0 d4 82 be 81 78 8b 3e 44 3c 1e 3e 41 49 a6 3e
       -0.25553036 0.27240375 0.15452677 0.32477763
000190 e1 82 9b be 08 f7 cb be 62 5d 6c bf 16 07 b5 bb
       -0.3037329 -0.39836907 -0.9232999 -0.0055245264
0001a0 1d df 63 3b 91 79 3e bf d2 22 26 3f 76 b4 06 3f
       0.0034770437 -0.74404246 0.6489688 0.5261911
0001b0 67 8d 7d 3b 41 9b cd bb 1c e9 b6 3a 0a d3 09 40
       0.0038689019 -0.006274611 0.001395497 2.1535058
0001c0 b7 12 79 3b d6 0b 86 be db 84 af 3d 51 10 9d be
       0.003800554 -0.26180905 0.08570262 -0.3067651
0001d0 92 ad 5f be 9a 7a 44 be 84 8c 6c be 63 42 94 3d
       -0.21843556 -0.19187394 -0.23100477 0.07239225
0001e0 73 5e cb bd c5 95 85 bb 31 9a e8 ba 93 fe 2a bf
       -0.09930124 -0.004076692 -0.0017746148 -0.667947
0001f0 3b 4c 3b 3f 51 4b 12 3d 89 39 b5 be 41 94 87 be
       0.73163193 0.03571636 -0.35395458 -0.26480296
000200 6c 29 1b 3e 76 d5 1e 3e 11 40 81 be d5 77 03 be
       0.1515252 0.15511116 -0.2524419 -0.12838681
000210 10 76 03 c0 d4 cd 5e ba 3e ec bd 3b 21 33 8e be
       -2.054081 -0.0008499299 0.0057959845 -0.27773383
000220 87 b2 a5 be ee f7 49 3e 05 8b a5 3e 6f b2 b1 bd
       -0.32362768 0.19723484 0.32332626 -0.08676612
000230 f1 56 8a bd 69 08 12 3e d2 31 73 3d 66 b5 09 be
       -0.06754864 0.1426102 0.059373684 -0.13448104
000240 bf e4 b8 be d7 eb 68 be f0 1b 34 3d d2 d5 d5 3a
       -0.3611202 -0.22746216 0.043971956 0.0016314334
000250 3d a8 d4 3e 91 67 68 bd e3 8b cf bd 26 c0 c7 be
       0.41534606 -0.056739394 -0.10134103 -0.39013785
000260 7d 18 bf be 74 5e 39 3e 9e 1e aa 3e 26 7c 0e ba
       -0.3732337 0.18102437 0.33226484 -0.00054353697
000270 4c b1 00 c0 a3 07 cb 3b 33 21 7b 3b 9d 92 0e bf
       -2.0108213 0.0061959787 0.0038319349 -0.55692464
000280 3a 7b 01 be 7e 7c bd 3d de 3c e5 bf dd c9 ef 3b
       -0.12644663 0.092522606 -1.79092 0.007317765
000290 d6 5c 11 3b a2 da f9 be 33 57 02 be 8e 38 c5 be
       0.0022180579 -0.48799616 -0.12728576 -0.3851971
0002a0 ec 44 40 3f ce 22 bf ba 1c 5c 53 3b 64 fa 7d bf
       0.75105166 -0.0014582516 0.0032250946 -0.9921019
0002b0 3b 8d 34 3f ee 15 ab 3d eb dc 67 be 14 17 d1 bc
       0.70528 0.08353792 -0.22642867 -0.0255237
0002c0 02 00 94 be 10 29 9a bc 05 c7 6b 3e 71 e4 3b be
       -0.28906256 -0.018818408 0.23025139 -0.18348862
0002d0 28 ed 36 3f b1 00 21 bc b1 72 23 ba e8 9a fd 3e
       0.7145562 -0.009826825 -0.0006235047 0.49532247
0002e0 30 35 a0 be 00 b0 b0 be 16 b4 3d 3c a6 d6 53 bc
       -0.3129058 -0.34509277 0.01157858 -0.012929594
0002f0 7c 15 53 3c 84 6a 87 3d 10 e1 2a 3e 62 15 9a 3f
       0.01288354 0.06612113 0.16687417 1.2037776
000300 d4 24 a0 3e c4 3a cc be d5 01 2f 3d 05 c9 a1 bc
       0.31278098 -0.39888585 0.042726357 -0.019749174
000310 e0 76 e0 3d 7c 37 cd bd 86 53 00 3e 4f b3 96 be
       0.109601736 -0.100203484 0.12531862 -0.29433677
000320 44 2d 5d 3e 76 2e 12 3f 1e d8 0d bb 68 f8 8d be
       0.21599299 0.57102144 -0.0021643708 -0.2772858
000330 d6 a6 16 bf c6 46 39 bc 02 d2 90 b9 81 1b 96 3d
       -0.5884832 -0.011308378 -0.00027622288 0.07329465
000340 e1 a3 a6 bc e9 bb 6e 3f 50 48 81 3b e4 0f 23 bc
       -0.020341815 0.9325548 0.003945388 -0.009952519
000350 4b 0e 4c ba 45 6e b0 3f 79 e9 da 3e d7 0a 2f bb
       -0.0007784112 1.3783652 0.4275625 -0.0026709342
000360 3a 75 66 3e fb 27 08 3e b8 ee 25 3d 28 70 f2 bd
       0.22505656 0.13296501 0.040510863 -0.11837798
000370 38 c8 7e 3d 52 32 ef 3c 8b 2f 18 bd 59 e2 82 3b
       0.062202662 0.0291988 -0.037154716 0.003994268
000380 c3 fc c8 3b 9e 78 2c bf 86 54 33 3d 31 26 26 3f
       0.006133647 -0.6737155 0.04378178 0.64902025
000390 43 6c dd 3c 46 b1 a5 bc 58 66 f7 bb b9 89 0c be
       0.027029162 -0.020226132 -0.007550042 -0.13724412
0003a0 79 75 62 3e df 12 a9 3f b8 30 82 3f dc 94 e2 bb
       0.22115125 1.3208884 1.0171118 -0.006914718
0003b0 48 ce 07 3b 26 80 8b be 09 c4 f1 bd 9d 30 0c bf
       0.0020722318 -0.27246207 -0.11804969 -0.5476168
0003c0 aa 03 03 c0 b8 73 20 3c 18 35 de 3a 80 77 3b bf
       -2.0470986 0.0097932145 0.0016953079 -0.7322922
0003d0 2b 47 9a be f1 fa 69 3e a8 24 d7 3a cf 55 fb bb
       -0.30132422 0.22849633 0.0016414123 -0.0076701413
0003e0 3b 9f 9b ba 6d 40 09 40 13 09 b1 be 66 88 3a be
       -0.0011873016 2.1445572 -0.34577236 -0.18216094
0003f0 7d 71 0f bf 45 89 17 b9 ec 74 b7 bb 0d b7 58 3e
       -0.56032544 -0.00014451619 -0.005598655 0.21163578

encoder.1.bias f4 [50]
000000 19 93 76 3e 61 5f 33 bb 94 10 db bc c0 64 1b be
       0.24079551 -0.0027370083 -0.026741304 -0.15175152
000010 53 ee be bd d6 79 fe be fa 09 01 be 20 e8 dc bd
       -0.093228005 -0.49702328 -0.12601462 -0.10786462
000020 4e 9c 9b be 8f 4c aa be 1a f1 20 3e 59 50 c9 be
       -0.3039269 -0.33261535 0.15716973 -0.39319113
000030 ac 36 45 bf a6 13 39 3e b7 bc 2e 3c 5a ae a2 3e
       -0.7703655 0.18073902 0.01066511 0.31773645
000040 55 1c bb be 86 3e 94 3c 9c 46 b3 bb 76 1f 89 be
       -0.36545053 0.01809622 -0.005471064 -0.26781815
000050 4d 65 3d 3d e9 45 0f be f5 3f 7e 3c cd d5 be be
       0.046239186 -0.13991512 0.015518178 -0.37272492
000060 01 7b f0 bd 3b 25 93 be 83 8d c0 3c f1 a9 b5 3c
       -0.11742211 -0.28739342 0.023504978 0.022175761
000070 f0 06 be be 44 13 75 be 2a 2a c2 be 3a 20 76 be
       -0.37114668 -0.2393313 -0.37922794 -0.24035731
000080 4d b2 d6 be 66 21 9e be 87 68 88 3c db d6 51 bb
       -0.41932908 -0.30884856 0.016651405 -0.0032018933
000090 14 02 b3 be 37 0b cb 3b bb 55 99 be 58 a1 1a bf
       -0.34962523 0.0061964053 -0.2994822 -0.6040244
0000a0 c0 48 93 3c 6f 2e 6c bb a4 1d 88 3c 89 80 a7 be
       0.017979026 -0.0036038419 0.016615696 -0.32715252
0000b0 a1 1d 12 bf f1 e2 0b 3c ef 85 fe bb f7 bd ad 3c
       -0.5707646 0.008537994 -0.007767431 0.021208746
0000c0 24 44 8c be 8d 77 39 bb
       -0.27395737 -0.0028300018

encoder.4.weight f4 [50, 50]
000000 c3 1a 5b 3d 08 54 b5 be 27 59 c5 bd 30 3b 07 be
       0.05349232 -0.35415673 -0.09636145 -0.13206172
000010 23 e1 5d be 7a 4b f0 3d e9 71 92 bc a3 1a 78 3d
       -0.21667914 0.11733146 -0.017876582 0.060572278
000020 70 0d 51 3d ff 9c b5 3d 95 fc 41 3e 3c 26 ae 3b
       0.051038206 0.08867835 0.18944009 0.0053146165
000030 f4 6c c4 bd 08 6b 1d 3b 1e 75 48 3e 0c fc 22 bd
       -0.09591094 0.0024020094 0.19575927 -0.039791152
000040 f8 05 0e be de a0 15 3b ce 66 b7 be af 92 ca bd
       -0.13869464 0.002283148 -0.3582062 -0.09891259
000050 10 b0 56 bd 28 d8 05 3d 98 41 5a 3e 21 c7 cf bc
       -0.052414 0.032676846 0.21314085 -0.025363507
000060 d7 5a 84 3d 62 f4 0d bd 68 66 bb 3d 32 54 85 3e
       0.06462639 -0.03465689 0.09150392 0.26040798
000070 0f a1 14 3d 1a 66 ce 3d b2 53 2e 3e 9c 19 91 bd
       0.03628641 0.10078068 0.17024115 -0.07084963
000080 b2 eb 19 3d 0e 56 8b 3d c9 31 8c 3d 6b 54 81 be
       0.037578292 0.06803523 0.06845433 -0.25259718
000090 8a 25 1a ba 08 82 93 bd 5a a8 0e 3d be d9 63 3e
       -0.00058802275 -0.07202536 0.03482852 0.22251031
0000a0 41 63 5c 3e 28 b8 a4 be 76 31 05 bc ba e0 91 bd
       0.21522237 -0.3217175 -0.008129468 -0.07122941
0000b0 9e c1 c2 3e 90 dd 86 bc 20 1c 90 be 6f fa 40 bc
       0.38038343 -0.016463071 -0.28146458 -0.011778458
0000c0 2a cf 44 3d 34 ab c1 bd ae aa 8f 3d 3f 20 05 bb
       0.04804913 -0.094564825 0.070149764 -0.002031341
0000d0 60 c9 82 3d be 23 fd bd a8 98 0b bc cc 04 4f 3e
       0.063860655 -0.12360333 -0.008520283 0.20216674
0000e0 82 41 93 bd 38 99 7b 3c 15 f2 ca bc 9c 17 99 3d
       -0.07190229 0.015356354 -0.024773637 0.07475206
0000f0 89 c3 85 bc ba 98 d9 bd 71 82 e8 bd f7 3f 10 3e
       -0.01632859 -0.106248334 -0.11353005 0.140869
000100 ad 39 98 3d f5 80 e8 bc 54 a0 05 be e2 4c 86 3c
       0.07432876 -0.028381804 -0.13049442 0.016394082
000110 e9 5d 51 3b a1 ed 85 3c b7 9d 90 b9 39 3f 00 bd
       0.0031946844 0.016348662 -0.00027583327 -0.031310294
000120 18 9e 4c 3e ba 4a 53 3d 3b 4a 40 3d c1 ab 9c bd
       0.19982183 0.051584937 0.04694579 -0.07649947
000130 e8 f9 a6 3e 89 5a a2 3e b9 0e 94 bc e8 3a 06 3e
       0.32612538 0.31709698 -0.018073427 0.13108408
000140 a2 01 d2 bd 3d 06 09 be 7e 67 dd 3c 58 85 13 3d
       -0.10254218 -0.13381286 0.027026888 0.03601584
000150 f1 6d 21 3e c9 99 56 bd 40 17 c3 3d df 22 95 bc
       0.15764596 -0.052392755 0.09525919 -0.018205104
000160 18 eb 08 be 2e 08 8b 3e ef 94 7c 3e ec df 43 bc
       -0.13370931 0.27154678 0.24666189 -0.011955243
000170 93 c6 a5 bd 42 89 c2 bd b3 3f 1d 3e 84 da 0b 3e
       -0.08094516 -0.09498836 0.1535633 0.13657576
000180 4b 6c f6 bd fc d8 bd bd e1 a3 4f bd 30 69 33 3d
       -0.12032374 -0.09269902 -0.050693396 0.043801486
000190 15 b4 05 3d 84 22 ae be 67 0b ef 3d d7 37 b6 3d
       0.032642443 -0.34010708 0.11672097 0.08897369
0001a0 f8 4c 71 bc 11 5f 77 bd 89 3c 38 bd 92 e3 b4 3a
       -0.014727823 -0.060393397 -0.044979606 0.0013800731
0001b0 51 39 4f be a1 f1 0f 3e 5e 36 dc 3c d7 a6 09 3e
       -0.20236708 0.14057018 0.026881393 0.1344255
0001c0 34 67 02 3e 8e 30 ea 3d d8 d1 6b be 69 52 e2 3c
       0.12734681 0.11435042 -0.23029268 0.027627187
0001d0 fc 86 64 bd 77 11 80 bd 6f 8e 71 be 85 4c a1 3d
       -0.055792794 -0.06253331 -0.2358949 0.07875923
0001e0 d7 f8 58 3e 33 26 e0 bd 48 9e 6b be 87 56 2c 3d
       0.21188675 -0.10944786 -0.23009598 0.042074706
0001f0 9b 05 33 bc 3d b9 85 3d c2 db 25 3d 2f e9 f8 bc
       -0.010926629 0.06529472 0.04049278 -0.030384628
000200 6f 61 45 be a1 6e 27 bd f2 c7 66 be 49 a4 68 bc
       -0.19275449 -0.04087699 -0.2253721 -0.014199325
000210 3f cb c8 3d 8d d2 09 be 3a c4 3f 3b bd f8 d3 bd
       0.09804391 -0.13459225 0.0029261247 -0.103501774
000220 2f 6e dd 3d 1f d8 1c 3e 4f dd a0 bb c4 f3 6f be
       0.108120315 0.15316819 -0.0049091945 -0.23432833
000230 70 d3 26 bd 50 ba 26 be b8 0b ec bd 69 49 c5 bb
       -0.040728986 -0.1628201 -0.11525673 -0.006020714
000240 97 ed 1d be b2 7b d4 3d c4 b5 a4 3d d6 f2 c8 bd
       -0.15422665 0.103751555 0.080424815 -0.09811942
000250 28 e6 d0 bd c5 47 1b be 38 85 52 be d9 6d 64 be
       -0.10200149 -0.15164097 -0.20558631 -0.22307529
000260 1b 84 14 3c 43 a9 0e bd 81 a2 39 bd e9 23 5d 3e
       0.0090646995 -0.03482939 -0.04532099 0.2159573
000270 ae a0 00 3e 69 7a 69 3d 78 68 25 3d 89 6a e9 bd
       0.12561294 0.057001505 0.040382832 -0.11397273
000280 48 d2 32 bd b6 16 f6 bd ee 1f d3 3d 40 ef 3d be
       -0.04365757 -0.120160505 0.103088245 -0.18548298
000290 5b 7f c3 3c 31 12 4d be 37 1e c8 bd a7 aa 8e be
       0.023864439 -0.2002647 -0.09771388 -0.27864572
0002a0 ce f5 5b be 0e 69 84 bd 18 1a 9d be 4f e0 cc 3d
       -0.21480486 -0.0646535 -0.3068397 0.10003721
0002b0 2a 81 8a bd f1 16 8a bc df 2b 57 bc 1f 8f 70 3d
       -0.06762917 -0.016856642 -0.013133018 0.05873024
0002c0 bf 48 7f bd 00 cc 8b bc 37 ec 49 3d 13 dd c7 3d
       -0.062325235 -0.017065048 0.049297538 0.097589634
0002d0 40 bb 38 3e 04 2a c8 bd 01 91 11 bd 30 a8 e2 bd
       0.1804018 -0.09773639 -0.035538677 -0.110672355
0002e0 03 35 7d 3d 09 af 36 be cf 66 b1 3c 5b b0 92 be
       0.061818134 -0.17840208 0.021655468 -0.28650174
0002f0 a9 0e 81 3c da 72 71 3e 4d 1a be bd cb ab 62 be
       0.01575406 0.23578969 -0.0928236 -0.22135846
000300 5f 9c 34 be 24 bd 06 3e 8e fe a8 3e db e4 7a bd
       -0.17637776 0.13158089 0.3300671 -0.06125341
000310 a5 1b 87 be 1b 84 7a 3d 86 69 af 3d d1 d4 f3 bd
       -0.2638828 0.06116114 0.08565049 -0.11905826
000320 53 60 f9 3d b0 76 e7 bd 65 60 8b bd 9b 7a f1 3e
       0.121765755 -0.11301935 -0.06805495 0.47163853
000330 53 14 02 be c3 59 96 3e da 85 9d bd 27 88 e9 3d
       -0.12703066 0.29365358 -0.07691546 0.11402922
000340 0d 7f 09 3c 1d ea c0 bd 60 45 60 bd da 4e e4 3d
       0.008392108 -0.094196536 -0.05475366 0.11147852
000350 d5 1f 5c bd ab 52 85 bd cc 5d 46 3d 77 f0 05 bd
       -0.053741295 -0.06509908 0.048429295 -0.03270003
000360 5c f0 f6 bd 90 a6 50 3d 7d 24 53 be 86 e2 09 3d
       -0.12057564 0.050940096 -0.20619388 0.033663295
000370 c1 95 3b bb 72 9a 2f bd 04 98 6e bd 9f 0f ab 3d
       -0.0028623196 -0.0428719 -0.058250442 0.08352589
000380 d0 55 54 bd 8d 16 88 3d 79 0c b5 3d 8d f9 ac 3d
       -0.05183965 0.06644926 0.088402696 0.084460355
000390 58 85 18 39 c4 b9 68 3d 53 0f 6d bd be c7 b7 3e
       0.00014545524 0.056817785 -0.057875942 0.3589458
0003a0 4c 86 5c bd 0a c0 84 3d d9 52 7e 3e af a0 aa 3c
       -0.053839013 0.06481941 0.24836291 0.020828573
0003b0 b6 ee 07 be c8 82 65 bd d5 c8 b7 3e bd c1 20 3e
       -0.13274655 -0.056032926 0.3589541 0.15698905
0003c0 87 a3 0c bc a1 eb 7d be 91 20 37 bd df 32 6b 3d
       -0.00858391 -0.24796917 -0.044708792 0.05742156
0003d0 6f fc a9 bd 0d ad 4c 3d da e6 3b 3c f8 1b e1 bd
       -0.08300101 0.04996972 0.0114686135 -0.10991663
0003e0 95 51 7b bd 83 3e 23 3e 76 ae 5f bd d8 3a e9 bc
       -0.0613571 0.15941815 -0.05460974 -0.028470442
0003f0 5c 2d 40 bd f4 82 91 3e 7f 14 96 bb e3 b6 7d 3e
       -0.046918258 0.28420222 -0.00458008 0.24776797

encoder.4.bias f4 [50]
000000 47 d0 15 b9 70 46 22 bc 11 78 fd 3b 91 94 f6 3b
       -0.00014287337 -0.009904489 0.0077352603 0.0075250347
000010 f5 ed c4 3a 54 70 b2 bb 0e 64 28 bf a9 7c 19 ba
       0.001502453 -0.0054455195 -0.6577767 -0.00058550626
000020 a0 55 60 be ee 41 54 bc a9 5d a4 bb 96 e1 22 3c
       -0.21907663 -0.012955172 -0.005016048 0.009941479
000030 60 74 60 bb 78 9a a0 bb 6f 48 64 be 71 e8 8f bc
       -0.0034249052 -0.0049012266 -0.22293256 -0.017566891
000040 00 fc 2a 3c de e1 b3 b9 59 d8 71 bc 16 38 14 bf
       0.010436058 -0.00034309825 -0.014761054 -0.5789808
000050 97 79 c7 bd ba 76 b9 bb 37 06 71 be 82 c3 b9 bb
       -0.09739988 -0.0056599053 -0.23537527 -0.0056690583
000060 c3 d5 84 bb 06 ab 84 bb 1b 5d b1 bb 88 4d a7 bb
       -0.0040538027 -0.004048708 -0.0054127104 -0.005105678
000070 36 22 4c 3c 6e 88 77 3a 0c ac c6 bb 66 0f b6 bc
       0.012459328 0.0009442632 -0.00606299 -0.02222414
000080 54 41 81 3c 2b 96 14 be 9a c2 61 be 80 6c 39 be
       0.015778221 -0.1451041 -0.22046891 -0.18107796
000090 a4 5d 8f be d5 e1 55 bd 36 01 10 bf 17 99 78 bb
       -0.2800113 -0.052217323 -0.5625185 -0.0037933046
0000a0 23 66 ff 3b f1 5b 0e be b4 c9 4e bc 8b a1 b7 bd
       0.007794158 -0.1390226 -0.012621332 -0.08966359
0000b0 7d 71 33 be ec 2f 4c 3c 59 39 67 be c9 8a 6d bc
       -0.17523761 0.012462597 -0.2258047 -0.014498421
0000c0 69 24 b0 bb ef 43 50 3c
       -0.005375434 0.012711509

encoder.7.weight f4 [20, 50]
000000 27 17 0c 3e 70 93 02 3e 84 83 aa 3c 65 41 8f be
       0.13680707 0.12751555 0.020814665 -0.2797958
000010 09 e7 d7 3c 61 4d 69 3d f8 d7 9c bd 0e 6c 30 3f
       0.026355283 0.05695856 -0.0765838 0.6891488
000020 1e 54 a0 bd 16 03 b7 3e 93 83 0a 3e 4d 67 90 be
       -0.07828544 0.35744542 0.13526754 -0.28203812
000030 3f 74 b8 be c4 19 4c be 3b ee 03 be d8 04 a5 3e
       -0.3602619 -0.19931704 -0.12883846 0.32230258
000040 6a cf e4 3c 63 fc e9 3e 3c 97 37 be 8d eb 37 bd
       0.027930934 0.45700368 -0.17928785 -0.044902373
000050 93 c7 93 bd 86 3a bf 3e ab 00 19 be c1 61 02 3f
       -0.072158 0.37349337 -0.14941661 0.5093041
000060 80 8b 87 bd 74 91 16 3f ff 29 e5 3e da 70 1a 3f
       -0.066184044 0.58815694 0.44758603 0.6032845
000070 aa c9 44 be f4 0c 31 bd f2 52 68 be 9a 81 f4 3e
       -0.19217554 -0.043225244 -0.22687891 0.47755128
000080 26 85 2a be 74 cb 1e bc 53 55 b3 bd d2 0a 63 bd
       -0.16652355 -0.009692062 -0.08756509 -0.05543024
000090 d1 f2 50 bd aa de 8e 3c 78 0b d2 3d 86 52 84 be
       -0.051012818 0.017440159 0.10256094 -0.2584421
0000a0 9a ca 25 be 7a 41 c2 bd 95 e2 0f 3e 20 a8 12 3e
       -0.16190568 -0.09485145 0.14051278 0.14321947
0000b0 8d 49 04 3e c5 cc 88 be 7a 50 b8 bd 70 ed f8 3d
       0.12918682 -0.26718727 -0.08999725 0.121546626
0000c0 e1 88 91 be bb 9f 92 be 62 29 9c 3c 5e 78 8c 3a
       -0.28424743 -0.2863749 0.019062702 0.0010717025
0000d0 4e 1d 7f bd 77 a6 21 3b 1a bf 9b 3e 9b 6e c7 3e
       -0.062283807 0.0024665871 0.30419236 0.38951573
0000e0 9f 63 56 bd c9 b2 66 3e d6 56 21 3e cc 02 9a 3e
       -0.0523411 0.22529139 0.15755782 0.3008026
0000f0 67 fc 93 3e ec ce 79 b9 a4 75 38 bc b3 3a 1d bd
       0.28903505 -0.00023823575 -0.011258516 -0.038386058
000100 05 8c 1b 3e b2 c8 7d 3d 39 73 8a bc 0f 73 9d 3e
       0.15190132 0.061958976 -0.016900646 0.30751845
000110 c4 73 c6 3c c6 d0 d1 3d f3 48 3d 3d 0c d5 fe 3d
       0.024225123 0.102448985 0.046212148 0.12442979
000120 66 fc 2c bc 8b e9 85 3e 86 68 09 3e 07 34 80 3d
       -0.010558223 0.26154742 0.13418779 0.062599234
000130 62 cf 6e 3e 2c bc fb 3d 5e cd 15 3d 32 11 98 3e
       0.23321298 0.1229175 0.036572807 0.2970062
000140 34 c8 40 bc 74 b8 50 3d f9 78 25 3d 74 e3 58 bd
       -0.011766482 0.05095716 0.04039857 -0.05295129
000150 aa dd 0f 3e ec 61 3d bd 3c 1a d9 3d 4b dc 80 3c
       0.14049402 -0.046235964 0.10600707 0.015730044
000160 a7 62 00 3e 77 ac 9d bc f5 3b be 3c 6d d2 7f bc
       0.12537633 -0.019247277 0.02322195 -0.015614134
000170 67 45 ef bc b4 d9 a1 3e bc 26 0d bd ec f3 29 3c
       -0.029207898 0.31611407 -0.034460768 0.010373097
000180 8e b4 0c 3e db b0 fa 3c 27 ad a6 bc 46 ea 85 3c
       0.13740751 0.03060191 -0.020346237 0.016347062
000190 cf fb e9 3e bc cf 45 3e cf 05 a2 be 96 cc 95 3e
       0.45699927 0.19317526 -0.31645057 0.2925765
0001a0 8b 9d 74 be f4 b7 9f be f1 98 79 be f6 76 b2 bd
       -0.23888223 -0.31195033 -0.24374749 -0.08714096
0001b0 34 5d 3e be 1d f7 47 be 18 b5 ec be ba 0d 32 bc
       -0.18590242 -0.1952786 -0.46231914 -0.0108675305
0001c0 78 76 7f 3c c5 28 c8 bd 4b 6e 49 3d 16 a4 58 be
       0.01559221 -0.09773401 0.04917745 -0.21156344
0001d0 42 73 86 be ee 90 25 be 01 9b 3f 3d cf 79 26 be
       -0.2625981 -0.16168568 0.046778683 -0.16257404
0001e0 dc fb 82 be 10 1e ea bd a8 bd 05 bf 60 fa 27 be
       -0.25582778 -0.11431515 -0.5224252 -0.16404104
0001f0 fa d2 e0 bd 09 ea 62 bd 65 df e0 39 5c 96 29 be
       -0.109777406 -0.055398975 0.0004289105 -0.16561264
000200 8c 0e 98 3e a5 c5 40 be 08 82 02 3d 98 be ed bd
       0.29698598 -0.18825395 0.03186229 -0.116086185
000210 70 ac 80 3d 3b 2a e5 3d 3b fc 71 be d8 2c aa 3c
       0.0628289 0.111896954 -0.23631375 0.020773336
000220 59 77 99 be f7 82 70 3d 42 82 57 be 50 d8 b4 3c
       -0.29973868 0.058718648 -0.21045783 0.022075802
000230 47 5f bd 3e 78 8a ae 3d e8 b7 99 be 49 bf ce be
       0.36986753 0.085225046 -0.30023122 -0.40380314
000240 2b 46 02 3e db 86 a3 3d 63 53 fd 3c 3a f7 ef 3e
       0.1272208 0.07984706 0.030923551 0.46868306
000250 05 54 92 3c 10 75 64 3e b0 df c3 3c eb 37 e3 3d
       0.01786233 0.22310281 0.023910373 0.1109465
000260 80 c1 f2 bd ca 91 3e 3c 26 fe b0 bc 56 dc 74 bd
       -0.118533134 0.0116314385 -0.021605562 -0.05978044
000270 af ab 53 bd ba 2c 21 3e ab 33 09 be 4a 40 01 3f
       -0.051677402 0.15739718 -0.13398616 0.5048872
000280 3b 70 cb 3d a2 4d a3 3c f2 aa 45 3e 59 17 89 3e
       0.09933516 0.01993448 0.19303492 0.26775625
000290 1e da 1a 3d 64 8d ee bc 3a 9f 90 bd 35 8c 28 3e
       0.03780567 -0.029120155 -0.0706162 0.16459735
0002a0 07 9e 88 3e 98 9b 44 be 34 9c 8f bc b2 5f 57 3e
       0.26683065 -0.1919998 -0.017530538 0.21032599
0002b0 53 e7 87 3e e1 ec 4e 3e 95 7a 30 3e f1 01 88 3e
       0.26543674 0.2020755 0.17234261 0.2656398
0002c0 d7 2c 96 3e 29 32 53 3e 6a 6f 21 3a 48 cc 85 3d
       0.29331085 0.20624603 0.00061582646 0.06533104
0002d0 d1 d7 92 3e 8a ba ec 3c 21 eb 2a 3c d3 82 ed 3c
       0.2868028 0.028897543 0.010432036 0.028993046
0002e0 ba 28 b7 3e 08 54 8c bd c6 19 33 bd a5 9b d7 3e
       0.3577326 -0.06851965 -0.04372575 0.42110935
0002f0 09 97 3c bd 6d bc b0 3d 55 3a cd 3a 24 50 71 bd
       -0.046042476 0.08629689 0.0015657643 -0.05891432
000300 4a 49 0b 3c 14 67 e4 3e f3 f0 06 3e 4c 97 7d bb
       0.00850136 0.44609892 0.13177852 -0.0038694916
000310 ac 23 bd bd 30 44 f4 3c 8c 03 dd 3d 19 51 91 3b
       -0.092353195 0.02981767 0.10791692 0.0044347164
000320 b1 8f 99 be 9a e4 03 3d 54 fb ed bd e9 21 7d be
       -0.2999244 0.032200433 -0.11620203 -0.24719967
000330 e0 b7 5d bd c3 fd 10 be cc 51 e9 bd 32 36 e6 bc
       -0.054130435 -0.14159302 -0.11392555 -0.028102014
000340 7c 14 4f be d7 0d af 3d 30 08 4f 3d 36 2c ec 3b
       -0.20222658 0.085475616 0.050544918 0.007207419
000350 ff 2b 8e 3e ed 41 9d 3e b0 3f 0a 3c 4a f5 24 be
       0.2776794 0.3071436 0.008438036 -0.16109195
000360 78 97 db bd 1b 66 1f 3c 60 f3 21 3e 02 4c 4e be
       -0.1072225 0.009728934 0.15815496 -0.20146182
000370 c0 b8 e8 bc 50 8e 17 be 10 92 af 3e b9 85 62 3c
       -0.028408408 -0.14800382 0.34291124 0.013825827
000380 b6 51 c2 3e e6 ca de bc 36 d8 11 bd 3a d1 a5 3c
       0.37952965 -0.027196359 -0.035606585 0.020241369
000390 66 b6 e7 bd fe dd 1a 3d 60 ee 5b 3e 60 69 e5 bd
       -0.113140866 0.037809364 0.21477652 -0.11201739
0003a0 61 ab c8 bc 07 23 66 bd 48 e1 a0 3d 43 81 11 bd
       -0.024495782 -0.05618575 0.07855469 -0.035523664
0003b0 05 2f a4 bd 71 db 9d 3e 7e 02 0b bd d0 c7 83 3e
       -0.08016781 0.30831483 -0.033937924 0.25738382
0003c0 7b 99 19 be da 83 ff 3d 3e cf 45 3e cb 54 56 3e
       -0.14999954 0.124763206 0.19317338 0.20930783
0003d0 5b 72 67 3d 07 fd 0f be 71 5b 6b 3d 07 2c 8c be
       0.056505542 -0.14061366 0.057460252 -0.2737734
0003e0 e1 e8 90 3e 5c 46 1c be a3 bd 8b be ca b2 8c be
       0.28302673 -0.15261215 -0.2729312 -0.27480155
0003f0 94 f8 1e 3e b6 33 5d be ce 88 dd 3e 04 19 95 3e
       0.15524513 -0.21601757 0.43268436 0.29120648

encoder.7.bias f4 [20]
000000 d4 ba c4 3b 30 e7 a7 bb 40 1b 06 ba 0a 6f 67 ba
       0.006003717 -0.0051239952 -0.0005115755 -0.0008828497
000010 64 b0 c8 bb 0a 2f bd 3b 09 dc ef be f2 32 82 bf
       -0.006124543 0.0057734298 -0.4684756 -1.0171797
000020 54 4a 08 3c 7e 45 92 bb 5a 9e 51 be f4 c2 87 3b
       0.008318502 -0.0044638505 -0.20470563 0.0041431133
000030 61 d2 b4 be a4 6f 18 b9 2b b1 7b bb ce 51 9f b9
       -0.35316756 -0.00014537439 -0.003840516 -0.00030387793
000040 01 56 4f bb 5c 01 2f 3b 65 16 a6 ba 4e 6a e7 be
       -0.0031636956 0.002670369 -0.0012671469 -0.45198292

encoder.10.weight f4 [4, 20]
000000 03 79 3d 3f 63 39 82 3e 4a 9f 47 bf cc 94 70 be
       0.74012774 0.25434408 -0.7797743 -0.23494262
000010 0d 4a e7 be b9 11 02 3f 57 79 2d 3f fe 50 9e 3f
       -0.45173684 0.5080829 0.67763275 1.2368467
000020 e0 8c 23 3f 6f 39 01 bf c6 68 3a be 7e 1c ff 3e
       0.63886833 -0.5047826 -0.1820403 0.49826425
000030 6b da 84 3e 44 44 5c 3f d7 a1 eb be 50 8a 68 3f
       0.2594789 0.86041665 -0.46021912 0.9083605
000040 e2 57 5a be 07 27 91 be 7c b1 c1 be 0c 9d 72 3f
       -0.21322587 -0.28350088 -0.37830722 0.94770885
000050 9c b3 bb be 3b 9e 38 bf f3 62 10 bf 46 e6 92 bd
       -0.3666047 -0.7211644 -0.56400985 -0.071728274
000060 c4 86 2c 3f 35 84 d4 be ec cb 8b 3d e2 f1 0c 3f
       0.67393136 -0.41507116 0.068260044 0.55056584
000070 ca de 8d be 53 c5 eb be 6d 9c e4 bd d2 ff e1 be
       -0.27709037 -0.46048984 -0.11162648 -0.44140488
000080 cd 3b 97 bd be 21 c8 be 44 50 33 3f 2e b5 c2 be
       -0.07384453 -0.39088243 0.7004435 -0.38028854
000090 3f 96 2b be 67 ae 95 3e 4e 18 0b 3f dc b4 23 3e
       -0.16756533 0.2923462 0.5433396 0.15986961
0000a0 20 a7 35 bf 23 7b 04 3e ac fa e2 3e 01 05 f4 bd
       -0.7095814 0.12937598 0.44331872 -0.11915017
0000b0 4e ee 19 3f 14 e2 0f 3f 8b 3e 6e 3e 3e 17 2d 3a
       0.6012925 0.5620434 0.23266046 0.00066028896
0000c0 78 f8 26 bf 21 5e c7 3e 1b 69 41 be 81 9f ce 3e
       -0.65222883 0.38939002 -0.18887751 0.40356067
0000d0 56 a3 94 3e 40 09 4f bf 38 c8 1e 3f 24 c1 58 bf
       0.29030865 -0.8087349 0.6202426 -0.8466971
0000e0 ac fc 28 be 65 ec 69 3e 1c b4 fa 3e 1c b2 6d bd
       -0.16502637 0.22844084 0.48965538 -0.058031186
0000f0 9c e2 fd 3e 92 58 68 be af 7e f5 3e 37 ed e0 be
       0.49586952 -0.22690037 0.47948214 -0.4393098
000100 a1 c7 cb be b5 02 ac bd 45 39 25 be b7 0a db be
       -0.39800742 -0.08398954 -0.16135128 -0.42781612
000110 b2 b3 c1 3e 23 7c 9f 3e 9e 95 13 be 84 9a c3 bd
       0.3783241 0.31149396 -0.14412543 -0.09550956
000120 30 ac 76 be 90 9f 18 3f 03 f0 d0 be 09 1a 24 3f
       -0.24089122 0.59618473 -0.40808114 0.64102226
000130 c2 4c e0 be 11 17 a5 be 55 a7 a8 be ab e3 8f be
       -0.43808562 -0.3224416 -0.32940164 -0.28103384

encoder.10.bias f4 [4]
000000 77 97 47 be 0d 4e 4b be 8e 20 5b 3e eb be 6e 3e
       -0.19491373 -0.19853993 0.21399137 0.23315017

decoder.0.weight f4 [20, 4]
000000 fe f1 71 be 9a 2e 90 3e c6 e5 37 3f 86 16 bb 3f
       -0.23627469 0.28160554 0.7183498 1.4616249
000010 a9 7d e2 3e 3c 7b bb be 24 d8 1d bf 8d ff 18 3f
       0.44236496 -0.36617458 -0.6165793 0.5976494
000020 c5 7e 7d be 0d e2 be bd 9a 95 52 3f 68 c1 0f 3f
       -0.2475539 -0.093204595 0.82259524 0.5615449
000030 fc f1 a0 bd 69 d9 7f bf 7d 25 74 bf b7 20 53 3f
       -0.07858655 -0.99941117 -0.953697 0.82471794
000040 5a 1a 2a 3c 41 2f 3d 3e b7 d8 cf 3e e0 b6 4e 3f
       0.010382259 0.18475057 0.40595028 0.80747795
000050 10 58 3a 3f 53 e8 e0 be 74 d2 4c 3e 20 65 5f bf
       0.7279062 -0.4392725 0.20002156 -0.8726368
000060 86 c1 9f 3f 00 79 02 be db 85 0a 3f 30 53 29 bf
       1.2480934 -0.1274147 0.541105 -0.6614256
000070 dd 28 00 3f 82 49 9e be b6 82 14 bf ae 9f df be
       0.5006235 -0.30915457 -0.5801195 -0.43676513
000080 f4 c5 99 be d6 81 34 3f ef d3 5e be 0f dc f6 be
       -0.3003384 0.70510614 -0.21760534 -0.48214766
000090 df f4 80 3e d7 10 f1 3e 61 3d 66 3e 12 2e fc be
       0.25186822 0.4708316 0.22484352 -0.492539
0000a0 b8 aa 32 be 0b 6c aa 3e bd 48 ac 3e 6d 37 3e be
       -0.17447937 0.33285555 0.33649245 -0.18575831
0000b0 58 c8 bd bf 6d 3f 20 3f f4 de 03 bf b4 db 2e 3f
       -1.4826765 0.6259678 -0.51512074 0.6830399
0000c0 1c 95 d0 3d f3 c9 79 bf 81 02 06 bf c5 7e da 3e
       0.1018469 -0.97573775 -0.5234757 0.42674842
0000d0 ed fb 00 3f 0a aa dd 3e d8 85 e7 3d 37 67 8a 3c
       0.5038441 0.43293792 0.113048255 0.01689492
0000e0 74 03 10 3c c9 9a b9 be 73 b9 e0 be de 72 38 be
       0.008789886 -0.36250904 -0.43891487 -0.18012568
0000f0 ab 21 bf 3e e7 12 ed be 6a a1 11 3f cc a7 df be
       0.37330374 -0.46303484 0.56886923 -0.43682706
000100 aa 3d 86 bf 28 f7 42 be a9 62 30 3e f3 24 dc be
       -1.0487568 -0.19039595 0.17225136 -0.4299694
000110 89 d1 74 bf e7 4d b1 be 89 43 11 3f 13 b4 f0 bd
       -0.95632225 -0.34629747 0.56743675 -0.117530964
000120 8d 51 11 bf 14 a4 1b 3f 97 f4 be 3d 09 d2 78 be
       -0.5676506 0.6079724 0.093239956 -0.24298872
000130 ff 5c 63 3e 54 4b 8a be 8b e1 04 be 97 38 86 be
       0.22203444 -0.27010596 -0.12976663 -0.2621505

decoder.0.bias f4 [20]
000000 de 99 36 bf 84 12 f6 3c 36 1d 96 be 58 5f 8e 3d
       -0.7132853 0.030038126 -0.2931916 0.06951779
000010 5e 59 7f be 2b 43 46 3e 41 69 18 3e 14 6d ae 3e
       -0.24936435 0.1936156 0.14883901 0.34067595
000020 2b cb 43 be bb 16 de 3e 8a ff 52 3e c5 0d 41 be
       -0.19120471 0.43376717 0.20605293 -0.18852909
000030 cf 36 05 3d 9b ab d3 be 24 81 f2 be 54 be d1 bd
       0.032522973 -0.41341862 -0.4736415 -0.1024138
000040 95 ac 28 be 0f 8f 31 be 1a 79 96 3e 49 97 32 3e
       -0.16472085 -0.17339729 0.29389268 0.17440523

decoder.2.weight f4 [50, 20]
000000 19 77 88 3e d7 af bb be 5c 43 54 be 87 41 7a be
       0.26653364 -0.36657593 -0.2072882 -0.24439059
000010 59 2a 08 3d 39 cb 21 3e b6 c5 13 3d 62 4f df 3d
       0.03324351 0.1580018 0.036077224 0.10903813
000020 34 a6 33 3e 88 1f 78 3e ee 9a c8 3c 84 66 a3 3d
       0.1754387 0.24230778 0.024487939 0.07978538
000030 63 67 3f be 60 72 b0 3d d6 7d 5c 3e e0 a3 a7 3e
       -0.18691783 0.08615565 0.21532378 0.32742214
000040 08 86 c3 3d 1f 67 38 3e d7 90 de 3d 15 e4 2e be
       0.09547049 0.18008088 0.1086747 -0.17079194
000050 0b df 02 be b0 31 47 bd c7 23 97 bc 4b 3f 8f 3d
       -0.12780397 -0.04863137 -0.018449677 0.06994494
000060 e0 26 0e be 66 e8 1b be a3 69 4f 3e e5 d0 21 3d
       -0.13882017 -0.15225372 0.20255141 0.039505858
000070 d6 5c 57 be 84 f8 14 be 45 78 e5 3d 93 10 c0 3d
       -0.21031508 -0.14547926 0.1120458 0.09378161
000080 02 51 d0 3d 31 b6 1b be 64 38 b0 bd 0f f6 c2 3c
       0.10171701 -0.1520622 -0.08604506 0.02379897
000090 62 25 cb 3b bd 5a 5d 3e b1 52 51 be a4 0d 21 3e
       0.0061995247 0.21616645 -0.204417 0.1572786
0000a0 06 d7 09 be 13 ec 39 3e ec f5 3a 3e 93 33 14 bd
       -0.13460931 0.18156461 0.18257874 -0.036181998
0000b0 55 67 0d bc 5e 3e 25 3e fe a7 f2 3d fc 7b 80 bc
       -0.008630593 0.16137072 0.11848448 -0.01568412
0000c0 2d 0f b6 bd 7d 73 0a 3e 99 a0 fa bc 2e 7a 3a bd
       -0.08889613 0.13520618 -0.030594157 -0.045526676
0000d0 3a e4 fc 3d a3 32 4b 3d d0 01 a0 bd d6 19 25 3e
       0.12348218 0.049608838 -0.07812846 0.16123137
0000e0 7e 9c 7d 3b 2a 32 04 be db 6c 13 bd 2c e5 4e 3d
       0.0038698013 -0.12909761 -0.035992485 0.050511524
0000f0 e8 25 be bd 67 f6 10 3e e2 37 6e bd 6c 60 72 bd
       -0.09284574 0.14156495 -0.058158763 -0.059173986
000100 da ac 70 be bc e5 a8 bb b3 50 16 3e 8c 4f 8e 3e
       -0.23503438 -0.0051543396 0.14679222 0.27795064
000110 cd 52 69 3d eb b3 a9 ba d7 ef 35 bd b5 07 23 3e
       0.05696373 -0.0012947296 -0.044418182 0.15920909
000120 4f 65 5f 3d e8 be a7 bd 6e fd 60 be 3e 02 75 3d
       0.054539975 -0.08190709 -0.21971676 0.05981659
000130 5c fa d4 3d b9 7d 08 bc cb dc 96 3d 3c cf 5d bd
       0.10399315 -0.008330756 0.07366332 -0.054152712
000140 eb d9 e3 be 4d f6 86 be 70 39 03 3e 34 23 98 3d
       -0.44502196 -0.26359788 0.1281488 0.074285895
000150 ac 72 4b be 9e 34 19 bd a3 74 47 3e f0 be 68 be
       -0.19867963 -0.037403695 0.19478087 -0.22729087
000160 29 ba 99 bd b9 28 6e be 31 96 02 be 31 79 74 3e
       -0.0750621 -0.23257722 -0.12752606 0.23874356
000170 0a aa 86 3e 5a 8a 0a be d1 7a cd bd 9a b2 96 3e
       0.26301605 -0.1352934 -0.10033191 0.29433137
000180 28 f6 26 3e 02 23 df 3d a3 b7 26 3e 75 d5 0f 3e
       0.16304839 0.10895349 0.1628099 0.14046271
000190 c4 7f 09 3e 58 f2 53 3e 0f 8c 84 3e 10 4e e7 bd
       0.13427645 0.20697916 0.25888106 -0.11294186
0001a0 f1 69 75 3e 16 69 69 3e 0d e9 78 3e 9c 1f d9 be
       0.23966195 0.22793993 0.24307652 -0.4240693
0001b0 77 62 2c 3e 67 b6 89 3e 54 ea b5 bd d8 8d 47 be
       0.16834436 0.26896974 -0.08882585 -0.19487703
0001c0 b6 0d 86 bd e3 98 33 be d6 4b 04 3e d0 46 4b 3d
       -0.06545584 -0.1753879 0.12919554 0.04962808
0001d0 b0 89 96 bc 7f 6b dd be d1 2a 16 3e d6 6f 0b 3d
       -0.018376201 -0.43246076 0.1466477 0.034042202
0001e0 cd a0 54 3e 34 85 42 be 8f 9f 21 3d 63 24 f1 bc
       0.20764466 -0.18996125 0.039458808 -0.029436296
0001f0 dc 06 fc 3d a2 f5 44 3e ee 3f 5e 3b f1 9b a2 bd
       0.12305996 0.19234326 0.0033912617 -0.079399
000200 d8 c1 dd bd 34 4f 4f 3e d6 65 96 bd 55 5f 08 3e
       -0.108279884 0.20245057 -0.073436424 0.13317616
000210 8b 73 c3 bd dc 5b 63 be ca 82 53 be c4 f4 f0 3d
       -0.095435224 -0.2220301 -0.20655361 0.11765435
000220 b9 6a 5b be 4c e5 82 bd e3 2d d9 bc 18 8f f9 bd
       -0.2142743 -0.06391391 -0.026511138 -0.12185496
000230 43 6e b7 bd ce 1f 84 bd e2 ff db bd 78 7d 62 bb
       -0.08956578 -0.06451379 -0.10742165 -0.0034559648
000240 02 be 27 be 89 d3 3a 3b 51 b7 48 3e c4 ad 94 3d
       -0.16381076 0.0028507432 0.1960118 0.07259706
000250 45 da 31 3e 7c db 06 3e 9d cd 32 bd 46 ac 0c 3e
       0.1736842 0.13169664 -0.04365312 0.13737592
000260 d7 49 ab 3d 5a 5d 28 be 7e 7a 13 be 12 0a 71 bc
       0.08363693 -0.16441861 -0.14402196 -0.014711874
000270 27 90 f0 3d 66 c5 a3 3d 75 93 88 be ba 61 3e bc
       0.11746245 0.07996635 -0.26675 -0.0116199795
000280 d4 5c d3 3e 0e 0a 89 3e 86 16 76 3e 51 6b 63 be
       0.4128176 0.26765484 0.2403203 -0.22208907
000290 d9 58 a4 3e d1 d0 92 3c 48 19 86 3e c4 35 80 be
       0.32099035 0.017921837 0.26191163 -0.2504102
0002a0 22 f4 bd 3d f2 32 1f 3e 15 79 1b 3e 45 98 32 3d
       0.0927508 0.15546778 0.15182908 0.043602247
0002b0 2e 84 6e bd 80 84 a7 3c ed 1f 25 be 95 f0 9a be
       -0.058231525 0.020448923 -0.1612546 -0.30261675
0002c0 5e 15 29 be d0 55 00 be aa c3 ac 3d 19 cf a1 3d
       -0.16512057 -0.12532735 0.084357575 0.07900829
0002d0 b6 52 34 3e 28 71 60 bc 99 47 5d 3e 9e b2 f6 3d
       0.17609677 -0.013698854 0.21609344 0.12045787
0002e0 18 7c 46 bd b3 40 84 be f1 49 e7 bd 50 b7 e0 bd
       -0.04845819 -0.25830612 -0.112934 -0.10972464
0002f0 f2 84 0e be f1 80 c1 3d 75 38 09 3e 6d 6a 32 3e
       -0.13917902 0.09448422 0.13400443 0.1742341
000300 ea 6f fa bc ff 09 ea bd 94 ea e2 3d 6f 16 63 be
       -0.030570943 -0.11427688 0.110798985 -0.22176526
000310 f0 24 31 be 42 bc 10 3e e5 c9 2d 3e 99 cc 21 3e
       -0.17299247 0.14134315 0.16971548 0.15800704
000320 e8 21 62 bd da 1f 27 3e 9b d3 7b bd 47 5d 3d bd
       -0.055208117 0.16320744 -0.0614811 -0.046231534
000330 20 c5 4a 3e 4a 5f 40 3e dc 9f 5c 3e eb 60 19 3e
       0.1980176 0.1878635 0.21545357 0.14978378
000340 27 c6 31 3e e4 56 6d bd d9 a7 91 3d 7c 16 70 3d
       0.17360745 -0.057944193 0.071120925 0.058615193
000350 3c 04 1f be 26 ee 0e bd 21 99 94 3d cf aa 3d be
       -0.15528959 -0.034895085 0.072557695 -0.1852219
000360 e9 54 69 3e 74 5b 30 be d4 53 65 3e 11 c6 0f bd
       0.22786297 -0.17222387 0.22395259 -0.035101
000370 12 b0 44 3e 5a 97 0c 3d b2 fa 98 3d 90 67 e9 3d
       0.1920779 0.034324028 0.07469691 0.11396706
000380 c1 74 c4 bd db d8 2f be f8 30 71 be 0e 0b 05 3e
       -0.095925815 -0.17172568 -0.23553836 0.12992498
000390 dd 53 a7 bd ae e1 38 be 04 6e 6f be 51 b1 61 be
       -0.081702925 -0.1805484 -0.23381811 -0.22040297
0003a0 e8 52 12 3c 8e 2d bd bd d8 02 7c bd 1b dd 5b be
       0.008930899 -0.092372045 -0.06152615 -0.21471064
0003b0 82 89 0e be c6 41 a0 3d dc fa 3b bd 92 39 8b 3d
       -0.13919643 0.07825045 -0.045893535 0.0679809
0003c0 b6 b7 0d 3d 9c cb 8c 3e 38 bc fe bc 47 78 bf 3e
       0.03459903 0.27499092 -0.03109561 0.37396452
0003d0 05 5f 1a 3d 9b 86 46 bd cd e5 a9 3b a7 66 24 3c
       0.037688274 -0.048468214 0.005184865 0.01003424
0003e0 10 8f 43 3e 67 41 44 3e e5 61 11 3e d1 0b a7 be
       0.19097543 0.19165574 0.141975 -0.32626203
0003f0 0f 08 aa 3e fb 29 dd bd 79 7b fb 3d 23 36 cc 3c
       0.33209273 -0.10799023 0.1227941 0.024928158

decoder.2.bias f4 [50]
000000 5d 47 83 3e 0e b6 bb bd 0e b2 12 3d b2 f7 15 3e
       0.25640383 -0.091655836 0.035814337 0.1464527
000010 c1 4c 80 3d b3 e7 22 3e 3e 38 18 be 8e 06 47 3e
       0.0626464 0.15908699 -0.14865205 0.19436094
000020 16 6c 09 3e 51 1c 68 be 42 e9 8a 3d c9 c6 fb bd
       0.13420138 -0.22667052 0.06782772 -0.12293775
000030 89 fa 05 be 5a 5f 8b be 11 7b 0f be 8c da b8 bd
       -0.13083853 -0.27221185 -0.1401179 -0.090260595
000040 d6 85 a1 be 4e dc 8e 3d be f6 9d bd d8 d7 d4 bd
       -0.3154742 0.069756135 -0.07713078 -0.103927314
000050 55 71 18 3e ce 6a 10 3c df d9 ac bd a6 96 d4 3b
       0.14886983 0.008814527 -0.08439993 0.0064876853
000060 5b 91 60 3e 1b c4 07 3e 09 98 2d be 53 73 51 be
       0.21930449 0.13258402 -0.16952528 -0.20454149
000070 e9 26 11 3e 0e bf ec bd 53 b8 48 be 26 8b 46 3c
       0.14175 -0.11559878 -0.19601564 0.0121181365
000080 29 3d 80 3d a7 a3 91 3c a5 0c 39 be 13 67 7a bd
       0.062616654 0.01777823 -0.1807123 -0.061133455
000090 b5 b7 a3 be 75 9d be 3b 16 d7 f0 3d 3d 74 ff bd
       -0.31976095 0.00581711 0.117597744 -0.124733426
0000a0 4c e3 0f be 7a 32 d2 bd b6 61 03 be 3f a0 48 be
       -0.1405155 -0.10263534 -0.12830243 -0.19592379
0000b0 4a 03 cc 3e e3 54 fb 3d 7e 88 bc 3d f1 25 cb bd
       0.3984626 0.1227205 0.09205721 -0.09919346
0000c0 7a 20 d1 bd a0 ce b1 bd
       -0.102112725 -0.08681989

decoder.4.weight f4 [50, 50]
000000 33 05 35 3d 7a 4d 07 be 39 64 a3 bd 1f 4f 67 bd
       0.04419441 -0.13213149 -0.079781 -0.05647194
000010 c5 ab 93 3c 90 96 58 bd 29 b0 c9 bd 2c 4a 0f bd
       0.018026242 -0.052877963 -0.09848053 -0.034982845
000020 69 30 80 bd ff 0e c7 3c df 2f 8b 3d f2 be 03 3c
       -0.062592335 0.024299143 0.0679624 0.00804113
000030 2d 93 d6 bd fa 50 d5 bd 05 69 fe 3d 4b b5 81 bd
       -0.1047729 -0.10415836 0.12422375 -0.06333407
000040 f6 ea 38 3c f5 4f a1 bd 92 63 0e 3c 63 4d ab bc
       0.011286488 -0.07876579 0.008690732 -0.020910924
000050 5d 1b d0 bd 9b 18 ad bd f0 19 d2 bd 08 23 c0 3d
       -0.10161469 -0.08451959 -0.102588534 0.09381682
000060 bc b4 af bd 82 a7 09 3e c7 e6 0c be 23 bd 77 bd
       -0.08579394 0.13442805 -0.1375991 -0.06048311
000070 9b ea f2 bd 91 a8 e2 bd 5c 76 00 3e f9 9f ce 3d
       -0.11861154 -0.11067308 0.1254515 0.10089106
000080 b0 8e 22 3d ac 9c 1c bb b5 e6 05 be f9 b6 e4 bd
       0.03968686 -0.0023897095 -0.13076289 -0.11167712
000090 93 3d ec 3c a8 3d 67 bd 57 c5 0b be b9 60 19 3d
       0.028837955 -0.056455284 -0.13649498 0.037445758
0000a0 de 2a bb 3c c1 11 af bd d2 d9 91 3c 13 28 9a bd
       0.02284759 -0.08548308 0.01780406 -0.07527175
0000b0 6b 9d a6 bd d3 6f 04 3e ad 23 f6 3d 78 f6 05 bc
       -0.08135494 0.12933283 0.12018523 -0.0081764385
0000c0 53 46 9e bd 0d a9 b7 bd eb 77 08 be 82 c2 da bd
       -0.07728257 -0.08967791 -0.13326995 -0.10681631
0000d0 f9 2a 8c 3d 89 9a 9b 3b db dd 31 bd 89 0f 57 3e
       0.06844134 0.0047486466 -0.04342447 0.2100202
0000e0 af 94 94 3c dd 83 3c bd 04 69 58 3e b9 c4 ed 3c
       0.018137304 -0.046024192 0.2113381 0.029024469
0000f0 00 e8 0a 3e aa 88 d0 3d 85 5e ff 3d 58 9b ff 3d
       0.13565063 0.101823166 0.124692 0.12480801
000100 7e eb bc be 4e ee a7 bd 3c fd 6f 3e 1e 03 29 3c
       -0.36898416 -0.0819975 0.23436445 0.010315685
000110 9f 70 a8 3d 15 8f a9 3c 65 31 1f be c4 1d ec 3d
       0.08224606 0.02069811 -0.15546186 0.11529115
000120 b3 d0 3e bc c1 b1 c9 3d 58 17 bd 3d ec ed 6f 3e
       -0.011646437 0.09848357 0.09232968 0.23430604
000130 49 a8 2d 3e 18 46 d7 bd 8a 7f 81 3e c0 bb fc bc
       0.16958727 -0.10511416 0.25292617 -0.030851245
000140 59 83 08 be 81 76 db bd 85 38 96 bd 15 1f f3 3d
       -0.13331355 -0.10715962 -0.07334999 0.11871163
000150 b0 65 26 3e 94 59 f3 bb cd 60 ed 3c 73 49 0c 3e
       0.16249728 -0.00742645 0.028976822 0.13699894
000160 51 8a 08 be 59 04 05 3e 3e ca 0c be 90 64 45 be
       -0.13334014 0.1298994 -0.13749024 -0.19276643
000170 41 69 75 bd a0 b8 f9 3d 24 6d 78 3e b5 c6 4d bd
       -0.05991483 0.121934175 0.24260384 -0.05023833
000180 eb 5c 15 bd 0e 55 d8 3d d6 10 c2 bc 1f ad 5b 3e
       -0.036465567 0.10563098 -0.023689669 0.21452759
000190 84 d1 84 3e fb 2c 20 be 61 4f 80 bd 31 d2 9d bd
       0.25941098 -0.15642159 -0.0626514 -0.077061065
0001a0 d2 27 04 3e 49 6b 67 3d 09 56 e0 bd 92 c0 8c bd
       0.12905815 0.0564988 -0.1095391 -0.06872667
0001b0 27 e0 30 3d e4 e6 73 bd b2 69 7d bd 0f 5c 16 3d
       0.04318252 -0.059546366 -0.061868377 0.036708888
0001c0 d2 bc 22 be 9e a5 43 3d d5 54 80 3e 33 18 6f bd
       -0.15892342 0.047765367 0.25064722 -0.058372688
0001d0 de 2c 93 3d 21 17 9e bd 70 a6 97 bb ed 62 72 bd
       0.07186292 -0.07719255 -0.004627995 -0.059176374
0001e0 c7 92 c0 3d 82 29 78 bd 4c 28 cf bd ff e4 a5 bd
       0.094029956 -0.06058646 -0.10115108 -0.08100318
0001f0 86 13 52 3d 31 a6 8e bc 60 98 a9 3c a5 c1 62 bd
       0.05128815 -0.01741323 0.02070254 -0.055360455
000200 68 26 3b bc 1b ef e2 bd 99 13 eb 3c 36 8c c2 bd
       -0.011422731 -0.11080762 0.028695868 -0.09499399
000210 93 13 87 3c 87 39 fd 3d 97 c8 d7 bd 37 57 bc 3c
       0.016488826 0.12364488 -0.10536306 0.022990806
000220 6a c9 c8 3d d8 b4 02 3e 6b ec f5 bd 0f 60 09 3c
       0.09804042 0.12764299 -0.12007984 0.008384719
000230 95 b4 26 3d d0 e7 86 3d a8 b0 cc 3d 7f 2b e2 3c
       0.04069956 0.065871835 0.09994632 0.027608631
000240 b9 e9 86 3e 9a 91 d9 bd 6a 64 63 3d 0a 8e 3c be
       0.2635019 -0.106234744 0.055515684 -0.18413559
000250 80 06 bc bc 78 5a 81 3e 46 ae ab bd 0a 58 f4 bd
       -0.022952318 0.25264335 -0.083828494 -0.119308546
000260 18 b2 91 bd 7c 9c 26 3e 8a 29 98 bd 85 a0 84 be
       -0.07114047 0.16270632 -0.07429798 -0.25903717
000270 70 8d cc 3d d6 d0 a6 bc 69 2f a9 bc 5d 91 ba 3d
       0.099879146 -0.020363253 -0.02065249 0.09109757
000280 c0 53 a0 bc 32 a0 d2 bd ec 61 34 be a2 7d cd 3e
       -0.019571185 -0.10284461 -0.17615479 0.40134913
000290 f4 6d 3e be e6 33 34 be 0b 21 ea bc 9d 1b 12 bd
       -0.18596631 -0.17597923 -0.02858021 -0.035670865
0002a0 bf 63 e2 bb 68 c1 e6 3d 85 63 bf 3e 51 fc d3 3d
       -0.0069088633 0.11267358 0.37380615 0.1035086
0002b0 96 e3 5b bd e9 fc 88 3d 74 dc f5 3d 47 ac e7 bc
       -0.05368384 0.06688864 0.12004939 -0.02828039
0002c0 88 6b 11 be d1 aa 85 3d 0d 2e 84 3d 3c 9c 80 3d
       -0.14201176 0.06526721 0.06454096 0.06279799
0002d0 9c 4b f7 bd 32 e4 92 3e e6 42 83 bd 66 de a1 3c
       -0.12074968 0.28689724 -0.06409244 0.019759368
0002e0 0b d5 2e 3d 95 25 80 bd 83 fd 90 3e 95 ac 8a bb
       0.042683642 -0.06257168 0.28318414 -0.004231999
0002f0 4d 85 db 3b 2b 48 8e 3d 4d 30 c0 3d d4 33 ab 3e
       0.0066992403 0.06947359 0.09384213 0.3343798
000300 36 0c 18 3d d2 08 d8 3d 32 c2 5d 3e d7 5b 35 3c
       0.03712102 0.10548557 0.21656111 0.01106926
000310 fb 88 95 3e c1 6a 56 be c6 eb fd 3d 98 7d 22 be
       0.2920607 -0.20939161 0.12398486 -0.15868223
000320 46 e1 0a 3e c7 17 58 bd 38 86 0c 3d 01 6f 30 bc
       0.13562497 -0.05275705 0.03430769 -0.010768653
000330 2f c1 ad 3d 71 7a 55 bd 37 8e f4 3c 8f db 53 3d
       0.084841125 -0.052118722 0.02985297 0.05172306
000340 16 6d bb bc 21 1d 47 3e 3d cc 80 bd f4 bf 1e 3e
       -0.022879165 0.19444706 -0.06288955 0.15502912
000350 fd d3 00 be 65 e3 03 3f 7c c7 c9 3d fd 1b 95 bd
       -0.12580867 0.5151885 0.09852502 -0.07280729
000360 38 57 8e 3e d0 f5 a2 bd ef f9 15 3e c2 40 43 3d
       0.27800918 -0.07957041 0.14646123 0.04766918
000370 f1 62 fc 3d a3 17 e4 3c ec 6b 6d ba 95 c9 a5 bd
       0.12323559 0.027843302 -0.0009056914 -0.08095089
000380 d3 e3 8c bd d3 3e 03 3e 04 51 18 3d f5 67 f8 bd
       -0.068793915 0.12816934 0.037186638 -0.12129203
000390 9a b4 94 bd 6e aa 55 be 32 1a fd 3d 02 18 20 3d
       -0.072610095 -0.20865795 0.12358512 0.039085396
0003a0 f0 ef ee 3c 89 cb 54 3e b8 05 32 3d f2 80 ea 3d
       0.029167145 0.20780768 0.043462485 0.114503756
0003b0 cc e6 bb 3e 14 1f 01 be 03 2a c2 3d 11 6c 87 3e
       0.36699522 -0.12609512 0.09480669 0.26449636
0003c0 47 f2 1c bc b2 57 2a 3e 5b eb ce 3d 8a b9 aa 3d
       -0.009579248 0.16635016 0.10103484 0.0833617
0003d0 e8 94 6e 3e 15 5d 51 3d 62 3d 2d 3d f6 05 8b 3d
       0.2329899 0.05111416 0.042294867 0.06788246
0003e0 11 0c 20 3e 6f 28 c9 be b5 31 cf bc af fe c0 bc
       0.15629603 -0.3928866 -0.025292257 -0.023558943
0003f0 36 d8 bd 3d 24 b5 bb 3c d1 11 e8 3d 9b e1 be 3b
       0.092697546 0.022913523 0.11331523 0.005825234

decoder.4.bias f4 [50]
000000 e9 30 00 be 0c c7 f1 3d f9 5e ad 3e cd bd 73 bd
       -0.12518658 0.11805543 0.3386152 -0.05950718
000010 08 45 c8 3d 3d 92 f8 bd 4b f8 80 be 91 94 b9 3d
       0.09778792 -0.12137268 -0.25189433 0.0906154
000020 7a c9 1d be 18 24 a6 3d 61 00 02 be 1d fe db bd
       -0.15408888 0.08112353 -0.12695457 -0.10741828
000030 43 a2 13 be 7a 6a 6d bb 2a fe 67 3d 2e 00 2b be
       -0.14417367 -0.0036226795 0.056638874 -0.16699287
000040 c4 99 e7 bb 12 98 bb bb b7 8b 8e 3d e0 94 d4 bd
       -0.007067891 -0.0057249153 0.06960242 -0.10379958
000050 35 5b cd bd 21 00 33 3c 90 91 8f 3e ed 84 f9 bc
       -0.10027162 0.010925324 0.28040743 -0.030458892
000060 5a 44 c4 3d 10 5a a0 bd ce d7 57 bd a5 e8 7e bd
       0.095833495 -0.07829678 -0.05269604 -0.062233586
000070 67 f9 f2 bc 2c cf 45 3e a0 27 35 3d ee c8 06 3e
       -0.02965994 0.19317311 0.044227242 0.13162586
000080 d0 59 0f 3c 00 31 06 bd 60 a4 db 3b 51 79 5b 3d
       0.00874944 -0.032761574 0.0067029446 0.053582493
000090 eb 83 1b 3e 9d 3c a5 3d 46 37 0c 3e a0 30 28 bb
       0.15187041 0.08068202 0.1369296 -0.0025663748
0000a0 94 94 0e bd c2 8b b8 3c bf 36 20 3e 4c 18 84 3d
       -0.034809664 0.02252758 0.15645884 0.06449947
0000b0 3c 81 05 be ee 12 7c bd 31 00 81 3d 96 d4 a7 bd
       -0.1303758 -0.06154149 0.06298865 -0.081948444
0000c0 3c c9 4d 3e 6d cc e1 bb
       0.20096296 -0.0068908245
