RiskViz Folder/model/checkpoint_1700.tar (torch, 110796 bytes, 51 tensors)

encoder.1.weight f4 [50, 6]
00000000: 663e 0abf 18ba 8e3b c2b7 373b 7dfd 4c3e
00000010: b0d6 bfbe 393b e33d 2ba4 f5bb 1066 b0bb
00000020: cdea c0bb 3810 3c40 0d61 a13b 137d d7bd
00000030: 83fc 10be 8d30 95bd 3bd8 c03b 2baf 10be
00000040: 4047 033f 9eb9 42be 29a3 5b3e 5b91 b43b
00000050: 2da4 793b b10b 22be ea31 453c 4205 a13f
00000060: c8bb 0fbd 73fc 11be 289e ffba adfa 673f
00000070: 049f 703e 9243 0bbf 612f 2b3f 4c45 633c
00000080: a309 2e3c 59b3 373c 38f3 9b3d 9270 9a3f
00000090: 7801 9bbd 80ef 66be ed9a f0bd 3059 7bbe
000000a0: 262d 573e 590a 51be 5db8 6dbf e2ac 863e
000000b0: 3871 7eba 4d9c 52bd 00a2 f7bd 1f9b 01bd
000000c0: 9d69 3a3f 4904 eebb c75a a9ba 4924 5c3f
000000d0: 416e 2a3f f848 523d 0029 a5be deb7 303c
000000e0: b87b 42be de03 24bb c6ac 4b3e d5f5 373e
000000f0: 477d 03bf f40a d03b 301c 6339 1677 7bbf
00000100: 9d79 aebe f690 233e 828a 6ebe 3d93 36be
00000110: 9369 0c3e f298 703e 1971 bb3b 149d 22be
00000120: 9fba 3bbe dfb9 30bc f07a c9bc 5bda 8f3f
00000130: c320 c1bd d6b0 4e3f d1c4 0dbf e603 913b
00000140: 9860 813b ba25 4abf 5373 a3be 64d2 ef3d
00000150: 0390 33c0 b2d5 15bb 81d5 893a 398a da3c
00000160: c5bd f8be 947c c53e ee40 27bf b93a 873b
00000170: 1a5b b3bb 5f01 89bd 18c3 e1be dea2 f0bc
00000180: 36ec 87be aa34 8e3e 8b16 223e 655d a43e
00000190: e278 9abe 268b cdbe 7646 83bf 9818 fcbc
000001a0: 11a5 24bc 61fd 71bf 414b 3a3f b5d1 1e3f
000001b0: 4929 96bb 01b6 f9bb 3abd 1ebc 7eca 3440
000001c0: d55d 373c e7ad b8bd db84 af3d 5110 9dbe
000001d0: 92ad 5fbe 9a7a 44be 848c 6cbe 6342 943d
000001e0: 802f 99be 4fb5 283b b7e3 473b 3237 36bf
000001f0: 895e 393f bbcd dc3d fe50 b5be 94a0 87be
00000200: 4e3c 203e ecde 193e 1140 81be 8efb 03be
00000210: 9901 45c0 c474 453b a9e5 59bb 86f1 ffbe
00000220: 7739 adbe cba8 763e dd02 b13e 88ad a2bd
00000230: 5e97 63bd c8e1 1f3e d174 963d 915b 08be
00000240: 17fb 96be 68cf 41bd cec2 423d 1093 35be
00000250: 6db2 193f 3ce9 2d3e bd92 dcbd 1f15 c8be
00000260: 2222 bfbe 365f 2d3e ccd2 9d3e e0a9 22bb
00000270: 3e55 43c0 4f75 c53b 731d 823b 4dcd 44bf
00000280: 648d 45be 042e 393e e90e 34c0 2406 2bbc
00000290: faba 163b f2b4 2bbf 3357 02be a175 13bf
000002a0: 386e 593f e6e4 fbbb 5215 97bb 613b a7bf
000002b0: c15f 223f 6197 0a3d ebdc 67be 7e41 dbbc
000002c0: 0200 94be ed93 9abc 3756 683e 45e7 3bbe
000002d0: 8d2e 603f eea3 48bc 2e99 deb9 69eb 103f
000002e0: 1bbc bfbe fbd3 64be 60aa 093d afe7 223c
000002f0: 0ee1 e23b e73a 03be 8ed2 323e e7ce b83f
00000300: 7413 a03e c43a ccbe ad12 2e3d 013d a0bc
00000310: 1d7a e03d 1dfe ccbd 444f 993d 3a40 3dbe
00000320: 5009 e43d 2aa3 433f ae7a 8f3c 8f20 4fbe
00000330: 294d 45bf d35f 05bd 4f9a 083c fdc4 10bd
00000340: 1d5c 91bc 2a03 9f3f 720c 38b9 fe57 fa39
00000350: 8c5e 6bbb daed ea3f d2cc 903e bd11 053c
00000360: 5d65 673e 98f1 0a3e 4794 223d 2870 f2bd
00000370: eb87 823d 4489 f03c e3ea e53c 9d76 043b
00000380: 898d 5f3b 43b6 4dbf 4f4a 1f3d 074a 4b3f
00000390: 1722 a83c 0cdb 4bbc c11a 21bc 7427 a1be
000003a0: 9272 893e 2e80 cf3f 7d4a 9c3f c642 02bb
000003b0: d320 0c3a 2487 e6be 7003 07be af7a 2fbf
000003c0: a647 45c0 aa19 3db9 900a e93a 8c09 78bf
000003d0: 29a4 abbe 3b62 803e 2de3 a4bb d191 593b
000003e0: 92d4 93bb 11e4 2f40 60fa ccbe c3ed 41be
000003f0: 2abb 25bf cc17 863c 5789 aabc 3206 4a3e
-0.5400146 0.00435568 0.0028033112 0.20018573 -0.3746848 0.1109528 -0.007496377 -0.0053832605
-0.0058873654 2.93849 0.0049248994 -0.10521903 -0.14158826 -0.07284651 0.0058851517 -0.14129321
0.51280594 -0.1901612 0.2144896 0.005510492 0.003809224 -0.15824772 0.012035826 1.257973
-0.03509119 -0.14256458 -0.001950209 0.90616876 0.2349816 -0.5439998 0.6686917 0.013871502
0.010622415 0.011212193 0.0761475 1.2065604 -0.075686395 -0.225523 -0.117483 -0.24545741
0.21013317 -0.20414104 -0.9285944 0.26303774 -0.0009706202 -0.05141859 -0.12091446 -0.031642076
0.72817403 -0.0072636944 -0.001292073 0.85992867 0.66574484 0.05133912 -0.32257843 0.010786025
-0.18992507 -0.002502672 0.19890127 0.17964871 -0.51363033 0.006348962 0.00021658908 -0.98228586
-0.3407716 0.15973267 -0.23295024 -0.17829604 0.13712148 0.23495844 0.0057202694 -0.15880233
-0.18332909 -0.010786503 -0.024594754 1.1238512 -0.09430077 0.8073858 -0.55378443 0.0044255136
0.0039482825 -0.78963816 -0.31923923 0.11710051 -2.8056648 -0.0022862968 0.00105159 0.026677238
-0.48582283 0.38571608 -0.6533345 0.0041268733 -0.0054735066 -0.06689715 -0.44094157 -0.029374536
-0.26547402 0.27774554 0.15828912 0.32102504 -0.3017035 -0.40145224 -1.0255878 -0.030773446
-0.0100491205 -0.9452725 0.7277108 0.6203874 -0.0045825583 -0.0076205735 -0.00968867 2.8248591
0.011191805 -0.09017544 0.08570262 -0.3067651 -0.21843556 -0.19187394 -0.23100477 0.07239225
-0.29919052 0.0025742834 0.003050072 -0.7117797 0.72409874 0.107814275 -0.35413355 -0.264897
0.15648004 0.15026444 -0.2524419 -0.12888929 -3.0782225 0.0030129412 -0.003324846 -0.49988955
-0.33832905 0.24087827 0.34572497 -0.07943255 -0.055564277 0.15613472 0.073465 -0.1331618
-0.2948844 -0.04731694 0.04754906 -0.17731881 0.6003788 0.16983503 -0.107701756 -0.39078614
-0.3733073 0.16930851 0.30824888 -0.0024820492 -3.0520778 0.006025947 0.003970796 -0.76875764
-0.19292217 0.1808396 -2.81341 -0.010438476 0.002299963 -0.67072976 -0.12728576 -0.5760136
0.84933805 -0.007687199 -0.004610696 -1.3064996 0.6342736 0.033835772 -0.22642867 -0.026764628
-0.28906256 -0.018869365 0.22689138 -0.18349941 0.8757103 -0.012246115 -0.00042457267 0.5660921
-0.374482 -0.22346489 0.033609748 0.009942933 0.0069238013 -0.12815438 0.17463133 1.4438142
0.31264842 -0.39888585 0.04249828 -0.019560339 0.10960791 -0.10009406 0.07485822 -0.18481532
0.11134589 0.76420844 0.017514553 -0.20227264 -0.7707086 -0.03256209 0.008337571 -0.035344113
-0.017744118 1.242284 -0.00017552244 0.00047749275 -0.0035914509 1.8353837 0.28281265 0.008121905
0.22597261 0.13568723 0.03969219 -0.11837798 0.063735805 0.029362328 0.028066104 0.00202123
0.003411146 -0.80356234 0.038889226 0.7940983 0.020524068 -0.012442362 -0.009833039 -0.31475413
0.26845223 1.6210992 1.2210232 -0.0019876226 0.00053454674 -0.4502498 -0.13184905 -0.68546575
-3.082498 -0.00018034005 0.0017779637 -0.9688957 -0.33523682 0.25074944 -0.0050319643 0.0033198486
-0.0045114243 2.748295 -0.4003477 -0.18938355 -0.64738715 0.01636877 -0.020817442 0.19728926

encoder.1.bias f4 [50]
00000000: 17aa 813e d92a fd39 aa12 12bc 4f6f 28be
00000010: 8650 dabd 7969 0dbf a9fe 04be f4f6 c0bd
00000020: d3cc bfbe fe8f aabe faf1 533e 5950 c9be
00000030: 0a98 86bf 234f 793e 1da2 783c a434 a83e
00000040: 573d b8be c39c a83c 7348 d4ba 761f 89be
00000050: 086e 183e 4c43 16be f0c0 753c 5bdf b4be
00000060: fccb 9cbd b883 9fbe db5e ad3c b05d 003c
00000070: bd9d debe 7028 78be f125 eebe 1e5a 89be
00000080: 66e8 d6be b6da cbbe b9e9 b23b 10ad 93bb
00000090: 5548 b3be 23ec f8bc 659b c9be 07d5 3fbf
000000a0: a5fd a23c 5cab 22bb 5b24 43bb 3832 0dbf
000000b0: 0b33 48bf 9408 b0ba 2768 05bc 7ad8 bd3b
000000c0: 01b0 9bbe fe8a 85bb
0.2532508 0.00048287844 -0.008915583 -0.16448711 -0.1065989 -0.55239064 -0.1298777 -0.094221026
-0.37460956 -0.33312982 0.20697775 -0.39319113 -1.0515149 0.24346595 0.01517537 0.32852662
-0.359843 0.020582562 -0.0016195908 -0.26781815 0.14885724 -0.14674109 0.014999613 -0.35326657
-0.076560944 -0.3115518 0.021163395 0.007834837 -0.4347972 -0.24234176 -0.46513322 -0.26826566
-0.4197418 -0.398153 0.005459991 -0.0045067146 -0.35016122 -0.030386036 -0.3937637 -0.7493443
0.019896338 -0.0024821376 -0.0029776308 -0.5515475 -0.78202885 -0.0013430291 -0.008142508 0.0057936283
-0.30407718 -0.004075407

encoder.4.weight f4 [50, 50]
00000000: af77 dd3c 1e51 c7be 2621 41be 2912 66bc
00000010: 77bf 82be f238 7f3d ccf5 93bc 1bbc d53c
00000020: 8044 8c3d 919b b53d a095 133e 3c26 ae3b
00000030: 4b88 c4bd d81f 8a3c 3f21 7d3e 4ea6 0fbd
00000040: 7519 10be af28 3cba 3cbe c6be af92 cabd
00000050: 1d82 28bc 20eb 033d 83a3 883e 8a22 ccbc
00000060: b9ac 8bbd 96f3 0dbd f8c8 193e f8a2 a63e
00000070: 557a 733d 9466 ce3d 3a5a 023e 7275 17be
00000080: 19be 193d ea89 873d 68ae de3d 26fd b0be
00000090: 1528 67ba 5fe4 16bd 4c1b 3dbd f6e3 803e
000000a0: 01a9 8c3e 33eb b1be 5eff 98bd 428e 92bd
000000b0: 3005 073f 7039 7cbc 74de 9abe cc43 e2bb
000000c0: c79e 9a3d add0 07be 6449 81bc f899 f2bb
000000d0: 9a2f b33c 52b3 d1bd 2c69 f5bc 196f 393e
000000e0: b68e 93bd 1a1a 23bd 55e4 93bd ac15 993d
000000f0: f474 81bd ba98 d9bd 92ac e8bd ebf5 813e
00000100: a582 0f3e d10f 03bd 7fbf 0abe 6dd5 d03b
00000110: d304 d53b a1ed 853c 7092 77bc d553 fcbc
00000120: ddc8 883e d1d5 543d e0c2 92ba 57ad 9cbd
00000130: 09ab cb3e cb40 cf3e cdde 0fbd 0b3d 063e
00000140: a929 d2bd 2adb 22be 9792 dd3c e6dc 083d
00000150: 8b41 1a3e e20b d8bd 1b54 c33d ca89 7a3c
00000160: 27f3 28be 3acb d23e 4b4d a33e f065 1e3b
00000170: 8c4c 12be 2380 c4bd 2663 923e 0fca 0c3e
00000180: fc2f 05be ea64 b8bd 8b6a d5bc c38b 423d
00000190: 3b50 843c 3ad1 ffbe 43d7 0d3d fc80 4d3d
000001a0: 1a90 46bd 4378 543d e44a 28bd 22ad b93c
000001b0: f38e 31be 1be2 0f3e 5005 0b3d d7a6 093e
000001c0: a140 023e b6f7 0f3d bcca 7abe d79d 7c3c
000001d0: f857 59bd dcbf 22bd fcb5 cebe 854c a13d
000001e0: f581 543e 1e3d e1bd 2fed 77be 089d 2c3d
000001f0: 79ae b2bc f764 853d db1d f03c af3d 85bd
00000200: 26cc 32be 1591 27bd cdb2 b4be c6a7 263e
00000210: 14cd c83d 4b7c 09be 7c3d a03d 6d4c 2abd
00000220: 0550 dd3d 9965 5b3d 7c91 833d 6142 85be
00000230: 54f7 3bbd 7b8a 61be 33f7 fcbd a2af c7bb
00000240: adcb 31be c53f d23d a20c 083c 0e93 d9bd
00000250: effe d1bd 1ce6 49be ccff 99be 37d4 70be
00000260: b5f9 83bd 83ba e1bd 9f8d 9ebd b68c 523e
00000270: 61b0 ff3d 54d7 673d 511d 963d 896a e9bd
00000280: a915 e9bd b616 f6bd 0652 d23d 4e1c 75be
00000290: e130 c03c fa5e 58be 8383 c8bd ed1c 91be
000002a0: 7019 6abe 0e69 84bd 026d bfbe c4df cc3d
000002b0: 822d 8bbd 8fdf 86bc 068e b2bd ec8e 703d
000002c0: f349 80bd bfd2 8dbc 9d61 0c3d 13dd c73d
000002d0: 8217 ec3d 80ea 0bbe 57b3 11bd 5eb6 e5bd
000002e0: 12dd 663d 0e06 8ebe 4801 ae3c a42d abbe
000002f0: 29f1 53bc 8ae1 aa3e a1b9 bebd 902e 60be
00000300: 9e0e 42be be19 053e 4dc0 023f 00f9 7abd
00000310: fb94 a1be 5456 7a3d 1790 ea3d 4eb8 f3bd
00000320: 0fa3 063c 1fe6 8abe d31f 2b3d 5674 f73e
00000330: a44b f4bd eccb dc3e f71c 8ebd 6a16 853e
00000340: 2186 f3bc 6fe3 c0bd 7b50 28b9 da4e e43d
00000350: c122 88bc 9a91 f63b ba1f 003d 8718 8838
00000360: 8fdc eebd 658d b8bc 7e14 9bbe 86e2 093d
00000370: e434 69bb 419f 2bbd 7422 71bd d0da ab3d
00000380: 8a0f 5b3d aa84 873d 6daf cd3d 7038 c63d
00000390: f7ee 2e3b 68d8 663d 483e 70bd cdf5 f53e
000003a0: f7ce 5ebd 8760 093e d139 c33e 0f36 153d
000003b0: 9e57 0bbe 517e c4bd 5ad6 f63e 76a4 343e
000003c0: aae9 39bc 8a20 82be 31dc 66bc d1d4 f13d
000003d0: 8f80 9fbd 7b3d 533d 9456 4c3b 976c e2bd
000003e0: 94f9 a9bd 51b1 213e fc01 f4bb c48f a5bd
000003f0: 9ed9 853c 09a9 523e 0791 713d 5882 ac3e
0.027034609 -0.38929075 -0.18860301 -0.014042416 -0.255367 0.062310167 -0.018061541 0.026090672
0.06849003 0.088675626 0.14412546 0.0053146165 -0.09596308 0.016860887 0.24719714 -0.03507071
-0.14072211 -0.0007177693 -0.38817012 -0.09891259 -0.010284928 0.032206655 0.2668725 -0.024918813
-0.068200536 -0.03465613 0.1501807 0.3254621 0.059442837 0.10078159 0.12729731 -0.14790896
0.037534807 0.06618102 0.10873109 -0.34568137 -0.00088179234 -0.036838885 -0.04616861 0.2517392
0.2747269 -0.34749755 -0.074705824 -0.0715604 0.5274229 -0.015394554 -0.30247843 -0.0069050547
0.075498156 -0.13263197 -0.015782066 -0.0074036084 0.021873284 -0.10239281 -0.029957376 0.18108787
-0.07204954 -0.039819814 -0.07221285 0.07474837 -0.06321135 -0.106248334 -0.1136104 0.25382933
0.1401468 -0.031997506 -0.13549612 0.0063730986 0.006500819 0.016348662 -0.015110597 -0.030801693
0.26715747 0.051961724 -0.0011196993 -0.076502495 0.39778927 0.4047912 -0.03512459 0.13109224
-0.10261852 -0.15903917 0.027047439 0.03341379 0.15064065 -0.105491415 0.09537526 0.015291641
-0.16499005 0.41170675 0.31894907 0.0024169646 -0.14287013 -0.09594753 0.2859127 0.13748954
-0.13006586 -0.09003623 -0.02605178 0.04749657 0.016151538 -0.49964315 0.034629118 0.050171837
-0.04847727 0.051872503 -0.041087046 0.022665564 -0.17339687 0.14051096 0.033940613 0.1344255
0.12719966 0.035148345 -0.244914 0.015418491 -0.05306241 -0.039733753 -0.40373218 0.07875923
0.207527 -0.10997985 -0.24211572 0.042141944 -0.02181171 0.06513398 0.029311111 -0.06505906
-0.17460689 -0.040909845 -0.35292664 0.16274938 0.098047405 -0.1342632 0.07824227 -0.04157679
0.10806278 0.053563688 0.06424233 -0.26027206 -0.045890167 -0.22025482 -0.12351837 -0.006093935
-0.17362852 0.10266069 0.008303793 -0.106237516 -0.10253703 -0.19716686 -0.3007797 -0.23518454
-0.06444112 -0.110219024 -0.07741856 0.2056149 0.124848135 0.056601837 0.073298104 -0.11397273
-0.113810845 -0.120160505 0.10269551 -0.23936579 0.023460807 -0.2112998 -0.09790709 -0.2834238
-0.22861266 -0.0646535 -0.37387854 0.100036174 -0.06795789 -0.016464023 -0.08718495 0.05873005
-0.06264105 -0.017312406 0.03427278 0.097589634 0.11527921 -0.13663673 -0.035571422 -0.112164244
0.056363173 -0.27738994 0.021240845 -0.3343326 -0.012935915 0.33375198 -0.0931275 -0.21892762
-0.18950889 0.12998101 0.5107468 -0.06127262 -0.31558976 0.061117485 0.11453264 -0.11900388
0.008217587 -0.27128693 0.041778397 0.48330945 -0.1192849 0.4312433 -0.06939118 0.25993663
-0.029727044 -0.094183795 -0.0001605171 0.11147852 -0.016618134 0.0075246813 0.031280257 6.489554e-05
-0.11663162 -0.02252836 -0.30289072 0.033663295 -0.0035584504 -0.041899923 -0.058870748 0.083913445
0.053481616 0.066171005 0.100432254 0.09678733 0.0026692727 0.056358725 -0.058653146 0.48039094
-0.054396596 0.13415729 0.38130048 0.036428507 -0.13607642 -0.095944054 0.48210412 0.17640862
-0.011347214 -0.2541545 -0.014090584 0.1180817 -0.077881925 0.051572304 0.0031179534 -0.11055868
-0.082995564 0.15790297 -0.0074465256 -0.08084062 0.01633912 0.20572294 0.0589762 0.33693194

encoder.4.bias f4 [50]
00000000: 5f85 15bb 2b70 45bc d12d f33b ab36 373c
00000010: aa47 ddba 3812 cab9 9013 40bf 83c2 dfbb
00000020: 3061 dabe 3962 29bc e526 f0bb a1c2 583c
00000030: 16ba 71bb b612 c6ba cdef d5be ce7c 45bd
00000040: 1056 2b3c 3d48 d1bb efb4 6bbc 700e 3dbf
00000050: 41e5 33be f402 2abc 666b a0be fb2e 29bc
00000060: 1ce3 3dbb 7dcc d0ba f8bd 0abc dde0 31bc
00000070: 9326 243c 061f 89bb ab1f 6bbb 1c97 acbc
00000080: d8c0 5b3c 52ae 1fbe 8827 b6be 1694 3ebe
00000090: fa41 d3be bb56 7abd 6e09 2fbf b2c3 6abb
000000a0: aa74 e53b f681 90be f549 a8bc c615 21be
000000b0: 7bf6 38be 4cb0 053c 8d95 0abf 3011 5bbc
000000c0: afb0 4cbb 3e64 413c
-0.002281509 -0.012050669 0.007421233 0.011182467 -0.001688232 -0.00038542016 -0.7502985 -0.0068286075
-0.42652273 -0.0103383595 -0.0073288553 0.013229997 -0.0036884598 -0.0015111777 -0.41784516 -0.048214726
0.010457531 -0.0063867853 -0.0143864 -0.73850155 -0.17567922 -0.010376681 -0.31331939 -0.010326142
-0.002897448 -0.0015930083 -0.008468144 -0.010856834 0.010018962 -0.0041846065 -0.003587703 -0.021068148
0.013412677 -0.15593842 -0.35577035 -0.18611178 -0.41261274 -0.06111787 -0.68373764 -0.003582221
0.007002433 -0.28224152 -0.020543078 -0.15730962 -0.18062775 0.008159708 -0.54134446 -0.013370797
-0.0031233241 0.011803685

encoder.7.weight f4 [20, 50]
00000000: 61d0 323e 9656 733e 513f 5b3c 1bf9 a9be
00000010: b6d8 373d da72 af3c 7c86 b3bd 5baf 763f
00000020: ff4f febc 09cb 093f b12e ca3c a2bd a9be
00000030: 80c3 e9be 797d 7ebe 82a1 08be 1291 c33e
00000040: 9a19 d53c 852f 253f 3a85 93be b7be 32bd
00000050: 0efa a9bd 9f06 043f 486e 11be 2f1c 4a3f
00000060: e2bb a3bd f471 563f e39b 1e3f a304 573f
00000070: fbbc 99be 9dcf 3b3d cd37 a6be 0ba0 173f
00000080: 9e64 e4bd 74cb 1ebc c1ad 92bd 7eac 63bd
00000090: 7cd6 74bd 4797 eebb 686d c13d 20da b3be
000000a0: cf49 70be 53a4 c4bd 5934 113e 0add 6e3e
000000b0: 8d49 043e 3df8 cdbe 6199 bbbd 94f5 0f3e
000000c0: b303 cdbe 07c2 b5be f452 cb3b 5883 183d
000000d0: 865e 7abb 3eec db3c 39dd 8e3e c159 ae3e
000000e0: ad79 053d d7ff 443e 75a6 a33e 25fb a63e
000000f0: d78d be3e 823e 243c 4f46 01bc 89c3 4dbb
00000100: 2640 b23e f221 18bd ca6b 02bd fc2b 823e
00000110: b816 c3bb 46df 223e f5ef 053e e1d1 383d
00000120: ebcb 70bc 1954 8a3e 6334 483a d008 dc3c
00000130: cb33 433e 02b8 bf3d 74c1 943b 96ff fb3e
00000140: 0404 203b 4f22 493a caf3 3cbd fbc2 55bd
00000150: d80d dc3e 92ea 3cbd 26ea ab3e 02cc 303c
00000160: 9182 4d3e a0fa 563b 9eb7 c43c 1558 643e
00000170: 84be 453c 2be9 b03e fec0 08bd cb83 163b
00000180: 09f3 c53e 70d2 ff3c 2836 27bb b70e 6d3c
00000190: a08e 143f bec3 a73e 1d04 d9be 10c3 d73e
000001a0: 888f 8cbd 5c24 64be e9ff 7bbe 3c23 bcbd
000001b0: f8e8 4abe 51c6 a4be f3cc 98be 5893 5739
000001c0: 5e4f 973b 0071 8dbd fd98 13bb 2d38 80be
000001d0: ebda a3be 76e4 38be 7a41 5a3d 5d4a 28be
000001e0: ee33 a0be 60d9 81bd daf7 19bf 8f99 2abe
000001f0: d3b6 7cbd ade8 67bd 8f6c 6abd 703e 2fbe
00000200: 8d94 d23e ea10 d8bd 2e30 493c aa4b 09be
00000210: dac9 493e 7626 e53d 2f88 81be a7e8 a93c
00000220: 87e8 bcbe fa25 c73d f3e8 5abe f20c 9c3c
00000230: d953 fb3e f607 a83c 0abb 99be bc8b 09bf
00000240: 7e34 023e 02e0 1c3e 656e 55bc 7906 1a3f
00000250: ae76 863c 485b a73e 0425 b83c a608 8e3d
00000260: 0c4d 00be 5c3a 763c c7f7 40ba ac70 e53b
00000270: 5494 9dbd df7d 113e fae7 45be 8672 043f
00000280: 0cd5 d43b 3386 2abc 67ba 5d3e acad 733e
00000290: 895a 2f3d 30d6 8bbd c59f b8bd 4915 603e
000002a0: 5b33 ac3e 54a6 63be e21d 803c 319f 603e
000002b0: 8b10 b63e 6f5b 593e 4252 593e 3012 923e
000002c0: eaa9 bc3e edbf 683e add7 fe3b b53f 19bc
000002d0: df82 b83e 920a 393d 382c 6e3c 9954 ed3c
000002e0: 42ae 8e3e 8350 8cbd d8c0 50bd 2d39 013f
000002f0: 9f00 a2bd 7022 5c3e 8627 de3b 85c8 29bd
00000300: 00dc b93c c707 c33e a1e2 063e 21c0 873c
00000310: 0226 b4bd 4734 f43c a44d 143e 0cdd 393c
00000320: 96d6 a6be 8642 263d 39dc 0abe b9a4 9cbe
00000330: d494 483c 68cb 97bd ac8e 1abe c282 8fbd
00000340: ebac 80be 9703 153d c299 c13c c798 91bb
00000350: 8005 813e 511a b03e b2a4 603b 47f3 5abe
00000360: 2951 29be 03d3 f2bc daa0 3e3e fe17 7bbe
00000370: b91d 143c 813a 43be d121 e03e 395d dabc
00000380: 2ad6 d13e 8882 14bd 66f4 023b 0fbe 7f3b
00000390: afc6 ebbd 1345 f63c f5c4 553e 1b56 eebd
000003a0: 25d0 dabd 6e2e 66bd 249e c93d 17d3 10bd
000003b0: 5fd1 d7bd 8f60 d03e 1b63 9dbd eb74 913e
000003c0: 1a22 55be f0fe 0d3e a242 7c3e cca9 883e
000003d0: bb4b 673d 8cc2 02be 1ead 503d 1eb5 90be
000003e0: 3533 9d3e c4c4 3abe e4d4 8bbe 1f77 97be
000003f0: e43d e33d a17b c2be 7239 fc3e e109 b73e
0.17462303 0.23763499 0.013381795 -0.33197865 0.044884406 0.02141707 -0.08765885 0.9636132
-0.031044004 0.5382543 0.024680467 -0.3315249 -0.45656967 -0.24852552 -0.1334286 0.38196617
0.026013184 0.64525634 -0.2881258 -0.04363891 -0.08299647 0.51572603 -0.14202225 0.78949255
-0.0799482 0.8376763 0.61956614 0.8399145 -0.30026993 0.045852292 -0.32464448 0.5922858
-0.11152004 -0.009692062 -0.07162047 -0.055584423 -0.05977486 -0.0072812173 0.09444696 -0.35127354
-0.23465656 -0.09601655 0.14180125 0.23326507 0.12918682 -0.40228453 -0.09160114 0.14058524
-0.40041885 -0.35499594 0.006204957 0.037234634 -0.0038203313 0.026846047 0.27903154 0.34052852
0.032586742 0.1923822 0.31962934 0.32613483 0.3721759 0.010024669 -0.007890298 -0.0031397066
0.34814566 -0.037141748 -0.031841077 0.25424182 -0.005953636 0.15905485 0.13079818 0.04512203
-0.014697055 0.27017286 0.0007637201 0.02685967 0.19062726 0.093612686 0.004539663 0.49218434
0.0024416456 0.0007672654 -0.046130933 -0.0521879 0.42979312 -0.04612214 0.3357708 0.010790827
0.20069338 0.0032803193 0.024013337 0.22299226 0.012069348 0.34552893 -0.033387177 0.0022966738
0.38661984 0.031228274 -0.0025514457 0.01446884 0.5803013 0.32766527 -0.4238595 0.42141008
-0.06863314 -0.22279495 -0.2460934 -0.09186408 -0.19815433 -0.32182553 -0.29843864 0.00020558888
0.0046176156 -0.06906319 -0.0022521608 -0.2504286 -0.3200296 -0.18055901 0.0532851 -0.16434617
-0.3128962 -0.06340289 -0.60143816 -0.1666014 -0.061697792 -0.05661838 -0.057232436 -0.17113662
0.4112896 -0.10550101 0.012279553 -0.1340777 0.19705907 0.111889765 -0.25299212 0.02074082
-0.36896154 0.0972404 -0.21377926 0.019049142 0.49087408 0.020511609 -0.30025512 -0.5372884
0.12715337 0.15319827 -0.013026808 0.60166126 0.016414013 0.3268683 0.022478588 0.06935243
-0.12529391 0.015028562 -0.00073611405 0.007001957 -0.07694307 0.14208172 -0.19326773 0.5173725
0.0064951237 -0.010407972 0.21653138 0.2379672 0.04281095 -0.068279624 -0.090148486 0.2188312
0.3363293 -0.22231418 0.01563925 0.21935727 0.35559496 0.21226285 0.21222785 0.285295
0.36848384 0.22729464 0.0077771754 -0.009353568 0.36037347 0.045176096 0.01453691 0.028971003
0.27867323 -0.06851294 -0.05096516 0.5047787 -0.07910275 0.21497512 0.006779614 -0.041450996
0.022687912 0.3809187 0.1317239 0.016571106 -0.08796312 0.029810084 0.14482743 0.011344206
-0.3258559 0.040590785 -0.13560571 -0.30594423 0.012242515 -0.074118435 -0.15093488 -0.07007362
-0.25131926 0.036380377 0.023632888 -0.0044432613 0.2519951 0.34395078 0.0034277854 -0.21381865
-0.16534866 -0.029641634 0.18616048 -0.24520871 0.00904029 -0.19065286 0.437758 -0.02665578
0.40983707 -0.036257297 0.0019982099 0.0039023196 -0.11512505 0.030062234 0.20875914 -0.11637517
-0.10684232 -0.056196623 0.09844616 -0.03535756 -0.10537981 0.40698668 -0.076849185 0.28409514
-0.2081379 0.13866782 0.24634793 0.26692045 0.056468707 -0.12769526 0.050946347 -0.2826318
0.3070313 -0.18239123 -0.2731086 -0.2958307 0.11095789 -0.37984946 0.49262577 0.35749725

encoder.7.bias f4 [20]
00000000: bc93 e93b 4cb8 6439 71a6 26bc 651e 543a
00000010: 9de0 31bb 6705 303c f29a 15be 5d6c b4bf
00000020: d2b7 aa3b e69c acbb 02ac 58be a48d 82bb
00000030: ae23 dcbe 2c35 df3a 1f8e 17bc 01f5 e9b9
00000040: 0c1c 69bb 449d 2c3b 2b12 dbba f48a 18bf
0.007128207 0.0002181243 -0.010171519 0.00080916873 -0.0027141937 0.0107434755 -0.14609888 -1.409557
0.0052099014 -0.005267727 -0.21159366 -0.00398417 -0.4299597 0.0017029396 -0.009250193 -0.00044623765
-0.0035569696 0.0026338855 -0.0016713789 -0.59587026

encoder.10.weight f4 [4, 20]
00000000: 2df4 7a3f a811 373e 9a76 58bf feb2 98be
00000010: 8983 e8be 2c1c 9e3e 1ac0 1d3f 57ea bf3f
00000020: 4578 5d3f b317 21bf 6ed0 2fbe eb66 6c3e
00000030: 78c7 e93e 3ae9 933f a943 e8be f01a 943f
00000040: 2fb7 95be 834e 91be f173 c4be bd25 853f
00000050: 0f6f 0fbf 16f3 36bf 9d0b 45bf bf50 dc3d
00000060: 2711 533f 8232 11bf 703f 97be 4637 173f
00000070: c80c fcbe 935f 0cbf 4b39 ddbd 121b 29bf
00000080: fe41 27be 4f95 21bf 5f35 5a3f 50bc 20bf
00000090: 337e 0abd 5fda 973e d56a 193f 38b8 83bd
000000a0: 5711 73bf 7c8e 783e b9bd 143f 8d12 6ebd
000000b0: d1ed 0f3f 2ead 2d3f 68e7 a73e 3fcb 80bd
000000c0: 359d 5cbf 61e0 f13e cff1 44be 0d50 d93e
000000d0: 1b01 033f 2916 8bbf 4ac0 163f a80b 8cbf
000000e0: 81ce 12be 6bd6 fd3d 703c b93e fa6e 273a
000000f0: 3fdd 2b3f e540 56be 4604 233f 558a 08bf
00000100: a9aa ebbe 38b1 123b d7c4 55be c41e 05bf
00000110: d97a 103f d90b dd3e c198 15be 3203 0fbe
00000120: bd06 e2be b9e6 513f 2156 e7be e5be 513f
00000130: a2dc 15bf f6d0 d6be 9e62 e5be 1325 afbe
0.9802883 0.17877829 -0.8455597 -0.2982406 -0.45412853 0.30880868 0.6162125 1.499339
0.8651164 -0.6292679 -0.17169353 0.23086135 0.45659995 1.155555 -0.4536412 1.1570721
-0.2924132 -0.28380212 -0.38369706 1.0402142 -0.56028837 -0.7146467 -0.76970845 0.107575886
0.8244805 -0.56717694 -0.29540586 0.59068716 -0.492285 -0.54833335 -0.108019434 -0.6605693
-0.16333768 -0.6311845 0.8523769 -0.6278734 -0.03381176 0.2965879 0.5992864 -0.06431621
-0.94948334 0.24273103 0.58101994 -0.05812316 0.56222254 0.67842376 0.32793736 -0.06288766
-0.8617738 0.472415 -0.19232868 0.42443886 0.5117356 -1.0866138 0.5888716 -1.0941057
-0.14336587 0.123944126 0.36178923 0.0006387081 0.6713447 -0.20923193 0.63678396 -0.5333608
-0.4602864 0.0022383463 -0.2087587 -0.5200007 0.5643745 0.43173102 -0.14609052 -0.13966063
-0.44145766 0.8199268 -0.451829 0.81931907 -0.58539784 -0.419563 -0.448018 -0.34207973

encoder.10.bias f4 [4]
00000000: 0c49 babe 5b55 bebe 57e6 ce3e b192 d23e
-0.36383855 -0.37174496 0.4041011 0.41127542

decoder.0.weight f4 [20, 4]
00000000: 4be8 8bbe 334f 5a3f 3aa2 623f 614d ee3f
00000010: ea02 383f 6e11 82be f791 24bf 5e17 263f
00000020: f706 a4be 8cee 023e 81c1 763f 4431 fa3e
00000030: ca61 99bc 2f52 90bf 66b2 74bf 1cb7 393f
00000040: 067a f03d c7c8 de3e e4f7 2e3f 9b92 823f
00000050: e315 343f 4913 35bf feb1 043f c1db 85bf
00000060: 1fb8 be3f 9f00 d5bd d8b4 273f 74d9 6ebf
00000070: 68b9 e03e e860 0abf 9977 04bf 4357 09bf
00000080: 3ced 37bd 4b79 3c3f b937 0fbf db70 1fbf
00000090: 38e6 603e bd1e 3b3f 321a 403e 1bb7 fbbe
000000a0: b963 2ebe f746 593e d39a d23e ab37 48be
000000b0: 89e4 fabf 90c7 743f a4c6 86bf bd05 6b3f
000000c0: 6fbc 263d 051d 96bf b172 0fbf 3c44 b33e
000000d0: 7aeb 003f 6d9d dd3e 5d1c e73d 1c2d 8c3c
000000e0: 3c94 043c fde1 b8be 6277 e0be 8780 38be
000000f0: a6bc 0a3f 9ee7 1cbf 3f1f 363f 7ee8 3abf
00000100: c0a1 9cbf 1328 9dbe 1117 a13e 2b5c 32bf
00000110: 8ac9 abbf 8b87 aebe 4239 343f bc8e f8bc
00000120: 4886 10bf c20e 413f c651 1dbe 4320 463c
00000130: d5e1 833e 5e05 e3be 3707 1f3c 66fd e7be
-0.27325663 0.852771 0.8852879 1.8617364 0.71879447 -0.25403923 -0.64285225 0.64879405
-0.32036564 0.12786311 0.96389014 0.48865712 -0.018723387 -1.127508 -0.95584714 0.7254503
0.11742024 0.43512556 0.68347 1.020099 0.70345896 -0.7073255 0.51834095 -1.0457689
1.4899939 -0.10400509 0.6551032 -0.9330056 0.43891454 -0.5405412 -0.5174499 -0.53648776
-0.04490398 0.7362258 -0.559444 -0.6228158 0.21962821 0.7309378 0.18759993 -0.49163136
-0.17030229 0.21218477 0.41133747 -0.19552486 -1.9600993 0.9561701 -1.052937 0.9180563
0.040707048 -1.1727606 -0.5603438 0.35012996 0.5035931 0.4328417 0.11284707 0.017111354
0.008091982 -0.36109915 -0.43841082 -0.1801778 0.54194105 -0.6129092 0.7114143 -0.73011005
-1.2236862 -0.30694637 0.3146291 -0.6967189 -1.342088 -0.34087786 0.7039987 -0.030341499
-0.56454897 0.75413144 -0.15363225 0.012092653 0.25758234 -0.44340032 0.00970631 -0.45310515

decoder.0.bias f4 [20]
00000000: d536 32bf 43d8 663e 8252 afbe 19b4 e5bb
00000010: 9c2d 84be 19ed 203e 095b ae3d 836e 7b3e
00000020: e305 54bd 3e8d 0a3f ed2e 113e 727d 1abe
00000030: 8431 cebd 7de3 d3be 2849 f3be a956 9dbc
00000040: 3bda bbbe 79b1 ecbe b6dd 403e 2bf2 0a3e
-0.6961492 0.22543435 -0.34242636 -0.0070099947 -0.25816047 0.15715446 0.08513457 0.24553876
-0.051763427 0.5412177 0.14178057 -0.15086916 -0.10068038 -0.41384497 -0.4751675 -0.019206362
-0.36689934 -0.4622915 0.18834576 0.13568942

decoder.2.weight f4 [50, 20]
00000000: 3e48 c43e eb76 01bf 257e 32be de32 bebe
00000010: 7de4 21bd 27f0 123e c726 943d 5c90 413e
00000020: 1c03 563e 3a3f f63d 2e99 133d 59de f13c
00000030: 8dcb 82be 9b60 b03d d486 5c3e 3869 cf3e
00000040: 2cf7 0f3e abd0 3f3e bdbc ad3d b2d3 c4bd
00000050: d7e2 1fbe ec7a 7bbd 32f7 ccba cce7 b13d
00000060: de22 0fbe 1d8f 18be bd95 823e a86f 01bc
00000070: 51ce 56be f98d 1dbe 4ba5 c03d 9110 dd3c
00000080: dcaf fa3d 1eb3 1bbe fb58 b0bd f0b7 c73d
00000090: a038 b23c d7b1 573e bfdc 72be 9878 243e
000000a0: 697f fbbd ec61 4e3e 7e5b 2f3e b7db 1a3c
000000b0: dd3b 233c fbb9 3a3e 8455 1a3e 2cf9 32bd
000000c0: 5e38 05be b2c7 123e a616 91bd 44eb 10bd
000000d0: 84f2 163e 5a4d 4b3d 3954 a0bd ffed 5b3e
000000e0: 3be1 6c3b c76a 01be 8fcd c0bd f73a 753d
000000f0: 490d d9bd 1762 ce3d 4f14 87bd f3f7 aabd
00000100: c655 6bbe d260 7bbd 911a 383e 36c2 523e
00000110: 6413 acbc fd47 3d3d 559d bebc 1547 2b3e
00000120: a93c f53c 1fb3 a7bd 421c 61be 2d22 7d3d
00000130: 74fa 043e 1661 293d 00c0 9d3d 2100 cebd
00000140: 317f f2be 46e2 b6be 806a 553e f697 bd3d
00000150: 10f2 55be 4b73 57bc 4eca c93e 3863 5fbe
00000160: fc0f afbd 9090 64be 79ba ddbd 4e10 3e3e
00000170: 3f6d 903e 1b89 0abe 082f cdbd b105 b13e
00000180: 8e7b 873e 6eab 543e 367d 1b3e 0f2c 253e
00000190: 57c9 263e 22ec ab3e 48a2 873e 6276 3fbe
000001a0: 05b2 9d3e a540 b03e e493 693e b0c8 0bbf
000001b0: 7dda 373e f8bb 363e 3ecc 11be 884c a0be
000001c0: 9178 16be 6998 33be 573a 043e 7733 5a3e
000001d0: 489e 04bc 6780 d8be c615 da3c 2765 1bbb
000001e0: 21f9 523e 50a7 52be eff0 1e3d 0a0b 1bbd
000001f0: b110 f83d d66e 633e 3159 e53c af11 bbbd
00000200: 9e4e ffbd e655 4e3e d3f5 76bd 5c81 013e
00000210: 80e6 c3bd 485c 63be ca82 53be eb89 1c3e
00000220: 0d6f 5fbe b2a4 44bd 6f9b 0ebd 9709 eabd
00000230: 96be 06be a932 99bd 78a9 f1bd eb83 cbbc
00000240: 5597 15be 5fac 7139 a0be 913e c4e7 1c3d
00000250: 3393 013e 6893 3c3e 9a5a 85bd 02ff 0f3e
00000260: b7e8 913d dc54 28be a494 13be ca0a 89bc
00000270: 8c2a f93d 7dd5 a73d c28b 8dbe 6482 cabc
00000280: a874 f93e 5a35 923e 75ae 863e 8592 8dbe
00000290: d252 d23e 9aae 533e 0d50 733e 1fa4 b1be
000002a0: 065a 853d 974e a03d a2e0 183e c1c9 723d
000002b0: 456b acbd f759 a73c df1b 25be f99d 89be
000002c0: 0079 4cbe 4316 72bd 8b56 293c 24ca 4d3d
000002d0: 439a 833e bb12 05bd 3485 7a3e a59b bf3d
000002e0: 8f96 643c f4a6 94be c861 e5bd 7189 e7bd
000002f0: 441f ebbd c1f4 e43d a1de 1c3e d560 713e
00000300: 0be9 56bd ff09 eabd 94ea e23d f695 9fbe
00000310: c003 82be 6e13 243e 6636 423e 1db5 f43d
00000320: 5e8f 16bd 5011 313e a93a 00be 7045 9fbc
00000330: 786b 503e bffa 413e fdab 8f3e e8e3 e33d
00000340: 81a4 003e d57a 0cbd 4279 873d a0e6 1c3e
00000350: 678e 1bbe 87da 0ebd 8e64 943d 9fd7 6bbe
00000360: 32c6 8c3e d815 14be a105 7c3e cddd 3fbd
00000370: 0a9b 453e b462 e83d d595 573c 3ac4 543e
00000380: 71be eebd dd1f 12be f1df 5bbe 5ed2 5c3e
00000390: 5dd9 a6bd 7496 35be c091 83be d01b 59be
000003a0: f962 953d 8e2d bdbd 81df 7bbd 5d96 61be
000003b0: 1014 13be a82b 8cba f616 3ebd f98f da3d
000003c0: 2213 38bd 403e 5f3e e310 c2ba c96e c13e
000003d0: 520a 303c 66d5 10bd 9a7b bdbd c819 493c
000003e0: 4fbb 193e e780 923e b925 0b3e 96f5 88be
000003f0: 2d49 b23e 3615 ddbd 8a0d fb3d 43f5 6e3d
0.38336366 -0.5057208 -0.17430933 -0.37148184 -0.039524544 0.14349423 0.07233959 0.18902725
0.20899624 0.12023778 0.036034755 0.029524969 -0.25545922 0.08612176 0.21535808 0.40509963
0.14059132 0.18731944 0.084832646 -0.0961069 -0.15613876 -0.061396524 -0.0015637635 0.0868679
-0.13978145 -0.14898343 0.25504866 -0.007900156 -0.20977141 -0.1538619 0.09406527 0.026985439
0.12240574 -0.15205047 -0.08610722 0.0975188 0.021755517 0.21063934 -0.2371702 0.16061628
-0.12280161 0.20154542 0.17124745 0.009451798 0.009963003 0.18235008 0.15071684 -0.04369466
-0.13009784 0.1433399 -0.07084398 -0.035380617 0.1474095 0.049634315 -0.07828564 0.21477507
0.003614499 -0.12638389 -0.09414207 0.059870686 -0.10598237 0.10077303 -0.065956704 -0.08348074
-0.22981939 -0.061371632 0.17978884 0.20581898 -0.02100534 0.04621123 -0.023268381 0.16726334
0.029936152 -0.081884615 -0.21983436 0.06180017 0.12986165 0.041352354 0.07702637 -0.10058618
-0.47362664 -0.35719508 0.20841408 0.092575 -0.20893121 -0.013150047 0.3941216 -0.21815193
-0.08547971 -0.22320771 -0.108265825 0.18560907 0.28208348 -0.13528864 -0.10018736 0.34574655
0.26461452 0.2076852 0.15184483 0.16130088 0.16287743 0.33578593 0.26490998 -0.18697503
0.3079988 0.3442432 0.22810322 -0.546031 0.1795444 0.17845142 -0.14238068 -0.3130839
-0.1469443 -0.17538609 0.1291288 0.21308695 -0.008094378 -0.42285463 0.02662171 -0.0023711415
0.20602848 -0.20571637 0.03880399 -0.037852325 0.12112559 0.2221025 0.027996631 -0.09134232
-0.12466167 0.20149955 -0.06029303 0.12647003 -0.09565449 -0.22203171 -0.20655361 0.15286987
-0.21819706 -0.04800863 -0.0348162 -0.1142761 -0.1315864 -0.07480366 -0.11799902 -0.024843177
-0.1460851 0.00023047764 0.28465748 0.038306966 0.12653808 0.18415606 -0.065114215 0.14062122
0.07124465 -0.16438621 -0.1441217 -0.016728777 0.12166318 0.081950165 -0.2764569 -0.024720378
0.48721814 0.2855633 0.26304975 -0.27650848 0.41078812 0.20672074 0.23761006 -0.34695527
0.06511311 0.0782749 0.1492944 0.05927444 -0.084188975 0.02042864 -0.16123913 -0.26878336
-0.19968033 -0.05910326 0.010335575 0.050241604 0.2570363 -0.032488566 0.24464875 0.09355859
0.013951912 -0.29033625 -0.11200291 -0.11305512 -0.11480573 0.111794956 0.15319301 0.23572095
-0.05246834 -0.11427688 0.110798985 -0.311691 -0.25393486 0.16023037 0.18966064 0.11948607
-0.03675782 0.1729176 -0.12522377 -0.01944229 0.20353496 0.18943308 0.28060904 0.11127454
0.12562753 -0.03429683 0.06614925 0.15322351 -0.15191041 -0.034876373 0.07245742 -0.23031472
0.2749496 -0.14461458 0.24611522 -0.046842385 0.19297424 0.11346951 0.013158281 0.2077798
-0.116574176 -0.14269967 -0.21472146 0.21564624 -0.081469275 -0.17733175 -0.25697136 -0.21202016
0.07294268 -0.092372045 -0.061492447 -0.22030015 -0.14363122 -0.0010694163 -0.046408616 0.10671992
-0.04494012 0.2180109 -0.0014806058 0.37779835 0.010744648 -0.035359763 -0.09252091 0.012274213
0.15012859 0.2861397 0.13588609 -0.26749867 0.34821454 -0.10795061 0.12258442 0.05833937

decoder.2.bias f4 [50]
00000000: 84aa 7e3e 2619 a0bd 760f ec3c d470 e83d
00000010: e8f2 de3d 934b 573e 7118 0bbe 1e20 023e
00000020: 0e37 423e 0cb3 34be fd8e 5c3d cbc5 f1bd
00000030: 3039 29be 8307 89be 8ba7 57be 4111 80bd
00000040: 4491 91be 54d2 a83c 0de2 bebd df91 c3bd
00000050: 5516 0b3e 61dd 003c 5f14 c6bd c08f 183c
00000060: 1f38 1e3e 079a 833d d95f 76be 41f9 95be
00000070: 9526 103e 6252 1bbe 53b8 48be 8051 bb3d
00000080: e3a8 e13d 0ee5 aeba e752 6cbe 5c27 8abd
00000090: 5adf a7be 759d be3b 1d24 f43d 8677 38be
000000a0: 494e 19be 4706 91bd 766e 04be 3fa0 48be
000000b0: 46c8 d13e ae2b e53d d4cc 343c 0187 cbbd
000000c0: 8f68 bdbd 6a1a 85be
0.24869734 -0.07817297 0.028815966 0.11349645 0.108861744 0.21024923 -0.13583542 0.12707564
0.18966314 -0.17646426 0.0538473 -0.11805304 -0.16525722 -0.26763543 -0.21060006 -0.06253291
-0.2843114 0.020608105 -0.093204595 -0.09549307 0.13582738 0.007865281 -0.09671854 0.009311616
0.15451096 0.06425863 -0.2406 -0.29291728 0.14077218 -0.15168145 -0.19601564 0.09146404
0.11018541 -0.001334341 -0.230785 -0.067457885 -0.3278759 0.00581711 0.119209506 -0.18014345
-0.1497127 -0.070812754 -0.12932763 -0.19592379 0.4097311 0.11189972 0.011035163 -0.09937859
-0.092484586 -0.25996715

decoder.4.weight f4 [50, 50]
00000000: 3305 353d 7a4d 07be 3964 a3bd 1f4f 67bd
00000010: c5ab 933c 9096 58bd 29b0 c9bd 2c4a 0fbd
00000020: 6930 80bd ff0e c73c df2f 8b3d f2be 033c
00000030: 2d93 d6bd fa50 d5bd 0569 fe3d 4bb5 81bd
00000040: f6ea 383c f54f a1bd 9263 0e3c 634d abbc
00000050: 5d1b d0bd 9b18 adbd f019 d2bd 0823 c03d
00000060: bcb4 afbd 82a7 093e c7e6 0cbe 23bd 77bd
00000070: 9bea f2bd 91a8 e2bd 5c76 003e f99f ce3d
00000080: b08e 223d ac9c 1cbb b5e6 05be f9b6 e4bd
00000090: 933d ec3c a83d 67bd 57c5 0bbe b960 193d
000000a0: de2a bb3c c111 afbd d2d9 913c 1328 9abd
000000b0: 6b9d a6bd d36f 043e ad23 f63d 78f6 05bc
000000c0: 5346 9ebd 0da9 b7bd a479 25be 0b99 b5bd
000000d0: 4dd8 2fbb 1e65 22bc 0ef6 8cbd eb55 073e
000000e0: 38da 2e3c 88d7 72bd aaf3 0b3e dd67 2c3d
000000f0: 1d0b 073e b8e0 043e 4e05 113e 51ce 073e
00000100: 7877 b1be ac48 8abd 9d98 743e 2bb9 443d
00000110: 68b1 bb3d 6fe4 803c 253e ffbd 1b04 d23d
00000120: 887a 43bc aef6 ea3d ef0f 023e 3b82 2f3e
00000130: e4af 3a3e e79a 0abe 1101 7f3e 167c b5bc
00000140: 5983 08be 0dde a0bd 3a20 0fbe 634c 283e
00000150: 1caa 383e 1dfa 49bc e600 4a3d 7349 0c3e
00000160: f904 08be b5a1 253e d139 1cbe e3dd 2dbe
00000170: 96be 75bd a0b8 f93d dbec 1d3e 72e5 cdbb
00000180: ab2b f3bc ae58 003e fff6 28bd d390 bd3e
00000190: 2525 913e c5e8 23be 2d42 dbbd 3571 bcbd
000001a0: 7e6e ec3d c98f 6c3d f99f 02be 9196 97bd
000001b0: 8cd3 733d dc70 8ebd a4a7 e3bd e78b 8d3c
000001c0: 438a 82be 962b a23d 34cf 813e eb97 eabb
000001d0: 1d90 db3d 710a 11be 9d01 d1bb 34c4 9cbd
000001e0: 9067 ac3d 3a82 9dbd 644e cfbd fa67 51bd
000001f0: 86dc 703d 3863 c5bc 8f42 ae3c b3ca 86bd
00000200: f1de 2abd 39ed 06be 9913 eb3c d590 adbd
00000210: d53d f13c 64d6 e93d 4cbe ccbd 5177 983c
00000220: 178e f23d d8b4 023e 4b84 ecbd 39a6 0c3d
00000230: fe84 153d 80ba b53d ebbc cc3d 7f2b e23c
00000240: 8bea 9b3e 3737 07be 1de8 813d b78b 73be
00000250: 7029 853c 2a14 d23e 1075 9ebd 6221 acbd
00000260: be1e fbbc 66d3 2e3e dbd9 0abe 9a23 49be
00000270: 4a94 fc3d 6b2e 09bd 985a 103d e6b1 8c3d
00000280: fa68 a4bc 84dc 76bd 2735 cfbd 7474 da3e
00000290: 7ac4 ddbc c8ce 9bbe 9d85 51bd a15e 27bd
000002a0: 2e86 96ba 0f6b 113e 8303 973e 844c a23d
000002b0: 2f30 5bbd b6c0 843d 749a 063e 3d4b 21bd
000002c0: 7022 24be 4fdb f9bc cc54 a93d 1ae2 1f3d
000002d0: 9c4b f7bd 561a 743e 2450 03be 5088 0dbd
000002e0: 678f 07bc 5e0d 80bd 9e0e 893e 95ac 8abb
000002f0: 96b5 bc3b 6f8a a73d 0d63 c13d bf09 9d3e
00000300: 0c4e 183d d208 d83d c89b 783e 46cb b83c
00000310: 0850 863e b076 66be 6f1b a43d 1501 c7be
00000320: 11c5 2f3e 9ec8 41bc 3911 233d d5fa 53bb
00000330: 2f6a 6c3c fdd3 d43c 2f1c 883c 2eac 043d
00000340: 4d60 863d 4a93 5f3e bff5 8bbd 7547 303e
00000350: 0454 1fbe a650 073f 7e4b 093e 8a3b 39be
00000360: 5895 ae3e 3c10 14be 49c3 0f3e fb25 a63d
00000370: 6291 573d f622 2abc 1e85 a1ba 63cc 80bd
00000380: c3f9 02bd ccdd ec3d 75cd 4b3d e42f 69be
00000390: 368a 8fbd 7e77 8bbe 321a fd3d 7419 573b
000003a0: 9f3f 5abb 7ca1 1f3e 4d21 0a3d 7bae db3d
000003b0: c170 cc3e 141f 01be ae61 c83d 8b2f b83e
000003c0: b376 cfbc b652 d53d b21a cf3d 8ab9 aa3d
000003d0: ea6a 983e 79cb 883d 2674 503c 435d 193d
000003e0: 8f60 393e ce46 e6be b531 cfbc affe c0bc
000003f0: 36d8 bd3d 24b5 bb3c d111 e83d 9be1 be3b
0.04419441 -0.13213149 -0.079781 -0.05647194 0.018026242 -0.052877963 -0.09848053 -0.034982845
-0.062592335 0.024299143 0.0679624 0.00804113 -0.1047729 -0.10415836 0.12422375 -0.06333407
0.011286488 -0.07876579 0.008690732 -0.020910924 -0.10161469 -0.08451959 -0.102588534 0.09381682
-0.08579394 0.13442805 -0.1375991 -0.06048311 -0.11861154 -0.11067308 0.1254515 0.10089106
0.03968686 -0.0023897095 -0.13076289 -0.11167712 0.028837955 -0.056455284 -0.13649498 0.037445758
0.02284759 -0.08548308 0.01780406 -0.07527175 -0.08135494 0.12933283 0.12018523 -0.0081764385
-0.07728257 -0.08967791 -0.16159683 -0.08867081 -0.0026831806 -0.0099118035 -0.06882869 0.13216369
0.010672145 -0.059287578 0.13667169 0.04209124 0.13187833 0.12976348 0.1416218 0.13262297
-0.3466146 -0.06752142 0.23886342 0.048028152 0.09164697 0.015733926 -0.12463025 0.10254689
-0.011931069 0.11472832 0.1270139 0.17139523 0.1823116 -0.13535653 0.2490275 -0.022153895
-0.13331355 -0.07854853 -0.13977137 0.16435389 0.18033642 -0.012327698 0.049317263 0.13699894
-0.13283147 0.16174968 -0.1525643 -0.16979174 -0.05999621 0.121934175 0.15422384 -0.0062834555
-0.029683908 0.12533829 -0.04125118 0.37024555 0.28348652 -0.16006763 -0.107059814 -0.0920128
0.11544512 0.05775431 -0.12756337 -0.07401765 0.05952792 -0.0695512 -0.11115959 0.017278625
-0.2549611 0.079184696 0.25353396 -0.0071592233 0.10720847 -0.1416414 -0.006378366 -0.0765461
0.084181905 -0.07690854 -0.10122374 -0.05112455 0.058804058 -0.024095163 0.021271972 -0.065816306
-0.04171652 -0.13176431 0.028695868 -0.0847489 0.02944843 0.11417845 -0.09997234 0.018611582
0.11843508 0.12764299 -0.115486704 0.03433821 0.036503784 0.08873463 0.09996971 0.027608631
0.3045238 -0.13204657 0.063431 -0.23783766 0.01625511 0.4103101 -0.07737172 -0.08404805
-0.030654307 0.1707283 -0.13559668 -0.19642487 0.123329714 -0.033491533 0.035242647 0.06869869
-0.020069588 -0.060268894 -0.1011756 0.42666972 -0.027071226 -0.304312 -0.051152814 -0.04086173
-0.001148408 0.14200996 0.29494867 0.079247504 -0.05351275 0.06482069 0.13144857 -0.039378393
-0.16028762 -0.030500082 0.08268127 0.039033987 -0.12074968 0.23838171 -0.1282354 -0.034553826
-0.008273936 -0.062525496 0.26768965 -0.004231999 0.0057589514 0.08180701 0.094427206 0.30671498
0.037183806 0.10548557 0.24278176 0.022557866 0.26232934 -0.22506213 0.08013045 -0.38868013
0.17165019 -0.011827616 0.039811347 -0.0032345552 0.014429613 0.02597999 0.016615001 0.032390766
0.06561337 0.2183353 -0.06833982 0.17214759 -0.15559393 0.52857435 0.13407704 -0.18089119
0.34098315 -0.14459318 0.14039339 0.08112713 0.052628882 -0.010384312 -0.0012322997 -0.06288984
-0.031976473 0.11565742 0.049756486 -0.22772175 -0.070087835 -0.27239603 0.12358512 0.0032821568
-0.0033302081 0.15588945 0.033723164 0.10726639 0.39929774 -0.12609512 0.09784256 0.35973772
-0.025325155 0.104161665 0.101125136 0.0833617 0.2976907 0.06679434 0.012723004 0.037442457
0.1810324 -0.44975895 -0.025292257 -0.023558943 0.092697546 0.022913523 0.11331523 0.005825234

decoder.4.bias f4 [50]
00000000: e930 00be 8c6f 043e c3be 973e 9778 033d
00000010: e004 433e 3d92 f8bd c18a 8ebe 2c84 0b3d
00000020: c316 18be 0d0e 813d bd90 10be 5755 eabd
00000030: f693 1abe a246 463c 061d e7bb aca6 29be
00000040: fa48 01bd de7d 8cbc 267e a83d e094 d4bd
00000050: 355b cdbd a87f c73d 492f 503e ded1 a6bc
00000060: 787c 7e3d ef64 b5bd 8162 d0bd 0790 7ebd
00000070: 07e4 3abd 8155 213e 7116 993d fe59 1b3e
00000080: 0ae3 8b3b d3f4 c8bc 0bd9 8e3d df65 003d
00000090: 0d71 e53d ebb2 383e d9ec 2c3e b715 9ebb
000000a0: 4982 5bbd 88e9 b2bd ec0a 753e 252a 863d
000000b0: 3c81 05be 6ca9 9bbd 73bf 75bc 98d2 babd
000000c0: a2b3 783e 6dcc e1bb
-0.12518658 0.12933177 0.29637727 0.032097425 0.19044828 -0.12137268 -0.27840236 0.034061596
-0.14852433 0.06301508 -0.14117713 -0.114420585 -0.15095505 0.012101801 -0.0070530204 -0.16567487
-0.031563736 -0.017149862 0.08227186 -0.10379958 -0.10027162 0.09741145 0.20330538 -0.020363744
0.06213042 -0.08857142 -0.10175038 -0.062149074 -0.04562762 0.15755273 0.074749835 0.15171048
0.0042690085 -0.024530804 0.069749914 0.03134715 0.11203203 0.18037002 0.16887225 -0.004824366
-0.053591046 -0.08735949 0.23929948 0.06551007 -0.1303758 -0.07600674 -0.014999258 -0.09122199
0.24287274 -0.0068908245

decoder.6.weight f4 [6, 50]
00000000: 5a60 983d c61b 6fbe 27c2 b73e 3b53 74be
00000010: f4d8 3f3d aab8 be3d 488b 973e 35df ad3e
00000020: 9731 0abe 87cd 66be 5a6f 93bd 88d1 91bd
00000030: 2609 10be a2f1 bd3e 2e97 003f 36e5 2abd
00000040: 2840 a8bd 357a 103d 1e8f c7bd bb87 b4bd
00000050: 3362 aebd 5e7c 9ebe 6c4e 473e 3fe5 19be
00000060: 9e22 bb3e b827 f3bd 2fc5 a23e f41f cebd
00000070: b702 053d 8054 453e 3263 7f3e fcc8 26be
00000080: 51aa 8e3e 220a 053e 8cb6 77bf a7b4 e7bc
00000090: eaef 8b3e 6f44 8c3e 99ed cf3e 1b30 083e
000000a0: d244 4b3e 103d 88bf 79b2 09bf 712e be3d
000000b0: 716a bcbd 9560 d73d e6a2 4a3e cc8b e5be
000000c0: d1e5 53be e342 693a 2ed6 3bbd ffa2 93be
000000d0: 4d62 9d3d 2215 30be 8674 c8bd 06ed 0bbd
000000e0: 612e 67be ef66 19be 4437 f83d 4caf 3a3e
000000f0: 3c0e 9dbd 2e1a 47bd 5ca1 82bd 1d16 d1bc
00000100: 4815 c7be 932e aa3d aa78 0cbe 5080 f03c
00000110: ec17 083e 4d1e e43d 38a4 ed3b bcf6 503d
00000120: fdcb 8abe 16a6 773d 4e95 c2bb 6a66 953d
00000130: 7e06 1a3e 47da d5bd 426f bb3e ef24 edbc
00000140: 18b5 98bd 6790 c63d 3f6e 6d3d 8be0 48bc
00000150: 5a59 eb3d 5d97 eb3e 54a4 e73d dec7 f6bb
00000160: 56f0 0abf fd83 6cbd 3f45 483e 98a1 0f3e
00000170: ea68 0abe 9edf f13d 4b51 f63d 224a 99bd
00000180: d628 673e 94bc 4bbe 1207 87bd 51e2 59bd
00000190: 9b1a 633d 3a4a be3d 4367 873d e83e 38bd
000001a0: 489f 3c3d 41b7 50bc 6646 213c 63d4 8ebd
000001b0: 72f8 bc3c d3b6 8fbc bcd1 ccbd 3eee 4b3d
000001c0: 295f bdbd 4633 d23c ba8d f0bd 9212 27be
000001d0: 13d4 1b3e 9198 febd 3811 453d 9f38 adbd
000001e0: 91c8 3fbd 3ae8 de3d 56a9 4439 b41f e1bd
000001f0: 8338 bd3c 7213 483c 9051 8dbd d3ef a53c
00000200: 144a d03d ff3b b73d 3dad 3dbd f4d0 e3bd
00000210: 5290 19be 0479 dd3d 0f6d bb3c 565f 063e
00000220: a1e2 c73d ed7c 6ebd 91d1 85be 6750 32bd
00000230: bf7a c43c 078e 063d b71b 4e3d 400b 783d
00000240: 04e8 f43c 7c6d d2bd 2677 1d3e b03a 6dbd
00000250: bf3f 1bbe a7a1 f1bd 6c25 823d 1780 d53e
00000260: 4124 0a3f ed4a 32bf decb 48bf 5326 b0bc
00000270: 0037 a3bf f7f7 7e3e 7a6d 12bf 00ff dcbd
00000280: 03f7 293d 7d2f fb3d 1fd3 e83d c5cc 1abf
00000290: 17da 23bf f550 f43d 90bd 25bf d5d5 e3bd
000002a0: 79c7 2fbf e683 05bd 69a8 91bd 2880 8cbe
000002b0: 89fe 4e3e 14c7 09be a26e dbbb ef9b 423c
000002c0: 49a4 013f 092a c4bc 0844 37be d52e c33e
000002d0: 4a6b 7a3e 5c2d 6abf 7ff1 113d 9cdc 34be
000002e0: 1d59 d8be ea4a 5bbc c594 0bbf 1c02 abbf
000002f0: 38e9 a43d 7780 03be 9e65 683e 6fe9 4a3f
00000300: 910f c3bd 9fe9 193e e201 0c3d 7342 f13d
00000310: 2802 213c 5855 043e 7dc4 acbf 10ff 8abd
00000320: 644d 9c3d 31d9 9fbe 801f 9b3e 3605 aa3e
00000330: ca17 d13e c0f5 bebd 875b b7be b188 2d3d
00000340: 179d 393e fca0 6e3b 7247 c1bd 1468 db3d
00000350: 596e ae3d f6fb bf3e 7211 a6bf af64 083e
00000360: 2f25 09bf e4d0 883d 2165 4cbf efe7 8b3d
00000370: f813 22bd 6838 99bd 535b 913e b31f ba3d
00000380: 568a 983e 0d11 bd3d d901 9dbe 083c d83d
00000390: d407 9b3e a33c 6f3e afc2 99be 21d9 54bf
000003a0: ccea 093e 8239 363e a2a4 25bf 5016 5e3e
000003b0: bdd7 a5bf 4b0e 643e 34fb 2d3e f894 aebc
000003c0: 531b 8bbe 6945 ae3e e007 d23d 52be f9bd
000003d0: ed64 54bd 140b b2bd 562b 7bbf 55ad d0bc
000003e0: 6d0b 63bf 9726 4fbd 0daf f23d b443 87be
000003f0: 6e3a 6ebe e662 d2be c76e 7dbf 7cf1 0e3d
0.074402526 -0.23350438 0.35890314 -0.23859875 0.046837762 0.093125656 0.2959845 0.33959356
-0.1349548 -0.2253934 -0.07198973 -0.07120043 -0.1406599 0.37098414 0.5023068 -0.0417225
-0.08215362 0.035272796 -0.09744094 -0.08814951 -0.08514824 -0.3095426 0.1946351 -0.15028857
0.36549848 -0.1187281 0.31791064 -0.10064688 0.032473292 0.19270515 0.24940184 -0.16287607
0.27864316 0.12992147 -0.9676292 -0.028284384 0.27331477 0.2739596 0.4061096 0.13299601
0.19850472 -1.0643635 -0.5378795 0.09286202 -0.091999896 0.105164684 0.19788703 -0.4483322
-0.20693137 0.00088982115 -0.045858555 -0.28835294 0.07684765 -0.17195562 -0.0978785 -0.03416159
-0.22576286 -0.14980672 0.12119916 0.18230933 -0.076687306 -0.04860895 -0.06378433 -0.02552324
-0.38883424 0.083096646 -0.13717905 0.02935806 0.13290375 0.11138592 0.0072522424 0.051016554
-0.27108756 0.060461126 -0.0059382087 0.072949246 0.15041539 -0.10442024 0.3660832 -0.028948275
-0.07456416 0.09695511 0.057966467 -0.012260566 0.11491652 0.4601392 0.1131064 -0.0075311502
-0.54272974 -0.05774306 0.19557665 0.14026487 -0.13516584 0.1181023 0.12027224 -0.07484843
0.22574171 -0.19896156 -0.065931454 -0.053194348 0.055445295 0.09291501 0.066114925 -0.044981867
0.04605034 -0.012739004 0.009843444 -0.06974103 0.023067687 -0.017543232 -0.10000941 0.049787752
-0.09246666 0.025659215 -0.11745782 -0.16315678 0.15217619 -0.124314435 0.048112124 -0.08458065
-0.046822134 0.108841375 0.00018755099 -0.10992375 0.023098236 0.012211667 -0.069003224 0.020255959
0.10170379 0.0894699 -0.04630779 -0.11123839 -0.1499646 0.108140975 0.022879152 0.13122305
0.09760023 -0.058224607 -0.2613645 -0.04353371 0.023984311 0.03285029 0.0503194 0.060557604
0.02989579 -0.10274789 0.15377483 -0.057917297 -0.15161036 -0.11798411 0.06354794 0.41699287
0.5396157 -0.6964558 -0.78436077 -0.02150265 -1.275116 0.24899279 -0.571983 -0.10790825
0.041495334 0.12264917 0.11368393 -0.60468704 -0.64004654 0.11929504 -0.64742374 -0.111247696
-0.68663746 -0.03259649 -0.071122 -0.27441525 0.20214285 -0.13454849 -0.006696538 0.011877998
0.50641304 -0.023945825 -0.17897046 0.38121668 0.2445499 -0.9147546 0.0356307 -0.17662281
-0.42255488 -0.01338456 -0.5452388 -1.3360019 0.080522954 -0.12841974 0.22695014 0.7926244
-0.095244534 0.15030526 0.034181483 0.11780252 0.009827174 0.12923181 -1.3497463 -0.067869306
0.076319486 -0.3122039 0.3029747 0.332071 0.40838462 -0.09324217 -0.35812017 0.042366687
0.18126331 0.0036411872 -0.09437455 0.10713211 0.08517141 0.37496918 -1.2974074 0.13319658
-0.5357236 0.06680468 -0.7984181 0.06831347 -0.039569825 -0.07481462 0.28389987 0.090880774
0.29793042 0.09231768 -0.30665472 0.10558325 0.3027941 0.23362975 -0.30031344 -0.8314381
0.13468474 0.17795375 -0.64704335 0.21688199 -1.2956463 0.22271077 0.16990358 -0.021311268
-0.27169284 0.3403733 0.10255408 -0.12194504 -0.051854063 -0.08693519 -0.98113 -0.025473276
-0.8868931 -0.05057391 0.118497945 -0.2641884 -0.23264477 -0.4109108 -0.9899716 0.034898266

decoder.6.bias f4 [6]
00000000: 25f7 303d c8aa ddbe 0ff5 9f3c abea 043f
00000010: 9798 553e d100 b73e
0.043204445 -0.43294358 0.019526033 0.51920575 0.2085899 0.3574281

cluster_layer.weight f4 [4, 4]
00000000: dd57 bebd ca70 eb3d 40a0 b23d 373e d2bd
00000010: ff02 ccbd 75fc cdbd 3a59 cd3d 7fd8 cb3d
00000020: 78f4 ebbd 98e1 8f3d df94 eb3d 0377 bdbd
00000030: eea5 ca3d 951f d2bd 7684 c5bd 27aa d03d
-0.09294102 0.11496122 0.087219715 -0.10265773 -0.09961509 -0.10057918 0.10026784 0.09953403
-0.11521238 0.070254505 0.11503004 -0.09251215 0.0989493 -0.1025993 -0.096444055 0.10188704
