RiskViz Folder/model/checkpoint_1100.tar (torch, 110796 bytes, 51 tensors)

encoder.1.weight f4 [50, 6]
000000 a7 46 07 bf 76 a0 50 3c b0 a2 37 ba 78 0c 64 3e
       -0.5284218 0.012733569 -0.00070051383 0.22270381
000010 19 b8 ac be ad 0a f7 3d db b1 96 bb ec dd bc bb
       -0.33734205 0.12062583 -0.0045988387 -0.00576376
000020 0c 1a fb bb e3 ba 24 40 4a 23 cf 3b 3a aa 46 be
       -0.007663017 2.5739067 0.0063213455 -0.19400874
000030 93 65 44 be a6 e9 57 be 8b 74 36 3c 73 d8 8f bd
       -0.19179372 -0.21085224 0.011136184 -0.07023706
000040 4b 77 c2 3e 37 d2 af be c5 e1 4b 3e e8 37 f9 3a
       0.37981638 -0.3434007 0.19910343 0.0019013854
000050 fc 13 7a 3b 9e 71 fa bd 54 25 59 3c 0a 4f 92 3f
       0.0038158884 -0.12228702 0.013253529 1.1430371
000060 ef 77 01 bd a0 ad 2a be 08 94 f9 bb 5f 37 4b 3f
       -0.03160852 -0.16667795 -0.0076165237 0.79381365
000070 c9 4c 7a 3e e8 ff 0a bf 31 21 23 3f e6 70 a5 3c
       0.24443354 -0.5429673 0.6372252 0.020195436
000080 76 aa cc b9 c7 2f ae 3d 46 f7 46 3d 0f 29 84 3f
       -0.00039036915 0.085052066 0.048575662 1.032503
000090 d3 1a 9f bd ed 34 67 be 29 4f eb bd bf 09 7b be
       -0.07768788 -0.22578783 -0.11489708 -0.24515437
0000a0 e9 85 54 3e 39 ea 50 be cf 88 3b bf 24 f0 e8 3d
       0.20754208 -0.20401849 -0.7325563 0.11373928
0000b0 af a8 29 3b 47 70 08 bd 09 a8 f7 bd d2 36 5f bd
       0.0025887897 -0.0333102 -0.12092597 -0.05449564
0000c0 ef 6e 2b 3f cc e3 fa bb 44 6c 40 bb d9 70 64 3f
       0.66966146 -0.00765655 -0.0029361406 0.8923469
0000d0 a8 b1 25 3f 94 99 47 3d 00 29 a5 be 64 7e 30 3c
       0.64724207 0.048730448 -0.32257843 0.010772321
0000e0 b8 7b 42 be a7 17 0a bb be ab 4b 3e 15 f0 37 3e
       -0.18992507 -0.0021071227 0.19889733 0.17962678
0000f0 fe 9b f3 be 8c 02 1b 3c 4f af 96 bb 71 0d 77 bf
       -0.4757995 0.009461056 -0.004598535 -0.96504885
000100 21 05 91 be ea 9e 0f 3e 82 8a 6e be 3d 93 36 be
       -0.28324226 0.14025465 -0.23295024 -0.17829604
000110 93 69 0c 3e f2 98 70 3e 19 71 bb 3b 14 9d 22 be
       0.13712148 0.23495844 0.0057202694 -0.15880233
000120 bb 26 23 be 55 d7 91 bc 28 39 29 bd 30 3c 8b 3f
       -0.15932743 -0.017802874 -0.041314274 1.0877743
000130 61 70 cd bd 30 41 1d 3f 59 f4 04 bf a4 53 82 3b
       -0.100312 0.61427593 -0.51935345 0.003977256
000140 ea 07 07 ba 9f 15 47 bf 6c cf 90 be cd 2b f6 3d
       -0.00051510206 -0.77767366 -0.2828325 0.12020073
000150 04 c8 0f c0 40 00 60 3a 4f e6 14 3b 96 84 3f 3e
       -2.246583 0.0008544959 0.0022720282 0.18702921
000160 b1 b4 ed be d2 3f 08 3f 15 a9 2c bf 5c e0 41 b9
       -0.4642692 0.5322238 -0.674455 -0.00018489495
000170 2c 4a 87 bb 26 db d0 bd fa 2a db be 00 b1 c8 bd
       -0.004128715 -0.10198049 -0.42806226 -0.09799385
000180 48 1d 84 be c9 6b 8f 3e cc a8 22 3e 5a ca a5 3e
       -0.2580359 0.2801192 0.15884703 0.32380944
000190 5a 1c 9b be 54 8e cc be d1 7a 7c bf 7f 94 94 bc
       -0.30295068 -0.39952338 -0.986249 -0.018137215
0001a0 7f 4a 56 3b 74 82 5a bf 22 25 35 3f 80 4d 10 3f
       0.0032698212 -0.85355306 0.70759785 0.56368256
0001b0 a1 23 d5 bb 38 59 e2 bb ca c2 27 bc 3b b0 1e 40
       -0.0065044914 -0.0069076084 -0.010239312 2.4795063
0001c0 d3 7d 7c 3c 78 6d 21 be db 84 af 3d 51 10 9d be
       0.015410858 -0.15764415 0.08570262 -0.3067651
0001d0 92 ad 5f be 9a 7a 44 be 84 8c 6c be 63 42 94 3d
       -0.21843556 -0.19187394 -0.23100477 0.07239225
0001e0 ea 89 00 be ee 80 b7 3a 04 8e fc 3a a2 46 33 bf
       -0.1255261 0.0014000216 0.0019268398 -0.7002965
0001f0 80 a1 41 3f 80 9d 91 3d d9 3c b5 be 05 96 87 be
       0.75637054 0.07110119 -0.35397986 -0.26481643
000200 56 28 1d 3e d4 ce 1b 3e 11 40 81 be f4 ee 03 be
       0.15347418 0.15215617 -0.2524419 -0.12884122
000210 ed c3 26 c0 8d e4 f4 ba 93 a0 04 3c bf a4 c5 be
       -2.6057084 -0.0018683836 0.0080949245 -0.38602254
000220 87 b2 a5 be 80 5e 59 3e 3c fe a5 3e 57 a5 b2 bd
       -0.32362768 0.21227455 0.32420528 -0.08722942
000230 f3 26 8a bd e3 3f 11 3e a2 b6 70 3d 30 b0 09 be
       -0.0674571 0.14184527 0.058767922 -0.13446116
000240 98 68 9c be 9c 61 3c be 23 78 8f 3d 8d 27 77 bd
       -0.3054855 -0.1839661 0.07005336 -0.060340453
000250 b8 c0 06 3f 4e 26 d4 3b 2c ff d6 bd 18 d1 c7 be
       0.52637815 0.006474293 -0.10497889 -0.39026713
000260 61 20 bf be 93 72 33 3e 88 6e a1 3e 2b 6b ec ba
       -0.3732939 0.17524175 0.3152964 -0.001803731
000270 07 18 25 c0 a4 f9 2b bb 1d 44 e2 3a ad 9a 26 bf
       -2.5795915 -0.0026241327 0.0017262731 -0.65079767
000280 b3 de 16 be 9d 34 0d 3e 86 94 16 c0 26 82 90 bb
       -0.1473339 0.13789602 -2.3528152 -0.004410046
000290 57 bc 12 bb e2 3e 12 bf 33 57 02 be 44 7f 02 bf
       -0.0022390091 -0.571272 -0.12728576 -0.5097544
0002a0 1f cc 4f 3f e1 69 ae bb dd 1f 32 bb ac 03 94 bf
       0.8117084 -0.0053226803 -0.0027179637 -1.156362
0002b0 ba 74 25 3f df 05 5f 3d eb dc 67 be 33 cd d9 bc
       0.64631236 0.05444896 -0.22642867 -0.026587104
0002c0 02 00 94 be 43 4b 9a bc 11 10 69 3e ee e4 3b be
       -0.28906256 -0.018834716 0.22760035 -0.18349048
0002d0 fb ba 4d 3f 6a cd 60 bc a5 2c 3e bb 2c 16 09 3f
       0.80363435 -0.0137208495 -0.002901831 0.53549457
0002e0 ee c2 b3 be 07 51 95 be 81 87 27 3d 99 16 e3 bb
       -0.35109657 -0.2916338 0.04090071 -0.006930184
0002f0 9b 50 9d bb b2 0e b5 bd 3b 86 18 3e 10 6d a9 3f
       -0.0048008687 -0.088406935 0.14894955 1.3236408
000300 82 49 a0 3e c4 3a cc be ab 61 2f 3d 95 28 a0 bc
       0.31306082 -0.39888585 0.042817753 -0.019550601
000310 66 52 e1 3d 55 15 cd bd fc 80 b7 3d f6 6e 79 be
       0.110020444 -0.100138344 0.08960149 -0.24358734
000320 b2 c8 2c 3e ef 19 29 3f f4 52 11 b9 19 02 79 be
       0.16873434 0.66055197 -0.0001385918 -0.24317206
000330 93 c5 2f bf 73 1c b3 bc c5 e6 94 bb fa 93 03 3d
       -0.6866085 -0.021864152 -0.0045441114 0.032123543
000340 ce cc 67 bc ad 78 90 3f 4a e5 41 ba 5a e0 32 ba
       -0.01414795 1.1286827 -0.00073965325 -0.0006823592
000350 d4 67 18 bc aa ac cd 3f f0 42 ba 3e 18 94 fc 3a
       -0.009302098 1.6068318 0.36379194 0.001927021
000360 25 39 67 3e 76 af 09 3e 39 ef 24 3d 28 70 f2 bd
       0.22580393 0.1344584 0.040267203 -0.11837798
000370 3d 29 81 3d 6d 85 ef 3c 2e 36 39 3c 7c 79 e1 3b
       0.06306694 0.029238427 0.011304421 0.006880937
000380 aa ed 51 3b f6 18 3d bf f6 ee 25 3d b2 5d 3c 3f
       0.0032032528 -0.7386621 0.040511094 0.7358047
000390 57 10 ca 3c 6f 9a 8d bc 71 03 cc 39 05 39 53 be
       0.024665995 -0.017285554 0.00038912476 -0.2062722
0003a0 de 7c 74 3e fd 98 bd 3f ab 65 90 3f 7d 8b dd 3a
       0.23875758 1.4812313 1.1281027 0.0016902533
0003b0 a8 b4 24 3a 3f 72 ba be e0 16 fc bd 7c b9 1b bf
       0.00062830234 -0.36415288 -0.123090506 -0.608299
0003c0 4c 04 27 c0 b8 16 1b 3b 7b b6 42 3b 2d 06 58 bf
       -2.6096373 0.0023664664 0.0029710818 -0.84384423
0003d0 41 89 9e be b1 d9 6d 3e 9e c1 63 ba b7 4f 0c bb
       -0.3096409 0.23227574 -0.0008688214 -0.0021409818
0003e0 13 51 fa ba e2 09 1c 40 01 3e c6 be aa 96 4b be
       -0.0019097648 2.4381032 -0.3871918 -0.19881693
0003f0 23 cb 1a bf e2 ef 56 3c 20 0a 15 bb 04 d1 39 3e
       -0.6046621 0.013118716 -0.002274163 0.1814614

encoder.1.bias f4 [50]
000000 8b 49 7f 3e 0e f7 26 39 d6 6b 57 bc 73 9d 16 be
       0.24930398 0.00015923029 -0.013148269 -0.147085
000010 dc 58 b5 bd 8f d5 00 bf f8 3f 09 be ff 08 de bc
       -0.08854839 -0.50325865 -0.13403308 -0.027103899
000020 0a 5f ae be 70 90 aa be 65 9b 3e 3e 59 50 c9 be
       -0.34056884 -0.33313322 0.18613966 -0.39319113
000030 65 ec 6a bf ba 7a 63 3e ad af 81 3c 86 ab ac 3e
       -0.9176696 0.22214785 0.015830839 0.33724612
000040 ad 18 b8 be ac 9b ce 3c 31 d5 0e 3b 76 1f 89 be
       -0.35956326 0.025220715 0.0021794552 -0.26781815
000050 83 53 80 3d c9 a3 12 be b5 d5 7f 3c ea ab be be
       0.062659286 -0.14320292 0.015614917 -0.37240535
000060 ca 38 42 bd a0 da 9b be 9f f6 5d 3c 94 99 91 3c
       -0.04741744 -0.30440235 0.013547569 0.017773427
000070 a1 47 d2 be 9e 8b 77 be f7 0d dc be 56 32 73 be
       -0.41070274 -0.24174353 -0.42979404 -0.2374967
000080 7c 99 d6 be 3f 1d b1 be 08 89 ae 3a 76 40 0b bb
       -0.41913974 -0.34592625 0.0013315985 -0.0021248139
000090 4d fd b2 be 5e 8c 73 bc 7f ad b3 be 35 c5 2f bf
       -0.34958878 -0.014865009 -0.35093305 -0.6866029
0000a0 c0 e6 55 3c ce e6 60 ba 1c a4 ee 3b 6d 83 ea be
       0.013055503 -0.00085793145 0.007282747 -0.45803395
0000b0 a3 76 2e bf a5 72 8b 3b 7c 2b e4 bb 54 e9 4a 3c
       -0.68149775 0.00425561 -0.0069631916 0.012384731
0000c0 ae ce 8f be 0b 3c 12 bb
       -0.28087372 -0.002231362

encoder.4.weight f4 [50, 50]
000000 b8 98 2c 3d 7f 2c bf be db 14 07 be 58 6f be bd
       0.04213783 -0.37338635 -0.1319155 -0.09298581
000010 6e 0f 74 be ca 0d e8 3d e9 86 93 bc ed 8e 5b 3d
       -0.23834011 0.11330755 -0.018008666 0.0536031
000020 ac 8c 7f 3d ff 9c b5 3d 53 36 2e 3e 3c 26 ae 3b
       0.062390015 0.08867835 0.1701291 0.0053146165
000030 5a 6b c4 bd 9a 79 ea bb 00 84 6a 3e cf be 24 bd
       -0.09590788 -0.0071556093 0.22901917 -0.04022103
000040 d5 51 0f be 60 ca 95 3b 5e f0 c0 be af 92 ca bd
       -0.1399606 0.004571244 -0.37683386 -0.09891259
000050 8e 32 06 bd a8 07 05 3d 2f a3 7e 3e 15 4f cf bc
       -0.032763056 0.032478005 0.24866937 -0.025306264
000060 bc 69 5b 3c 96 f3 0d bd 99 a0 03 3e d0 d6 98 3e
       0.013391908 -0.03465613 0.12854232 0.2985139
000070 9b e3 23 3d 94 66 ce 3d d4 f9 0c 3e a3 06 de bd
       0.040011983 0.10078159 0.13767177 -0.108411096
000080 cf d1 19 3d 3b 0d 89 3d 7d 4f b8 3d a7 0a 96 be
       0.037553605 0.06691977 0.08999536 -0.29305002
000090 c8 ae 40 ba 10 d0 c1 bd c2 c5 2e 3b 0e 7c 81 3e
       -0.0007350263 -0.09463513 0.0026668166 0.2528996
0000a0 6c fb 80 3e 5c 5a ab be a9 aa 14 bd f1 fe 91 bd
       0.2519182 -0.33467376 -0.036295567 -0.07128704
0000b0 65 3d e9 3e e9 0e 82 bc 65 25 96 be 8e 24 11 bc
       0.45554653 -0.01587625 -0.29325405 -0.008858813
0000c0 08 70 80 3d 51 78 e6 bd a6 9c 4c bc 1b 42 58 bc
       0.06271368 -0.11253417 -0.01248852 -0.0131993545
0000d0 c8 70 47 3d ed 1c e5 bd 3f de ab bc 70 48 4d 3e
       0.04869154 -0.11187158 -0.020979999 0.20047164
0000e0 88 8f 93 bd 55 0f cf 3a d2 44 78 bd ac 15 99 3d
       -0.07205111 0.0015797416 -0.060612507 0.07474837
0000f0 b6 37 73 bd ba 98 d9 bd 15 98 e8 bd da 47 84 3e
       -0.059379302 -0.106248334 -0.11357132 0.25836068
000100 09 c6 ec 3d 51 41 e1 bc 99 52 08 be 99 48 8c 3c
       0.1156121 -0.027496966 -0.13312759 0.017124461
000110 3e f4 83 bb a1 ed 85 3c 45 c9 6b ba e8 93 fd bc
       -0.0040269187 0.016348662 -0.000899453 -0.030954316
000120 ee 5b 7a 3e 78 51 53 3d dd fe f8 3c 36 a5 9c bd
       0.24449131 0.051591367 0.030394966 -0.07648699
000130 46 0d bf 3e 2b e7 bd 3e 79 30 db bc 0b 3d 06 3e
       0.37314814 0.3709043 -0.026756512 0.13109224
000140 64 40 bd bd a9 8a 16 be 0b a4 dd 3c 40 db 0d 3d
       -0.09240797 -0.14701332 0.02705576 0.03463292
000150 65 f9 1f 3e b1 57 b3 bd 72 2d c3 3d 15 de 72 bb
       0.1562248 -0.0875696 0.095301524 -0.003705864
000160 11 d5 15 be f6 40 b1 3e 82 3c 96 3e d1 04 46 bc
       -0.1463206 0.34619874 0.2934304 -0.012086109
000170 c0 bd ca bd 38 bc c3 bd d9 52 6d 3e 92 c3 0c 3e
       -0.09899473 -0.09557384 0.23176135 0.13746479
000180 12 63 f4 bd a2 98 b8 bd cf 09 20 bd e0 ba 28 3d
       -0.11932959 -0.090134874 -0.039071854 0.041193843
000190 94 14 0a 3d cc f3 d8 be 8e 92 be 3d 0c e7 c5 3d
       0.03371103 -0.42373502 0.09305297 0.09663209
0001a0 cb 30 0d bd c6 88 ef 3a 03 2e 31 bd 31 5f b3 3b
       -0.03447036 0.0018275015 -0.04325677 0.005473994
0001b0 61 43 47 be 3f ed 0f 3e 29 48 3a 3d d7 a6 09 3e
       -0.19459297 0.14055346 0.045478974 0.1344255
0001c0 c7 40 02 3e c5 c1 8d 3d 93 a9 77 be de 6c e2 3c
       0.12720023 0.06921724 -0.24185781 0.027639803
0001d0 51 c9 5b bd e2 02 12 bd 23 ae a6 be 85 4c a1 3d
       -0.053658787 -0.03564728 -0.3255473 0.07875923
0001e0 0e 1c 6b 3e 78 f3 e0 bd 03 3c 75 be 87 56 2c 3d
       0.22959921 -0.10983938 -0.23948674 0.042074706
0001f0 f1 df e2 bb 1c 4c 85 3d 33 eb 05 3d 90 61 4c bd
       -0.0069236686 0.06508657 0.032695007 -0.04989773
000200 c3 4a 59 be c5 74 27 bd c5 6f 95 be f8 80 c2 3d
       -0.21219926 -0.040882844 -0.29186836 0.09497255
000210 c5 cb c8 3d 31 96 09 be bd 32 34 3d 64 6d 3d bd
       0.09804491 -0.134362 0.0439937 -0.0462469
000220 04 6c dd 3d 99 d5 be 3d e9 87 44 3d 70 bc 7c be
       0.10811618 0.09318084 0.047981177 -0.24681258
000230 d2 cb 3b bd 6a 78 44 be 3a 87 e0 bd ae a3 c7 bb
       -0.045848675 -0.1918656 -0.109632924 -0.00609251
000240 ff 9d 28 be 63 5c d3 3d 17 06 c3 bb 0f 69 d3 bd
       -0.1646652 0.10320356 -0.0059516537 -0.10322773
000250 4d 6a d1 bd c1 4f 33 be 2a c6 82 be 33 58 6d be
       -0.102253534 -0.17510892 -0.25541812 -0.23178177
000260 a9 1a 8d bc 31 b0 8b bd c8 93 82 bd 28 fd 61 3e
       -0.017224627 -0.06820715 -0.06375843 0.22069228
000270 0a c2 ff 3d f3 9d 68 3d 86 4a 80 3d 89 6a e9 bd
       0.12488182 0.056791257 0.06264214 -0.11397273
000280 51 9a b4 bd b6 16 f6 bd f3 50 d2 3d 68 f2 5d be
       -0.08818496 -0.120160505 0.10269346 -0.21674502
000290 5e cd c1 3c 79 9a 55 be 1f 43 c8 bd 9b bb 90 be
       0.023657497 -0.20859708 -0.09778427 -0.28268132
0002a0 75 8b 65 be 0e 69 84 bd 99 ab ab be 8a e0 cc 3d
       -0.2241648 -0.0646535 -0.33529356 0.10003765
0002b0 dd be 8a bd 4a b9 89 bc a1 9e 23 bd ec 8e 70 3d
       -0.067746855 -0.016811986 -0.039946202 0.05873005
0002c0 c9 67 7f bd e8 29 8c bc 99 7b 23 3d 13 dd c7 3d
       -0.062354837 -0.017109826 0.039912794 0.097589634
0002d0 98 03 12 3e 57 79 e4 bd 2f b0 11 bd 68 44 e5 bd
       0.14259183 -0.11155956 -0.035568412 -0.11194688
0002e0 c0 d3 6e 3d de c0 74 be d0 14 b0 3c ff d5 9d be
       0.05830741 -0.23901698 0.0214943 -0.3082733
0002f0 81 d0 42 3a 42 60 94 3e 7d 5f be bd 7b 75 63 be
       0.0007431582 0.2897969 -0.09295557 -0.22212784
000300 5d a1 3e be 31 2b 06 3e b2 90 d5 3e f0 f8 7a bd
       -0.18616243 0.13102414 0.41711956 -0.06127256
000310 48 fb 99 be df 7d 7a 3d 14 56 cb 3d 23 15 f6 bd
       -0.30074525 0.061155196 0.099285275 -0.1201575
000320 11 1f 7d 3d 6c e7 2d be bb 68 90 bc 24 18 f5 3e
       0.061797205 -0.16982812 -0.017628064 0.4786998
000330 dc 5a 04 be 0f 7a b2 3e 18 f3 94 bd 15 15 11 3e
       -0.12925285 0.34858748 -0.07272929 0.14168198
000340 67 1c 97 bc 5a e6 c0 bd 63 59 3d bd da 4e e4 3d
       -0.01844616 -0.09418936 -0.046227824 0.11147852
000350 01 d6 fc bc 49 a6 e9 bc 4e 24 fd 3c 7b df 93 bc
       -0.030863764 -0.028521674 0.0309011 -0.0180509
000360 6f 77 f2 bd 1f d8 2a 3c 1d dd 6c be 86 e2 09 3d
       -0.118391864 0.010427504 -0.23131223 0.033663295
000370 71 69 2e 3c 24 84 2e bd 1c 59 70 bd 4c e8 aa 3d
       0.010645256 -0.042606488 -0.05867873 0.08345088
000380 b0 5a 89 3c a0 9c 87 3d d7 93 bf 3d 61 34 be 3d
       0.016766876 0.06621671 0.0935437 0.09287334
000390 2e 63 18 ba 40 c8 67 3d d5 b8 1b bd 84 87 e0 3e
       -0.0005813119 0.056587458 -0.038018066 0.4385339
0003a0 97 6f 5d bd ed 1c c9 3d 0e 92 a8 3e fc 4d 20 3d
       -0.0540615 0.0981997 0.3292393 0.03913687
0003b0 35 60 09 be ca 3c 71 bd f4 61 da 3e ce 5c 4a 3e
       -0.13415606 -0.058895864 0.42652857 0.19761965
0003c0 bf 3f 2e bc 74 30 82 be a5 52 bb bc 03 af b9 3d
       -0.010635315 -0.25427592 -0.022866556 0.09066584
0003d0 75 db a7 bd 08 27 4e 3d 71 b7 40 3c 2f b8 e0 bd
       -0.08196155 0.05033019 0.011762486 -0.1097263
0003e0 62 a8 94 bd d2 2e 16 3e cb 69 06 bd 4b ba 41 bd
       -0.07258679 0.14666298 -0.032815736 -0.047296803
0003f0 dc a7 df bb e6 06 76 3e 81 20 c6 3c d0 14 8b 3e
       -0.0068254303 0.24026069 0.024185421 0.27164316

encoder.4.bias f4 [50]
000000 f4 3a 89 b8 73 a7 74 bc a3 a4 c6 3b 02 9e d8 3b
       -6.54365e-05 -0.014932501 0.0060621067 0.006610633
000010 08 e2 28 bb 50 6a 23 ba 5b 73 34 bf 9e 99 f3 b9
       -0.002576949 -0.00062337983 -0.7048852 -0.00046463026
000020 db 91 b1 be e9 44 6e bc 9e ed ea bb 2d 9a 6f 3c
       -0.3468159 -0.014542797 -0.0071694395 0.014624161
000030 23 a8 91 bb 03 16 38 bb d1 77 a4 be c6 34 03 bd
       -0.0044450923 -0.0028089292 -0.32122663 -0.03203275
000040 8f 29 d3 3b f9 10 27 bb a2 27 8e bc c7 6e 26 bf
       0.006444163 -0.0025492294 -0.017352883 -0.6501278
000050 3c ce f0 bd 0c ae 44 bc 52 99 81 be 76 32 ef ba
       -0.11758086 -0.012004387 -0.25312287 -0.0018249291
000060 46 51 d4 ba 22 9c b0 bb 0f 89 37 bc 9a 0e 23 bb
       -0.0016198538 -0.005389706 -0.011202111 -0.002488053
000070 a3 7c 19 3c ac 6a 49 bb 82 25 fc bb 00 5f c3 bc
       0.009368095 -0.0030733747 -0.007694901 -0.02384901
000080 c7 9d 57 3c 6b 09 1b be 9b 54 8e be a0 cb 3c be
       0.013160176 -0.15140311 -0.27798924 -0.18437052
000090 c8 9d b3 be ff 06 54 bd 6d f4 24 bf b7 a0 72 ba
       -0.35081315 -0.051764484 -0.64435464 -0.0009255516
0000a0 e0 03 6b 3b 77 c6 3e be 6d 98 7e bc c8 5a 0b be
       0.0035860464 -0.18630396 -0.015539271 -0.13608849
0000b0 7f 4a 37 be dc a7 f0 3b 70 9b c7 be 71 81 b7 bc
       -0.17899512 0.007344229 -0.38985777 -0.02240059
0000c0 ac 18 52 ba aa a0 26 3c
       -0.00080145407 0.010170141

encoder.7.weight f4 [20, 50]
000000 8d 1d 2f 3e 32 ca 4c 3e 03 bc a9 3c 13 fc 9d be
       0.17101116 0.19999006 0.020719534 -0.3085638
000010 98 c1 17 3d be 85 4f 3d 8c 99 a0 bd f9 45 55 3f
       0.03704986 0.050664656 -0.07841787 0.83309895
000020 de 7c 79 bd 32 0b e7 3e 23 e2 48 3d 94 ce a4 be
       -0.0609101 0.4512573 0.049043786 -0.32188857
000030 83 49 d0 be 98 32 63 be 4d 47 05 be 58 5c b7 3e
       -0.40681085 -0.22187269 -0.1301548 0.3581264
000040 1a f1 dd 3c 53 d1 0f 3f c1 f9 70 be 07 18 41 bd
       0.027092505 0.5617878 -0.23532774 -0.047142055
000050 c8 17 98 bd ed 60 e5 3e 97 22 1d be 0e 39 27 3f
       -0.07426411 0.4480051 -0.15345226 0.65321434
000060 1a 0a 8a bd 54 7f 37 3f ac 66 0a 3f 52 c0 3a 3f
       -0.06740208 0.7167866 0.54062915 0.7294971
000070 22 37 7e be c1 10 c4 3b 89 eb 8b be 1a bd 09 3f
       -0.24825719 0.0059834425 -0.27328137 0.5380417
000080 89 62 0a be 74 cb 1e bc 20 21 b7 bd a7 41 63 bd
       -0.1351415 -0.009692062 -0.08941865 -0.055482533
000090 fe 3f 5c bd f8 f4 83 3c bd 99 c7 3d 99 e5 98 be
       -0.053771965 0.016108021 0.0974612 -0.2986267
0000a0 ad 72 48 be c3 32 c3 bd 99 a8 0b 3e 98 2b 3e 3e
       -0.19574995 -0.095311664 0.13638534 0.18571317
0000b0 8d 49 04 3e 88 85 af be 0d 8a ba bd 96 fe 09 3e
       0.12918682 -0.34281564 -0.09108362 0.13476023
0000c0 c7 2c ae be c4 40 a7 be 34 8d 16 3b d0 3d e3 3c
       -0.34018537 -0.326666 0.0022972347 0.027739435
0000d0 f7 68 4b bc 8c f3 24 3c 7d b1 94 3e 43 7b b6 3e
       -0.012415162 0.010067832 0.29041663 0.35640916
0000e0 93 20 6a ba 73 5a 81 3e b8 96 78 3e fd b3 ab 3e
       -0.00089312455 0.2526432 0.24276245 0.33535758
0000f0 c4 c5 ae 3e ad c7 c1 3b 7c c1 2c bb 98 10 5e bc
       0.34135258 0.005913696 -0.0026360443 -0.013553761
000100 c8 71 84 3e 34 81 4b 3d 4d b6 c3 bc d3 bb 96 3e
       0.25868058 0.049683765 -0.023890639 0.29440174
000110 a5 81 85 3a c4 98 0c 3e 86 45 b0 3d 1e 64 ee 3d
       0.0010185732 0.1373015 0.086070105 0.116401896
000120 f0 de c7 bc 0e 8b 9f 3e 16 f9 10 3d 94 c9 a9 3d
       -0.024398297 0.31160778 0.035393797 0.08290401
000130 b5 27 79 3e dd ef 18 3e d3 4c da 3b 7a 06 c9 3e
       0.24331553 0.1493525 0.00666199 0.39262754
000140 13 8b e3 bb da ee f2 3c c5 da fc 3b 02 f5 56 bd
       -0.006944069 0.029654909 0.007716509 -0.05247975
000150 ba 8f 8f 3e fe 81 3c bd b7 5b 68 3e b7 53 b9 bb
       0.28039342 -0.046022408 0.22691236 -0.0056557315
000160 9a 70 2a 3e 0e 43 2d bb f0 39 65 3c de 92 e9 3d
       0.16644517 -0.0026437673 0.013990864 0.11404966
000170 7b de f8 ba 67 7a b3 3e da 2f 0a bd 8a 3f ab 3b
       -0.0018987203 0.35054323 -0.03373704 0.0052260803
000180 9a 11 8a 3e 62 a2 e1 3c a9 62 65 b9 55 79 8a 3b
       0.26966554 0.02754325 -0.00021875896 0.0042258897
000190 71 87 05 3f 97 71 86 3e 93 9b c2 be 70 27 b6 3e
       0.5215979 0.26258537 -0.3800932 0.35576963
0001a0 31 c4 26 be e1 54 97 be dd f8 7a be 5e 30 b7 bd
       -0.16285779 -0.29556945 -0.24508996 -0.08944772
0001b0 98 57 46 be 1e f3 86 be 85 52 cb be bc 19 a6 bb
       -0.19369352 -0.2635736 -0.39711395 -0.0050689857
0001c0 0d 16 0b 3c 71 60 af bd 5f 93 a7 3c c3 cb 6b be
       0.008489144 -0.085633166 0.020456014 -0.23026948
0001d0 90 8f 95 be 78 e8 2b be a5 60 3e 3d 74 76 27 be
       -0.29211092 -0.16787899 0.046478886 -0.1635378
0001e0 22 d5 93 be 40 b3 b8 bd bb 1a 11 bf d8 7a 29 be
       -0.28873545 -0.09018564 -0.5668141 -0.16550767
0001f0 51 98 b9 bd 9e 4a 67 bd eb dd e6 bc 87 2b 2d be
       -0.09062255 -0.056467645 -0.02818199 -0.16911136
000200 26 fe b1 3e 53 41 23 be 0c de 42 3c de 37 ff bd
       0.34764212 -0.15942888 0.01189376 -0.12461828
000210 49 ed 09 3e 04 27 e5 3d a7 e6 77 be 10 e4 a9 3c
       0.13469423 0.11189082 -0.2420908 0.020738631
000220 c9 79 af be 9a 6b c6 3d 9c 93 59 be 74 2f bd 3c
       -0.34272602 0.09688492 -0.21247715 0.023093916
000230 b6 15 da 3e 62 c8 3d 3d 18 e7 9a be da 1c f6 be
       0.4259469 0.046333678 -0.30254436 -0.48068887
000240 51 37 02 3e 7e f1 ec 3d 6c b2 5d 3b 70 06 09 3f
       0.12716414 0.115694985 0.0033828272 0.5352545
000250 1f 2b 4f 3c 69 b0 8a 3e 40 71 a1 3c 9d 61 a7 3d
       0.012644558 0.27087715 0.019707322 0.08172915
000260 6c 49 fc bd 21 88 6d 3c d8 3e 91 3a 17 e2 ad bc
       -0.123186916 0.014497788 0.0011081351 -0.021225972
000270 51 ca 88 bd d3 38 26 3e b3 8f 23 be 29 ee 05 3f
       -0.06679214 0.16232614 -0.15972786 0.5231653
000280 00 c5 09 3d 61 de 57 3b 80 37 5b 3e 81 a1 91 3e
       0.03363514 0.0032938945 0.2140789 0.2844353
000290 f3 db 1d 3d 9a 55 5c bd 9d ae 9f bd 80 85 4b 3e
       0.038539838 -0.053792574 -0.07796977 0.19875145
0002a0 3b 12 a0 3e 26 51 55 be 4f 66 2c 3b fe 34 5c 3e
       0.3126391 -0.20831737 0.0026306098 0.2150459
0002b0 6a 09 a3 3e dd 0f 5f 3e 78 c2 4d 3e d7 ab 8e 3e
       0.3184312 0.21783395 0.20093715 0.27865478
0002c0 b3 a0 b0 3e 2a 4f 67 3e 9f a8 b8 3b 27 b5 85 3c
       0.34497604 0.22588792 0.0056353356 0.016321732
0002d0 bb 6e aa 3e 42 ed 26 3d 02 8e 5f 3c 0a 5f ed 3c
       0.33287606 0.04075361 0.013644697 0.028975982
0002e0 6f 43 aa 3e ce 59 8c bd 63 5c 43 bd 4f e3 e7 3e
       0.33254573 -0.068530664 -0.04769553 0.4529061
0002f0 f9 d9 85 bd 83 a3 13 3e 62 c2 c0 3b 62 3a 4e bd
       -0.065357156 0.14417844 0.0058825472 -0.050348647
000300 54 76 e0 3c 97 ad e4 3e bd e5 06 3e 04 7b 45 3c
       0.027400173 0.4466369 0.13173576 0.012053255
000310 eb 2a b8 bd e6 90 e9 3c 59 d5 fb 3d 99 91 33 3c
       -0.08992561 0.028511476 0.12296552 0.010960006
000320 3e ec 9e be 58 4b 03 3d de e7 fa bd e8 d9 8d be
       -0.31039613 0.032054275 -0.122512564 -0.27705312
000330 14 ee 7d bc b0 84 d8 bd d3 54 0a be 35 91 5e bd
       -0.015498657 -0.10572183 -0.1350892 -0.0543377
000340 e3 36 78 be 43 7f 69 3d 3c 5a b9 3c 34 71 86 bc
       -0.24239688 0.05700613 0.022626035 -0.016411401
000350 34 5a 87 3e 48 30 a9 3e ba 01 77 3b 7b dd 41 be
       0.26436007 0.33044648 0.0037690238 -0.18932144
000360 d7 e3 04 be bd d1 b1 bc 80 71 4d 3e 7f 85 67 be
       -0.12977539 -0.021706456 0.20062828 -0.22609518
000370 28 68 ef bb 1c 66 31 be 6f 48 d1 3e 58 a1 3d bc
       -0.0073061176 -0.17324108 0.40875575 -0.011574112
000380 a4 ee ca 3e a0 e4 1f bd 6e ab d4 bc 05 36 88 3b
       0.39635193 -0.039036393 -0.02596065 0.0041568303
000390 31 e7 df bd 5d dd ef 3c ae 72 4b 3e 83 2b f7 bd
       -0.10932768 0.029280359 0.19867966 -0.12068846
0003a0 69 da 9e bd 96 2a 66 bd 3a 5a a1 3d 21 64 11 bd
       -0.07756502 -0.056192957 0.078785375 -0.03549588
0003b0 81 d3 c5 bd 74 e7 bd 3e e9 f9 6e bd 5c 61 83 3e
       -0.09659482 0.37090647 -0.0583438 0.25660217
0003c0 98 25 3a be 85 35 05 3e a2 09 57 3e 79 1a 71 3e
       -0.18178403 0.13008697 0.20999768 0.23545255
0003d0 a2 56 67 3d bc 1c 04 be 93 f2 53 3d b3 b2 8c be
       0.056479104 -0.12901586 0.05174501 -0.27480087
0003e0 22 b8 96 3e 6c 00 37 be 02 78 93 be 05 1a 9c be
       0.29437357 -0.17871255 -0.28802496 -0.304886
0003f0 bf c5 12 3e a1 1f 8e be 20 f1 e9 3e 99 8f a3 3e
       0.14333247 -0.27758506 0.45691776 0.31945494

encoder.7.bias f4 [20]
000000 f0 4e bc 3b 86 1f 8f bb 92 5a d5 bb 6c df 15 ba
       0.005746715 -0.0043677716 -0.006511041 -0.00057171914
000010 06 d2 1e bc 29 26 bc 3b 0d 79 af be d7 7a 9c bf
       -0.009693628 0.0057418537 -0.34272042 -1.2224988
000020 71 6a a3 3b f8 df dd bb 44 10 54 be 6e 1c 32 3b
       0.004987054 -0.006771084 -0.2070933 0.002717759
000030 d5 13 d9 be 74 f8 94 ba 67 5d a8 bb 4e eb b9 3a
       -0.42397943 -0.0011365549 -0.0051380876 0.0014184506
000040 8b 08 cd ba ae 91 19 3a 0e 5c 1c bb 1c 82 06 bf
       -0.0015642805 0.0005858195 -0.002385858 -0.5254228

encoder.10.weight f4 [4, 20]
000000 61 50 60 3f b2 2e 57 3e b5 79 4f bf 15 ed 8f be
       0.8762265 0.21013907 -0.81045085 -0.28110567
000010 37 4d ef be 28 88 c2 3e e1 60 3e 3f 75 c4 af 3f
       -0.46738598 0.37994504 0.74366575 1.3731829
000020 96 ba 45 3f a5 86 13 bf 74 68 36 be 7b 7f a7 3e
       0.7723783 -0.57627326 -0.17813283 0.32714447
000030 68 90 cd 3e 2d a5 83 3f db 32 f2 be 2d 47 86 3f
       0.40149236 1.0284783 -0.47304425 1.0490471
000040 a3 02 7b be 58 2d 98 be 99 83 c7 be c6 fa 79 3f
       -0.24512725 -0.29722095 -0.3896759 0.97648275
000050 57 15 ec be b7 93 42 bf 40 45 29 bf 55 91 ea 3c
       -0.4611003 -0.76006645 -0.6612129 0.028633753
000060 46 08 46 3f fd 41 05 bf 58 63 99 bd 0f 03 13 3f
       0.77356374 -0.52053815 -0.074896514 0.5742654
000070 e2 c7 d0 be 33 b5 fc be 07 b9 e1 bd aa 89 10 bf
       -0.40777498 -0.49356994 -0.11021619 -0.5646006
000080 b8 60 d8 bd b6 f2 fb be 19 f7 4d 3f 1f 69 00 bf
       -0.10565323 -0.4920861 0.80455166 -0.501604
000090 b9 2b fe bd 28 d3 a1 3e e0 e2 12 3f fc e9 01 3c
       -0.12410683 0.31606412 0.57377434 0.007929321
0000a0 2e 06 56 bf 72 51 06 3e 54 c3 04 3f 91 34 aa bd
       -0.8360318 0.13117006 0.5186055 -0.083108075
0000b0 5a 9e 20 3f 77 50 22 3f c7 3f 7c 3e d3 cd e7 bc
       0.62741625 0.6340403 0.24633704 -0.028296387
0000c0 da aa 42 bf eb d1 de 3e 5c 0b 43 be c5 28 04 3f
       -0.7604195 0.4351953 -0.19047302 0.5162471
0000d0 ac 9c d3 3e 3c 55 78 bf 37 24 26 3f f6 6e 7a bf
       0.4133047 -0.9700506 0.6489901 -0.9782556
0000e0 66 42 21 be 1a 0e 4b 3e 66 11 e4 3e aa c0 2c bd
       -0.15747985 0.19829598 0.44544524 -0.042175926
0000f0 b4 7f 16 3f 36 4e 6f be 95 d0 0c 3f 11 f3 04 bf
       0.5878861 -0.23369679 0.5500577 -0.5193339
000100 6d fb e0 be 17 5f a2 3c 19 b2 43 be ed 17 f5 be
       -0.43941823 0.019820733 -0.19110908 -0.47869816
000110 3d 06 f9 3e fe db bf 3e b0 42 14 be 4e fe 48 bd
       0.48637572 0.37472528 -0.14478564 -0.04907065
000120 d0 fe bd be 3e 46 36 3f 12 ec e6 be 89 be 3a 3f
       -0.3710847 0.7120093 -0.45101982 0.72946984
000130 00 77 01 bf 25 68 cd be 36 8c d7 be 8f 80 96 be
       -0.50572205 -0.40118518 -0.4209916 -0.29394957

encoder.10.bias f4 [4]
000000 35 03 84 be 56 3e 8d be 62 cb 96 3e 1f 59 a1 3e
       -0.25783697 -0.2758662 0.29452044 0.31513306

decoder.0.weight f4 [20, 4]
000000 83 00 69 be 7b 78 14 3f a4 79 4d 3f 84 61 d6 3f
       -0.22754101 0.5799634 0.80263734 1.674851
000010 f0 c6 14 3f 06 6a ad be 5c 42 28 bf bc 80 1f 3f
       0.58116055 -0.33869952 -0.65726256 0.6230581
000020 f7 d3 a1 be 3c c4 7c bc 35 b2 6b 3f 3c 19 fc 3e
       -0.3160703 -0.015427645 0.920688 0.49238002
000030 4b f0 80 bd f7 2e 84 bf da 9c 70 bf 48 17 4c 3f
       -0.06295832 -1.0326833 -0.93989336 0.79723024
000040 0b 38 40 3d 5c e0 ac 3e 6b 43 0c 3f 23 49 64 3f
       0.046928447 0.33764923 0.5479037 0.891741
000050 ef b2 2a 3f de 3b 18 bf 03 c6 bb 3e ad 80 79 bf
       0.6667928 -0.5946635 0.36674508 -0.9746197
000060 af ee b0 3f 07 3b f7 bd 1f c8 18 3f 06 d3 49 bf
       1.382284 -0.120718054 0.5968036 -0.7883762
000070 b9 44 ec 3e 0a fd dc be 5c 24 10 bf 42 cf f9 be
       0.4614618 -0.43161803 -0.5630548 -0.48790938
000080 56 6c 3a be 6e 8c 40 3f 10 97 cf be 68 63 1f bf
       -0.1820539 0.7521428 -0.4054494 -0.62261057
000090 c1 e7 81 3e a6 42 16 3f 56 c2 71 3e b1 3b 01 bf
       0.25372127 0.5869545 0.2360929 -0.50481707
0000a0 bc 3e 25 be b1 5c 88 3e 1f d7 c3 3e 0b e4 49 be
       -0.16137213 0.26633218 0.38250062 -0.19715898
0000b0 c1 46 dc bf 98 62 4a 3f d4 78 4b bf 63 93 4c 3f
       -1.7209092 0.7905669 -0.79481244 0.79912394
0000c0 0a c2 fe 3c 14 c5 85 bf f2 29 03 bf 74 82 cf 3e
       0.031098384 -1.0450768 -0.5123588 0.40529215
0000d0 87 f2 00 3f a3 9e dd 3e ad 30 e7 3d 71 b5 8b 3c
       0.5037007 0.43285093 0.11288581 0.017054291
0000e0 43 ce 08 3c 5e 26 b9 be d8 95 e0 be b6 80 38 be
       0.008349958 -0.36162084 -0.43864322 -0.1801785
0000f0 3b 47 f5 3e e5 bd 0c bf 91 77 1e 3f 37 2f 13 bf
       0.47905907 -0.54977256 0.61901194 -0.5749392
000100 01 b0 8f bf 04 94 7b be 9f ee 80 3e 70 58 07 bf
       -1.1225587 -0.24568182 0.25182053 -0.5286932
000110 38 97 94 bf f3 f9 ba be 1c ad 24 3f 31 c9 3c bd
       -1.1608648 -0.3651882 0.64326644 -0.04609031
000120 c2 aa 0b bf ff 5b 31 3f c6 1b 55 3c 75 c1 d0 bd
       -0.5455743 0.69281 0.01300711 -0.10193149
000130 57 9e 83 3e bb 93 b4 be e1 92 3b bd 3d 7f b3 be
       0.2570674 -0.3526896 -0.04579437 -0.35058013

decoder.0.bias f4 [20]
000000 56 4e 35 bf 80 d6 e3 3d 16 e6 a9 be 2f b6 80 3d
       -0.70822656 0.11124897 -0.33183354 0.06284749
000010 dd 09 6b be 49 f9 4c 3e 4c 7d fe 3d 48 b3 9c 3e
       -0.22952981 0.2001697 0.12426242 0.3060553
000020 18 7b f9 bd 24 95 f7 3e a7 53 39 3e 47 7d 4f be
       -0.121816814 0.48355973 0.18098317 -0.20262633
000030 2a a1 82 bd dc d0 d3 be 94 f8 f2 be 42 cc 28 bd
       -0.06378396 -0.41370285 -0.47455275 -0.04121042
000040 8b e8 76 be d3 58 9c be 8c da 8a 3e 3d 4b 1e 3e
       -0.24112146 -0.30536518 0.27119863 0.15458389

decoder.2.weight f4 [50, 20]
000000 d9 d8 b3 3e a9 fa e1 be 52 5d 4a be 6a b9 a1 be
       0.3512638 -0.4413655 -0.19762161 -0.31586772
000010 24 18 63 3c 68 be 32 3e ca 91 54 3d 62 a8 27 3e
       0.013860736 0.17455447 0.051896848 0.16372827
000020 7c a3 48 3e eb d3 47 3e d9 20 cd 3c 76 17 7c 3d
       0.19593614 0.19514434 0.025040077 0.06154581
000030 3a f2 68 be 77 63 b0 3d d5 85 5c 3e 5b 8a c3 3e
       -0.22748652 0.086127214 0.21535428 0.38191494
000040 e6 43 f9 3d 40 d3 3a 3e bf c3 a5 3d 3c f4 fa bd
       0.12171154 0.18244648 0.08093976 -0.12253615
000050 5c be 0f be b2 40 74 bd 1a 71 dc bb ca 31 9e 3d
       -0.1403746 -0.05963201 -0.00672735 0.0772434
000060 52 b2 11 be f2 7e 20 be 41 ed 65 3e 64 e1 11 3c
       -0.1422818 -0.15673426 0.22453786 0.008903835
000070 31 56 57 be 1f 7f 1c be 30 70 c7 3d 30 4b 8f 3d
       -0.21028973 -0.15282868 0.09738195 0.06996763
000080 49 6e ec 3d dd b4 1b be 7d 55 b0 bd 1b fd 67 3d
       0.11544473 -0.15205713 -0.086100556 0.056637865
000090 fc 8a 85 3c 19 16 61 3e c7 d3 5e be 97 74 22 3e
       0.016301624 0.21981086 -0.21760474 0.15864788
0000a0 68 49 0a be e9 bb 41 3e 5b f8 37 3e a0 25 ad bc
       -0.13504565 0.18919338 0.17965834 -0.021136105
0000b0 47 d1 b6 bb 6b cd 35 3e 55 08 17 3e 64 6d 15 bd
       -0.005579147 0.17754142 0.14749272 -0.036481276
0000c0 88 0a de bd be 39 0e 3e c3 00 39 bd 97 8c 27 bd
       -0.108418524 0.13889214 -0.045166742 -0.04090556
0000d0 6f 6e 07 3e ba 46 4b 3d e8 46 a0 bd 58 59 45 3e
       0.13225721 0.049627997 -0.07826024 0.19272363
0000e0 a2 07 51 3c c7 4f f0 bd 45 3b 76 bd 65 17 65 3d
       0.012758167 -0.11733966 -0.060115118 0.055930514
0000f0 fe 49 ce bd 8e 64 03 3e df 63 84 bd 42 08 ab bd
       -0.10072707 0.12831327 -0.064643614 -0.083511844
000100 f6 b6 70 be 52 bf ce bc c2 5b 2c 3e 88 d5 81 3e
       -0.23507294 -0.025237713 0.16831878 0.25358224
000110 27 33 e0 3c 1c 56 d9 3c 47 96 ec bc 59 78 26 3e
       0.027368141 0.026530318 -0.028880252 0.16256846
000120 51 b2 09 3d 49 b5 a7 bd ef 18 61 be 3a f8 70 3d
       0.03361732 -0.08188874 -0.21982168 0.058830477
000130 45 3b e8 3d 12 cb 68 3c 39 c8 b3 3d 66 54 99 bd
       0.1133943 0.014208572 0.08778424 -0.07486801
000140 3e 3d f1 be c7 69 9c be 0c 41 24 3e fd 9e b0 3d
       -0.47117037 -0.30549452 0.16040438 0.086240746
000150 10 d9 70 be ac f8 ec bc d7 4f 96 3e 63 41 5b be
       -0.23520303 -0.02892717 0.29357788 -0.21411662
000160 a3 fd 9a bd 64 67 62 be ed b2 ea bd f3 54 64 3e
       -0.075679086 -0.22109753 -0.11459909 0.2229803
000170 31 19 8c 3e fc 89 0a be 97 33 cd bd b3 0c a6 3e
       0.2736297 -0.135292 -0.100196056 0.32431564
000180 20 44 5c 3e 70 a9 2e 3e b4 86 2c 3e e3 a1 13 3e
       0.21510363 0.17056823 0.1684826 0.14417224
000190 35 1a 1e 3e e8 75 85 3e 00 c6 84 3e e9 df 07 be
       0.15439685 0.26066518 0.25932312 -0.13269009
0001a0 ef c1 8a 3e f5 68 9e 3e 5b 85 7c 3e 8e 3c ff be
       0.27101085 0.3093945 0.24660246 -0.49850887
0001b0 91 10 21 3e 4f 19 5d 3e aa be ee bd f0 b2 89 be
       0.15728976 0.21591686 -0.1165746 -0.2689433
0001c0 b4 0c bf bd 0f 97 33 be 2c 3f 04 3e 6b 15 0c 3e
       -0.09328595 -0.17538093 0.12914723 0.13680045
0001d0 4c 03 a7 3b 88 de d7 be cd af 94 3d 6c cf b1 3c
       0.0050968286 -0.42161965 0.07260094 0.021705352
0001e0 04 d5 54 3e f9 ad 4b be 6d 25 38 3d 36 68 0d bd
       0.20784384 -0.19890584 0.044957567 -0.03452321
0001f0 8d 99 fb 3d 12 3f 52 3e be c9 43 3c 8d e0 b6 bd
       0.12285147 0.20531872 0.011949955 -0.089295484
000200 d5 5f d9 bd 0f 6c 66 3e 44 cb 54 bd 66 34 08 3e
       -0.10613982 0.22502159 -0.05195166 0.13301238
000210 81 55 c8 bd b3 5b 63 be ca 82 53 be bc 01 06 3e
       -0.097819336 -0.22202949 -0.20655361 0.13086599
000220 ed e0 50 be 37 00 3b bd ca 21 1e bc 9e 12 f8 bd
       -0.20398302 -0.0456545 -0.009651611 -0.12112926
000230 de 8f ed bd ba e4 ac bd 68 61 de bd 0e 46 19 bd
       -0.11599706 -0.08442064 -0.108584225 -0.037420325
000240 93 8a 24 be 8a 58 02 3b 56 2f 82 3e 94 b6 53 3d
       -0.16068487 0.00198892 0.2542674 0.051687792
000250 79 72 1c 3e f0 b9 21 3e f6 94 54 bd 96 d0 1a 3e
       0.15278043 0.15793586 -0.051899873 0.15118632
000260 5e 45 82 3d 51 56 28 be 8b 8c 13 be 39 8d 5e bc
       0.06360887 -0.16439177 -0.14409082 -0.013583475
000270 17 f6 e5 3d c2 2d 9c 3d 55 23 86 be 5d 22 be bc
       0.112285785 0.07625915 -0.2619883 -0.023209745
000280 c6 5f e1 3e 74 1e 8c 3e 44 fe 89 3e 05 c0 78 be
       0.44018382 0.27366984 0.26951802 -0.24292
000290 fa 5c bc 3e 1e 46 e5 3d 29 bf 81 3e e3 b6 a3 be
       0.36789685 0.111950144 0.25341156 -0.3197547
0002a0 32 92 9e 3d 11 f2 d3 3d b7 e5 17 3e 07 f7 74 3d
       0.07742728 0.10348905 0.14833723 0.059805896
0002b0 f6 cb 8e bd 3c 67 a7 3c da 1e 25 be 95 39 98 be
       -0.06972496 0.020434968 -0.1612505 -0.29731432
0002c0 4a 32 18 be 22 81 8c bd ca e1 0b 3d 3a ac 81 3d
       -0.14862934 -0.06860568 0.034150876 0.06331678
0002d0 65 a4 63 3e db 64 c1 bc 45 e0 74 3e dd e9 d6 3d
       0.2223068 -0.023607662 0.23913677 0.10493825
0002e0 ca 0b 23 bc 3b 89 88 be 05 b0 e0 bd 89 68 e4 bd
       -0.009951541 -0.266672 -0.10971073 -0.11152751
0002f0 e9 5f f7 bd f8 e1 de 3d d5 47 1a 3e 02 83 4c 3e
       -0.1207884 0.10882944 0.15066464 0.1997185
000300 fe cf 34 bd ff 09 ea bd 94 ea e2 3d 5e ae 87 be
       -0.04414367 -0.11427688 0.110798985 -0.2650022
000310 c8 3b 54 be 1a 6a 19 3e a6 28 3b 3e c9 51 0e 3e
       -0.2072593 0.14981881 0.18277225 0.13898386
000320 3e 06 5e bd 9a 57 35 3e 77 de ba bd 4f 5f 03 bd
       -0.05420517 0.17709199 -0.09124463 -0.032073315
000330 94 28 4f 3e d6 97 4f 3e 45 af 7f 3e 77 c3 04 3e
       0.20230323 0.20272765 0.24969204 0.12965189
000340 13 1d 18 3e 7c 4a 60 bd 1f c7 8c 3d dd 04 be 3d
       0.14854841 -0.054758534 0.06873917 0.09278271
000350 ff 7b 1d be b1 d8 0e bd 48 6c 94 3d 66 a1 48 be
       -0.15379332 -0.03487462 0.072472155 -0.19592819
000360 7f bc 80 3e 63 bf 23 be dc 99 69 3e 21 15 10 bd
       0.2514381 -0.15990977 0.22812599 -0.0351764
000370 0e 7b 3b 3e 7c e4 c5 3d 48 45 08 3d 73 95 29 3e
       0.1830866 0.096627206 0.033269197 0.16560917
000380 1f 5b e5 bd 25 4a 1c be ac 2b 64 be b8 ea 44 3e
       -0.111990206 -0.15262659 -0.22282284 0.19230163
000390 dd 53 a7 bd 1e 2c 35 be da a3 7c be ae 97 5e be
       -0.081702925 -0.1769261 -0.2467188 -0.21737549
0003a0 64 e2 1f 3d 8e 2d bd bd f0 01 7c bd 1b 37 63 be
       0.039034262 -0.092372045 -0.061525285 -0.2218899
0003b0 8f 5f 13 be 17 74 fb 3c cc db 3f bd a9 a4 ba 3d
       -0.14391921 0.030695004 -0.046840474 0.09113438
0003c0 83 72 0b bd d6 3d 76 3e 3c 0e 06 bd 06 ab b8 3e
       -0.034044754 0.24047026 -0.03272842 0.3606798
0003d0 66 03 d2 bb 1e 58 10 bd bc 4f bb bc 64 44 eb 3b
       -0.0064090965 -0.035240285 -0.022865169 0.0071797837
0003e0 ee 1d 2c 3e 6f 81 85 3e dc a0 24 3e 84 25 aa be
       0.16808292 0.26075312 0.16076988 -0.33231747
0003f0 5e 72 aa 3e fe 1a dd bd db 2e fb 3d f6 2b 84 3d
       0.3329038 -0.10796164 0.12264796 0.064536974

decoder.2.bias f4 [50]
000000 3c aa 82 3e e6 69 b4 bd a9 f5 0a 3d 9f 95 fc 3d
       0.25520504 -0.08809261 0.033925686 0.123332255
000010 df 1b a5 3d 18 ff 38 3e 51 f6 fb bd ab 60 1f 3e
       0.080619566 0.1806606 -0.123028405 0.1556422
000020 13 89 35 3e 37 e0 41 be d2 3b 79 3d 74 a0 fe bd
       0.17728071 -0.18933187 0.060848065 -0.12432948
000030 d1 73 20 be 09 92 88 be 6e a7 43 be 6b 62 ac bd
       -0.1566918 -0.26673916 -0.19106838 -0.08417209
000040 ea 62 a4 be 51 bd f7 3c 04 d8 9e bd e7 b2 be bd
       -0.32106715 0.03024164 -0.077560455 -0.09311467
000050 89 29 1e 3e e5 3d 55 3c 19 df bf bd bc 29 ba ba
       0.15445532 0.013015245 -0.093687244 -0.0014203112
000060 dd 76 3a 3e 63 d3 d9 3d 1d b4 5c be 4e eb 80 be
       0.18209405 0.10636022 -0.21553083 -0.25179523
000070 e7 12 1d 3e bd 7e 04 be 53 b8 48 be 47 46 50 3d
       0.15339242 -0.12938972 -0.19601564 0.05084827
000080 a7 42 b7 3d ca c5 9f 3c 56 39 46 be 0c 29 86 bd
       0.0894826 0.019503493 -0.1935781 -0.06550798
000090 d1 4d a3 be 75 9d be 3b fc f9 ee 3d 13 aa 1a be
       -0.31895307 0.00581711 0.116687745 -0.1510394
0000a0 1e 64 13 be f2 97 aa bd a7 69 04 be 3f a0 48 be
       -0.1439366 -0.083297625 -0.12930928 -0.19592379
0000b0 bc 89 d1 3e 10 60 d4 3d ca 5c 48 3d 87 f7 ea bd
       0.40925395 0.10369885 0.048916616 -0.11472993
0000c0 37 1a c3 bd cf 60 3d be
       -0.095264845 -0.18493961

decoder.4.weight f4 [50, 50]
000000 33 05 35 3d 7a 4d 07 be 39 64 a3 bd 1f 4f 67 bd
       0.04419441 -0.13213149 -0.079781 -0.05647194
000010 c5 ab 93 3c 90 96 58 bd 29 b0 c9 bd 2c 4a 0f bd
       0.018026242 -0.052877963 -0.09848053 -0.034982845
000020 69 30 80 bd ff 0e c7 3c df 2f 8b 3d f2 be 03 3c
       -0.062592335 0.024299143 0.0679624 0.00804113
000030 2d 93 d6 bd fa 50 d5 bd 05 69 fe 3d 4b b5 81 bd
       -0.1047729 -0.10415836 0.12422375 -0.06333407
000040 f6 ea 38 3c f5 4f a1 bd 92 63 0e 3c 63 4d ab bc
       0.011286488 -0.07876579 0.008690732 -0.020910924
000050 5d 1b d0 bd 9b 18 ad bd f0 19 d2 bd 08 23 c0 3d
       -0.10161469 -0.08451959 -0.102588534 0.09381682
000060 bc b4 af bd 82 a7 09 3e c7 e6 0c be 23 bd 77 bd
       -0.08579394 0.13442805 -0.1375991 -0.06048311
000070 9b ea f2 bd 91 a8 e2 bd 5c 76 00 3e f9 9f ce 3d
       -0.11861154 -0.11067308 0.1254515 0.10089106
000080 b0 8e 22 3d ac 9c 1c bb b5 e6 05 be f9 b6 e4 bd
       0.03968686 -0.0023897095 -0.13076289 -0.11167712
000090 93 3d ec 3c a8 3d 67 bd 57 c5 0b be b9 60 19 3d
       0.028837955 -0.056455284 -0.13649498 0.037445758
0000a0 de 2a bb 3c c1 11 af bd d2 d9 91 3c 13 28 9a bd
       0.02284759 -0.08548308 0.01780406 -0.07527175
0000b0 6b 9d a6 bd d3 6f 04 3e ad 23 f6 3d 78 f6 05 bc
       -0.08135494 0.12933283 0.12018523 -0.0081764385
0000c0 53 46 9e bd 0d a9 b7 bd 3e 70 20 be fe 5a d0 bd
       -0.07728257 -0.08967791 -0.15667817 -0.101736054
0000d0 3f 9e e7 3c c6 9a 07 bc 34 58 63 bd d5 d0 29 3e
       0.0282737 -0.008276647 -0.05550404 0.1658357
0000e0 61 67 0b 3c ce 58 72 bd 11 7b 2c 3e ef 34 14 3d
       0.008508534 -0.059166722 0.16843821 0.036183294
0000f0 96 5f 05 3e 04 37 dc 3d 47 3c 17 3e 89 2a 04 3e
       0.13024744 0.10752681 0.14769088 0.12906851
000100 6d 1a bb be 69 41 36 bd 45 43 6e 3e d4 4d a5 3c
       -0.365436 -0.044495974 0.23267849 0.020178713
000110 6b df a3 3d 01 c2 8e 3c ee fb 0c be f5 54 f4 3d
       0.08001598 0.017426493 -0.13767979 0.11930267
000120 85 a0 3c bc ee 1b dc 3d 22 60 ca 3d d5 e9 60 3e
       -0.01151288 0.10747515 0.09881617 0.219642
000130 23 b6 2f 3e 38 eb 0c be 8f 22 83 3e 06 35 7f bc
       0.17159323 -0.13761604 0.25612304 -0.015576607
000140 59 83 08 be 62 55 c5 bd 1a 6f dd bd 18 af 05 3e
       -0.13331355 -0.09635426 -0.108122066 0.13055074
000150 8a de 31 3e 3a ca 09 bc 3b 1f 2b 3d 73 49 0c 3e
       0.17370048 -0.008410031 0.04177783 0.13699894
000160 3a 29 08 be 3b e4 16 3e 23 51 18 be 97 7a 47 be
       -0.13296977 0.147355 -0.14874701 -0.19480358
000170 29 b1 75 bd a0 b8 f9 3d 85 86 4f 3e 81 4b 20 bd
       -0.059983406 0.121934175 0.20266159 -0.039134506
000180 85 dd 14 bd d4 ac df 3d 08 ff 2f bd e1 2f 9d 3e
       -0.03634407 0.10921636 -0.042967826 0.3070059
000190 fd 22 91 3e 3c 97 2c be 10 57 b1 bd a9 e3 cc bd
       0.28347006 -0.16854566 -0.08659184 -0.1000436
0001a0 ec 90 f5 3d ba 46 57 3d 99 8b e9 bd 47 65 9a bd
       0.11990532 0.052557684 -0.11403579 -0.07538848
0001b0 fa eb 4f 3d da 36 86 bd 7c 6e b5 bd 6a ba ef 3c
       0.050762154 -0.06553431 -0.08858964 0.029263694
0001c0 79 a8 53 be 9e 8e 31 3d 27 1b 79 3e 67 6b ee bc
       -0.20669736 0.0433489 0.24326764 -0.029103948
0001d0 47 16 b5 3d 4e 9b e2 bd 89 5b df bb 25 82 88 bd
       0.0884214 -0.11064778 -0.0068163318 -0.06665448
0001e0 29 40 93 3d 64 43 81 bd 1f 54 cf bd 4b d5 88 bd
       0.07189972 -0.06311682 -0.10123467 -0.066813074
0001f0 61 89 f7 3c 93 1e c9 bc 5e c8 dc 3c cd 4a 65 bd
       0.030216875 -0.024550712 0.026951011 -0.05597954
000200 03 52 b6 bc 61 a1 fa bd 99 13 eb 3c 2c 5e dc bd
       -0.022255903 -0.12237812 0.028695868 -0.10760149
000210 68 e3 c2 3c 5e 52 fb 3d 0e b2 db bd 8b b3 b4 3c
       0.023790076 0.1227157 -0.107273206 0.022058269
000220 77 9a bc 3d d8 b4 02 3e cc 86 f1 bd 8a 9c ab 3c
       0.09209149 0.12764299 -0.117932886 0.020948667
000230 85 25 1c 3d 13 2c 5c 3d 48 bb cc 3d 7f 2b e2 3c
       0.03812172 0.05375297 0.099966586 0.027608631
000240 38 53 97 3e 00 22 fc bd 8f f6 3f 3d 42 bf 59 be
       0.29555678 -0.123111725 0.046865996 -0.21264365
000250 2b 91 57 bb 99 88 ab 3e b0 c7 94 bd 4b c0 d5 bd
       -0.0032892923 0.33502653 -0.0726465 -0.104370676
000260 8a ad 43 bd d6 b7 3b 3e a0 da fb bd bc 61 66 be
       -0.04777292 0.18331847 -0.12297559 -0.2249822
000270 9e 02 e6 3d ea 23 a7 bc d8 90 be 3c 48 f2 a4 3d
       0.11230968 -0.020402867 0.023262426 0.08054024
000280 aa f6 22 3c 1e f9 af bd e4 55 06 be af fd cc 3e
       0.009946505 -0.08592437 -0.13118702 0.40037295
000290 c3 a4 f6 bd a5 51 8d be ef 6a 42 bd 02 78 2d bd
       -0.120431446 -0.27601352 -0.04746526 -0.042350776
0002a0 3f 09 98 bb 99 26 06 3e 34 5c ad 3e b5 9a b0 3d
       -0.004639774 0.13100661 0.33859408 0.08623258
0002b0 05 2f 5b bd ac ea 86 3d 3c 34 1b 3e a2 51 23 bd
       -0.05351164 0.06587729 0.15156645 -0.039872773
0002c0 80 fa 20 be 4c eb 8a 3c 50 4b b4 3d 71 73 52 3d
       -0.15720558 0.016957901 0.08803427 0.051379625
0002d0 9c 4b f7 bd 95 6e 80 3e 3f ae ce bd 18 76 a5 bc
       -0.12074968 0.25084367 -0.100918286 -0.020197913
0002e0 8e 48 7e 3c 88 33 80 bd 98 b0 90 3e 95 ac 8a bb
       0.015520228 -0.06259829 0.2825973 -0.004231999
0002f0 ca 54 cc 3b 47 99 93 3d 57 2f c1 3d dc ed a0 3e
       0.0062356936 0.0720697 0.094328575 0.31431472
000300 c4 46 18 3d d2 08 d8 3d 44 a2 6a 3e b9 d7 9b 3c
       0.037176862 0.10548557 0.22913462 0.019023763
000310 f0 81 8f 3e 91 17 60 be e9 25 e6 3d e1 6a a1 be
       0.28028822 -0.2188399 0.112376995 -0.31526855
000320 eb b5 2a 3e 50 ff 25 bd d6 8b fa 3c 84 70 6c 3a
       0.16670959 -0.040526688 0.030584257 0.00090194517
000330 8b f8 f6 3c 6a 7c 40 bd f2 cb da 3c 9b 54 2f 3d
       0.030147811 -0.04699365 0.026708577 0.042805295
000340 8e ee bc 3c 69 b7 57 3e 98 12 79 bd 0b 4d 2b 3e
       0.02306297 0.21066059 -0.060808748 0.16728608
000350 49 ae 08 be c3 56 05 3f 58 90 10 3e f2 b1 12 be
       -0.13347735 0.5208551 0.14117563 -0.14325693
000360 87 cb a0 3e 5d ba db bd 52 9e 19 3e 1b 90 92 3d
       0.3140528 -0.10728905 0.150018 0.07156392
000370 bd 5d ba 3d 01 0b 33 3c bd f2 7f ba 8f 63 95 bd
       0.090999104 0.0109279165 -0.0009763649 -0.0729438
000380 b7 fe 49 bd d6 e8 ea 3d 52 35 42 3d 55 22 3b be
       -0.04931518 0.11470191 0.04741413 -0.18274815
000390 6d 38 8f bd 9c eb 71 be 32 1a fd 3d 36 e2 6c 3c
       -0.06993184 -0.23625034 0.12358512 0.01445823
0003a0 12 2f 2a 3c e7 5c 3a 3e 86 ec 39 3d 39 00 e7 3d
       0.010387199 0.18199502 0.045391582 0.11279339
0003b0 ab 8a c8 3e 14 1f 01 be 40 1c c5 3d 77 25 a0 3e
       0.39168295 -0.12609512 0.09624529 0.31278583
0003c0 0b 9c a4 bc 75 eb 04 3e 82 14 cf 3d 8a b9 aa 3d
       -0.020093938 0.12980445 0.101113334 0.0833617
0003d0 49 79 8c 3e 60 5c 97 3d 42 1d f0 3c ba 1c 81 3d
       0.27436283 0.07390666 0.029310826 0.06304307
0003e0 58 5c 31 3e f0 0d ef be b5 31 cf bc af fe c0 bc
       0.17320383 -0.4669032 -0.025292257 -0.023558943
0003f0 36 d8 bd 3d 24 b5 bb 3c d1 11 e8 3d 9b e1 be 3b
       0.092697546 0.022913523 0.11331523 0.005825234

decoder.4.bias f4 [50]
000000 e9 30 00 be 04 0e d3 3d 0f 6a 9c 3e ce 5c 2b 3c
       -0.12518658 0.10305408 0.30549666 0.010459138
000010 fb 2e 17 3e 3d 92 f8 bd f6 1f 8b be b6 06 6c 3d
       0.14764015 -0.12137268 -0.27172822 0.057623588
000020 b2 94 16 be f7 6a 95 3d b5 d7 0a be b3 16 dd bd
       -0.1470516 0.072957925 -0.13558848 -0.10795345
000030 00 53 18 be b2 3b 5d 39 9c 7c 2b 3c 7e b0 2f be
       -0.14875412 0.0002109844 0.010466721 -0.1715717
000040 4a b7 04 bd 4d 1b 34 bc 21 6e 8e 3d e0 94 d4 bd
       -0.03240136 -0.010992837 0.06954599 -0.10379958
000050 35 5b cd bd 83 df 1e 3d 71 26 7c 3e ef bb ae bc
       -0.10027162 0.038787376 0.24624039 -0.021329848
000060 bd ea 96 3d c7 81 a5 bd 28 a1 a7 bd a5 e8 7e bd
       0.073689915 -0.08081394 -0.08185035 -0.062233586
000070 e9 a5 11 bd c8 08 3f 3e d9 05 48 3d 01 6f 1a 3e
       -0.035558615 0.18655694 0.0488337 0.15081407
000080 e5 ed 09 3c 6c 04 ef bc 0a 17 49 3d 44 1e 31 3d
       0.008418535 -0.029176913 0.049094237 0.043241754
000090 4c 9b f8 3d 2d 92 12 3e eb 05 0f 3e 70 86 9c ba
       0.121389955 0.14313574 0.13967101 -0.0011941921
0000a0 f8 96 2f bd a1 38 25 bd 35 7a 3d 3e ef ae 82 3d
       -0.042868584 -0.04033721 0.1850365 0.06381022
0000b0 3c 81 05 be 1c 2c 92 bd 67 2a c1 3c d7 f0 bd bd
       -0.1303758 -0.071373194 0.02357979 -0.09274452
0000c0 b5 f9 6b 3e 6d cc e1 bb
       0.23044474 -0.0068908245
