RiskViz Folder/model/checkpoint_1550.tar (torch, 110796 bytes, 51 tensors)

encoder.1.weight f4 [50, 6]
000000 c6 8a 0b bf 9f ae 15 3c 33 2d e4 3b 49 d1 51 3e
       -0.54508626 0.009135871 0.006963396 0.20489992
000010 24 3f bb be 15 18 00 3e df 37 b1 ba 1f 51 c8 bb
       -0.3657161 0.12509187 -0.0013520679 -0.006113186
000020 57 ee a7 bb 12 bf 36 40 ab c3 38 3c e1 a8 ff bd
       -0.005124848 2.855412 0.01127712 -0.12483383
000030 f0 08 28 be d5 ef e8 bd 05 e3 b7 3b 57 4f ed bd
       -0.1640966 -0.11373869 0.0056117796 -0.115873985
000040 94 ef f5 3e 6a b9 77 be ad 80 56 3e fa 07 b3 3b
       0.48034346 -0.24191824 0.20947523 0.0054635974
000050 23 87 4f bb ca d3 18 be 0c f9 63 38 a5 ca 9c 3f
       -0.003166624 -0.14924541 5.435296e-05 1.2249342
000060 3a 48 f8 bc f6 39 16 be 8e fd 4e 3b f5 02 60 3f
       -0.030307878 -0.14670548 0.0031584236 0.8750451
000070 f5 b6 71 3e ec c6 0b bf 8a 5e 28 3f 7f cc e4 3c
       0.23604949 -0.54600406 0.65769255 0.027929543
000080 4f 85 c3 3b 00 8f e3 3c 43 1e 89 3d 1d 1a 94 3f
       0.0059668194 0.027778149 0.06695225 1.1570469
000090 44 03 9c bd 8a 18 67 be 15 2c ee bd c9 31 7b be
       -0.0761781 -0.22567955 -0.11629502 -0.2453071
0000a0 2d 72 58 3e de fd 50 be 0b aa 60 bf ac b2 6b 3e
       0.21137305 -0.20409343 -0.87759465 0.23017377
0000b0 fd 9b fc ba 2b 06 3a bd 09 a8 f7 bd 95 ce 33 bd
       -0.0019272562 -0.04541604 -0.12092597 -0.043898184
0000c0 c5 14 37 3f 75 58 8a bb 69 f8 e6 39 e4 18 5e 3f
       0.71516067 -0.0042219707 0.00044054099 0.8675673
0000d0 3a 18 2d 3f 07 23 5c 3d 00 29 a5 be f1 9e 31 3c
       0.6761509 0.053744342 -0.32257843 0.010841117
0000e0 b8 7b 42 be 9f 2e 1d bb eb cd 4b 3e 48 1b 38 3e
       -0.18992507 -0.0023984087 0.1990277 0.17979157
0000f0 0e 01 02 bf b9 5b 56 ba 6e 64 80 ba 62 81 7a bf
       -0.5078286 -0.000817712 -0.0009795555 -0.9785367
000100 16 c5 a8 be 71 cf 22 3e 82 8a 6e be 3d 93 36 be
       -0.32962865 0.15899445 -0.23295024 -0.17829604
000110 93 69 0c 3e f2 98 70 3e 19 71 bb 3b 14 9d 22 be
       0.13712148 0.23495844 0.0057202694 -0.15880233
000120 6f d4 3e be 93 2e ce bb 4e 90 e2 bc 7e b0 8e 3f
       -0.18635724 -0.006292173 -0.0276567 1.1147611
000130 6a b2 c0 bd 22 44 44 3f 6d e3 0c bf fa aa 3b 3b
       -0.0940903 0.7666646 -0.55034524 0.0028635846
000140 56 ea 39 bb 07 a0 49 bf 93 ae 9e be eb 3d f8 3d
       -0.0028368435 -0.7875981 -0.30992565 0.12121185
000150 41 cb 2b c0 65 c0 77 3b 9f 61 7d 3b 13 e6 84 3d
       -2.6842806 0.0037803885 0.0038662923 0.06489196
000160 23 c6 f6 be 66 39 d3 3e 95 91 2a bf c8 a1 0b 3b
       -0.4819804 0.4125473 -0.6662839 0.0021306146
000170 f7 39 6c 3b b3 d9 99 bd f3 9f e1 be 45 18 56 bd
       0.0036045292 -0.07512226 -0.44067344 -0.05226924
000180 ef 31 87 be 3e 0a 90 3e fa 84 24 3e 17 ac a4 3e
       -0.26405284 0.28132814 0.16066352 0.32162544
000190 61 9a 9a be 66 42 cd be d9 2c 82 bf e0 14 65 bc
       -0.30195907 -0.4008972 -1.0169936 -0.013982028
0001a0 3c b3 cf ba 62 42 6d bf 41 bf 3d 3f 58 37 1b 3f
       -0.0015846263 -0.9267942 0.74119955 0.6063132
0001b0 d4 3a d2 bb 3d 1b dc b9 f0 c8 0e bc 89 eb 2f 40
       -0.0064157043 -0.00041981964 -0.008714899 2.748751
0001c0 79 a1 65 3b 2b 45 cb bd db 84 af 3d 51 10 9d be
       0.0035038872 -0.09925302 0.08570262 -0.3067651
0001d0 92 ad 5f be 9a 7a 44 be 84 8c 6c be 63 42 94 3d
       -0.21843556 -0.19187394 -0.23100477 0.07239225
0001e0 aa ed 86 be 01 e5 8a bb b7 a3 fc 39 1d f8 36 bf
       -0.26353198 -0.004238725 0.00048187163 -0.7147234
0001f0 50 9f 3d 3f b7 3d d1 3d 62 47 b5 be e0 a1 87 be
       0.74071217 0.10216849 -0.35406023 -0.26490688
000200 7f 17 22 3e 3a 11 1a 3e 11 40 81 be 94 12 04 be
       0.15829276 0.15045634 -0.2524419 -0.12897712
000210 3b 2b 3e c0 ad 17 55 ba f2 db c0 3a 4a 86 f4 be
       -2.9713886 -0.0008128833 0.0014713986 -0.47758704
000220 03 8b ab be 44 f5 72 3e 8d 87 ae 3e b7 13 aa bd
       -0.33504495 0.23726374 0.34087792 -0.083045416
000230 f9 c7 75 bd 60 1f 1b 3e 6b 12 8e 3d c2 f5 08 be
       -0.060005162 0.15148687 0.06937107 -0.13374999
000240 e5 59 97 be 5c 53 a5 bd c0 84 44 3d 7e 16 18 be
       -0.29560772 -0.0807254 0.047978163 -0.1485233
000250 d4 b2 17 3f e1 6b 01 3e 55 a0 db bd 79 03 c8 be
       0.59257245 0.12638809 -0.1072394 -0.3906515
000260 1a 23 bf be b9 97 2e 3e a7 9f 9e 3e 3b b3 15 bb
       -0.37331468 0.17050065 0.3098118 -0.0022842425
000270 62 be 3c c0 d6 75 29 b8 d2 82 a2 3b 56 03 3e bf
       -2.94912 -4.0402483e-05 0.0049594427 -0.7422384
000280 6a 03 36 be a8 d4 35 3e 07 bb 2d c0 9b 01 32 3a
       -0.1777474 0.17756903 -2.7145402 0.00067904004
000290 d7 40 9d bb 2c 40 27 bf 33 57 02 be 0f 61 10 bf
       -0.0047989893 -0.65332294 -0.12728576 -0.563981
0002a0 ec 2d 57 3f 83 ef 6a 3a 87 cf 61 3b f8 ad a2 bf
       0.84054446 0.00089620816 0.0034455971 -1.2709341
0002b0 1b de 27 3f 9d 8e 2b 3d eb dc 67 be d1 8c d9 bc
       0.6557328 0.041884053 -0.22642867 -0.026556404
0002c0 02 00 94 be 20 68 9a bc 5e 2d 69 3e 4a e6 3b be
       -0.28906256 -0.018848479 0.22771212 -0.18349567
0002d0 6e 62 5d 3f 45 a5 4f bc 9e 36 b3 3a 2d d1 0f 3f
       0.86478317 -0.012673681 0.0013672893 0.5617855
0002e0 05 db b9 be 01 59 6b be d7 b3 3c 3d 2c 19 af 3a
       -0.3629991 -0.22983171 0.046069946 0.0013358942
0002f0 8f 99 29 3c 28 3b ff bd 03 1d 24 3e 94 8c b4 3f
       0.010351553 -0.12462455 0.16026692 1.4105401
000300 f5 3c a0 3e c4 3a cc be 56 12 2f 3d 9a 03 a0 bc
       0.31296507 -0.39888585 0.042742096 -0.019532967
000310 97 26 e1 3d 0c fe cc bd ff 96 9b 3d fc c4 49 be
       0.109936886 -0.10009393 0.075971596 -0.1970405
000320 e3 aa 00 3e d4 67 3d 3f 87 02 7a 3c 90 9f 58 be
       0.12565188 0.73986554 0.015259392 -0.21154618
000330 c7 61 40 bf 82 4b 9e bc b0 a0 70 3b 8e cd a4 bc
       -0.75149196 -0.019323114 0.003671687 -0.020117547
000340 c1 b9 80 bc 15 1b 9c 3f be 01 b4 3b 37 a6 a0 bb
       -0.015713574 1.2195765 0.0054933717 -0.004902627
000350 9c 44 82 bb b0 eb e3 3f 60 69 9b 3e 42 5c b3 3b
       -0.003975464 1.7806301 0.30353832 0.0054736445
000360 b2 61 67 3e 9e bb 0a 3e 89 ba 23 3d 28 70 f2 bd
       0.22595862 0.13548133 0.039972816 -0.11837798
000370 1a 32 82 3d b2 bc ef 3c 0a bd f1 3c d0 65 9e 3b
       0.06357212 0.029264782 0.029509086 0.0048339143
000380 3d 49 50 3b 45 fc 49 bf c2 7e 26 3d 3d 46 46 3f
       0.0031781935 -0.7890056 0.04064823 0.77450925
000390 6e d3 6e bb 82 6a 11 bc 1d 26 9f ba 2d 51 8f be
       -0.003644194 -0.008875491 -0.0012142096 -0.2799162
0003a0 07 70 85 3e 28 f0 ca 3f cd 2f 9b 3f 17 9e 1e bb
       0.26062033 1.585454 1.2123963 -0.0024203116
0003b0 e0 15 40 3a eb a2 db be 91 43 03 be b0 83 27 bf
       0.00073274784 -0.42897734 -0.12818743 -0.65435314
0003c0 d1 8c 3e c0 80 09 25 ba 03 9e 8a 3b 1b 93 71 bf
       -2.9773448 -0.0006295666 0.0042302622 -0.9436509
0003d0 8f 1a a9 be 9d 76 79 3e b1 9e af 3b a5 be 14 b9
       -0.33028075 0.24361654 0.0053594937 -0.000141854
0003e0 b6 16 c1 bb 66 a6 2b 40 a4 f7 c9 be b9 fe 4f be
       -0.0058926 2.6820312 -0.39446747 -0.20312013
0003f0 1d f4 22 bf 09 52 9f 3c aa 8d 48 3b c6 1b 41 3e
       -0.6365374 0.019448297 0.0030602016 0.18858251

encoder.1.bias f4 [50]
000000 23 7c 80 3e f3 4b b1 ba 58 6e 02 bc 40 6d 25 be
       0.2509471 -0.0013526663 -0.007960878 -0.16154957
000010 ed 77 cb bd fe ac 0c bf e9 9b 03 be 4e e3 a9 bd
       -0.099349834 -0.54951465 -0.12852444 -0.08295308
000020 03 2c bc be 72 7d aa be ac ae 4d 3e 59 50 c9 be
       -0.36752328 -0.33298832 0.20086163 -0.39319113
000030 bc 93 82 bf 2d 47 74 3e 46 30 79 3c 01 36 aa 3e
       -1.0201335 0.23855276 0.015209263 0.33244327
000040 b9 dd b6 be a0 6d 7d 3c f2 0f 88 3a 76 1f 89 be
       -0.35716036 0.015468031 0.0010380729 -0.26781815
000050 d3 48 05 3e 8f 8b 12 be d9 91 82 3c 5f a7 b6 be
       0.13016061 -0.1431105 0.015938686 -0.3567457
000060 a1 da 86 bd f1 b1 9e be b4 15 93 3c cb 3c 82 3c
       -0.06584669 -0.30995134 0.017954685 0.015898129
000070 bd b9 d8 be a3 73 77 be 26 61 ef be d7 5d 80 be
       -0.42329207 -0.24165206 -0.46753806 -0.25071594
000080 df b6 d6 be 0f 68 c4 be 03 4e fb 3b 08 55 6d 38
       -0.41936395 -0.3836064 0.007669212 5.6584395e-05
000090 b8 3d b3 be 49 53 f4 bc 21 fd c3 be d3 a6 3d bf
       -0.35008025 -0.02982487 -0.3827906 -0.7408268
0000a0 96 a8 6f 3c c2 43 00 39 61 57 b9 3b da e3 06 bf
       0.014627596 0.00012232273 0.0056561683 -0.52691424
0000b0 5a 2a 43 bf 87 97 1c b9 f1 30 95 bc 0f 3b 4e 3c
       -0.762365 -0.00014933768 -0.018211814 0.012587323
0000c0 f9 3a 98 be dc 44 90 ba
       -0.29732493 -0.001100685

encoder.4.weight f4 [50, 50]
000000 95 ac e6 3c 18 bf c6 be 3d 8a 2e be 06 2f d9 bc
       0.028158465 -0.38817668 -0.17044921 -0.02651168
000010 8b 51 81 be 4a 7a a7 3d 0f f1 93 bc 72 03 1b 3d
       -0.25257525 0.08177622 -0.018059282 0.037845083
000020 82 f7 9d 3d 91 9b b5 3d 29 2e 15 3e 3c 26 ae 3b
       0.07713224 0.088675626 0.1456839 0.0053146165
000030 4b 88 c4 bd 57 1c 8f 3c c8 db 78 3e 49 20 09 bd
       -0.09596308 0.017469568 0.2430259 -0.033478055
000040 b8 46 10 be 58 aa a3 3a b8 69 c6 be af 92 ca bd
       -0.14089477 0.001248668 -0.38752532 -0.09891259
000050 2e 0d 18 bc 68 de 03 3d c9 ac 86 3e c3 0d cf bc
       -0.009280486 0.032194525 0.263037 -0.025275117
000060 af 66 4f bd 96 f3 0d bd 51 3e 15 3e d6 24 a3 3e
       -0.050635036 -0.03465613 0.14574553 0.3186404
000070 40 ab 6d 3d 94 66 ce 3d 08 c8 04 3e 53 33 0c be
       0.058024645 0.10078159 0.12966931 -0.13691454
000080 e0 b7 19 3d e5 e8 87 3d 4c 58 d5 3d 06 b6 aa be
       0.037528872 0.06636218 0.10417232 -0.33341998
000090 b4 08 62 ba 8b 21 6a bd 86 b7 08 bd 3d b6 81 3e
       -0.00086225127 -0.057160895 -0.033378147 0.2533435
0000a0 94 66 8a 3e a9 eb b0 be 79 41 88 bd 42 8e 92 bd
       0.27031386 -0.34554794 -0.06653113 -0.0715604
0000b0 0c b5 02 3f 34 44 7c bc b4 c7 9a be 2f 92 ed bb
       0.51057506 -0.01539712 -0.30230486 -0.0072500925
0000c0 e3 a9 94 3d b0 aa 04 be 19 19 2a bc 26 c2 1c bc
       0.07258966 -0.12955737 -0.01038196 -0.009567773
0000d0 c0 ea 0d 3d 8b b5 cd bd 69 f3 e1 bc 20 d4 43 3e
       0.034647703 -0.10044392 -0.027581887 0.19123888
0000e0 de 8f 93 bd 39 08 bf bc 0e aa 87 bd ac 15 99 3d
       -0.07205175 -0.02331935 -0.06624232 0.07474837
0000f0 8c 59 83 bd ba 98 d9 bd 36 a6 e8 bd f8 8e 83 3e
       -0.06413564 -0.106248334 -0.11359827 0.25695014
000100 6c 6c 0a 3e 02 7f ed bc b0 a2 0a be 67 8d 22 3c
       0.13517922 -0.028991226 -0.13538623 0.009921408
000110 95 4a 50 3b a1 ed 85 3c 7e 37 b2 bc d3 d8 fc bc
       0.0031782736 0.016348662 -0.021754976 -0.030865109
000120 e2 48 86 3e 9a 00 54 3d a1 55 05 3c 73 a8 9c bd
       0.2622748 0.051758386 0.008138091 -0.07649317
000130 19 de c8 3e 80 f3 ca 3e 5c f7 c8 bc 0b 3d 06 3e
       0.39231947 0.396389 -0.024532013 0.13109224
000140 54 e3 c4 bd e3 41 20 be 73 90 dd 3c 3e cc 0a 3d
       -0.09613672 -0.15650134 0.027046418 0.033886187
000150 a1 ba 1d 3e 62 0c d2 bd f6 4c c3 3d 97 12 5f 3c
       0.15403225 -0.10256268 0.095361635 0.013615272
000160 96 26 25 be 6f 2a cd 3e 33 7b a0 3e e8 c1 35 ba
       -0.16128 0.40071437 0.31343994 -0.00069334963
000170 e5 da 05 be 3f 27 c4 bd 97 9b 92 3e 37 d0 0c 3e
       -0.13071783 -0.09577798 0.2863433 0.13751303
000180 9e 15 03 be a7 b4 b8 bd 85 59 e6 bc 9b ec 3b 3d
       -0.12801215 -0.09018832 -0.028118858 0.04587994
000190 12 50 ba 3c 4c f6 f6 be 80 61 44 3d ec 33 76 3d
       0.022743259 -0.48234785 0.047944546 0.06010811
0001a0 f5 b1 3d bd 53 77 39 3d 34 9e 2b bd 89 cc 82 3c
       -0.04631229 0.045279812 -0.04189892 0.01596667
0001b0 48 47 3b be f3 e3 0f 3e f8 15 2f 3d d7 a6 09 3e
       -0.1828891 0.140518 0.04274556 0.1344255
0001c0 b9 40 02 3e 01 fa 2d 3d e2 bf 7a be 2b 59 b5 3c
       0.12720002 0.04247475 -0.2448726 0.022137245
0001d0 f3 e1 58 bd e2 f8 11 bd 03 19 c6 be 85 4c a1 3d
       -0.052949857 -0.035637744 -0.38690957 0.07875923
0001e0 f4 a6 6e 3e 89 52 e1 bd 36 91 76 be 74 5a 2c 3d
       0.23305875 -0.110020705 -0.24078831 0.04207845
0001f0 35 40 b6 bc 21 70 85 3d 99 11 f4 3c dc 7e 7a bd
       -0.022247413 0.065155275 0.029793547 -0.06115614
000200 42 28 3d be 3e 8a 27 bd f0 e7 ad be 9e 56 1e 3e
       -0.18472388 -0.040903322 -0.33966017 0.1546273
000210 0f cd c8 3d 52 82 09 be 8e 43 8e 3d 0a 6e 2d bd
       0.09804737 -0.1342862 0.06946479 -0.04234127
000220 c5 56 dd 3d b5 71 73 3d 45 29 7a 3d 90 27 84 be
       0.108075656 0.05943461 0.061074514 -0.25811434
000230 e9 78 39 bd 56 73 59 be bd 22 f8 bd 6c ad c7 bb
       -0.045281325 -0.21235403 -0.12116001 -0.0060936715
000240 5d fe 2f be a2 31 d2 3d 74 95 3d ba e0 fc d7 bd
       -0.17186876 0.10263373 -0.0007232048 -0.10546279
000250 92 c7 d1 bd 97 65 43 be c9 93 95 be 31 99 71 be
       -0.10243143 -0.19081722 -0.29214314 -0.23593594
000260 ef 9c 4a bd 22 dd b6 bd 0e a6 9b bd 46 a4 62 3e
       -0.04946607 -0.089288965 -0.07600032 0.22132978
000270 db c2 ff 3d 34 03 68 3d 8d c3 8d 3d 89 6a e9 bd
       0.124883376 0.05664368 0.06922064 -0.11397273
000280 e2 90 dd bd b6 16 f6 bd 06 52 d2 3d bf e3 70 be
       -0.1081865 -0.120160505 0.10269551 -0.23524378
000290 17 8e c0 3c c3 ed 55 be 2e 7a c8 bd 2f 1d 91 be
       0.023505254 -0.2089148 -0.09788929 -0.28342578
0002a0 42 d9 68 be 0e 69 84 bd 67 9b ba be c4 df cc 3d
       -0.22739127 -0.0646535 -0.36446688 0.100036174
0002b0 73 27 8b bd 35 b2 88 bc c3 0e 98 bd ec 8e 70 3d
       -0.06794634 -0.016686538 -0.074246906 0.05873005
0002c0 e5 1e 80 bd 2c 53 8d bc 61 bf e9 3c 13 dd c7 3d
       -0.06255893 -0.017251574 0.02853364 0.097589634
0002d0 a3 bf f1 3d fe 5c 03 be c0 b1 11 bd bc d1 e5 bd
       0.1180413 -0.12828442 -0.035569906 -0.11221644
0002e0 42 fa 67 3d e3 82 8a be f7 24 ae 3c 5f 99 a6 be
       0.05663515 -0.27052984 0.02125786 -0.32538888
0002f0 10 a0 18 bc 94 3a a6 3e 42 a2 be bd 63 96 60 be
       -0.009315506 0.32466567 -0.09308292 -0.21932368
000300 6a 96 41 be be 19 05 3e e2 cf fd 3e 00 f9 7a bd
       -0.18905035 0.12998101 0.49572664 -0.06127262
000310 ac 4f a0 be 31 55 7a 3d 28 fe e4 3d bd d4 f6 bd
       -0.31310785 0.0611164 0.11181289 -0.12052295
000320 09 08 5e 3c 55 f1 7b be 12 c3 28 3d c6 67 f4 3e
       0.01355172 -0.2460378 0.04120166 0.47735423
000330 ee 0c e3 bd 9f 1b cf 3e 1e 07 8f bd 05 1d 5c 3e
       -0.110864505 0.4045076 -0.06983779 0.21495445
000340 fc 5a 78 bc 32 e5 c0 bd d4 41 5e bb da 4e e4 3d
       -0.015158411 -0.094187155 -0.0033913748 0.11147852
000350 18 9d 99 bc cc 47 d3 3b b3 ca e1 3c e2 ac 42 ba
       -0.018751666 0.006447768 0.027562475 -0.0007426274
000360 84 99 eb bd ac 5c 00 bb 2f 06 92 be 86 e2 09 3d
       -0.1150389 -0.0019586487 -0.28520343 0.033663295
000370 7d c6 07 3c a4 1c 2d bd 4f 52 74 bd 47 f5 aa 3d
       0.008287069 -0.042263642 -0.059648808 0.08347564
000380 59 9f 20 3d c6 e3 87 3d 40 58 c8 3d d2 55 c8 3d
       0.039214466 0.06635241 0.09782457 0.09781994
000390 54 99 18 39 f2 26 67 3d 80 9e 7e bd 61 87 f1 3e
       0.00014552969 0.056433626 -0.062162876 0.47173598
0003a0 83 75 5e bd d2 42 01 3e 5f c5 bd 3e cf 90 46 3d
       -0.054311287 0.12623146 0.37064645 0.048477944
0003b0 51 e4 0a be 1c ba b6 bd 8a 57 f0 3e a6 b2 48 3e
       -0.13563658 -0.08922216 0.46941787 0.19599399
0003c0 8f 41 3c bc 37 e6 81 be 47 ad 8a bb fc 4b e8 3d
       -0.01149024 -0.25370952 -0.004232082 0.11342618
0003d0 18 d0 9c bd a1 d9 51 3d 5c 6d 19 3c e4 c8 e1 bd
       -0.07656878 0.051232938 0.009364452 -0.11024645
0003e0 4f 5f a7 bd 88 dc 18 3e 43 6d 21 bc 7f fb 90 bd
       -0.081724755 0.14927876 -0.00985271 -0.07079219
0003f0 01 d5 fc 3c 8c 16 5f 3e 02 7a 81 3d 5b 8b 9f 3e
       0.030863287 0.21785945 0.06322099 0.31161007

encoder.4.bias f4 [50]
000000 2c 53 e8 ba bf 4a 92 bc d7 7e c4 3b 9f 11 15 3c
       -0.0017724982 -0.017857907 0.005996566 0.0090984395
000010 46 78 89 bb 29 8a 0f bb 3a 37 3d bf 47 1d 2b bc
       -0.004195246 -0.0021902418 -0.73912394 -0.010443992
000020 06 a2 d0 be d2 ca 6d bc 9a 35 0b bc a4 1c 47 3c
       -0.40748614 -0.014513688 -0.008496666 0.012152825
000030 7a 7c 2a ba 10 88 f3 ba c3 6f c8 be 6c ae 4a bd
       -0.0006503534 -0.0018579978 -0.39147767 -0.049482748
000040 f7 0a 18 3c 5b db 05 bc c5 62 a1 bc f8 a4 38 bf
       0.009279958 -0.008169974 -0.019700417 -0.7212672
000050 d7 ac 28 be 3f e7 40 bc 32 12 a1 be ad 0b f1 ba
       -0.16472183 -0.011773883 -0.31459194 -0.001839032
000060 e9 fa 71 ba dd 58 eb bb 97 2f 4e bc c8 1c e5 bb
       -0.0009230809 -0.007182224 -0.0125845885 -0.0069919564
000070 d6 0d 26 3c 26 e5 d3 bb 74 62 a5 ba f8 4d d7 bc
       0.010135135 -0.0064665256 -0.0012617842 -0.026282296
000080 07 58 41 3c 36 a7 1e be 9b b3 aa be fb 5f 3e be
       0.0118007725 -0.15493473 -0.33340153 -0.18591301
000090 cf 79 cd be 58 88 6e bd b7 25 2e bf 8c 8b 37 bb
       -0.40131995 -0.058235496 -0.680263 -0.002800676
0000a0 4e b7 d9 3b 0c 0d 81 be b7 39 99 bc 58 20 21 be
       0.006644166 -0.25205266 -0.018704278 -0.15734994
0000b0 a4 b1 38 be 7e 8d 03 3c ec 3a 02 bf ee 8a a7 bc
       -0.18036515 0.00802934 -0.5087116 -0.020451989
0000c0 10 45 b7 ba 6e a3 20 3c
       -0.0013982374 0.00980459

encoder.7.weight f4 [20, 50]
000000 de 3d 34 3e f7 d5 67 3e 33 a2 8c 3c 0d db a7 be
       0.17601725 0.22640215 0.017167186 -0.3278431
000010 1b 2f 42 3d d1 b6 d1 3c 83 70 ae bd df c7 6e 3f
       0.047408205 0.025599869 -0.08517554 0.9327373
000020 48 1c 24 bd b4 ef 04 3f cc 43 05 3d 25 b7 a8 be
       -0.040066034 0.5192826 0.03253536 -0.32952228
000030 34 19 e4 be fb ba 79 be 06 3b 08 be a3 ec bf 3e
       -0.44550478 -0.24387734 -0.13303766 0.37485227
000040 b9 1f 8d 3c 41 64 21 3f 2c 31 8c be 84 f8 34 bd
       0.01722704 0.630436 -0.27381265 -0.044182315
000050 4f a6 a3 bd 4b 07 00 3f 2e 81 19 be 49 0d 42 3f
       -0.07990705 0.5001113 -0.14990684 0.7580152
000060 4b 38 9b bd f5 e4 4e 3f 0f 9c 19 3f 6b 40 51 3f
       -0.075790964 0.8081811 0.6000375 0.8173892
000070 6a 2b 95 be 20 e4 11 3d 48 76 a0 be 6b 41 15 3f
       -0.29134685 0.035617948 -0.3134024 0.58302945
000080 8f 64 f1 bd 74 cb 1e bc 5c d6 9e bd 1d 80 63 bd
       -0.11786758 -0.009692062 -0.077557296 -0.0555421
000090 e6 d6 6c bd 98 07 f9 39 46 e7 c4 3d c8 27 af be
       -0.05782213 0.0004749864 0.096144244 -0.34210038
0000a0 d3 37 67 be cf 49 c4 bd be 8f 0a 3e 64 1b 63 3e
       -0.22579889 -0.0958439 0.13531396 0.22178417
0000b0 8d 49 04 3e 69 cc c8 be 19 59 bb bd 78 27 0a 3e
       0.12918682 -0.39218453 -0.091478534 0.13491619
0000c0 95 31 c7 be 62 76 b2 be 62 ef 2f 3b 58 0a c1 3c
       -0.38905016 -0.34855944 0.0026845564 0.023564503
0000d0 41 c4 7d bb ff 5f 03 3d fa 2d 86 3e 56 5e ac 3e
       -0.0038721713 0.03207397 0.26206952 0.33665723
0000e0 da 1a cf 3c 49 8a 5d 3e d3 51 9a 3e 01 ff a9 3e
       0.025281359 0.21634783 0.30140552 0.33202365
0000f0 a7 b7 b6 3e 84 b1 64 3c fd 25 21 bc b0 38 58 bc
       0.3568699 0.013958339 -0.009835717 -0.013197109
000100 0d 20 a8 3e 7f 12 82 bc ce 4d 0f bd 89 5a 87 3e
       0.32836953 -0.01587796 -0.03498631 0.2643626
000110 10 f1 b9 3a 18 12 1e 3e c5 96 01 3e c8 92 86 3d
       0.0014186222 0.1543659 0.1265517 0.06570965
000120 f7 f5 b1 bc 88 b0 95 3e 76 7e a7 3c e9 4b 4b 3d
       -0.02172373 0.29236245 0.020446043 0.04963294
000130 a5 84 56 3e c5 32 f8 3d 4d f5 df ba ee 10 ef 3e
       0.20949037 0.121190585 -0.0017086655 0.46692604
000140 07 a9 45 bb 8a 58 76 3c 8e 93 7d bc bf 09 56 bd
       -0.0030160563 0.015035758 -0.015477074 -0.05225539
000150 56 89 ce 3e fc d3 3c bd 9a c5 9f 3e 44 5f 25 3b
       0.40339154 -0.0461006 0.31205446 0.0025233785
000160 8a 55 44 3e 56 dc 93 3b 72 54 e9 3c 02 f2 4d 3e
       0.19173256 0.00451235 0.02848265 0.2011185
000170 e0 27 08 3c 79 0a b5 3e f1 f0 08 bd 82 c9 c6 bb
       0.008310288 0.35359553 -0.033432905 -0.006066502
000180 7f 53 b8 3e 69 e8 0e 3d 8c e2 c6 bb c7 88 72 3b
       0.36001202 0.034889612 -0.006069487 0.0037007795
000190 d5 e0 11 3f 72 dd a0 3e ea c0 d5 be 0c 2d cf 3e
       0.5698369 0.3141895 -0.41748744 0.40464056
0001a0 fc 76 ae bd 23 a0 76 be fc c6 7b be 0d d1 ba bd
       -0.08518788 -0.24084525 -0.24587625 -0.091219045
0001b0 55 3e 4a be b5 b5 9e be 10 ff a2 be c9 25 84 bb
       -0.1975034 -0.30998006 -0.31835222 -0.0040328247
0001c0 6b 60 a0 3b 58 af a4 bd 90 69 07 3b 5e f8 7a be
       0.0048943064 -0.08041257 0.0020662285 -0.24508807
0001d0 9a 8b a0 be bc a0 32 be c3 3a 55 3d 5a 32 28 be
       -0.31356508 -0.17444128 0.052057993 -0.16425458
0001e0 ed 4e 9d be f4 b1 8c bd 98 02 18 bf a8 38 2a be
       -0.30724278 -0.06869879 -0.5937896 -0.16623175
0001f0 62 5c 9f bd a6 aa 63 bd 6d b4 53 bd 0d d8 2e be
       -0.077812925 -0.055582665 -0.05168574 -0.17074604
000200 7d 4f cc 3e 98 b6 ea bd 56 bb 87 3c b8 ae 06 be
       0.39904395 -0.11460608 0.01656882 -0.13152587
000210 59 28 42 3e 76 26 e5 3d b4 1c 80 be ac e8 a9 3c
       0.18960704 0.111889765 -0.250219 0.02074083
000220 7d d5 ba be 93 5d d0 3d 50 a0 5a be ec 1d 85 3c
       -0.36491004 0.10174098 -0.21350217 0.01624962
000230 2e d0 f3 3e 03 4b c6 3c 5d 39 9a be 31 01 07 bf
       0.47619766 0.02420569 -0.3012189 -0.5273619
000240 dc 35 02 3e 1f 9c 1a 3e 36 8d 2b bc 18 52 16 3f
       0.12715858 0.15098618 -0.010470679 0.58719015
000250 64 97 fe 3b df 99 a1 3e f8 c6 b0 3c 68 62 84 3d
       0.007769512 0.31562707 0.02157925 0.06464082
000260 6b 93 02 be d2 39 6c 3c f0 c2 a4 3a b3 08 8f 3b
       -0.12751548 0.014418082 0.0012570303 0.0043650507
000270 6b ba 98 bd c2 9e 13 3e 79 b3 3d be d4 b9 04 3f
       -0.074574314 0.1441603 -0.18525495 0.5184605
000280 1e 9f dd 3b 50 1a 1c bc 44 51 67 3e 42 a9 7f 3e
       0.006763353 -0.009527758 0.22589594 0.2496691
000290 ba 04 2d 3d 75 79 91 bd ca 46 bd bd 99 3d 55 3e
       0.042240836 -0.07103244 -0.092420176 0.20824279
0002a0 f1 bc ab 3e 75 33 60 be 4c 60 5a 3c 4e 23 5e 3e
       0.33542588 -0.2189463 0.013328623 0.21693155
0002b0 e0 be b2 3e ab b8 58 3e 5e 19 5b 3e 89 f1 8e 3e
       0.3491125 0.21164195 0.21396396 0.27918652
0002c0 eb b2 b8 3e 99 f9 68 3e 42 c7 18 3c 19 ed ce bb
       0.36074004 0.22751464 0.0093248505 -0.0063148853
0002d0 8f fe b7 3e 4e e2 33 3d ac a2 3d 3c c5 54 ed 3c
       0.359364 0.043916993 0.0115744285 0.028971085
0002e0 4c be 92 3e 00 58 8c bd 5b 55 4e bd b3 3b fd 3e
       0.2866081 -0.06852722 -0.05037437 0.4945961
0002f0 a6 2d 9c bd 55 60 45 3e bd 1e 45 3a 07 da 32 bd
       -0.07625894 0.19275029 0.0007519534 -0.04366496
000300 a9 59 bc 3c e4 44 cb 3e 18 e3 06 3e 3a ae 9c 3c
       0.022991972 0.39700997 0.13172567 0.019126046
000310 a6 f2 b4 bd 3e 7c f0 3c fb f0 11 3e e6 57 40 3c
       -0.08835344 0.029356118 0.14252083 0.011739707
000320 3a 3f a4 be 59 27 1d 3d a3 2a 0c be 37 a3 98 be
       -0.32079488 0.038367603 -0.1368814 -0.29812023
000330 e3 7d 70 3c 0f 35 97 bd 3c 0d 17 be 99 92 8b bd
       0.014678451 -0.07383167 -0.14751142 -0.06815071
000340 85 08 80 be 7b 08 1e 3d d9 d4 86 3c 22 5f a6 bc
       -0.250065 0.038582306 0.016458916 -0.020309035
000350 77 d0 83 3e 1a 6a b0 3e 70 a9 35 3b ad 46 53 be
       0.25744984 0.3445595 0.00277194 -0.2063243
000360 6b 48 20 be 3b 6a 0c bd b3 49 41 3e 8f 2b 75 be
       -0.15652625 -0.034280997 0.1887577 -0.23942398
000370 74 e4 b1 3b 5f 4b 3e be ee 9b df 3e 9f 97 a9 bc
       0.005428845 -0.1858344 0.43673652 -0.020702181
000380 ae 41 cf 3e f2 fa 1d bd cf 24 ce bb 71 9c 65 3b
       0.40479797 -0.0385694 -0.006291009 0.0035035873
000390 d9 7b f5 bd 1e 8e d6 3c 67 3f 4e 3e f7 97 f4 bd
       -0.11986513 0.026190814 0.20141374 -0.119430475
0003a0 b3 bb cc bd f9 2c 66 bd 93 99 c4 3d ce 16 11 bd
       -0.09996738 -0.056195233 0.095996045 -0.03542214
0003b0 37 33 d5 bd 9e 58 cd 3e b6 ec 96 bd ec 56 8f 3e
       -0.10410159 0.40106672 -0.07369368 0.27996004
0003c0 7c 73 52 be bd 62 0b 3e 7c a6 73 3e 21 39 84 3e
       -0.20551866 0.13611884 0.23793977 0.25824836
0003d0 fe 46 67 3d 48 11 04 be f8 9e 50 3d 8d 25 90 be
       0.056464188 -0.12897217 0.050932854 -0.2815365
0003e0 2d 36 9e 3e bb 28 39 be c1 ec 92 be c8 3f 9b be
       0.30900708 -0.18081944 -0.28696254 -0.303221
0003f0 fe 3f 03 3e 17 8c b7 be 3f 09 f1 3e ff e9 b0 3e
       0.1281738 -0.35849068 0.47077367 0.34553525

encoder.7.bias f4 [20]
000000 1e de ad 3b 8c a1 74 bb 5a ea 0c bc 7d ac 22 bb
       0.0053060194 -0.0037327735 -0.008600796 -0.002482205
000010 e1 04 0b 3b 57 e4 e6 3b a3 2e 40 be d2 4d af bf
       0.0021212625 0.007046263 -0.1876779 -1.3695624
000020 70 f4 d8 3b 8a 03 ec bb be b9 57 be cb 2d a7 bb
       0.006620936 -0.0072025703 -0.21066949 -0.0051018945
000030 e0 96 dd be 68 83 84 3b 87 1b 65 bb f0 ba 9a b8
       -0.4327917 0.004043985 -0.0034959035 -7.378112e-05
000040 5c 29 6a bb d0 cc 35 3b 52 eb 59 bb f8 d4 16 bf
       -0.0035730219 0.0027740486 -0.0033251834 -0.58918715

encoder.10.weight f4 [4, 20]
000000 c0 c5 76 3f 57 06 2d 3e c1 8e 55 bf 5a 82 93 be
       0.9639549 0.1689695 -0.8342095 -0.28810388
000010 d7 4d e8 be 94 6d a8 3e 0d 5d 2b 3f dc 4b bc 3f
       -0.45371887 0.328961 0.6693886 1.471065
000020 d8 68 57 3f 6b 40 1d bf 0c 99 31 be 6c 63 79 3e
       0.84144354 -0.6142642 -0.17343539 0.24354333
000030 3d cb e7 3e 91 05 91 3f 31 31 e9 be fa b7 91 3f
       0.45272246 1.1329824 -0.45545343 1.138427
000040 98 7f 8c be bf 84 8e be 8f b7 bf be 0d bd 83 3f
       -0.27441096 -0.27835652 -0.37444732 1.0292069
000050 03 23 09 bf 76 f4 39 bf d6 9e 3f bf 98 9e b9 3d
       -0.5356905 -0.7263864 -0.7485174 0.090634525
000060 eb 7c 53 3f 35 1a 11 bf a3 11 7c be 77 93 16 3f
       0.82612485 -0.56680614 -0.24616103 0.58818763
000070 3f 59 f3 be 04 10 09 bf 7a 5d de bd a1 15 26 bf
       -0.47529027 -0.5354006 -0.10857673 -0.64876753
000080 e2 8f 12 be d4 e2 19 bf 2e 85 57 3f ad c9 1a bf
       -0.143127 -0.6011174 0.8418759 -0.6046398
000090 58 91 83 bd 7d dc 9a 3e 56 51 17 3f ae c1 3c bd
       -0.064242065 0.30246344 0.59108484 -0.046083145
0000a0 a9 f8 6a bf 8a f8 58 3e d9 79 10 3f f7 91 7e bd
       -0.91785675 0.2118856 0.56435925 -0.06215092
0000b0 f6 92 14 3f fd 41 29 3f 08 69 97 3e 06 8c 5f bd
       0.58036745 0.66116315 0.2957232 -0.054576896
0000c0 90 28 55 bf f3 0e ef 3e 27 7c 44 be 7b 96 ed 3e
       -0.8326502 0.46691093 -0.19187985 0.4640387
0000d0 c8 46 fb 3e a6 b0 87 bf 6d 29 19 3f 71 06 89 bf
       0.4907744 -1.0600784 0.59828836 -1.0705091
0000e0 2d a0 1b be cb 5a 0e 3e 4a 78 bf 3e 7d 4f f5 bb
       -0.15197821 0.13901822 0.3739646 -0.0074862824
0000f0 61 38 28 3f 5d 93 69 be c0 61 1f 3f a8 d5 07 bf
       0.6571103 -0.22810121 0.6225853 -0.5306039
000100 a1 5d e9 be 1b 03 36 3c fb 5d 41 be 29 03 03 bf
       -0.45579246 0.011109139 -0.18883507 -0.51176697
000110 1e 37 0c 3f 33 9e d7 3e 11 38 15 be e0 8b dd bd
       0.547716 0.42112884 -0.14572169 -0.10817695
000120 28 92 dd be b9 73 4b 3f 5d 33 eb be b7 91 4b 3f
       -0.4327557 0.79473454 -0.45937625 0.7951922
000130 ff a3 10 bf 4c 4f d1 be fc aa e3 be 15 14 ab be
       -0.5650024 -0.4088081 -0.44466388 -0.3341376

encoder.10.bias f4 [4]
000000 73 b2 b2 be ef 41 b3 be e8 b1 c7 3e 73 d5 cc 3e
       -0.3490177 -0.3501124 0.3900292 0.400066

decoder.0.weight f4 [20, 4]
000000 87 06 83 be b2 37 4d 3f 13 43 61 3f c3 33 e8 3f
       -0.25590917 0.8016311 0.8799297 1.8140796
000010 77 b1 31 3f d3 bb 93 be cb 92 25 bf 89 ce 21 3f
       0.69411415 -0.28854236 -0.64677113 0.6320577
000020 fe 8c a3 be 17 89 b9 3d 01 7a 75 3f 76 ae f7 3e
       -0.31943506 0.09059351 0.9588929 0.4837529
000030 f2 30 97 bc 20 5f 8c bf a2 6e 73 bf 44 44 41 3f
       -0.018455956 -1.096653 -0.9509069 0.7549479
000040 66 f3 cc 3d 0c 0e d6 3e 1a ad 23 3f 74 df 7f 3f
       0.10007362 0.41807592 0.6393601 0.9995034
000050 2d 22 31 3f 56 c3 2f bf 4e 8d f3 3e 02 61 82 bf
       0.69192773 -0.68657434 0.47568744 -1.0185854
000060 8c 87 ba 3f ee a0 f0 bd b6 a2 27 3f 73 4c 64 bf
       1.4572616 -0.11749445 0.6548265 -0.8917915
000070 7f 9a e4 3e 58 61 06 bf b9 97 06 bf 52 ad 05 bf
       0.4464912 -0.52492285 -0.5257526 -0.5221759
000080 2b cd 9a bd 0c 9b 3d 3f 29 c2 06 bf 73 52 22 bf
       -0.07558664 0.7406471 -0.52640015 -0.6340706
000090 68 3e 6c 3e 56 3b 34 3f 9b a2 44 3e b2 39 fb be
       0.23070681 0.7040304 0.19202654 -0.49067456
0000a0 ea 43 2e be 28 ab 5e 3e 0a b8 ce 3e d0 cf 43 be
       -0.17018095 0.21744978 0.40374786 -0.19122243
0000b0 32 9b f4 bf 1c 3a 6a 3f 38 62 7f bf f4 98 63 3f
       -1.9109862 0.9149492 -0.99759245 0.8890526
0000c0 3c 36 28 3d 7f 88 90 bf 05 85 0b bf de 19 c1 3e
       0.041067347 -1.1291655 -0.54499847 0.37715048
0000d0 94 ec 00 3f 66 9e dd 3e ce 24 e7 3d 80 00 8c 3c
       0.5036099 0.4328491 0.11286317 0.017090082
0000e0 33 a3 04 3c b7 e3 b8 be 38 74 e0 be 30 7f 38 be
       0.00809555 -0.36111233 -0.43838668 -0.18017268
0000f0 87 d2 0a 3f 12 61 19 bf 7e be 31 3f c8 79 2f bf
       0.5422749 -0.5991374 0.69431293 -0.685452
000100 96 31 9a bf e7 3b 92 be a8 99 98 3e df 94 28 bf
       -1.2046382 -0.28561327 0.2980473 -0.6585216
000110 cc d1 a7 bf 02 58 a9 be 8c e4 2f 3f 06 48 09 bd
       -1.31109 -0.33074957 0.6870811 -0.033515953
000120 75 19 0c bf b7 72 40 3f f2 3c fa bd 11 69 b7 bc
       -0.54726344 0.7517504 -0.12218656 -0.022388967
000130 ff 89 84 3e f6 8c d8 be 62 27 a8 bb 1e ee d8 be
       0.25886533 -0.42295045 -0.005131648 -0.4236917

decoder.0.bias f4 [20]
000000 3f 84 34 bf 11 7b 4e 3e a9 8f a8 be c2 0b 9b 3c
       -0.7051429 0.20164134 -0.32922104 0.018926505
000010 62 0a 7d be db b1 28 3e 92 c0 c6 3d da 6f 82 3e
       -0.24710992 0.16474096 0.097046986 0.2547596
000020 88 a3 71 bd a4 a7 07 3f 5c e5 1d 3e 5f 68 32 be
       -0.058993846 0.52990174 0.15419525 -0.17422627
000030 15 c5 bf bd 2b df d3 be a5 4a f3 be 03 21 8a bc
       -0.09363762 -0.413812 -0.47517887 -0.016861444
000040 bb 33 af be 3a e9 dd be b2 c4 4a 3e 72 9e 10 3e
       -0.34219155 -0.43342 0.19801596 0.14122942

decoder.2.weight f4 [50, 20]
000000 b9 d8 c1 3e 3e 09 fd be 1b 4e 35 be 5f 54 b9 be
       0.3786066 -0.49421114 -0.17705576 -0.36197183
000010 55 52 d0 bc 5a f8 17 3e b0 73 91 3d 42 3c 39 3e
       -0.025429884 0.14840832 0.07102144 0.18089393
000020 97 0a 50 3e 84 07 0d 3e 26 ac 0b 3d 37 a5 1d 3d
       0.2031654 0.13772398 0.03409972 0.03848764
000030 3f 80 81 be 39 60 b0 3d d4 86 5c 3e 7c 4a ce 3e
       -0.25293157 0.08612103 0.21535808 0.40291202
000040 d3 11 10 3e 9a fe 45 3e e8 55 9f 3d 60 6f d1 bd
       0.140693 0.19335404 0.07780057 -0.10226321
000050 1c f3 1b be 4f cc 7f bd b7 a4 5f bb d9 95 b0 3d
       -0.15229458 -0.062450703 -0.0034125277 0.08622331
000060 bf 56 0f be 95 62 1a be 46 77 7e 3e 59 e7 b0 bb
       -0.13997935 -0.15076669 0.24850187 -0.0053986725
000070 d6 0a 57 be 4b 21 1f be a1 5a be 3d 27 1b 26 3d
       -0.21000227 -0.15540044 0.0929463 0.04055324
000080 d7 09 fb 3d 24 b3 1b be f3 58 b0 bd 6c 73 b2 3d
       0.12257736 -0.15205055 -0.08610716 0.08713421
000090 1a d8 9f 3c 47 20 59 3e 44 23 6d be 0d 02 24 3e
       0.019512225 0.21203719 -0.23157984 0.16016407
0000a0 8c e2 ff bd 22 73 4c 3e 79 63 31 3e fe d9 f9 38
       -0.12494382 0.19965795 0.17323102 0.000119138494
0000b0 f8 a5 c5 3b a9 05 3e 3e 6a a6 1c 3e 16 41 29 bd
       0.006031748 0.18556847 0.15297857 -0.041321836
0000c0 1f 29 00 be e0 09 13 3e 69 05 84 bd ad b8 15 bd
       -0.12515686 0.14359236 -0.064463444 -0.036553074
0000d0 9b 1a 13 3e 66 4c 4b 3d ad 52 a0 bd 57 ed 58 3e
       0.14365618 0.049633406 -0.07828269 0.21184288
0000e0 7c e6 96 3b d2 4c 02 be 0b 2b ac bd 7e 95 75 3d
       0.0046051126 -0.12724617 -0.08406647 0.05995702
0000f0 1f ba d8 bd 9f 31 d4 3d fa 1a 7e bd 85 b1 ae bd
       -0.10582375 0.10361027 -0.062037446 -0.08529953
000100 92 7e 6c be 4f 11 44 bd 84 5f 36 3e e2 d7 5c 3e
       -0.23095158 -0.04786807 0.17809874 0.21566728
000110 09 0e 20 bc b1 2b 2a 3d 60 e8 b4 bc aa 8b 2a 3e
       -0.009768971 0.041545574 -0.022083461 0.1665484
000120 24 23 04 3d 4a b3 a7 bd f3 1b 61 be 9a 58 82 3d
       0.032260075 -0.081884935 -0.21983318 0.06364556
000130 dc 9f 00 3e 20 b6 1b 3d 29 8b a5 3d 36 e0 bd bd
       0.12560982 0.038015485 0.08083183 -0.092712805
000140 12 ee f3 be ed 16 b1 be b7 dd 48 3e 09 9b bb 3d
       -0.4764257 -0.34587803 0.19615828 0.0916043
000150 65 ac 5f be 53 b3 ae bc 6f 03 bc 3e 81 bb 63 be
       -0.21843107 -0.021325743 0.3672137 -0.22239496
000160 34 2c aa bd 69 6c 62 be 78 ca e2 bd 4f ee 49 3e
       -0.08309212 -0.22111668 -0.11073774 0.19719814
000170 4d b9 8d 3e 4d 89 0a be 0d 2f cd bd 1c f2 ae 3e
       0.27680436 -0.13528939 -0.1001874 0.3416909
000180 97 e3 80 3e d9 13 4b 3e af 3f 20 3e d3 40 1b 3e
       0.25173637 0.1983179 0.15649293 0.15161447
000190 73 c2 1f 3e d9 af a2 3e 5a f9 84 3e 71 cc 33 be
       0.1560152 0.31774786 0.2597149 -0.17558457
0001a0 d3 40 97 3e e3 2e ae 3e 6f 6a 65 3e 29 cd 09 bf
       0.29541644 0.34020147 0.22403882 -0.53828675
0001b0 12 b2 30 3e 9d ba 3d 3e 33 bb 0b be b3 1c 9e be
       0.17255428 0.18528219 -0.1364563 -0.3088127
0001c0 99 84 09 be 04 98 33 be 23 3a 04 3e 06 38 4d 3e
       -0.13429488 -0.17538458 0.12912802 0.20040902
0001d0 50 e4 0d 3c e5 a1 d4 be 07 87 10 3d 44 ad 9e 3b
       0.008660391 -0.41529766 0.035285022 0.004842432
0001e0 fc a7 53 3e 57 4a 51 be 08 77 2f 3d c5 51 16 bd
       0.2066955 -0.20438515 0.042838126 -0.036699075
0001f0 a9 5a f9 3d de 0d 60 3e b7 ae c3 3c ce dc b9 bd
       0.12175495 0.2188029 0.023887021 -0.09075318
000200 43 5c f4 bd db 38 57 3e e5 1b 66 bd 8b ad 03 3e
       -0.1193166 0.21017782 -0.056178946 0.1285917
000210 b9 9b c3 bd 40 5c 63 be ca 82 53 be 9d 15 18 3e
       -0.09551186 -0.2220316 -0.20655361 0.14851995
000220 0f 70 5a be 6d 6f 37 bd a1 86 db bc c1 04 ed bd
       -0.2133181 -0.044784 -0.026797595 -0.11573172
000230 db 6e 06 be 9e 01 9c bd 33 5a ef bd 58 80 da bc
       -0.13128226 -0.07617496 -0.11687126 -0.026672527
000240 e7 11 1a be e2 da 13 3b a0 2a 8f 3e 62 25 29 3d
       -0.15045892 0.0022560884 0.27962208 0.041295417
000250 2e c4 08 3e 0a 78 36 3e 2e 22 80 bd 90 a5 13 3e
       0.13356087 0.17819229 -0.06256519 0.14418626
000260 9f 24 93 3d c9 54 28 be 21 93 13 be 40 a0 7f bc
       0.07184719 -0.16438593 -0.14411594 -0.015602171
000270 27 15 f1 3d 8d 30 9d 3d c1 8c 8a be bb 36 c2 bc
       0.117716126 0.07675276 -0.27060512 -0.023707738
000280 11 c7 f4 3e a9 6f 91 3e b8 b7 86 3e c2 c4 88 be
       0.47808126 0.28405502 0.2631204 -0.26712614
000290 db 2a ce 3e 9d 5c 38 3e 06 a0 73 3e a5 75 af be
       0.4026707 0.18004079 0.23791513 -0.34269443
0002a0 3a d7 88 3d c0 6e a2 3d 65 77 15 3e 6e d0 73 3d
       0.06681676 0.0793128 0.14596327 0.059524946
0002b0 b4 fc a4 bd e8 5c a7 3c df 1b 25 be 81 e3 91 be
       -0.08056012 0.020430043 -0.16123913 -0.28493884
0002c0 2e a3 3f be 74 03 82 bd ff f2 2e 3c 55 9e 55 3d
       -0.18714592 -0.06348315 0.010678052 0.05215295
0002d0 13 a6 7e 3e 89 9f 05 bd 1c 42 79 3e 03 17 c1 3d
       0.2486804 -0.032622848 0.24341625 0.09428217
0002e0 37 36 1d 3c 56 8d 91 be 9b 28 de bd 8b 2f e7 bd
       0.009595445 -0.28428143 -0.10847589 -0.11288365
0002f0 3e e6 e7 bd 61 27 e6 3d 51 41 1d 3e c0 f2 66 3e
       -0.11323212 0.1123798 0.15356947 0.2255354
000300 76 b7 53 bd ff 09 ea bd 94 ea e2 3d 35 6e 9a be
       -0.051688634 -0.11427688 0.110798985 -0.30162206
000310 fc 99 76 be a2 45 22 3e 56 f7 3f 3e 4f 34 00 3e
       -0.24082178 0.15846875 0.18746695 0.12519954
000320 86 9a 29 bd 21 ff 31 3e af 49 ed bd bc b4 9f bc
       -0.04140713 0.1738248 -0.1158632 -0.01949536
000330 3b b0 52 3e 82 fc 44 3e 6d c5 89 3e 51 48 e6 3d
       0.20575039 0.19236949 0.26908436 0.11244262
000340 a9 02 06 3e 5f 43 20 bd aa 50 8b 3d a0 5e 09 3e
       0.13086952 -0.03912675 0.06802495 0.13415003
000350 e5 41 18 be 64 d9 0e bd 70 65 94 3d 89 28 64 be
       -0.14868887 -0.03487529 0.0724591 -0.22281088
000360 4a d2 89 3e 0f 86 17 be 30 af 77 3e 01 a5 33 bd
       0.2691825 -0.14797233 0.24187922 -0.04385853
000370 7c f7 41 3e 78 93 eb 3d 7b 05 8b 3c 9d cd 4a 3e
       0.18942064 0.11502737 0.016970387 0.19804998
000380 da 19 ee bd 02 50 14 be 2d 47 5d be c5 64 5b 3e
       -0.116260245 -0.14483646 -0.21609183 0.2142516
000390 32 0f a7 bd 88 9a 34 be d3 36 82 be f0 71 5a be
       -0.08157195 -0.17637074 -0.25432453 -0.21332526
0003a0 87 57 82 3d 8e 2d bd bd 1d e7 7b bd 13 dd 62 be
       0.06364351 -0.092372045 -0.061499704 -0.22154646
0003b0 b8 f2 12 be c0 7e c5 3b 0d 27 3e bd c1 44 d4 3d
       -0.14350402 0.0060270727 -0.04642396 0.10364676
0003c0 99 df 35 bd b8 9c 65 3e 60 4c e2 bb 01 00 bf 3e
       -0.044402692 0.22423065 -0.0069060773 0.3730469
0003d0 b9 84 a9 3b 70 6f 12 bd 99 7e a4 bd 66 29 37 3c
       0.0051732925 -0.035750806 -0.08031959 0.011179304
0003e0 65 a3 1d 3e 74 86 90 3e 00 9a 13 3e 3c 65 92 be
       0.15394361 0.2822758 0.14414215 -0.2859286
0003f0 a8 bd af 3e e9 14 dd bd f0 13 fb 3d d3 9a 78 3d
       0.34324384 -0.10795004 0.12259662 0.060694527

decoder.2.bias f4 [50]
000000 c9 52 80 3e c0 b1 a7 bd ab 5d f7 3c 8a 7f f2 3d
       0.2506316 -0.081882 0.030196032 0.118407324
000010 6f 4e c2 3d d1 92 53 3e af 44 03 be 85 02 0a 3e
       0.09487616 0.20661475 -0.1281917 0.13477524
000020 20 82 3c 3e 8f 12 35 be d9 c9 76 3d 66 65 f3 bd
       0.18409014 -0.17682861 0.06025109 -0.118845746
000030 48 40 22 be 24 95 86 be c7 e7 5a be 6e 7b 8a bd
       -0.15844834 -0.2628566 -0.21377479 -0.067618236
000040 4a 66 92 be b4 9e b5 3c 5e b3 b5 bd ce 79 bf bd
       -0.28593665 0.022170402 -0.08872102 -0.09349404
000050 c9 88 0e 3e e6 0b 47 3c 79 90 c5 bd af e4 c9 3b
       0.13919367 0.012148833 -0.096466966 0.0061612944
000060 56 47 1e 3e 86 6d 93 3d 39 1a 6f be a4 4a 8f be
       0.154569 0.07198624 -0.23349847 -0.27986634
000070 f8 93 12 3e 84 2e 12 be 53 b8 48 be 72 52 ae 3d
       0.14314258 -0.14275557 -0.19601564 0.08511819
000080 a4 ea d4 3d ed c2 f8 3b 27 1a 61 be 96 09 88 bd
       0.10396317 0.0075915963 -0.21982633 -0.06642453
000090 45 d8 a3 be 75 9d be 3b a3 31 ed 3d e3 cb 2a be
       -0.32000938 0.00581711 0.11581733 -0.16679339
0000a0 70 3d 18 be af 43 89 bd 49 6a 04 be 3f a0 48 be
       -0.14867187 -0.06702363 -0.1293117 -0.19592379
0000b0 3f b8 d1 3e cf 7a d4 3d 9a 5d 8f 3c c7 6a cf bd
       0.4096088 0.103749864 0.017500687 -0.10127788
0000c0 b0 0b c0 bd 46 f7 80 be
       -0.09377229 -0.25188655

decoder.4.weight f4 [50, 50]
000000 33 05 35 3d 7a 4d 07 be 39 64 a3 bd 1f 4f 67 bd
       0.04419441 -0.13213149 -0.079781 -0.05647194
000010 c5 ab 93 3c 90 96 58 bd 29 b0 c9 bd 2c 4a 0f bd
       0.018026242 -0.052877963 -0.09848053 -0.034982845
000020 69 30 80 bd ff 0e c7 3c df 2f 8b 3d f2 be 03 3c
       -0.062592335 0.024299143 0.0679624 0.00804113
000030 2d 93 d6 bd fa 50 d5 bd 05 69 fe 3d 4b b5 81 bd
       -0.1047729 -0.10415836 0.12422375 -0.06333407
000040 f6 ea 38 3c f5 4f a1 bd 92 63 0e 3c 63 4d ab bc
       0.011286488 -0.07876579 0.008690732 -0.020910924
000050 5d 1b d0 bd 9b 18 ad bd f0 19 d2 bd 08 23 c0 3d
       -0.10161469 -0.08451959 -0.102588534 0.09381682
000060 bc b4 af bd 82 a7 09 3e c7 e6 0c be 23 bd 77 bd
       -0.08579394 0.13442805 -0.1375991 -0.06048311
000070 9b ea f2 bd 91 a8 e2 bd 5c 76 00 3e f9 9f ce 3d
       -0.11861154 -0.11067308 0.1254515 0.10089106
000080 b0 8e 22 3d ac 9c 1c bb b5 e6 05 be f9 b6 e4 bd
       0.03968686 -0.0023897095 -0.13076289 -0.11167712
000090 93 3d ec 3c a8 3d 67 bd 57 c5 0b be b9 60 19 3d
       0.028837955 -0.056455284 -0.13649498 0.037445758
0000a0 de 2a bb 3c c1 11 af bd d2 d9 91 3c 13 28 9a bd
       0.02284759 -0.08548308 0.01780406 -0.07527175
0000b0 6b 9d a6 bd d3 6f 04 3e ad 23 f6 3d 78 f6 05 bc
       -0.08135494 0.12933283 0.12018523 -0.0081764385
0000c0 53 46 9e bd 0d a9 b7 bd c2 8c 27 be da 53 bf bd
       -0.07728257 -0.08967791 -0.16362289 -0.09342165
0000d0 54 5f 16 3b 5f 29 3d bc a2 56 8c bd 2e 73 09 3e
       0.0022945004 -0.011545508 -0.068524614 0.13422844
0000e0 fd dd 25 3c 94 23 78 bd a9 1f 13 3e df b0 35 3d
       0.010123727 -0.060580805 0.14367546 0.04435813
0000f0 e1 ab 05 3e 4c 4a fc 3d 37 b9 13 3e de 6d 0a 3e
       0.13053848 0.123188585 0.14426123 0.13518474
000100 28 10 b4 be 9f 8d 68 bd 7d b3 71 3e fb 63 31 3d
       -0.35168576 -0.056775685 0.23603626 0.04330824
000110 2c e2 b3 3d 22 04 7f 3c 7c d8 00 be 8d 0a dc 3d
       0.08783373 0.01556495 -0.12582582 0.107442
000120 01 40 40 bc 59 0f e9 3d 71 f8 ed 3d 51 03 3c 3e
       -0.01173401 0.113798805 0.11619652 0.1836064
000130 38 c0 38 3e 4a 49 0e be 0b db 80 3e 41 e0 92 bc
       0.18042076 -0.13895145 0.25167117 -0.017929198
000140 59 83 08 be 51 40 9b bd de dd 07 be c5 8b 22 3e
       -0.13331355 -0.07580627 -0.1326823 0.1587363
000150 21 b5 3a 3e 64 66 31 bc f7 55 48 3d 73 49 0c 3e
       0.18233158 -0.0108276345 0.048910107 0.13699894
000160 f4 0d 08 be c0 d0 22 3e c0 5a 1b be 4c 4f 33 be
       -0.13286573 0.15899944 -0.15171337 -0.17510718
000170 9c be 75 bd a0 b8 f9 3d 6c d1 26 3e e1 1e 62 bc
       -0.059996232 0.121934175 0.16290826 -0.013801307
000180 56 f0 ea bc 39 46 00 3e b3 ae 34 bd ca 8c b8 3e
       -0.028679054 0.12526788 -0.04411192 0.36044914
000190 3b 0b 92 3e 43 0b 27 be fd 9c d3 bd 14 28 c2 bd
       0.28524193 -0.1631289 -0.103326775 -0.094803005
0001a0 db 6f ec 3d 6e 9f 61 3d 85 64 fe bd 2c f9 97 bd
       0.11544772 0.055083685 -0.12421516 -0.07420573
0001b0 ac 43 6a 3d 47 87 8f bd b6 0b d7 bd 98 0a a9 3c
       0.057193443 -0.07008224 -0.105002806 0.020634934
0001c0 19 b5 77 be 19 48 90 3d ab ad 80 3e 9f 1c 24 bc
       -0.24190177 0.070450015 0.25132498 -0.010016589
0001d0 25 33 d5 3d 33 a1 09 be 2f ff d7 bb 90 b8 98 bd
       0.10410146 -0.13440399 -0.0065916996 -0.074570775
0001e0 df aa a2 3d 05 f6 97 bd 33 53 cf bd ff fa 61 bd
       0.07942747 -0.074199714 -0.10123291 -0.05517101
0001f0 2e ec 48 3d 7e ff e0 bc 0c d1 bf 3c 04 cb 81 bd
       0.049053364 -0.027465578 0.023415111 -0.0633755
000200 38 c8 15 bd 0c 07 04 be 99 13 eb 3c a1 f1 bb bd
       -0.036567897 -0.12893313 0.028695868 -0.091769464
000210 d8 ad eb 3c 56 87 ee 3d e5 ca d0 bd 03 32 a2 3c
       0.028769419 0.11646907 -0.10194949 0.019799238
000220 fa 56 e4 3d d8 b4 02 3e a7 f4 ed bd 6d b7 03 3d
       0.11149402 0.12764299 -0.11618929 0.03215735
000230 5e ce 16 3d b0 fe 9d 3d ef bc cc 3d 7f 2b e2 3c
       0.0368179 0.077145934 0.09996974 0.027608631
000240 7e eb 9c 3e 70 47 06 be de e1 6f 3d 3d fd 6b be
       0.30648416 -0.13113189 0.058565013 -0.23045821
000250 b1 ca 51 3c f6 79 ca 3e a0 bc 99 bd 04 f2 b7 bd
       0.012804673 0.39546174 -0.075066805 -0.08981708
000260 57 2a fd bc 69 25 36 3e 40 a9 0b be 6d 91 4a be
       -0.030903978 0.17787708 -0.13638783 -0.19782038
000270 aa 6b f9 3d cb 36 e0 bc a9 51 1d 3d 6d a9 94 3d
       0.121787384 -0.027369877 0.038407955 0.07258878
000280 45 33 90 bb 38 e9 85 bd c9 de d8 bd 6c 7e d6 3e
       -0.004400643 -0.065386236 -0.10589368 0.41893327
000290 84 a4 3e bd 6b 9f 9d be f0 9a 5f bd 23 c0 3a bd
       -0.046543613 -0.3078569 -0.05459112 -0.045593392
0002a0 f7 c5 11 bb a9 e2 10 3e bf 3a 9a 3e c3 b9 a2 3d
       -0.002224324 0.14148964 0.30122945 0.079455875
0002b0 1a 30 5b bd 49 e3 86 3d d0 65 10 3e d5 0b 27 bd
       -0.05351267 0.0658632 0.14101338 -0.04078277
0002c0 b2 98 25 be f8 31 68 bc d7 1b b8 3d a5 69 2c 3d
       -0.1617153 -0.01417207 0.08989685 0.042092938
0002d0 9c 4b f7 bd df c5 6e 3e b7 ec fd bd 16 72 11 bd
       -0.12074968 0.2331767 -0.123986654 -0.03550919
0002e0 f3 83 8f bb 72 1e 80 bd 1a 2e 8a 3e 95 ac 8a bb
       -0.0043797432 -0.06255807 0.26988298 -0.004231999
0002f0 91 d4 c2 3b 34 71 a0 3d 7c 62 c1 3d 74 92 9c 3e
       0.00594575 0.07834092 0.094426125 0.30580485
000300 06 4e 18 3d d2 08 d8 3d 4d 9e 74 3e 15 23 aa 3c
       0.037183784 0.10548557 0.23888512 0.020768682
000310 36 7b 87 3e 31 b1 66 be f8 9c bb 3d 34 00 c0 be
       0.2646119 -0.2252853 0.09160799 -0.37500155
000320 37 92 2f 3e 2c d2 a2 bc 13 b0 11 3d e1 3c 41 bb
       0.1714562 -0.019875608 0.035568308 -0.002948575
000330 16 ea 65 3c 69 cd 8a 3b 65 aa b1 3c 68 0a 0f 3d
       0.014032861 0.0042359126 0.021687696 0.034922034
000340 a9 55 7b 3d b2 22 60 3e 1b e7 85 bd 08 c1 30 3e
       0.06136099 0.21888235 -0.065382205 0.17261136
000350 ee ba 1b be d6 a2 06 3f e0 41 0f 3e 24 fa 32 be
       -0.15208027 0.5259222 0.13989973 -0.17478234
000360 6e 8d aa 3e 7b 67 0c be 2a cc 12 3e cc 19 a5 3d
       0.33311027 -0.1371135 0.14335695 0.08061561
000370 ba f5 71 3d ed 1d c4 bb 42 e6 90 ba a9 c3 84 bd
       0.059072234 -0.0059850127 -0.001105495 -0.06482632
000380 ff ad 1a bd 78 fe e4 3d 5f 7e 49 3d a4 c2 5a be
       -0.03776359 0.111813486 0.049192782 -0.21363312
000390 58 7f 8e bd b4 ba 87 be 32 1a fd 3d a2 17 8a 3b
       -0.06957883 -0.2650963 0.12358512 0.004214243
0003a0 f4 fd 21 3a e9 3e 28 3e 3e c9 15 3d 93 3c df 3d
       0.00061795046 0.16430248 0.036568873 0.109002255
0003b0 a0 54 cc 3e 14 1f 01 be 92 77 c7 3d a5 b0 b2 3e
       0.39908314 -0.12609512 0.09739603 0.34900394
0003c0 a7 3c c8 bc 1c f1 de 3d b2 1a cf 3d 8a b9 aa 3d
       -0.024442984 0.10885832 0.101125136 0.0833617
0003d0 05 3e 97 3e 19 a0 8a 3d 82 17 88 3c 17 94 39 3d
       0.29539505 0.067688175 0.016612772 0.045307245
0003e0 51 f6 38 3e da 40 eb be b5 31 cf bc af fe c0 bc
       0.18062712 -0.45947915 -0.025292257 -0.023558943
0003f0 36 d8 bd 3d 24 b5 bb 3c d1 11 e8 3d 9b e1 be 3b
       0.092697546 0.022913523 0.11331523 0.005825234

decoder.4.bias f4 [50]
000000 e9 30 00 be e3 79 fa 3d 4f 3d 98 3e 83 c6 fb 3c
       -0.12518658 0.12230279 0.29734275 0.030734306
000010 2b 08 37 3e 3d 92 f8 bd 7e 69 8f be f7 27 19 3d
       0.1787421 -0.12137268 -0.28010172 0.03739163
000020 72 8d 16 be d4 41 86 3d 6d bc 0e be 3c dc e7 bd
       -0.14702395 0.065555245 -0.13939066 -0.11321303
000030 65 3b 19 be 1a 07 f9 3b 71 3a df bb b8 db 2b be
       -0.14964063 0.0075997235 -0.0068123867 -0.16783035
000040 e2 c7 01 bd a6 ce 80 bc e9 ad a4 3d e0 94 d4 bd
       -0.031684764 -0.015723538 0.08040983 -0.10379958
000050 35 5b cd bd 20 88 aa 3d 67 08 56 3e 51 f6 a0 bc
       -0.10027162 0.08326745 0.20901643 -0.019648703
000060 19 2b 83 3d a4 8b b1 bd f2 b4 c5 bd e1 d5 7e bd
       0.064047046 -0.086692125 -0.09653653 -0.06221569
000070 77 f5 41 bd 63 83 29 3e 4a ca 90 3d 2b f9 1a 3e
       -0.047353234 0.16554026 0.070698336 0.15134113
000080 dd f1 fb 3b 36 3e db bc b9 f8 80 3d fe d4 12 3d
       0.0076887445 -0.026763063 0.0629744 0.035847656
000090 44 46 e9 3d ba 79 2b 3e cb ca 20 3e 67 91 20 bb
       0.11390355 0.16745654 0.1570236 -0.002450073
0000a0 df 39 48 bd cc d8 a4 bd 9f 6f 63 3e 7d 0d 8c 3d
       -0.048883315 -0.08049163 0.22210549 0.0683851
0000b0 3c 81 05 be f5 b3 99 bd c5 ce 18 bc c7 31 ba bd
       -0.1303758 -0.07505027 -0.009326641 -0.090915255
0000c0 d7 2b 7a 3e 6d cc e1 bb
       0.24430786 -0.0068908245
